HFRDL_UNIT4/models/pixelcopter_policy_state_dict.pt (torch, 39773 bytes, 6 tensors)

fc1.weight f4 [64, 7]
-0.16910996 -0.3937594 0.014961466 0.1865272 -0.12939778 -0.14364006 0.16392519 0.02079955
-0.17737424 0.32144582 0.26746356 -0.3525368 0.2474526 -0.28341708 -0.17276695 0.23323128
0.04951109 0.1393463 -0.26089874 0.16396928 0.039702337 0.18111011 0.040889174 0.27492422
-0.053893637 0.30700803 0.22813128 -0.3164927 0.32018408 -0.6101874 0.20614454 0.2435614
-0.28279287 -0.06044083 0.14747995 0.015501295 -0.18993403 -0.16481723 0.15153758 -0.1752554
-0.15380076 0.30573422 -0.31871116 -0.08048072 -0.12242676 -0.106193155 -0.035578694 0.14983526
0.035093945 -0.09746284 -0.29549614 -0.06647304 0.16816339 0.10769156 -0.27660006 -0.21713436
-0.056080237 0.17923816 0.040594317 -0.24954158 -0.31603515 -0.3369708 0.32877785 0.24067098
-0.64649296 -0.117352314 0.20652203 -0.25291353 0.025092645 0.27150083 -0.22539395 -0.098298825
-0.34035417 0.30255002 -0.17306872 0.36125442 0.29314977 0.04388337 0.07983804 -0.009030209
-0.34733552 -0.2529439 -0.35319987 -0.18061985 -0.012469524 -0.49586207 0.08530415 0.39817876
-0.25821584 0.32875285 0.15080824 -0.1294785 0.1543686 -0.29320803 -0.14812164 0.07294704
-0.1333949 -0.3686145 -0.15567979 0.727525 0.059948247 -0.23477937 0.2307646 -0.15218444
0.18154623 0.30940494 -0.2572307 0.00071411795 0.3550679 0.036860835 -0.2292538 0.26027858
0.35277387 0.7010057 0.06448201 -0.024049928 -0.2457963 -0.015493108 0.17393525 0.171585
0.76716316 0.15290895 -0.10466881 -0.3054862 -0.06881705 0.22867504 -0.022226902 -0.2882611
-0.3001038 -0.10180874 0.22053798 -0.34934688 -0.10227127 -0.008240508 -0.42328247 0.2886203
0.29930303 0.055003174 0.03902685 0.11891266 -0.3232376 -0.1799038 -0.23765783 0.26154864
0.21874398 -0.022225332 0.22465321 0.19205062 -0.5916135 -0.10566662 0.3582715 -0.24760425
-0.16565903 0.2794175 0.19445123 0.7639142 -0.3239263 -0.3372779 -0.09637492 0.2403604
0.10199691 -0.31609997 0.2208925 0.27850926 -0.10814952 0.21500993 -0.17316966 -0.31205744
0.19712436 0.56843275 0.09555383 -0.10966567 0.35423118 0.13527411 -0.3406171 -0.18941486
-0.1568934 0.11340664 0.36076623 -0.1616303 0.16819796 0.11259639 0.03897895 -0.8133918
0.17215003 0.0037709146 0.12758602 -0.28431275 0.23225594 -0.30268043 0.07152639 -0.28281632
-0.09920619 -0.3522054 -0.22139786 -0.16483968 0.07073888 0.37985173 0.34681973 0.17348075
0.19863924 -0.042179354 -0.31121707 -0.21371745 0.19292173 -0.36995488 -0.3093543 0.24216339
0.17311665 -0.1539525 0.36760673 0.7400991 0.37986657 -0.039086957 -0.1404932 -0.16915427
-0.110627204 -0.34142348 -0.37389654 0.027271835 -0.10966635 0.33788446 0.23772581 -0.29647538
0.30522034 0.21213582 0.18309267 0.24976966 0.18262073 0.31407946 0.26447183 -0.2813901
0.23700012 -0.060660873 0.27467647 -0.17467913 0.20963852 -0.04248881 0.04256325 0.21018676
-0.07804531 0.16551386 -0.19687831 0.057690147 -0.26702332 -0.30921626 -0.19106309 0.049029037
-0.038735673 0.050387524 0.27551523 -0.028973548 -0.08431651 -0.18220294 0.24074438 0.05883635
00000000: 292b 2dbe d59a c9be f020 753c fc00 3f3e
00000010: da80 04be 6116 13be 01dc 273e d163 aa3c
00000020: 98a1 35be 8c94 a43e fcf0 883e b47f b4be
00000030: 3764 7d3e 0b1c 91be d2e9 30be 2ed4 6e3e
00000040: 24cc 4a3d ccb0 0e3e 8594 85be 90e7 273e
00000050: eb9e 223d ee74 393e 687b 273d dec2 8c3e
00000060: 93bf 5cbd 2830 9d3e 3f9b 693e 550b a2be
00000070: 2bef a33e 3e35 1cbf 8e17 533e 2968 793e
00000080: 3aca 90be ce90 77bd fc04 173e 25f9 7d3c
00000090: 117e 42be d9c5 28be ab2c 1b3e 2776 33be
000000a0: f27d 1dbe 3289 9c3e 1c2e a3be 13d3 a4bd
000000b0: e2ba fabd cc7b d9bd f7ba 11bd 6a6e 193e
000000c0: abbe 0f3d 999a c7bd 454b 97be 0423 88bd
000000d0: 0633 2c3e 658d dc3d 869e 8dbe 7858 5ebe
000000e0: 64b4 65bd 358a 373e 3a46 263d d487 7fbe
000000f0: 5ccf a1be 7087 acbe 9255 a83e 7472 763e
00000100: 9080 25bf 6956 f0bd 837a 533e e27d 81be
00000110: 178f cd3c 2802 8b3e accd 66be e550 c9bd
00000120: e742 aebe d6e7 9a3e ed38 31be 57f6 b83e
00000130: ba17 963e 0cbf 333d 2082 a33d 71f3 13bc
00000140: f6d5 b1be dd81 81be 9dd6 b4be 69f4 38be
00000150: f94c 4cbc a2e1 fdbe f1b3 ae3d 16de cb3e
00000160: de34 84be 4b52 a83e 7a6d 1a3e 0396 04be
00000170: cd12 1e3e 5d1f 96be 33ad 17be 4265 953d
00000180: ac98 08be 0abb bcbe 866a 1fbe 143f 3a3f
00000190: 4b8c 753d 016a 70be 8e4d 6c3e 3dd6 1bbe
000001a0: 41e7 393e 536a 9e3e beb3 83be a533 3b3a
000001b0: 76cb b53e 63fb 163d 82c1 6abe 3c43 853e
000001c0: c79e b43e 1c75 333f 250f 843d 5b04 c5bc
000001d0: 06b2 7bbe ced6 7dbc 151c 323e fab3 2f3e
000001e0: ce64 443f 2a94 1c3e 9a5c d6bd b068 9cbe
000001f0: f4ef 8cbd ca29 6a3e 3115 b6bc f596 93be
00000200: 35a7 99be 1a81 d0bd b5d4 613e 98dd b2be
00000210: 9973 d1bd 3203 07bc 7bb8 d8be 0ac6 933e
00000220: 3f3e 993e 024b 613d 9eda 1f3d 7b88 f33d
00000230: 667f a5be b438 38be 935c 73be b4e9 853e
00000240: 6cfe 5f3e e611 b6bc 7e0b 663e eba8 443e
00000250: fb73 17bf be67 d8bd 5d6f b73e f88b 7dbe
00000260: 85a2 29be d00f 8f3e 391e 473e e28f 433f
00000270: abd9 a5be b0af acbe 3760 c5bd 0921 763e
00000280: c2e3 d03d dbd7 a1be a531 623e c498 8e3e
00000290: 7f7d ddbd 902b 5c3e 6353 31be fec5 9fbe
000002a0: f8da 493e cf84 113f bab1 c33d 6598 e0bd
000002b0: ca5d b53e 4c85 0a3e 5d65 aebe f8f5 41be
000002c0: aaa8 20be be41 e83d 5ab6 b83e 6a82 25be
000002d0: 163c 2c3e f098 e63d 64a8 1f3d 723a 50bf
000002e0: 1948 303e 7321 773b e9a5 023e 7191 91be
000002f0: 80d4 6d3e eef8 9abe 6e7c 923d 4dcd 90be
00000300: 9d2c cbbd 4454 b4be 1fb6 62be bccb 28be
00000310: 8cdf 903d ed7b c23e 5b92 b13e f0a4 313e
00000320: 1668 4b3e 42c4 2cbd d857 9fbe bfd8 5abe
00000330: 468d 453e ba6a bdbe b063 9ebe aef9 773e
00000340: 7e45 313e b9a5 1dbe f336 bc3e 2277 3d3f
00000350: df7d c23e a519 20bd 73dd 0fbe c736 2dbe
00000360: 8490 e2bd 0fcf aebe 5e6f bfbe 2f69 df3c
00000370: c098 e0bd 31ff ac3e 656e 733e 9fcb 97be
00000380: d745 9c3e 223a 593e a57c 3b3e 9ec3 7f3e
00000390: ee00 3b3e 06cf a03e da68 873e 5d12 90be
000003a0: 29b0 723e 8977 78bd 65a2 8c3e 16df 32be
000003b0: 7bab 563e bf08 2ebd cd56 2e3d 333b 573e
000003c0: 38d6 9fbd 777c 293e 789a 49be 814c 6c3d
000003d0: 48b7 88be 9851 9ebe 0ba6 43be acd2 483d
000003e0: 4ca9 1ebd 2663 4e3d 5510 8d3e ef59 edbc
000003f0: 22ae acbd 6893 3abe b285 763e 62fe 703d

fc1.bias f4 [64]
-0.22036248 0.14133964 -0.08865466 0.08312899 -0.23502494 0.30788016 0.17986692 0.103829876
0.22428018 -0.17720044 0.11169389 -0.10323229 0.080438495 0.22540116 -0.29064283 0.059035774
0.22540207 0.24690343 0.36016664 0.16973327 -0.35348794 -0.28975463 0.28545135 -0.35866368
-0.15032813 -0.15693036 -0.2714287 0.18697247 0.07074728 0.1060847 -0.18274513 0.14751485
-0.3644495 -0.05187221 0.21843645 0.34557298 0.30757216 -0.13053893 0.07065542 0.36523402
0.09320293 -0.38008997 0.35892877 -0.19217464 -0.08392823 -0.1188922 0.34873345 0.11549857
0.33052826 0.012455115 -0.2789204 -0.12722944 -0.27528518 -0.095690496 -0.21239188 -0.0049091005
-0.056064345 -0.011646779 0.015454319 -0.32472628 0.1098517 0.019569643 -0.106770515 0.041612685
00000000: b4a6 61be 57bb 103e 9390 b5bd 883f aa3d
00000010: 61aa 70be 78a2 9d3e 092f 383e c2a4 d43d
00000020: b4a9 653e 0874 35be c4bf e43d 736b d3bd
00000030: f0bc a43d 90cf 663e 23cf 94be 7fcf 713d
00000040: cdcf 663e 41d4 7c3e c367 b83e 8fce 2d3e
00000050: 5ffc b4be b85a 94be ae26 923e c4a2 b7be
00000060: 9eef 19be 5ab2 20be b4f8 8abe b675 3f3e
00000070: f3e3 903d ef42 d93d 8a21 3bbe 220e 173e
00000080: 2099 babe f477 54bd cead 5f3e f1ee b03e
00000090: 197a 9d3e ffab 05be cab3 903d f4ff ba3e
000000a0: 2ee1 be3d 279b c2be 83c5 b73e 6ec9 44be
000000b0: 90e2 abbd c17d f3bd 318d b23e 848a ec3d
000000c0: 003b a93e 8a10 4c3c a8ce 8ebe 6f48 02be
000000d0: 2ef2 8cbe 61f9 c3bd 427d 59be 85dc a0bb
000000e0: baa3 65bd 22d2 3ebc 1d34 7d3c 8642 a6be
000000f0: eef9 e03d 8450 a03c 80aa dabd 1072 2a3d

fc2.weight f4 [128, 64]
0.08889928 0.138914 -0.17417133 -0.054891504 0.024416264 -0.04500899 -0.07361739 0.11268218
-0.008621055 0.091882356 0.03940195 0.06911203 0.12417602 -0.09619486 -0.011147232 -0.079919405
-0.04679059 -0.11101701 0.015934212 0.044183787 0.027966565 -0.035533413 -0.049778696 -0.05700569
-0.042686906 -0.04705724 0.11533072 0.011857688 -0.05810138 0.07969322 -0.100251704 -0.06894637
0.0904493 -0.04834351 -0.08300473 0.08530561 0.06860757 0.0072148405 0.0370086 0.027511023
-0.033214804 -0.10502843 0.09140886 -0.07558614 -0.022549752 -0.110295616 0.08047707 0.08930338
-0.05035933 -0.047982663 0.0011594694 -0.09366475 0.11206969 -0.042833604 0.028744519 0.18276654
-0.028707108 0.1303521 0.1400258 0.032219566 0.05858848 -0.038612217 0.04356979 0.06413583
-0.03176796 0.008654032 -0.041571815 0.10236346 -0.090679966 0.021511804 0.094029754 0.02712652
-0.0655245 0.107514545 0.029934999 0.022170156 0.099982925 -0.11550371 0.056057025 -0.10453676
0.0546699 0.07312337 0.00017828686 0.051152997 0.040426556 -0.09198719 0.034227636 -0.03717473
-0.1372556 -0.017494965 0.14558 -0.11401774 0.06615683 0.03613488 -0.0005135368 -0.042997666
0.045785647 0.013965031 0.060345814 0.0721136 -0.0052277595 0.023570454 -0.035615865 0.10791105
0.009114009 -0.13460514 -0.049026124 -0.093435004 -0.03428182 0.062250387 -0.04117688 0.060100984
-0.10998212 -0.030509088 -0.13205728 0.08144138 0.06212594 -0.041217748 -0.10176503 -0.02706854
0.08218294 0.077996336 0.05569789 -0.07411395 0.06577947 -0.015043765 0.046739385 -0.010025893
0.07608793 0.09029907 -0.11743516 -0.12965697 -0.089256674 0.13375063 -0.032607794 -0.08386029
0.038219266 -0.027704159 0.13133414 0.030590594 0.036323953 0.08438331 0.050856557 0.07992055
-0.1257706 0.0018631523 0.006227682 -0.030046998 0.1256443 -0.07705621 0.059502725 0.09679262
0.09372712 0.051077433 -0.055291343 -0.032517582 -0.028841635 0.016302617 -0.17259447 -0.060614683
0.113086805 0.10699058 -0.016797647 -0.003875533 -0.056238428 -0.11016965 -0.08438389 -0.068057254
0.082234286 -0.12645474 -0.056389682 0.03246796 -0.109694414 -0.06540196 0.085250236 0.12943697
0.023691356 -0.105732515 -0.014113512 0.01826888 -0.04143782 -0.045279436 -0.0798936 0.09986013
0.001972526 0.051544655 -0.00037868152 0.08300815 -0.06940529 -0.06060174 -0.11078969 0.08123853
0.06562967 -0.08691739 -0.17315105 0.10092378 0.13441506 -0.03717535 -0.06564074 -0.014452666
0.00918637 -0.021721488 0.107447065 -0.08146794 -0.09367263 -0.012492329 -0.09292514 0.044551365
-0.091998965 -0.13354062 0.11024246 0.1135962 0.027737038 -0.087355554 0.0462586 0.017889693
-0.064291164 0.101725414 0.12849914 -0.010334253 0.024749327 -0.0071886517 0.023036962 0.116260774
0.07899475 0.06442543 -0.04243727 -0.04765484 -0.026678056 0.07268912 -0.046225127 -0.062442664
-0.11579182 -0.029393677 0.0076899156 -0.10622376 0.018806316 -0.05516028 -0.012954208 -0.04712023
-0.07716393 0.017279293 -0.06058464 -0.0065204096 0.09698644 0.17762895 -0.019115308 0.08537115
0.12961869 -0.0321958 0.035031956 -0.013790076 -0.022903198 0.062161654 0.109618664 0.055968042
00000000: d310 b63d 793f 0e3e f859 32be ead5 60bd
00000010: 9e04 c83c 595b 38bd b7c4 96bd eac5 e63d
00000020: 533f 0dbc d12c bc3d f063 213d 9c8a 8d3d
00000030: ff4f fe3d d001 c5bd e1a2 36bc c9ac a3bd
00000040: 7da7 3fbd e35c e3bd 7788 823c 0ffa 343d
00000050: 231a e53c 7c8b 11bd bfe4 4bbd cc7e 69bd
00000060: 77d8 2ebd 18bf 40bd 8332 ec3d c046 423c
00000070: b6fb 6dbd 3336 a33d c450 cdbd c133 8dbd
00000080: 7c3d b93d d803 46bd 62fe a9bd b5b4 ae3d
00000090: 2082 8c3d 786a ec3b 5496 173d cc5e e13c
000000a0: 3f0c 08bd 2519 d7bd 9234 bb3d e8cc 9abd
000000b0: 42ba b8bc abe2 e1bd 29d1 a43d b1e4 b63d
000000c0: 9645 4ebd 7889 44bd 56f9 973a 4ed3 bfbd
000000d0: cb84 e53d 4a72 2fbd a079 eb3c 2727 3b3e
000000e0: 2b2b ebbc 057b 053e ec62 0f3e aaf8 033d
000000f0: 79fa 6f3d d827 1ebd 3c76 323d a559 833d
00000100: 1f1f 02bd a4c9 0d3c 3547 2abd efa3 d13d
00000110: 6bb6 b9bd 8639 b03c ac92 c03d 7038 de3c
00000120: b631 86bd 9630 dc3d 3e3a f53c 309e b53c
00000130: d9c3 cc3d 368d ecbd 0d9c 653d 5e17 d6bd
00000140: 8ced 5f3d b5c1 953d 84f2 3a39 ce85 513d
00000150: 5196 253d c863 bcbd 4732 0c3d 8844 18bd
00000160: bb8c 0cbe 9a51 8fbc ec12 153e 2282 e9bd
00000170: 3b7d 873d 2b02 143d df9e 06ba 521e 30bd
00000180: bb89 3b3d 96cd 643c 2c2d 773d 4cb0 933d
00000190: a04d abbb d316 c13c f1e1 11bd 7800 dd3d
000001a0: ed52 153c eed5 09be 9ecf 48bd da5a bfbd
000001b0: 186b 0cbd 43fa 7e3d 17a9 28bd 732c 763d
000001c0: 4e3e e1bd 32ee f9bc 063a 07be bdca a63d
000001d0: c577 7e3d f1d3 28bd 2f6a d0bd d8be ddbc
000001e0: 874f a83d 8bbc 9f3d 7923 643d 0ec9 97bd
000001f0: 63b7 863d 207a 76bc cc71 3f3d a543 24bc
00000200: fdd3 9b3d b8ee b83d d881 f0bd ccc4 04be
00000210: 34cc b6bd edf5 083e c08f 05bd f2be abbd
00000220: ce8b 1c3d d5f3 e2bc 757c 063e 2099 fa3c
00000230: 6dc8 143d 28d1 ac3d f74e 503d 63ad a33d
00000240: 02ca 00be 0435 f43a 9511 cc3b 1f25 f6bc
00000250: e6a8 003e a5cf 9dbd 21b9 733d 363b c63d
00000260: 01f4 bf3d 9236 513d 2d79 62bd 2831 05bd
00000270: 4b45 ecbc 118d 853c 9bbc 30be 1a47 78bd
00000280: 0e9a e73d e11d db3d 389b 89bc a7fc 7dbb
00000290: 445a 66bd a0a0 e1bd 76d1 acbd 9a61 8bbd
000002a0: 736a a83d 5a7d 01be def8 66bd 20fd 043d
000002b0: 77a7 e0bd 76f1 85bd ad97 ae3d 208b 043e
000002c0: 6014 c23c 4a8a d8bd 5c3c 67bc 9ea8 953c
000002d0: b4ba 29bd ee76 39bd 419f a3bd 7883 cc3d
000002e0: 7f45 013b 7d20 533d c689 c6b9 2d00 aa3d
000002f0: 5c24 8ebd 8839 78bd b4e5 e2bd 6360 a63d
00000300: d968 863d bf01 b2bd 824e 31be 20b1 ce3d
00000310: 1aa4 093e 2e45 18bd a76e 86bd e0ca 6cbc
00000320: 6e82 163c 43f1 b1bc 350d dc3d aad8 a6bd
00000330: 70d7 bfbd a0ac 4cbc 894f bebd 7e7b 363d
00000340: f469 bcbd dfbe 08be cdc6 e13d 20a5 e83d
00000350: c938 e33c 78e7 b2bd a879 3d3d 688d 923c
00000360: 16ab 83bd 6a55 d03d 4795 033e 0051 29bc
00000370: 1abf ca3c c88e ebbb 03b8 bc3c 211a ee3d
00000380: 00c8 a13d 7bf1 833d b4d2 2dbd b931 43bd
00000390: f08b dabc 09de 943d 8f56 3dbd e1c3 7fbd
000003a0: 4324 edbd 02cb f0bc b0fb fb3b d88b d9bd
000003b0: b40f 9a3c bfef 61bd e33d 54bc 2401 41bd
000003c0: 1f08 9ebd 4e8d 8d3c 9927 78bd 29a9 d5bb
000003d0: d4a0 c63d 5de4 353e b597 9cbc 12d7 ae3d
000003e0: c3ba 043e bedf 03bd ab7d 0f3d c5ef 61bc
000003f0: 7d9f bbbc 389d 7e3d c07f e03d bf3e 653d

fc2.bias f4 [128]
0.023451595 -0.08903063 -0.0858519 -0.0079801 0.016179577 -0.107908584 0.053293504 0.03629264
0.0396901 -0.08743314 -0.08140088 0.08581317 0.061913922 -0.12819168 0.12576813 0.047064885
0.044160638 0.08178143 -0.04133381 -0.11124527 -0.06352646 -0.09231714 -0.055789784 -0.056274276
0.106611215 0.0015091114 0.03667693 -0.020937914 -0.06467279 0.0072642965 0.11922373 0.05623923
0.12319241 0.09305741 0.04381183 0.08398425 0.1303255 -0.06497679 -0.035795454 0.019744309
-0.0918638 0.094114125 -0.09119468 0.05424991 -0.120159894 0.0046189246 -0.07576483 -0.10464524
-0.09615833 0.011153478 0.09557153 -0.05991484 -0.061116308 0.1474725 0.03730181 0.008355719
-0.048576646 0.073601544 -0.10988167 0.09724342 0.08996316 0.04364212 -0.037010405 0.025603827
0.072114155 0.06362663 -0.010802541 0.0016347021 -0.05502761 -0.015126064 0.0149843795 0.09679121
0.073310345 -0.043074735 -0.08175051 0.09820731 -0.016534956 0.11397677 0.016436175 -0.057039395
0.0487551 -0.094891116 0.026132122 -0.027566044 0.0015364519 -0.113087915 0.033777688 -0.10123597
0.10687496 -0.062220175 0.053510208 -0.017754339 0.03886378 0.115155414 -0.04528322 -0.04405097
-0.13339123 -0.027660385 -0.09218001 -0.021805124 0.06596922 0.040213827 0.015083563 -0.068311244
0.06437235 -0.09072909 -0.020966247 0.00067711185 -1.3539539e-05 0.006086379 0.00038075313 -0.044860438
-0.020315235 -0.1300462 0.015063159 0.07192642 0.12442091 -0.11860933 0.051117048 -0.039578944
0.042053487 0.019819103 0.14325826 0.045410477 -0.012573636 0.03577424 0.019330243 0.009132272
00000000: 8f1d c03c b155 b6bd 1fd3 afbd f7be 02bc
00000010: 088b 843c 2dff dcbd 4a4a 5a3d 97a7 143d
00000020: 1692 223d 2510 b3bd 81b5 a6bd d1be af3d
00000030: 7499 7d3d ae44 03be 5cc9 003e 1cc7 403d
00000040: c9e1 343d 067d a73d a44d 29bd 8fd4 e3bd
00000050: 291a 82bd c510 bdbd d483 64bd db7f 66bd
00000060: fb56 da3d 60cd c53a 8c3a 163d fd85 abbc
00000070: 2b73 84bd 5609 ee3b 922b f43d 1b5b 663d
00000080: 4d4c fc3d e294 be3d 0974 333d efff ab3d
00000090: 0c74 053e 8d12 85bd 419e 12bd d1be a13c
000000a0: 1723 bcbd e8be c03d 47c4 babd 2735 5e3d
000000b0: 6416 f6bd 595a 973b 972a 9bbd 3e50 d6bd
000000c0: a9ee c4bd 14bd 363c 02bb c33d 4369 75bd
000000d0: 1855 7abd 0803 173e c8c9 183d 6de6 083c
000000e0: 4ef8 46bd 68bc 963d a409 e1bd 8f27 c73d
000000f0: 9b3e b83d 14c2 323d 3998 17bd 1ebf d13c
00000100: 96b0 933d ae4e 823d 24fd 30bc 8043 d63a
00000110: a264 61bd 50d3 77bc 0b81 753c 783a c63d
00000120: bc23 963d 226f 30bd d06c a7bd ea20 c93d
00000130: 5174 87bc a76c e93d 28a5 863c 24a2 69bd
00000140: 6eb3 473d 4656 c2bd 0813 d63c 2fd2 e1bc
00000150: c562 c93a a39a e7bd 795a 0a3d ce54 cfbd
00000160: 42e1 da3d 95da 7ebd 852d 5b3d 8c71 91bc
00000170: a12f 1f3d 9ad6 eb3d e67a 39bd ca6e 34bd
00000180: b697 08be 0898 e2bc e0c8 bcbd a9a0 b2bc
00000190: df1a 873d 41b7 243d 0c21 773c c4e6 8bbd
000001a0: a7d5 833d 2cd0 b9bd 68c1 abbc 3580 313a
000001b0: e127 63b7 3f70 c73b d29f c739 94bf 37bd
000001c0: 236c a6bc d52a 05be 78cb 763c 294e 933d
000001d0: 64d0 fe3d 73e9 f2bd 1c60 513d 881d 22bd
000001e0: 4740 2c3d ac5b a23c 4bb2 123e 5600 3a3d
000001f0: a701 4ebc 0288 123d 755a 9e3c 869f 153c

fc3.weight f4 [2, 128]
-0.023748947 -0.042877737 -0.0853735 0.01731237 -0.05531919 0.020360995 0.03525138 0.012249925
0.078530364 -0.06645682 0.07715857 -0.103783846 -0.04795791 0.0743845 -0.037631564 0.035212606
0.061520044 0.034360327 -0.08055775 -0.020130416 -0.07830448 0.07559512 -0.05805915 -0.11556919
0.046360523 -0.02631214 -0.07265518 -0.006941643 0.08809299 -0.069052584 0.04550689 0.04783571
-0.01967195 0.044715576 -0.02026601 0.07498288 -0.04982489 0.030007495 -0.110139854 0.06366522
-0.03639631 0.07886696 -0.09548313 0.12229979 -0.067808054 0.05871024 0.13555264 -0.08423554
0.010169277 0.052164976 -0.010695495 -0.06856826 -0.084591255 -0.033959437 0.014045862 -0.046279423
0.057139833 0.10479733 0.11215897 -0.039774764 -0.08140259 0.04158068 0.002706123 0.11013872
-0.061866757 0.14276534 -0.035692457 0.08101788 -0.105304874 0.023091836 -0.040833995 0.07863328
-0.07776715 -0.11399529 -0.011537742 0.0031925605 -0.021500694 -0.05001973 -0.06281212 -0.0054893256
0.09469235 0.058003835 -0.05963403 0.12107925 -0.031226663 0.05315856 -0.047242906 0.08608081
0.037476055 0.011211303 0.05450198 -0.009651974 -0.085467875 -0.08390847 0.13077214 0.0019074624
-0.0216545 -0.01694196 0.035858892 0.06893393 0.051387463 -0.10534895 0.06921738 -0.0659552
0.07561572 -0.00657887 -0.06670136 0.11845572 0.053104293 0.07585189 0.004324124 -0.06665848
-0.08215003 0.016290352 0.013952261 -0.07530835 -0.062785275 0.10255161 -0.07780639 -0.06837477
0.09788476 0.027524153 -0.061680328 -0.010810322 0.039162878 0.11855086 -0.036643405 -0.109248035
0.052919123 0.032673884 0.026467714 0.100775115 -0.065550484 0.083106905 -0.08624958 0.028522583
-0.09492554 0.09851946 0.04956899 0.10798609 -0.043139406 -0.09297158 0.08675583 0.0022327867
-0.020766705 0.08646099 0.11384144 -0.07163464 0.040045287 -0.025624033 0.035566058 0.0656199
0.034561403 0.017085824 0.047781345 0.008821373 -0.045534845 0.02405939 0.0066627846 -0.04417377
0.08057288 -0.08331348 0.10188703 -0.009223721 0.098737195 -0.06895617 -0.002720956 -0.14041995
0.11406952 -0.025069723 0.0972894 -0.045581605 -0.05021603 -0.036120847 -0.17025977 0.034559097
-0.003949272 0.018359551 0.112069815 0.07314447 0.106204934 0.05179313 0.06756829 0.07147039
-0.07565471 -0.008513635 -0.11219262 -0.00034712613 0.07158983 -0.03141203 0.10025063 -0.07624908
-0.07730945 -0.07815055 0.0041003716 0.0030197056 0.06879326 0.06742759 0.12376088 0.0057313815
-0.031439357 0.048677344 0.08546015 0.024572687 -0.048116244 0.119452424 -0.06765032 -0.13019036
-0.11187366 0.0051303413 0.011664382 -0.12095104 0.07053015 -0.0824183 -0.057796236 0.041377362
-0.014919216 -0.034194272 0.08465192 0.118298426 -0.033717528 0.08284818 -0.011211393 0.067194745
0.04054195 -0.09917654 0.065672986 -0.053792894 -0.05665933 0.023168767 -0.079646006 -0.032000817
-0.07355249 0.14349972 0.056643445 -0.018119747 0.045172073 0.0781185 -0.06566978 -0.031755473
-0.00034415573 -0.044585947 0.06395296 0.071521826 0.035889957 0.010962357 -0.059499096 0.061914142
-0.0852279 -0.069142856 -0.0319582 0.093856424 0.118320756 -0.026303507 0.027480803 0.0841391
00000000: 278d c2bc 91a0 2fbd 4dd8 aebd acd2 8d3c
00000010: 6096 62bd 1acc a63c c063 103d e9b3 483c
00000020: 87d4 a03d 831a 88bd 5005 9e3d a08c d4bd
00000030: 836f 44bd e756 983d 8e23 1abd 183b 103d
00000040: 71fc 7b3d 6abd 0c3d 76fb a4bd 8be8 a4bc
00000050: 195e a0bd 9dd1 9a3d 6ecf 6dbd 8aaf ecbd
00000060: 88e4 3d3d 8f8c d7bc 3dcc 94bd b976 e3bb
00000070: 196a b43d 716b 8dbd 6f65 3a3d 61ef 433d
00000080: 1227 a1bc ae27 373d e704 a6bc a090 993d
00000090: 2f15 4cbd 47d2 f53c 0191 e1bd e962 823d
000000a0: 4c14 15bd 0085 a13d a98c c3bd 5078 fa3d
000000b0: f3de 8abd 267a 703d 50ce 0a3e af83 acbd
000000c0: 0a9d 263c f1aa 553d 283c 2fbc 846d 8cbd
000000d0: 2e3e adbd 0d19 0bbd 9d20 663c 7e8f 3dbd
000000e0: 750b 6a3d fc9f d63d 9ab3 e53d ddea 22bd
000000f0: 67b6 a6bd 8150 2a3d 3659 313b 6990 e13d
00000100: ff67 7dbd 1431 123e 4132 12bd b4ec a53d
00000110: 15aa d7bd 172b bd3c 8c41 27bd 7c0a a13d
00000120: 6244 9fbd 5d76 e9bd cc08 3dbc 473a 513b
00000130: 3922 b0bc 7de1 4cbd a4a3 80bd cddf b3bb
00000140: 10ee c13d 6e95 6d3d d042 74bd 66f8 f73d
00000150: 0fcf ffbc cabc 593d c781 41bd 234b b03d
00000160: 7e80 193d 9daf 373c 783d 5f3d 5023 1ebc
00000170: c809 afbd 34d8 abbd 22e9 053e d103 fa3a
00000180: c764 b1bc dec9 8abc c6e0 123d 3b2d 8d3d
00000190: a97b 523d 31c1 d7bd d7c1 8d3d 8513 87bd
000001a0: 6adc 9a3d 9093 d7bb b99a 88bd ea98 f23d
000001b0: e383 593d 3c58 9b3d 62b1 8d3b 3e84 88bd
000001c0: 463e a8bd 5873 853c 0698 643c 443b 9abd
000001d0: 9195 80bd 9406 d23d f558 9fbd 1208 8cbd
000001e0: ce77 c83d 557a e13c 83a4 7cbd c71d 31bc
000001f0: 4169 203d cbca f23d 6517 16bd 6fbd dfbd
00000200: b9c1 583d 0dd5 053d d2d2 d83c 2f63 ce3d
00000210: 553f 86bd f433 aa3d 9fa3 b0bd 31a8 e93c
00000220: 5268 c2bd 92c4 c93d da08 4b3d d027 dd3d
00000230: f2b2 30bd e267 bebd 0aad b13d f253 123b
00000240: f01e aabc 7612 b13d b325 e93d 2fb5 92bd
00000250: 8706 243d 7ee9 d1bc b7ad 113d ba63 863d
00000260: 4290 0d3d 92f7 8b3c 5fb6 433d 8587 103c
00000270: bf82 3abd 3318 c53c 7d53 da3b 8eef 34bd
00000280: 6503 a53d 42a0 aabd 26aa d03d 171f 17bc
00000290: ba36 ca3d e438 8dbd 1152 32bb 3fca 0fbe
000002a0: 489d e93d 055f cdbc aa3f c73d c7b3 3abd
000002b0: 53af 4dbd 74f3 13bd 9458 2ebe d78d 0d3d
000002c0: e568 81bb c566 963c dc84 e53d c5cc 953d
000002d0: f981 d93d 0825 543d 3e61 8a3d 115f 923d
000002e0: dbf0 9abd c67c 0bbc 3fc5 e5bd 7bfe b5b9
000002f0: b09d 923d e7a9 00bd 3450 cd3d 7a28 9cbd
00000300: 6b54 9ebd 650d a0bd 695c 863b 41e6 453b
00000310: 7be3 8c3d 7a17 8a3d 5876 fd3d 50ce bb3b
00000320: 8ec6 00bd e561 473d bb05 af3d a94c c93c
00000330: 8a15 45bd 79a3 f43d 408c 8abd 9f50 05be
00000340: 041e e5bd 6c1c a83b f71b 3f3c 2eb5 f7bd
00000350: 1c72 903d edca a8bd bfbb 6cbd 4f7b 293d
00000360: ba6f 74bc 4b0f 0cbd fc5d ad3d 7246 f23d
00000370: 641b 0abd 4eac a93d feaf 37bc 669d 893d
00000380: 510f 263d 121d cbbd 8f7f 863d f055 5cbd
00000390: 9d13 68bd 6dcc bd3c 721d a3bd 4a13 03bd
000003a0: b0a2 96bd 97f1 123e f502 683d dd6f 94bc
000003b0: 5a06 393d 98fc 9f3d e17d 86bd 0712 02bd
000003c0: cd6f b4b9 c19f 36bd c5f9 823d 097a 923d
000003d0: 5901 133d 759b 333c 53b5 73bd af99 7d3d
000003e0: f78b aebd c59a 8dbd 9ae6 02bd cc37 c03d
000003f0: 2752 f23d 747a d7bc 6c1f e13c 1f51 ac3d

fc3.bias f4 [2]
-0.002922107 -0.039918028
00000000: d280 3fbb 1681 23bd
