HFDRL_UNIT8/models/Archived/LunarLander-v3__ppo__1__1768732591__u120.pt (torch, 44753 bytes, 11 tensors)

critic.0.weight f4 [64, 8]
-0.16251254 0.050876472 0.027656313 0.06509528 -0.048080623 0.14016403 -0.2808688 0.13996215
-0.1901649 0.23225388 0.24525207 -0.146655 -0.19884513 -0.24043961 0.16310611 -0.05918256
0.00871973 -0.22557311 0.13677683 0.10794318 0.028353682 0.10303589 0.14434408 0.47695774
-0.2171496 0.09600192 -0.020870332 -0.43401626 0.26838604 -0.0014504384 -0.19519427 -0.103971295
0.017594924 -0.1180755 0.22421889 0.03274625 -0.0017864025 -0.09653526 0.014136733 -0.37522358
-0.04384383 -0.21439 -0.02624342 -0.09347468 -0.0446186 0.27828297 -0.20678051 -0.21341014
-0.28488404 -0.15194665 -0.026195053 -0.05978013 -0.089015186 -0.20679685 0.43226177 0.18556611
-0.065082416 0.48297694 0.13270123 0.07541826 -0.06414024 0.17247176 0.26626962 0.37779924
0.13350257 -0.08276205 0.22801504 -0.12337386 0.33078632 -0.024663545 -0.025231125 -0.03269798
0.008220365 0.19258927 0.2919933 -0.29919517 0.19718675 0.08005816 0.24014896 0.52192
-0.035987522 -0.38009068 0.17019317 0.27198425 0.020969875 0.27498832 -0.11577191 -0.2907472
-0.091341235 0.38261238 -0.086070254 0.06960861 -0.081145845 0.2160801 -0.24381442 0.016787289
-0.018554064 0.25146884 0.071723886 -0.09551881 -0.08795506 0.016879965 -0.114529885 0.12219385
-0.020679766 -0.14463577 0.20387453 0.29057932 -0.029182535 0.030166727 -0.26784265 0.12514292
-0.06062339 -0.009348792 0.17152356 0.06514304 0.08793899 0.025290476 -0.09446155 -0.06831753
-0.083456665 0.10513568 -0.23992023 -0.1470565 -0.032879435 0.1512114 0.100521095 -0.048523426
0.12331667 0.07442561 0.037727118 -0.42332104 -0.13587618 -0.06931087 -0.11810802 0.21022393
-0.120441034 0.11682969 0.30088058 0.051421408 0.26881593 -0.19244261 0.070949316 0.2615283
-0.3233888 -0.16467139 0.26186788 0.17824602 -0.1749998 0.10495974 -0.009502611 -0.079727285
-0.07191521 0.27745557 -0.07494945 -0.09791862 0.038803194 0.19667894 -0.30511922 -0.1799024
0.20531732 -0.010158454 0.1631725 0.08178576 0.07688953 -0.06521589 -0.006362987 0.015479661
0.09172304 0.0007008304 -0.20093682 -0.18137985 -0.0798569 0.08973144 -0.18871094 -0.081503466
0.17381714 -0.009901756 0.10154585 0.24738243 -0.19017753 -0.1744706 -0.12099394 -0.21405154
0.21160638 0.054966893 -0.10761134 0.11594114 0.17072508 -0.115302846 0.01923489 -0.28332523
-0.07821534 0.05389875 0.09662826 -0.04213745 0.06427683 -0.19313267 -0.5971591 -0.17218521
-0.09586693 0.2621875 0.026394868 0.10130749 0.05611048 -0.19664049 0.06543269 -0.0898901
-0.08599354 0.042037655 0.07087891 -0.049700264 0.2360551 -0.13642667 0.10431514 0.15972137
-0.03912241 -0.09044067 -0.016786015 -0.012576867 -0.26805195 0.20578617 0.11835111 0.31202027
0.26830998 -0.0076085227 -0.28160036 0.03288378 -0.11612637 -0.018625766 -0.37394208 -0.10772295
0.09521443 0.39204726 -0.2097388 0.35888743 -0.21182933 0.0645691 0.017779555 -0.4225005
-0.24044576 -0.07392426 -0.16529869 -0.07078475 0.19398528 -0.12168021 0.10897764 0.3484364
-0.12297315 0.4777749 0.15279563 -0.023280656 0.21463352 0.14983861 -0.10659626 -0.21391691
00000000: b069 26be d963 503d 7e8f e23c ad50 853d
00000010: 30f0 44bd 2987 0f3e 09ce 8fbe 3d52 0f3e
00000020: 96ba 42be f6d3 6d3e 5c23 7b3e ba2c 16be
00000030: 0f9e 4bbe cd35 76be 4a05 273e 6969 72bd
00000040: 33dd 0e3c a3fc 66be 3a0f 0c3e 5011 dd3d
00000050: fb45 e83c 7b04 d33d efce 133e ce33 f43e
00000060: 775c 5ebe a89c c43d 42f8 aabc 6137 debe
00000070: e569 893e a31c beba 02e1 47be e7ee d4bd
00000080: 3b23 903c 91d1 f1bd a399 653e ef20 063d
00000090: b925 eaba 47b4 c5bd c19d 673c 4e1d c0be
000000a0: 9695 33bd 0d89 5bbe 71fc d6bc a76f bfbd
000000b0: fec1 36bd 1b7b 8e3e 45be 53be 3088 5abe
000000c0: 52dc 91be e797 1bbe 0297 d6bc 02dc 74bd
000000d0: 984d b6bd 8ec2 53be 6a51 dd3e 0b05 3e3e
000000e0: ee49 85bd c148 f73e d5e2 073e e474 9a3d
000000f0: f55b 83bd 709c 303e 7e54 883e e76e c13e
00000100: e6b4 083e 267f a9bd c67c 693e 6fab fcbd
00000110: d35c a93e 340b cabc 81b1 cebc 51ee 05bd
00000120: b6ae 063c 1f36 453e 2580 953e 1c30 99be
00000130: 53eb 493e 88f5 a33d 9ce9 753e 8d9c 053f
00000140: a767 13bd 3f9b c2be 1e47 2e3e 8541 8b3e
00000150: 04c9 ab3c 45cb 8c3e d319 edbd d1dc 94be
00000160: 1d11 bbbd c5e5 c33e 9a45 b0bd f58e 8e3d
00000170: cb2f a6bd 1a44 5d3e 7daa 79be 7f85 893c
00000180: b1fe 97bc 86c0 803e f9e3 923d 5e9f c3bd
00000190: c821 b4bd da47 8a3c a58e eabd c540 fa3d
000001a0: 9d68 a9bc 661b 14be 7cc4 503e d0c6 943e
000001b0: 3610 efbc 3620 f73c ac22 89be 7725 003e
000001c0: 3b50 78bd ad2b 19bc dfa3 2f3e b769 853d
000001d0: 5b19 b43d f92d cf3c 0f75 c1bd 10ea 8bbd
000001e0: 54eb aabd 6051 d73d a6ad 75be fb95 16be
000001f0: 96ac 06bd 29d7 1a3e 01de cd3d 80c0 46bd
00000200: 738d fc3d 746c 983d c087 1a3d 89bd d8be
00000210: 2023 0bbe dbf2 8dbd 9ee2 f1bd f144 573e
00000220: caa9 f6bd 6844 ef3d 050d 9a3e 419f 523d
00000230: 3ea2 893e ad0f 45be e04d 913d 0ae7 853e
00000240: 3793 a5be 9e9f 28be 8c13 863e 2086 363e
00000250: 2633 33be 22f5 d63d d7b0 1bbc 0f48 a3bd
00000260: 4848 93bd a80e 8e3e 197f 99bd 8f89 c8bd
00000270: 19f0 1e3d 3466 493e 9638 9cbe 5638 38be
00000280: b43e 523e a56f 26bc b116 273e 4b7f a73d
00000290: 4278 9d3d e98f 85bd 9b80 d0bb 679e 7d3c
000002a0: 4ad9 bb3d efb7 373a 62c2 4dbe a4bb 39be
000002b0: 048c a3bd 1ec5 b73d 713d 41be 4aeb a6bd
000002c0: 1ffd 313e fa3a 22bc 45f7 cf3d d251 7d3e
000002d0: e6bd 42be 6ca8 32be accb f7bd 5430 5bbe
000002e0: 58af 583e f724 613d 5663 dcbd 8c72 ed3d
000002f0: 8ed2 2e3e e623 ecbd 7d92 9d3c 0110 91be
00000300: 5d2f a0bd f0c4 5c3d 0ae5 c53d 5298 2cbd
00000310: 92a3 833d 92c4 45be 6bdf 18bf 5251 30be
00000320: e255 c4bd 713d 863e 0d3a d83c 4d7a cf3d
00000330: 1ad4 653d 205c 49be 9301 863d 4d18 b8bd
00000340: 621d b0bd ad2f 2c3d f628 913d 8192 4bbd
00000350: 6eb8 713e 6fb3 0bbe 2da3 d53d 008e 233e
00000360: d23e 20bd f538 b9bd d382 89bc 340f 4ebc
00000370: 1b3e 89be 9cb9 523e 1162 f23d 1fc1 9f3e
00000380: ed5f 893e ea50 f9bb ec2d 90be 24b1 063d
00000390: aad3 edbd 1095 98bc 5675 bfbe da9d dcbd
000003a0: c8ff c23d 6bba c83e c5c5 56be 18c0 b73e
000003b0: cae9 58be ce3c 843d 6ea6 913c fc51 d8be
000003c0: 6a37 76be 9a65 97bd 0f44 29be 98f7 90bd
000003d0: 14a4 463e 7933 f9bd ab2f df3d 4166 b23e
000003e0: 59d9 fbbd e99e f43e 7576 1c3e 13b7 bebc
000003f0: e4c8 5b3e 4b6f 193e 244f dabd 090d 5bbe

critic.0.bias f4 [64]
-0.10467018 0.122849055 0.02801076 -0.05551209 -0.13967735 0.016332354 -0.012115413 0.1328362
-0.0884263 0.11980982 -0.046204023 -0.060262278 0.11579757 0.07558998 -0.011640442 -0.09488838
0.11441616 0.042463355 -0.11904286 -0.062457602 -0.108114816 0.08633523 -0.087637454 -0.11733466
-0.021329619 -0.0416366 0.109517574 0.097404614 -0.091556676 -0.09690961 0.11249233 -0.022863233
-0.083112635 -0.105641566 0.13158952 0.11140575 -0.114462756 -0.11060141 -0.10945 0.097661965
0.10742049 0.10706639 -0.11060594 -0.008736762 -0.12910572 -0.015344411 -0.027013501 -0.11216524
-0.10713396 -0.066533424 -0.09999011 0.09757272 -0.099799775 -0.09725186 -0.08997288 -0.14382759
-0.12879705 -0.07527223 -0.12607333 -0.03498223 -0.10441495 -0.028244756 -0.117806114 -0.105662726
00000000: 525d d6bd 4998 fb3d d276 e53c a560 63bd
00000010: 9407 0fbe 6ecb 853c ba7f 46bc 3606 083e
00000020: d918 b5bd da5e f53d 6e40 3dbd 94d5 76bd
00000030: 4727 ed3d ebce 9a3d 8db7 3ebc d754 c2bd
00000040: 0553 ea3d 0eee 2d3d becc f3bd 8bd3 7fbd
00000050: 4d6b ddbd 86d0 b03d 447b b3bd 274d f0bd
00000060: 74bb aebc 248b 2abd c04a e03d 127c c73d
00000070: 1182 bbbd 8c78 c6bd 6162 e63d ad4b bbbc
00000080: f536 aabd 9b5a d8bd 67bf 063e b328 e43d
00000090: 736b eabd fe82 e2bd 5227 e0bd ff02 c83d
000000a0: 46ff db3d a045 db3d 5e85 e2bd a324 0fbc
000000b0: 4a34 04be 2067 7bbc 6b4b ddbc e4b6 e5bd
000000c0: 0d69 dbbd ad42 88bd 9dc7 ccbd 35d4 c73d
000000d0: d363 ccbd fc2b c7bd b443 b8bd 8a47 13be
000000e0: 60e3 03be 5428 9abd 5e19 01be 8749 0fbd
000000f0: 81d7 d5bd 8c61 e7bc 5544 f1bd b365 d8bd

critic.2.weight f4 [64, 64]
0.16416687 -0.55730104 -0.13005643 0.1606716 -0.009366456 -0.09992627 0.15504055 -0.3565846
-0.06105514 0.28385478 -0.13146861 -0.093952596 -0.09712162 -0.13559733 -0.15290755 0.12936293
0.0032088186 -0.14567304 0.058325958 0.109438576 -0.09330787 0.053081974 0.17605977 0.09250339
0.25527593 0.11131531 0.20608072 0.042446785 -0.013546052 0.13549411 0.037791956 0.06690912
-0.10534267 0.18622805 0.18685037 -0.08242913 -0.3168476 -0.2542873 -0.06567762 -0.5182585
0.16953973 -0.19671044 0.060121626 -0.089311235 -0.24607138 0.09045853 0.04852575 0.29572368
-0.0011882611 0.17104554 -0.048916318 -0.08557843 0.08090762 -0.010630461 0.02605998 0.1762232
0.15966539 -0.017447313 0.08444134 -0.031147404 0.2594684 0.3576931 -0.23357134 0.058071572
0.2871129 0.09899339 0.027796265 0.0099754045 -0.0079820985 -0.1649912 0.10794796 -0.27943885
-0.021247165 -0.3288922 0.046883292 -0.099500686 0.36458537 0.31010446 -0.04805834 0.20018777
-0.10772512 -0.28964144 0.44691443 -0.14703296 0.10090044 0.0059012747 0.02346535 0.1153331
-0.03860439 0.11454793 -0.13638835 -0.062250283 0.25541165 0.31244624 -0.09953172 0.16064219
0.15060845 0.124764785 -0.12475328 -0.20627119 0.053302288 -0.055792283 -0.066955365 0.16916768
0.013198169 -0.09537595 0.25990346 -0.050435357 0.16731043 0.096070714 0.26640695 0.038296532
0.3781296 -0.12657745 0.07066947 -0.13423449 0.10435349 -0.022810534 -0.023637393 -0.047691476
0.3850342 -0.1413278 0.2401045 0.18656951 0.17714894 0.10136766 -0.22321934 0.012556278
-0.12453537 0.17399141 0.18151581 0.1041805 0.27500775 -0.061576374 0.06938679 0.25247034
-0.23795559 0.3911007 -0.2268767 -0.22000885 -0.032370787 0.22971694 0.05410714 -0.21918063
-0.31353092 0.009664713 0.026650066 -0.07835498 -0.15893209 -0.03315554 -0.16292685 -0.0035398751
-0.10810228 0.06022033 0.44812912 0.17677863 0.051499177 -0.43869424 -0.23098719 -0.309256
0.33066416 0.05776975 -0.031490676 0.14162415 -0.11008427 -0.13491644 -0.030278146 0.17221148
0.15689038 -0.29719192 0.22675495 0.042895004 0.0037486546 -0.14316428 0.45466417 0.050470702
0.07454953 0.005037392 -0.0049543255 0.0155776115 -0.1456955 0.045473818 0.019970404 -0.12198935
-0.33728677 -0.049863912 0.029948568 -0.17021644 -0.045880537 -0.08052714 -0.106582455 -0.028614307
0.2551237 0.14015827 -0.13515592 0.16278848 0.026115166 -0.1330293 -0.579865 -0.16110422
0.06545111 -0.0086253835 0.16284129 0.004092969 -0.115532994 0.25841555 0.041090857 0.16527195
-0.1446753 0.032127988 -0.030695157 0.10570407 -0.13985796 0.043623272 0.440542 0.20375882
-0.22476809 -0.03418595 -0.28683585 -0.15583047 -0.091048546 -0.397482 0.22781543 0.1279423
-0.012521485 0.20570354 -0.08495274 -0.19686323 -0.07764311 -0.24394451 0.20579208 -0.10871271
0.044005457 -0.061931577 0.19689696 0.1224948 -0.10077304 0.32233974 -0.146299 0.09673348
0.20717216 0.025158824 -0.16062993 -0.13551262 0.15778826 0.0011661864 0.003861575 -0.22380888
0.17980282 -0.09782222 0.1997193 0.110741295 -0.12844002 -0.14926828 -0.13261403 0.0068618064
00000000: 5c1b 283e 48ab 0ebf 832d 05be 1987 243e
00000010: c475 19bc 25a6 ccbd f3c2 1e3e 4292 b6be
00000020: f414 7abd 6a55 913e b59f 06be 386a c0bd
00000030: b3e7 c6bd 07da 0abe cc93 1cbe b777 043e
00000040: 0b4b 523b 502b 15be 33e7 6e3d 5521 e03d
00000050: 3218 bfbd 7c6c 593d 0349 343e 6b72 bd3d
00000060: 87b3 823e 48f9 e33d d306 533e aedc 2d3d
00000070: 43f0 5dbc f8be 0a3e bdcb 1a3d a607 893d
00000080: e6bd d7bd 91b2 3e3e b455 3f3e 9bd0 a8bd
00000090: d939 a2be f231 82be fd81 86bd 97ac 04bf
000000a0: d39b 2d3e 766e 49be 1842 763d cfe8 b6bd
000000b0: 23fa 7bbe 5242 b93d f0c2 463d 1869 973e
000000c0: 6dbf 9bba 9026 2f3e 7a5c 48bd be43 afbd
000000d0: e5b2 a53d 632b 2ebc bd7b d53c db73 343e
000000e0: 537f 233e abed 8ebc 95ef ac3d d728 ffbc
000000f0: 0bd9 843e 8d23 b73e 532d 6fbe 75dc 6d3d
00000100: 7600 933e 0cbd ca3d feb4 e33c e16f 233c
00000110: 59c7 02bc 74f3 28be d213 dd3d 9c12 8fbe
00000120: 890e aebc 8f64 a8be b208 403d 04c7 cbbd
00000130: efaa ba3e 03c6 9e3e d2d8 44bd 06fe 4c3e
00000140: fd9e dcbd e24b 94be f8d1 e43e cf8f 16be
00000150: e4a4 ce3d 7b5f c13b 683a c03c c333 ec3d
00000160: a31f 1ebd 1b98 ea3d 63a9 0bbe 27fa 7ebd
00000170: 51c5 823e f4f8 9f3e 49d7 cbbd 637f 243e
00000180: 1a39 1a3e ae84 ff3d a67e ffbd c138 53be
00000190: 8053 5a3d 7386 64bd e51f 89bd 4b3a 2d3e
000001a0: 223d 583c 7754 c3bd 1112 853e 4e95 4ebd
000001b0: 6d53 2b3e b9c0 c43d 7e66 883e d3dc 1c3d
000001c0: 349a c13e 859d 01be 28bb 903d c474 09be
000001d0: 48b7 d53d 28dd babc 35a3 c1bc 2358 43bd
000001e0: 3423 c53e 3cb8 10be f4dd 753e 140c 3f3e
000001f0: 8866 353e d999 cf3d 9c93 64be d9b8 4d3c
00000200: 660c ffbd ce2a 323e 48df 393e 965c d53d
00000210: d1cd 8c3e 8237 7cbd a91a 8e3d cb43 813e
00000220: a1aa 73be 5a3e c83e 5e52 68be 004a 61be
00000230: 3b97 04bd eb3a 6b3e 739f 5d3d e370 60be
00000240: 2087 a0be bf58 1e3c 3d51 da3c 9378 a0bd
00000250: 18bf 22be 1ace 07bd 4cd6 26be 40fd 67bb
00000260: ba64 ddbd 98a9 763d 2e71 e53e 7505 353e
00000270: cdf0 523d 889c e0be e887 6cbe cd56 9ebe
00000280: d04c a93e f99f 6c3d 5efc 00bd ec05 113e
00000290: dd73 e1bd 8927 0abe e009 f8bc 3558 303e
000002a0: dfa7 203e 8a29 98be 7332 683e acb2 2f3d
000002b0: fdab 753b a899 12be bec9 e83e 5eba 4e3d
000002c0: 6dad 983d b510 a53b e557 a2bb 3d39 7f3c
000002d0: 3331 15be c142 3a3d f998 a33c 8dd5 f9bd
000002e0: dab0 acbe 1a3e 4cbd b356 f53c 384d 2ebe
000002f0: 3bed 3bbd 6aeb a4bd e747 dabd 8d68 eabc
00000300: 939f 823e a685 0f3e 5066 0abe 06b2 263e
00000310: 79ef d53c d538 08be 0872 14bf 81f8 24be
00000320: 3b0b 863d 7b51 0dbc debf 263e 501e 863b
00000330: 909c ecbd 0b4f 843e e34e 283d 0d3d 293e
00000340: c325 14be a398 033d 6974 fbbc 607b d83d
00000350: ed36 0fbe 51ae 323d b98e e13e 27a6 503e
00000360: 9b29 66be 9106 0cbd 26dc 92be 0692 1fbe
00000370: a977 babd c382 cbbe 7348 693e 4e03 033e
00000380: ea26 4dbc f3a3 523e b4fb adbd 8496 49be
00000390: 5a03 9fbd 97cc 79be 29bb 523e c5a4 debd
000003a0: 113f 343d f7ab 7dbd 5b9f 493e 8ede fa3d
000003b0: 1862 cebd b709 a53e 68cf 15be 341c c63d
000003c0: f024 543e e119 ce3c 2c7c 24be d2c3 0abe
000003d0: 3f93 213e b9da 983a 7a12 7d3b 282e 65be
000003e0: 3b1e 383e 0457 c8bd 3783 4c3e 55cc e23d
000003f0: c885 03be c9d9 18be f9cb 07be 01d9 e03b

critic.2.bias f4 [64]
-0.07921266 -0.0902167 0.09296548 -0.12794955 -0.1337085 -0.07482455 0.07606131 -0.12448944
-0.11942687 -0.15436074 -0.0954145 -0.0697803 -0.077820845 -0.11390443 -0.103209145 0.06691928
-0.092887394 -0.0887351 -0.09435231 0.09061936 -0.1004224 0.071203634 -0.100256376 0.024569167
-0.06682386 0.094087735 0.06789422 0.06810838 0.11086458 -0.10909861 0.06664874 -0.11051357
-0.077235445 0.08029128 0.11099048 -0.09465231 0.102270484 0.07495369 -0.06801232 -0.097013555
-0.16410993 -0.09523578 0.096600026 -0.07257755 0.13290918 0.13010493 0.07023034 -0.086866856
0.13237716 -0.02360067 0.0830709 0.09475001 0.08983863 0.104450084 -0.088352434 0.06856085
0.10392985 -0.07141882 0.08708313 0.07161703 -0.09598198 0.032543536 0.0722304 0.090948164
00000000: 3f3a a2bd 89c3 b8bd b064 be3d 3505 03be
00000010: e2ea 08be 9d3d 99bd 08c6 9b3d 52f4 febd
00000020: 1396 f4bd be10 1ebe ad68 c3bd f9e8 8ebd
00000030: 8960 9fbd ba46 e9bd 515f d3bd fa0c 893d
00000040: bf3b bebd c0ba b5bd c93b c1bd a596 b93d
00000050: 42aa cdbd 36d3 913d 3753 cdbd 4745 c93c
00000060: f3da 88bd 12b1 c03d 200c 8b3d 687c 8b3d
00000070: f80c e33d 186f dfbd 227f 883d f054 e2bd
00000080: 9e2d 9ebd c16f a43d fa4e e33d 12d9 c1bd
00000090: 3073 d13d 5281 993d 0b4a 8bbd 0baf c6bd
000000a0: 6f0c 28be fa0a c3bd 3cd6 c53d 8aa3 94bd
000000b0: 5819 083e 3a3a 053e edd4 8f3d 40e7 b1bd
000000c0: e18d 073e 3156 c1bc 1321 aa3d 4b0c c23d
000000d0: 51fd b73d ede9 d53d 1ff2 b4bd a269 8c3d
000000e0: 2cd9 d43d 0844 92bd a458 b23d f3ab 923d
000000f0: 3392 c4bd 5f4c 053d 88ed 933d 0843 ba3d

critic.4.weight f4 [1, 64]
0.13712628 0.1505872 -0.12295206 0.07807181 0.09007618 0.31266186 -0.07673432 0.08760211
0.09312232 0.06777599 0.2452813 0.07092708 0.078247204 0.13681102 0.21047933 -0.095710576
0.124360695 0.19551776 0.11887698 -0.05364416 0.2264571 -0.05795224 0.08926978 -0.0305298
0.04236261 -0.27228802 -0.20463455 -0.35861766 -0.14873526 0.19926314 -0.22406103 0.15193644
0.29817578 -0.10165816 -0.11441973 0.20302041 -0.21632451 -0.32037795 0.185592 0.21910568
0.07391376 0.27646518 -0.14144869 0.1855353 -0.08541316 -0.07185474 -0.27799207 0.14104041
-0.0877662 0.028211858 -0.1625158 -0.29916975 -0.12279759 -0.07078174 0.18178105 -0.33411142
-0.174359 0.1591861 -0.057351504 -0.20143254 0.18335138 0.061076693 -0.33277625 -0.45958015
00000000: d56a 0c3e 8833 1a3e 4ace fbbd 1de4 9f3d
00000010: dc79 b83d 3715 a03e e226 9dbd bc68 b33d
00000020: eab6 be3d 23ce 8a3d 052b 7b3e 3842 913d
00000030: 1240 a03d 3018 0c3e e587 573e e803 c4bd
00000040: d2b0 fe3d cf35 483e c675 f33d fbb9 5bbd
00000050: 5fe4 673e 545f 6dbd 13d3 b63d a219 fabc
00000060: 6b84 2d3d 5669 8bbe b88b 51be bc9c b7be
00000070: 0e4e 18be a30b 4c3e 4170 65be 3a95 1b3e
00000080: 7faa 983e 2732 d0bd e454 eabd 95e4 4f3e
00000090: 2c84 5dbe 9408 a4be d40b 3e3e 3d5d 603e
000000a0: 1960 973d d88c 8d3e edd7 10be f7fc 3d3e
000000b0: 18ed aebd 9428 93bd fa54 8ebe e66c 103e
000000c0: c4be b3bd 8e1c e73c 8b6a 26be c72c 99be
000000d0: 4e7d fbbd 04f6 90bd d024 3a3e a710 abbe
000000e0: 2a8b 32be ae01 233e 69e9 6abd 5544 4ebe
000000f0: 77c0 3b3e 8e2b 7a3d a661 aabe 174e ebbe

actor.0.weight f4 [64, 8]
-0.055224974 0.029915879 0.23558067 -0.068259664 -0.5405227 -0.13895541 0.066077635 0.22102068
-0.23803698 0.095657036 -0.05438469 0.5171021 0.10670307 -0.11627727 -0.09023473 0.14672886
0.0034193892 -0.28368744 -0.05150229 -0.4916164 0.24202003 -0.066915095 -0.3536664 -0.28528026
-0.07993473 -0.029940242 -0.21940473 -0.07982019 0.3355512 -0.12354376 -0.19139871 -0.26069933
0.122793905 -0.049947526 -0.12574722 -0.14986436 0.17192313 0.12534021 0.19212577 -0.31627306
-0.101702966 -0.2596351 0.074005954 0.30389076 -0.27986827 0.060833797 0.055960204 0.09890501
-0.33945018 -0.001463787 -0.045044154 -0.05580671 -0.2059206 -0.0064916257 0.14184873 -0.3464177
-0.11004181 -0.21453075 0.2598689 0.38392404 -0.5793885 -0.46811214 0.10060488 0.17073858
-0.21419184 0.14895602 -0.49531645 -0.34393355 0.31632674 0.30751145 -0.5467296 0.079053394
-0.11554029 0.040343203 -0.00289311 0.21471046 -0.18814507 -0.29077587 -0.09957079 0.16970204
-0.06304551 0.081204735 0.0301107 -0.019352693 -0.33533576 0.050003923 0.26663938 0.17909218
0.030037591 -0.08516941 0.040416267 0.0013468846 -0.40693226 -0.24944691 0.12399252 -0.16300698
-0.20370136 -0.11371996 -0.25720993 -0.23255995 0.2199918 0.33875006 -0.031261176 -0.14478423
-0.33770275 0.33535764 0.06557484 0.019370822 -0.008176094 -0.096998 0.2524147 0.026374731
-0.12727529 -0.19162434 0.3996992 -0.40077183 -0.23033975 -0.02942164 0.016340295 0.042620264
-0.17715834 0.10404881 0.081658415 -0.15431851 -0.21479118 -0.07314395 -0.08685227 0.10462644
-0.2827839 -0.06535464 0.16309685 0.439317 -0.19197571 -0.32439706 0.010362548 0.098264575
0.17804822 0.10817644 -0.1442185 -0.22551847 -0.041426413 -0.041010715 0.16541238 -0.1888308
0.039366055 0.08661554 -0.31357697 0.11894302 0.25214228 0.1205285 0.036832098 0.011231661
0.15028837 -0.024088852 0.23208427 -0.091651365 -0.47712174 -0.31601736 -0.2994008 -0.12607619
-0.04261964 -0.16413613 -0.21064539 0.016183842 -0.015217981 0.18240859 0.06849472 0.18478294
0.106717005 0.023607606 0.11054477 0.1519276 -0.3620131 -0.3506424 0.037481852 0.09140834
0.026127832 0.15857176 -0.1746925 0.55019265 0.3830089 0.27129743 0.107033916 -0.021465529
0.2764568 0.18225686 0.17230748 -0.34762627 0.43662074 0.183784 -0.2643474 -0.043198206
-0.2966189 0.018092563 -0.07401673 0.19193165 -0.18186295 -0.28484112 0.04152586 0.07449561
-0.033466056 0.07980308 -0.11643603 -0.3803967 -0.004343183 0.24828972 -0.18304768 0.040746037
0.08431059 0.015236045 0.5659313 0.13815694 -0.20922856 -0.022504741 -0.21765529 0.27121246
0.10315591 -0.16210514 -0.09762075 -0.31549144 0.39969045 0.43857646 0.073386595 0.087668434
0.014715647 -0.24920854 -0.09070422 -0.15631229 0.48348743 -0.02124893 -0.16264258 -0.043409705
0.11751495 -0.061189014 0.023981834 -0.68889874 -0.14540757 -0.55536896 -0.095195785 -0.08917367
-0.086122796 -0.031324133 -0.053951334 0.45856488 0.3805429 0.1460337 -0.0085950475 -0.04768585
0.105910674 -0.016684985 -0.042716637 0.2895326 0.1895092 0.009612488 -0.028596913 -0.23584494
00000000: 9533 62bd 2512 f53c 0f3c 713e b9cb 8bbd
00000010: b25f 0abf 544a 0ebe b653 873d 3f53 623e
00000020: f7bf 73be d6e7 c33d 7bc2 5ebd ce60 043f
00000030: 2487 da3d c722 eebd fccc b8bd 1740 163e
00000040: d517 603b 7b3f 91be 11f4 52bd 25b5 fbbe
00000050: 19d4 773e c80a 89bd c313 b5be 4110 92be
00000060: d2b4 a3bd 3d45 f5bc a2ab 60be c578 a3bd
00000070: 5ecd ab3e 8304 fdbd 06fe 43be 627a 85be
00000080: 5f7b fb3d c795 4cbd e1c3 00be 0b76 19be
00000090: 9e0c 303e 2f59 003e 9ebc 443e 8bee a1be
000000a0: a549 d0bd e4ee 84be 6f90 973d 9297 9b3e
000000b0: e54a 8fbe dc2c 793d 8736 653d b68e ca3d
000000c0: 6acc adbe 8bdc bfba 3880 38bd 9495 64bd
000000d0: dadc 52be b4b7 d4bb cb40 113e a95d b1be
000000e0: 9a5d e1bd f3ad 5bbe 890d 853e b191 c43e
000000f0: ce52 14bf 65ac efbe ee09 ce3d 18d6 2e3e
00000100: 1b55 5bbe ed87 183e 1e9a fdbe 0f18 b0be
00000110: 94f5 a13e 2472 9d3e 79f6 0bbf bfe6 a13d
00000120: 63a0 ecbd ea3e 253d 559a 3dbb 0fdd 5b3e
00000130: 1aa9 40be 93e0 94be c5eb cbbd 5fc6 2d3e
00000140: 011e 81bd ab4e a63d b7aa f63c 8a89 9ebc
00000150: 21b1 abbe ead0 4c3d f584 883e f163 373e
00000160: 6511 f63c 4d6d aebd 878b 253d f389 b03a
00000170: 6d59 d0be 036f 7fbe caef fd3d 4deb 26be
00000180: 1797 50be 03e6 e8bd 05b1 83be 3224 6ebe
00000190: 8845 613e a670 ad3e b80b 00bd 5142 14be
000001a0: 60e7 acbe ffb3 ab3e 1a4c 863d 8faf 9e3c
000001b0: 06f5 05bc e3a6 c6bd 803c 813e d20f d83c
000001c0: 7454 02be 2c39 44be 60a5 cc3e f731 cdbe
000001d0: 2fde 6bbe a705 f1bc 15dc 853c 9692 2e3d
000001e0: ff68 35be 8b17 d53d 873c a73d ac05 1ebe
000001f0: 38f2 5bbe 7fcc 95bd 9adf b1bd 6346 d63d
00000200: 0dc9 90be a7d8 85bd dc02 273e 28ee e03e
00000210: 4895 44be 5f17 a6be adc7 293c f03e c93d
00000220: 4652 363e 9c8b dd3d 04ae 13be 50ee 66be
00000230: beae 29bd dafa 27bd dd61 293e dc5c 41be
00000240: 4d3e 213d 7d63 b13d 298d a0be 6698 f33d
00000250: cb18 813e a5d7 f63d 41dd 163d 0005 383c
00000260: 32e5 193e fc55 c5bc 80a7 6d3e b6b3 bbbd
00000270: 4d49 f4be 07cd a1be 104b 99be 1e1a 01be
00000280: ee91 2ebd 4d13 28be 6db3 57be fa93 843c
00000290: d754 79bc 51c9 3a3e f646 8c3d bd37 3d3e
000002a0: 728e da3d bd64 c13c 4c65 e23d e992 1b3e
000002b0: c859 b9be 6787 b3be 9286 193d 4c34 bb3d
000002c0: 090a d63c a360 223e 97e2 32be 6dd9 0c3f
000002d0: be19 c43e 7fe7 8a3e 9934 db3d 7ad8 afbc
000002e0: bf8b 8d3e 8ba1 3a3e 5f71 303e 12fc b1be
000002f0: c18c df3e df31 3c3e 8b58 87be 9af0 30bd
00000300: 6fde 97be db36 943c 1596 97bd bb89 443e
00000310: 483a 3abe b2d6 91be 0517 2a3d 2891 983d
00000320: b413 09bd cc6f a33d 0376 eebd 5bc3 c2be
00000330: 4251 8ebb a93f 7e3e da70 3bbe 51e5 263d
00000340: 08ab ac3d 9ba0 793c e0e0 103f 0379 0d3e
00000350: 0340 56be dd5b b8bc 07e1 5ebe 5cdc 8a3e
00000360: 6843 d33d e4fe 25be 63ed c7bd 1888 a1be
00000370: 3aa4 cc3e 188d e03e b64b 963d 828b b33d
00000380: e619 713c 8630 7fbe 22c3 b9bd 5410 20be
00000390: aa8b f73e 3c12 aebc c78b 26be 60ce 31bd
000003a0: aeab f03d 55a1 7abd 8d75 c43c ab5b 30bf
000003b0: b9e5 14be a92c 0ebf 02f6 c2bd afa0 b6bd
000003c0: 2661 b0bd bc4d 00bd 13fc 5cbd 04c9 ea3e
000003d0: 85d6 c23e dc89 153e 3ed2 0cbc 3d52 43bd
000003e0: b2e7 d83d f3ae 88bc a4f7 2ebd 9e3d 943e
000003f0: b30e 423e b27d 1d3c 1344 eabc 5681 71be

actor.0.bias f4 [64]
-0.004051869 -0.006355775 0.069222055 0.0099741835 0.01290773 -0.018316839 0.002974871 0.025362222
-0.021873757 0.047271654 -0.032713648 0.014487656 0.015100787 0.027377635 0.045683347 -0.02395759
-0.01093611 -0.012161111 0.011254571 0.012072607 0.0034137154 -0.02301624 -0.058638066 0.010978193
0.011479953 0.03391119 -0.012179205 0.03822916 0.045656055 0.027137779 -0.03926381 -0.0016590764
0.010859653 0.013908825 0.02354463 -0.02213983 0.022514319 0.0530288 -0.004095684 -0.011855887
-0.039512645 0.025465049 0.0083069485 -0.025055682 -0.0039627547 -0.028793164 -0.016916867 -0.0093701435
0.03580893 -0.023641722 -0.021306524 -0.034692176 0.024988726 0.02865698 -0.0013960837 -0.026689969
-0.044345975 0.0053611407 -0.02125126 -0.04282389 0.030808559 -0.013330354 0.04584109 -0.058993164
00000000: 8ac5 84bb 1b44 d0bb 4bc4 8d3d c26a 233c
00000010: f27a 533c 320d 96bc 0ef6 423b 6fc4 cf3c
00000020: 9830 b3bc ec9f 413d bffe 05bd a25d 6d3c
00000030: 4b69 773c 1047 e03c 761e 3b3d b542 c4bc
00000040: 5f2d 33bc 663f 47bc 1865 383c 2fcc 453c
00000050: a4b8 5f3b 8e8c bcbc 782e 70bd e1dd 333c
00000060: 6a16 3c3c 76e6 0a3d 4a8b 47bc 2e96 1c3d
00000070: d801 3b3d 0c50 de3c 17d3 20bd 5e75 d9ba
00000080: b0ec 313c d7e1 633c abe0 c03c 975e b5bc
00000090: f36f b83c ba34 593d 1635 86bb 323f 42bc
000000a0: 03d8 21bd 149c d03c de19 083c 9341 cdbc
000000b0: ffd9 81bb a4df ebbc 3e95 8abc 3b85 19bc
000000c0: 62ac 123d 49ac c1bc 058b aebc 6219 0ebd
000000d0: 28b5 cc3c 0bc2 ea3c ccfc b6ba eca4 dabc
000000e0: 20a4 35bd 82ac af3b 1f17 aebc 1a68 2fbd
000000f0: 3b62 fc3c 8f67 5abc dec3 3b3d d1a2 71bd

actor.2.weight f4 [64, 64]
0.23707046 -0.012279061 0.24727459 -0.36931792 0.1276266 0.11258707 -0.23671083 0.10874465
0.10097579 -0.27831984 0.15410224 0.14123721 0.037201717 0.09276009 -0.057894472 0.17970063
0.17060332 0.3049543 0.07188495 0.34972832 -0.10189918 0.09419207 -0.043275006 0.010036905
0.09899798 0.0100721335 0.13859782 0.19651435 -0.12532036 0.40335783 -0.3164505 -0.492033
0.1560042 0.16631551 0.11081491 0.28595597 0.0982633 0.08537111 0.31821397 0.044986412
0.53006476 -0.109188244 -0.17542098 0.17884539 0.22451116 0.12298119 -0.030892503 0.009771048
0.033731226 0.02815543 -0.04540996 -0.058346074 -0.0041696397 0.22946802 0.22065535 -0.10764534
0.099465884 0.2562357 0.021021135 0.16095479 0.21355568 -0.53735334 0.3450677 -0.26833522
-0.091472454 -0.1665224 0.20966418 0.3253995 0.19884814 -0.14308245 0.0013244346 -0.4389509
0.022922965 0.09658019 -0.1436514 -0.21349569 0.21585542 -0.060587913 -0.3570328 0.26443505
-0.35297182 -0.13848326 0.38853684 0.058177855 0.083344914 -0.052425772 -0.058154985 0.17629965
-0.26394287 0.25142217 0.07271532 0.066697545 0.0033562083 0.19464497 0.0055937204 0.054641593
-0.2368329 -0.24051295 -0.002135433 0.23891848 -0.38612008 0.21455057 0.069419466 -0.23027527
-0.13652155 -0.08929803 0.43379998 -0.2078903 -0.4764704 -0.024554212 0.21761584 -0.023483599
0.0074135987 -0.37994108 0.07726092 0.29436317 0.10378777 0.006287826 -0.14333855 -0.030665038
0.2252909 0.28206766 0.03274991 -0.19324033 -0.05718186 0.28522277 0.30822122 0.24924316
-0.1333337 0.034452777 0.0802272 0.28432995 -0.047828067 7.606654e-05 -0.22549766 -0.09608918
0.48734212 -0.053778008 0.13370626 -0.34147602 0.40233618 -0.085291095 0.042535733 -0.0045912336
0.02913388 0.16664994 -0.0342375 0.06538613 -0.035005957 0.03745374 -0.14866753 0.21982226
0.0494279 0.22585496 -0.22372074 0.029404748 0.058821924 0.18329845 -0.14259516 -0.18763538
0.11625203 -0.22920805 0.29576308 -0.08685837 0.09785962 0.22468126 -0.3708373 -0.025932508
-0.09082376 0.32665762 0.10792589 -0.2524898 0.04581206 -0.07710406 0.08484486 0.0125410715
0.18619621 -0.47091797 0.020675085 -0.27004117 0.084990375 -0.33777437 -0.4190713 -0.13352397
0.25660458 -0.2987758 0.2153899 0.053462096 0.30675435 0.105324 0.16925383 0.17630361
-0.16351202 -0.02943877 -0.33185697 -0.15951702 -0.1226636 0.21390915 -0.28092286 0.3049408
-0.38835683 -0.024459334 -0.07381568 0.31042704 -0.21510047 -0.36821055 -0.03458135 0.3713771
0.37028843 0.17426363 -0.23255014 0.091070235 -0.084977746 0.3497782 -0.04850123 0.13229918
0.01999827 -0.45451686 0.19526587 0.013495789 -0.52918845 -0.018687794 -0.029640554 -0.05394574
-0.12864713 -0.030263364 -0.053901825 -0.021632362 0.02621265 0.04586011 0.014983776 -0.15990402
-0.01003846 -0.09359499 -0.2487079 -0.17269087 0.021115169 0.26099968 0.021443918 0.17701752
-0.12422401 0.21983345 0.20377173 -0.08763546 -0.1014961 0.06662752 -0.11749239 0.060153354
-0.118712135 -0.072105244 -0.33808383 0.13748506 -0.2208247 0.2735104 -0.003154629 0.25399545
00000000: 99c2 723e 1d2e 49bc 8d35 7d3e 3d17 bdbe
00000010: 8cb0 023e 0d94 e63d 5364 72be 84b5 de3d
00000020: 65cc ce3d f07f 8ebe facc 1d3e 7da0 103e
00000030: d460 183d 01f9 bd3d c122 6dbd 7103 383e
00000040: a3b2 2e3e f822 9c3e 6b38 933d 970f b33e
00000050: 84b0 d0bd c6e7 c03d 2241 31bd d571 243c
00000060: 74bf ca3d 9705 253c 96ec 0d3e 0f3b 493e
00000070: fb53 00be eb84 ce3e cd05 a2be c0eb fbbe
00000080: 91bf 1f3e 9d4e 2a3e edf2 e23d d268 923e
00000090: 453e c93d 0cd7 ae3d f1ec a23e ac43 383d
000000a0: 53b2 073f 169e dfbd 8fa1 33be 3f23 373e
000000b0: 41e6 653e 90dd fb3d 4612 fdbc bf16 203c
000000c0: c129 0a3d 37a6 e63c cbff 39bd 4bfc 6ebd
000000d0: 79a1 88bb aaf9 6a3e 7af3 613e 2975 dcbd
000000e0: c5b4 cb3d 5331 833e 8434 ac3c 55d1 243e
000000f0: 57ae 5a3e fd8f 09bf b7ac b03e 3c63 89be
00000100: e955 bbbd d984 2abe 35b2 563e c39a a63e
00000110: d99e 4b3e 3584 12be a798 ad3a 2cbe e0be
00000120: f1c8 bb3c d6cb c53d 5a19 13be 9d9e 5abe
00000130: 3409 5d3e 082b 78bd 01cd b6be 0864 873e
00000140: b9b8 b4be 8ece 0dbe 4dee c63e e74b 6e3d
00000150: bdb0 aa3d 68bc 56bd ec33 6ebd e587 343e
00000160: 8523 87be 68ba 803e c5eb 943d b998 883d
00000170: d5f3 5b3b 0351 473e 874b b73b ddcf 5f3d
00000180: 5384 72be 0749 76be 9ff2 0bbb 0ca7 743e
00000190: 88b1 c5be 25b3 5b3e cb2b 8e3d 48cd 6bbe
000001a0: 4ecc 0bbe e3e1 b6bd 081b de3e 32e1 54be
000001b0: eef3 f3be ea25 c9bc b0d6 5e3e ad60 c0bc
000001c0: c6ed f23b a387 c2be f93a 9e3d c5b6 963e
000001d0: af8e d43d 1c0a ce3b 57c7 12be 3f35 fbbc
000001e0: a8b2 663e 2c6b 903e c524 063d cbe0 45be
000001f0: 8737 6abd b808 923e 2ccf 9d3e 9939 7f3e
00000200: a188 08be 5b1e 0d3d 294e a43d b293 913e
00000210: 5de7 43bd ea85 9f38 dce8 66be 67ca c4bd
00000220: e884 f93e 5446 5cbd 4bea 083e f2d5 aebe
00000230: 02ff cd3e 19ad aebd f339 2e3d 0f72 96bb
00000240: 2daa ee3c 48a6 2a3e 9f3c 0cbd 2ae9 853d
00000250: 6862 0fbd 1869 193d 4d3c 18be 1619 613e
00000260: e974 4a3d 8646 673e 0d17 65be 3ae2 f03c
00000270: 42ef 703d 97b2 3b3e 7704 12be 7d23 40be
00000280: 8b15 ee3d 84b5 6abe 426e 973e cde2 b1bd
00000290: a06a c83d d812 663e 63de bdbe 6970 d4bc
000002a0: cf01 babd ab3f a73e 4008 dd3d 5846 81be
000002b0: 6da5 3b3d bce8 9dbd 24c3 ad3d 1179 4d3c
000002c0: 38aa 3e3e 291c f1be cc5e a93c d642 8abe
000002d0: 6f0f ae3d c3f0 acbe 8390 d6be 82ba 08be
000002e0: ad61 833e 24f9 98be 2c8f 5c3e 12fb 5a3d
000002f0: e80e 9d3e 1cb4 d73d e050 2d3e ef88 343e
00000300: b26f 27be 9329 f1bc 28e9 a9be 6e58 23be
00000310: 0e37 fbbd 000b 5b3e 1fd5 8fbe 3321 9c3e
00000320: b5d6 c6be f15e c8bc ad2c 97bd 4bf0 9e3e
00000330: 4c43 5cbe 1886 bcbe 2ca5 0dbd 2425 be3e
00000340: 7296 bd3e 2a72 323e a021 6ebe 0883 ba3d
00000350: d008 aebd 2116 b33e 3aa9 46bd 7079 073e
00000360: 69d3 a33c 6fb6 e8be c7f3 473e 711d 5d3c
00000370: e578 07bf 2517 99bc bfd0 f2bc 35f6 5cbd
00000380: 13bc 03be e0ea f7bc 29c8 5cbd 5a36 b1bc
00000390: e9bb d63c d0d7 3b3d 837e 753c e1bd 23be
000003a0: 5a78 24bc bbae bfbd 49ad 7ebe e0d5 30be
000003b0: b8f9 ac3c c0a1 853e 28ab af3c 1544 353e
000003c0: 2869 febd 051c 613e 89a9 503e 387a b3bd
000003d0: 30dd cfbd 0274 883d da9f f0bd 5d63 763d
000003e0: 591f f3bd eaab 93bd 5319 adbe e2c8 0c3e
000003f0: df1f 62be 8e09 8c3e e4bd 4ebb b10b 823e

actor.2.bias f4 [64]
0.0060253055 0.026016258 0.0345349 -0.05664307 0.031394646 0.03664243 -0.018449806 -0.029982274
-0.016106306 0.018995166 -0.013706331 0.007794552 -0.01826476 0.02027056 0.0328552 -0.027758228
0.03186182 0.013463418 0.0307334 -0.014739805 -0.0026483668 -0.03442592 0.02281781 -0.0042288685
0.021082394 -0.015591263 -0.036260255 -0.02192318 0.032350037 0.012979125 0.02880133 0.007855298
0.025451276 0.040789742 0.0014664 0.04978698 -0.040902253 -0.028546603 -0.026124733 -0.0116766635
-0.017076116 0.031791095 -0.021959735 0.0023862957 0.01822939 0.017620083 -0.0023754835 -0.034631383
-0.047815867 -0.02999927 0.046826024 -0.02203772 0.02613203 0.009130545 0.023552286 -0.036117416
0.016003013 -0.006572638 -0.041386504 -0.040335953 -0.031948365 0.01396041 -0.029164476 -0.04452348
00000000: ed6f c53b 0c20 d53c 7874 0d3d 9002 68bd
00000010: ac97 003d 5f16 163d 0c24 97bc 639d f5bc
00000020: 5ff1 83bc c09b 9b3c 8590 60bc 7169 ff3b
00000030: fa9f 95bc 720e a63c 2d93 063d 3965 e3bc
00000040: 8a81 023d ab95 5c3c 9cc4 fb3c 397f 71bc
00000050: 3990 2dbb 3202 0dbd 6aec ba3c 5292 8abb
00000060: fcb4 ac3c 7f72 7fbc a285 14bd 3e98 b3bc
00000070: 7981 043d 65a6 543c c4f0 eb3c 82b3 003c
00000080: 327f d03c 2513 273d 3834 c03a 6fed 4b3d
00000090: 1f89 27bd 91da e9bc 8903 d6bc 7a4f 3fbc
000000a0: 36e3 8bbc 6137 023d e7e4 b3bc 6663 1c3b
000000b0: cd55 953c fe57 903c 00ae 1bbb a3d9 0dbd
000000c0: 92da 43bd 07c1 f5bc a5cc 3f3d 7388 b4bc
000000d0: d712 d63c 4898 153c b9f0 c03c dbef 13bd
000000e0: c018 833c 495f d7bb e584 29bd 5037 25bd
000000f0: 4adc 02bd 34ba 643c 57ea eebc 415e 36bd

actor.4.weight f4 [4, 64]
-0.099936746 -0.030405864 -0.103040546 0.097681426 -0.14291984 -0.12424776 0.100658946 0.12528482
0.07207829 -0.12546968 0.0018082211 0.03921385 0.098651946 -0.100166984 -0.13195308 0.08417929
-0.032246552 -0.12677822 0.033242792 0.0156209525 0.038705204 0.124100454 -0.12353697 -0.0014864707
-0.090657346 0.086200476 0.1153519 0.10082636 -0.12242682 -0.11480567 -0.09730108 -0.057576794
-0.12907812 -0.091755174 -0.091287024 -0.12061904 0.107199036 0.094904 0.035407744 -0.02220504
0.018127726 -0.027087439 0.11765385 -0.0910639 -0.039898407 -0.11540724 0.049157083 0.12795688
0.11050966 0.05056183 -0.11591576 0.11165368 -0.11555633 0.03628104 -0.09690603 0.10759586
0.10286595 -0.11515469 0.10863219 0.09083634 0.13156788 -0.028939504 -0.007535231 0.12316953
0.12854487 -0.20482855 -0.13064057 0.14251968 -0.10282478 -0.04262947 -0.11381351 -0.05183432
-0.11740337 0.026145719 -0.15262048 -0.14496711 0.18750596 -0.20056306 -0.13095827 0.1375281
0.13242353 -0.08522097 0.1620818 -0.15860252 -0.17768629 -0.0769181 -0.03338454 -0.18571
-0.061013795 0.2070247 -0.090201996 0.16749671 0.07764747 0.05826751 0.073718384 0.1380756
-0.10455761 -0.16791794 0.10090805 0.100087464 -0.09465232 0.1485688 0.16315852 -0.12801264
0.13709208 0.1285924 0.11738023 -0.19797282 -0.16932738 -0.17069845 0.15988916 0.17708628
-0.024849426 0.1784458 -0.03320557 -0.12433329 -0.066453695 0.16252768 0.10756402 0.11649558
-0.061239004 0.057839528 0.17707743 0.008123866 0.047281865 -0.13872543 -0.16947386 0.02814737
0.14858417 0.07980823 0.14984952 -0.17038873 0.18196465 0.11907587 -0.14967807 -0.1788269
-0.14003018 0.15341847 -0.008738376 -0.0061587826 -0.15163697 0.15049762 0.16666329 -0.1638643
0.07373134 0.16031703 -0.034321807 -0.035828073 -0.06884624 -0.17252617 0.12739345 0.0038535998
0.021422867 -0.14387989 -0.18627258 -0.167347 0.17198871 0.1559924 0.15721786 0.103147775
0.15554132 0.17009811 0.109654084 0.18187502 -0.11945664 -0.15503308 -0.08461981 0.032023303
-0.0680457 0.07758803 -0.12798056 0.13219103 0.10284291 0.17220683 -0.101946965 -0.17784457
-0.18878429 -0.12757334 0.18832342 -0.16158192 0.10030879 -0.054033317 0.14588562 -0.1657332
-0.13629869 0.15236138 -0.18934701 -0.14103468 -0.18546663 0.07284566 -0.021618992 -0.10593447
-0.16041982 0.20415956 0.0852218 -0.079849795 -0.10424485 -0.03256343 0.15801883 0.16972253
0.1686274 -0.13287397 0.15554702 0.13411574 -0.15542915 0.16097288 0.030278146 -0.06054643
-0.14962529 -0.07447302 -0.16567701 0.16620708 0.18971379 0.16399351 -0.062231265 0.19576137
0.114756346 -0.1891319 0.1768923 -0.12557887 -0.17120716 -0.17079012 -0.12288529 -0.15457948
-0.039889142 0.1284249 -0.13177781 -0.18216692 0.12647444 -0.0643916 -0.13854611 0.12872438
-0.12287238 -0.1445908 -0.039771143 0.16768284 0.1544976 0.030581873 -0.1450679 -0.11022426
0.18726395 -0.14352515 -0.14767864 0.16898565 0.053892292 -0.1589196 -0.14917243 -0.028878378
0.13552377 -0.14360459 -0.09534952 0.09036159 0.16794151 0.1274758 0.17898773 0.018030426
00000000: a3ab ccbd b815 f9bc ec06 d3bd 330d c83d
00000010: 9459 12be 9c75 febd 4726 ce3d aa4a 003e
00000020: c89d 933d 207b 00be d501 ed3a b49e 203d
00000030: 080a ca3d 5924 cdbd b51e 07be 3166 ac3d
00000040: f614 04bd 26d2 01be 9829 083d 06ef 7f3c
00000050: 5989 1e3d 6128 fe3d f300 fdbd aed5 c2ba
00000060: 8faa b9bd e089 b03d 9e3d ec3d 0d7e ce3d
00000070: eaba fabd 3c1f ebbd ca45 c7bd a5d5 6bbd
00000080: 0e2d 04be 23ea bbbd b1f4 babd 1e07 f7bd
00000090: 2b8b db3d 075d c23d b607 113d 58e7 b5bc
000000a0: 9980 943c 7ae6 ddbc 80f4 f03d b67f babd
000000b0: 836c 23bd a25a ecbd f058 493d 2107 033e
000000c0: e352 e23d ec19 4f3d 3e65 edbd afaa e43d
000000d0: cca8 ecbd 6e9b 143d ab76 c6bd 385b dc3d
000000e0: 62ab d23d 39d6 ebbd 8e7a de3d 6708 ba3d
000000f0: bbb9 063e 8a12 edbc 19ea f6bb 4e40 fc3d
00000100: 44a1 033e 93be 51be a4c6 05be aef0 113e
00000110: cc95 d2bd 3d9c 2ebd 0f17 e9bd 3950 54bd
00000120: 2e71 f0bd 8c2f d63c 8b48 1cbe 4272 14be
00000130: 9001 403e 6760 4dbe ed19 06be 2bd4 0c3e
00000140: 099a 073e 5588 aebd c5f8 253e b368 22be
00000150: 65f3 35be 3d87 9dbd 3abe 08bd c32a 3ebe
00000160: 9ae9 79bd 48fe 533e d3bb b8bd 4284 2b3e
00000170: a305 9f3d eaa9 6e3d aaf9 963d b163 0d3e
00000180: 4d22 d6bd aef2 2bbe e1a8 ce3d a8fa cc3d
00000190: 13d9 c1bd 6b22 183e 0713 273e bf15 03be
000001a0: de61 0c3e baad 033e 0c65 f03d 63b9 4abe
000001b0: 2864 2dbe 93cb 2ebe fcb9 233e 1b56 353e
000001c0: 0691 cbbc 7fba 363e 9002 08bd 74a2 febd
000001d0: e018 88bd a86d 263e 864a dc3d 3c95 ee3d
000001e0: c0d5 7abd 24e9 6c3d c953 353e f719 053c
000001f0: a1aa 413d 0a0e 0ebe 8e8a 2dbe 5095 e63c
00000200: 7326 183e 7f72 a33d 2772 193e 627a 2ebe
00000210: f154 3a3e 0dde f33d 3545 19be 661e 37be
00000220: 1264 0fbe bb19 1d3e 682b 0fbc 9dcf c9bb
00000230: b946 1bbe 0c1c 1a3e c8a9 2a3e 0bcc 27be
00000240: 7500 973d 262a 243e 0695 0cbd 75c0 12bd
00000250: 42ff 8cbd b3aa 30be 6e73 023e ad8c 7c3b
00000260: 027f af3c 4055 13be 3dbe 3ebe 035d 2bbe
00000270: cf1d 303e 79bc 1f3e b8fd 203e 243f d33d
00000280: 3946 1f3e 332e 2e3e 5292 e03d 723d 3a3e
00000290: afa5 f4bd fec0 1ebe 274d adbd de2a 033d
000002a0: 8b5b 8bbd 79e6 9e3d 560d 03be 165d 073e
000002b0: 4e9f d23d fd56 303e 92c9 d0bd e31c 36be
000002c0: ab50 41be 96a2 02be dbd7 403e bb75 25be
000002d0: b26e cd3d 0a52 5dbd 0a63 153e f7b5 29be
000002e0: e291 0bbe 9f04 1c3e 2fe4 41be 656b 10be
000002f0: f7ea 3dbe 1b30 953d 501a b1bc 2cf4 d8bd
00000300: 1845 24be 340f 513e c488 ae3d 4a88 a3bd
00000310: 537e d5bd 3b61 05bd b0cf 213e becb 2d3e
00000320: a9ac 2c3e 1d10 08be b847 1f3e a355 093e
00000330: d228 1fbe 13d6 243e e009 f83c 89ff 77bd
00000340: 5f37 19be 5085 98bd 3ca7 29be 3032 2a3e
00000350: 5544 423e eaed 273e 36e6 7ebd ab75 483e
00000360: 6005 eb3d cbab 41be 4123 353e bf97 00be
00000370: ee50 2fbe 9be3 2ebe 48ab fbbd 154a 1ebe
00000380: cc62 23bd d181 033e c3f0 06be f789 3abe
00000390: 8482 013e bedf 83bd 08df 0dbe 53d0 033e
000003a0: 84a4 fbbd 9c0f 14be 11e7 22bd 0db5 2b3e
000003b0: 9e34 1e3e d686 fa3c ae8c 14be 42bd e1bd
000003c0: 1fc2 3f3e 42f8 12be 1239 17be 930a 2d3e
000003d0: 2abe 5c3d d2bb 22be a8c0 18be 5992 ecbc
000003e0: bec6 0a3e 150d 13be 9c46 c3bd 7f0f b93d
000003f0: dcf8 2b3e 0489 023e 8f48 373e 8bb4 933c

actor.4.bias f4 [4]
-0.08289481 -0.002667338 0.050953433 -0.0026296303
00000000: c1c4 a9bd 81ce 2ebb 8cb4 503d e055 2cbb
