HFDRL_UNIT8/models/Archived/LunarLander-v3__ppo__1__1768735658__u160.pt (torch, 44753 bytes, 11 tensors)

critic.0.weight f4 [64, 8]
0	0xbe112545	-0.14174373
1	0x3d70b75f	0.058768626
2	0x3d30a3cf	0.04312497
3	0xba8530ca	-0.0010161635
4	0xbd7b5719	-0.06136236
5	0x3e0af4dc	0.13569969
6	0xbe9315fc	-0.2872771
7	0x3e0dec51	0.13859679
8	0xbe3d4e1e	-0.1848683
9	0x3e58b3c8	0.21162331
10	0x3e7782b8	0.24170959
11	0xbdec7311	-0.11545385
12	0xbe30e8a8	-0.17276251
13	0xbe4ec377	-0.20191751
14	0x3e289fba	0.16467181
15	0xbd70a95e	-0.05875527
16	0x3d09b5a0	0.033620477
17	0xbe63c954	-0.2224477
18	0x3e1682f0	0.14698386
19	0x3db18a87	0.08669
20	0x3d12dcab	0.035854977
21	0x3dd00b3c	0.10158393
22	0x3e3d6baa	0.18498102
23	0x3f080e54	0.53146863
24	0xbe4b766d	-0.19869395
25	0x3dca41fb	0.09875866
26	0xbc552549	-0.013009378
27	0xbefd5b7e	-0.49483865
28	0x3e8b6135	0.272226
29	0x3ba8600e	0.0051384037
30	0xbe848b1f	-0.2588739
31	0xbe1f43df	-0.15553235
32	0x3cc8ad84	0.024496801
33	0xbdc3c473	-0.09558954
34	0x3e854a23	0.26033124
35	0xbd7dc79d	-0.061957944
36	0x3b9ea88f	0.004841871
37	0xbdd050fe	-0.10171698
38	0x3c96bf14	0.01840166
39	0xbec5060d	-0.3848118
40	0xbc88c4ae	-0.016695347
41	0xbe73a90b	-0.23794954
42	0xbb8c6389	-0.0042843265
43	0xbdfc2bbe	-0.12313031
44	0xbd06e46b	-0.03293268
45	0x3e899c33	0.26876983
46	0xbe4d1ec2	-0.20031264
47	0xbe53df54	-0.20690662
48	0xbe9e09cc	-0.3086685
49	0xbe2ec60d	-0.17067738
50	0xbc3abddc	-0.011397805
51	0x3ac5f9a8	0.0015104311
52	0xbd8b3d64	-0.06798819
53	0xbe6b3536	-0.22969517
54	0x3edd523b	0.432268
55	0x3e34ac89	0.17643942
56	0xbd94145a	-0.07230444
57	0x3ef0c474	0.47024882
58	0x3e0f777f	0.14010428
59	0x3e1100c9	0.14160456
60	0xbda9fd70	-0.083002925
61	0x3e1200e4	0.14258152
62	0x3e896ea6	0.2684223
63	0x3ec0552c	0.3756498
64	0x3e24ac13	0.16081266
65	0xbd773f3d	-0.060363043
66	0x3e88e3c1	0.26736262
67	0xbe53f487	-0.20698749
68	0x3eab209b	0.33423313
69	0xbcf7e338	-0.030259714
70	0xbd3ffd54	-0.046872452
71	0xbd38c0cb	-0.045105737
72	0x3bc34fdc	0.0059604477
73	0x3e3e9cb2	0.18614462
74	0x3e9e0b96	0.30868214
75	0xbe7bd553	-0.24593095
76	0x3e37a456	0.17933783
77	0x3d5f39c1	0.054498438
78	0x3e76e5a2	0.24111035
79	0x3f067c63	0.5253355
80	0xbd75bf6e	-0.059997015
81	0xbedd0322	-0.43166453
82	0x3e0dbf82	0.13842586
83	0x3ebb2c87	0.3655741
84	0xbc960696	-0.018313687
85	0x3e7ac34f	0.24488567
86	0xbd96f399	-0.07370681
87	0xbe77175b	-0.24130003
88	0xbd867034	-0.0656437
89	0x3ec144c6	0.37747782
90	0xbd8bb4df	-0.06821608
91	0x3cd3e3bd	0.02586543
92	0xbd9ff83b	-0.07811018
93	0x3e526354	0.20545703
94	0xbe8a8170	-0.27051878
95	0xbba53fd4	-0.0050430093
96	0xbcb5c677	-0.022189362
97	0x3e8eff0c	0.2792896
98	0x3d77d0ee	0.060501985
99	0xbda52e19	-0.08065433
100	0xbdb49662	-0.08817746
101	0x3ca41fb9	0.020034658
102	0xbdf77156	-0.12082164
103	0x3de9d92d	0.11418376
104	0xbd187002	-0.037216194
105	0xbe17c23d	-0.1482019
106	0x3e4d5c35	0.20054705
107	0x3eb85b96	0.36007375
108	0xbccf5595	-0.025309363
109	0x3cfe0cde	0.031011995
110	0xbe74580c	-0.23861712
111	0x3e1bda5e	0.15220019
112	0xbddd0d4b	-0.10793551
113	0xbda089de	-0.07838796
114	0x3e2c0363	0.16798167
115	0x3e82eb6f	0.25570247
116	0x3dced9d5	0.10100142
117	0x3c3833e7	0.011242843
118	0xbc826c88	-0.015920892
119	0x3ba81e82	0.00513059
120	0xbd78a131	-0.0607006
121	0x3de6d1e0	0.11270499
122	0xbe78c157	-0.24292503
123	0xbe728b61	-0.23685981
124	0xbcd4561d	-0.025919968
125	0x3e238dbd	0.15972038
126	0x3d5d2a0c	0.053995177
127	0xbdb9cdae	-0.090724334
128	0x3dde34b9	0.108499
129	0x3dacf9b7	0.08446067
130	0x3ccda349	0.025102274
131	0xbecc1e00	-0.39866638
132	0xbdf03a48	-0.11729866
133	0xbd5bd99f	-0.053674337
134	0xbdec4c56	-0.115379974
135	0x3e59bb5f	0.21262883
136	0xbd9ba74a	-0.07600267
137	0x3e368b6a	0.1782662
138	0x3e9acfed	0.3023676
139	0x3cf9df09	0.03050186
140	0x3e801aee	0.25020546
141	0xbe429d07	-0.19005214
142	0xbd18c00e	-0.037292533
143	0x3e024eaa	0.1272532
144	0xbe9977a2	-0.29974085
145	0xbe1d4109	-0.1535684
146	0x3e86a8f6	0.26300782
147	0x3e099257	0.1343473
148	0xbe42d2d4	-0.19025737
149	0x3de7cc6c	0.11318287
150	0xbc468f24	-0.012119088
151	0xbda366e2	-0.07978608
152	0xbd51c687	-0.05121472
153	0x3e8dbcad	0.2768301
154	0xbd53cc5b	-0.05170856
155	0xbe1969d6	-0.1498178
156	0x3cc16abd	0.023610467
157	0x3e396816	0.18106112
158	0xbeac5c1d	-0.33664027
159	0xbe4ddafc	-0.20103067
160	0x3e5d2a0e	0.21598074
161	0xbbf2ef73	-0.0074137985
162	0x3e40d084	0.18829542
163	0x3cb02dff	0.021506308
164	0x3da5d240	0.08096743
165	0xbd89734a	-0.06711443
166	0x3a3deb95	0.0007244882
167	0x3cd1149d	0.025522524
168	0x3dd97371	0.10617722
169	0x3cafcaf4	0.02145908
170	0xbe4749ac	-0.19461697
171	0xbe827d51	-0.25486234
172	0xbd91ba65	-0.0711563
173	0x3da49e7a	0.080380395
174	0xbe42c343	-0.19019799
175	0xbdb074e5	-0.08616046
176	0x3e3f54e4	0.18684727
177	0x3af89616	0.0018965628
178	0x3dd1fa4f	0.10252821
179	0x3e506dc8	0.20354378
180	0xbe34b370	-0.17646575
181	0xbe1b06eb	-0.15139358
182	0xbe0041ef	-0.12525152
183	0xbe615c03	-0.22007756
184	0x3e5c9b3f	0.21543597
185	0x3da113d5	0.07865111
186	0xbdce45c3	-0.100719
187	0x3d3b9f13	0.045806002
188	0x3e1d84fc	0.15382761
189	0xbdd3cdcf	-0.10341989
190	0x3c89a230	0.01680097
191	0xbe8f0255	-0.27931467
192	0xbd851117	-0.064974
193	0x3d82fde6	0.063960835
194	0x3db1684c	0.08662471
195	0xbdf35a46	-0.11882453
196	0x3d4ca195	0.049958784
197	0xbe4ebbcb	-0.20188825
198	0xbf1739e3	-0.59072703
199	0xbe24e8d4	-0.16104442
200	0xbda51f55	-0.08062617
201	0x3e9c11b1	0.30482247
202	0x3cf610b8	0.030037269
203	0x3cbc9908	0.02302219
204	0x3cea29aa	0.02858432
205	0xbe608cbb	-0.21928684
206	0x3dad411c	0.08459684
207	0xbd8fa033	-0.070129775
208	0xbdcef600	-0.101055145
209	0x3ccde656	0.025134247
210	0x3d97c9f7	0.074115686
211	0x3c393b8e	0.011305703
212	0x3e748b42	0.23881248
213	0xbe0de4ea	-0.13856855
214	0x3ddd39ef	0.108020656
215	0x3e26a2a7	0.16272984
216	0xbd64bf19	-0.055846307
217	0xbde27265	-0.11056975
218	0xbcd91e8b	-0.026503822
219	0x3d758f08	0.05995086
220	0xbe7cdb6e	-0.24693081
221	0x3e4b1b1f	0.19834565
222	0x3df9ca3f	0.121967785
223	0x3e9e4adb	0.30916485
224	0x3e8c8ee9	0.27452782
225	0x3c662c5d	0.014048663
226	0xbe8d6653	-0.2761713
227	0xbd3a01ba	-0.045411803
228	0xbdfcad52	-0.12337746
229	0xba9de563	-0.0012046512
230	0xbec08964	-0.3760482
231	0xbdc9828d	-0.09839354
232	0x3dec84db	0.11548778
233	0x3ed6e71b	0.41973194
234	0xbe3af7fb	-0.1825866
235	0x3e8f103f	0.27942082
236	0xbe4d8ee0	-0.20074034
237	0x3d8cf7e4	0.06883219
238	0x3c22cf89	0.009937176
239	0xbedb7cf7	-0.42868778
240	0xbe8c1b86	-0.2736475
241	0xbdcc119e	-0.09964298
242	0xbe35abdc	-0.1774134
243	0x3ca7bc33	0.020475483
244	0x3e62bd89	0.22142614
245	0xbde3bd66	-0.11120109
246	0x3ddc1372	0.107458964
247	0x3eb7484a	0.3579734
248	0xbdd482c0	-0.10376501
249	0x3eec33e9	0.46133354
250	0x3e0d6d2e	0.1381118
251	0xbd4b4c16	-0.049633108
252	0x3e47f94e	0.19528696
253	0x3e1879e2	0.14890245
254	0xbe286414	-0.16444427
255	0xbe89232f	-0.26784655

critic.0.bias f4 [64]
0	0xbe11d060	-0.14239645
1	0x3e00d9b1	0.12583043
2	0x3de39378	0.11112112
3	0xbde13c46	-0.10997824
4	0xbe2a47dc	-0.16628975
5	0xbbecb8c4	-0.007224174
6	0xbc08e6bc	-0.008355793
7	0x3e1b866b	0.15187995
8	0xbe079f81	-0.1324444
9	0x3e0dcdfb	0.13848107
10	0x3d5906c4	0.052984968
11	0xbde24a2a	-0.11049302
12	0x3e08bfec	0.13354462
13	0x3e074487	0.13209735
14	0x3dbe26b8	0.09284729
15	0xbe0699e3	-0.1314464
16	0x3e021755	0.12704213
17	0xbc8f6ad5	-0.017506996
18	0xbe09bb85	-0.1345044
19	0xbde084f7	-0.10962861
20	0xbe11523c	-0.14191526
21	0x3ca2e794	0.019885816
22	0xbdc58406	-0.09644322
23	0xbe12b510	-0.14326882
24	0xbd13ec5c	-0.03611408
25	0xbd307aa8	-0.043085724
26	0x3e0ad535	0.13557895
27	0x3e01a839	0.12661828
28	0xbddd9b29	-0.1082061
29	0xbdc5bdae	-0.09655319
30	0x3e06ef4f	0.13177226
31	0xbdb53ee5	-0.08849887
32	0xbe02d3ed	-0.12776156
33	0xbe0eef6c	-0.1395852
34	0x3e18ce90	0.14922547
35	0x3e09e865	0.13467558
36	0xbe053b64	-0.13010937
37	0xbe07ea03	-0.13272862
38	0xbe028f5e	-0.12750003
39	0x3df7b85e	0.12095712
40	0x3d46234a	0.048373498
41	0x3e0738cd	0.13205262
42	0xbded976b	-0.11601146
43	0xbcd18b17	-0.025579019
44	0xbe0f29cf	-0.13980792
45	0xbd829fca	-0.063781336
46	0xbdc2a640	-0.09504366
47	0xbe076e68	-0.1322571
48	0xbe0a4566	-0.13503036
49	0xbddf60d1	-0.10907138
50	0xbdf3f19c	-0.11911318
51	0x3df1a333	0.11798706
52	0xbe015e02	-0.12633517
53	0x3c8a3f1b	0.016875794
54	0xbdc735c7	-0.09727054
55	0xbd8aa56b	-0.06769832
56	0xbe11f9e4	-0.14255482
57	0x3d4f7c3b	0.050655585
58	0xbe11bcf5	-0.14232238
59	0xbd635d19	-0.055508707
60	0xbc6b3d18	-0.014357828
61	0x3de09550	0.10965979
62	0xbe174f5b	-0.14776365
63	0xbe0d5fd2	-0.13806084

critic.2.weight f4 [64, 64]
0	0x3e60ac7e	0.219408
1	0xbf1010ec	-0.5627582
2	0xbe39ceb8	-0.18145263
3	0x3e717b8a	0.23582283
4	0x3cfafd3c	0.03063833
5	0xbdae0e1b	-0.08498784
6	0x3e1b1429	0.15144409
7	0xbeb9fb0e	-0.36324352
8	0x3c2ac87b	0.010423775
9	0x3e95d649	0.2926505
10	0xbe26af63	-0.16277842
11	0xbd74d39b	-0.059772115
12	0xbdc1e538	-0.09467548
13	0xbe4ec3f8	-0.20191944
14	0xbe984df5	-0.29746976
15	0x3e5d3990	0.2160399
16	0x3ce7fdb1	0.028319212
17	0xbdda3be9	-0.10655958
18	0x3d49fd8f	0.049314078
19	0x3e25a9a2	0.16177991
20	0xbd915643	-0.07096531
21	0x3dddb0ca	0.108247355
22	0x3e297fd7	0.16552673
23	0x3dff07af	0.124526374
24	0x3e9ec9a1	0.31013206
25	0x3dc1146d	0.09427724
26	0x3e39d027	0.1814581
27	0xbc464592	-0.012101548
28	0x3cf2df5b	0.02964752
29	0x3dfbf560	0.12302661
30	0xbcb48a28	-0.022038534
31	0x3dc3be57	0.09557789
32	0xbd0d819b	-0.03454743
33	0x3e652420	0.22377062
34	0x3e30f795	0.17281945
35	0xbdb72f1e	-0.08944534
36	0xbea3091b	-0.31842884
37	0xbe823190	-0.25428438
38	0xbda1bc83	-0.07897284
39	0xbf08d7a5	-0.5345405
40	0x3e49c393	0.19703512
41	0xbe5c3d15	-0.21507676
42	0x3d291583	0.04128028
43	0xbdb1ce68	-0.08681947
44	0xbe771104	-0.24127585
45	0x3e056ee7	0.13030587
46	0x3dc1c651	0.09461654
47	0x3e9d4a0f	0.30720565
48	0x3d793351	0.060839955
49	0x3e61ca43	0.22049813
50	0xbd6791ec	-0.056535646
51	0xbda2c57c	-0.079478234
52	0x3ddf1f01	0.108945854
53	0xbd9c3812	-0.07627882
54	0xbb31333d	-0.0027038597
55	0x3e076587	0.13222323
56	0x3e2cb0d3	0.16864328
57	0xbda01e45	-0.078182735
58	0x3d998d6d	0.07497678
59	0x3c74e364	0.014946792
60	0x3e539c71	0.20665146
61	0x3e7b1a1f	0.24521683
62	0xbe70f2c9	-0.23530115
63	0x3da4c6f0	0.08045757
64	0x3e9f6c5b	0.31137356
65	0x3e04b0c6	0.12958059
66	0xbd4915b0	-0.04909295
67	0x3d9cdb47	0.07659011
68	0x3ca39e58	0.019972965
69	0xbe3eecb2	-0.1864498
70	0x3dcfe4fa	0.10151096
71	0xbe868d05	-0.26279464
72	0xbb0543cc	-0.00203346
73	0xbe9aefdd	-0.30261126
74	0xbc5f4226	-0.013626611
75	0xbd773b90	-0.060359538
76	0x3ecabe75	0.39598432
77	0x3e730ebd	0.23736091
78	0xbe2a9f03	-0.1666222
79	0x3e89f0d8	0.26941562
80	0xbd755009	-0.05989078
81	0xbe807da8	-0.25095868
82	0x3ed4e8e0	0.4158392
83	0xbdc41d72	-0.09575929
84	0x3dd572f6	0.10422318
85	0x3d8b5a28	0.06804305
86	0x3bc1d502	0.005915285
87	0x3de7893b	0.113054715
88	0xbb337f78	-0.002738921
89	0x3e1cbc19	0.15306129
90	0xbe06ab4f	-0.13151287
91	0xbdc2da9a	-0.09514351
92	0x3e85c3bd	0.261259
93	0x3ea137f6	0.31488007
94	0xbe156b92	-0.14591816
95	0x3e4b2969	0.19840015
96	0x3e69067b	0.22756378
97	0x3e08237b	0.13294785
98	0xbdd77b17	-0.105215244
99	0xbe3aedf3	-0.18254833
100	0x3cd48935	0.025944332
101	0xbda5c767	-0.080946736
102	0xbdd2f2af	-0.103001945
103	0x3e483600	0.1955185
104	0x3d8266cd	0.06367264
105	0xbd9901d6	-0.07471053
106	0x3e60f087	0.21966754
107	0xbd91628a	-0.07098873
108	0x3e0c60f3	0.13708858
109	0x3e303a37	0.17209707
110	0x3ea504c5	0.322302
111	0x3cca4037	0.024688823
112	0x3ed53303	0.4164048
113	0xbd9cbe37	-0.07653468
114	0x3d0a3e88	0.03375104
115	0xbdf1f7f7	-0.11814874
116	0x3de6e34a	0.11273821
117	0xbdcfafb8	-0.101409376
118	0xbd8ab5a6	-0.06772928
119	0xbde2716a	-0.11056788
120	0x3eba7549	0.36417606
121	0xbe61f43a	-0.22065821
122	0x3e5359f9	0.2063979
123	0x3e5c793e	0.21530625
124	0x3ddb0f55	0.10696284
125	0xbc0e7466	-0.008694744
126	0xbe77c338	-0.24195564
127	0x3c274c06	0.0102109965
128	0xbe2b70a1	-0.16742183
129	0x3e27d97e	0.1639156
130	0x3e7f4fc4	0.24932772
131	0x3d03c598	0.032170862
132	0x3e79bae2	0.24387696
133	0xbd6ab155	-0.057298023
134	0x3dac140f	0.084022634
135	0x3e7c0a54	0.24613315
136	0xbe97a016	-0.29614323
137	0x3ebeecba	0.37289983
138	0xbe38f8c2	-0.18063644
139	0xbe8381c4	-0.2568494
140	0xbd4ac192	-0.04950101
141	0x3e99ae4b	0.30015787
142	0x3e4a8991	0.1977904
143	0xbe9b9428	-0.30386472
144	0xbeb383ae	-0.350614
145	0xbd3e19ff	-0.04641151
146	0x3d395b41	0.045253042
147	0xbe04d17f	-0.12970541
148	0xbe2f58d8	-0.17123735
149	0xbdb4f94f	-0.08836614
150	0xbe11f7e4	-0.14254719
151	0xbd00ec2d	-0.031475235
152	0xbe2f75a1	-0.17134716
153	0x3d659809	0.056053195
154	0x3eec08a9	0.46100357
155	0x3e71454d	0.23561592
156	0x3cbad291	0.022805484
157	0xbedb7996	-0.428662
158	0xbe35e6aa	-0.17763773
159	0xbeaf8cad	-0.34287015
160	0x3e83907d	0.25696173
161	0x3d15f5a1	0.036611203
162	0xbd08b232	-0.033373065
163	0x3e080e85	0.13286789
164	0xbdc30776	-0.095229074
165	0xbdfb4ba8	-0.1227029
166	0xbbd79217	-0.0065786946
167	0x3e355a45	0.17710216
168	0x3df00961	0.11720539
169	0xbe983741	-0.29729655
170	0x3e829f5a	0.255122
171	0x3d67d510	0.056599677
172	0x3c80c2ad	0.015717829
173	0xbe4884ec	-0.19581956
174	0x3eceb9cb	0.40376124
175	0x3d48df74	0.049041227
176	0x3ca50445	0.020143637
177	0xbd8ec740	-0.06971598
178	0x3c9eb3a4	0.019372769
179	0x3bc00684	0.0058601517
180	0xbe28542c	-0.16438359
181	0x3df65ece	0.12029801
182	0x3d6d5e16	0.057951055
183	0xbd8c3b49	-0.06847245
184	0xbea8af8f	-0.3294644
185	0x3c7a22d0	0.015267089
186	0x3d5762e7	0.052584555
187	0xbe5741c1	-0.21021177
188	0x3cb0951e	0.02155548
189	0x3d141333	0.036151122
190	0xbdc5c7cf	-0.09657251
191	0xbd2ceb24	-0.042216435
192	0x3e9d363a	0.30705434
193	0x3e28c6ec	0.16482133
194	0xbe62d40a	-0.22151199
195	0x3e8131f7	0.25233433
196	0x3d677e2b	0.056516808
197	0xbe145aa2	-0.14487699
198	0xbf1aebfb	-0.6051633
199	0xbe0b5d2e	-0.13609764
200	0x3debeee9	0.11520178
201	0x3cf8b517	0.030359788
202	0x3dc5a24a	0.09650095
203	0x3d5bc7e3	0.053657424
204	0xbd9f2079	-0.077698655
205	0x3e2a0eb6	0.16607174
206	0xbe2447eb	-0.1604306
207	0x3e879171	0.2647815
208	0xbdad90f2	-0.08474912
209	0x3de0eef3	0.10983076
210	0xbd881a32	-0.06645621
211	0x3e334698	0.17507398
212	0xbe0c9b14	-0.13731033
213	0x3dfc1f23	0.12310626
214	0x3ed4f054	0.41589606
215	0x3e611e02	0.21984103
216	0xbe12491f	-0.14285706
217	0xbc8b2443	-0.016985064
218	0xbe96ce81	-0.29454425
219	0xbe58b339	-0.21162118
220	0xbd908f26	-0.070585534
221	0xbec10417	-0.37698433
222	0x3e273399	0.16328277
223	0x3e3582a4	0.17725617
224	0x3d9b28b9	0.075761266
225	0x3e73145a	0.23738232
226	0xbd939e17	-0.072078876
227	0xbe2f95ec	-0.17147034
228	0xbdecf6f0	-0.11570537
229	0xbe8dbd4b	-0.27683482
230	0x3e24a278	0.16077602
231	0xbde34404	-0.11096957
232	0x3ddc4163	0.10754659
233	0xbd613e9a	-0.054991342
234	0x3e17fe19	0.14843024
235	0x3dd3be3f	0.10339021
236	0xbe045c07	-0.1292573
237	0x3ec7df8d	0.39037743
238	0xbdb8a274	-0.090153605
239	0x3daf9214	0.08572784
240	0x3e8652e8	0.26235127
241	0x3da4ad80	0.08040905
242	0xbe4d7a58	-0.20066202
243	0xbdd66a57	-0.104695015
244	0x3e38141b	0.1797642
245	0xbdce37f5	-0.10069267
246	0xbd60a62c	-0.054845974
247	0xbe9a571a	-0.30144578
248	0x3e21446c	0.15748757
249	0xbe402689	-0.187647
250	0x3e1f2889	0.15542807
251	0x3e2cf24f	0.16889308
252	0xbe621841	-0.22079565
253	0xbe99bce3	-0.30026922
254	0xbe24bbf4	-0.16087323
255	0x3c27ef04	0.010249857

critic.2.bias f4 [64]
0	0xbde32dc7	-0.11092716
1	0xbdb9b565	-0.090678014
2	0x3de7c5b2	0.11317004
3	0xbe0f4a6c	-0.13993233
4	0xbe200b0b	-0.15629213
5	0xbdcf82c6	-0.10132365
6	0x3de006ac	0.109387726
7	0xbe184d7b	-0.14873306
8	0xbe0d6ee8	-0.13811839
9	0x3e070e68	0.1318909
10	0xbddc6c76	-0.10762875
11	0xbda234dc	-0.079202384
12	0xbe00400f	-0.12524436
13	0xbe015feb	-0.12634246
14	0xbdfeaeb8	-0.12435669
15	0x3de28ab0	0.11061609
16	0xbde0f617	-0.10984438
17	0xbddc504f	-0.10757505
18	0xbde0c566	-0.10975151
19	0x3d9d8017	0.07690447
20	0xbdf77acb	-0.12083968
21	0x3df390a3	0.11892822
22	0xbdeebe92	-0.11657442
23	0x3c8f7684	0.017512567
24	0x3ade3e69	0.0016955856
25	0x3ddd4077	0.10803311
26	0x3dd592cb	0.10428389
27	0x3dd148e9	0.10218985
28	0x3e0978fa	0.13425055
29	0xbe075080	-0.13214302
30	0x3dd35704	0.10319331
31	0xbe0759bb	-0.13217823
32	0xbdcce81d	-0.100052096
33	0x3dee27fb	0.116287194
34	0x3e07405c	0.13208145
35	0xbde94085	-0.11389259
36	0x3e00ecd7	0.12590347
37	0x3de2e256	0.110783264
38	0xbde164ce	-0.11005555
39	0xbdf5b189	-0.11996753
40	0xbe353155	-0.176946
41	0xbdee8b1f	-0.11647629
42	0x3df074bd	0.11741016
43	0xbddda768	-0.10822946
44	0x3e19f040	0.15033054
45	0x3e132143	0.14368157
46	0x3de3885c	0.11109993
47	0xbde0aa87	-0.109700255
48	0x3e1b3f86	0.15160951
49	0x3befc9c1	0.007317752
50	0x3de3d076	0.11123745
51	0x3de9fcb7	0.11425155
52	0x3df1a06e	0.11798178
53	0x3dd9e6c3	0.106397174
54	0xbde2a073	-0.110657595
55	0x3dcee5ab	0.101023994
56	0x3e05e7a7	0.1307665
57	0xbde14187	-0.109988265
58	0x3dbacc21	0.09120966
59	0x3ddc7453	0.107643746
60	0xbdf9624d	-0.121769525
61	0x3c58f4c8	0.013241954
62	0x3dd7624b	0.10516795
63	0x3de2864e	0.11060773

critic.4.weight f4 [1, 64]
0	0x3e43f7b4	0.1913746
1	0x3e26aad9	0.1627611
2	0xbe1b1dad	-0.15148039
3	0x3e0b471f	0.1360135
4	0x3dd63480	0.10459232
5	0x3eb72af5	0.3577496
6	0xbe13b5d0	-0.14424825
7	0x3dd10b54	0.10207239
8	0x3dcbc23f	0.09949159
9	0xbe161731	-0.14657284
10	0x3e8b2327	0.27175257
11	0x3df20e3d	0.11819122
12	0x3e1e7c6c	0.1547715
13	0x3e12cfa8	0.14337027
14	0x3e66ca8d	0.22538204
15	0xbe2577a0	-0.16158915
16	0x3e34b33c	0.17646497
17	0x3e719e7e	0.23595616
18	0x3e22550f	0.1585276
19	0xbd94f93a	-0.07274099
20	0x3e788e50	0.24273038
21	0xbdeb233c	-0.1148133
22	0x3dea9965	0.11455039
23	0xbd81cd56	-0.06337993
24	0xbdcc4d15	-0.0997564
25	0xbe9cb25a	-0.3060482
26	0xbe8d0c9b	-0.2754868
27	0xbed7108c	-0.42004812
28	0xbe27f4c2	-0.16401961
29	0x3e4e202b	0.20129459
30	0xbe94296e	-0.28937858
31	0x3e28e6cf	0.16494296
32	0x3eb13d88	0.34617257
33	0xbe2cfbbc	-0.16892904
34	0xbe05fe8c	-0.13085383
35	0x3e6f5429	0.23371948
36	0xbe6d1165	-0.23151167
37	0xbec289ff	-0.37995908
38	0x3e6c2bcb	0.2306358
39	0x3e6e2060	0.23254538
40	0x3db0c570	0.08631408
41	0x3e9738ee	0.2953562
42	0xbe2a8874	-0.16653615
43	0x3e7d2a6b	0.24723212
44	0xbdc02fc1	-0.09384108
45	0xbd97c773	-0.07411089
46	0xbea8183d	-0.32830992
47	0x3e234ab5	0.15946467
48	0xbdd2951b	-0.10282346
49	0x3b8ade6f	0.004237942
50	0xbe526d44	-0.20549494
51	0xbea21c6f	-0.31662318
52	0xbe2e556a	-0.1702477
53	0xbdcc5e31	-0.09978903
54	0x3e57685d	0.21035905
55	0xbebe08e7	-0.37116167
56	0xbe404828	-0.18777525
57	0x3e5ed7a9	0.21761955
58	0xbdb85088	-0.08999735
59	0xbe7d0723	-0.24709754
60	0x3e4a76b4	0.19771844
61	0x3d128cec	0.035778925
62	0xbebf9bcc	-0.3742355
63	0xbef4eec5	-0.47838417

actor.0.weight f4 [64, 8]
0	0xbd6dd2f8	-0.058062524
1	0x3ce1a9bf	0.027546762
2	0x3e6a7ca8	0.22899115
3	0xbd436ae0	-0.047709346
4	0xbf14199a	-0.57851565
5	0xbe31b68c	-0.17354792
6	0x3d9d0942	0.076677814
7	0x3e6d7822	0.23190358
8	0xbe6f6d82	-0.23381618
9	0x3dca3930	0.09874189
10	0xbda2c2fb	-0.07947346
11	0x3f113cf4	0.5673363
12	0x3e3e2e45	0.18572338
13	0xbd9dd4d8	-0.07706612
14	0xbdae23ad	-0.08502898
15	0x3e1ccfb0	0.15313601
16	0x3bda9a52	0.0066712284
17	0xbe8fa81e	-0.2805795
18	0xbd728c4a	-0.05921582
19	0xbf095f9f	-0.5366153
20	0x3e917b16	0.2841422
21	0xbd26f45c	-0.040760383
22	0xbeb8a98f	-0.36066863
23	0xbe967c0d	-0.29391518
24	0xbd99f906	-0.075182006
25	0xbcb51c7c	-0.022108309
26	0xbe5da14a	-0.21643558
27	0xbdcbe6ec	-0.09956154
28	0x3ec060ce	0.37573856
29	0xbdabf8e2	-0.0839708
30	0xbe46ed53	-0.1942647
31	0xbe87f165	-0.26551357
32	0x3dfbe77f	0.12300014
33	0xbd51b396	-0.051196657
34	0xbdf4f5eb	-0.11960968
35	0xbe3527fe	-0.17691037
36	0x3e51e932	0.20499113
37	0x3e1d0a94	0.15336066
38	0x3e3b3879	0.18283261
39	0xbea551ab	-0.3228887
40	0xbdd0e85a	-0.102005675
41	0xbe83cee8	-0.25743794
42	0x3d8c121b	0.06839391
43	0x3eb43761	0.351985
44	0xbe968536	-0.29398507
45	0x3d30e6c6	0.043188833
46	0x3d7918f5	0.060814817
47	0x3dd5cb91	0.10439218
48	0xbea77626	-0.32707328
49	0xbacec2d2	-0.0015774614
50	0xbd50aa57	-0.0509437
51	0xbd6a76c9	-0.05724219
52	0xbe7050ec	-0.23468369
53	0xbd03db62	-0.03219164
54	0x3e13e745	0.14443691
55	0xbeadea6d	-0.33967915
56	0xbde9bb8b	-0.11412724
57	0xbe562243	-0.20911507
58	0x3e7e4a7a	0.24833098
59	0x3ed89de8	0.42307973
60	0xbf1c33de	-0.61016643
61	0xbefe6344	-0.4968511
62	0x3dd810ac	0.10550055
63	0x3e3330b9	0.17499055
64	0xbe56ed9c	-0.20989078
65	0x3e17f04c	0.1483776
66	0xbef8ffed	-0.48632756
67	0xbec7d685	-0.39030853
68	0x3eaf825b	0.3427914
69	0x3eab491b	0.33454213
70	0xbf0d3375	-0.5515664
71	0x3d890f29	0.06692345
72	0xbdf483bf	-0.11939191
73	0x3d3301db	0.04370294
74	0x3c70450b	0.014664899
75	0x3e868a6c	0.26277483
76	0xbe8c001f	-0.27343842
77	0xbeafee2e	-0.34361404
78	0xbdc15774	-0.094405085
79	0x3e32251c	0.17396969
80	0xbd82043b	-0.06348463
81	0x3d7ee780	0.062232494
82	0x3ce817c4	0.028331645
83	0xbd2b645f	-0.04184377
84	0xbec476aa	-0.38371783
85	0x3c35ce7f	0.011096596
86	0x3e87c65e	0.2651853
87	0x3e36a5d4	0.17836696
88	0x3cd78b1f	0.026311455
89	0xbdad5861	-0.084641226
90	0x3d0b807e	0.034058087
91	0xbc19613d	-0.009361562
92	0xbee3026a	-0.4433778
93	0xbe920021	-0.28515723
94	0x3dff13c9	0.124549456
95	0xbe25750c	-0.16157931
96	0xbe494f6c	-0.19659203
97	0xbde02002	-0.10943605
98	0xbe7ed537	-0.24886023
99	0xbe8e89e1	-0.27839568
100	0x3e8298b8	0.2550714
101	0x3ec076e6	0.37590712
102	0xbd26385f	-0.040581103
103	0xbe1d423c	-0.15357298
104	0xbea1e725	-0.31621662
105	0x3ea09d04	0.31369793
106	0x3d69e333	0.05710144
107	0x3b915a7d	0.004435836
108	0xbc07d790	-0.00829114
109	0xbdbbe645	-0.0917478
110	0x3e784285	0.24244125
111	0x3ca34385	0.019929657
112	0xbe03c6bc	-0.1286878
113	0xbe432c10	-0.19059777
114	0x3ec91031	0.39270166
115	0xbee68222	-0.45021158
116	0xbe83258c	-0.25614583
117	0xbd5a5fb0	-0.05331391
118	0x3c84ca78	0.016209826
119	0x3d1feeb7	0.039046016
120	0xbe327eaf	-0.17431138
121	0x3dbd454d	0.09241734
122	0x3d9e2592	0.0772201
123	0xbe66e367	-0.22547685
124	0xbe812f5f	-0.25231454
125	0xbdd04b3d	-0.101706006
126	0xbdc0bd5a	-0.09411116
127	0x3dc5aa94	0.09651676
128	0xbe91a3f4	-0.284454
129	0xbd7a671a	-0.06113348
130	0x3e2346f3	0.15945034
131	0x3ef9ddff	0.48802182
132	0xbe629e89	-0.22130789
133	0xbeb3f39e	-0.35146803
134	0x3c860a08	0.016362205
135	0x3dd21502	0.10257913
136	0x3e31c620	0.17360735
137	0x3dd24989	0.10267932
138	0xbe2759bc	-0.16342825
139	0xbe93d397	-0.28872368
140	0x3c8a799e	0.016903695
141	0xbc6bfc32	-0.01440339
142	0x3e1e75d7	0.1547464
143	0xbe46b85f	-0.1940627
144	0x3d2f1cb5	0.042751987
145	0x3db9b80c	0.09068307
146	0xbe9da2ea	-0.30788356
147	0x3ddca35b	0.10773345
148	0x3e914f79	0.28380945
149	0x3e1b3a6e	0.15159008
150	0x3cba4788	0.022739187
151	0xbb0395a6	-0.002007821
152	0x3e146d74	0.14494878
153	0xbca77270	-0.02044031
154	0x3e65abe7	0.22428857
155	0xbdb3c4da	-0.08777781
156	0xbf02b7b3	-0.5106155
157	0xbeb382ca	-0.35060722
158	0xbe93b3d7	-0.28848144
159	0xbdf4c457	-0.11951511
160	0xbd08dd0b	-0.033413928
161	0xbe2097ab	-0.15682857
162	0xbe504c19	-0.20341529
163	0x3d714a36	0.058908664
164	0x3bc7ff37	0.006103422
165	0x3e4c9365	0.19978102
166	0x3d8c1649	0.06840188
167	0x3e3f96a4	0.18709809
168	0x3dd0c221	0.10193277
169	0x3ca9a825	0.02071006
170	0x3dd3e96b	0.10347255
171	0x3e41b25c	0.18915695
172	0xbecb81b0	-0.3974738
173	0xbec4a7b0	-0.38409185
174	0x3d344f54	0.044020966
175	0x3dc9f37b	0.09860893
176	0x3ce786c7	0.028262509
177	0x3e1fcc51	0.15605284
178	0xbe2fa25b	-0.17151777
179	0x3f17d647	0.59311336
180	0x3ed4ee3e	0.41588014
181	0x3e99fbfe	0.30075067
182	0x3ddcbbc7	0.10778003
183	0xbc8a9d69	-0.016920762
184	0x3e8be30a	0.27321655
185	0x3e36376e	0.17794582
186	0x3e3885fe	0.18019864
187	0xbec8c0ea	-0.39209682
188	0x3eea5405	0.45767227
189	0x3e58c574	0.21169072
190	0xbe89b0d5	-0.26892725
191	0xbd4af158	-0.04954657
192	0xbe925971	-0.28583863
193	0x3d04f599	0.032460783
194	0xbdd5b4c0	-0.10434866
195	0x3e7e46b0	0.24831653
196	0xbe2220ed	-0.15832873
197	0xbe8df81a	-0.2772835
198	0x3d3e93da	0.04652772
199	0x3daea11e	0.085268244
200	0xbd04afee	-0.032394342
201	0x3d9b7e9c	0.07592508
202	0xbded331a	-0.115820125
203	0xbed8a8d3	-0.42316303
204	0x3bd280a3	0.006424026
205	0x3e83dd7c	0.25754917
206	0xbe42d17c	-0.19025224
207	0x3d139488	0.036030322
208	0x3daac4cd	0.08338318
209	0x3c36f763	0.01116738
210	0x3f0e9b74	0.5570595
211	0x3e3c00b0	0.18359637
212	0xbe6d5545	-0.23177059
213	0xbd374ceb	-0.04475109
214	0xbe50b2b9	-0.20380677
215	0x3e911353	0.28335056
216	0x3dd78c8d	0.10524855
217	0xbe22f5a7	-0.15914021
218	0xbdb97b8a	-0.09056766
219	0xbebfe059	-0.3747585
220	0x3edf276d	0.43584767
221	0x3ef2234a	0.47292548
222	0x3d8442a0	0.0645802
223	0x3da0705a	0.07833929
224	0x3c978348	0.018495217
225	0xbe767816	-0.24069247
226	0xbdb3ee1d	-0.08785651
227	0xbe6528ab	-0.22378795
228	0x3f067c8f	0.5253381
229	0x3c92a97b	0.01790308
230	0xbe37e508	-0.17958462
231	0xbd83e99f	-0.06441044
232	0x3df0ca23	0.117573045
233	0xbd7d89af	-0.061898883
234	0x3cc0fc61	0.023557844
235	0xbf3a6ab0	-0.7281904
236	0xbe359b51	-0.1773503
237	0xbf1641fb	-0.5869443
238	0xbdcadb34	-0.09905091
239	0xbdc34ba9	-0.095359154
240	0xbda89e91	-0.08233369
241	0xbd076ecf	-0.03306466
242	0xbd4a27f8	-0.049354523
243	0x3efc9ef5	0.49340025
244	0x3ed2a737	0.411432
245	0x3e2f2fb3	0.1710804
246	0xbbf5c288	-0.0074999966
247	0xbd3e80b5	-0.046509463
248	0x3ddb66a8	0.107129395
249	0xbc71f358	-0.01476749
250	0xbd4551ed	-0.048173834
251	0x3eae302b	0.34021124
252	0x3e771d4d	0.24132271
253	0x3d2e6c7a	0.04258392
254	0xbcd79b8b	-0.026319286
255	0xbe6cf562	-0.23140481

actor.0.bias f4 [64]
0	0xbb822b01	-0.0039724116
1	0xbabf5c96	-0.0014599736
2	0x3d75aa44	0.05997683
3	0x3a852ec7	0.0010161035
4	0xbb51ec0a	-0.003203156
5	0xbbf816f0	-0.0075710937
6	0xbc1be83f	-0.009515821
7	0x3cf58e26	0.029975008
8	0xbce180e9	-0.02752729
9	0x3d52a570	0.051427305
10	0xbd08218d	-0.03323512
11	0x3c8fb46f	0.017542092
12	0x3c264337	0.010147861
13	0x3c743982	0.014906289
14	0x3d3213a3	0.04347576
15	0xbce26684	-0.027636774
16	0xbba4931b	-0.005022419
17	0xbc449e5c	-0.012000646
18	0x3c6fcc9c	0.014636185
19	0x3c05733e	0.008145152
20	0x3bdfe9d0	0.0068332925
21	0xbcae8671	-0.021304341
22	0xbd545fb4	-0.051849082
23	0x3b69bb3d	0.0035664581
24	0x3cd5df16	0.026107352
25	0x3cc1f041	0.023674132
26	0xbbc41f4d	-0.0059851767
27	0x3d24f881	0.040276054
28	0x3d4dc4a4	0.05023636
29	0x3c8e6cc3	0.017385846
30	0xbcf9aa31	-0.030476661
31	0xbad1c45d	-0.0016003955
32	0x3c486ddc	0.012233224
33	0x3c42f5eb	0.011899452
34	0x3cd50790	0.026004583
35	0xbd077d6f	-0.033078607
36	0x3c88786b	0.016658982
37	0x3d273517	0.040822115
38	0xbc02f51a	-0.007993007
39	0x3a17f299	0.0005796343
40	0xbcfd680a	-0.030933399
41	0x3c72ab34	0.014811326
42	0x3bc568eb	0.00602447
43	0xbca00d2d	-0.019537533
44	0xbc0ec249	-0.008713313
45	0xbc6931a0	-0.014233023
46	0xbc83df0e	-0.016097572
47	0xbb35582a	-0.0027670958
48	0x3cd9aa5b	0.02657049
49	0xbc9d4969	-0.019200044
50	0xbc9379b9	-0.018002378
51	0xbcef9ec4	-0.02925051
52	0x3c8a3765	0.016872117
53	0x3cb3b5ab	0.021937212
54	0xba861bc2	-0.0010231661
55	0xbc8a8dd1	-0.016913326
56	0xbd3dde10	-0.046354353
57	0xbb4d3941	-0.0031314644
58	0xbc188585	-0.009309177
59	0xbd2bc77a	-0.041938283
60	0x3cac24f1	0.021013709
61	0xbc1f2100	-0.009712458
62	0x3d0c1934	0.034203723
63	0xbd269650	-0.040670693

actor.2.weight f4 [64, 64]
0	0x3e8ae1a6	0.2712528
1	0xbd370d2d	-0.0446903
2	0x3e7e0f72	0.2481058
3	0xbec7f40f	-0.3905339
4	0x3dec5366	0.115393445
5	0x3dedc650	0.11610091
6	0xbe618a45	-0.22025402
7	0x3e092478	0.13392818
8	0x3db8df7b	0.090270005
9	0xbe7b69ee	-0.24552128
10	0x3e430bf5	0.1904753
11	0x3e3492f8	0.17634189
12	0x3cb339a3	0.02187807
13	0x3dbc7854	0.09202638
14	0xbd05f7e1	-0.0327071
15	0x3e5ae7d4	0.21377498
16	0x3e3cc78a	0.18435493
17	0x3e9ba697	0.30400535
18	0x3d49410b	0.049134295
19	0x3ec40c2b	0.38290533
20	0xbdd4e336	-0.103948995
21	0x3e00402e	0.12524483
22	0xbda00d9c	-0.07815096
23	0xbbd099f2	-0.006366008
24	0x3dbf6fca	0.09347494
25	0x3c6c869c	0.01443639
26	0x3e0e8379	0.1391734
27	0x3e2b66bd	0.1673841
28	0xbe155c10	-0.145859
29	0x3ee0298a	0.43781692
30	0xbeb2405c	-0.34814727
31	0xbf06fa72	-0.527259
32	0x3e41120d	0.18854542
33	0x3e3c6401	0.18397523
34	0x3db6ffeb	0.08935531
35	0x3e9c0498	0.30472255
36	0x3e0a156b	0.13484733
37	0x3dd61271	0.10452736
38	0x3eaccd0d	0.3375019
39	0x3d55085d	0.05200993
40	0x3f10ca7f	0.56558985
41	0xbde99ad4	-0.11406484
42	0xbe47dfe7	-0.19519006
43	0x3e4f9589	0.20271887
44	0x3e806c9f	0.2508287
45	0x3df1eeec	0.11813149
46	0xbd73dc66	-0.05953636
47	0xbcf0203e	-0.02931225
48	0x3cc9a1a1	0.024613203
49	0x3d7490d0	0.059708416
50	0xbd988052	-0.0744635
51	0xbdb3ec5e	-0.08785318
52	0x3c11c444	0.008896891
53	0x3e8042e3	0.2505103
54	0x3e79dec2	0.24401382
55	0xbe10936c	-0.14118737
56	0x3d8dc5d2	0.06922497
57	0x3e7d1d38	0.24718177
58	0x3c2c0dd8	0.0105013475
59	0x3e420730	0.18948054
60	0x3e65cc6b	0.2244126
61	0xbf12c93b	-0.57338303
62	0x3eb7af9e	0.35876173
63	0xbe89b61d	-0.26896754
64	0xbdefbf7e	-0.11706446
65	0xbde17ec8	-0.1101051
66	0x3e485e60	0.19567251
67	0x3eaf4b51	0.3423715
68	0x3e53343b	0.20625393
69	0xbe124d91	-0.14287402
70	0xbc78fc99	-0.015196943
71	0xbee66895	-0.45001665
72	0x3cc5b738	0.024135217
73	0x3d9381b1	0.07202471
74	0xbe3241c2	-0.17407897
75	0xbe72f0e7	-0.2372471
76	0x3e618943	0.22025017
77	0xbd3d9dfe	-0.04629325
78	0xbec37eb6	-0.3818261
79	0x3e75265d	0.23940416
80	0xbeb56009	-0.35424832
81	0xbe048acf	-0.12943576
82	0x3ed13543	0.40860948
83	0x3d076cf6	0.033062898
84	0x3d979729	0.074018784
85	0xbd9633b6	-0.07334082
86	0xbcb40650	-0.021975666
87	0x3e3fc06e	0.1872575
88	0xbe8303c7	-0.2558882
89	0x3e794c4b	0.2434551
90	0x3d98e3d5	0.074653305
91	0x3da492ed	0.08035836
92	0x3c953cf0	0.018217534
93	0x3e141ee4	0.14464909
94	0x3d281022	0.04103101
95	0x3db9c0e3	0.09069993
96	0xbe8c0eb0	-0.27354956
97	0xbe7e2522	-0.24818853
98	0x3bfa215b	0.007633371
99	0x3e6d1f01	0.23156358
100	0xbedc649f	-0.43045518
101	0x3e554d1d	0.20830198
102	0x3d550d1e	0.052014463
103	0xbe705ee5	-0.234737
104	0xbe22f6e4	-0.15914494
105	0xbdc33f81	-0.09533597
106	0x3ee3ffe7	0.44531175
107	0xbe63daa2	-0.2225137
108	0xbf002b03	-0.5006563
109	0xbc6f38ec	-0.014600974
110	0x3e72b928	0.23703444
111	0x3c1613b2	0.009159969
112	0x3cac5274	0.02103541
113	0xbecb840d	-0.39749184
114	0x3dd6a160	0.104799986
115	0x3ea26159	0.31714895
116	0x3db2d519	0.087320514
117	0xbc5fc40e	-0.013657583
118	0xbe29dcac	-0.16588086
119	0x3bddfb92	0.0067743743
120	0x3e80528a	0.25062972
121	0x3e8bdc9c	0.2731675
122	0x3d00b437	0.031421866
123	0xbe5a4d3d	-0.21318527
124	0xbda0b917	-0.07847803
125	0x3ea25608	0.31706262
126	0x3e989567	0.29801485
127	0x3e81a551	0.2532144
128	0xbe2495dd	-0.16072793
129	0x3c7add96	0.015311619
130	0x3de51d51	0.11187232
131	0x3e9db5eb	0.30802855
132	0xbcc0c356	-0.023530643
133	0xbc641e5a	-0.013923252
134	0xbe6bf743	-0.23043542
135	0xbdf4011e	-0.119142756
136	0x3f016705	0.5054782
137	0xbdc42164	-0.09576681
138	0x3df70088	0.12060648
139	0xbeba9b53	-0.36446628
140	0x3edaf9c1	0.42768672
141	0xbdb16914	-0.0866262
142	0x3d5c61ce	0.05380421
143	0xbb25d0c8	-0.0025301445
144	0xbaf8938e	-0.0018964873
145	0x3e494d21	0.19658329
146	0xbcc74880	-0.024326563
147	0x3d3442f1	0.044009153
148	0xbd1346c2	-0.03595615
149	0x3b83f434	0.004026914
150	0xbe213f9d	-0.15746923
151	0x3e77b822	0.24191335
152	0x3d047563	0.03233851
153	0x3e7e6a35	0.24845202
154	0xbe77039b	-0.24122469
155	0x3d8134f5	0.06308929
156	0x3db9b192	0.09067072
157	0x3e54c713	0.20779066
158	0xbe14f230	-0.14545512
159	0xbe4321dc	-0.19055885
160	0x3e1111bc	0.14166921
161	0xbe6c616d	-0.2308404
162	0x3e8a6a01	0.27034
163	0xbdc516c7	-0.09623485
164	0x3ddfa3b4	0.10919896
165	0x3e6f4469	0.2336594
166	0xbec10d62	-0.37705523
167	0xbd0c93db	-0.034320693
168	0xbe02ab44	-0.12760645
169	0x3eaf5109	0.34241512
170	0x3de7a49a	0.11310692
171	0xbe92f281	-0.2870064
172	0x3d175fac	0.036956474
173	0xbdddb58d	-0.10825644
174	0x3d969ca7	0.07354098
175	0x3d18cade	0.037302844
176	0x3e623d6d	0.22093745
177	0xbf00059f	-0.5000858
178	0x3c043f8e	0.008071793
179	0xbe7f7db4	-0.24950296
180	0x3decd655	0.11564318
181	0xbea66c91	-0.32504705
182	0xbedc35d3	-0.43009815
183	0xbe0a4a53	-0.13504915
184	0x3e8934bb	0.26798043
185	0xbe931111	-0.28723958
186	0x3e67b993	0.22629385
187	0x3cb52c4d	0.02211585
188	0x3eaea458	0.3410976
189	0x3e00cc76	0.12577996
190	0x3e455d67	0.19273911
191	0x3e25028e	0.16114256
192	0xbe095808	-0.13412488
193	0xbc43bdd7	-0.011947117
194	0xbeb980bd	-0.36231032
195	0xbe3c1dbb	-0.18370716
196	0xbe14308e	-0.14471647
197	0x3e6e2012	0.23254421
198	0xbe8bf072	-0.27331883
199	0x3ea92683	0.33037195
200	0xbed10595	-0.4082457
201	0x3c8b21d9	0.016983913
202	0xbd77a26a	-0.060457624
203	0x3eacb47f	0.33731458
204	0xbe767bc1	-0.24070646
205	0xbebf5c66	-0.37375182
206	0xbd2ab9b5	-0.04168101
207	0x3ebbc795	0.36675707
208	0x3ecea2ae	0.4035849
209	0x3e10f95b	0.14157622
210	0xbe7d1452	-0.24714783
211	0x3debbbc9	0.115104266
212	0xbd9d62a2	-0.07684828
213	0x3ec5b00f	0.38610885
214	0xbd377fa2	-0.044799455
215	0x3dd7ae3b	0.10531279
216	0x3d15a66d	0.03653567
217	0xbef5cff0	-0.48010206
218	0x3e59eb37	0.21281134
219	0xbcb662d6	-0.022263926
220	0xbf0fb6a4	-0.5613806
221	0xbd31f141	-0.04344297
222	0xbccea6e7	-0.02522607
223	0xbd49693e	-0.049172632
224	0xbe1f9042	-0.15582374
225	0xbd116ebe	-0.035506003
226	0xbcfaebdc	-0.030630045
227	0xbc5bdc5a	-0.013419235
228	0x3c92373b	0.017848602
229	0x3d137e35	0.036009032
230	0x3cc13a53	0.023587381
231	0xbe16403b	-0.1467294
232	0x3cf11b1d	0.029431874
233	0xbde6a70c	-0.112623304
234	0xbe7e1db1	-0.24816014
235	0xbe0beff0	-0.13665748
236	0x3cf004a2	0.029299084
237	0x3e96b7e0	0.2943716
238	0x3cd7e999	0.026356505
239	0x3e1a0eec	0.15044755
240	0xbe24e7d7	-0.16104065
241	0x3e805201	0.25062564
242	0x3e59c498	0.21266401
243	0xbde0e55b	-0.10981246
244	0xbe08b6b4	-0.13350946
245	0x3d6b538e	0.05745273
246	0xbdd20e53	-0.102566384
247	0x3d7d29b5	0.061807353
248	0xbe0a1c4a	-0.13487354
249	0xbda23f08	-0.079221785
250	0xbeaeebfb	-0.34164414
251	0x3e2b913a	0.16754618
252	0xbe82e77c	-0.25567234
253	0x3e80eb55	0.25179544
254	0xbcbeb61e	-0.0232802
255	0x3e8bf2ed	0.27333775

actor.2.bias f4 [64]
0	0x3a93b2de	0.0011268517
1	0x3c66a13e	0.014076529
2	0x3cc5c5f3	0.024142241
3	0xbd4ba258	-0.04971537
4	0x3cb202ca	0.021729846
5	0x3c9ee223	0.01939494
6	0xbc65886a	-0.014009574
7	0xbcd24f12	-0.02567247
8	0xbc84944d	-0.016183997
9	0x3c39b32a	0.01133422
10	0xbc6e3705	-0.014539485
11	0x3c552038	0.01300817
12	0xbc5680f3	-0.013092267
13	0x3c7547e5	0.014970754
14	0x3cc105e0	0.023562372
15	0xbcd23a65	-0.02566261
16	0x3ceb3ef3	0.02871654
17	0x3ba89a1a	0.0051453235
18	0x3d0aaba9	0.033855114
19	0xbc39c3f7	-0.011338226
20	0xbb592c87	-0.0033138113
21	0xbce4661b	-0.027880719
22	0x3b90ad4a	0.004415189
23	0xbc5d9536	-0.013524344
24	0x3c5074b3	0.012723136
25	0xbc6d11e7	-0.0144696
26	0xbd0fba25	-0.03508963
27	0xbc8e7565	-0.017389962
28	0x3cda6ab3	0.026662206
29	0x3c02c060	0.007980436
30	0x3cd20f2a	0.025641996
31	0x3bc4913b	0.005998758
32	0x3c309d4e	0.010779692
33	0x3d15ce31	0.036573593
34	0xbba635ad	-0.0050723166
35	0x3d2e83e1	0.04260624
36	0xbd0dbf02	-0.034605987
37	0xbcbc7cdb	-0.023008754
38	0xbccc524a	-0.024941582
39	0xbc86ec7b	-0.016470185
40	0xbc8a5f37	-0.016891105
41	0x3d18bd2b	0.03728978
42	0xbc1afa4c	-0.0094590895
43	0xbaf62176	-0.0018778283
44	0x3c572afd	0.013132808
45	0x3c6a1148	0.014286347
46	0xbad14957	-0.0015967292
47	0xbcc7a137	-0.024368865
48	0xbd470887	-0.048592117
49	0xbcf43124	-0.029808588
50	0x3d370eff	0.044692036
51	0xbc9eefd9	-0.019401478
52	0x3c125645	0.008931701
53	0x3c5b2c04	0.013377193
54	0x3c919007	0.017768873
55	0xbcfe1910	-0.03101781
56	0x3cbd29b7	0.02309118
57	0xbc54e599	-0.0129941935
58	0xbd14fa89	-0.03637174
59	0xbd0ac16b	-0.033875864
60	0xbcf20d3a	-0.029547323
61	0x3c53c7a2	0.012926014
62	0xbd0c7d94	-0.034299448
63	0xbcc16657	-0.02360837

actor.4.weight f4 [4, 64]
0	0xbdf01593	-0.11722865
1	0x3b6165f4	0.0034393044
2	0xbde7cb0a	-0.113180235
3	0x3df16e34	0.11788598
4	0xbe22d0f1	-0.15900017
5	0xbdfd751c	-0.123758525
6	0x3de42f37	0.11141818
7	0x3e1667ef	0.14688085
8	0x3dc4b070	0.09603965
9	0xbe0b700b	-0.1361696
10	0xbbcdff65	-0.006286549
11	0x3d1c2b24	0.03812708
12	0x3dd67c37	0.10472911
13	0xbde5d039	-0.11221356
14	0xbe0e0841	-0.13870336
15	0x3de59390	0.11209786
16	0xbd107dbb	-0.035276156
17	0xbe11d94e	-0.14243051
18	0x3d236739	0.039893363
19	0x3b8896a9	0.0041683507
20	0x3d63feec	0.055663034
21	0x3e090a83	0.13382916
22	0xbe03213b	-0.12805645
23	0x3d1583b0	0.03650254
24	0xbdc04c97	-0.09389608
25	0x3dcca2f0	0.09992015
26	0x3e087de0	0.13329268
27	0x3deea824	0.11653164
28	0xbe083f37	-0.13305365
29	0xbe040ca2	-0.12895444
30	0xbde0bbc0	-0.109733105
31	0xbd7ce79d	-0.06174432
32	0xbe0d4bfd	-0.13798518
33	0xbdd41181	-0.10354901
34	0xbdc647b7	-0.09681647
35	0xbe0aeaac	-0.13566083
36	0x3dedea97	0.1161701
37	0x3dddad4b	0.10824069
38	0x3d6ea202	0.05825997
39	0xbc9da06f	-0.01924154
40	0x3d12b614	0.035818174
41	0xbd2354b0	-0.039875686
42	0x3dfe16c9	0.1240669
43	0xbddc9cf2	-0.107721224
44	0xbd40951d	-0.047017206
45	0xbe043ec4	-0.12914568
46	0x3d867360	0.06564975
47	0x3e0c1449	0.13679613
48	0x3e05af85	0.13055237
49	0x3d8ad923	0.06779697
50	0xbe0f1449	-0.13972582
51	0x3e034d57	0.12822472
52	0xbde24a0b	-0.11049279
53	0x3d2e4885	0.04254963
54	0xbde7fda7	-0.11327677
55	0x3dfe51da	0.12417956
56	0x3df8a84f	0.12141477
57	0xbe065e96	-0.13122019
58	0x3dfaf737	0.12254184
59	0x3dd1c094	0.102418095
60	0x3e164bb8	0.14677322
61	0xbd164bda	-0.03669343
62	0xbc103f0b	-0.008804093
63	0x3dff325e	0.12460779
64	0x3e23cb92	0.15995625
65	0xbe6451ae	-0.22296783
66	0xbe259f2c	-0.16174
67	0x3e35c616	0.17751345
68	0xbe1f73c8	-0.15571511
69	0xbd482a82	-0.048868664
70	0xbe0e9d00	-0.13927078
71	0x3bda9683	0.0066707744
72	0xbe15bc50	-0.14622617
73	0x3c72fe94	0.014831204
74	0xbe3d47ee	-0.1848447
75	0xbe357fb9	-0.17724504
76	0x3e563fe3	0.20922808
77	0xbe65da2f	-0.22446512
78	0xbe2221e7	-0.15833245
79	0x3e3100f7	0.17285524
80	0x3e284c59	0.16435374
81	0xbdd9ff0c	-0.106443495
82	0x3e451416	0.19245943
83	0xbe4920b4	-0.19641382
84	0xbe4f741f	-0.2025914
85	0xbddf0a01	-0.1089058
86	0xbd3ee570	-0.046605527
87	0xbe49fc3a	-0.19725123
88	0xbd98b0d7	-0.074556045
89	0x3e697c0b	0.22801225
90	0xbdd50ef1	-0.104032405
91	0x3e4b880b	0.19876115
92	0x3da709af	0.08156144
93	0x3d4ef59b	0.050527196
94	0x3dc4f57b	0.09617134
95	0x3e2ca98f	0.16861556
96	0xbdf41f8d	-0.1192008
97	0xbe4dab04	-0.20084769
98	0x3dfcc09b	0.12341424
99	0x3de9bba8	0.11412746
100	0xbdc08025	-0.09399442
101	0x3e340f25	0.17583902
102	0x3e4e0483	0.20118909
103	0xbe23c6ab	-0.15993755
104	0x3e311ff1	0.17297341
105	0x3e20c824	0.15701348
106	0x3e0c6b35	0.13712771
107	0xbe67a6b4	-0.22622186
108	0xbe4f9747	-0.20272551
109	0xbe4222e0	-0.18958616
110	0x3e42f5e7	0.19039117
111	0x3e51aa1e	0.20475051
112	0xbafbbf8f	-0.0019206869
113	0x3e567897	0.20944439
114	0xbd4e27bd	-0.050330866
115	0xbe18a299	-0.14905776
116	0xbdafece2	-0.08590104
117	0x3e48eb22	0.19620946
118	0x3e0c2ac7	0.13688193
119	0x3e185289	0.14875235
120	0xbd738afe	-0.059458725
121	0x3d5c1440	0.05373025
122	0x3e5c0d3e	0.21489426
123	0x3cf984d5	0.030458847
124	0x3d7929cf	0.060830887
125	0xbe32b625	-0.17452295
126	0xbe4d534a	-0.20051304
127	0x3d457755	0.048209507
128	0x3e2f0a19	0.17093696
129	0x3cf6757f	0.030085323
130	0x3e270a6b	0.16312568
131	0xbe3e3538	-0.18574989
132	0x3e53c940	0.2068224
133	0x3e06d97c	0.13168901
134	0xbe3335d9	-0.1750101
135	0xbe540453	-0.20704775
136	0xbe31b324	-0.17353493
137	0x3e32f59d	0.17476507
138	0x3c5b2454	0.0133753605
139	0xbc133a33	-0.008986044
140	0xbe270b2c	-0.16312855
141	0x3e3242df	0.17408322
142	0x3e39c9c0	0.18143368
143	0xbe419e17	-0.18907963
144	0x3db0f0bb	0.08639666
145	0x3e3a4fcf	0.18194507
146	0xbd60291f	-0.054726716
147	0xbc59b46e	-0.013287647
148	0xbdcce371	-0.100043185
149	0xbe491f44	-0.19640833
150	0x3e123477	0.14277826
151	0xbd63953d	-0.055562247
152	0x3d5d3526	0.054005764
153	0xbe2639c0	-0.16232967
154	0xbe5ada1a	-0.21372262
155	0xbe4309da	-0.19046727
156	0x3e44fe53	0.19237642
157	0x3e372898	0.17886579
158	0x3e3ab4e2	0.18233064
159	0x3dec6c82	0.11544134
160	0x3e335874	0.17514211
161	0x3e3f32bc	0.18671697
162	0x3dff4418	0.1246416
163	0x3e5410d6	0.20709547
164	0xbe11d549	-0.14241518
165	0xbe3562de	-0.17713496
166	0xbe033f34	-0.12817079
167	0x3cde480f	0.02713397
168	0xbdb3793e	-0.087633595
169	0x3dd316ed	0.10307107
170	0xbe152c1b	-0.14567606
171	0x3e27bb33	0.16380005
172	0x3dd9a134	0.1062645
173	0x3e43500a	0.19073501
174	0xbe07b98d	-0.13254376
175	0xbe432955	-0.19058736
176	0xbe5a2759	-0.21304072
177	0xbe161a4b	-0.14658467
178	0x3e622962	0.22086099
179	0xbe3bdeca	-0.18346706
180	0x3de0ee24	0.10982922
181	0xbd8e75b0	-0.06956041
182	0x3e33d480	0.17561531
183	0xbe42081e	-0.18948409
184	0xbe239c64	-0.15977627
185	0x3e32254f	0.17397045
186	0xbe5738bf	-0.2101774
187	0xbe2ba59c	-0.16762394
188	0xbe53471f	-0.206326
189	0x3dbd574c	0.09245166
190	0xbc68ffaa	-0.014221111
191	0xbdf2618e	-0.11835013
192	0xbe444937	-0.19168554
193	0x3e64eaa3	0.22355132
194	0x3dcc1ed6	0.09966819
195	0xbdd1ae6b	-0.10238346
196	0xbdd7f071	-0.105439074
197	0xbd5c9812	-0.053855963
198	0x3e411537	0.18855749
199	0x3e355325	0.17707498
200	0x3e4fe21e	0.203011
201	0xbe240be3	-0.1602016
202	0x3e39c3b6	0.18141064
203	0x3e2e2691	0.170069
204	0xbe2d9161	-0.16949989
205	0x3e2d3971	0.16916443
206	0x3ce301bd	0.02771079
207	0xbd9445a0	-0.072398424
208	0xbe394792	-0.18093708
209	0xbdc99a5b	-0.09843894
210	0xbe41df3d	-0.18932815
211	0x3e48763f	0.19576357
212	0x3e5cb78b	0.21554391
213	0x3e49ba3a	0.19699946
214	0xbda74cab	-0.0816892
215	0x3e5acb85	0.21366699
216	0x3dc5b205	0.09653095
217	0xbe4d7235	-0.20063098
218	0x3e4f52df	0.20246457
219	0xbe11f44a	-0.14253345
220	0xbe4988cc	-0.1968109
221	0xbe46b9e1	-0.19406845
222	0xbe1ede11	-0.15514399
223	0xbe3ca2db	-0.184215
224	0xbd955aac	-0.07292685
225	0x3e19d05e	0.15020892
226	0xbe262529	-0.16225113
227	0xbe55a0a1	-0.20862056
228	0x3e0f1a9b	0.13974993
229	0xbd6adefb	-0.057341557
230	0xbe24263d	-0.16030212
231	0x3e20fe9b	0.15722124
232	0xbe1b7a1a	-0.15183297
233	0xbe327d78	-0.17430675
234	0xbc524efb	-0.012836213
235	0x3e2d9d36	0.16954502
236	0x3e3ad7d7	0.18246399
237	0x3beaf547	0.0071703526
238	0xbe298d9c	-0.16557926
239	0xbdfd8193	-0.1237823
240	0x3e4eeea4	0.20208222
241	0xbe2c1548	-0.16804993
242	0xbe342496	-0.17592081
243	0x3e49f5ff	0.19722746
244	0x3d41f1da	0.04734979
245	0xbe3e9279	-0.18610562
246	0xbe3bacc9	-0.18327631
247	0xbcf2ecb9	-0.029653894
248	0x3e29a6e3	0.16567568
249	0xbe2eab3f	-0.17057513
250	0xbdf34c80	-0.118798256
251	0x3df695da	0.12040301
252	0x3e46c182	0.19409755
253	0x3e1f2c2c	0.15544194
254	0x3e512d25	0.20427378
255	0x3c8d1da7	0.017226053

actor.4.bias f4 [4]
0	0xbd8efe67	-0.06982117
1	0x3a7e0cdd	0.0009691248
2	0x3d35b5f2	0.04436297
3	0xbc27eab9	-0.010248833
