HFDRL_UNIT8/models/Archived/LunarLander-v3__ppo__1__1768735566__u320.ckpt (torch, 134281 bytes, 33 tensors)

critic.0.weight f4 [64, 8]
000000 ad 4d f0 bd 4a dc 2a 3e e7 0a 86 3c a1 cb 25 be
       -0.117335655 0.16685596 0.01636262 -0.1619096
000010 53 d6 d0 bd e9 59 1d 3e a2 7a c3 be 7a 74 6a 3d
       -0.10197129 0.15366329 -0.381795 0.057239987
000020 59 3b ee bd 4a 75 90 3e 84 0f 83 3e 50 dc 16 be
       -0.116324134 0.28214484 0.25597775 -0.1473248
000030 ac 1e 21 be 06 14 3b be c0 9b f1 3d 40 db f7 bd
       -0.15734357 -0.18269357 0.11797285 -0.121023655
000040 61 15 41 3c 7f de 9b be 6f 74 e7 3d 59 dc 80 3e
       0.011784882 -0.3044319 0.11301505 0.25168112
000050 71 3a fc 3c 00 69 03 3e 87 c1 98 3e 7d 90 21 3f
       0.030789586 0.12833023 0.2983515 0.63111097
000060 2c a5 2e be 40 1d 4f 3e 63 01 85 3a 8f 4e 2b bf
       -0.17055196 0.20226002 0.0010147508 -0.66916746
000070 39 a2 84 3e 12 1c 64 3c 45 9c cf be 53 87 92 be
       0.25905016 0.013922708 -0.40548912 -0.2861887
000080 38 5e 40 3d e9 cd 29 bd f2 56 c3 3e c6 e3 79 be
       0.046964854 -0.041456137 0.38152272 -0.24403295
000090 7d 11 85 3d 62 95 32 be b9 e4 80 bd 60 77 db be
       0.06497476 -0.17439798 -0.062936254 -0.42864513
0000a0 8c ac f9 3c 0d e8 ac be 10 02 62 3b a5 75 0b bb
       0.030477785 -0.3377079 0.0034486093 -0.0021279838
0000b0 63 b1 ae bc 44 37 89 3e a2 1e 01 bd 22 5c df bb
       -0.021324819 0.26799977 -0.031523354 -0.006816403
0000c0 bd 13 a6 be 19 44 89 be 91 46 7e 3d b6 9f 0c 3e
       -0.32436934 -0.26809767 0.062079016 0.137328
0000d0 eb dc 30 bc e0 4c 90 be ee 4e 01 3f 15 6e 7d 3e
       -0.010794858 -0.2818365 0.5051106 0.24749024
0000e0 56 44 1e bd fe 77 07 3f c5 9f 69 3e c0 4a 88 3e
       -0.03863939 0.5291747 0.22814853 0.2661953
0000f0 51 14 f4 bc 5d ac e6 3d 1b 37 92 3e 4f fe c3 3e
       -0.029794844 0.112633444 0.28557667 0.3827996
000100 12 a4 08 3e 49 7d 8f 3c eb 91 d2 3e 5d c1 c3 be
       0.13343838 0.017515795 0.41126952 -0.38233462
000110 6e df e0 3e 9e ed e8 bd 96 7d fa bd 53 cb c5 bd
       0.43920463 -0.11373447 -0.12230985 -0.09657922
000120 1c bc 71 bc f1 1d 1d 3e 52 57 c6 3e 09 3d 3e be
       -0.014754321 0.15343453 0.38738495 -0.1857797
000130 98 68 55 3e 1c 91 3f 3d aa a2 8c 3e 76 d0 08 3f
       0.2084068 0.046769246 0.27467853 0.53443086
000140 af ab d4 bd 84 ad ea be a9 ec 05 3e df 90 0e 3f
       -0.103843085 -0.45835507 0.1307856 0.55689806
000150 fb 27 30 3c 91 04 8a 3e 14 56 39 3e 04 42 09 3d
       0.01075172 0.2695661 0.18099242 0.033510223
000160 aa c6 57 bd 90 ff db 3e f1 94 b0 bc f6 80 df bd
       -0.052679695 0.42968416 -0.021555396 -0.10913269
000170 f7 df 8b bd ef 0b 44 3e 76 79 c7 be cf ef f6 bd
       -0.06829827 0.19145177 -0.38959855 -0.120574586
000180 33 26 3d 3d c8 e0 bc 3e 22 c4 d8 3d aa 55 11 be
       0.046179008 0.36890244 0.10584284 -0.14192834
000190 08 97 98 bd a0 2e 52 3c ca 76 40 be 16 31 18 3d
       -0.07450682 0.012828499 -0.18795314 0.037156187
0001a0 b3 32 55 bd 26 8b 7e be ed ff 42 3e 75 6c 06 3f
       -0.052050304 -0.24857768 0.1904294 0.5250924
0001b0 f6 b1 d6 ba 30 e9 04 3d 9b 02 84 bd d1 66 a4 3e
       -0.0016379941 0.032448947 -0.064458095 0.32109693
0001c0 4d 54 c9 bd 8b 5c 2c be 57 69 21 3e 65 a2 de 3e
       -0.09830532 -0.16832177 0.1576284 0.43483272
0001d0 a1 df 0f 3e 30 c1 13 bc 1a 73 2f 3e e8 82 37 3e
       0.14050151 -0.009018227 0.17133752 0.1792103
0001e0 db 41 0e bd 16 5f 5a 3e 94 6d 5f be b2 1e dd be
       -0.034730773 0.21325335 -0.21819144 -0.4318748
0001f0 3d 7e 1b bd c2 b8 2f 3e 13 19 e8 bd cd 63 82 be
       -0.037962187 0.17160323 -0.113329075 -0.25466767
000200 cb a3 22 3e 21 c0 1a 3e dc 33 d8 3c 9b e8 e1 be
       0.15882795 0.15112354 0.026391916 -0.44122776
000210 11 5e 00 be d3 91 0a bd ca 6e 27 be 41 58 20 3e
       -0.12535883 -0.033830475 -0.16350856 0.15658666
000220 90 9e 87 bd de cf 99 3d 7e a4 00 3f 61 b5 92 3e
       -0.0662204 0.07510351 0.50250995 0.28654006
000230 da 66 cb 3e 60 7a 87 be 59 e6 94 3d 06 44 53 3e
       0.39726907 -0.26460552 0.07270498 0.20631418
000240 c4 26 63 be 02 a4 98 bd 70 e6 68 3e 32 b3 88 3d
       -0.22182757 -0.07453157 0.22744155 0.06674804
000250 9c bf 6e be d9 71 ee 3d 4a 6d 27 3c e8 88 3e bd
       -0.2331528 0.116428085 0.010218928 -0.046517283
000260 89 55 38 bd ca e0 ae 3e b9 8c bc bc 7e 36 8e be
       -0.045003448 0.34155875 -0.02301632 -0.2777595
000270 6f 0d 96 3c 84 a1 30 3e df f2 e5 be f4 71 98 be
       0.018316953 0.17249113 -0.44911858 -0.2977444
000280 ad 5b 21 3e a7 92 a9 3d d4 2a 0f 3e ce ea 17 bd
       0.15757628 0.08279925 0.13981181 -0.03708916
000290 f7 6a 29 3d 89 19 96 bd ba 22 96 bd 44 0f 44 bd
       0.041361775 -0.07329089 -0.07330842 -0.04786612
0002a0 5d cc 0a 3e 8c 83 fc 3d 46 b2 21 be d5 1c dc be
       0.13554521 0.12329778 -0.15790662 -0.42990747
0002b0 1a b8 8f bd 6b b2 a9 3d eb 7f 9e be 2d 85 46 be
       -0.070175365 0.08285984 -0.3095697 -0.1938674
0002c0 70 e2 e8 3d 5f 2c 87 bc ca 78 c0 bb ae 3b 4d 3e
       0.113713145 -0.01650065 -0.005873774 0.20042297
0002d0 14 a8 58 be a3 1a f7 bd f7 06 ea bd 83 14 54 be
       -0.21157867 -0.120656274 -0.1142711 -0.2071095
0002e0 5d b8 42 3e 20 41 47 3e 7f 1c ef bd f8 7e cb bd
       0.19015642 0.19458437 -0.11675357 -0.09936327
0002f0 13 7b ff 3d 6e 6f f1 bd 62 e1 9b bd 12 20 af be
       0.124746464 -0.11788832 -0.07611348 -0.34204155
000300 d1 fb 8b bd 9d f0 28 3e 82 38 83 3d cc e5 95 be
       -0.068351395 0.16498037 0.064072624 -0.29276884
000310 2c 0a 9c 3c e7 69 32 be 63 d4 32 bf 04 d0 85 be
       0.01904782 -0.17423211 -0.69855326 -0.26135266
000320 33 1b d9 bd 4d 13 cb 3e ab 81 7e 3c 26 a4 15 be
       -0.10600891 0.39663163 0.015533845 -0.14613399
000330 f1 25 ce 3c 7a 3d 77 be 66 8b 16 bd 34 68 4a be
       0.025164576 -0.24144545 -0.036754034 -0.19766313
000340 2a 5c 9b bd f3 4b 7d bd eb cb 11 3e 29 88 ff 3d
       -0.07585938 -0.06184001 0.14237945 0.12477142
000350 35 25 97 3e 97 07 19 be 3b ff 0d 3e 39 f1 2e 3e
       0.29520574 -0.14944302 0.13866894 0.17084207
000360 02 da 17 bd 6d b9 5b be 3b 77 4b bc 07 c2 5e 3e
       -0.037073143 -0.21457453 -0.0124185635 0.21753703
000370 c4 1b 59 be 55 4c 47 3e ea 68 6f 3e cd f9 cc 3e
       -0.21201998 0.19462712 0.23379865 0.40034333
000380 ae 2b 62 3e 32 8f f1 3d d9 c8 a2 be d7 1f 4d be
       0.22086975 0.117948905 -0.3179386 -0.20031677
000390 15 dd 20 be ca 08 c9 3c 3f d2 e7 be 42 d0 37 be
       -0.15709336 0.024540324 -0.45277593 -0.17950538
0003a0 eb d8 18 3e ac dd e6 3e bd 9e 09 be 51 75 25 3e
       0.14926498 0.45090997 -0.1343946 0.16158034
0003b0 7c cb 3e be d3 0a 52 3d 23 be 48 bd 91 24 00 bf
       -0.1863231 0.051279854 -0.049009454 -0.50055796
0003c0 78 4a 6d be 6b 07 58 be c0 4d 06 be 0b 9b 47 3e
       -0.23172939 -0.2109658 -0.13115597 0.19492738
0003d0 6c 16 8d 3e eb f9 e6 bd 75 2f 61 3e 29 b9 e9 3e
       0.2755617 -0.11278137 0.2199076 0.45649078
0003e0 ad ac 17 be ad b2 f3 3e 4c 91 c2 3d ea c9 40 be
       -0.14811964 0.47597256 0.095003694 -0.18827024
0003f0 6f 0f 25 3e 4e d2 2c 3e 8a e8 87 be 53 4b c0 be
       0.16119169 0.168771 -0.265446 -0.37557468

critic.0.bias f4 [64]
000000 f1 6d 43 be 92 7d 97 bd 29 9f 4a 3e 4e d0 37 be
       -0.19084908 -0.073969975 0.19787277 -0.17950556
000010 34 9e 69 be ad 93 3a 3e 8a 5c 3c 3d 48 7f 55 3e
       -0.22814256 0.18220396 0.04598669 0.20849335
000020 df 45 6c be a8 a1 ba 3d db dc 74 3e a5 12 66 be
       -0.23073529 0.09112865 0.23912375 -0.2246805
000030 40 bc 57 bc 72 f2 5e 3e da 4e 37 3e ab a1 60 be
       -0.013167441 0.21772173 0.17901173 -0.21936671
000040 15 22 3b 3c 85 b1 a9 3d 7d f8 9f bc 8c bf 51 be
       0.0114217 0.08285812 -0.019527668 -0.20483226
000050 8d 2a 0b be 92 67 94 bd ee 6c e8 bd 20 e8 41 be
       -0.1359045 -0.07246317 -0.11348902 -0.18936205
000060 36 2a ba bd 2b 9d 3f be 81 ac 2a 3e 90 bd 45 3e
       -0.09090082 -0.18712299 0.16667368 0.19310594
000070 c6 03 1e be 94 5c 53 be 6e db 34 3e f6 3e 65 be
       -0.15431127 -0.20640785 0.17661831 -0.22387299
000080 f8 28 41 be 86 5a 25 be 72 cf 3e 3e ea 84 1d 3e
       -0.18863285 -0.16147813 0.18633822 0.15382734
000090 c1 eb 67 3c 71 44 15 be c6 c4 9e bd 3e fc 34 3e
       0.014155329 -0.1457689 -0.07752375 0.17674348
0000a0 ad 70 41 be 5a 13 12 3e 95 1d 2a bb 69 33 e8 3d
       -0.18890639 0.14265195 -0.0025957574 0.11337931
0000b0 5f ee 59 bd d9 4a 1f be f3 cc ef bd 68 c5 29 be
       -0.053205844 -0.15555896 -0.11709013 -0.16579211
0000c0 a5 f9 3a be 44 39 45 be b2 c4 ad bd 3e 23 02 3e
       -0.18259294 -0.19260126 -0.08484782 0.12708756
0000d0 a2 a2 30 be 1f 49 19 3e 8a e3 8c bc 2e e8 a1 3d
       -0.1724954 0.149693 -0.017198343 0.07905613
0000e0 d1 64 3a be 3b 77 3a 3e ef 9c 67 bd 20 32 e0 bd
       -0.18202521 0.18209545 -0.056546148 -0.109470606
0000f0 7a e7 3b 3e 74 db 5b 3e f5 22 ed bc 6d d2 40 be
       0.1835002 0.21470433 -0.028947333 -0.18830271

critic.2.weight f4 [64, 64]
000000 af a2 c3 3e c8 e2 01 bf 42 cb b5 be 29 be dd 3e
       0.38210055 -0.50736666 -0.35506636 0.43309143
000010 6b 70 a1 3d 1f c7 34 be fb f7 84 3d 11 a1 c1 be
       0.0788277 -0.17654084 0.06492611 -0.37818196
000020 a6 3e 07 3e d4 2b 9e 3e a9 02 9d be 06 20 89 3d
       0.13207492 0.30892813 -0.30666092 0.06695561
000030 a1 2d 64 bd 32 3d d4 be 79 bd 0c bf 05 6a e5 3e
       -0.055707578 -0.41452938 -0.5497661 0.4480745
000040 ba e9 de 3d 02 ac 49 be 7d a4 c8 3b 3f 70 a7 3e
       0.108844236 -0.19694522 0.006123124 0.32702824
000050 9b dd 10 bd 97 87 9c 3e 80 e7 2d 3e 08 d1 9b 3e
       -0.03536759 0.30572197 0.16982841 0.30432916
000060 13 b3 f4 3e 7c d9 34 3e 54 65 be 3d 0d a5 70 be
       0.47792873 0.17661089 0.092966706 -0.23500462
000070 99 6e 2b 3e a4 2f 44 3e 39 1d 4b be a8 d5 4c 3e
       0.16741408 0.19158798 -0.19835366 0.20003378
000080 93 a0 01 3e 19 81 82 3e bf bb 2a 3e 6e b1 b6 bd
       0.1265891 0.2548912 0.16673182 -0.08920561
000090 cc 7f b3 be 5e 4b 7f be e6 e0 e6 bd 91 10 2d bf
       -0.3505844 -0.24931094 -0.11273365 -0.67603403
0000a0 f8 79 a7 3e 27 29 60 be 2c 35 00 bd a8 a5 fa bd
       0.32710242 -0.21890698 -0.03130071 -0.12238628
0000b0 a8 79 84 be a6 78 94 3e 38 8f 78 3e b3 4f c5 3e
       -0.25874066 0.28998297 0.24273384 0.38537368
0000c0 29 28 4b 3e db 8d dd 3e 16 23 b7 bd eb c9 a7 bd
       0.19839539 0.4327229 -0.08942239 -0.0819281
0000d0 df 03 59 3e 4d da 88 be 08 a4 75 bd 55 97 cc bc
       0.21192883 -0.2672905 -0.059970886 -0.024974504
0000e0 8b f5 46 3e d6 cd a0 be 96 7f 43 3d df 96 53 3e
       0.19429605 -0.3140704 0.047729097 0.20663022
0000f0 87 64 39 bd 57 60 ad 3b e1 d9 81 be c0 e0 03 3e
       -0.045261886 0.0052910256 -0.2536154 0.12878704
000100 df 57 e1 3e b6 58 59 3e f8 2b 69 be 68 fe 7e 3e
       0.44012353 0.21225247 -0.22770679 0.24901736
000110 a9 c7 18 3d 7c c2 99 be 2b 31 18 bd b1 a4 6d be
       0.037299786 -0.30031192 -0.037156265 -0.23207356
000120 dc bf ef 3d 5f 9d 78 be 8d 26 26 be 0a b7 94 3d
       0.11706516 -0.24278782 -0.16225643 0.072614744
000130 62 c2 f4 3e 73 09 2b 3d 36 48 cd be 14 30 f3 3e
       0.47804552 0.04175706 -0.40094155 0.47497618
000140 50 b6 57 3d a0 56 a1 be 9c b9 a3 3e 5d bc 89 3d
       0.0526641 -0.31511402 0.31977546 0.067253806
000150 04 b3 eb 3d ea 76 8e 3e 9a fe f4 bb 85 48 90 3e
       0.11508754 0.278251 -0.00747664 0.28180328
000160 5d 10 2b 3e 7a 17 83 3e 8d be 3f be 5c e9 9b be
       0.16705461 0.2560385 -0.18725033 -0.30451477
000170 e7 3b cb 3e 25 13 d9 3e 68 77 ac be e9 ef 9e 3e
       0.3969414 0.4239742 -0.3368485 0.31042412
000180 dc 46 c3 3e 8c b8 d7 3d 94 73 8c bd 93 27 0b be
       0.3814 0.105332464 -0.06857982 -0.13589315
000190 1e 53 4e bd 38 60 f6 bd ed df 3d be 79 f9 a1 3d
       -0.050372235 -0.12030071 -0.18542452 0.07908911
0001a0 5e 99 5a 3e 9e b5 2b bd c9 b6 da 3d db 97 15 be
       0.21347567 -0.04192125 0.10679395 -0.1460871
0001b0 c1 ab 99 3d 80 8b a7 3e db 4b de 3e 72 6a 5d 3d
       0.075034626 0.32723618 0.43417248 0.054056592
0001c0 6a d3 0b 3f 6c de b9 3d fa e5 ba bc 4d aa 74 bd
       0.5461947 0.09075627 -0.02281474 -0.059732724
0001d0 49 a9 1d 3e 7e ad 8b be e5 bb 15 be 37 2e 8f be
       0.15396608 -0.27280802 -0.14622457 -0.27964947
0001e0 bc f5 b8 3e f0 57 eb be c3 92 11 3e 13 03 d4 3e
       0.3612498 -0.45965528 0.14216141 0.41408595
0001f0 4a 8a ff bd eb 00 70 be 72 96 9e be 5e d8 78 3b
       -0.124775484 -0.2343785 -0.30974156 0.0037970762
000200 17 00 b3 be f5 6d a8 3d e1 33 e3 3e d4 5f 3f be
       -0.34961006 0.08224098 0.44375518 -0.186889
000210 96 53 61 3e 51 e5 50 3d 64 fd 0a 3e 6c 60 7b 3e
       0.22004542 0.050999943 0.13573223 0.24548501
000220 96 79 c1 be a6 f1 b4 3e 48 a8 17 bd 13 20 cd be
       -0.37788075 0.35340613 -0.03702572 -0.40063533
000230 03 a3 c9 bd 63 89 02 3f 47 a4 e4 3e a9 58 0a bf
       -0.09845545 0.50990885 0.44656584 -0.54041535
000240 91 9e d5 be 16 12 e6 3c 81 22 77 3d 42 16 9d be
       -0.4172254 0.028084796 0.06033564 -0.30681044
000250 99 89 10 be bb 99 81 be 8e f2 c6 bd 1b 14 37 be
       -0.1411499 -0.253126 -0.097142324 -0.17878763
000260 8d cd bd be 51 c8 70 bd b3 1e 06 3f 9f db ed 3e
       -0.37070885 -0.058784787 0.52390593 0.4645662
000270 8e bd 8f bd 20 c4 01 bf f0 cc 3c bd 92 21 f0 be
       -0.070185766 -0.5068989 -0.04609388 -0.46900612
000280 db ca c3 3d 42 7e 95 bc 15 16 0c bd e8 01 fc 3d
       0.09560176 -0.018248681 -0.034200747 0.12305051
000290 fe 1a 63 bd 85 e5 f0 bd 44 ec 42 3c 8a 2f 9f 3e
       -0.055445664 -0.117625274 0.01189715 0.31090957
0002a0 f0 5b 0c bc e7 2e a2 be 88 0d a0 3e b1 8c db 3d
       -0.0085668415 -0.3167641 0.31260324 0.10720194
0002b0 6f 1b 11 3d d3 90 c4 be 71 88 43 3e 9e 3b 0d bd
       0.035426553 -0.38391742 0.19095017 -0.034480684
0002c0 ff 41 9b bd 94 d5 92 be aa ba a4 3d eb 75 27 3d
       -0.07580947 -0.28678572 0.08043416 0.04088394
0002d0 26 7e a0 be 16 1c a6 3e 21 9a d0 3d 83 3b 9b 3d
       -0.31346244 0.32443303 0.10185648 0.0757971
0002e0 9f 26 a2 be af 31 73 3e c3 07 c4 3d f0 bd cf be
       -0.3167009 0.23749422 0.09571793 -0.40574598
0002f0 b1 30 90 3e 83 73 90 3e 25 30 61 bd 42 d7 b2 bd
       0.2816215 0.28213128 -0.054977555 -0.087324634
000300 d9 af 02 3f e4 a3 66 3e e2 1b d4 be 0f 1e fe 3e
       0.5104957 0.22523457 -0.41427523 0.49632308
000310 47 83 dc 3d 19 9b 78 be 68 ec 2b bf 2a da 23 be
       0.10767227 -0.24277915 -0.671576 -0.16001192
000320 6b e3 70 3e 03 c9 14 3d 08 18 87 bd 88 e8 3c 3e
       0.23524253 0.036324512 -0.065963805 0.18448079
000330 46 67 31 bd 3c e6 ab bd c5 2d e5 be bf de 08 3f
       -0.04331138 -0.08393523 -0.44761482 0.53464884
000340 d5 1b f5 3a 63 ea d2 bc 08 3b cb bd 2f 6b b8 3e
       0.0018700311 -0.02574653 -0.09923369 0.36019275
000350 66 a0 03 be ee 1a b0 3e ad f2 cc 3e 00 26 cf 3e
       -0.12854156 0.34395546 0.40028897 0.4045868
000360 4b 47 5c 3d fb a1 71 3d 95 8a d0 be b8 c6 e9 be
       0.053778928 0.058992367 -0.4073073 -0.45659423
000370 9f e9 b2 3d d9 e4 a2 be b1 40 d8 bc 42 61 94 3e
       0.08735966 -0.31815222 -0.026398035 0.28980452
000380 e2 38 88 3e dc d7 98 3e e3 b2 bd bd 3b ab 3b be
       0.26605898 0.29852188 -0.092626356 -0.18327038
000390 fb 33 11 be d3 97 88 be 6d 8e 08 3e 07 45 7e be
       -0.14179985 -0.26678333 0.13335581 -0.2483102
0003a0 6a ed 80 3e a4 f4 8c bd b3 50 9f 3d 97 a5 96 3d
       0.25181133 -0.06882599 0.07779064 0.073558025
0003b0 9d 66 09 be b4 26 11 3f d5 21 bb 3d a7 92 38 3e
       -0.1341805 0.5669968 0.09137312 0.18024693
0003c0 e4 92 d3 3e 2e 88 a7 3e 8e a2 73 be cc c6 14 be
       0.41323006 0.32721084 -0.23792478 -0.1452896
0003d0 b1 b3 aa 3e 1a b6 a9 be b0 50 f8 bd 6c c2 f2 be
       0.3334022 -0.33146745 -0.12124765 -0.47413957
0003e0 11 d2 3b 3e a3 c8 e2 be db b1 ff 3d 95 fa c5 3e
       0.18341853 -0.442937 0.12485095 0.3866774
0003f0 d5 cb ff be 40 1c 16 bf 77 b9 37 be 3e 65 b0 3d
       -0.499602 -0.58636856 -0.17941843 0.086130604

critic.2.bias f4 [64]
000000 4f 30 2a be 7b c3 d4 bd eb 1b 25 3e 25 b3 5e be
       -0.16619991 -0.103888474 0.16123931 -0.21748026
000010 9c 0a 1e bd 1b 0c 11 be 5c 0b 48 3e 2a a7 39 bd
       -0.038584337 -0.14164774 0.19535583 -0.045325436
000020 aa 0c 52 bd 93 dd 6f 3e 35 2c c3 bd 59 bd 1e be
       -0.05128161 0.23424368 -0.09529916 -0.15501918
000030 04 f1 5a be ce 19 ee bd 5a 8d f8 bc a0 8d 53 3e
       -0.21381003 -0.116260156 -0.03034084 0.20659494
000040 5f a7 1e be 64 68 0f be 24 3c 09 be e6 37 18 3e
       -0.15493535 -0.14004666 -0.13401848 0.14865074
000050 df 57 83 bc 26 5c 46 3e 25 fb 2a be bc 5b 50 be
       -0.016033111 0.1937109 -0.16697367 -0.20347494
000060 c9 58 9f 3d 21 2e eb 3d 9a 4d 38 3e 0c f6 20 3e
       0.07780606 0.11483408 0.17998353 0.1571886
000070 b9 1f 12 3d 87 58 11 bd ad 9b 36 3e a3 e5 11 bd
       0.035674784 -0.035484817 0.17832823 -0.03561939
000080 75 53 0c be ad 0b 59 3e bb 29 f7 3b 8e 7c e6 bd
       -0.13703711 0.2119586 0.0075428165 -0.11254226
000090 a5 a4 09 3d 01 a3 38 3e dd 5c 3b be 72 29 68 bd
       0.033604283 0.18030931 -0.18297143 -0.05668015
0000a0 20 ad 8a bd 31 27 4d 3b 5e f2 19 3e f0 4e 2d be
       -0.06771302 0.0031303877 0.15033862 -0.16924644
0000b0 cc d9 2d 3d a5 48 d7 3d c3 dd 26 3e 94 77 0d be
       0.042444035 0.10511903 0.16295533 -0.13815147
0000c0 3e 32 14 3d 91 48 c1 3d 5a b3 30 3e f5 19 59 bb
       0.036180727 0.09437669 0.17255917 -0.0033127044
0000d0 f7 1b 21 3e 17 f5 17 3e c5 b0 0e be 3d 91 1c 3e
       0.15733324 0.14839588 -0.1393462 0.15289779
0000e0 e8 a4 3e 3d 24 54 32 be df 60 19 3e e9 80 13 3e
       0.046543986 -0.1741491 0.1497836 0.14404644
0000f0 20 59 95 bd 1c 4d 7e 3e f0 dc 1d 3e 56 51 8c 3b
       -0.0729239 0.24834102 0.15416312 0.004282157

critic.4.weight f4 [1, 64]
000000 92 2e be 3e 89 ff 95 3e 7d 87 a4 be 98 63 a8 3e
       0.37144905 0.2929652 -0.3213462 0.32888484
000010 f1 1c be 3d 0c 21 04 3f 19 9f b6 be 78 e8 96 3d
       0.09282864 0.51612926 -0.35668257 0.07368559
000020 dc e2 00 3e 2c 6b b2 be 94 0b d1 3e 6c bc a3 3e
       0.1258654 -0.3484739 0.40829146 0.31979692
000030 94 e9 c1 3e 80 13 89 3e fb 47 6e 3e aa 63 b4 be
       0.37873518 0.2677269 0.23269646 -0.35232288
000040 9e 32 b2 3e 07 d1 ca 3e c9 fc a9 3e 8d 1a 86 be
       0.34804243 0.396126 0.33200672 -0.26192132
000050 ae dd 4c 3e d4 f3 a0 be 10 7c 8d 3e 59 62 a5 3e
       0.20006439 -0.31436026 0.27633715 0.32301596
000060 ef 1e 9a be 28 a5 ed be 8e 3d f3 be f3 37 17 bf
       -0.30101725 -0.46415067 -0.475079 -0.59069747
000070 a7 52 e8 bd a0 1d 2a 3e 24 02 f5 be 69 0d 08 3e
       -0.1134389 0.16612864 -0.47853196 0.13286366
000080 28 c8 06 3f 48 bd bf be 3b 71 c4 bd f7 77 b6 3e
       0.52649164 -0.37449098 -0.095919095 0.356384
000090 91 95 53 be 76 63 10 bf aa 43 d8 3e aa 8b 97 3e
       -0.20662524 -0.56401765 0.42239124 0.29598743
0000a0 51 22 00 3e 93 4e 80 3e cb 4a a3 be cb 79 df 3e
       0.1251309 0.25059947 -0.31893 0.43647608
0000b0 cf 71 61 bd 14 4d 34 be 26 75 fd be 89 a2 96 3e
       -0.055040177 -0.17607528 -0.4950344 0.2942088
0000c0 8c d5 97 bd 54 1e 0d be ca 47 c5 be b3 1d 7d be
       -0.07413778 -0.137811 -0.38531333 -0.2471836
0000d0 b3 29 af be 43 5b 93 be bd 0d be 3e 0f 4c 0a bf
       -0.342115 -0.28780565 0.37119856 -0.54022306
0000e0 e0 c9 21 be 75 de d2 3e 7a 87 9a be d9 e8 d9 be
       -0.15799665 0.41185346 -0.30181485 -0.4256046
0000f0 4d 5c 91 3e c3 aa aa be 65 f6 0c bf 06 6d ea be
       0.28390732 -0.33333406 -0.5506347 -0.45786303

actor.0.weight f4 [64, 8]
000000 22 78 6b bd 25 18 a6 3c cd fd 49 3e 91 6d 9a bd
       -0.057487614 0.020275185 0.19725724 -0.075404294
000010 47 69 39 bf fe ba 61 be 99 cb 92 3d 77 e1 42 3e
       -0.72426265 -0.22043988 0.071677394 0.1903132
000020 9d d6 6a be 2c 89 f6 3d 5d 32 a6 bd e7 ec 26 3f
       -0.22933431 0.12037882 -0.08115075 0.65205234
000030 87 86 65 3e 2d 09 83 bd c0 c1 e8 bd d7 8e 07 3e
       0.224146 -0.063982345 -0.1136508 0.13238083
000040 79 be 03 3b e9 82 98 be e0 24 4d bd ba 72 1c bf
       0.0020102544 -0.29787377 -0.050083995 -0.6111256
000050 d3 0a b3 3e f8 20 11 bc 6a 4b ae be fb a7 83 be
       0.34969196 -0.008857958 -0.3404191 -0.25714096
000060 99 86 97 bd 81 c9 08 bd e7 d3 41 be 85 f1 fe bd
       -0.07398719 -0.033395294 -0.1892849 -0.1244841
000070 38 b3 03 3f 6d 01 25 bd c7 8b 40 be 3d cf 60 be
       0.5144534 -0.040284563 -0.18803321 -0.21954055
000080 70 9b fe 3d a9 6e 84 bd 9a b9 c6 bd d3 a0 64 be
       0.12431991 -0.06466419 -0.097033694 -0.22326975
000090 c6 36 a9 3e c3 42 4e 3e ef 11 43 3e 40 2e 92 be
       0.330496 0.20142655 0.1904981 -0.2855091
0000a0 a8 47 c4 bd 39 83 70 be 43 99 3a 3d 95 c4 d8 3e
       -0.0958398 -0.23487557 0.045556318 0.4233748
0000b0 05 91 c2 be 30 be ec 3c 1d 21 57 3d 8e 01 9f 3d
       -0.38001266 0.028899282 0.052521814 0.077639684
0000c0 b6 f2 a1 be c3 6f 92 3b 01 4a c9 bd c7 bc 87 3d
       -0.31630486 0.0044688894 -0.09828568 0.06627803
0000d0 a6 b9 b5 be 2e 7a a6 bd 07 41 1f 3e 3e 7f b2 be
       -0.354932 -0.08128773 0.1555215 -0.34862703
0000e0 6e f5 d9 bd 1b 76 43 be f6 52 6b 3e af 2a f3 3e
       -0.10642515 -0.19088022 0.22980866 0.47493502
0000f0 34 b4 3c bf 2f 7e 0a bf 13 ca cd 3d a1 9d 14 3e
       -0.7371247 -0.5409879 0.10048308 0.14513256
000100 10 b1 56 be ca 06 0e 3e 3b a9 eb be ad 41 d6 be
       -0.20965981 0.13869777 -0.4602755 -0.41846982
000110 5a 86 ef 3e d0 0a c0 3e c6 a8 0a bf a1 dd e1 3d
       0.4678219 0.3750825 -0.5416378 0.110286005
000120 0b 68 fd bd 24 e3 0a 3d 54 c5 ac bc 26 e6 5a 3e
       -0.1237336 0.033908024 -0.021090187 0.21376857
000130 20 7b d8 be 77 e1 ce be 89 d6 ec bd 08 bf fb 3d
       -0.42281437 -0.4040639 -0.11564357 0.12292296
000140 f0 c1 7c bd 78 cb 86 3d 62 a0 14 bc ec ca 9b bd
       -0.06170839 0.06581777 -0.009071441 -0.07607064
000150 1b 30 07 bf f9 57 02 bd c2 e0 83 3e b1 34 0e 3e
       -0.5280778 -0.03182218 0.25757414 0.13887288
000160 38 6b cb 3c 61 12 b4 bd fb 9f 54 3b 00 ff 25 3c
       0.0248314 -0.08792568 0.0032443989 0.0101315975
000170 bc c1 16 bf c3 09 a7 be bf 75 04 3e 47 a1 47 be
       -0.58889365 -0.32624635 0.12935542 -0.19495116
000180 04 ae 48 be 67 6f f5 bd 65 f1 66 be 7a 13 9f be
       -0.19597632 -0.11984139 -0.22553022 -0.31069547
000190 4e 80 c3 3e 17 5f d8 3e e5 e3 f7 bc 10 ac df bd
       0.38183826 0.42260048 -0.030260036 -0.1092149
0001a0 70 1b 96 be 23 e8 a8 3e db ad 6f 3d f8 8b 62 3d
       -0.29317808 0.32989606 0.05851541 0.055309266
0001b0 3c 17 f7 3c de 2c 95 bd 2b a0 69 3e 7a dd cc 3b
       0.030162446 -0.07283948 0.22815005 0.006251988
0001c0 62 e4 03 be e5 d8 56 be 01 89 c0 3e 74 de 08 bf
       -0.1288009 -0.20981176 0.37604526 -0.53464437
0001d0 b5 fe ab be 4d df 99 bd 06 0d 14 3d 89 f0 0f 3d
       -0.33592764 -0.07513294 0.036145233 0.0351415
0001e0 8f ef 2f be ca 0a b2 3d 2b 06 63 3d 1b 7f 3b be
       -0.17181228 0.08693464 0.055425804 -0.18310206
0001f0 2f b1 c6 be ce a8 1f be c3 56 9d bd 3e 0f ab 3d
       -0.38807055 -0.15591738 -0.07682564 0.083525166
000200 59 c8 8e be ea bb 30 bd d6 bb 12 3e a7 7a 0f 3f
       -0.27887228 -0.04314796 0.14329466 0.5604653
000210 26 3f a2 be 09 f1 c5 be b6 41 f4 3b 39 27 9d 3d
       -0.31688803 -0.38660458 0.0074541224 0.07673497
000220 e8 c3 26 3e dd ce 8e 3d 7e 3f 2c be ce 82 b9 be
       0.1628567 0.0697305 -0.16821095 -0.3623261
000230 fa 66 14 3d 09 57 ad 3a 1d 5b 3c 3e e3 50 26 be
       0.03623102 0.0013224791 0.18394132 -0.16241793
000240 e0 5a 2b 3d e9 76 c1 3d 35 95 8d be 81 c5 23 3e
       0.041834712 0.094465084 -0.27652898 0.1599331
000250 63 fb d3 3e bc 47 46 3e 4d d9 bc 3c 9b 41 17 3d
       0.4140273 0.19363302 0.023052836 0.0369278
000260 03 aa 12 3e 04 51 09 bd 9f e4 42 3e 77 51 05 be
       0.14322667 -0.03352453 0.19032525 -0.13019358
000270 70 f4 25 bf e9 de c7 be ec 68 93 be 78 8b 1f be
       -0.6482611 -0.39037254 -0.28790987 -0.15580547
000280 bf a6 03 bd f6 69 23 be a5 83 37 be ae df a9 bc
       -0.032141443 -0.1595839 -0.17921312 -0.020736542
000290 bc 2d f3 3d 2d ff 79 3e 37 8b 55 3d dd a2 46 3e
       0.118739575 0.24413748 0.05213472 0.19398065
0002a0 1b c0 cf 3d c7 6f e9 3c d0 78 a0 3d 85 86 64 3e
       0.10144063 0.028495682 0.07835543 0.2231694
0002b0 fa 62 0a bf 66 21 dc be 13 26 2c 3d 84 b9 73 3d
       -0.54057276 -0.4299423 0.042028498 0.059503093
0002c0 bf 3a f5 3c b1 54 36 3e 90 6c 1a be 7f 47 2c 3f
       0.029935239 0.17805745 -0.15080476 0.67296594
0002d0 fb 7e 01 3f 65 7e a6 3e ba 4c b7 3d a2 f6 5f bc
       0.5058438 0.32518306 0.08950181 -0.013669642
0002e0 c8 fa 88 3e f3 1a 22 3e cb 2a 65 3e c9 bb e9 be
       0.2675383 0.15830593 0.22379605 -0.4565108
0002f0 c9 30 0f 3f 7e 1c 6f 3e 69 c0 86 be b3 0f b2 bc
       0.55933815 0.23350713 -0.26318672 -0.021736002
000300 fa 1e 92 be 16 ed 4b 3d 97 b9 f5 bd a3 72 a2 3e
       -0.28539258 0.04978665 -0.11998289 0.31728086
000310 b5 e5 94 be 12 c9 a6 be 4e 6c 15 3d 77 dd 65 3d
       -0.29081503 -0.3257528 0.03648024 0.05611941
000320 96 da 0f bd 65 c3 4f 3d 27 1b e9 bd 59 7c ff be
       -0.03512057 0.050723452 -0.11382132 -0.49899557
000330 bd 63 91 3d bf 3c 91 3e 8f 7b 30 be 99 90 88 3d
       0.07099102 0.28366658 -0.17234634 0.06668205
000340 29 89 a9 3d b9 d0 ec 3c b3 b7 08 3f 71 81 6f 3e
       0.08278114 0.02890812 0.534053 0.23389222
000350 97 3a b3 be 35 08 a5 bd 8d 63 4f be 35 7d 7c 3e
       -0.35005638 -0.08058206 -0.2025282 0.24657138
000360 9b 9a d7 3d 7d 6b 2b be 65 e0 8a bd da c3 d7 be
       0.105275355 -0.16740222 -0.06781081 -0.4214161
000370 0f 98 12 3f 37 e6 03 3f 3a da 8a 3d f7 7f e9 3d
       0.57263273 0.51523155 0.06779905 0.114013605
000380 48 e2 88 3c ea 19 7e be d4 a0 7a bd 8a 68 6c be
       0.016709462 -0.24814573 -0.061188534 -0.23086753
000390 c9 c1 29 3f 14 72 81 3d f4 f1 2a be bf c1 6e bc
       0.6631132 0.06320587 -0.1669386 -0.01457256
0003a0 48 a8 e9 3d 0c 36 ac bd fb 44 01 3c 26 96 4f bf
       0.1140905 -0.08408746 0.007889981 -0.81088483
0003b0 59 53 68 be 7c 85 17 bf cc 03 98 bd 14 c5 aa bd
       -0.22688045 -0.59188056 -0.07422599 -0.08338371
0003c0 02 15 a3 bd 59 ba 55 bc d0 b4 eb bc 8f 57 12 3f
       -0.07962991 -0.013044917 -0.028772742 0.57164854
0003d0 83 dd ff 3e f1 4b 4b 3e 98 01 bc bc b8 cd 2e bd
       0.49973688 0.19853188 -0.022949979 -0.042676657
0003e0 64 37 e0 3d 75 f2 f0 3b b8 85 ff bc 09 2d dd 3e
       0.10948065 0.007353122 -0.031191692 0.43198422
0003f0 1e d0 99 3e 90 a4 68 3d 1f 0d 2b bd 0b f0 6e be
       0.30041593 0.056797564 -0.04176056 -0.23333757

actor.0.bias f4 [64]
000000 39 87 3b bb 12 23 00 3c c4 40 62 3d 20 07 cc ba
       -0.0028614535 0.007820861 0.055237547 -0.0015566088
000010 40 fc 94 bb 75 f8 22 ba d4 87 d2 bb e6 07 31 3d
       -0.004546672 -0.00062168326 -0.0064248834 0.043220423
000020 ca 63 20 bd 5f b6 58 3d 56 5e 02 bd e9 e3 65 3c
       -0.039157666 0.052908298 -0.031828247 0.014031389
000030 7e f4 9b 3b 6f 10 14 bc 73 62 2a 3d ad 9e 2c bd
       0.0047593703 -0.009037121 0.041597795 -0.042143513
000040 41 e5 a8 3b fe e1 0c bd 7c db ee 3b da c6 e2 3b
       0.0051542823 -0.03439521 0.007289348 0.0069206776
000050 fd 83 b5 3c e2 9a 95 bc c8 07 37 bd 62 c7 ed bb
       0.022157663 -0.01826233 -0.044685155 -0.0072564343
000060 f4 e7 05 3d 46 e6 54 3c 67 88 4a bb 3f f5 2f 3d
       0.03269191 0.012994355 -0.0030904056 0.042958494
000070 14 14 3f 3d a1 f9 21 3c 98 16 c7 bc e1 cc c6 ba
       0.046650007 0.009886176 -0.024302766 -0.001516726
000080 b0 70 40 3b 79 97 f5 3a 97 1f 97 3c ae 75 1e bd
       0.0029364042 0.0018737159 0.01844768 -0.038686447
000090 84 80 2a 3c 0d 93 e9 3c 27 eb 16 bc 80 f5 f4 3b
       0.010406617 0.028512502 -0.009211338 0.007475555
0000a0 f6 a0 de bc 9a 62 85 bb 08 bc 9b 3c 6e f6 8d bc
       -0.027176362 -0.004070592 0.019010559 -0.01732942
0000b0 cd 6f 96 bc 6c 59 3b bc c0 37 8c bc 70 27 30 bb
       -0.018363858 -0.011434894 -0.017116427 -0.0026878975
0000c0 8c 67 ae 3c be 5a ad bc 99 17 3b bc c9 0c ee bc
       0.02128961 -0.021161433 -0.0114192 -0.02905883
0000d0 e8 0b 50 3c 38 06 69 3c 36 47 3e 3a 10 8a 14 bc
       0.012698151 0.014222674 0.0007258536 -0.00906612
0000e0 9a 59 4e bd 1c 96 37 3b 88 0d 46 3c 76 8b 21 bd
       -0.05037842 0.0028013056 0.012088187 -0.03943964
0000f0 30 39 80 3c 7b bd e7 bb f2 01 c9 3c 64 8d f6 bc
       0.01565227 -0.0070721484 0.02453706 -0.030096717

actor.2.weight f4 [64, 64]
000000 73 24 ad 3e a9 c0 b7 bd ac 63 8a 3e da 4a d6 be
       0.3381687 -0.08972294 0.2702917 -0.41853982
000010 9f f6 e2 3d cd 5c 13 3e 95 8b 5a be f8 39 2e 3e
       0.110821955 0.1439087 -0.21342309 0.17014301
000020 88 81 89 3d 4e dd 58 be 00 ac 69 3e 82 55 75 3e
       0.06714159 -0.21178171 0.22819519 0.239584
000030 4a 8b fb 3c f1 e5 85 3d 2f 77 74 3c 63 c7 65 3e
       0.030706067 0.065379985 0.014920994 0.22439341
000040 77 08 4a 3e 60 eb 99 3e 75 0c 65 3b ca b1 da 3e
       0.19729792 0.3006239 0.0034950052 0.42713767
000050 fb 4a 91 bd 2a be 28 3e 48 02 1f be 8b 2c 07 bd
       -0.070943795 0.16478792 -0.15528214 -0.033001464
000060 c8 d6 d3 3d c8 e5 8c 3b ac c9 01 3e b4 37 31 3e
       0.10343701 0.004299853 0.12674588 0.17306405
000070 4a ed 13 be 5d b8 ff 3e 6d 1d c9 be 51 47 10 bf
       -0.14445987 0.49945346 -0.39280263 -0.5635882
000080 27 ab 7e 3e 83 05 30 3e 83 32 f6 3c 5e 2d 92 3e
       0.24869977 0.17189603 0.030053383 0.28550237
000090 47 d9 64 3e 70 32 df 3d a4 ca b6 3e 1e 83 a9 3d
       0.2234851 0.10898292 0.35701478 0.08276962
0000a0 41 cf 1a 3f 9e cc 11 be 65 80 4f be ef 04 55 3e
       0.60472494 -0.14238212 -0.20263822 0.20802663
0000b0 cd 8a 8a 3e ac 90 fc 3d 98 f5 cc bd f2 df a9 bd
       0.27059022 0.123322815 -0.10007781 -0.08294667
0000c0 65 6c aa 3c fb fe b8 3d 67 d0 fb bd b6 79 f1 bd
       0.02080364 0.09033009 -0.12295609 -0.11790793
0000d0 b3 a0 9c 3c 52 93 95 3e d0 72 91 3e a9 f6 38 be
       0.019119596 0.2921396 0.28407907 -0.18062843
0000e0 77 6c b3 ba 58 59 88 3e 62 fe d2 3c c2 49 48 3e
       -0.0013688941 0.26630664 0.025756065 0.19559386
0000f0 ca d6 83 3e 34 67 1e bf f9 31 c4 3e c5 6d 80 be
       0.2574981 -0.61876225 0.38319376 -0.25083748
000100 57 68 45 be 28 12 e0 bd 92 f7 6c 3e 7d 0b c8 3e
       -0.19278084 -0.10940963 0.23141316 0.39071265
000110 a6 59 74 3e 8e f2 22 be 34 4a 4e bd bc 26 fa be
       0.23862323 -0.1591284 -0.050363734 -0.48857677
000120 20 d5 38 3d 38 78 d3 3c b8 eb 6b be 65 32 9f be
       0.045125127 0.02581416 -0.23039138 -0.31093135
000130 69 a2 81 3e 76 e5 2e bd 2c 0f bb be 53 7f 55 3e
       0.25319222 -0.0426993 -0.36535013 0.20849352
000140 a0 65 c5 be 4a 02 09 be e9 57 d9 3e 34 a7 03 bd
       -0.38554096 -0.1337978 0.42449883 -0.03214188
000150 c5 b6 a0 3d 64 ee 1f be 2f 1d 48 39 4f 26 6a 3e
       0.078473605 -0.15618283 0.00019084358 0.22866176
000160 6d 66 99 be e0 17 87 3e 92 eb a2 3d 87 cc 0e 3e
       -0.29960957 0.26385403 0.07955088 0.13945208
000170 73 85 67 3d 80 1f 06 3e ba 87 93 3d 93 d2 bf 3d
       0.05652375 0.13097954 0.07203622 0.09366336
000180 6e 15 88 be 9a 7b 8b be 62 fb 7e 3c f3 1d 6b 3e
       -0.2657885 -0.27242738 0.015562864 0.22960643
000190 ca 06 03 bf 74 9e 7c 3e 1e b6 14 3d 6a 17 85 be
       -0.51182234 0.2466982 0.036306493 -0.25994426
0001a0 8c dc 7a be b0 cf 9b bd 8e 97 f4 3e 6a 50 92 be
       -0.24498194 -0.076079726 0.47771877 -0.28576976
0001b0 01 c9 05 bf fb 47 68 bd ba 7d 75 3e 87 8e be 3d
       -0.5225983 -0.05670927 0.23973742 0.09304529
0001c0 90 00 b8 3d 38 5a f1 be 60 84 c5 3d 82 4c c5 3e
       0.08984482 -0.47139144 0.09644389 0.38534933
0001d0 22 4d da 3d 1b c2 c1 bc ac 78 21 be 20 b9 12 3d
       0.10659243 -0.023652127 -0.15768689 0.03582108
0001e0 c0 74 96 3e 8c 2c 99 3e b6 61 19 3d 18 f8 86 be
       0.29385948 0.299168 0.0374467 -0.26361156
0001f0 94 99 f5 bc 15 7e cd 3e 28 fb ab 3e 85 2e 7a 3e
       -0.029980458 0.40135255 0.33590055 0.24431808
000200 40 54 5e be 04 84 79 bc e8 14 29 3e a1 28 b3 3e
       -0.21711826 -0.015229229 0.16511881 0.34991935
000210 ec 70 c8 3c f7 ee 5f bb 11 26 88 be ca 51 07 be
       0.024467908 -0.0034169534 -0.26591542 -0.13214794
000220 81 a5 02 3f c5 69 07 be c9 bc a6 3d 60 b2 cc be
       0.5103379 -0.13223942 0.08141477 -0.3997984
000230 14 3a f2 3e 27 cf d5 bd a2 c3 b5 3d 6f 6f 4d bd
       0.47309935 -0.10439902 0.088752046 -0.0501551
000240 ee 69 ea bc 98 66 45 3e 8e b6 f2 bc a5 2a 17 3b
       -0.028614964 0.19277418 -0.029628064 0.002306619
000250 55 61 9c 3b ca 14 8d bd d0 db 39 be e6 20 80 3e
       0.004772345 -0.06888731 -0.18150258 0.250251
000260 70 67 13 bc 23 5a 83 3e 92 86 85 be ff 72 0e 3e
       -0.008996829 0.25654706 -0.26079232 0.13911055
000270 49 70 11 3e ce 37 6f 3e ac ea 03 be eb cd 48 be
       0.1420299 0.23361132 -0.12882489 -0.19609801
000280 09 b3 36 3e a2 f1 8b be 4f 70 75 3e a4 6f 06 be
       0.17841734 -0.2733279 0.23968624 -0.13128525
000290 f7 b8 ba 3d 1c 15 81 3e 47 90 c0 be b9 6b 01 bd
       0.091173105 0.25211418 -0.37610075 -0.031596873
0002a0 08 22 46 be 64 0d ad 3e 35 4f 1e 3e 33 4e b8 be
       -0.1934892 0.3379928 0.15459903 -0.3599716
0002b0 e6 6a 61 3b 95 8c 10 be fb 79 5c 3d a0 b5 d1 3d
       0.0034395992 -0.14116128 0.053827267 0.1023972
0002c0 2c 63 92 3e 46 cb 13 bf 65 59 50 bc cf 74 46 be
       0.28591287 -0.57732046 -0.012716626 -0.19380496
0002d0 37 29 15 3e a7 78 96 be 59 7f ce be 28 05 d7 bd
       0.14566503 -0.29388925 -0.40331534 -0.1049903
0002e0 d5 58 83 3e 31 b9 77 be d1 aa 81 3e e0 a6 02 bd
       0.2565371 -0.24191739 0.25325635 -0.031897426
0002f0 ab ea d3 3e 80 cc 3f 3e 30 88 71 3e 7a 85 3a 3e
       0.41389975 0.18730354 0.23587108 0.1821498
000300 50 60 a0 bd f4 e3 a8 3c 53 b6 d3 be 8c 24 64 be
       -0.0783087 0.020616509 -0.4135004 -0.22279567
000310 f6 ec 47 be a3 95 65 3e 90 07 70 be d1 fd af 3e
       -0.19523987 0.22420363 -0.23440385 0.34373334
000320 75 96 d2 be c8 c2 5a 3d 8d 83 c0 bc b6 85 be 3e
       -0.41130415 0.053408414 -0.023500228 0.37211388
000330 2f 71 91 be 3f e5 b6 be 2d 80 99 bd d4 8c d4 3e
       -0.28406665 -0.35721776 -0.07495151 0.41513693
000340 35 50 de 3e e0 55 12 3e a7 26 76 be 1a ff 1d 3e
       0.43420568 0.14290571 -0.24038182 0.15429345
000350 85 40 ee bd ad 73 eb 3e d2 f6 a7 bc 2b 57 bf 3d
       -0.116334 0.4598669 -0.020503435 0.09342798
000360 58 d7 a4 3d 0a cd f9 be 59 79 6c 3e 6c fd ca bd
       0.08048886 -0.48789245 0.23093165 -0.09911618
000370 70 1a 1c bf ec ea 91 bd 84 b6 25 bd 36 5d 2f bd
       -0.6097784 -0.07124886 -0.040457264 -0.042813502
000380 45 c7 48 be f5 8e 9a 3b c3 d5 45 3b e0 21 a3 3c
       -0.19607265 0.004716749 0.0030187226 0.019913614
000390 d8 fb 0f 3d a0 e1 9b 3c 38 d5 9c 3c 1b 6b 18 be
       0.035152286 0.019028485 0.01914464 -0.14884607
0003a0 b3 93 c4 3d da 6d dc bd b0 6a 93 be 59 2c 7b bd
       0.09598484 -0.1076314 -0.28792334 -0.06132159
0003b0 b5 7c 7b 3d 53 d6 a8 3e 68 52 30 3d c8 53 b3 3d
       0.061398227 0.32976016 0.04304734 0.087562144
0003c0 28 a3 67 be 01 a5 a8 3e f1 e4 6c 3e a1 41 26 be
       -0.22620833 0.32938388 0.23134209 -0.16235973
0003d0 6c f1 26 be 74 52 c6 3c ce 12 04 be d9 10 08 3d
       -0.16303033 0.024209239 -0.12897798 0.033219192
0003e0 65 3f f8 bd e1 b9 fb bd e9 9d bc be 96 c9 60 3e
       -0.121214665 -0.12291313 -0.36839226 0.21951899
0003f0 04 ce a9 be f9 7f 46 3e d5 b0 85 bd 26 7b 82 3e
       -0.3316499 0.19384755 -0.06527869 0.2548458

actor.2.bias f4 [64]
000000 e4 31 65 bc 7f 84 d2 3c ec 34 7e 3c 3f 35 2f bd
       -0.013988946 0.025697945 0.015515547 -0.04277539
000010 8d 07 f6 3c 08 cc 81 3c 57 32 57 bb 87 03 c6 bc
       0.030032897 0.01584436 -0.0032836401 -0.024171604
000020 32 68 13 bc 39 65 2a 3c 0e 9d 7b bc f7 05 27 3d
       -0.00899701 0.01040011 -0.015357269 0.040777173
000030 09 59 a5 bb 0b 41 24 3c b7 bd 92 3c d1 74 9b bc
       -0.005046014 0.010025273 0.017912729 -0.0189766
000040 89 2a f5 3c 37 85 35 3c 8d 59 3a 3d 96 c3 25 bc
       0.029927509 0.011079124 0.04549556 -0.010117432
000050 f3 af 84 3b 85 aa a9 bc ad fa 6a 3a da da f6 bb
       0.004049295 -0.020711193 0.0008963745 -0.0075334134
000060 bc b8 10 bd e3 1e b0 bb 3c f8 de bc 8e fe 53 bc
       -0.035332426 -0.0053747757 -0.027217977 -0.012939109
000070 c8 31 ac 3c 83 06 c8 3b b8 00 8c 3c 7f ee 8a bb
       0.021019831 0.006104292 0.017090186 -0.0042398567
000080 b4 69 33 3c dd 66 0f 3d 57 45 8c bc 9e bc f4 3c
       0.010950495 0.035010207 -0.017122908 0.029875096
000090 fd 9f 2e bc c9 59 c6 bc e9 52 dc bc c9 5f b6 bc
       -0.010658261 -0.024212735 -0.026895003 -0.02226247
0000a0 8c 83 7a bc 49 7c 01 3d ad 76 bb bb f9 0f b9 bb
       -0.015290152 0.03161267 -0.0057209344 -0.005647656
0000b0 87 2e 0d 3c 76 5e 84 3c 0f ca 33 3b 46 f6 60 bc
       0.00861705 0.016158324 0.0027433669 -0.013730591
0000c0 18 a0 6f bd e1 18 e6 bc 30 04 50 3d 7a 3d 43 bb
       -0.058502287 -0.028088035 0.050785244 -0.0029791282
0000d0 32 32 44 bc 05 73 a5 3c 4f 19 b4 3b 55 c0 02 bd
       -0.011974858 0.020196447 0.005496181 -0.031921703
0000e0 16 d4 e4 3c a5 87 a3 bc e3 bd 09 bd bc 22 1f bd
       0.027933162 -0.019962141 -0.033628356 -0.038851485
0000f0 d1 8c 19 bd bc c3 18 3c f1 ce 1b bd ae 81 77 bc
       -0.03748781 0.00932401 -0.03803915 -0.015106602

actor.4.weight f4 [4, 64]
000000 56 2e 03 be 24 6b 6f bc c0 0b c0 bd 47 67 f7 3d
       -0.12810645 -0.014612947 -0.09377241 0.120802455
000010 89 da 22 be 34 6d 76 bd 93 be e5 3d 89 e1 0a 3e
       -0.15903677 -0.060162738 0.1121799 0.13562597
000020 7c a3 f0 3d 6e 40 f0 bd 6b 41 cc 3c 7b 49 2e bd
       0.11749932 -0.11731039 0.024933537 -0.042550545
000030 c7 cd e7 3d 13 f4 02 be 7f 2b 09 be 7f b7 04 3e
       0.11318546 -0.1278842 -0.13395499 0.12960623
000040 d9 6d 44 bd d7 1b 0c be 2c ef dd 3b 26 a9 2b 3c
       -0.04795632 -0.13682495 0.0067728963 0.01047734
000050 9d 36 92 3d 17 f8 0d 3e aa 2e b1 bd ea 2e 19 3d
       0.07139323 0.1386417 -0.086514786 0.037398256
000060 b4 eb ed bb 84 3f ca 3d ea b9 29 3e 43 3d 0c 3e
       -0.007260764 0.09875396 0.16574827 0.13695244
000070 1b f8 f2 bd 66 03 0e be 4c d7 dc bd e6 81 9b bd
       -0.118637286 -0.13868484 -0.10783252 -0.075931355
000080 40 84 ea bd b1 90 fe bd a7 e8 93 bd 3c 37 1d be
       -0.11451006 -0.124299414 -0.07222109 -0.15353101
000090 92 08 27 3d 23 2e 04 3e f0 39 b9 3d f8 e3 cc 3b
       0.040779658 0.12908225 0.09044254 0.006252762
0000a0 96 49 e3 3c 9e f8 94 bd bb 50 c4 3d 64 59 02 be
       0.02774505 -0.072739825 0.095857106 -0.12729412
0000b0 3d 65 30 bd 7d f6 1c be d4 77 a4 3d cc e7 1a 3e
       -0.0430653 -0.15328403 0.08030668 0.15127486
0000c0 11 88 30 3e d9 03 ab 3d 9a 8f 0e be a2 9d 21 3e
       0.17239405 0.08350343 -0.13921967 0.15782788
0000d0 73 2a 79 bd af b8 70 3c b3 70 f6 bd 7c cf 07 3e
       -0.0608315 0.0146924695 -0.120332144 0.13262743
0000e0 d6 55 e5 3d 96 58 fd bd 87 33 24 3e 6d 17 e8 3d
       0.111980125 -0.12370412 0.16035281 0.11332593
0000f0 b0 2b 3b 3e f1 60 66 bd 0b 88 3c 3d 63 a7 5f 3d
       0.18278384 -0.056244794 0.04602818 0.05460299
000100 d5 8f 56 3e 3a fb ae be 0d f9 73 be 6c 9c 86 3e
       0.20953305 -0.34176046 -0.23825474 0.26291215
000110 b0 44 46 be 48 61 a9 bd 5e 68 1f be 5b d5 31 bb
       -0.1936214 -0.08270508 -0.15567157 -0.0027135226
000120 e5 00 2f be 73 4e 7b bb de b5 89 be ea 87 92 be
       -0.17090185 -0.003834632 -0.26896566 -0.2861932
000130 f6 9b a1 3e e0 6c b1 be d6 29 67 be 38 5e 7d 3e
       0.315643 -0.34653378 -0.22574553 0.24742973
000140 0c a9 5c 3e 60 35 1d be 76 a4 95 3e 03 e4 97 be
       0.21548861 -0.15352392 0.29227036 -0.29666147
000150 4a 79 99 be 0e 12 c4 bd db a6 a7 bd 37 94 95 be
       -0.2997535 -0.09573756 -0.08186122 -0.2921464
000160 10 47 19 be db 53 b2 3e 21 c5 e6 bd d5 6a 9b 3e
       -0.14968514 0.34829602 -0.11268068 0.30354944
000170 8b 81 82 3d f7 90 34 3d 5e 0b b0 3d f0 d3 5f 3e
       0.063723646 0.04408356 0.08595918 0.21858191
000180 29 51 20 be 91 df 9b be 9d 57 12 3e 02 40 0d 3e
       -0.1565596 -0.30444005 0.14291234 0.13793948
000190 05 10 0b be d8 24 87 3e 60 38 9f 3e 43 1c 74 be
       -0.1358033 0.26395297 0.31097698 -0.23838906
0001a0 c8 a0 80 3e e1 dd 57 3e 68 f8 3a 3e 69 ac b6 be
       0.25122666 0.21080734 0.18258822 -0.35678414
0001b0 60 3e 9c be 1c d5 8a be 10 c6 91 3e f7 9b 9e 3e
       -0.30516338 -0.27115715 0.28471422 0.30978367
0001c0 f0 e0 03 3c e9 0f 9f 3e bf cc 80 bd 8b 98 47 be
       0.008049235 0.31066826 -0.06289052 -0.19491784
0001d0 89 81 16 be fe fd 96 3e 67 ba 2b 3e 4e b4 52 3e
       -0.14697851 0.29490656 0.16770326 0.20576593
0001e0 b3 fc 9b bd 53 f3 6d 3d 85 f8 a3 3e 1b e6 90 3d
       -0.07616558 0.05809338 0.32025543 0.07075139
0001f0 8e ba 96 3d 6c d4 80 be d2 4f 96 be 2a ad 9e 3d
       0.07359801 -0.25162065 -0.29357773 0.07747872
000200 9d 84 5b 3e 68 01 88 3d 24 15 60 3e d0 e1 88 be
       0.21437307 0.06640893 0.21883065 -0.2673478
000210 e2 6a 8c 3e e7 2b 1b 3e b1 e3 6e be de b8 8c be
       0.27425295 0.15153466 -0.23329045 -0.27484792
000220 41 1b 77 be dc 01 62 3e 97 76 08 bd a1 f6 00 3e
       -0.2413149 0.22071022 -0.03331622 0.12594081
000230 10 1b 66 be 6a 7b 88 3e ab 46 7b 3e 5e 8c 88 be
       -0.22471261 0.26656657 0.24538676 -0.26669592
000240 19 0a 1f 3e 5c c1 77 3e 22 26 03 bd e7 63 f1 bc
       0.15531196 0.24194854 -0.03201879 -0.029466582
000250 1c 00 f4 bd b8 53 87 be 24 63 2c 3e 1a 2e 53 bd
       -0.11914083 -0.2643106 0.16834694 -0.051557638
000260 d7 51 b5 3c b4 68 5f be 26 e0 9a be df 2a 93 be
       0.02213375 -0.21817285 -0.30249137 -0.28743646
000270 a2 cf 7f 3e 5c 6d 70 3e e0 e3 73 3e 4b ee 35 3e
       0.2498155 0.23479217 0.23817396 0.17766683
000280 17 c6 61 3e b8 4e 8d 3e 9e f8 18 3e 30 98 8e 3e
       0.22048222 0.2759912 0.1493859 0.27850485
000290 ea 80 06 be 10 ee 86 be 8e 44 74 be e2 b6 15 3c
       -0.13135114 -0.26353502 -0.23854277 0.009137841
0002a0 7c 9f a2 bd 42 19 37 3e 05 b8 37 be 31 be 82 3e
       -0.079405755 0.17880729 -0.17941292 0.2553573
0002b0 83 22 f9 3d 9f f9 88 3e a6 7e 4b be 5d 98 8d be
       0.12164786 0.26752946 -0.19872531 -0.27655306
0002c0 44 67 9e be 88 ce 5e be f1 89 99 3e 7a ca 76 be
       -0.3093816 -0.21758473 0.29988053 -0.24100676
0002d0 af 58 0a 3e c5 23 1d bd ae 1c 6c 3e 14 74 8a be
       0.13510393 -0.03836419 0.23057815 -0.27041686
0002e0 72 d8 48 be 1c f7 5e 3e 35 11 a0 be 77 16 77 be
       -0.19613817 0.21773952 -0.31263128 -0.24129663
0002f0 59 33 91 be 69 4e ef 3d 08 59 de bd 7a a2 fe bd
       -0.28359488 0.116848774 -0.10856825 -0.12433334
000300 df d2 8f be 17 8e a4 3e 6e 4e f8 3d b2 a0 04 be
       -0.2809057 0.32139656 0.12124334 -0.12951925
000310 9d 39 29 be 85 7f cf bd f3 7b 90 3e a2 83 94 3e
       -0.16525884 -0.10131744 0.28219566 0.29006678
000320 ab 73 9b 3e a6 11 6a be 95 6f 8b 3e 19 e2 7f 3e
       0.30361685 -0.22858295 0.27233568 0.24988593
000330 74 84 67 be a6 b3 65 3e 9f f0 d4 3c ab 4a b8 bd
       -0.2260912 0.22431812 0.025993643 -0.08998617
000340 3a e6 8c be b6 cf 14 be 41 95 90 be f7 26 9a 3e
       -0.275194 -0.1453236 -0.28238872 0.30107853
000350 17 ef 9f 3e 51 e0 92 3e d6 7b 00 be 52 df 96 3e
       0.312371 0.28686765 -0.1254724 0.29467255
000360 ba 01 0a 3e 6a 9d 8b be 31 c6 97 3e d0 d8 42 be
       0.13477221 -0.27268535 0.29643396 -0.1902802
000370 f2 ee 93 be 18 c3 8e be 2b fc 5b be 38 76 8e be
       -0.28893238 -0.2788322 -0.21482913 -0.2782457
000380 73 26 ee bd 65 90 53 3e c4 8a 74 be 54 6a 9a be
       -0.11628427 0.20660551 -0.2388106 -0.30159247
000390 97 32 78 3e 6f 42 9b bd 85 97 55 be 14 4f 6f 3e
       0.24238048 -0.075810306 -0.20858581 0.2337001
0003a0 a8 d9 6d be e4 7f 86 be 36 ea eb 3b f8 4b 65 3e
       -0.2322756 -0.26269448 0.007199551 0.22392261
0003b0 3a 56 8b 3e 3e 87 a1 3c b5 72 6b be e2 4b 27 be
       0.27214223 0.019717809 -0.22992976 -0.16337541
0003c0 57 58 91 3e f1 35 69 be 0b 3a 84 be aa 38 90 3e
       0.2838771 -0.22774483 -0.25825533 0.2816823
0003d0 a5 79 44 3d a6 c3 92 be 3c 09 8d be 4e fa 8a bc
       0.04796757 -0.28664893 -0.27546108 -0.016965058
0003e0 d4 23 7e 3e 68 00 80 be 8c 4c 23 be 21 f6 29 3e
       0.24818355 -0.2500031 -0.15947169 0.16597797
0003f0 5a 74 8b 3e 39 9a 6c 3e 70 63 a1 3e fd bf 67 3d
       0.27237207 0.23105706 0.31521177 0.05657958

actor.4.bias f4 [4]
000000 1f af 6e 3c 39 06 51 bd d9 db 6b 3d 5e 6e 4e bd
       0.014568119 -0.051031325 0.05758271 -0.050398223
