HFDRL_UNIT8/models/Archived/LunarLander-v3__ppo__1__1768735599__u380.pt (torch, 44753 bytes, 11 tensors)

critic.0.weight f4 [64, 8]
-0.12319134 0.15285304 0.05984069 -0.14446485 -0.07446043 0.15299833 -0.29999757 0.121859945
-0.20412846 0.27678615 0.19402179 -0.29411563 -0.22258234 -0.21984877 0.16670224 -0.054383833
-0.032785293 -0.3038136 0.08692745 0.371273 0.022825658 0.08916764 0.1319638 0.43815958
-0.18534495 0.20999995 0.003738927 -0.6507361 0.25245187 0.014861839 -0.21461532 -0.12132706
-0.007975903 -0.1919405 0.1698425 0.29332197 0.028798101 -0.14178416 0.28664374 -0.08333874
-0.0035466629 -0.32710087 0.038194917 0.12863699 0.022873603 0.2320826 -0.18541871 -0.19108269
-0.2918539 -0.2566676 0.019447435 0.14251746 0.011101383 -0.25814736 0.44996178 0.19977266
-0.02730334 0.57526237 0.18761976 0.23466006 -0.012901752 0.15203689 0.2829575 0.39037147
0.14929317 -0.00623609 0.39224005 -0.35062873 0.43296182 -0.094177 -0.061167363 -0.063389145
-0.044904064 0.20330833 0.24852559 -0.28605276 0.16952386 0.08826735 0.24848379 0.52707964
-0.082406096 -0.4060307 0.12585104 0.50656474 0.019628687 0.26553538 -0.10047626 -0.27728906
-0.052459016 0.41733646 -0.020091593 -0.13322677 -0.07172699 0.2164666 -0.2614073 -0.00028628943
0.014849041 0.2757482 0.041374084 -0.08792096 -0.10053985 0.022395277 -0.10865681 0.12635386
-0.041712973 -0.25808278 0.17197771 0.51353085 -0.014641017 0.018941438 -0.23990253 0.14939485
-0.062454578 -0.09458547 0.16521376 0.23884237 0.11630339 0.019329283 -0.08477628 -0.060664266
-0.049557224 0.23471522 -0.22774921 -0.3847655 -0.06736565 0.1787749 0.061401866 -0.08214096
0.12640016 0.15932897 -0.013096215 -0.53505296 -0.16684318 -0.056407034 -0.122174755 0.20635788
-0.066700324 0.086018756 0.42511687 0.2649015 0.39047492 -0.24667135 0.08654017 0.27246007
-0.23582675 -0.13261454 0.32774946 0.09412895 -0.16716523 0.10321338 -0.016656633 -0.08373615
-0.04879367 0.34243384 -0.022956442 -0.2981491 0.030361366 0.19914472 -0.32391873 -0.19650823
0.19528356 0.06430613 0.25966805 -0.13004227 0.10858512 -0.09706307 -0.024524484 -0.0016460662
0.11902659 0.14205009 -0.16670048 -0.41432828 -0.09609284 0.09314826 -0.20077516 -0.091404095
0.11623442 0.0075902753 0.07940212 0.1728459 -0.20682502 -0.16143565 -0.12711528 -0.21964121
0.19719656 0.17067331 -0.07971434 -0.08235233 0.14961696 -0.111955896 -0.002487438 -0.29852772
-0.053371575 0.17691216 0.113004506 -0.26452088 0.0383171 -0.16140673 -0.60966563 -0.18524309
-0.09131167 0.36410603 0.035290454 -0.13218959 0.023909876 -0.17643613 0.05580754 -0.08849237
-0.07155879 -0.054075155 0.10043657 0.13322976 0.28405967 -0.14852862 0.12246165 0.1741518
-0.049493838 -0.19770373 -0.040492002 0.18887633 -0.24003883 0.18903857 0.14251107 0.33066732
0.22626685 0.11071473 -0.28179824 -0.17831191 -0.16472107 0.0012206685 -0.39927518 -0.13384652
0.15295051 0.4379238 -0.14701566 0.17438206 -0.20899491 0.06535271 -0.004232309 -0.43475562
-0.21489327 -0.18173037 -0.17793442 0.14102152 0.23413166 -0.12480077 0.13699493 0.37006477
-0.16826679 0.46290132 0.11289584 -0.22728762 0.14062494 0.1843056 -0.13115089 -0.23283024
00000000: be4b fcbd 8285 1c3e 831b 753d 98ee 13be
00000010: b67e 98bd 98ab 1c3e 4899 99be b591 f93d
00000020: 0d07 51be eab6 8d3e a6ad 463e 5396 96be
00000030: a0ec 63be 0920 61be feb3 2a3e 95c1 5ebd
00000040: df49 06bd 758d 9bbe 0507 b23d 7f17 be3e
00000050: e0fc ba3c 869d b63d 8521 073e 7456 e03e
00000060: 11cb 3dbe 3a0a 573e c908 753b a496 26bf
00000070: 5f41 813e 127f 733c 1ec4 5bbe 527a f8bd
00000080: 5dad 02bc 0d8c 44be 31eb 2d3e 4c2e 963e
00000090: ffe9 eb3c de2f 11be f8c2 923e 80ad aabd
000000a0: 216f 68bb c479 a7be 4672 1c3d 6ab9 033e
000000b0: 6c61 bb3c 10a7 6d3e 67de 3dbe 2eab 43be
000000c0: e06d 95be f069 83be 3a50 9f3c 19f0 113e
000000d0: 93e2 353c e42b 84be 6461 e63e 3491 4c3e
000000e0: 41ab dfbc 6544 133f 651f 403e ba4a 703e
000000f0: df61 53bc 8faf 1b3e cedf 903e c5de c73e
00000100: 4fe0 183e 1d58 ccbb b0d3 c83e 9c85 b3be
00000110: 2cad dd3e dfdf c0bd a18a 7abd 2bd2 81bd
00000120: 53ed 37bd 0f30 503e 7e7d 7e3e 8275 92be
00000130: aa97 2d3e 83c5 b43d 8972 7e3e b1ee 063f
00000140: 87c4 a8bd 42e3 cfbe 18df 003e 3aae 013f
00000150: 57cc a03c 41f4 873e 7fc6 cdbd d5f8 8dbe
00000160: 44df 56bd 20ad d53e 2097 a4bc 996c 08be
00000170: 9ae5 92bd 6ca9 5d3e 2dd7 85be 1e19 96b9
00000180: 6449 733c de2e 8d3e df77 293d e70f b4bd
00000190: d6e7 cdbd 4d76 b73c 7687 debd e862 013e
000001a0: 39db 2abd 6d23 84be ed1a 303e c276 033f
000001b0: e0e0 6fbc 132b 9b3c 02a9 75be f7fa 183e
000001c0: 5fd0 7fbd 07b6 c1bd cc2d 293e 1893 743e
000001d0: 7930 ee3d 7258 9e3c 309f adbd 187b 78bd
000001e0: 84fc 4abd 3059 703e 1737 69be fcff c4be
000001f0: 00f7 89bd c410 373e 8680 7b3d 8539 a8bd
00000200: 0b6f 013e 2227 233e 8291 56bc 3bf9 08bf
00000210: f0d8 2abe 100b 67bd c236 fabd 7b4f 533e
00000220: 2e9a 88bd 9a2a b03d eba8 d93e 2ba1 873e
00000230: 54ec c73e 6a97 7cbe f93b b13d e37f 8b3e
00000240: 917c 71be 1bcc 07be c7ce a73e aec6 c03d
00000250: 5d2d 2bbe 8961 d33d 7e73 88bc dc7d abbd
00000260: dfdb 47bd 7d53 af3e 260f bcbc 00a7 98be
00000270: 66b8 f83c 98ec 4b3e add8 a5be 7439 49be
00000280: 6af8 473e efb2 833d 36f3 843e cd29 05be
00000290: e061 de3d 01c9 c6bd 92e7 c8bc d1c0 d7ba
000002a0: 36c4 f33d 9475 113e 88b3 2abe d622 d4be
000002b0: 53cc c4bd 84c4 be3d 0198 4dbe 1232 bbbd
000002c0: 500c ee3d d8b7 f83b 949d a23d 84fe 303e
000002d0: f0c9 53be 634f 25be 822a 02be a0e9 60be
000002e0: e5ed 493e fcc4 2e3e 4641 a3bd 57a8 a8bd
000002f0: 3035 193e 2249 e5bd 4904 23bb a0d8 98be
00000300: 279c 5abd 7628 353e e86e e73d 486f 87be
00000310: 64f2 1c3d ce47 25be 0c13 1cbf 5db0 3dbe
00000320: 9d01 bbbd 1b6c ba3e b98c 103d b55c 07be
00000330: a5de c33c acab 34be 7296 643d 7d3b b5bd
00000340: 6a8d 92bd e97d 5dbd b0b1 cd3d 626d 083e
00000350: 4570 913e e317 18be 2ccd fa3d d954 323e
00000360: 0dba 4abd d972 4abe f1da 25bd cc68 413e
00000370: bdcc 75be 5493 413e 6cee 113e 3a4d a93e
00000380: 7fb2 673e 68be e23d dc47 90be 6697 36be
00000390: a4ac 28be d7fe 9f3a cc6d ccbe 100f 09be
000003a0: 0f9f 1c3e 8c37 e03e 468b 16be 3691 323e
000003b0: c302 56be a4d7 853d 2eaf 8abb 4a98 debe
000003c0: fb0c 5cbe 8717 3abe 7134 36be f267 103e
000003d0: 36c0 6f3e 8c97 ffbd 6648 0c3e 2179 bd3e
000003e0: 214e 2cbe 6701 ed3e ef35 e73d 16be 68be
000003f0: fcff 0f3e 9bba 3c3e 6b4c 06be 0d6b 6ebe

critic.0.bias f4 [64]
-0.22224009 0.0047445847 0.14217219 -0.19513315 0.20645851 0.1533476 0.11542544 0.2266158
-0.25094545 0.0937177 0.13830571 -0.22665901 0.09538092 0.23512055 0.0833691 -0.25557917
0.07192133 0.15130809 -0.10515847 -0.21295443 -0.23875362 -0.06898179 -0.1064033 -0.22313458
-0.1465909 -0.20201096 0.19872496 0.22410446 -0.18951419 -0.23555423 0.23498984 -0.20419818
-0.20884533 -0.20979096 0.22451484 0.19664177 -0.09359082 -0.15911888 -0.14399512 0.20854294
0.030600883 0.1597664 -0.088246115 0.109641485 -0.065182395 -0.16869314 -0.15599696 -0.20048189
-0.22398713 -0.20605682 -0.13797013 0.18802282 -0.19507167 0.054075636 -0.06652544 -0.06253968
-0.2106662 -0.15533338 -0.09408897 -0.15761976 -0.093203664 0.08589805 -0.15391266 -0.18232588
00000000: e892 63be 7678 9b3b 9695 113e fcd0 47be
00000010: dc69 533e 2707 1d3e 2c64 ec3d f90d 683e
00000020: ec7b 80be 11ef bf3d 03a0 0d3e 4d19 68be
00000030: 1257 c33d 71c3 703e 6bbd aa3d 46db 82be
00000040: 7e4b 933d 82f0 1a3e 535d d7bd ba10 5abe
00000050: d47b 74be 5346 8dbd f9e9 d9bd 647d 64be
00000060: ed1b 16be f6db 4ebe 8e7e 4b3e a47b 653e
00000070: 0210 42be 2135 71be 2da1 703e 5419 51be
00000080: 8ddb 55be 71d3 56be 38e7 653e 765c 493e
00000090: 8bac bfbd 0ff0 22be 7573 13be 488c 553e
000000a0: b4ae fa3c ce99 233e 61ba b4bd b78b e03d
000000b0: 597e 85bd e5bd 2cbe abbd 1fbe 204b 4dbe
000000c0: e25c 65be 8f00 53be 0b48 0dbe 0e89 403e
000000d0: dec0 47be 6a7e 5d3d 7d3e 88bd ce14 80bd
000000e0: e1b8 57be b70f 1fbe b8b1 c0bd 1367 21be
000000f0: 90e1 bebd 51eb af3d 489b 1dbe a3b3 3abe

critic.2.weight f4 [64, 64]
0.3573973 -0.47642475 -0.2824805 0.35577294 -0.2833917 -0.22779278 0.014697611 -0.3924122
0.10721693 0.34059832 -0.26024723 0.054665197 -0.06753101 -0.33098787 -0.3106888 0.34051123
0.11783256 -0.24954562 0.015962355 0.2827578 0.041322168 0.22897752 0.14251034 0.26234356
0.46012577 0.26500037 0.079129964 -0.1572389 0.15292747 0.25124422 -0.14637245 0.19822754
0.094385915 0.27415892 0.14918007 -0.10706267 -0.33598015 -0.24719462 -0.105286285 -0.61833274
0.24103431 -0.21303368 -0.02104279 -0.15625098 -0.2700177 0.26291293 0.21870029 0.3751943
0.15727039 0.37116307 -0.10234354 -0.12926443 0.22130023 -0.17608872 -0.09634814 0.06520252
0.21301842 0.047535017 0.030525992 0.17122844 0.20312382 0.1541834 -0.23539549 0.11516518
0.35460836 0.14836068 -0.076723784 0.16310248 -0.2772246 -0.22629324 0.016244145 -0.24611333
-0.020113444 -0.27711016 -0.035354618 -0.0008221674 0.4101729 0.15538464 -0.17131855 0.36493647
-0.016331876 -0.31562725 0.3853022 -0.015388419 0.08969182 0.13785304 -0.041941952 0.18690342
0.08766481 0.18921812 -0.15184619 -0.18494461 0.34886357 0.38044026 -0.19067737 0.23549928
0.19144438 0.09944142 -0.09171 -0.16765478 0.010524496 -0.1028951 -0.13608505 0.22972865
0.08074202 -0.06555563 0.18321149 -0.09867346 0.12683195 0.21671262 0.37615788 0.0031330085
0.39196128 -0.024547514 0.013978439 -0.11027506 0.11333211 -0.13511665 -0.10210614 -0.12528226
0.35651675 -0.15121762 0.17802216 0.31360742 0.120768934 -0.046122633 -0.274378 -0.013741984
-0.32185844 0.055730697 0.33573577 -0.09833888 0.55979866 0.082198836 0.17475158 0.2499528
-0.38071242 0.30949163 -0.08525449 -0.37827155 -0.0943069 0.43021387 0.21485366 -0.43482122
-0.43849573 0.07152497 0.07398397 -0.25806388 -0.23254903 -0.2097595 -0.066404894 -0.14706528
-0.3127066 -0.10212857 0.5462174 0.37135983 -0.07195939 -0.5459079 -0.07134977 -0.45729184
0.13455793 -0.018489264 -0.025756659 0.13222614 -0.06335714 -0.10686931 0.024002165 0.24028394
0.062002957 -0.3265666 0.31415468 0.13623393 0.049946748 -0.32149816 0.26129135 -0.00454019
-0.04595699 -0.20060162 0.086677134 0.063111104 -0.29718453 0.22899175 0.15019646 0.002242655
-0.33081895 -0.101062514 0.114041336 -0.36117995 0.059638955 0.1369013 -0.050696135 -0.051458012
0.45125523 0.24421893 -0.3038762 0.37505636 -0.29973394 -0.28054172 -0.733035 -0.17021917
0.22530754 0.07260898 0.01410566 0.17089485 -0.05895124 0.043773375 -0.12682357 0.39430064
-0.0078011486 -0.042237397 -0.10437758 0.29894552 -0.018601226 0.23222007 0.37537953 0.37000218
-0.014313138 0.13329737 -0.40338507 -0.3604476 0.066955455 -0.27217814 0.04216589 0.27870825
0.18861096 0.2630538 -0.09526193 -0.19293448 -0.12464599 -0.26769626 0.13692169 -0.19626479
0.14293225 -0.050656296 0.08881554 0.030804368 -0.15122348 0.51181704 0.04119272 0.1545519
0.3589668 0.23409766 -0.2397492 -0.15704438 0.29021809 -0.18240443 -0.12905508 -0.3578865
0.20544355 -0.049139712 0.11885059 0.31943095 -0.20979398 -0.36360693 -0.16369924 0.034602936
00000000: c7fc b63e f2ed f3be 49a1 90be df27 b63e
00000010: b818 91be 8342 69be 40ce 703c 40ea c8be
00000020: 8d94 db3d e762 ae3e 203f 85be 9de8 5f3d
00000030: b34d 8abd 3e77 a9be 9a12 9fbe 7d57 ae3e
00000040: 3252 f13d e388 7fbe 7cc3 823c a1c5 903e
00000050: 6f41 293d 1579 6a3e 3bee 113e e551 863e
00000060: 9b95 eb3e 21ae 873e e40e a23d 3c03 21be
00000070: 0599 1c3e 15a3 803e a9e2 15be 29fc 4a3e
00000080: 674d c13d 8f5e 8c3e a9c2 183e ac43 dbbd
00000090: 9705 acbe 9620 7dbe 56a0 d7bd 0e4b 1ebf
000000a0: b3d1 763e 8025 5abe ee61 acbc 4200 20be
000000b0: c33f 8abe 869c 863e f8f2 5f3e 7819 c03e
000000c0: 7d0b 213e 1609 be3e 7d99 d1bd e55d 04be
000000d0: 879c 623e 9a50 34be 2c52 c5bd e688 853d
000000e0: 8021 5a3e 14b4 423d a511 fa3c 8256 2f3e
000000f0: b1ff 4f3e 41e2 1d3e 840b 71be b9db eb3d
00000100: 3a8f b53e ddeb 173e 5c21 9dbd 5604 273e
00000110: 62f0 8dbe 6ab9 67be 7112 853c 2205 7cbe
00000120: f3c4 a4bc 62e1 8dbe 01d0 10bd b886 57ba
00000130: 2f02 d23e 271d 1f3e 216e 2fbe f4d8 ba3e
00000140: 6dca 85bc e599 a1be 5446 c53e b51f 7cbc
00000150: 58b0 b73d 5929 0d3e 53cb 2bbd 9c63 3f3e
00000160: 9c89 b33d 65c2 413e 917d 1bbe 1f62 3dbe
00000170: 3f9e b23e 11c9 c23e ee40 43be b926 713e
00000180: ff09 443e f1a7 cb3d 74d2 bbbd b2ad 2bbe
00000190: f06e 2c3c abba d2bd e159 0bbe fd3d 6b3e
000001a0: 125c a53d 0842 86bd cb9b 3b3e 5015 cabd
000001b0: 3ce0 013e eae9 5d3e c497 c03e 2953 4d3b
000001c0: 26af c83e de17 c9bc d305 653c e4d7 e1bd
000001d0: aa1a e83d 055c 0abe 061d d1bd fe49 00be
000001e0: 5d89 b63e cbd8 1abe 714b 363e 2791 a03e
000001f0: b455 f73d 16eb 3cbd 467b 8cbe 0f26 61bc
00000200: a1ca a4be df45 643d 8fe5 ab3e e565 c9bd
00000210: f74e 0f3f dd57 a83d 14f2 323e a0f3 7f3e
00000220: bdec c2be b075 9e3e e899 aebd cfac c1be
00000230: fa23 c1bd fe44 dc3e 9902 5c3e e3a0 debe
00000240: 8382 e0be af7b 923d e884 973d f320 84be
00000250: 5521 6ebe 32cb 56be 4aff 87bd 4898 16be
00000260: 141b a0be c928 d1bd e7d4 0b3f e022 be3e
00000270: 725f 93bd 9fc0 0bbf d41f 92bd 2822 eabe
00000280: 8ec9 093e cc76 97bc a1ff d2bc 4a66 073e
00000290: 63c1 81bd 4cde dabd 30a0 c43c fe0c 763e
000002a0: d0f6 7d3d bd33 a7be e2d8 a03e e880 0b3e
000002b0: f694 4c3d 689b a4be fbc7 853e e0c5 94bb
000002c0: 663d 3cbd 836a 4dbe c883 b13d 6540 813d
000002d0: 9228 98be d07c 6a3e 1acd 193e 82f9 123b
000002e0: 1a61 a9be ddf9 cebd 818e e93d 94ec b8be
000002f0: fa47 743d db2f 0c3e c0a6 4fbd a3c5 52bd
00000300: ed0a e73e 8714 7a3e a995 9bbe 6307 c03e
00000310: ba76 99be 2aa3 8fbe 2fa8 3bbf ef4d 2ebe
00000320: 05b7 663e 04b4 943d 6d1b 673c 0fff 2e3e
00000330: db76 71bd b64b 333d 0ade 01be c6e1 c93e
00000340: c7a0 ffbb 1f01 2dbd eac3 d5bd 630f 993e
00000350: 9961 98bc 19cb 6d3e bf31 c03e ed70 bd3e
00000360: a781 6abc 1b7f 083e 7d88 cebe 968c b8be
00000370: f11f 893d ef5a 8bbe 24b6 2c3d d9b2 8e3e
00000380: 3b23 413e fdae 863e b018 c3bd 9e90 45be
00000390: 6646 ffbd 7c0f 89be 3335 0c3e a3f9 48be
000003a0: d55c 123e fa7c 4fbd ece4 b53d 7159 fc3c
000003b0: 54da 1abe 7106 033f b3b9 283d da42 1e3e
000003c0: 7fca b73e 4cb7 6f3e d080 75be 3ed0 20be
000003d0: 7797 943e 3ac8 3abe 0427 04be e63c b7be
000003e0: cb5f 523e b946 49bd f067 f33d 748c a33e
000003f0: 3cd4 56be b02a babe c6a0 27be cfbb 0d3d

critic.2.bias f4 [64]
-0.18682 -0.06690035 0.18171541 -0.22309503 -0.12921484 -0.17312713 0.19526047 -0.114664964
-0.12420575 -0.14036754 -0.07123381 -0.18165514 -0.2214576 -0.14399138 -0.1073701 0.19787148
-0.17595346 -0.1660375 -0.12204076 0.092413016 -0.08232387 0.2162813 -0.18122035 0.1280224
-0.20885982 0.1257528 0.18318158 0.17455254 0.10077266 -0.10987774 0.17953376 -0.09140705
-0.16883455 0.2126258 0.11366847 -0.13247906 0.09147616 0.18392657 -0.18701334 -0.09164227
-0.14261404 -0.1031528 0.16286762 -0.17789881 0.11521395 0.15079612 0.17511535 -0.1859425
0.10849226 -0.06448517 0.19379033 0.07004146 0.18624143 0.10010307 -0.17766245 0.17444722
0.095740944 -0.18234307 0.1413846 0.16024162 -0.0889465 -0.101126194 0.17268729 0.06837831
00000000: be4d 3fbe 0d03 89bd 9b13 3a3e 0673 64be
00000010: e550 04be 3d48 31be 5cf2 473e 77d5 eabd
00000020: 965f febd 82bc 0fbe 08e3 91bd ce03 3abe
00000030: c8c5 62be 7a72 13be dbe4 dbbd d29e 4a3e
00000040: 252d 34be bc05 2abe 82f0 f9bd 0943 bd3d
00000050: 6b99 a8bd d878 5d3e d491 39be 4e18 033e
00000060: 59df 55be 58c5 003e f493 3b3e e7bd 323e
00000070: e561 ce3d 9507 e1bd b3d7 373e 9f33 bbbd
00000080: f7e2 2cbe 94ba 593e 04cb e83d 97a8 07be
00000090: da57 bb3d 3f57 3c3e 6d80 3fbe f1ae bbbd
000000a0: 6a09 12be c641 d3bd c5c6 263e 1b2b 36be
000000b0: 4bf5 eb3d 4c6a 1a3e 7051 333e b667 3ebe
000000c0: 3131 de3d cd10 84bd f970 463e e671 8f3d
000000d0: 13b6 3e3e d702 cd3d 25ed 35be 4ba2 323e
000000e0: d413 c43d 24b8 3abe 20c7 103e 6116 243e
000000f0: 9529 b6bd 401b cfbd f0d4 303e ed09 8c3d

critic.4.weight f4 [1, 64]
0.32227466 0.15652971 -0.29207012 0.2519915 0.076409064 0.49310443 -0.27564642 0.07482855
0.07818732 0.05709105 0.23973307 0.25506938 0.27461833 0.10250962 0.19468364 -0.29880726
0.29651305 0.36188284 0.26371005 -0.17147079 0.21499649 -0.2715945 0.23809241 -0.19899563
0.26287195 -0.42752716 -0.4074377 -0.5558125 -0.13693888 0.18629932 -0.42424121 0.14053448
0.48081 -0.2974463 -0.09737801 0.34786597 -0.20305403 -0.5215491 0.38523763 0.20682609
0.06601825 0.2500342 -0.2918573 0.37995505 -0.07396897 -0.052070968 -0.46877804 0.29964548
-0.0776362 -0.0026454364 -0.35255522 -0.28867885 -0.3071308 -0.06481222 0.35661498 -0.5223021
-0.15885025 0.36162278 -0.21293259 -0.38503945 0.17679851 0.2645073 -0.5170053 -0.44789073
00000000: 2f01 a53e 5349 203e 378a 95be 0805 813e
00000010: 5b7c 9c3d 2f78 fc3e 8721 8dbe b63f 993d
00000020: ac20 a03d 4ed8 693d 967c 753e 7498 823e
00000030: c69a 8c3e 90f0 d13d 265b 473e 44fd 98be
00000040: 8fd0 973e b548 b93e 0105 873e 0a96 2fbe
00000050: 0a28 5c3e 6f0e 8bbe 7fce 733e 83c5 4bbe
00000060: 2797 863e d7e4 dabe ad9b d0be ba49 0ebf
00000070: b539 0cbe 40c5 3e3e 2536 d9be 45e8 0f3e
00000080: ba2c f63e e24a 98be 1f6e c7bd 7d1b b23e
00000090: 65ed 4fbe 3e84 05bf de3d c53e 38ca 533e
000000a0: 9434 873d 7c04 803e 526e 95be 7889 c23e
000000b0: 0b7d 97bd 5e48 55bd ad03 f0be 226b 993e
000000c0: baff 9ebd 0f5f 2dbb 1e82 b4be b7cd 93be
000000d0: 4040 9dbe 45bc 84bd 3d96 b63e 97b5 05bf
000000e0: a4a9 22be 9f26 b93e 000b 5abe e423 c5be
000000f0: ab0a 353e 806d 873e 765a 04bf ef51 e5be

actor.0.weight f4 [64, 8]
-0.05930829 0.021832787 0.20713846 -0.10348227 -0.66627675 -0.21819125 0.059476946 0.213639
-0.23370641 0.098102905 -0.0730962 0.6396939 0.18663475 -0.07967254 -0.08032727 0.16723062
0.0026382406 -0.28713185 -0.04938647 -0.60567623 0.28999153 -0.03287089 -0.36115956 -0.29943228
-0.07555851 -0.02774932 -0.19505121 -0.16531345 0.45350212 -0.04540934 -0.1958622 -0.26395878
0.12626924 -0.054996483 -0.103252985 -0.21827438 0.2824364 0.19408879 0.18777098 -0.31970647
-0.10292455 -0.24929838 0.051313903 0.41531768 -0.33734256 0.021449605 0.06305685 0.10981684
-0.32718006 -0.005610935 -0.08608373 -0.07846787 -0.30179515 -0.070929244 0.14945991 -0.34277686
-0.11511826 -0.20448183 0.23848401 0.4721142 -0.68897545 -0.53254527 0.1064538 0.17782171
-0.20662749 0.14438795 -0.4743092 -0.43820107 0.42406774 0.37246773 -0.5505558 0.06921056
-0.11733802 0.030877357 -0.016658759 0.2140905 -0.34010556 -0.38112926 -0.11605635 0.14739949
-0.06294034 0.07800408 -0.015557571 0.027727263 -0.44208473 -0.016902247 0.27302492 0.18323033
0.022459706 -0.088100515 0.015029555 -0.0058207596 -0.5310257 -0.3255947 0.11697821 -0.17144547
-0.1977805 -0.109952144 -0.23166989 -0.2996989 0.33464414 0.41670564 -0.028438158 -0.14252938
-0.31847963 0.3309505 0.068374 0.12758939 0.00466442 -0.07965613 0.25593668 0.029045176
-0.13133202 -0.1936152 0.38201234 -0.5125118 -0.3133875 -0.08645271 0.0041122516 0.023341434
-0.17510729 0.09929718 0.0610529 -0.16719203 -0.32842597 -0.14863397 -0.08036693 0.10456393
-0.28378293 -0.055616185 0.15044996 0.5525892 -0.2677753 -0.3720417 0.019925328 0.10988627
0.16760801 0.100645214 -0.16462271 -0.3508552 0.017993974 -0.006629027 0.15267557 -0.20574205
0.04479852 0.08995338 -0.2890345 0.13605501 0.370138 0.19576705 0.031559817 0.00922489
0.14099035 -0.028792618 0.20456994 -0.12661818 -0.599348 -0.39631218 -0.30411625 -0.13474588
-0.031763077 -0.15185013 -0.19060868 0.07012621 0.08208569 0.23718835 0.0757995 0.19598061
0.0994268 0.02189625 0.08518163 0.21419325 -0.48601943 -0.42632592 0.039058026 0.09346794
0.030542362 0.16146106 -0.15825915 0.656776 0.46964103 0.33005208 0.117543325 -0.003252188
0.2761305 0.17547363 0.2116348 -0.45624277 0.50684077 0.23324388 -0.270196 -0.051331818
-0.29238752 0.0321831 -0.099319704 0.29923898 -0.26793057 -0.33395532 0.048562057 0.08224698
-0.032757625 0.07004896 -0.11443744 -0.49816644 0.024572073 0.27210787 -0.19410011 0.026027022
0.07803884 0.014467319 0.54310256 0.21456853 -0.32312503 -0.093310766 -0.20997854 0.27796817
0.10642473 -0.15721956 -0.072858706 -0.39244908 0.51848304 0.5093074 0.06905218 0.085959405
0.016297776 -0.2465745 -0.06253932 -0.25376067 0.5970598 0.04997287 -0.17372286 -0.055256084
0.11293553 -0.06664233 0.013916535 -0.8056956 -0.20700715 -0.59618753 -0.10673426 -0.10969509
-0.08128647 -0.027162744 -0.03813478 0.56351817 0.4681293 0.20645751 0.00014529927 -0.029885564
0.10708458 -0.011830791 -0.035333075 0.40600315 0.2889458 0.075536564 -0.023734916 -0.22022884
00000000: 40ed 72bd acda b23c 1b1c 543e 83ee d3bd
00000010: 1d91 2abf 876d 5fbe 199e 733d 2fc4 5a3e
00000020: bc50 6fbe 2dea c83d 76b3 95bd fbc2 233f
00000030: 2e1d 3f3e 5b2b a3bd a082 a4bd 813e 2b3e
00000040: 55e6 2c3b f202 93be 7849 4abd 990d 1bbf
00000050: c579 943e a0a3 06bd e8e9 b8be 304f 99be
00000060: 6cbe 9abd 8b52 e3bc 81bb 47be ee47 29be
00000070: 6e31 e83e 25ff 39bd 1a90 48be 9b25 87be
00000080: b94c 013e fe43 61bd 4d76 d3bd 5283 5fbe
00000090: 819b 903e 36bf 463e 0947 403e 91b0 a3be
000000a0: 1bca d2bd 1348 7fbe 872e 523d 85a4 d43e
000000b0: 2ab8 acbe 15b7 af3c f323 813d a7e7 e03d
000000c0: 2584 a7be efdb b7bb ab4c b0bd c3b3 a0bd
000000d0: e584 9abe 5a43 91bd 050c 193e 7380 afbe
000000e0: 1fc3 ebbd af63 51be 2735 743e f4b8 f13e
000000f0: b260 30bf e354 08bf 7304 da3d e516 363e
00000100: 2896 53be 6fda 133e a8d8 f2be e45b e0be
00000110: 681f d93e 17b4 be3e 3af1 0cbf 44be 8d3d
00000120: ea4e f0bd 83f2 fc3c f377 88bc 8a3a 5b3e
00000130: 5122 aebe 6023 c3be f4ae edbd e4ef 163e
00000140: dde6 80bd 9ac0 9f3d 2fe5 7ebc 4924 e33c
00000150: ee58 e2be 9576 8abc ecc9 8b3e bba0 3b3e
00000160: 6bfd b73c 0b6e b4bd 863e 763c 12bc bebb
00000170: 4df1 07bf 59b4 a6be 4692 ef3d 678f 2fbe
00000180: f986 4abe 972e e1bd df3a 6dbe 2272 99be
00000190: 7a56 ab3e 715a d53e 24f7 e8bc 39f3 11be
000001a0: c30f a3be 5872 a93e ab07 8c3d cba6 023e
000001b0: fed7 983b c122 a3bd 220a 833e 26f0 ed3c
000001c0: e77b 06be 1043 46be 1f97 c33e f933 03bf
000001d0: 5474 a0be 1e0e b1bd 11c0 863b 8936 bf3c
000001e0: 534f 33be 525c cb3d 9b12 7a3d 6334 2bbe
000001f0: 7327 a8be 8133 18be 6b97 a4bd 9d25 d63d
00000200: ff4b 91be cccd 63bd 8e0f 1a3e 7c76 0d3f
00000210: d819 89be 407c bebe 713a a33c 0d0c e13d
00000220: 6fa1 2b3e 141f ce3d db92 28be 4ba3 b3be
00000230: 1968 933c 4f38 d9bb fc56 1c3e 0bae 52be
00000240: a77e 373d 7a39 b83d 54fc 93be 0152 0b3e
00000250: ba82 bd3e 2877 483e de44 013d fe23 173c
00000260: c65f 103e 7fde ebbc c87a 513e 32a8 01be
00000270: df6e 19bf 6ee9 cabe 20b5 9bbe d3fa 09be
00000280: 001a 02bd 9a7e 1bbe ec2e 43be 559e 8f3d
00000290: 8b1c a83d 81e1 723e c53c 9b3d 24af 483e
000002a0: 47a0 cb3d c45f b33c b573 ae3d 7a55 5b3e
000002b0: 8ad7 f8be 6447 dabe 4ffb 1f3d 1f6c bf3d
000002c0: fa33 fa3c 0c56 253e b00e 22be 7922 283f
000002d0: ca74 f03e 96fc a83e 8eba f03d a922 55bb
000002e0: fa60 8d3e 5caf 333e cbb6 583e a798 e9be
000002f0: 51c0 013f 7cd7 6e3e 2157 8abe 5041 52bd
00000300: d1b3 95be 6dd2 033d 2168 cbbd da35 993e
00000310: 322e 89be 31fc aabe 02e9 463d 1b71 a83d
00000320: dc2c 06bd d475 8f3d 2d5e eabd ac0f ffbe
00000330: 5f4b c93c b951 8b3e 2ec2 46be 9f36 d53c
00000340: d4d2 9f3d 5508 6d3c c508 0b3f dab7 5b3e
00000350: a570 a5be b719 bfbd 9d04 57be d851 8e3e
00000360: 35f5 d93d 2afe 20be f236 95bd 16ef c8be
00000370: 4ebb 043f f861 023f 3b6b 8d3d 7c0b b03d
00000380: ea82 853c 077e 7cbe 9d14 80bd ebec 81be
00000390: e9d8 183f 5ab0 4c3d 68e4 31be 3454 62bd
000003a0: be4a e73d c67b 88bd 2e02 643c 1142 4ebf
000003b0: aff9 53be bf9f 18bf 7e97 dabd d2a7 e0bd
000003c0: 8579 a6bd 6784 debc 3733 1cbd ba42 103f
000003d0: a5ae ef3e 9969 533e 7a5b 1839 92d2 f4bc
000003e0: 294f db3d efd5 41bc 6ab9 10bd a5df cf3e
000003f0: b4f0 933e eab2 9a3d ba6f c2bc ab83 61be

actor.0.bias f4 [64]
-6.1819526e-05 0.005376996 0.05575056 0.0017620561 -0.006964002 0.0014669304 -0.010998912 0.038945433
-0.034576867 0.058664337 -0.02939202 0.013968294 0.0027683019 0.023170704 0.037631266 -0.033836402
0.0034380546 -0.02960497 0.013495722 0.007919279 0.021354731 -0.019122016 -0.046662703 -0.0021133828
0.02782565 0.01653707 -0.0031599624 0.03741253 0.046968717 0.009905258 -0.025032343 0.00918867
0.00020313064 0.007556228 0.030421812 -0.03732045 0.009807247 0.031092236 -0.010733261 0.010317393
-0.028280469 0.0015412188 0.015336546 -0.015429193 -0.020261757 -0.012018983 -0.0065463795 0.00041962083
0.022954864 -0.021274026 -0.010463989 -0.026222188 0.009938473 0.009349604 -0.0062018596 -0.0070455708
-0.044385012 -0.0016271783 0.0032300253 -0.03478403 0.0151750855 -0.005404791 0.024322072 -0.033036336
00000000: 1ba5 81b8 8331 b03b b35a 643d cbf4 e63a
00000010: 4832 e4bb 0446 c03a c834 34bc 3f85 1f3d
00000020: 79a0 0dbd 044a 703d 89c7 f0bc 45db 643c
00000030: 666c 353b 7dd0 bd3c 3e23 1a3d 0a98 0abd
00000040: fc50 613b 1f86 f2bc 291d 5d3c ddbf 013c
00000050: 1ef0 ae3c c6a5 9cbc 6421 3fbd ae80 0abb
00000060: 9ef2 e33c c078 873c 5f17 4fbb e23d 193d
00000070: 4562 403d aa49 223c a110 cdbc 138c 163c
00000080: 77ff 5439 3c9a f73b 2a37 f93c 54dd 18bd
00000090: 93ae 203c 25b5 fe3c 8fda 2fbc 480a 293c
000000a0: 71ac e7bc b902 ca3a 2346 7b3c baca 7cbc
000000b0: fcfb a5bc 45eb 44bc 0383 d6bb 8e00 dc39
000000c0: d70b bc3c de46 aebc 2771 2bbc eacf d6bc
000000d0: fad4 223c 152f 193c f838 cbbb 88de e6bb
000000e0: 0fcd 35bd 0b47 d5ba d5ae 533b b379 0ebd
000000f0: eca0 783c ac1a b1bb 153f c73c 1c51 07bd

actor.2.weight f4 [64, 64]
0.33165854 -0.070408545 0.26473847 -0.3959932 0.111024715 0.12418417 -0.20875102 0.14336036
0.09002006 -0.23050883 0.18991287 0.20603624 0.026956255 0.076914445 -0.011291535 0.21340507
0.18449703 0.30470785 0.027905961 0.4307831 -0.09860177 0.15397085 -0.1263436 -0.011668786
0.11281142 0.016499517 0.13592121 0.1618771 -0.13844289 0.49469692 -0.38561156 -0.5665611
0.24024461 0.17546839 0.067662746 0.30709144 0.19410636 0.10638806 0.35500082 0.0614384
0.5801176 -0.116406694 -0.19548701 0.20045754 0.26777178 0.12018524 -0.066295885 -0.08809114
0.026847728 0.09122282 -0.104262866 -0.1204557 0.026842736 0.26373634 0.25531495 -0.17968869
0.04620742 0.25936732 0.020413015 0.17813732 0.2463678 -0.6177584 0.3686603 -0.26335636
-0.16688703 -0.1431252 0.21593748 0.3839718 0.2344404 -0.15074915 -0.024389122 -0.4720527
0.040339917 0.050090175 -0.19217166 -0.2766581 0.23891571 -0.049750302 -0.36223388 0.23196822
-0.37683493 -0.1251913 0.4112353 -0.0103555 0.07747618 -0.13126282 -0.021055391 0.20370132
-0.29721224 0.25990075 0.06562106 0.113411285 0.027267847 0.15250091 0.047615673 0.093442485
-0.2567461 -0.25168398 0.0071663624 0.23509113 -0.46485728 0.23947759 0.04714807 -0.24509855
-0.21348569 -0.085121006 0.4471793 -0.26615745 -0.498337 -0.05455176 0.22656967 0.06401034
0.0689094 -0.4525551 0.08424054 0.3579078 0.11619757 -8.310248e-05 -0.15417662 0.005779652
0.26256666 0.28014868 0.030674621 -0.22497787 -0.037791535 0.36505556 0.33028823 0.24330437
-0.19237031 -0.016058415 0.12879434 0.35053727 0.00872656 -0.008327064 -0.23780455 -0.14104843
0.5201625 -0.10902167 0.095735624 -0.38271627 0.44714886 -0.101325646 0.06632901 -0.02774394
-0.027864348 0.19602616 -0.027599113 0.018744184 -0.025966128 -0.047292538 -0.17421645 0.2482387
-0.001166082 0.25658765 -0.25852278 0.09797685 0.1017212 0.24017882 -0.14761081 -0.19552593
0.17657134 -0.24286345 0.26536196 -0.1050538 0.11614851 0.24468268 -0.37386104 -0.02996314
-0.17395858 0.34182614 0.11956964 -0.33475056 0.032800805 -0.14003879 0.070804045 0.06512716
0.26532033 -0.55760586 -0.006688481 -0.22124264 0.1461207 -0.29957417 -0.41730127 -0.13791345
0.26248455 -0.27748507 0.23147641 0.010433495 0.38705236 0.1477108 0.21430783 0.16562131
-0.10814351 0.02102453 -0.3753357 -0.22520262 -0.17563145 0.22909144 -0.2660387 0.35380164
-0.4231724 0.026049087 -0.0392322 0.35578328 -0.2561363 -0.3582455 -0.05541351 0.39035603
0.43163893 0.14074583 -0.24315836 0.13757727 -0.08749694 0.4371102 -0.024440914 0.097369716
0.06969311 -0.48994833 0.22756667 -0.05274405 -0.56658125 -0.07895658 -0.01833744 -0.0414066
-0.19471996 -0.023444723 -0.026370084 -0.009774125 0.006720504 0.02397311 0.018356722 -0.14873667
0.076187424 -0.11420331 -0.25298575 -0.08874875 0.027855465 0.32834223 0.02984966 0.12762298
-0.20660117 0.30661702 0.22906142 -0.13493486 -0.16267735 0.031869862 -0.114782125 0.070184894
-0.12948053 -0.08666933 -0.3474663 0.17586163 -0.3008062 0.23519461 -0.04440453 0.27093682
00000000: 26cf a93e 5b32 90bd cd8b 873e 9fbf cabe
00000010: ed60 e33d 4554 fe3d d4c2 55be 0fcd 123e
00000020: 705c b83d 820a 6cbe 8578 423e 2afb 523e
00000030: 5dd3 dc3c 5285 9d3d 2100 39bc dc86 5a3e
00000040: caec 3c3e ab02 9c3e 0b9b e43c 9a8f dc3e
00000050: baef c9bd 89aa 1d3e 3760 01be 702e 3fbc
00000060: ac09 e73d ff29 873c ee2e 0b3e 1cc3 253e
00000070: f9c3 0dbe ea48 fd3e e16e c5be 260a 11bf
00000080: af02 763e fcad 333e c492 8a3d 173b 9d3e
00000090: d1c3 463e fce1 d93d abc2 b53e d5a6 7b3d
000000a0: 9682 143f a266 eebd bf2d 48be be44 4d3e
000000b0: 6219 893e ae23 f63d 23c6 87bd 2169 b4bd
000000c0: c4ef db3c 08d3 ba3d c587 d5bd 7ab1 f6bd
000000d0: 4ce5 db3c 7308 873e a4b8 823e 5000 38be
000000e0: fe43 3d3d cbcb 843e 3239 a73c a169 363e
000000f0: d747 7c3e 6a25 1ebf 0bc1 bc3e a5d6 86be
00000100: 6fe4 2abe 6a8f 12be b71e 5d3e f497 c43e
00000110: 2511 703e fc5d 1abe b2cb c7bc e4b0 f1be
00000120: 783b 253d 5b2b 4d3d a6c8 44be 21a6 8dbe
00000130: 52a6 743e f9c6 4bbd b876 b9be 1489 6d3e
00000140: 82f0 c0be 2632 00be 6f8d d23e 1daa 29bc
00000150: d5ab 9e3d c369 06be 5b7c acbc 1497 503e
00000160: 342c 98be b611 853e 5664 863d 2d44 e83d
00000170: d260 df3c 3329 1c3e a708 433d c65e bf3d
00000180: 3a74 83be b9dc 80be ced3 ea3b bbbb 703e
00000190: c601 eebe 9d39 753e 561e 413d 1dfb 7abe
000001a0: fe9b 5abe ec53 aebd aff4 e43e ca45 88be
000001b0: 0726 ffbe ab71 5fbd e101 683e da17 833d
000001c0: 5f20 8d3d 4db5 e7be 4e86 ac3d b13f b73e
000001d0: fef8 ed3d 4e47 aeb8 7ae0 1dbe 3c63 bd3b
000001e0: 236f 863e a66f 8f3e 5849 fb3c 9960 66be
000001f0: 4ccb 1abd 90e8 ba3e 8a1b a93e c824 793e
00000200: b9fc 44be f08c 83bc aae2 033e 9f79 b33e
00000210: d8f9 0e3c 3d6e 08bc 0983 73be 006f 10be
00000220: 5f29 053f c146 dfbd 0a11 c43d 63f3 c3be
00000230: b2f0 e43e d283 cfbd 81d7 873d 4247 e3bc
00000240: c643 e4bc 15bb 483e 8917 e2bc 678d 993c
00000250: ebb6 d4bc d2b5 41bd cc65 32be 4932 7e3e
00000260: 38d7 98ba 755f 833e 195d 84be 16a8 c83d
00000270: 3453 d03d 70f1 753e 4a27 17be f337 48be
00000280: 1ecf 343e 32b1 78be 86dd 873e 7226 d7bd
00000290: 45df ed3d 198e 7a3e b76a bfbe 4275 f5bc
000002a0: 3322 32be d603 af3e ede0 f43d 6d64 abbe
000002b0: 235a 063d 5466 0fbe b601 913d 6361 853d
000002c0: 11d8 873e 42bf 0ebf 0c2b dbbb 6e8d 62be
000002d0: aaa0 153e c961 99be 83a8 d5be 2f39 0dbe
000002e0: 6064 863e 8612 8ebe 2708 6d3e 40f1 2a3c
000002f0: ba2b c63e 8041 173e 8373 5b3e a298 293e
00000300: 587a ddbd a33b ac3c 002c c0be 849b 66be
00000310: bbd8 33be f296 6a3e 3936 88be 7d25 b53e
00000320: 0eaa d8be e564 d53c f1b1 20bd 3a29 b63e
00000330: 4c24 83be f46b b7be 47f9 62bd bfdc c73e
00000340: c7ff dc3e ad1f 103e 81fe 78be 0ee1 0c3e
00000350: 9831 b3bd e8cc df3e 5038 c8bc c669 c73d
00000360: 43bb 8e3d 82da fabe 3d07 693e 250a 58bd
00000370: 780b 11bf fdb3 a1bd 6638 96bc f899 29bd
00000380: ab64 47be 260f c0bc 1306 d8bc a723 20bc
00000390: ac37 dc3b 4163 c43c d660 963c 6d4e 18be
000003a0: 2708 9c3d 6de3 e9bd 5987 81be e8c1 b5bd
000003b0: 2531 e43c 791c a83e 4687 f43c 99af 023e
000003c0: 428f 53be e8fc 9c3e 148f 6a3e 5d2c 0abe
000003d0: e494 26be f989 023d e412 ebbd 19bd 8f3d
000003e0: 8b96 04be b17f b1bd 1ae7 b1be 1215 343e
000003f0: 4503 9abe dbd6 703e 86e1 35bd 3bb8 8a3e

actor.2.bias f4 [64]
-0.0141858645 0.02201329 0.0136302365 -0.042102054 0.023759685 0.005686827 0.0019695086 -0.018930787
-0.005506284 0.002165503 -0.012880378 0.024861341 -0.0021565964 0.0068774023 0.013807595 -0.017379757
0.024395075 0.0017219431 0.039413664 -0.007139942 0.0071108304 -0.016621253 -0.00793323 -0.005361392
-0.019666972 -0.0025618647 -0.025190044 -0.009877045 0.016388575 0.0005210115 0.01260415 -0.00575415
0.0069267754 0.02923328 -0.021067731 0.034548827 -0.015761442 -0.0200388 -0.02337643 -0.01631463
-0.011818636 0.02725691 -0.0024065631 -0.008182811 0.0074749724 0.009647424 0.0040701022 -0.015398024
-0.05200358 -0.022807365 0.043075066 -0.0048936927 -0.012709014 0.018647911 0.0040031048 -0.026698396
0.032540213 -0.024214875 -0.030337254 -0.034358222 -0.031171374 0.009880706 -0.032472476 -0.0034071389
00000000: d46b 68bc 3755 b43c 5b51 5f3c 3473 2cbd
00000010: aca3 c23c 9058 ba3b df12 013b bd14 9bbc
00000020: 0f6e b4bb 1deb 0d3b 3908 53bc 03aa cb3c
00000030: af55 0dbb d55b e13b 4039 623c fe5f 8ebc
00000040: 2ed8 c73c d3b2 e13a 3970 213d 2df6 e9bb
00000050: f801 e93b 4b29 88bc 61fa 01bc 9eae afbb
00000060: a11c a1bc f5e4 27bb 5a5b cebc 54d3 21bc
00000070: 5541 863c 7d94 083a a381 4e3c 4f8d bcbb
00000080: 01fa e23b a27a ef3c 3c96 acbc 1283 0d3d
00000090: 241e 81bc 6928 a4bc ed7f bfbc 42a6 85bc
000000a0: f4a2 41bc e249 df3c 6eb7 1dbb 3211 06bc
000000b0: 9df0 f43b 3b10 1e3c 7e5e 853b fe47 7cbc
000000c0: b501 55bd 83d6 babc 7b6f 303d 455b a0bb
000000d0: 7839 50bc 81c3 983c 7a2c 833b 98b6 dabc
000000e0: e348 053d 465e c6bc d585 f8bc 35bb 0cbd
000000f0: 1c5b ffbc afe2 213c dc01 05bd 4e4a 5fbb

actor.4.weight f4 [4, 64]
-0.14769329 -0.043469604 -0.11898783 0.15230052 -0.1922102 -0.08482474 0.12707281 0.16554473
0.13248837 -0.1411527 0.010853943 0.0040615634 0.12641944 -0.13800521 -0.15599072 0.14158472
-0.08077241 -0.15247078 0.03172917 0.03047379 0.06742102 0.1597516 -0.10380866 0.0034826365
-0.034365043 0.1223866 0.19478782 0.17310187 -0.14754052 -0.15236227 -0.14603356 -0.08771169
-0.13372569 -0.1551186 -0.07585803 -0.19032574 0.08492937 0.14349303 0.0676172 0.0060568824
0.054184664 -0.08769327 0.105325006 -0.13201614 -0.0678697 -0.18229356 0.09739107 0.17706695
0.19273385 0.099386126 -0.18458967 0.17748341 -0.07753503 0.0391898 -0.13901864 0.1467701
0.13259095 -0.14723916 0.16802694 0.11453676 0.20980853 -0.052825537 0.022673238 0.07601824
0.21723156 -0.3028952 -0.23701292 0.25549415 -0.19450895 -0.07630953 -0.17937626 -0.031576514
-0.1680841 0.003194463 -0.27532613 -0.22276714 0.30546027 -0.33018297 -0.22639231 0.2287074
0.24078912 -0.15150693 0.29198006 -0.28734156 -0.29124865 -0.113230065 -0.07754014 -0.26674274
-0.112294465 0.3292907 -0.14274271 0.29613903 0.090574324 0.06402852 0.112527795 0.23340116
-0.15776351 -0.29958785 0.13828073 0.16062884 -0.10258187 0.2662058 0.3013662 -0.25476032
0.25396556 0.2339558 0.16660933 -0.33016816 -0.29572663 -0.26971954 0.2865941 0.2971466
-0.029216154 0.29419798 -0.05268949 -0.20826395 -0.12671717 0.29182824 0.18194284 0.21410881
-0.06699439 0.06609404 0.3022767 0.06197397 0.06432807 -0.2536457 -0.30281767 0.07601463
0.22927953 0.07936741 0.22854696 -0.27165043 0.28949246 0.15633163 -0.23386976 -0.2783179
-0.24222255 0.23249158 -0.0041055144 -0.0029787896 -0.22425507 0.25044093 0.256375 -0.2590332
0.15154597 0.24968112 -0.077285945 -0.036430746 -0.10670103 -0.2668382 0.18187453 -0.015613421
0.04608815 -0.21856025 -0.3017017 -0.28525057 0.25878564 0.24727216 0.2513647 0.17641261
0.22980033 0.27088088 0.16083062 0.2924609 -0.1736166 -0.26596648 -0.18596183 0.03943887
-0.09936319 0.16762535 -0.18163398 0.23381136 0.12676917 0.27633622 -0.19536047 -0.2789763
-0.30123162 -0.19040297 0.30192405 -0.25682226 0.13658074 -0.0979669 0.24179673 -0.26492038
-0.21789429 0.23893887 -0.28637198 -0.23522632 -0.29880527 0.11996423 -0.021178246 -0.13488308
-0.28948063 0.3000699 0.10572135 -0.1183016 -0.15662009 -0.081314676 0.29063854 0.27179354
0.28523642 -0.22542448 0.26933822 0.2486717 -0.22035465 0.22292043 0.016515605 -0.07335612
-0.27382904 -0.12871227 -0.2627125 0.2841881 0.304805 0.28759092 -0.11254023 0.2780749
0.09268707 -0.26867637 0.2955027 -0.19425121 -0.28973624 -0.28607294 -0.23224615 -0.28788248
-0.09621649 0.21529059 -0.2474667 -0.30149722 0.21403392 -0.081276655 -0.23120125 0.23109744
-0.23906893 -0.26625168 0.007335203 0.21468437 0.27353564 0.037910204 -0.23345996 -0.1467765
0.27834728 -0.24465059 -0.2409721 0.2916349 0.031724345 -0.25592682 -0.2825788 -0.011994801
0.24504416 -0.25816387 -0.17055409 0.16209377 0.27329507 0.22490509 0.29009736 0.03790142
00000000: e93c 17be 2f0d 32bd e4af f3bd abf4 1b3e
00000010: c0d2 44be 98b8 adbd 601f 023e 8f84 293e
00000020: 08ab 073e 558a 10be bdd4 313c dd16 853b
00000030: 1974 013e 3d51 0dbe 08bc 1fbe 96fb 103e
00000040: 016c a5bd 4d21 1cbe 72f6 013d 2ba4 f93c
00000050: 0814 8a3d ec95 233e a299 d4bd f23c 643b
00000060: 5cc2 0cbd d3a5 fa3d 7576 473e 9e41 313e
00000070: dd14 17be db04 1cbe d289 15be 30a2 b3bd
00000080: 63ef 08be 69d7 1ebe 745b 9bbd c0e4 42be
00000090: 73ef ad3d d6ef 123e e37a 8a3d d078 c63b
000000a0: bdf0 5d3d 8798 b3bd a3b4 d73d 3d2f 07be
000000b0: 45ff 8abd 2aab 3abe f874 c73d 0a51 353e
000000c0: 065c 453e f48a cb3d 1305 3dbe 36be 353e
000000d0: b0ca 9ebd 7c85 203d e75a 0ebe e74a 163e
000000e0: ecc5 073e ddc5 16be 410f 2c3e 4092 ea3d
000000f0: 0cd8 563e 975f 58bd 3abd b93c 73af 9b3d
00000100: f371 5e3e 1415 9bbe 84b3 72be 21d0 823e
00000110: 5b2d 47be 2c48 9cbd 69ae 37be 6056 01bd
00000120: 3d1e 2cbe 325a 513b 8cf7 8cbe 121d 64be
00000130: 4a65 9c3e be0d a9be 63d3 67be 4632 6a3e
00000140: 6c91 763e a224 1bbe 697e 953e 6f1e 93be
00000150: 8b1e 95be 2ae5 e7bd 5dcd 9ebd 8192 88be
00000160: a4fa e5bd ca98 a83e 252b 12be 899f 973e
00000170: 087f b93d 6221 833d f974 e63d b700 6f3e
00000180: c28c 21be 9463 99be 7799 0d3e e37b 243e
00000190: 7216 d2bd 204c 883e ac4c 9a3e f26f 82be
000001a0: c607 823e 1c92 6f3e a39b 2a3e cd0b a9be
000001b0: 7b69 97be ae18 8abe 76bc 923e 9923 983e
000001c0: b756 efbc 1ea1 963e efd0 57bd 2543 55be
000001d0: 25c2 01be 836a 953e 394f 3a3e 573f 5b3e
000001e0: 5b34 89bd 505c 873d 03c4 9a3e 6bd8 7d3d
000001f0: 6fbe 833d d9dd 81be eb0a 9bbe 8fad 9b3d
00000200: 41c8 6a3e 618b a23d 3708 6a3e c415 8bbe
00000210: 5b38 943e 6615 203e 8e7b 6fbe af7f 8ebe
00000220: 3009 78be 4612 6e3e 8d87 86bb cc37 43bb
00000230: 1fa3 65be cb39 803e 9643 833e 00a0 84be
00000240: de2e 1b3e 68ac 7f3e 1848 9ebd 6838 15bd
00000250: 1286 dabd 049f 88be 513d 3a3e 6fcf 7fbc
00000260: eec6 3c3d 42ce 5fbe a578 9abe 5d0c 92be
00000270: 8d7f 843e ea34 7d3e e0b2 803e 82a5 343e
00000280: c750 6b3e e6b0 8a3e c8b0 243e 6fbd 953e
00000290: 8dc8 31be c22c 88be c76c 3ebe a78a 213d
000002a0: ee7e cbbd fba5 2b3e 42fe 39be 3f6c 6f3e
000002b0: c7cf 013e f17b 8d3e 930c 48be fbd5 8ebe
000002c0: 083b 9abe fff8 42be ca95 9a3e 357e 83be
000002d0: d2db 0b3e dfa2 c8bd 9099 773e a5a3 87be
000002e0: ae1f 5fbe 64ac 743e 599f 92be 2bdf 70be
000002f0: 01fd 98be ceaf f53d 007e adbc ca1e 0abe
00000300: ce36 94be c3a2 993e 6f84 d83d 1c48 f2bd
00000310: 0461 20be 4f88 a6bd 93ce 943e 8628 8b3e
00000320: 820a 923e add5 66be b3e6 893e cba3 7e3e
00000330: a6a4 61be 4145 643e bc4b 873c bc3b 96bd
00000340: 5233 8cbe 26cd 03be 4182 86be 1a81 913e
00000350: 670f 9c3e 1e3f 933e 7e7b e6bd d55f 8e3e
00000360: b8d2 bd3d f38f 89be 214c 973e cae9 46be
00000370: 4f58 94be 2778 92be efd1 6dbe 5565 93be
00000380: 270d c5bd 2375 5c3e e967 7dbe d85d 9abe
00000390: b52b 5b3e 6074 a6bd 05c0 6cbe cfa4 6c3e
000003a0: 7cce 74be 2452 88be 245c f03b 38d6 5b3e
000003b0: dd0c 8c3e bb47 1b3d 2110 6fbe 944c 16be
000003c0: 8983 8e3e af85 7abe 64c1 76be 2b51 953e
000003d0: 63f1 013d d708 83be 2bae 90be d885 44bc
000003e0: dbec 7a3e 0e2e 84be bba5 2ebe e9fb 253e
000003f0: 55ed 8b3e 854d 663e a487 943e 853e 1b3d

actor.4.bias f4 [4]
-0.010344019 -0.03261381 0.050844777 -0.035262614
00000000: f679 29bc 0f96 05bd 9d42 503d 886f 10bd
