HFDRL_UNIT8/models/Archived/LunarLander-v3__ppo__1__1768735658.ckpt (torch, 133893 bytes, 33 tensors)

critic.0.weight f4 [64, 8]
00000000: c6b1 fdbd 2d3d 0f3e 49a6 233d 200b 16be
00000010: eeb4 93bd b8f0 173e 98fc 9dbe abe4 f33d
00000020: 5e00 0cbe 7df7 643e 6619 583e db98 20be
00000030: 5311 3bbe 14e6 3abe 6c47 313e de6d 60bd
00000040: f348 a53c e834 8fbe e4b0 053e a5d5 653e
00000050: f223 ec3c 81c2 d23d 4e48 593e 7302 0e3f
00000060: d98a 3dbe 83da 323e 2740 9dbc 7f6f 22bf
00000070: bf16 853e c61c 993c 8103 96be 8ac3 3fbe
00000080: e469 613d ed7b 8ebc 5ade ae3e 95b9 58be
00000090: 8e96 8c3d 5357 15be 457e ffbb d26a d0be
000000a0: 59b4 3a3c b274 87be e4bd 863d 537d d23a
000000b0: a921 5d3c ccae 7d3e 2dc3 3abe 9b8e 3abe
000000c0: 0c2f 9fbe 53a3 6ebe 0f68 473d 6b4d 053e
000000d0: a8b3 70bb 5987 8ebe 252b e83e d8fd 453e
000000e0: 88b8 4abd b7b9 013f b22f 433e 2609 843e
000000f0: 2953 37bd 3498 f53d 5f4c 923e 064c c73e
00000100: 8f65 233e 6570 b8bb 8b87 ae3e 1f8f b3be
00000110: d115 cc3e ab65 9fbd 25b7 99bd 4045 8ebd
00000120: b39e a83c 798a 1c3e 90d4 c53e f811 1ebe
00000130: bf4b 683e ca16 fc3c 7d69 823e 50bd 083f
00000140: 851d 94bd 4833 dfbe 7a26 103e 1fd7 043f
00000150: 7a46 d5bb 6a5d 713e 90ab 1bbd 6333 51be
00000160: ff26 4fbd 130f d03e 8883 35bd 8405 e0bd
00000170: 6f1b 88bd 1cc1 523e 26b3 95be e39d cebc
00000180: c13b 3f3d 980b 9a3e 349c 853d 5de2 06be
00000190: 7588 a9bd 2476 db3c 0e75 ebbd faf0 eb3d
000001a0: 9ad5 27bd fcf2 62be c3f5 4e3e 8d21 013f
000001b0: 8cab 82bc cac6 c43c 57a1 50be 2ac6 3b3e
000001c0: 69b5 dbbd b16e 1ebe 2c29 373e 6d5b ce3e
000001d0: 123e f43d dffd d4bb 9f73 a93c a053 233d
000001e0: 5936 46bd 821b 413e e572 79be 12f9 c4be
000001f0: 33e4 10bd 079e 323e 4e44 633c 42b2 03be
00000200: 84e4 e93d f94d dd3d 2c09 aebc 801e f7be
00000210: 027c 13be 49f0 1abd 31ad f2bd 7ad9 523e
00000220: c954 d8bd d0e9 843e c2ea 593e 5724 13be
00000230: d2c0 313e 0c62 07be 4e35 8bbd e1af c53d
00000240: 8844 7fbe 93a8 b5bd 75a4 8a3e b97d 533d
00000250: d199 43be 94b3 ea3d dab7 a9bc 61db adbd
00000260: dbb2 39bd d81e a43e 3bb2 34bd 889c 90be
00000270: 2286 a53c 57fb 3d3e 5237 b9be a4c5 63be
00000280: efab 5a3e fddf 823d 3abc 763e 91b3 06be
00000290: bf28 f53d 452c c2bd 30db afbc d711 c53b
000002a0: 9666 e63d 3ee5 cf3d 4329 4cbe f7f0 d2be
000002b0: fbe5 aabd 41f9 bb3d 238e 5ebe 9d79 e3bd
000002c0: 27cf 093e b00f b23c 9094 633d 461d 0e3e
000002d0: 5fb2 54be 8a56 0dbe e68c 06be 0a7c 64be
000002e0: de12 533e e821 213e 84fa e0bd 6aeb babd
000002f0: c85f 103e a6d5 c7bd 96ed c4bb 2001 98be
00000300: 8c13 80bd 0adf 0d3e 0c5f 873d 3415 85be
00000310: 67ce df3c 3844 35be 4da1 1dbf c51f 3fbe
00000320: 19ef aebd 3fc2 b63e 0751 3c3c 246b 04be
00000330: 4ed6 213c ab76 4abe a1f9 6f3d 2d0f c4bd
00000340: aa5c babd fcab 36bd 31ee dc3d 87da 0b3e
00000350: 6425 893e 7078 1bbe 8c6e 023e 13a6 363e
00000360: 1a47 50bd 994b 3bbe 535c 45bc 3919 493e
00000370: f0f3 68be 89e4 3b3e f0b5 163e 4437 a93e
00000380: 1131 7e3e f29d bd3d aee2 97be bd98 3ebe
00000390: 1503 15be 7e5e 463c 06e7 ccbe 4155 f6bd
000003a0: 846f 143e c3a9 de3e 63fb 20be 9674 223e
000003b0: 99ec 44be b0f4 873d f6d3 e9bb 1b5d e1be
000003c0: 3bc2 82be aff5 33be 8cba 1cbe 9b83 243e
000003d0: 46b3 7e3e 7b48 02be 716e 083e 46cd c13e
000003e0: 7514 fcbd 696b ea3e 9631 b83d 2e01 3fbe
000003f0: 1e27 163e f070 393e db39 42be 8de8 93be
-0.12387423 0.1398818 0.039953504 -0.14652681 -0.07212244 0.1483792 -0.30856776 0.11908849
-0.13672015 0.22360034 0.21103439 -0.1568331 -0.18268327 -0.1825183 0.17312402 -0.054792278
0.020176386 -0.27970052 0.1305576 0.2244478 0.028825734 0.10291005 0.21218988 0.5547249
-0.18509997 0.17466168 -0.01919563 -0.6345138 0.25993916 0.018690478 -0.29299548 -0.18726936
0.055032626 -0.017393077 0.34154016 -0.21164544 0.068646535 -0.14584093 -0.007797035 -0.40706497
0.011395537 -0.2645622 0.065791875 0.0016059078 0.013496795 0.24773711 -0.18238516 -0.18218462
-0.3109058 -0.23304491 0.048683222 0.13017814 -0.0036728177 -0.27837637 0.45345417 0.19335115
-0.04949239 0.50674003 0.19061163 0.2578823 -0.044757042 0.11991921 0.28573892 0.3892519
0.1595671 -0.005628633 0.34087786 -0.3507013 0.39860395 -0.077830635 -0.07505635 -0.06946802
0.020583486 0.15287198 0.38638735 -0.15436542 0.22685145 0.030772585 0.25471106 0.5341387
-0.07232193 -0.43593812 0.14077178 0.5189075 -0.0065086456 0.23570791 -0.03800541 -0.20429759
-0.0505743 0.406365 -0.04431489 -0.10938552 -0.066458575 0.20581478 -0.29238242 -0.02522177
0.046687845 0.3008697 0.06523934 -0.13172288 -0.0827798 0.026789732 -0.11496936 0.11520572
-0.04097519 -0.22163004 0.20210938 0.5044182 -0.01595094 0.024020571 -0.20374046 0.18337312
-0.107279606 -0.15471913 0.178868 0.40304127 0.119259015 -0.0064999904 0.020685015 0.039874673
-0.048391674 0.1885815 -0.24360235 -0.38471276 -0.035373878 0.17443095 0.013871266 -0.12860969
0.11420539 0.10805888 -0.021244608 -0.48265457 -0.14402774 -0.03782681 -0.1184944 0.20590773
-0.105630465 0.25959635 0.21280959 -0.14369331 0.17358711 -0.13220996 -0.067972764 0.09652687
-0.24928486 -0.088700436 0.27078596 0.05163357 -0.19101645 0.11460033 -0.02071755 -0.08489109
-0.045336585 0.32054782 -0.044115286 -0.28244424 0.020205561 0.1855291 -0.3617502 -0.22243363
0.2135465 0.063903786 0.2409524 -0.13154437 0.11970662 -0.094811 -0.021466821 0.0060140896
0.112500355 0.10151146 -0.19937615 -0.41199467 -0.083446465 0.09178401 -0.21733908 -0.1110718
0.13457929 0.021735996 0.055561602 0.13878354 -0.20771168 -0.13802543 -0.13139686 -0.22312942
0.20612666 0.1573559 -0.10985282 -0.09126933 0.14099038 -0.09757547 -0.0060097678 -0.29688358
-0.06253728 0.13854614 0.06609926 -0.2599274 0.0273201 -0.17701805 -0.6157425 -0.18664463
-0.08541698 0.35695073 0.011493928 -0.12931496 0.009877754 -0.1977183 0.058587674 -0.09573207
-0.090997055 -0.04459761 0.10787619 0.1365758 0.2678634 -0.15182662 0.12737483 0.1783679
-0.050849058 -0.18290557 -0.012045938 0.19638528 -0.22749305 0.18348898 0.14717841 0.33049977
0.24823405 0.09258641 -0.2966513 -0.18612953 -0.14551957 0.01210749 -0.40020007 -0.1202798
0.14495665 0.43488893 -0.15720896 0.15864787 -0.1923088 0.06638467 -0.0071358634 -0.44016346
-0.2553881 -0.1757419 -0.15305537 0.16065829 0.24873075 -0.12722962 0.1332338 0.37851924
-0.12308589 0.45785072 0.08993833 -0.18652794 0.1466336 0.18109488 -0.18967383 -0.2888836

critic.0.bias f4 [64]
00000000: 692a 41be e218 343d 02b8 393e 22d2 2bbe
00000010: e607 5cbe 7d2b bf3d f0c5 623d 7a5f 513e
00000020: 53d2 4ebe 06ff 133e 6604 333e 8544 49be
00000030: fea9 923d b2de 4a3e e72b 1d3e 5068 4dbe
00000040: e181 833d 50fa 00be 0a4d e6bd 13d0 3cbe
00000050: 020a 4bbe f605 7dbd d622 edbd 2b24 43be
00000060: 7e34 c6bd 961d 18be 1546 303e cff1 3c3e
00000070: 4786 1ebe faf9 35be 4979 3c3e d5cd 3ebe
00000080: 7e97 37be 6052 40be 9d9c 453e b69d 243e
00000090: f171 a0bd 5c88 1abe ebb6 09be fc33 313e
000000a0: 8c91 9bbd 9873 213e 08a8 74bd 19ca 443c
000000b0: ea5b c0bd 9648 0dbe be53 15be 6ad1 30be
000000c0: dbfe 3dbe 5862 36be 24a9 09be 1574 263e
000000d0: 87c4 33be 696d d53d fc2b 83bd 4065 e23c
000000e0: c1bf 39be 9875 003e ad79 dabd 1707 e6bd
000000f0: d707 9a3d bebf 373e c00a fcbd 66b1 35be
-0.18863834 0.043969043 0.181366 -0.16779378 -0.21487388 0.093344666 0.05536455 0.20446578
-0.2019742 0.14452752 0.17482147 -0.19655044 0.0716133 0.19811514 0.15348779 -0.20059323
0.06421257 -0.12595487 -0.11245163 -0.18438749 -0.19828036 -0.061773263 -0.1157891 -0.19056766
-0.09677981 -0.14855036 0.17214234 0.18451618 -0.1548091 -0.1777114 0.18405642 -0.18633206
-0.17928883 -0.18781424 0.19298024 0.16075787 -0.078342326 -0.1509108 -0.13448684 0.17304987
-0.0759612 0.15766752 -0.05973056 0.012011074 -0.09392531 -0.1379722 -0.14582726 -0.17267385
-0.18554251 -0.17810953 -0.13443428 0.1625522 -0.17555438 0.10421259 -0.06404874 0.02763617
-0.18139555 0.12544858 -0.10667739 -0.11231821 0.075210266 0.17944238 -0.12306738 -0.17743453

critic.2.weight f4 [64, 64]
00000000: bd71 ad3e cf45 09bf c900 9abe 06fc b83e
00000010: 3f00 be3d 1c04 0abe 8b23 a13d 3fe5 c4be
00000020: 84da cf3d 1d66 993e 8ef4 82be 8034 063d
00000030: e0c3 9abd 3e62 a8be c52a ddbe e623 b23e
00000040: d76f be3d 05e9 4abc adcc 093d e307 8c3e
00000050: 29bd 503b 791f 783e c0b0 243e a797 6e3e
00000060: 1f24 e33e 3f94 393e 17f6 d03d 0825 11be
00000070: ab27 073e e4b4 3b3e c7e5 07be d054 333e
00000080: e4ae 9f3d a22f 9d3e c010 193e 4838 d6bd
00000090: e9e0 a7be 2116 75be 3554 c1bd fe3e 1cbf
000000a0: 23ff 893e 442d 6fbe cf76 53bc 82ee c2bd
000000b0: adad 7bbe 956b 793e d88d 493e b496 bb3e
000000c0: cf5e 1e3e cf4b b53e 2922 a2bd 4266 ebbd
000000d0: f0ae 503e ba1d 4fbe fc2a 8bbd b114 d93c
000000e0: bdae 4f3e 87b5 5abe 92f8 4b3d 1dac 1a3e
000000f0: 0739 cf3d 2662 e33d 175e 75be 5826 083e
00000100: b072 d93e dcbc 413e ff5d 35be a28f 533e
00000110: 0467 5b3d 4d4d 8bbe 5940 02bc ab35 73be
00000120: 2cb6 a03d ba43 80be 7b92 00be cbec 4a3d
00000130: adb7 ea3e d6a3 d93d 5bf1 9bbe 71ab cc3e
00000140: 7f71 0b3d a81e 0bbe ecf9 b23e 85db df3c
00000150: 2ea3 2a3e 2a9e 553e c21d 63bc 7307 673e
00000160: 8160 123e 399f 853e 0b8d 41be 01a4 71be
00000170: 709d b93e 6323 d13e bdb7 8abe c381 993e
00000180: 8c0a ae3e b93d 363e c903 a8bd 0392 1abe
00000190: 5b26 edbc 2219 debd af15 26be 5d4d 033e
000001a0: ab8c 273e ca5a 55bd 7d7a 023e fb26 03be
000001b0: 4d2c af3d 727f 983e c64c d83e f616 483d
000001c0: 3f38 013f ef06 5d3d 72b4 a7bc 5b25 c6bd
000001d0: f934 373e 5701 6cbe 7609 18be b59d 6fbe
000001e0: 83ba bb3e 3c69 bcbe 7f4d 133e cd69 ba3e
000001f0: 96ca 0bbc 68ac 13be 4b58 94be 4dea 8b3c
00000200: e8c3 94be b7d5 ed3d a51a be3e 5cac c7bd
00000210: 434c 443e 37c3 cc3b db4c 133e b1b1 813e
00000220: 14b4 c1be 21fa b53e f3dd acbd d3fc b5be
00000230: 8e61 a7bd e815 db3e f920 aa3e ac1f e0be
00000240: bf4e d6be e8f2 1cbe a349 663d 4633 7abe
00000250: 3af2 66be 79e3 60be 5e2d dbbd 69f4 07be
00000260: fe3c 9fbe 1dc3 28bd 9f59 073f c9b7 bb3e
00000270: ba1f 87bd 1fbe fbbe 531a 9abd 82f9 dcbe
00000280: d631 113e 9636 4dbd 293d a6bc cc35 0c3e
00000290: 0f06 99bd 9539 02be 0c2b 2b3c 5e14 803e
000002a0: 49f1 233d 7e60 98be 5970 9e3e e9c5 a13d
000002b0: 5b5e f03c 8a14 a1be 2394 913e 44a4 f2bb
000002c0: 13f4 83bd b7c4 52be 41df 793d dd28 323d
000002d0: ba0a 89be 1d21 803e 3079 033e c2b4 1d3d
000002e0: 0f22 afbe 708c 1a3e 53f9 b83d c772 b2be
000002f0: 40a7 0c3e e3a9 313e a890 95bd db63 b0bd
00000300: 53f3 df3e 0575 483e 3778 b1be f068 c53e
00000310: 7b51 f73d 2327 4fbe ecf0 2ebf d43b 20be
00000320: 1226 563e 91d1 1a3d 13f6 2dbb 139d 1b3e
00000330: 497d 5ebd fce7 003d 3ba5 9abe f96c cf3e
00000340: c91f 59bc 4c53 543e 8793 afbd b9b1 953e
00000350: 84a3 7fbd a551 873e ab8c d03e 125b ab3e
00000360: 2a7c 12bb 89ea 993d b93e c4be 6683 b1be
00000370: 8b57 253d cd98 9ebe 6481 3d3d 8176 863e
00000380: a01c 493e ab8d a83e 4c91 c4bd 6824 3ebe
00000390: a2ed 03be ec11 87be 54bb 113e 2cbc 42be
000003a0: 35d8 3f3e be53 96bd 7ea0 b43d bc09 b73d
000003b0: be49 0bbe 7a19 023f 6dee 963c ea97 193e
000003c0: eb9c b93e b015 653e 48ee 67be b866 15be
000003d0: 3180 923e fcd5 6fbe 1e10 ffbd a493 d3be
000003e0: edf2 433e 8599 a8be be24 003e 4d68 a13e
000003f0: 58f4 a9be 8ff2 e2be a0cc 2dbe 0b33 883d
0.33875838 -0.53622144 -0.30078724 0.3612978 0.09277391 -0.1347813 0.078681074 -0.3845615
0.101491004 0.2996072 -0.25577205 0.03276491 -0.075568914 -0.32887453 -0.43196693 0.34793013
0.092986755 -0.012384658 0.03364246 0.27349767 0.003185103 0.24230756 0.1608305 0.23300038
0.44363496 0.18122958 0.10203188 -0.14174283 0.13198726 0.18330723 -0.13271247 0.17512822
0.077970296 0.30700403 0.14947796 -0.104599535 -0.3278878 -0.23934223 -0.09439889 -0.6103362
0.26952466 -0.23357111 -0.012906744 -0.09518148 -0.24577971 0.24357446 0.19683015 0.36638415
0.15465854 0.354094 -0.07916672 -0.114941135 0.20379233 -0.20226184 -0.06795308 0.026499124
0.20281501 -0.2135831 0.049797602 0.15104719 0.10118299 0.11102705 -0.23961674 0.13295877
0.42470312 0.189197 -0.17711638 0.2066026 0.05356504 -0.27207413 -0.007949912 -0.23750941
0.078472465 -0.2505167 -0.12555878 0.04954223 0.45843259 0.10626952 -0.30457577 0.3997455
0.034043785 -0.13585913 0.349563 0.027326355 0.1666381 0.20861116 -0.013862075 0.22561435
0.14294626 0.2609804 -0.1890146 -0.23597719 0.36252928 0.4084731 -0.27093306 0.29981813
0.33992422 0.17796983 -0.08203847 -0.15094762 -0.028948953 -0.108446375 -0.16219209 0.1282248
0.16362254 -0.052088536 0.12742038 -0.12807839 0.085533716 0.29784733 0.42246073 0.048850022
0.5047645 0.05396169 -0.020471785 -0.09675094 0.17891301 -0.23047386 -0.14847359 -0.23400004
0.36665735 -0.36799037 0.14385031 0.36408845 -0.008532187 -0.14421237 -0.28973612 0.017079497
-0.29055715 0.116130285 0.37129703 -0.09749672 0.19169717 0.0062488574 0.14384787 0.2533088
-0.378327 0.35542396 -0.08440771 -0.35544452 -0.08172904 0.4279015 0.3322828 -0.43774164
-0.41856954 -0.15327036 0.05622257 -0.24433622 -0.2255334 -0.21961774 -0.107020125 -0.13276829
-0.3110122 -0.0412017 0.52871126 0.36663654 -0.06597848 -0.49168488 -0.07524552 -0.4315911
0.14179167 -0.050100885 -0.020292835 0.13692397 -0.07471859 -0.12717278 0.010447275 0.2501554
0.04002503 -0.29761118 0.3094509 0.078990765 0.029341867 -0.31460983 0.28433332 -0.007404836
-0.06443038 -0.20582853 0.061003927 0.043496 -0.26765996 0.25025263 0.12839198 0.038502462
-0.34205672 0.15092635 0.0903193 -0.34853193 0.13735676 0.17349963 -0.073029816 -0.08612796
0.4374033 0.1957589 -0.3466203 0.38556623 0.12076088 -0.20229773 -0.6833637 -0.15647823
0.2091296 0.037797514 -0.0026544377 0.15196638 -0.0543187 0.031471238 -0.30204186 0.40512827
-0.013252207 0.207349 -0.085730605 0.29237154 -0.0624118 0.26429477 0.4073232 0.3346792
-0.002235184 0.07515437 -0.38329104 -0.34670562 0.04036669 -0.30975953 0.046265975 0.26262286
0.19639826 0.32920584 -0.09598026 -0.18568575 -0.12883618 -0.2638086 0.14231616 -0.19017094
0.1873482 -0.07340191 0.08819674 0.089374036 -0.13602349 0.50820124 0.018424237 0.14999357
0.3625253 0.22371554 -0.22649491 -0.14589965 0.28613427 -0.23421472 -0.12454246 -0.41323578
0.19135638 -0.32929626 0.12514016 0.31524888 -0.33194232 -0.44325683 -0.1697259 0.06650361

critic.2.bias f4 [64]
00000000: 529a 24be 7b9f e1bd 1740 213e 775d 4bbe
00000010: c8c5 05be 4c37 16be 788e 2d3e dddc ebbd
00000020: adf2 dcbd bb0e 503e a743 cdbd c79c 0ebe
00000030: 2e15 42be 10b4 01be 9372 b1bd 7a2c 373e
00000040: 2443 20be df95 19be effb 0fbe 55c3 073e
00000050: 7e03 b7bd 0b92 3f3e 07b6 2dbe baa3 c03d
00000060: 3220 7c3d 078c 033e 38c4 263e b110 203e
00000070: bbcc df3d 9729 e1bd 6942 293e b2d7 cfbd
00000080: ee40 0fbe 4cc2 3d3e b952 d63d 69b2 09be
00000090: 414b c33d 7cd7 2d3e ba2c 2cbe cb3e a9bd
000000a0: e8c4 02be f47d 89bd da14 1a3e 1547 25be
000000b0: 6ee4 f23d ee94 e33d c124 263e 05cb 25be
000000c0: 3012 eb3d 52c2 1abd 16db 293e d6b0 a23d
000000d0: d2bc 263e d83d 0e3e 2a2c 17be 963e 1d3e
000000e0: 92d8 d63d 0864 24be e2d7 103e 47b6 1a3e
000000f0: 347b c2bd 173d 4abd 9b3e 1c3e afaf 973d
-0.16074494 -0.110167466 0.15747105 -0.19859873 -0.13063729 -0.14669532 0.16948879 -0.11516736
-0.10788474 0.20318119 -0.10022669 -0.13926993 -0.18953392 -0.12666345 -0.086644314 0.1788806
-0.15650612 -0.14998578 -0.14060949 0.13258107 -0.08936213 0.18708055 -0.16963969 0.09406228
0.06155414 0.12846385 0.16285789 0.15631367 0.10927721 -0.10994261 0.1652924 -0.101485625
-0.13989612 0.1853115 0.10464997 -0.13446964 0.09535838 0.16976732 -0.16813937 -0.0826393
-0.12770426 -0.06713477 0.15047017 -0.16140397 0.11859976 0.111123905 0.16224958 -0.16190727
0.11478078 -0.037782975 0.16587481 0.07943885 0.16282967 0.13890779 -0.14762941 0.15355906
0.10490526 -0.16053784 0.14144853 0.15108596 -0.094961554 -0.049374666 0.15258257 0.07406556

critic.4.weight f4 [1, 64]
00000000: 6e31 a53e fa02 8e3e 0c2e 8ebe 646f 893e
00000010: 51a8 bf3d 297d f73e 2498 8ebe 6ed8 ba3d
00000020: f3dd c73d 107b 8fbe e11b c43e 1463 7f3e
00000030: c080 953e b37c 7c3e e505 843e ee00 98be
00000040: 4ee8 9b3e b57b b83e 0abd 903e 0ab8 4abe
00000050: 2bc0 6c3e 137e 85be 3a61 773e f30d 57be
00000060: 017e 79be 5f8f d9be e46a cfbe f7eb 0cbf
00000070: ed63 1abe 0681 433e 82ef d7be b4d3 1d3e
00000080: 1221 f33e 635b 9abe 44c8 f3bd 07ba b43e
00000090: 5575 60be 800b 03bf 4774 ba3e 2012 973e
000000a0: e976 af3d af80 a43e f057 92be 046f c33e
000000b0: 8861 aabd 1daf 13be 4f33 ebbe 8f1a 953e
000000c0: bd28 bebd 3c68 0fbd 1a83 abbe c4e0 9bbe
000000d0: c762 9bbe 3a32 68be 066b ab3e 5206 00bf
000000e0: e8f0 33be f06b b33e d5db 69be aafe c1be
000000f0: af06 913e 222f 413e 0416 01bf e410 efbe
0.32264274 0.27736646 -0.27769506 0.26842797 0.09358276 0.48337677 -0.2785045 0.09123312
0.0975913 -0.28023577 0.3830252 0.24940139 0.2919979 0.24656944 0.25785747 -0.2968821
0.30450672 0.3603188 0.28269225 -0.19796768 0.23120181 -0.2607275 0.24158183 -0.21001415
-0.24364473 -0.42492196 -0.4051124 -0.55047554 -0.15077181 0.19092187 -0.42174917 0.1541279
0.47486168 -0.30147848 -0.11903432 0.35298178 -0.21919759 -0.5118942 0.36416838 0.29506016
0.08567602 0.32129428 -0.28582716 0.38170636 -0.08319384 -0.14422269 -0.45937583 0.29121825
-0.09285114 -0.035011515 -0.3349846 -0.3044492 -0.303488 -0.2267541 0.3348009 -0.50009644
-0.17572367 0.35043287 -0.22837766 -0.37889606 0.28325412 0.18865636 -0.5042422 -0.46692574

actor.0.weight f4 [64, 8]
00000000: 8277 74bd 443b d53c b931 5c3e dafa 4dbd
00000010: 8245 28bf 855a 5dbe 987a aa3d e384 6d3e
00000020: 9c0b 6ebe 88fb d83d b72d a2bd 06f3 223f
00000030: affb 4e3e 4827 93bd 1cde bcbd fdc4 1b3e
00000040: 3284 eb3b 735e 92be 559e 59bd dd50 1abf
00000050: 157a 9d3e 4235 c0bc 7fde b8be 4a36 95be
00000060: ae0e 94bd aa92 bebc f113 51be 67bf 0cbe
00000070: 39f6 e53e 499b 2ebd ab74 4cbe 198e 87be
00000080: 49fc fd3d e0fc 64bd 0b69 dfbd ca7b 66be
00000090: 99a4 8a3e 8997 443e 10a4 363e 6fa3 a4be
000000a0: 766c cebd 124f 7fbe dde6 743d 62e6 d43e
000000b0: 43e3 acbe 8429 863c e343 803d 1b16 d13d
000000c0: 6884 a5be 2545 91bb 42d5 85bd ac30 afbd
000000d0: d64b 9dbe 7642 8fbd bd49 193e 3bc3 adbe
000000e0: 6a54 e9bd b698 50be 7385 713e 44dd f03e
000000f0: 2335 2dbf b614 09bf 4b9f e13d 2f36 323e
00000100: ca3b 53be d82e 133e d484 f3be 0368 e1be
00000110: 0abb d03e 22ec bd3e bc8f 0ebf 895b 8b3d
00000120: a24a f6bd a69a 3e3d 129b 8f3a 6f41 a13e
00000130: 1e45 adbe 62be c3be c07e b7bd 39ee 313e
00000140: bc8a 83bd 4c97 7b3d 3f8f 663c c4b7 3abd
00000150: 2c0c edbe a84f ffbc 6ace 8a3e 936b 363e
00000160: 1d04 c43c c5d8 b1bd 98ea af3c e558 61bc
00000170: 3e73 05bf b219 a7be ce30 063e 6724 25be
00000180: d9cc 46be a22c e7bd 1d90 71be 3def a6be
00000190: f08a a43e 866b d43e fbd9 39bd 1a17 1dbe
000001a0: 45e6 99be 0888 9c3e 252b 793d 39d4 443d
000001b0: cdd2 fdbc c4e9 d0bd 957b 783e b638 9e3c
000001c0: 43ef 03be 4cd9 48be 08f4 c43e 5965 03bf
000001d0: 8aae 9dbe 10df a1bd 3493 c13c 4753 223d
000001e0: 8a7c 31be f712 b13d 2f73 8e3d 299f 8cbe
000001f0: f460 a3be ffcb 0abe c198 b2bd abc7 c63d
00000200: 289c 90be b2d7 5cbd 4d44 193e e403 0d3f
00000210: b802 88be 18c4 c2be 6155 993c 6cb3 cd3d
00000220: ad75 2e3e 1efc bd3d 483b 27be c5a8 b6be
00000230: 08f1 9c3c 4d2f 19bc e177 213e ec44 45be
00000240: f01f 343d 3b7c bc3d ce0f 97be e974 053e
00000250: c1a3 b73e 1249 433e b3d7 853c 8ce7 17bb
00000260: 403f 113e 66cd c3bc 9997 583e 2a42 d9bd
00000270: 6378 16bf e565 c8be 997e 90be 84d6 f3bd
00000280: e6ce febc 04e6 16be 19c0 48be 00bb c13d
00000290: e61d 873d c449 673e 06ac 823d 2808 3f3e
000002a0: 0ab0 ca3d fdfc b33c 6f6e ba3d 8d41 603e
000002b0: ff3d f2be 7957 dabe 9efa 4b3d 6d22 ca3d
000002c0: 557d ee3c 49cf 253e dd68 28be 629b 273f
000002d0: 7c74 f13e 20b7 a73e a50f cd3d 446e 91bc
000002e0: 8e9c 8a3e ed19 303e c718 493e f93b e7be
000002f0: c4c8 033f 9ce7 7d3e 373e 8bbe 18e1 43bd
00000300: f471 91be 20a1 213d 9e53 ebbd 19a4 9d3e
00000310: 82f8 56be eb10 9ebe d164 493d 1b42 ab3d
00000320: 0431 01bd 1e32 893d f723 e3bd 73dc fabe
00000330: a7fe d13c 8b50 8b3e 4fc3 41be 0823 1e3d
00000340: 37ca a43d bdaa 5c3c 02e2 0b3f d7c7 643e
00000350: 9b46 9abe f758 aabd 7c02 4cbe 9daf 903e
00000360: c8ab d83d 22b7 23be f478 a0bd ad24 d6be
00000370: cf96 013f a24f 033f 62a8 723d 41ff a03d
00000380: bf0d a03c 5cda 77be 68f0 96bd 0732 88be
00000390: eb1d 183f 4191 6c3d 3de9 3cbe b061 82bd
000003a0: 5d7b ed3d d468 8ebd c06b 9f3c 889c 4bbf
000003b0: 8aed 5bbe a082 1abf 76cf babd 3069 c1bd
000003c0: 47a8 a4bd 2e15 d7bc 31a4 2dbd f9d0 0d3f
000003d0: 6c71 ef3e 81e7 4a3e da7a 74bc 71e5 40bd
000003e0: 7b6e da3d 443a f0bb 7708 32bd 40d7 cf3e
000003f0: 9781 953e 9406 883d 43eb 0abd 267d 6dbe
-0.059684284 0.026029237 0.21503343 -0.05028806 -0.6573106 -0.21616562 0.08324164 0.23195224
-0.23246616 0.10594851 -0.07918876 0.63652074 0.20213197 -0.07185227 -0.092220515 0.15211864
0.00718739 -0.28587684 -0.053129513 -0.6027964 0.30757204 -0.023462895 -0.3610725 -0.29142982
-0.072293624 -0.023263294 -0.20417763 -0.13744889 0.44914415 -0.04262856 -0.1996638 -0.264756
0.12401635 -0.055905223 -0.10908707 -0.2250816 0.27078703 0.19198431 0.17836022 -0.3215594
-0.10079281 -0.24932507 0.05979048 0.41582018 -0.33767137 0.016377218 0.06262948 0.102092944
-0.3232758 -0.0044332915 -0.06534816 -0.08554205 -0.3072192 -0.06995098 0.14969535 -0.33938012
-0.11393054 -0.20370755 0.23586063 0.47043812 -0.67659205 -0.5354723 0.11016711 0.17403482
-0.20628276 0.14373338 -0.47562277 -0.44024667 0.407677 0.37094218 -0.5568807 0.06804568
-0.12025954 0.046534203 0.0010956249 0.31495234 -0.33841795 -0.38231188 -0.089597225 0.17376031
-0.06422946 0.061423585 0.0140722385 -0.04558541 -0.4629835 -0.031165913 0.27110606 0.17814474
0.023927743 -0.08683924 0.021474168 -0.013754104 -0.5212897 -0.3263679 0.13104555 -0.16127168
-0.1941408 -0.1128781 -0.23590131 -0.326044 0.3213725 0.41488284 -0.045373898 -0.15340844
-0.30058494 0.30572534 0.06083216 0.048053954 -0.030984307 -0.10200837 0.24265893 0.019314151
-0.1288424 -0.19614142 0.3846743 -0.5132652 -0.30797225 -0.07903874 0.023629762 0.0396302
-0.17332664 0.086461954 0.06955563 -0.2746518 -0.31909907 -0.13554381 -0.08720542 0.097060524
-0.28244138 -0.05391664 0.14967461 0.5508406 -0.26564574 -0.38040233 0.01871747 0.10043988
0.17037077 0.09276603 -0.16331208 -0.35675636 0.019157901 -0.009349656 0.15768386 -0.19264573
0.04397577 0.092033826 -0.29504246 0.13032879 0.35867122 0.19070843 0.016338205 -0.0023178784
0.14184284 -0.023901653 0.2115158 -0.10608323 -0.58777446 -0.3914024 -0.28221586 -0.1190615
-0.031104516 -0.14736181 -0.1960453 0.094594955 0.065974995 0.22586733 0.06380467 0.18655455
0.09896858 0.02197122 0.09103095 0.21900006 -0.47312924 -0.4264486 0.049799554 0.098698474
0.029112497 0.16192354 -0.16446252 0.6547147 0.47159183 0.327569 0.100127496 -0.017752774
0.27072567 0.1719739 0.19638358 -0.45162943 0.5147822 0.24795383 -0.27195904 -0.047822088
-0.28407252 0.0394603 -0.11490558 0.3078926 -0.20993236 -0.30872282 0.04916841 0.08362218
-0.031540886 0.06699012 -0.11090844 -0.48996314 0.025634123 0.27209887 -0.1892216 0.038607627
0.08046382 0.013468442 0.54641736 0.22341858 -0.30131993 -0.0831775 -0.19922823 0.28258982
0.1057964 -0.15987828 -0.0783557 -0.41824856 0.5062074 0.51293385 0.059242614 0.07861186
0.019537805 -0.24204391 -0.073700726 -0.26600668 0.5942065 0.057755712 -0.18448348 -0.06366289
0.11595795 -0.06953588 0.019460559 -0.7953572 -0.21477333 -0.6035557 -0.09121601 -0.09443891
-0.08039909 -0.026255216 -0.042392913 0.5539699 0.46766222 0.19814874 -0.014921868 -0.047093812
0.10665604 -0.0073311646 -0.043465104 0.4059391 0.29200432 0.0664188 -0.03391577 -0.23192272

actor.0.bias f4 [64]
00000000: f2a0 90bb 48f8 c63b 9b93 5d3d 7098 ceba
00000010: 4f3f 16bc 1e97 0e3b 663e 44bc e3f0 163d
00000020: b26d 0abd f246 623d 73d6 05bd 111c 873c
00000030: 2349 b93b 07e3 973b 6b42 1b3d f0ca 07bd
00000040: 5eef 633b e405 babc 717c 753c 59d7 b23b
00000050: 0e14 863c 3ce9 98bc 47f8 3cbd 22eb 89bb
00000060: ad10 0e3d e1d0 623c f28d 19bb ab75 1d3d
00000070: 3f8b 433d ee21 1c3c b862 c0bc 6653 c73b
00000080: adc8 673b 6654 e03b 54f7 013d 4c5d 1bbd
00000090: 4212 2f3c 00a5 f53c 6d6a 37bc 2171 4b3c
000000a0: be15 dbbc 9bea 653b 835c 403c 121c 70bc
000000b0: 1ec0 8fbc 2f56 bebb 44e9 26bc 095d 703a
000000c0: 1e51 a33c 5984 97bc 042d 51bc 4731 dabc
000000d0: 13cf 203c 117c 583c 4fee afbb adc5 06bc
000000e0: f7e0 3abd 10d0 b0bb 6234 133b 0518 1dbd
000000f0: 37cd 4f3c 90be cebb 0f1f d23c 0d8f e8bc
-0.0044137174 0.006072078 0.054095846 -0.0015761983 -0.009170367 0.0021757553 -0.011977768 0.03685082
-0.03379602 0.05524344 -0.032675218 0.016492875 0.0056544705 0.004635218 0.037905138 -0.03315252
0.0034780125 -0.022707887 0.014983282 0.0054578003 0.016366985 -0.018665902 -0.046135213 -0.004208938
0.034683872 0.013843746 -0.0023430553 0.038442295 0.047740217 0.009529574 -0.023484573 0.00608294
0.0035367415 0.0068459986 0.03173001 -0.03793077 0.010685505 0.029985905 -0.0111948075 0.012417109
-0.026743766 0.0035082463 0.0117408065 -0.01465513 -0.017547663 -0.0058086137 -0.010187451 0.0009169137
0.01993614 -0.018495725 -0.01276708 -0.026634825 0.009814995 0.0132131735 -0.005368985 -0.0082258405
-0.0456247 -0.0053958967 0.0022461643 -0.038352985 0.012683204 -0.006309338 0.025649576 -0.028388524

actor.2.weight f4 [64, 64]
00000000: 5639 a63e c269 98bd 608e 863e cf21 d2be
00000010: 62e0 e33d 4e8b 013e c0da 4fbe 20c4 1d3e
00000020: b58a ab3d 8a28 77be 894e 643e 8e13 5d3e
00000030: da70 cc3c dac9 aa3d 94a6 8aba 9e78 703e
00000040: f1a3 423e b7eb 9c3e 5cd5 ab3c 95d5 d93e
00000050: 67f0 c8bd bc44 203e 433b 06be a0a7 b4bc
00000060: fccb c43d 21b3 913c 1303 0d3e 4184 243e
00000070: 293b 16be 6ae8 fa3e 0e1b c6be 184a 11bf
00000080: 7f46 753e cabe 3e3e 0b9a 703d 415b 9e3e
00000090: bd6a 453e 3efc e83d 64b1 b63e 6310 813d
000000a0: d97a 173f 86ee f4bd 3b52 52be 1d90 563e
000000b0: e0bb 8a3e eadd e43d 9709 aabd bf02 afbd
000000c0: a2b3 d13c 8201 ba3d 5ef2 e5bd d4dc efbd
000000d0: 9b5e cc3c bab4 8b3e 7d08 893e 8c67 38be
000000e0: e6c7 0c3d cfca 823e a949 7e3c 62e9 443e
000000f0: 58af 7e3e e2c0 1dbf 4047 c03e a09b 86be
00000100: dccc 32be 189a d1bd c4e8 503e e7ed c23e
00000110: 6dfe 683e 43a7 1dbe e7fc f4bc f480 f5be
00000120: f79e 293d 5e02 393d b6bf 5bbe 4577 91be
00000130: ab8a 753e 9df4 30bd 9d05 c7be 40d4 653e
00000140: 6887 bfbe 282f 05be a550 da3e 8851 72bc
00000150: 7d2d 943d 055d 03be f9ce 043c b359 583e
00000160: 25d2 8bbe b985 813e 7dee 8d3d 9b13 e63d
00000170: eb77 183d 456a ed3d 9266 933d f4d9 e63d
00000180: 9965 95be e771 84be 049d 323c b705 683e
00000190: d23c f7be c99c 633e d1bf 073d e3aa 7dbe
000001a0: bd14 5bbe be5f b1bd 400e ec3e 6e4d 86be
000001b0: 6ec2 04bf 640c 0fbd fa07 7b3e 28cf 8c3d
000001c0: 22df 733d 1925 e6be 0acd e73d 9342 b83e
000001d0: 8396 c23d ac63 c4bc e40d 35be e31a 063d
000001e0: fbc1 8f3e 597a 8f3e d0d3 093d f34c 73be
000001f0: 96fa 86bd bfac bd3e a3cc 9f3e 71bd 7a3e
00000200: 9015 4fbe 0220 27bc a061 0e3e e9d9 af3e
00000210: c399 163c 5d62 8ebc e047 75be 6061 0fbe
00000220: d503 053f 7f91 05be bf97 c23d dd1b c6be
00000230: 7e73 e83e 8780 c7bd 59db 8b3d 5567 29bc
00000240: 05a7 eebc ab7a 513e f4bb c2bc bd0a 963c
00000250: 448b ecbc 9f43 33bd bbad 2fbe 53c5 833e
00000260: 1951 ec3b 7e08 863e 56b7 82be bb9b d23d
00000270: a50a f03d db42 703e 99be 13be b75d 47be
00000280: 626a 2e3e f948 78be d958 7e3e 56c5 dabd
00000290: e1e3 e23d cbcd 7a3e 5181 c0be 2c24 12bd
000002a0: aa2e 31be 6243 b13e d341 023e bc82 aabe
000002b0: 55c1 cb3c be0a 12be 93fb 863d 9e57 8e3d
000002c0: 9de5 863e b120 0dbf 79be cebb f68c 64be
000002d0: a153 143e c53f 9dbe 7bae d9be 43a0 06be
000002e0: f20a 8a3e 5b03 8bbe e99d 723e 3eda cabb
000002f0: 7db3 c43e e81c 1b3e ec33 603e 21db 243e
00000300: 8a5c bfbd 3a51 613c 3f59 c6be e385 5fbe
00000310: c734 35be 601b 743e 32bb 86be 4cae b43e
00000320: 783e d8be cd00 503d 3bf6 13bd 62f2 b83e
00000330: 40e3 87be e6dd babe 1833 61bd 0a03 bf3e
00000340: 18b7 dd3e 3f95 063e 61c0 7ebe bb30 0f3e
00000350: 44ba a6bd cd94 de3e 9240 febc 0666 b23d
00000360: da4e 7d3d 2769 fdbe ab8d 663e c41e 79bd
00000370: 6de1 15bf 3f6f 93bd 393f c1bc 72ca 33bd
00000380: fa79 3fbe 89b5 d8bc 4b93 15bc 236a b8bb
00000390: 25ff 823c 6dde c73c a406 b03c 24b1 12be
000003a0: bfa1 9b3d d255 f2bd 5a17 85be 46ff b7bd
000003b0: 2b6f 203d be4f a93e 04ac 013d 3ae1 f43d
000003c0: 0c60 51be 928f 9a3e a9ee 673e 26e1 09be
000003d0: 99c0 25be 1eff 233d b345 d8bd aff4 763d
000003e0: b433 0dbe 3308 bdbd 2204 b3be b3d8 463e
000003f0: 12d4 98be c17c 693e c33d 46bd e551 8d3e
0.3246562 -0.07442047 0.26280499 -0.4104142 0.11126782 0.12650797 -0.2029829 0.15406847
0.08376066 -0.24136558 0.22295584 0.21589491 0.024956156 0.083392814 -0.0010578209 0.23483512
0.19007851 0.30648586 0.020975761 0.42545763 -0.09811478 0.1565122 -0.13108544 -0.022052586
0.096092194 0.01778561 0.13770704 0.16066076 -0.14671005 0.49005443 -0.38692516 -0.56753683
0.23952673 0.18627468 0.058740657 0.30928996 0.19278999 0.113762364 0.35682213 0.06301954
0.59171826 -0.11959557 -0.20539181 0.20953412 0.27096462 0.11175139 -0.0830261 -0.08545446
0.02559835 0.09082319 -0.112278685 -0.117120415 0.024947455 0.2728632 0.2676429 -0.1800825
0.034370326 0.25545356 0.015520492 0.19229653 0.24871576 -0.6162244 0.3755436 -0.26290607
-0.1746096 -0.10234469 0.20401293 0.3807213 0.22753306 -0.15395837 -0.02990575 -0.47949946
0.041411366 0.045168273 -0.2145985 -0.28411308 0.23978679 -0.04320203 -0.3887147 0.22444248
-0.37407994 -0.1300627 0.42639652 -0.014789946 0.07235239 -0.12828453 0.008105987 0.21127968
-0.27308765 0.25297335 0.06930254 0.11234208 0.037223738 0.11592535 0.07197298 0.1127204
-0.29179075 -0.2586815 0.010901693 0.2265843 -0.4828859 0.22227778 0.033141915 -0.2477222
-0.2139463 -0.086608395 0.46104622 -0.2623095 -0.51859176 -0.034923926 0.24514762 0.068754494
0.059538968 -0.44950178 0.11318405 0.35988292 0.09501364 -0.023973309 -0.1768108 0.032740485
0.28077683 0.2802303 0.033649266 -0.23759823 -0.06590764 0.37045857 0.31210813 0.24486329
-0.20223069 -0.010200502 0.13904428 0.3434594 0.009191933 -0.017380888 -0.239532 -0.1400199
0.5195897 -0.13043784 0.095015995 -0.38693133 0.45400614 -0.097413115 0.068289466 -0.010339578
-0.029132375 0.2045695 -0.023771264 0.018315667 -0.028875 -0.04376566 -0.17156117 0.25736484
0.007211816 0.26178354 -0.255305 0.102836095 0.1172078 0.23463003 -0.14428176 -0.19469343
0.1703277 -0.24246587 0.2483858 -0.1068217 0.11078621 0.24492566 -0.3759866 -0.035679027
-0.17302957 0.34621722 0.12720422 -0.33302867 0.024872461 -0.1426191 0.06590953 0.069503054
0.26347056 -0.5512801 -0.006309327 -0.22319397 0.14485027 -0.30712715 -0.4251593 -0.13147072
0.26961476 -0.27150998 0.2369305 -0.0061905673 0.3841819 0.15147746 0.21894807 0.16099216
-0.09343822 0.013752276 -0.38739964 -0.21828417 -0.17695914 0.23838568 -0.26314694 0.35289228
-0.4223516 0.050782014 -0.036123496 0.36122423 -0.26540565 -0.3649742 -0.054980367 0.37307006
0.43303752 0.1314287 -0.24878074 0.13983433 -0.08140996 0.434729 -0.031036649 0.08710866
0.061842777 -0.49494287 0.2251498 -0.060820356 -0.585471 -0.07198953 -0.023589717 -0.04389424
-0.18698874 -0.02645375 -0.009129356 -0.005627887 0.015990803 0.024398053 0.021487541 -0.14325386
0.0759921 -0.11832775 -0.25994378 -0.089842364 0.039168518 0.3306865 0.031658188 0.11957021
-0.20446795 0.3018766 0.22649635 -0.13464794 -0.16186751 0.04003822 -0.10560169 0.060291942
-0.13789254 -0.092300795 -0.3496409 0.19418602 -0.29849297 0.22801496 -0.048398744 0.27601543

actor.2.bias f4 [64]
00000000: 94c6 19bc 281a 863c 5b53 613c 90cd 2bbd
00000010: 5033 a23c 5236 af3b 6a15 88bb 75e6 a3bc
00000020: f96b 07bc 8b52 543b aa05 79bc 0af5 a63c
00000030: d3c2 81bb 8ffa eb3b 1a47 833c 21c5 9dbc
00000040: 11a4 cd3c f6dc c13a 9557 223d f28c 32bc
00000050: 7f75 a43a 38ba 98bc 4718 11bc bd65 21bc
00000060: c5e6 60bc f192 b9bb d915 e7bc 899e 20bc
00000070: 6628 8f3c 8945 b23a f9d0 8b3c f8bc 9aba
00000080: 9c9f 833b 1fbd f73c 1e22 8bbc 0dd4 0b3d
00000090: cf23 a1bc 262f 9ebc 798d a9bc 7c80 9cbc
000000a0: e7bd 71bc a07e 093d 5a5c f63a 47d6 25bc
000000b0: 9ce2 1e3c b81c 4e3c d3b0 843b c749 73bc
000000c0: 8f52 4ebd 4193 d6bc 6a21 323d 118e 1ebc
000000d0: ba81 2cbc 019f 983c 3b94 f83b e9b0 e0bc
000000e0: 198c 033d de47 b3bc de8b fdbc fdca fdbc
000000f0: f78f fdbc b7d8 0d3c 7656 13bd ba88 64bb
-0.009385724 0.016369894 0.013752784 -0.041944087 0.019799858 0.0053470517 -0.0041529434 -0.020007351
-0.008265489 0.0032397832 -0.015199104 0.020380516 -0.0039599924 0.0072015 0.016025115 -0.019259037
0.025102647 0.0014790583 0.039634306 -0.010897862 0.0012547224 -0.018643484 -0.008855886 -0.009850916
-0.013726895 -0.0056632687 -0.02820866 -0.009803423 0.017475318 0.0013601045 0.01706742 -0.0011805585
0.0040168297 0.030241547 -0.016984042 0.034137774 -0.019670395 -0.019309592 -0.020697342 -0.019104235
-0.014754749 0.033568025 0.0018795833 -0.0101218885 0.009697583 0.012580089 0.0040493994 -0.014849133
-0.050371703 -0.026193263 0.043488897 -0.009677426 -0.010528976 0.018630506 0.00758603 -0.027428107
0.03211603 -0.021884855 -0.030950483 -0.030980581 -0.030952437 0.008657626 -0.035971127 -0.0034871534

actor.4.weight f4 [4, 64]
00000000: d2c4 16be f00b fbbb 397c e3bd 66d0 0f3e
00000010: a1f9 37be b4c5 c7bd e40d 023e 25f7 233e
00000020: 68e3 f53d aa09 17be 1ab0 e1bb 0d4c 173c
00000030: b274 f13d b0a6 07be 1eea 16be b3e3 073e
00000040: a14e 51bd 2d6e 1ebe 4fbc 123d ee44 ad3b
00000050: a8cd 923d cba5 1e3e 8bd2 e1bd 8c24 2d3d
00000060: b67a 56bd 87f4 e43d 8fd8 323e 7372 1b3e
00000070: 8e9b 15be 387b 1bbe 75f5 0abe c30d 93bd
00000080: db8c 0cbe cc6a 0cbe 9dd8 b9bd 2ab7 2abe
00000090: 3162 c63d f030 0e3e 2f0c a53d 69cc e2bb
000000a0: 7940 6e3d 2d9c 86bd f3a5 e33d 708b ffbd
000000b0: 4d02 8dbd bcd1 27be 683a b53d f256 1f3e
000000c0: a1d5 3a3e 93c1 c43d 8567 2ebe 754f 263e
000000d0: 40c1 a4bd d94c 193d 4ab3 0bbe 36cb 123e
000000e0: fe18 0f3e 12cf 1bbe d98b 243e ffe3 f63d
000000f0: f10f 433e fb24 65bd 392b 303c 6ae1 b83d
00000100: b653 593e 760f 95be efaf 6abe 6b53 7c3e
00000110: 4870 53be 7c0f 9cbd 85c0 34be 5604 813c
00000120: 6923 3fbe 4358 bf3b 22d8 83be ef5d 6bbe
00000130: 820d 903e 5e84 9bbe a8a6 5dbe 5cb8 6d3e
00000140: ca62 6f3e 9758 12be 018e 8a3e 8192 8cbe
00000150: 5330 89be 875a 05be d94b 94bd 9f8b 84be
00000160: 224e e3bd e571 9b3e 4a17 09be 366c 8d3e
00000170: a596 bd3d af25 773d 6c3a f23d 9951 6a3e
00000180: 4204 29be 28a1 8ebe 702d 163e 27e1 123e
00000190: 8fd6 c1bd b34b 793e 5177 903e 16ee 73be
000001a0: b974 7d3e 694c 663e 2267 3e3e 572b 9ebe
000001b0: 4fc2 8fbe 54ed 7fbe 73dd 873e cd88 903e
000001c0: 44ef 6dbc 7b37 8f3e ebe3 8abd c569 47be
000001d0: ce93 fbbd 264b 8e3e 9d01 3a3e 98f8 503e
000001e0: 5632 92bd 3d83 753d c455 933e 3ee2 5d3d
000001f0: e616 943d a839 78be 89c3 90be 2b7b 973d
00000200: fd90 693e 5feb 0b3d f075 553e d3a0 79be
00000210: 7897 8a3e 1700 223e 39c6 6cbe 28c7 87be
00000220: 89f1 67be 9ecf 693e a64f 7e3c 71eb 0ebc
00000230: 5fbe 52be e1ea 693e 88f0 723e 9b07 79be
00000240: 375d f33d 6180 753e 4d26 8bbd 4470 67bc
00000250: 2c2a 02be c432 84be 1b8c 343e 93d5 8cbd
00000260: 1202 7b3d e66c 4bbe b9b8 92be 2efe 83be
00000270: a2d6 7f3e cf19 743e 4988 763e 4f75 1f3e
00000280: b407 643e 25bf 7d3e cf46 263e 00ff 8a3e
00000290: 43ff 31be a061 7abe a432 37be 7696 093d
000002a0: 2405 01be d18a 143e 65f1 36be 4636 5b3e
000002b0: 058f 103e 537d 833e 501d 36be 54b4 80be
000002c0: a782 92be 0be2 45be 56c9 923e acea 79be
000002d0: d77e 063e 91e5 b6bd 412c 713e 4da8 7fbe
000002e0: d983 5bbe 59ad 6d3e e778 8dbe a43c 64be
000002f0: 3bf5 8ebe 49f9 f73d f6e5 d3bc d4a0 0bbe
00000300: 6940 8abe 19bd 993e 2ff8 eb3d 83c5 03be
00000310: 31c0 0ebe d034 a5bd ff1c 8a3e d410 743e
00000320: 58ca 8c3e bc04 5fbe de94 823e 7981 7d3e
00000330: f9d8 5bbe e67a 5e3e 67af 813c 2240 aabd
00000340: 8283 84be c86c 11be 7763 83be 34f3 8b3e
00000350: bba0 943e 91f2 8b3e 1dc6 eabd 011d 923e
00000360: 8962 bd3d 7fee 83be 9651 8d3e 103a 41be
00000370: 01ee 89be d805 88be 8f6f 60be 3c26 89be
00000380: 908e c7bd 4ae2 523e 2565 6ebe 8be8 8fbe
00000390: 9dc3 463e f8eb 8cbd 8ec2 61be fbad 643e
000003a0: b6af 60be 1b14 80be 151d ebbb 607b 5f3e
000003b0: 8fb1 823e 3ea3 eb3b 7e69 66be ef0b 1bbe
000003c0: 0f10 863e d804 6abe 7d6c 6abe ff65 8b3e
000003d0: 3691 103d aa0b 80be 697c 87be a311 9bbc
000003e0: 94d9 6e3e 909a 73be 75bf 21be dcd6 263e
000003f0: c256 833e e375 5d3e 010f 8f3e b73c 233d
-0.14723518 -0.007661335 -0.11107678 0.14044341 -0.1796632 -0.09754506 0.12700611 0.16012247
0.12006265 -0.1474978 -0.006887448 0.0092344405 0.11789836 -0.1324718 -0.14737746 0.13270454
-0.051100377 -0.15471716 0.035824116 0.005287758 0.07168132 0.15492932 -0.11026486 0.042271182
-0.05236312 0.111794524 0.17465423 0.15180378 -0.1461012 -0.15183723 -0.13570197 -0.07180359
-0.13725607 -0.13712615 -0.09074519 -0.16671434 0.09686697 0.13885856 0.080589645 -0.0069213402
0.058166955 -0.06572757 0.11115637 -0.124777675 -0.068852045 -0.16388601 0.08849031 0.15560511
0.18245555 0.09607234 -0.17031677 0.16241248 -0.08044672 0.037426803 -0.13642612 0.14335331
0.13974378 -0.1521571 0.16068973 0.120552056 0.1904905 -0.05594347 0.010752493 0.09027369
0.2122334 -0.29113358 -0.22918676 0.24641196 -0.206483 -0.07620141 -0.17651565 0.015749138
-0.18665852 0.005839379 -0.25750834 -0.22985052 0.28135306 -0.30374426 -0.21645606 0.23214859
0.23377529 -0.14291607 0.27061465 -0.27455524 -0.2679468 -0.13022815 -0.07241029 -0.25887772
-0.11098887 0.30360332 -0.1338779 0.2762162 0.09257249 0.060338672 0.11827549 0.2288269
-0.1650553 -0.27857327 0.1466577 0.14343701 -0.09464752 0.24345283 0.2821603 -0.23821291
0.24751557 0.22490086 0.1859403 -0.3089244 -0.28077933 -0.24992877 0.2653614 0.2822937
-0.014522377 0.27972016 -0.06781753 -0.19473942 -0.12284051 0.2779171 0.18164678 0.20407331
-0.07138507 0.05993961 0.2877637 0.05417084 0.0723093 -0.24240744 -0.2827418 0.07396539
0.22809215 0.034160014 0.20845771 -0.24377756 0.27068686 0.15820347 -0.23122491 -0.26519132
-0.22650732 0.22833106 0.015521919 -0.008723126 -0.20580433 0.22843505 0.23724568 -0.24319308
0.11883014 0.23974754 -0.06794415 -0.014125887 -0.127114 -0.2581998 0.17631571 -0.068766735
0.06128127 -0.1986576 -0.28656557 -0.2577986 0.2498422 0.2383797 0.24075426 0.15572093
0.22268564 0.24779947 0.16237949 0.27147675 -0.17382531 -0.24451303 -0.17890412 0.033590756
-0.12599617 0.1450608 -0.17865522 0.21407422 0.14117058 0.25681552 -0.1778462 -0.2513758
-0.28615305 -0.1932451 0.28669232 -0.24405926 0.13134323 -0.08930505 0.23552038 -0.24966545
-0.21437015 0.23210658 -0.27631304 -0.22288758 -0.2792147 0.12108094 -0.02586649 -0.1363557
-0.27002266 0.30027083 0.11521947 -0.12868313 -0.13940503 -0.08066714 0.26975247 0.23834544
0.27498126 -0.2177915 0.25504202 0.24756421 -0.21469487 0.2172657 0.015830709 -0.083130136
-0.25881582 -0.14201653 -0.25661823 0.27333987 0.29028878 0.273335 -0.11463568 0.28537753
0.0924731 -0.25767896 0.27601308 -0.18869805 -0.26939395 -0.26566958 -0.21917556 -0.26786983
-0.097439885 0.20594135 -0.23280771 -0.28107104 0.19410558 -0.06880945 -0.22046873 0.22331993
-0.21942028 -0.2501534 -0.0071750977 0.21824408 0.2552609 0.007191091 -0.2250118 -0.15141271
0.26184127 -0.2285341 -0.22892947 0.27226254 0.035294734 -0.250089 -0.26462105 -0.018929308
0.23325187 -0.2378943 -0.15795691 0.162929 0.25652128 0.21627001 0.27941135 0.039852824

actor.4.bias f4 [4]
00000000: 2a3e abbc fb6b a4bc 3f9d 3e3d 008c fabc
-0.020903666 -0.02007102 0.04653668 -0.030584335

exp_avg f4 [64, 8]
00000000: d3e7 bbbb af2a 06bd bb97 04bc ac0b 363c
00000010: a969 36bb 31d5 0dba efeb 7a3a 9eca 1e3b
00000020: 0463 80bb 6108 613a 32bf b5ba 4ad4 dbb7
00000030: 2f92 f5b9 fb50 fb38 df62 10b8 ac3a 35b8
00000040: 1fd9 a83b b52e a83c 3793 473c 6d74 49bc
00000050: 4a26 833b c6fc 09ba 325c afba 5274 ebba
00000060: 4fa9 fabb 8d47 03bd a85e 38bc 913e 643c
00000070: b813 81bb 7801 4bb9 4524 ab3a cca6 323b
00000080: 7547 c0b9 d248 33bc 3595 f8bb 8026 c23b
00000090: c26e 21bb 135b c439 9cc2 523a e6f5 7c3a
000000a0: 9200 403b 7f87 c5ba 0e74 243b 6d23 adba
000000b0: a20f 7a3a 4a36 24b9 a7fe 25b9 59c9 b4b9
000000c0: 1ac0 7a3b 88d1 303c 83f8 423b 69c9 cebb
000000d0: b478 0e3a 8142 4238 0212 18ba 6654 50ba
000000e0: 8788 c1bb febb 4dbc 60f2 54ba 0fe8 afbb
000000f0: a8ba eab7 8cae 3b3a d6bf 1fba 0c3f 6aba
00000100: a25a c73b d517 09bc 1bf1 37bc 8fc5 153c
00000110: 5d20 72bb bf51 433a 25de 963a 6a5e ed3a
00000120: 80fd efba 8b9b ca3a 2123 0fba f83a 17bb
00000130: 9cbc bab8 8e24 a339 08fd bfb9 1b87 ccb9
00000140: 0f26 a63b 5942 a1bb 2f84 a63b 0d08 97bb
00000150: fdf5 de3a 651f 9bb8 3710 34ba 29c5 a6ba
00000160: 6fda b5bb 1f58 57bb 0a46 13bc 6304 0e3c
00000170: 5438 3dbb a1a5 52b8 c90b 423a 5fa1 de3a
00000180: fcfb abbb ee81 ccb8 217d fdba 75e6 e439
00000190: 20c3 12ba 28cf 6439 94fd 10b6 e965 1838
000001a0: 0847 1e3b 1c3d d63c 64fe 183c 6bf5 3fbc
000001b0: 4f9c 583b 0527 59b8 6205 c5ba f09d 0cbb
000001c0: 97a5 2e38 9a94 073d 9a61 233c 9a55 69bc
000001d0: 9257 6c3b 5f47 8239 0f68 e1ba 6df3 36bb
000001e0: 045b 02bc 3f8d c8bc 41bd 57bc 34b9 583c
000001f0: 09a1 98bb d824 2639 243a d83a cdd9 2b3b
00000200: d770 5dbb 6524 b53a 7431 0ebb 9e37 b73a
00000210: f96c 5dba 0536 16b9 9fcd 1439 24a7 1c3a
00000220: bcfc a6ba 6ac3 3dbb 8554 09bb 837e 833b
00000230: b2b9 3eba bcbf 6eb9 0a35 013a b372 783a
00000240: fdf3 98ba 0a45 0abc bf21 59ba 48e0 113b
00000250: 5a40 88b9 6674 95b9 96b1 2739 9a96 f239
00000260: 4873 0abb 973e 30bc 3e32 2ebc 7637 3c3c
00000270: 30ff 5cbb 9b16 4c37 c787 a23a 77af 103b
00000280: bc0f 373b 24d9 98bc a714 bbbb 8ffd d63b
00000290: dcb9 feba 8dc3 5739 d0ca 433a 894e a13a
000002a0: d976 6bbb f457 68bc 68bc 04bc 2855 103c
000002b0: 79e6 3ebb d0ce 4eb8 7306 873a b630 f23a
000002c0: 2f9f 1d3b e071 6536 4df7 3d3a 71cd 053a
000002d0: 5b6d 8b39 aa2e 66b9 6544 e738 199d fa38
000002e0: 9e4c 953b d728 debc aebb e7bb 98ef 303c
000002f0: 05ad 18bb 7665 bf39 d5c4 b73a 7897 c93a
00000300: 3f1b 5fbb 52d6 cabc 770c 09bc 5ab0 443c
00000310: 9ece 43bb 79a2 07ba ff82 653a bfd0 2a3b
00000320: 3c1e 86bb bc11 90ba 3772 a1bb 7327 b03b
00000330: 1a6e f1ba d6a2 08b8 f328 2c3a 1d8c a23a
00000340: f36b 75bb 1c32 be3c 01e2 9e3b 23df 25bc
00000350: 3004 eb3a 50b5 dc39 9a43 adba 4adc fcba
00000360: 1ce5 f6ba ff87 fa3c 6e80 183c 9c6c 66bc
00000370: 495c 4f3b 9f5d f338 e3d7 dfba e60f 30bb
00000380: 406f bb3b 45c6 cebc 929a b0bb ff23 243c
00000390: 76c1 05bb c274 bfb8 6935 8b3a 4f07 f03a
000003a0: e852 b4bb c2c6 8c3b d238 dabb e1b5 e53b
000003b0: 1cf2 f9ba 9f3e f139 8369 333a 67a7 353a
000003c0: 081e c6bb 067b ee3c 8a2c c63b d9af 36bc
000003d0: 906e ec3a 67bb 66b9 e40e b8ba 8edb b5ba
000003e0: 803a 3939 3f99 1d3c abd1 a3bb 10f2 f23b
000003f0: 06a7 cdba 7f58 81b9 6c41 703a 9587 af3a
-0.0057344227 -0.03275555 -0.008092816 0.011111181 -0.0027833974 -0.0005410491 0.00095719 0.0024229656
-0.0039180536 0.00085843174 -0.0013866185 -2.620569e-05 -0.00046838957 0.000119836965 -3.4424356e-05 -4.3208405e-05
0.005152836 0.020530084 0.012181095 -0.0122958245 0.004002367 -0.00052638014 -0.0013378917 -0.0017963743
-0.0076495777 -0.032050658 -0.011253037 0.013930933 -0.0039391182 -0.00019360136 0.0013057074 0.0027260063
-0.00036674333 -0.010942655 -0.0075861462 0.0059249997 -0.0024632667 0.0003745189 0.00080398633 0.0009649679
0.0029297215 -0.0015070288 0.0025093588 -0.001320941 0.00095390726 -0.00015660483 -0.00015830492 -0.0003448229
0.0038261474 0.010792144 0.0029750175 -0.006310631 0.0005434856 4.631514e-05 -0.0005801023 -0.00079471467
-0.005906168 -0.012557028 -0.0008123275 -0.0053682397 -2.7981892e-05 0.00071594934 -0.00060939544 -0.00089357863
0.0060838023 -0.008367498 -0.011226918 0.00914134 -0.003694556 0.0007450841 0.0011510296 0.0018109803
-0.0018309802 0.0015457732 -0.00054602517 -0.002307592 -8.9043024e-05 0.00031117018 -0.00036618882 -0.00039010574
0.005070455 -0.0049212393 0.0050816755 -0.004609114 0.0017010566 -7.396824e-05 -0.0006868871 -0.0012723553
-0.005549721 -0.003285892 -0.008988867 0.008668038 -0.0028872686 -5.0222156e-05 0.0007402269 0.0016985348
-0.0052485447 -9.751679e-05 -0.001933966 0.00043659253 -0.0005598534 0.00021820946 -2.1605274e-06 3.6334535e-05
0.0024151225 0.026152186 0.009337995 -0.011716227 0.0033052152 -5.177317e-05 -0.0015031511 -0.0021456443
4.163905e-05 0.033100702 0.0099720005 -0.0142416 0.0036062938 0.00024848708 -0.001719715 -0.002791609
-0.00795627 -0.024481414 -0.01316768 0.01322775 -0.0046578688 0.00015844719 0.001649682 0.0026222349
-0.0033789182 0.001382005 -0.0021696957 0.0013978367 -0.0008446719 -0.00014325239 0.0001419098 0.00059758336
-0.0012740116 -0.0028955587 -0.0020954919 0.004012884 -0.00072755956 -0.00022768875 0.0004928863 0.0009477541
-0.0011669394 -0.008439312 -0.00082829216 0.0022258926 -0.00025987887 -0.00028506218 0.00015992517 0.00046270044
-0.0021125842 -0.01075711 -0.010632096 0.011487832 -0.003372144 1.2164611e-05 0.0012400084 0.0022077241
0.0027932962 -0.018658228 -0.005709249 0.0065609883 -0.0019434053 0.00020576846 0.0007468881 0.001230673
-0.0035928993 -0.014181126 -0.00810156 0.008809365 -0.0029129072 -4.9306836e-05 0.0010301605 0.0018477652
0.002405118 3.4189943e-06 0.00072466285 0.00051041605 0.00026593622 -0.00021951893 0.00011027678 0.00011950191
0.0045562526 -0.027119083 -0.0070719337 0.010799311 -0.0023296487 0.00036505953 0.0014020453 0.0015380224
-0.003404334 -0.024760399 -0.008364788 0.012004936 -0.0029877792 -0.00051740516 0.00087551767 0.0026064364
-0.0040929597 -0.0010991613 -0.0049269455 0.0053757965 -0.0018419654 -3.257658e-05 0.0006567381 0.0012401376
-0.0037448376 0.023217253 0.004848719 -0.010124001 0.0017930325 0.00042096758 -0.0013218999 -0.0019291725
-0.001883659 0.030582426 0.009307964 -0.01406398 0.00316407 0.00011604581 -0.0017077889 -0.0026864945
0.005720049 -0.025241027 -0.00538952 0.010018348 -0.00204095 -9.1293376e-05 0.0010620776 0.0018312725
-0.0055030473 0.0042961547 -0.0066596055 0.007010207 -0.0019069347 0.00046013758 0.00068440306 0.0006929547
-0.0060460605 0.029111397 0.00604779 -0.011150324 0.0018038321 -0.00022004322 -0.0014042524 -0.0013874636
0.00017664768 0.009619056 -0.0049993596 0.00741411 -0.0015690036 -0.00024670732 0.0009165022 0.0013391847
