HFDRL_UNIT8/models/Archived/LunarLander-v3__ppo__1__1768735947__u100.pt (torch, 44753 bytes, 11 tensors)

critic.0.weight f4 [64, 8]
-0.1359012 0.13895655 0.036792934 -0.13465954 -0.059996344 0.14841054 -0.33377656 0.08591716
-0.11936271 0.25799993 0.2415107 -0.18553177 -0.2188892 -0.20126086 0.10900246 -0.11675696
0.038584646 -0.2676024 0.10611584 0.2814011 0.032163773 0.1424185 0.25448292 0.603897
-0.18993227 0.16694759 0.008876063 -0.6882802 0.26698968 0.0026837133 -0.39816388 -0.27498615
0.06867657 -0.16594362 0.49597657 -0.23613553 0.116728954 -0.20660749 0.07584622 -0.29343072
0.032605454 -0.26628137 0.037898555 -0.12387702 -0.009810425 0.23816404 -0.09534075 -0.09108892
-0.26913542 -0.22405908 0.0521898 0.11581638 -0.014619543 -0.25740618 0.4714027 0.20201008
-0.046009805 0.49722344 0.12606867 0.27762476 -0.09064077 0.16527046 0.29129496 0.4049051
0.15865253 -0.011259174 0.43781757 -0.41743532 0.42991892 -0.08876594 -0.13386697 -0.12457527
0.020015288 0.16223374 0.2985712 -0.21877228 0.17123574 0.07988584 0.22690697 0.50847334
-0.0756142 -0.43318588 0.12396198 0.59043366 0.037599698 0.267839 0.30130288 0.09684648
-0.06138938 0.40242332 -0.013895584 -0.07086865 -0.047362033 0.20729066 -0.3243574 -0.056692153
0.06299613 0.3257849 0.095186144 -0.11253251 -0.09273406 0.025880283 -0.18645085 0.04557302
-0.042032436 -0.21819586 0.18332714 0.52825713 -0.011514646 0.03404074 -0.09909353 0.26248667
-0.082662664 -0.12736338 0.13313541 0.4752236 0.13707694 0.013986679 0.15480518 0.15799029
-0.05165687 0.19324014 -0.17860027 -0.47609296 -0.008882849 0.1543467 -0.11586635 -0.242724
0.13146566 0.11022362 0.0054767537 -0.47321 -0.15244219 -0.040197104 -0.1305192 0.19164063
-0.04125214 0.11956043 0.4526722 0.20610179 0.33910838 -0.18670669 -0.10098023 0.044846103
-0.28707045 -0.11812189 0.28882936 0.11904329 -0.18539412 0.10436229 -0.0073372265 -0.07164788
-0.06362447 0.30667052 -0.02887457 -0.26753956 0.03637667 0.18099178 -0.39861882 -0.25219095
0.15682535 -0.10766707 0.13975424 0.3874088 0.08921365 -0.059973415 0.102350995 0.12920117
0.124577366 0.05186714 -0.16797535 -0.44588462 -0.10070735 0.075716004 -0.29193482 -0.18491192
0.109808475 -0.06816167 0.06764962 0.26464567 -0.19197135 -0.16825785 -0.10052738 -0.19234046
0.18754566 0.15182653 -0.10763118 -0.08554052 0.16114353 -0.12868603 -0.017142281 -0.30550435
-0.07677444 0.11393391 0.07748919 -0.33312008 0.034742083 -0.20633969 -0.6222009 -0.20397718
-0.05621917 0.3979866 -0.05719649 0.15159321 0.010475724 -0.18137304 -0.02789481 -0.19298375
-0.067638956 -0.030552976 0.09448204 0.1214148 0.24925505 -0.13458464 0.13306116 0.17955679
-0.029926587 -0.17616178 -0.02344695 0.2325081 -0.24092335 0.21021049 0.17958592 0.36831075
0.23517756 0.09300439 -0.26406604 -0.25542912 -0.12554643 -0.018677596 -0.41981196 -0.15759361
0.1289428 0.43436986 -0.13420984 0.19119386 -0.19590776 0.043386947 -0.026712418 -0.47474363
-0.24000596 -0.17270249 -0.16583823 0.22881961 0.27776098 -0.11444809 0.17397213 0.42367223
-0.17237924 0.44749415 0.1155441 -0.17726126 0.17452352 0.14719291 -0.23058374 -0.32797983
00000000: af29 0bbe a04a 0e3e 30b4 163d 31e4 09be
00000010: babe 75bd eff8 173e c3e4 aabe 56f5 af3d
00000020: 7074 f4bd 9118 843e 954e 773e 0afc 3dbe
00000030: 7e24 60be 5417 4ebe af3c df3d 461e efbd
00000040: ef0a 1e3d 2f03 89be 4353 d93d ce13 903e
00000050: 29be 033d 28d6 113e 964b 823e fe98 1a3f
00000060: 9b7d 42be 4ff4 2a3e e86c 113c 2233 30bf
00000070: dfb2 883e 3de1 2f3b 23dc cbbe fcca 8cbe
00000080: 4da6 8c3d 20ed 29be a4f0 fd3e 83cd 71be
00000090: 970f ef3d ea90 53be 4355 9b3d 8d3c 96be
000000a0: 4c8d 053d 0856 88be 843b 1b3d 3cb3 fdbd
000000b0: e8bb 20bc 46e1 733e 0342 c3bd d48c babd
000000c0: 1ecc 89be be6f 65be f9c4 553d 2331 ed3d
000000d0: cf86 6fbc beca 83be b25b f13e bbdb 4e3e
000000e0: c774 3cbd 1294 fe3e 2518 013e d524 8e3e
000000f0: dea1 b9bd a93c 293e 9d24 953e b94f cf3e
00000100: cf75 223e 6678 38bc a029 e03e 15ba d5be
00000110: 551e dc3e ebca b5bd 6c14 09be 5221 ffbd
00000120: 1af7 a33c 9a20 263e 53de 983e d705 60be
00000130: 6c58 2f3e 309b a33d 4d5a 683e 4f2b 023f
00000140: 9edb 9abd 8aca ddbe c7df fd3d a926 173f
00000150: 2402 1a3d 3222 893e 5f44 9a3e 7357 c63d
00000160: 6e73 7bbd 6e0a ce3e 4eaa 63bc 9523 91bd
00000170: b1fe 41bd 0144 543e 2c12 a6be 0836 68bd
00000180: 1d04 813d 47cd a63e f4f0 c23d 7277 e6bd
00000190: 5beb bdbd e302 d43c f9ec 3ebe c6aa 3a3d
000001a0: 342a 2cbd bc6e 5fbe 1cba 3b3e dc3b 073f
000001b0: eda7 3cbc 4e6e 0b3d 8cf1 cabd a764 863e
000001c0: 0b4b a9bd 8c6b 02be a654 083e 8250 f33e
000001d0: e65d 0c3e 6228 653c 4085 1e3e 35c8 213e
000001e0: 2796 53bd bee0 453e fde2 36be 75c2 f3be
000001f0: 5e89 11bc 100d 1e3e 564b edbd a48c 78be
00000200: ef9e 063e ecbc e13d 5776 b33b 9548 f2be
00000210: ce19 1cbe b8a5 24bd d3a6 05be 713d 443e
00000220: 01f8 28bd 19dc f43d a7c4 e73e 590c 533e
00000230: 9d9f ad3e 0a30 3fbe b9ce cebd 8cb0 373d
00000240: e6fa 92be e4e9 f1bd 71e1 933e f8cc f33d
00000250: f5d7 3dbe e5bb d53d 1e6d f0bb 20bc 92bd
00000260: 8c4d 82bd eb03 9d3e 5d8a ecbc f2fa 88be
00000270: b4ff 143d e955 393e c417 ccbe 2c1f 81be
00000280: d396 203e 8e80 dcbd bc1b 0f3e 725a c63e
00000290: a5b5 b63d afa6 75bd 669d d13d 504d 043e
000002a0: 6b22 ff3d a372 543d bb01 2cbe fd4a e4be
000002b0: a83f cebd fe10 9b3d 7b78 95be 8d59 3dbe
000002c0: 44e3 e03d 5898 8bbd e28b 8a3d a37f 873e
000002d0: 2394 44be c94b 2cbe 4de1 cdbd e6f4 44be
000002e0: f80b 403e 6a78 1b3e bc6d dcbd de2f afbd
000002f0: cf02 253e 45c6 03be f86d 8cbc 116b 9cbe
00000300: eb3b 9dbd 2f56 e93d a7b2 9e3d b78e aabe
00000310: b74d 0e3d b64a 53be 8f48 1fbf 65df 50be
00000320: 1346 66bd e6c4 cb3e de46 6abd 403b 1b3e
00000330: 5fa2 2b3c dbb9 39be a883 e4bc 889d 45be
00000340: 4b86 8abd 3c4a fabc cd7f c13d 53a8 f83d
00000350: b73c 7f3e 8ed0 09be 2f41 083e bcdd 373e
00000360: 9a28 f5bc c163 34be d113 c0bc 9a16 6e3e
00000370: 9cb4 76be 6b41 573e 5fe5 373e 3a93 bc3e
00000380: 63d2 703e 1679 be3d aa33 87be 9bc7 82be
00000390: 3e8f 00be c201 99bc 98f1 d6be 3860 21be
000003a0: 9509 043e ba65 de3e 4e6e 09be 53c8 433e
000003b0: 0b9c 48be 83b6 313d 00d4 dabc 9911 f3be
000003c0: 1fc4 75be ecd8 30be 7fd1 29be b04f 6a3e
000003d0: b036 8e3e c363 eabd c025 323e 91eb d83e
000003e0: 2f84 30be f41d e53e 63a2 ec3d fa83 35be
000003f0: 4bb6 323e bdb9 163e 251e 6cbe f9ec a7be

critic.0.bias f4 [64]
-0.16217038 -0.069341935 0.16760142 -0.16282277 -0.16442859 0.105836906 0.0007920815 0.16932829
-0.20906746 0.0671481 0.23424122 -0.16893682 0.014718056 0.2010418 0.1870009 -0.20772235
-0.008132393 0.10126294 -0.052276783 -0.16724291 0.10026906 -0.05902486 -0.0046848017 -0.16006693
-0.04480863 -0.039640673 0.1488558 0.15892318 -0.112075344 -0.11603735 0.1459531 -0.16366223
-0.17012592 0.08746065 0.1614221 0.14288588 -0.041144595 -0.11966799 -0.05111956 0.12684676
-0.27135986 0.123813726 0.012903082 -0.035865057 -0.06851521 -0.12547864 -0.117215544 -0.13417073
-0.16761862 -0.14788985 -0.07858254 0.045560773 -0.1476714 0.17444415 0.018083263 0.08507805
-0.15371597 0.20509027 -0.09823863 -0.05269675 0.17276062 0.20193902 0.032156173 -0.17791077
00000000: fe0f 26be 2503 8ebd b59f 2b3e 03bb 26be
00000010: f85f 28be 05c1 d83d b1a3 4f3a 6564 2d3e
00000020: c815 56be f184 893d eedc 6f3e c6fd 2cbe
00000030: 0024 713c e7dd 4d3e 2a7d 3f3e 2bb5 54be
00000040: ba3d 05bc f262 cf3d 2e20 56bd ba41 2bbe
00000050: dd59 cd3d 0dc4 71bd f782 99bb 96e8 23be
00000060: 4189 37bd 425e 22bd a86d 183e c2bc 223e
00000070: c287 e5bd fda4 edbd bb74 153e 1297 27be
00000080: 7d35 2ebe 921e b33d d64b 253e ad50 123e
00000090: 3c87 28bd 7e14 f5bd be62 51bd 1ee4 013e
000000a0: aeef 8abe 0d92 fd3d 7367 533c 3de7 12bd
000000b0: b451 8cbd 797d 00be b40e f0bd 0d64 09be
000000c0: 37a4 2bbe 7070 17be e2ef a0bd ef9d 3a3d
000000d0: 2c37 17be 7da1 323e 5a23 943c 673d ae3d
000000e0: b867 1dbe 2f03 523e 5631 c9bd 8cd8 57bd
000000f0: 29e8 303e 1ac9 4e3e 31b6 033d 3e2e 36be

critic.2.weight f4 [64, 64]
0.30635008 -0.49465728 -0.26859254 0.38909546 0.030229777 -0.121985964 0.12164725 -0.3810211
0.12951373 0.31864852 -0.28038535 0.0008029779 -0.054497354 -0.3669816 -0.50216734 0.4180816
0.108923316 -0.16697024 0.005091704 0.25971493 -0.30121765 0.27484557 0.101957195 0.21586902
0.38148496 0.046224408 0.1285478 -0.13385342 0.128926 0.11804978 -0.12299198 0.15310696
0.08321303 0.032344893 0.15873136 -0.09041231 -0.34274626 -0.26776645 -0.1255527 -0.57634175
0.37070978 -0.21563828 -0.022295577 -0.078249864 -0.26014355 0.2299797 0.2022216 0.357456
0.1754553 0.30734894 -0.095227845 -0.038092073 0.16908793 -0.28545284 -0.0757836 -0.042759165
0.19245675 -0.30869696 0.055407986 0.09555632 -0.08659737 0.00048893614 -0.28350654 0.11353987
0.35262856 0.2239048 -0.15331905 0.20820591 -0.0111750085 -0.25484085 0.021165907 -0.22920066
0.11127378 -0.22598335 -0.13735777 0.01226305 0.4773629 0.09573244 -0.35370523 0.4367282
0.039339922 -0.23042445 0.32655635 0.0040919073 -0.06809473 0.23042077 -0.06306064 0.17952721
0.10787048 0.16710673 -0.13642563 -0.22673865 0.32842526 0.33706063 -0.2697254 0.27556416
0.36121666 -0.1185477 -0.074142165 -0.13594207 -0.043643065 -0.13375834 -0.18688859 0.1542623
0.2386636 -0.036659736 0.118989885 -0.101356484 0.07124935 0.2937587 0.40385717 0.025480332
0.5070737 -0.025592202 -0.03148187 -0.012097402 0.10490061 -0.28220144 -0.16080487 -0.29274926
0.35029003 -0.4518453 0.15104827 0.31852716 -0.14306611 -0.22103707 -0.32614258 -0.014413025
-0.25596747 0.07861239 0.35486558 -0.13383251 0.25998732 -0.004417015 0.096207276 0.2534561
-0.37491405 0.3437228 -0.06336889 -0.32244116 -0.09390206 0.46622092 0.41074836 -0.504167
-0.42765117 0.014160081 0.07499432 -0.2318151 0.07330662 -0.23564875 -0.06172464 -0.10364418
-0.2607561 0.07286461 0.50097513 0.3673077 -0.057258885 -0.4285394 -0.103790686 -0.4078381
0.13473468 0.20227967 -0.025352038 0.12778977 -0.06734681 -0.10334255 0.033077154 0.2112054
-0.04951398 -0.31095788 0.31255504 0.05423903 0.035933837 -0.31703764 0.27049404 -0.0014350481
-0.07196868 -0.13903613 0.07176758 -0.015727673 -0.24581908 0.33333355 0.12792453 0.099048726
-0.3318236 0.23524757 0.080591865 -0.2994079 0.31293112 0.28547737 -0.040740304 -0.07263718
0.4065233 0.25312603 -0.32253277 0.48054865 0.048675466 -0.18242086 -0.61226195 -0.15510486
0.27624002 0.07684128 -0.052500907 0.09193227 -0.033056837 -0.062443417 -0.40372866 0.5050909
0.049243405 0.022873376 -0.12251602 0.28308174 -0.43333253 0.37285137 0.2930781 0.30768135
-0.050553054 -0.104527876 -0.35859442 -0.37192205 0.06001009 -0.41290638 0.04127269 0.22631739
0.24056965 0.01660853 -0.089342654 -0.17526314 -0.14114554 -0.2987706 0.08333377 -0.12482003
0.3248087 -0.056382004 0.06311177 0.12619452 -0.15047102 0.5018613 0.025953734 0.13629223
0.40410024 0.19930314 -0.2629832 -0.0653507 0.25985432 -0.39026958 -0.21133704 -0.5393607
0.18155529 -0.47216225 0.11952376 0.25948706 -0.5843768 -0.62616324 -0.21481034 0.057230633
00000000: ebd9 9c3e b843 fdbe f684 89be 8537 c73e
00000010: 70a4 f73c c7d3 f9bd 3222 f93d 3315 c3be
00000020: 3f9f 043e e625 a33e ab8e 8fbe ef7e 523a
00000030: 9e38 5fbd 03e5 bbbe 0a8e 00bf cb0e d63e
00000040: 3013 df3d 3ffa 2abe 4fd8 a63b 5bf9 843e
00000050: 3339 9abe 8fb8 8c3e efce d03d c50c 5d3e
00000060: ff51 c33e ce55 3d3d 09a2 033e df10 09be
00000070: 2d05 043e 15c4 f13d 38e3 fbbd 12c8 1c3e
00000080: 986b aa3d 147c 043d 798a 223e 172a b9bd
00000090: 707c afbe af18 89be e390 00be 228b 13bf
000000a0: accd bd3e 48d0 5cbe 37a5 b6bc 7741 a0bd
000000b0: 8931 85be cc7f 6b3e 2e13 4f3e 7904 b73e
000000c0: 8eaa 333e d75c 9d3e d106 c3bd 6f06 1cbd
000000d0: 6325 2d3e e026 92be 6f34 9bbd 3c24 2fbd
000000e0: 6213 453e 870d 9ebe 7cf3 623d 08b3 c33d
000000f0: f659 b1bd f32b 003a c527 91be 9787 e83d
00000100: bb8b b43e 4d47 653e abff 1cbe ee33 553e
00000110: 6217 37bc 807a 82be 2064 ad3c 94b3 6abe
00000120: 82e3 e33d 2e68 67be 84a7 0cbe f6ea 483c
00000130: e968 f43e 5f0f c43d da18 b5be d79a df3e
00000140: e622 213d 63f4 6bbe 6532 a73e 6815 863b
00000150: 4075 8bbd 6cf3 6b3e f025 81bd fbd5 373e
00000160: 33eb dc3d 071e 2b3e 29b3 0bbe 2d2e 68be
00000170: 5b27 a83e 3693 ac3e 7319 8abe bf16 8d3e
00000180: 64f1 b83e 23c9 f2bd d9d7 97bd 6634 0bbe
00000190: 12c3 32bd f2f7 08be b95f 3fbe f0f6 1d3e
000001a0: 3b64 743e 8528 16bd f8b0 f33d fd93 cfbd
000001b0: 2eeb 913d 8a67 963e 5ec6 ce3e 21bc d03c
000001c0: 95cf 013f bda6 d1bc 22f3 00bd 2e34 46bc
000001d0: 22d6 d63d b57c 90be 08aa 24be 3be3 95be
000001e0: 3759 b33e 4458 e7be 66ac 1a3e fe15 a33e
000001f0: ec7f 12be 8b57 62be 29fc a6be 9c24 6cbc
00000200: 2b0e 83be 88ff a03d f1b0 b53e 640b 09be
00000210: 0f1d 853e 9bbc 90bb 5208 c53d ffc4 813e
00000220: bcf4 bfbe 6ffc af3e 8cc7 81bd 0217 a5be
00000230: b94f c0bd 82b4 ee3e 9c4d d23e 1711 01bf
00000240: 18f5 dabe afff 673c 9f96 993d f060 6dbe
00000250: c821 963d e84d 71be fad2 7cbd 6643 d4bd
00000260: d381 85be 0a3a 953d e83f 003f c10f bc3e
00000270: 4b88 6abd 8469 dbbe 3690 d4bd 28d0 d0be
00000280: e3f7 093e 6722 4f3e 14af cfbc 52db 023e
00000290: 20ed 89bd 42a5 d3bd e97b 073d 3a46 583e
000002a0: 2ccf 4abd df35 9fbe 3707 a03e bf29 5e3d
000002b0: 5c2f 133d c252 a2be 327e 8a3e 3918 bcba
000002c0: 5164 93bd 7d5f 0ebe e2fa 923d 52d7 80bc
000002d0: ffb7 7bbe b2aa aa3e a6fe 023e 0fda ca3d
000002e0: c8e4 a9be bde4 703e 590d a53d fe4b 99be
000002f0: 8238 a03e 172a 923e 4edf 26bd cdc2 94bd
00000300: d223 d03e bc99 813e 0423 a5be 790a f63e
00000310: ed5f 473d 89cc 3abe 33bd 1cbf cfd3 1ebe
00000320: 556f 8d3e f65e 9d3d 310b 57bd fc46 bc3d
00000330: 9b66 07bd abc4 7fbd 86b5 cebe a34d 013f
00000340: 74b3 493d f260 bb3c aee9 fabd 17f0 903e
00000350: c3dd ddbe 60e6 be3e 550e 963e 6988 9d3e
00000360: b810 4fbd b612 d6bd b099 b7be 916c bebe
00000370: 24cd 753d 7768 d3be 8d0d 293d bfbf 673e
00000380: e457 763e 9d0e 883c 48f9 b6bd 2e78 33be
00000390: 7588 10be 76f8 98be e5aa aa3d a5a1 ffbd
000003a0: 534d a63e d1f0 66bd be40 813d 2339 013e
000003b0: 1315 1abe fb79 003f ed9c d43c 3190 0b3e
000003c0: 3ae6 ce3e 1f16 4c3e bca5 86be 96d6 85bd
000003d0: a00b 853e 6ad1 c7be bd68 58be 8b13 0abf
000003e0: a1e9 393e 40bf f1be e0c8 f43d 7ddb 843e
000003f0: b899 15bf 3c4c 20bf 3ef7 5bbe ab6a 6a3d

critic.2.bias f4 [64]
-0.13925901 -0.078477316 0.13579108 -0.17809756 -0.14913209 -0.11219352 0.17417674 -0.102103464
-0.10190235 0.19342986 -0.08932439 -0.11143067 -0.1836929 -0.10653083 -0.089864075 0.18275435
-0.13916239 -0.116654955 -0.11645559 0.09599351 -0.08816214 0.16740134 -0.13936004 -0.18350345
0.07573349 0.097594514 0.14033139 0.12373204 0.09788306 -0.08773318 0.135241 -0.09344815
-0.106488295 0.17077392 0.07278726 -0.10465948 0.0841765 0.1327371 -0.14822416 -0.098276146
-0.20414764 -0.06166808 0.12825523 -0.13455884 0.09973792 0.117778115 0.13270633 -0.096228234
0.09391263 0.23346455 0.14077573 0.0747629 0.14374632 0.14688823 -0.117106505 0.1179191
0.09677184 -0.13900775 0.11899073 0.12579602 -0.09203727 0.21959616 0.12281959 0.055777043
00000000: ea99 0ebe b7b8 a0bd d10c 0b3e 355f 36be
00000010: 15b6 18be b7c5 e5bd 635b 323e 9f1b d1bd
00000020: 2eb2 d0bd 7a12 463e b5ef b6bd c335 e4bd
00000030: fe19 3cbe d62c dabd a80a b8bd f523 3b3e
00000040: 9680 0ebe cbe8 eebd 4580 eebd 3f98 c43d
00000050: 5a8e b4bd 426b 2b3e 66b4 0ebe 54e8 3bbe
00000060: 291a 9b3d a2df c73d 08b3 0f3e 3967 fd3d
00000070: ea76 c83d 74ad b3bd 9e7c 0a3e be61 bfbd
00000080: 8916 dabd 5cdf 2e3e 7d11 953d b657 d6bd
00000090: bb64 ac3d 3cec 073e 13c8 17be 0145 c9bd
000000a0: 140c 51be ab97 7cbd 5755 033e cbc9 09be
000000b0: 6543 cc3d a735 f13d 2be4 073e 4f13 c5bd
000000c0: 4455 c03d 5511 6f3e 8327 103e 4b1d 993d
000000d0: 3c32 133e de69 163e 89d5 efbd 927f f13d
000000e0: 5030 c63d 0c58 0ebe 69b1 f33d acd0 003e
000000f0: 097e bcbd d1dd 603e d688 fb3d 7876 643d

critic.4.weight f4 [1, 64]
0.32767302 0.2569069 -0.27191758 0.32157847 0.22006765 0.48005617 -0.34651557 0.049291763
0.13388197 -0.31184128 0.38226599 0.2974998 0.35589394 0.24474822 0.27601206 -0.29634577
0.3270077 0.36862642 0.30646056 -0.26214403 0.1892824 -0.24181016 0.21261166 0.30053613
-0.29523408 -0.43895152 -0.43342525 -0.5043795 -0.11045963 0.14783135 -0.42878717 0.11088315
0.4891578 -0.3310055 -0.15876052 0.329644 -0.19542298 -0.5043576 0.3669003 0.3114646
0.25863287 0.26317775 -0.28682983 0.39886135 -0.02618124 0.09444716 -0.41282296 0.15495954
-0.05220132 -0.2203303 -0.36010692 -0.26365432 -0.31268978 -0.28731444 0.32551262 -0.46225455
-0.1403706 0.37683672 -0.24436343 -0.38973165 0.25546446 -0.33904696 -0.49796274 -0.4481587
00000000: c2c4 a73e 4d89 833e c838 8bbe efa5 a43e
00000010: 6a59 613e ecc9 f53e 7d6a b1be 29e6 493d
00000020: 5b18 093e a9a9 9fbe 5eb8 c33e e551 983e
00000030: bb37 b63e 479f 7a3e 7451 8d3e a2ba 97be
00000040: 8e6d a73e 9abc bc3e 66e8 9c3e be37 86be
00000050: 3fd3 413e 159d 77be dfb6 593e dfdf 993e
00000060: ec28 97be 41be e0be eae9 ddbe 041f 01bf
00000070: a938 e2bd 1a61 173e fe89 dbbe b416 e33d
00000080: e472 fa3e 8e79 a9be 1e92 22be 19c7 a83e
00000090: f61c 48be 941d 01bf 5bda bb3e 4a78 9f3e
000000a0: 876b 843e 3cbf 863e 5cdb 92be 8e37 cc3e
000000b0: 0a7a d6bc 836d c13d 885d d3be b7ad 1e3e
000000c0: 0dd1 55bd 449e 61be ef5f b8be b3fd 86be
000000d0: e018 a0be e11a 93be 97a9 a63e a1ac ecbe
000000e0: 50bd 0fbe bef0 c03e 683a 7abe e88a c7be
000000f0: 3dcc 823e 9097 adbe f9f4 febe 0f75 e5be

actor.0.weight f4 [64, 8]
-0.05776446 0.021229919 0.22092357 -0.118260756 -0.7199276 -0.22451997 0.06422031 0.22078718
-0.22598359 0.11756566 -0.05963236 0.68823427 0.22655806 -0.08620235 -0.11107583 0.12972029
0.004146456 -0.2942588 -0.069678165 -0.64495677 0.32730374 0.0022117435 -0.33104938 -0.268394
-0.075124405 -0.014840173 -0.22942601 0.014133636 0.5179378 -0.036262427 -0.16586599 -0.23624578
0.12603337 -0.05048747 -0.12463851 -0.15457222 0.34279305 0.20875748 0.21196924 -0.30063477
-0.09981194 -0.24777074 0.08249922 0.4468448 -0.38819692 0.008861673 0.03948491 0.08443509
-0.2787687 0.038458586 -0.11960833 0.13141641 0.120304294 0.1359073 0.14835124 -0.31233862
-0.10933369 -0.19820087 0.25837463 0.4879125 -0.7237424 -0.5399067 0.08544377 0.16382323
-0.20851675 0.14364965 -0.49297386 -0.43653017 0.45669636 0.36909714 -0.53779304 0.07457921
-0.12462804 0.040019315 0.030131659 0.25001344 -0.44852415 -0.42842424 -0.114293344 0.15767962
-0.05266351 0.036726497 -0.017882885 -0.28283635 -0.4630801 0.0017489841 0.24567848 0.15496515
0.025240775 -0.08315685 0.03463707 0.037220184 -0.5802353 -0.32797438 0.12917614 -0.15743497
-0.19156069 -0.12303777 -0.25370196 -0.35841018 0.36147654 0.4240701 -0.020939674 -0.14760914
-0.25962457 0.30877957 0.08697517 -0.010285909 -0.0040161093 -0.074321456 0.23727827 0.024026867
-0.13001645 -0.20341764 0.37973735 -0.5492042 -0.3492228 -0.068970226 0.029819135 0.056452755
-0.16665357 0.07999444 0.07562591 -0.23896009 -0.37838814 -0.15638134 -0.081471 0.10845726
-0.28179386 -0.04161453 0.16558701 0.5982979 -0.2927967 -0.39041817 -0.009602167 0.08833831
0.1638092 0.070184626 -0.18128806 -0.39547274 0.011284465 0.0044850092 0.18366179 -0.17502907
0.043228816 0.09771353 -0.29961085 0.16509108 0.40581453 0.18829921 0.024980057 0.0058669364
0.13828307 -0.02252399 0.21279448 -0.07385045 -0.6395496 -0.4009671 -0.2905956 -0.11669836
-0.027205797 -0.15736778 -0.19368714 -0.08795898 0.10224576 0.24214242 0.055080634 0.16366445
0.09844996 0.02536319 0.10800065 0.24065486 -0.53276676 -0.4315876 0.034843963 0.094450004
0.029349117 0.17284858 -0.15958937 0.683086 0.52006173 0.32398844 0.08633677 -0.04557394
0.2680728 0.16848491 0.17727669 -0.4864027 0.5641988 0.24998176 -0.24937823 -0.03388962
-0.28735822 0.061146934 -0.10037578 0.4053318 -0.19849963 -0.29334155 0.02538278 0.08110486
-0.034008652 0.055699766 -0.13572979 -0.53361696 0.027834956 0.29258773 -0.16149078 0.057774223
0.07897248 0.019605279 0.5616595 0.1736044 -0.33765438 -0.07146335 -0.22343291 0.26819706
0.10314279 -0.1687244 -0.096643336 -0.4471977 0.56275576 0.5131316 0.07933559 0.08054198
0.016473435 -0.24224176 -0.09455026 -0.24351028 0.66419476 0.052822754 -0.16516292 -0.05066028
0.11166773 -0.08303171 0.009653002 -0.8358949 -0.25192776 -0.59296256 -0.07178865 -0.064986
-0.08160829 -0.014170659 -0.04086236 0.58204633 0.50904125 0.18823469 -0.025120007 -0.07330467
0.103394285 0.0076924055 -0.027050635 0.4536007 0.2775587 0.019380044 -0.04123423 -0.24703094
00000000: 6d9a 6cbd 5eea ad3c ca39 623e b232 f2bd
00000010: 2d4d 38bf 90e8 65be f085 833d 0916 623e
00000020: 3e68 67be 44c6 f03d 1041 74bd 1f30 303f
00000030: d6fe 673e dc8a b0bd ba7b e3bd 65d5 043e
00000040: fede 873b 17a9 96be 6db3 8ebd e31b 25bf
00000050: 5b94 a73e e6f2 103b 4e7f a9be f06a 89be
00000060: d3da 99bd 3224 73bc a7ee 6abe c490 673c
00000070: 9297 043f e987 14bd c6d8 29be 6aea 71be
00000080: e40e 013e f3cb 4ebd 7a42 ffbd 2e48 1ebe
00000090: 9282 af3e 85c4 553e 770e 593e cdec 99be
000000a0: 346a ccbd 9db7 7dbe 5af5 a83d d7c8 e43e
000000b0: bfc1 c6be 8d30 113c eeba 213d 4eec ac3d
000000c0: c5ba 8ebe c086 1d3d 36f5 f4bd 0692 063e
000000d0: 1962 f63d 492b 0b3e 63e9 173e d9ea 9fbe
000000e0: 57ea dfbd 2bf5 4abe ae49 843e abcf f93e
000000f0: 2f47 39bf 5337 0abf 25fd ae3d 47c1 273e
00000100: 6a85 55be e518 133e 1267 fcbe e280 dfbe
00000110: 1bd4 e93e 4dfa bc3e ceac 09bf fcbc 983d
00000120: fc3c ffbd 4beb 233d abd6 f63c c301 803e
00000130: f5a4 e5be 6c5a dbbe a112 eabd c476 213e
00000140: b1b5 57bd 866e 163d 217f 92bc edcf 90be
00000150: d618 edbe 2b3e e53a 2493 7b3e 2faf 1e3e
00000160: bec5 ce3c 234e aabd 9adf 0d3d 3174 183d
00000170: 4d8a 14bf 42ec a7be c046 043e a236 21be
00000180: 7c28 44be 3afb fbbd 39e5 81be 8a81 b7be
00000190: 7413 b93e b71f d93e ae89 abbc da26 17be
000001a0: 83ed 84be 5b18 9e3e 0a20 b23d 3b86 28bc
000001b0: 9199 83bb d935 98bd 13f9 723e fed3 c43c
000001c0: 0823 05be b74c 50be ef6c c23e a598 0cbf
000001d0: 55cd b2be 4340 8dbd 4247 f43c 013b 673d
000001e0: 3ca7 2abe 20d4 a33d c2e1 9a3d f4b1 74be
000001f0: 17bc c1be 6e22 20be 45da a6bd d71e de3d
00000200: 4947 90be ff73 2abd a48f 293e 0d2a 193f
00000210: 73e9 95be e4e4 c7be 6852 1dbc b7ea b43d
00000220: 99bd 273e f5bc 8f3d 94a3 39be 677b cabe
00000230: 7ae2 383c fcf6 923b d611 3c3e d23a 33be
00000240: b310 313d 081e c83d 9866 99be a30d 293e
00000250: ecc6 cf3e 82d1 403e faa2 cc3c 6e3f c03b
00000260: 149a 0d3e 3b84 b8bc cce6 593e e83e 97bd
00000270: 86b9 23bf 8f4b cdbe f2c8 94be 8dff eebd
00000280: b1de debc 0525 21be ec55 46be d623 b4bd
00000290: 3a66 d13d 2ff4 773e 3b9c 613d a797 273e
000002a0: 22a0 c93d 77c6 cf3c 722f dd3d 3a6e 763e
000002b0: 6763 08bf 0df9 dcbe 8bb8 0e3d 016f c13d
000002c0: 8f6d f03c 38ff 303e 656b 23be b9de 2e3f
000002d0: c422 053f d0e1 a53e 55d1 b03d bdab 3abd
000002e0: d740 893e 4f87 2c3e 0588 353e c609 f9be
000002f0: 556f 103f 38fb 7f3e 025d 7fbe d8cf 0abd
00000300: 9e20 93be 3575 7a3d d191 cdbd a687 cf3e
00000310: 7d43 4bbe dd30 96be 8cef cf3c 4e1a a63d
00000320: a84c 0bbd 7025 643d c0fc 0abe 1f9b 08bf
00000330: 2206 e43c 0fce 953e d75d 25be aaa4 6c3d
00000340: 53bc a13d 409b a03c ebc8 0f3f 5ac5 313e
00000350: 09e1 acbe 605b 92bd 99cb 64be 2051 893e
00000360: 873c d33d 17c6 2cbe f1ec c5bd 19f7 e4be
00000370: c310 103f 985c 033f b37a a23d 32f3 a43d
00000380: 4cf3 863c 390e 78be 91a3 c1bd c25a 79be
00000390: ab08 2a3f ac5c 583d 7820 29be 2781 4fbd
000003a0: 0db2 e43d 870c aabd a027 1e3c 35fd 55bf
000003b0: adfc 80be 65cc 17bf ed05 93bd 6117 85bd
000003c0: 3f22 a7bd 0d2c 68bc 4a5f 27bd fd00 153f
000003d0: 8750 023f 98c0 403e 79c8 cdbc c220 96bd
000003e0: 62c0 d33d 9310 fc3b 4b99 ddbc 5a3e e83e
000003f0: 2d1c 8e3e e6c2 9e3c 39e5 28bd aef5 7cbe

actor.0.bias f4 [64]
0.0025389558 0.0048345765 0.042571437 -0.0032511456 -0.0014806754 -0.0007385109 -0.004271894 0.048543524
-0.04355535 0.056624837 -0.025492588 0.016567796 0.0040179356 -0.011248168 0.04176377 -0.0362719
0.0067017074 -0.023700176 0.007827552 -0.0018698814 0.01802486 -0.013929358 -0.043132175 -0.0064964797
0.022239057 0.01577772 -0.0023811925 0.037005223 0.038272027 0.00751215 -0.024734307 -0.005992417
0.0055893273 0.008136723 0.01826523 -0.04616191 0.012831067 0.020269606 -0.012353882 0.005983403
-0.017476924 -0.00705194 0.010714695 -0.0116474 -0.018020678 -0.0057569444 -0.014243815 0.0049190973
0.019071952 -0.013629361 -0.011893007 -0.022403775 0.0054331194 0.013947055 -0.0009700093 -0.0054791006
-0.054552186 -0.002832539 0.0061346563 -0.027338183 0.0116190845 0.005543823 0.016520798 -0.031571466
00000000: 9c64 263b 5e6b 9e3b 635f 2e3d 2c11 55bb
00000010: 3913 c2ba a198 41ba 3ffb 8bbb 93d5 463d
00000020: 1867 32bd 72ef 673d d5d5 d0bc 30b9 873c
00000030: e3a8 833b 3c4a 38bc 7d10 2b3d d891 14bd
00000040: ff99 db3b df26 c2bc 223f 003c cf16 f5ba
00000050: dfa8 933c f637 64bc 5dab 30bd 6ce0 d4bb
00000060: af2e b63c 4740 813c c80d 1cbb ca92 173d
00000070: 21c3 1c3d 7b28 f63b 9a9f cabc 0a5c c4bb
00000080: ad26 b73b e44f 053c f7a0 953c 4514 3dbd
00000090: 6539 523c 720c a63c f067 4abc 6c10 c43b
000000a0: c42b 8fbc f613 e7bb b08c 2f3c bdd4 3ebc
000000b0: 1aa0 93bc c0a4 bcbb e45e 69bc 6130 a13b
000000c0: c83c 9c3c af4d 5fbc e3da 42bc 1f88 b7bc
000000d0: 4f08 b23b 3082 643c 3948 7eba 078a b3bb
000000e0: 1d72 5fbd 1ea2 39bb 3a05 c93b 53f4 dfbc
000000f0: f95d 3e3c f5a8 b53b a056 873c 1551 01bd

actor.2.weight f4 [64, 64]
0.34437373 -0.10534804 0.26442486 -0.44603088 0.072664805 0.1492991 -0.29123086 0.1752424
0.06211114 -0.1910586 0.22895822 0.24693629 0.027146993 0.06970186 0.032963887 0.24695157
0.20320103 0.29889154 -0.008898671 0.42887986 -0.074674144 0.17976752 -0.17288221 -0.038119413
0.07902468 0.006789045 0.15168875 0.1634699 -0.15822388 0.51942825 -0.41459894 -0.55591124
0.26399603 0.18588357 0.051865004 0.29514632 0.24157193 0.10484345 0.36412728 0.075207315
0.6165689 -0.14240585 -0.20844817 0.2168178 0.2879156 0.12664641 -0.1110163 -0.075648285
0.0015024019 0.106292725 -0.13879916 -0.12017331 0.012937426 0.28533387 0.29627523 -0.1839545
-0.013223342 0.25508705 0.0111263925 0.1849194 0.25068378 -0.62080246 0.38915154 -0.25073427
-0.20416728 -0.053686734 0.17378645 0.38634735 0.23771045 -0.15700118 0.041213073 -0.48278743
0.024957916 0.022675073 -0.21204653 -0.31833833 0.22469763 -0.029107044 -0.42504755 0.18548723
-0.35492066 -0.1458286 0.44888443 -0.03483676 0.06322863 -0.14988016 0.05811379 0.2174869
-0.26341906 0.22949106 0.093689285 0.11283884 0.049402613 0.07575096 0.11810101 0.118703656
-0.33049518 -0.27015448 0.039286576 0.22970226 -0.55056363 0.22491087 0.02177451 -0.248629
-0.23507641 -0.097532004 0.4786858 -0.25867602 -0.55342877 -0.0034837767 0.2754505 0.092193484
0.057169955 -0.46921498 0.15496577 0.37997818 0.05949458 -0.037154995 -0.18717614 0.067274734
0.32800084 0.2717472 0.031788345 -0.23606613 -0.106659964 0.4084411 0.27295005 0.266053
-0.19364706 -0.034587797 0.17027934 0.3183522 0.013116265 -0.017326 -0.21458778 -0.14571784
0.517788 -0.14236365 0.15527861 -0.39940342 0.48530966 -0.09777517 0.07890818 -0.03213062
-0.051804896 0.20662367 -0.023342177 0.011807125 0.008185172 -0.06361968 -0.17784594 0.25685862
-0.013249644 0.26883715 -0.26687428 0.13470778 0.13986792 0.23038109 -0.13906874 -0.21091914
0.17307281 -0.26232126 0.23911859 -0.13663246 0.11745586 0.23234677 -0.38643095 -0.032111105
-0.19603696 0.3512303 0.13722062 -0.36250725 0.010510127 -0.15504839 0.048279613 0.08747547
0.28515646 -0.5687033 -0.0068195504 -0.20811759 0.16384009 -0.2743049 -0.41786483 -0.11522671
0.25972405 -0.24935675 0.24724337 -0.032927796 0.43494165 0.16998172 0.2216663 0.17288695
-0.10134412 0.032474987 -0.41110274 -0.1891285 -0.18079725 0.24006106 -0.2885164 0.3634891
-0.42227075 0.063102804 -0.09658488 0.37986836 -0.29799035 -0.36842048 -0.059448123 0.39799047
0.4595846 0.12865838 -0.25198066 0.15313661 -0.11763281 0.459714 -0.036267422 0.08353007
0.08422639 -0.50236666 0.23560517 -0.094581425 -0.603513 -0.0526249 -0.037523605 -0.030254224
-0.18316759 -0.007502908 -0.0012107111 0.02684901 0.022546124 0.04199682 0.038531642 -0.1447429
0.10582708 -0.12239888 -0.26929468 -0.056368444 0.055559468 0.34398133 0.042946693 0.09462056
-0.22865258 0.32220516 0.22041212 -0.1548626 -0.17914413 0.008535746 -0.10864764 0.038425688
-0.1319302 -0.11165011 -0.36002526 0.22149946 -0.3489229 0.20220982 -0.045374937 0.26611
00000000: c151 b03e b7c0 d7bd b262 873e 295e e4be
00000010: 49d1 943d dde1 183e 361c 95be be72 333e
00000020: 4068 7e3d dea4 43be 0674 6a3e dedc 7c3e
00000030: 5f63 de3c d9bf 8e3d 2405 073d dfe0 7c3e
00000040: ee13 503e 5008 993e bbcb 11bc 2496 db3e
00000050: c2ee 98bd fa14 383e 0908 31be 1a23 1cbd
00000060: b1d7 a13d a376 de3b 4c54 1b3e a764 273e
00000070: 7105 22be 40f9 043f 5046 d4be 3350 0ebf
00000080: 7d2a 873e 4358 3e3e 6670 543d 6b1d 973e
00000090: a25e 773e 2ab8 d63d e46e ba3e 4b06 9a3d
000000a0: 76d7 1d3f d7d2 11be 7073 55be 7c05 5e3e
000000b0: ac69 933e 99af 013e 845c e3bd 7ded 9abd
000000c0: 3eec c43a 00b0 d93d 5e21 0ebe 6d1d f6bd
000000d0: 7ff7 533c 4817 923e 63b1 973e 925e 3cbe
000000e0: b7a6 58bc c59a 823e 794b 363c 835b 3d3e
000000f0: a059 803e e9ec 1ebf df3e c73e 3e60 80be
00000100: 3a11 51be 9fe6 5bbd 13f5 313e 52cf c53e
00000110: 5e6a 733e ebc4 20be 0acf 283d ea2f f7be
00000120: 8b74 cc3c 13c1 b93c ba22 59be 3efd a2be
00000130: 2317 663e e571 eebc d59f d9be 5df0 3d3e
00000140: 29b8 b5be 1854 15be 2ed4 e53e feb0 0ebd
00000150: 037e 813d 2f7a 19be ba08 6e3d e3b4 5e3e
00000160: ddde 86be b4ff 6a3e 2be0 bf3d 0d18 e73d
00000170: 655a 4a3d 5223 9b3d f1de f13d e71a f33d
00000180: aa36 a9be b051 8abe f6ea 203d 1237 6b3e
00000190: bdf1 0cbf 094f 663e 7560 b23c 9a98 7ebe
000001a0: dfb7 70be dcbe c7bd 4e16 f53e 2f71 84be
000001b0: 82ad 0dbf 1350 64bb d907 8d3e f0cf bc3d
000001c0: 0b2b 6a3d f23c f0be 59af 1e3e 808c c23e
000001d0: 97b0 733d d62f 18bd 1aab 3fbe 56c7 893d
000001e0: baef a73e 7322 8b3e 7f34 023d 52bb 71be
000001f0: 8a70 dabd 311f d13e 1cc0 8b3e 1938 883e
00000200: 6a4b 46be efab 0dbd b55d 2e3e 0fff a23e
00000210: 9ae5 563c 41ef 8dbc e6bc 5bbe 0f37 15be
00000220: c18d 043f c7c7 11be 5b01 1f3e 9b7e ccbe
00000230: 827a f83e 593e c8bd 9d9a a13d 669b 03bd
00000240: 5f31 54bd 2895 533e 1838 bfbc ac72 413c
00000250: 1a1b 063c 094b 82bd 3f1d 36be f982 833e
00000260: 0915 59bc 06a5 893e bfa3 88be d6f0 093e
00000270: 8939 0f3e 05e9 6b3e 0968 0ebe 30fb 57be
00000280: 003a 313e f94e 86be 81db 743e 61e9 0bbe
00000290: b38c f03d 50ec 6d3e 47da c5be ef86 03bd
000002a0: eabd 48be 75d4 b33e 9083 0c3e 8d9a b9be
000002b0: ab32 2c3c 01c5 1ebe d8c0 453d 5726 b33d
000002c0: 0700 923e 8a96 11bf 8976 dfbb c71c 55be
000002d0: b2c5 273e b171 8cbe 61f2 d5be fbfb ebbd
000002e0: 8dfa 843e 6057 7fbe 5e2d 7d3e 4cdf 06bd
000002f0: acb0 de3e b00f 2e3e 7efc 623e 4709 313e
00000300: 828d cfbd 7e04 053d 0f7c d2be e7aa 41be
00000310: ea22 39be 91d2 753e 6cb8 93be 3e1b ba3e
00000320: df33 d8be 0b3c 813d 4bce c5bd 1b7e c23e
00000330: 3192 98be 9ca1 bcbe e07f 73bd 68c5 cb3e
00000340: ac4e eb3e 06bf 033e 9c03 81be d8cf 1c3e
00000350: 78e9 f0bd a25f eb3e 268d 14bd d011 ab3d
00000360: e37e ac3d 1a9b 00bf 7b42 713e e8b3 c1bd
00000370: d47f 1abf 358d 57bd 5ab2 19bd b5d7 f7bc
00000380: 4990 3bbe f4da f5bb b9b0 9eba 74f2 db3c
00000390: a6b2 b83c dc04 2c3d 5bd3 1d3d 7c37 14be
000003a0: debb d83d 44ac fabd fee0 89be 99e2 66bd
000003b0: 5392 633d 521e b03e dfe8 2f3d 6dc8 c13d
000003c0: e723 6abe 13f8 a43e b7b3 613e 4d94 1ebe
000003d0: 8f71 37be 83d9 0b3c a782 debd 4164 1d3d
000003e0: b618 07be d0a8 e4bd 3b55 b8be c1d0 623e
000003f0: 06a6 b2be 1710 4f3e 12db 39bd 923f 883e

actor.2.bias f4 [64]
-0.011165777 0.008619359 0.010346885 -0.03825087 0.026738394 0.021752056 -0.008786939 -0.015173351
-0.012973373 0.014528691 -0.017570924 0.023427783 -0.0038939386 0.00950187 0.011451591 -0.016425956
0.027173279 0.012987681 0.04839746 -0.0061072335 0.0021651282 -0.025059836 0.008470314 -0.016705941
-0.02253557 0.00013338188 -0.031525094 -0.009836402 0.026338322 0.015214335 0.013568652 -0.00019699772
0.013319507 0.028268805 -0.0119595975 0.024530383 -0.0020384635 -0.022816507 -0.02526241 -0.029495554
-0.008163484 0.034706667 -0.013825673 -0.0061850976 0.00382143 0.006012449 0.005225509 -0.010746638
-0.05919561 -0.018249782 0.048636906 -0.0042753685 -0.007436464 0.026040642 0.0069250152 -0.029061316
0.025401102 -0.013683288 -0.03221207 -0.039705563 -0.039015442 0.0055169137 -0.042345427 -0.018874213
00000000: aaf0 36bc 3638 0d3c fb85 293c f2ac 1cbd
00000010: 7a0a db3c 5e31 b23c 18f7 0fbc a699 78bc
00000020: 458e 54bc bf09 6e3c e6f0 8fbc 9feb bf3c
00000030: 7331 7fbb bbad 1b3c 749f 3b3c ba8f 86bc
00000040: 7f9a de3c 48ca 543c 6a3c 463d 301f c8bb
00000050: d3e4 0d3b 494a cdbc 12c7 0a3c e6da 88bc
00000060: 849c b8bc 6ddc 0b39 7520 01bd dc28 21bc
00000070: 77c3 d73c 8c45 793c 0d4f 5e3c 2c91 4eb9
00000080: 103a 5a3c fb93 e73c 30f2 43bc f1f3 c83c
00000090: be97 05bb afe9 babc 1df3 cebc a9a0 f1bc
000000a0: 22c0 05bc 9428 0e3d 1385 62bc 5cac cabb
000000b0: f570 7a3b 1404 c53b bf3a ab3b ab12 30bc
000000c0: 1977 72bd 9180 95bc 7e37 473d 6418 8cbb
000000d0: 95ad f3bb 2f53 d53c 3deb e23b ff11 eebc
000000e0: f915 d03c df2f 60bc cef0 03bd 4da2 22bd
000000f0: a8ce 1fbd 3ac7 b43b 6672 2dbd 189e 9abc

actor.4.weight f4 [4, 64]
-0.14077534 0.023370156 -0.11498181 0.1258621 -0.16335711 -0.07776801 0.124693505 0.16239895
0.116397224 -0.13790542 -0.0066634594 0.00770701 0.11711895 -0.12897873 -0.13803709 0.12951198
-0.036674056 -0.1446058 0.047779888 -0.028921941 0.04104022 0.15582667 -0.09472471 0.04604161
-0.04191766 0.1133895 0.17317857 0.13827674 -0.13417286 -0.14013913 -0.12899135 -0.099908985
-0.124396555 -0.119242564 -0.07747448 -0.15350454 0.06849972 0.12023279 0.073544756 0.005286769
0.020952553 -0.07658703 0.09677396 -0.13382326 -0.036008213 -0.15073182 0.09875625 0.1571421
0.19102575 0.07407455 -0.16159967 0.15546764 -0.0735808 0.04016941 -0.1296622 0.14520858
0.12667748 -0.13928041 0.1419261 0.1011765 0.18458201 -0.05123443 -0.016293205 0.06899014
0.20254111 -0.29655644 -0.21096016 0.24143335 -0.24856657 -0.090195976 -0.13119492 -0.09367134
-0.1833069 -0.013309505 -0.24754345 -0.22704075 0.29582107 -0.33175048 -0.21797618 0.22578548
0.21324252 -0.16319184 0.26892546 -0.28721455 -0.2886929 -0.07424931 -0.08475505 -0.2891078
-0.10910304 0.33094278 -0.098178595 0.268519 0.03585698 -0.020143447 0.08959757 0.18543315
-0.1580848 -0.27487367 0.13197882 0.14093752 -0.1443432 0.2311878 0.28374955 -0.19582476
0.21118474 0.17935675 0.15528333 -0.33111477 -0.27430388 -0.26048008 0.25232953 0.2916023
0.061998744 0.28306156 -0.028449744 -0.18388431 -0.11957254 0.27539685 0.14943153 0.1845705
-0.07859567 0.061731625 0.30641693 0.06846976 0.11426228 -0.2289109 -0.28565893 0.08489887
0.22307774 -0.03927059 0.20093544 -0.23041205 0.26702982 0.15901299 -0.25385368 -0.28530565
-0.25592002 0.23684934 0.007882538 -0.015124959 -0.20429811 0.22103888 0.22129142 -0.23664889
0.10009385 0.23197043 -0.06933974 0.054865327 -0.0724521 -0.27695137 0.16907217 -0.07947427
0.047521144 -0.19717734 -0.30818275 -0.2512125 0.25748459 0.23914117 0.24648598 0.20583728
0.21796837 0.23831339 0.16449101 0.26916486 -0.123472825 -0.22957303 -0.18308942 -0.038424645
-0.024409408 0.18825527 -0.17023529 0.22677161 0.07196224 0.23826091 -0.18671839 -0.24433166
-0.30277592 -0.15362798 0.30376574 -0.23552053 0.12215211 -0.06540326 0.24399805 -0.2518649
-0.20383085 0.22686413 -0.27366048 -0.22703229 -0.27800718 0.108950734 -0.0048327707 -0.12888367
-0.27503887 0.34438747 0.12374075 -0.14712742 -0.0578519 -0.088235356 0.2758879 0.31594485
0.3173304 -0.23533803 0.25371456 0.26581445 -0.21305746 0.22130963 0.07060103 -0.09749829
-0.25226846 -0.086514205 -0.26277876 0.2651184 0.303004 0.29153243 -0.10954555 0.3280736
0.09155975 -0.27336365 0.29249322 -0.17570676 -0.28015903 -0.25855577 -0.19908518 -0.26230234
-0.08497267 0.20265014 -0.2522589 -0.29129544 0.22559431 -0.07124438 -0.19969824 0.22347741
-0.22248171 -0.24273524 0.013946865 0.19847131 0.26600507 0.09185445 -0.2084702 -0.16516973
0.25191253 -0.24046953 -0.26038858 0.2729432 0.04288904 -0.26575917 -0.26338175 -0.03811342
0.24827036 -0.25714266 -0.17611031 0.16831364 0.23036122 0.2120142 0.29462382 0.03748686
00000000: 6927 10be c572 bf3c 957b ebbd ffe1 003e
00000010: 1647 27be d644 9fbd 4f5f ff3d e94b 263e
00000020: ab61 ee3d 1437 0dbe 2659 dabb 168b fc3b
00000030: 0fdc ef3d 0013 04be 9859 0dbe ca9e 043e
00000040: 8937 16bd 8b13 14be d8b4 433d b5ed ecbc
00000050: ca19 283d 0791 1f3e 07ff c1bd 2196 3c3d
00000060: dab1 2bbd c138 e83d b955 313e 6b98 0d3e
00000070: 9c64 09be a280 0fbe 4f16 04be 159d ccbd
00000080: 9fc3 febd 7235 f4bd f1aa 9ebd 4b30 1dbe
00000090: 9549 8c3d 9c3c f63d a29e 963d a23c ad3b
000000a0: b0a4 ab3c a9d9 9cbd 6d31 c63d f708 09be
000000b0: 597d 13bd 7159 1abe b840 ca3d dce9 203e
000000c0: 419c 433e 66b4 973d 627a 25be e932 1f3e
000000d0: 88b1 96bd ae88 243d 2bc6 04be 8fb1 143e
000000e0: beb7 013e 869f 0ebe 1355 113e a035 cf3d
000000f0: 1103 3d3e 32db 51bd 5479 85bc b44a 8d3d
00000100: f066 4f3e 3fd6 97be f105 58be 4e3a 773e
00000110: 3c88 7ebe abb8 b8bd f657 06be c2d6 bfbd
00000120: ceb4 3bbe 1c10 5abc 087c 7dbe 5f7d 68be
00000130: dc75 973e 33db a9be 2635 5fbe 4f34 673e
00000140: 3f5c 5a3e c31b 27be 99b0 893e c90d 93be
00000150: 8ecf 93be 0610 98bd 0e94 adbd f005 94be
00000160: 6a71 dfbd 5571 a93e dc11 c9bd 537b 893e
00000170: c5de 123d df03 a5bc ee7e b73d 30e2 3d3e
00000180: fbe0 21be 3ebc 8cbe 7525 073e ed51 103e
00000190: b4ce 13be 7fbc 6c3e 9f47 913e 4986 48be
000001a0: d040 583e 4ca9 373e 9802 1f3e e087 a9be
000001b0: 8f71 8cbe a55d 85be 5631 813e e64c 953e
000001c0: 65f2 7d3d 72ed 903e 700f e9bc 2b4c 3cbe
000001d0: 73e2 f4bd d100 8d3e 9404 193e 0d00 3d3e
000001e0: c4f6 a0bd 4dda 7c3d aee2 9c3e e039 8c3d
000001f0: 5802 ea3d 9e67 6abe e341 92be 75df ad3d
00000200: 7e6e 643e 33da 20bd 05c2 4d3e 23f1 6bbe
00000210: 22b8 883e 4dd4 223e 1cf9 81be 9513 92be
00000220: f307 83be a288 723e c325 013c adce 77bc
00000230: 8633 51be 0458 623e 389a 623e 1654 72be
00000240: 01fe cc3d a889 6d3e fe01 8ebd 77ba 603d
00000250: c461 94bd 92cc 8dbe 4121 2d3e 68c3 a2bd
00000260: 88a5 423d dbe8 49be 21ca 9dbe ed9e 80be
00000270: 05d5 833e 6ce1 743e d266 7c3e 02c7 523e
00000280: 1a33 5f3e 6d08 743e 5570 283e facf 893e
00000290: 52df fcbd 3115 6bbe cb7b 3bbe 2963 1dbd
000002a0: 3df6 c7bc fdc5 403e 2952 2ebe d136 683e
000002b0: f060 933d abfa 733e 1b33 3fbe 1432 7abe
000002c0: 7205 9bbe a750 1dbe 2f87 9b3e 4b2c 71be
000002d0: e32a fa3d 25f2 85bd a0da 793e 70f4 80be
000002e0: 09b9 50be 124f 683e 3a1d 8cbe 277b 68be
000002f0: f556 8ebe 9021 df3d 385c 9ebb 15fa 03be
00000300: e5d1 8cbe 8e53 b03e ca6b fd3d 92a8 16be
00000310: 1df6 6cbd bdb4 b4bd 2e41 8d3e 86c3 a13e
00000320: 2179 a23e 74fc 70be e0e6 813e d518 883e
00000330: bc2b 5abe fe9e 623e 4697 903d 2fad c7bd
00000340: 5529 81be 5c2e b1bd f08a 86be 99bd 873e
00000350: 5723 9b3e bd43 953e 6b59 e0bd 43f9 a73e
00000360: ae83 bb3d 52f6 8bbe acc1 953e 79ec 33be
00000370: 0171 8fbe 6c61 84be fcdc 4bbe 7e4c 86be
00000380: 2706 aebd 8583 4f3e 1428 81be ad24 95be
00000390: 3202 673e 93e8 91bd b27d 4cbe 43d7 643e
000003a0: 3fd2 63be 968f 78be 6481 643c 103c 4b3e
000003b0: d131 883e 301e bc3d 3679 55be 4122 29be
000003c0: aefa 803e a53d 76be a751 85be 36bf 8b3e
000003d0: 6bac 2f3d 9611 88be f9d9 86be d11c 1cbd
000003e0: 963a 7e3e 34a8 83be 4356 34be 695a 2c3e
000003f0: d0e3 6b3e 401a 593e efd8 963e d28b 193d

actor.4.bias f4 [4]
0.011180087 -0.04435958 0.05919727 -0.052840058
00000000: af2c 373c 64b2 35bd d678 723d d16e 58bd
