HFDRL_UNIT8/models/Archived/LunarLander-v3__ppo__1__1768735599__u140.pt (torch, 44753 bytes, 11 tensors)

critic.0.weight f4 [64, 8]
000000 12 8b 16 be d1 f2 57 3d ab 38 1c 3d 9b 5b 16 3d
       -0.14701489 0.052721802 0.03813998 0.036708456
000010 fb 85 5a bd 64 ff 0e 3e b2 f4 90 be a4 01 0d 3e
       -0.05335043 0.13964611 -0.28311688 0.13770157
000020 1b c5 39 be f8 cb 7a 3e 39 4c 81 3e ee 03 16 be
       -0.18141596 0.2449187 0.25253466 -0.14649937
000030 cf cd 3d be ab 15 72 be f2 d5 2a 3e c2 13 5f bd
       -0.18535541 -0.23641078 0.16683176 -0.054462202
000040 d4 c6 b1 bc 19 71 7f be 2f 8c f5 3d 9a 6d 48 3e
       -0.021701254 -0.24945487 0.119896285 0.1957306
000050 99 09 82 3c 36 20 cd 3d cc 1b de 3d 8a 9b d4 3e
       0.015873717 0.100159094 0.108451456 0.41524917
000060 24 50 49 be c3 07 e6 3d 9e ab 7d bc d9 6c f1 be
       -0.19659477 0.11231949 -0.015482811 -0.47153357
000070 a7 5c 88 3e 40 ba 17 bb 38 ee 3f be 78 2c bf bd
       0.26633188 -0.0023151785 -0.18743217 -0.093346536
000080 a8 03 50 bc 6f 7f a4 bd b4 1d 44 3e 4e 8b bf 3d
       -0.012696184 -0.080321185 0.19151956 0.09352742
000090 3d 3a 6d 3c 28 b1 ee bd cb ff 83 3e 20 26 e5 bd
       0.014479217 -0.116548836 0.25781092 -0.111889124
0000a0 d7 fa 34 bd 95 70 77 be df 2e bf bc d7 62 aa bd
       -0.044184532 -0.2416404 -0.02333778 -0.083196335
0000b0 6b f9 62 bd a1 39 8d 3e d0 46 55 be 52 f9 5c be
       -0.055413645 0.2758303 -0.20827794 -0.21579483
0000c0 a9 63 97 be 48 88 26 be 00 c2 d0 bc 1e 4d f6 bc
       -0.29568222 -0.16262925 -0.025483131 -0.03006607
0000d0 1c d9 85 bd f0 56 4d be 23 3f dc 3e 2a 14 3b 3e
       -0.06535551 -0.20052695 0.4301692 0.1826941
0000e0 73 e3 94 bd 6e 56 ff 3e ad 64 0c 3e 61 20 c5 3d
       -0.07269945 0.49870628 0.1371028 0.096253164
0000f0 c8 ad 73 bd fd 63 2d 3e 42 dc 8a 3e 48 e9 c2 3e
       -0.059491903 0.16932674 0.27121168 0.38068604
000100 b4 1b 1b 3e 55 b3 a7 bd dd a6 81 3e 78 fc 1f be
       0.15147287 -0.08188502 0.2532262 -0.15623653
000110 75 36 ab 3e b5 0b ed bc 81 70 1e bd 1a 83 2a bd
       0.33439985 -0.028936246 -0.03868151 -0.041628934
000120 47 5b 02 3b 3a 59 58 3e 56 f3 9b 3e a6 ed 92 be
       0.0019890831 0.21127787 0.30459088 -0.28696936
000130 0d 00 4f 3e 49 14 9b 3d 0c ae 79 3e 8a 40 06 3f
       0.20214863 0.075722285 0.243828 0.5244223
000140 10 81 6e bd 2a 2e cf be b0 60 18 3e 6a 38 9e 3e
       -0.058228552 -0.40464908 0.14880633 0.30902416
000150 02 ba 1a ba 95 b9 8a 3e 63 4a f6 bd 00 28 98 be
       -0.0005902351 0.27094713 -0.12025907 -0.29718018
000160 0c d8 90 bd 83 17 c6 3e 83 8c 9d bd 5d 4d 23 3d
       -0.07072458 0.38689813 -0.07692816 0.0398687
000170 9f 6b ad bd 59 07 5b 3e e5 00 78 be 5f f3 92 3c
       -0.08467793 0.21389522 -0.24219091 0.017938314
000180 70 b5 c7 bc 6a 1c 87 3e 97 10 93 3d ff c1 a7 bd
       -0.024378508 0.26388866 0.07180899 -0.08191299
000190 54 57 af bd da 63 82 3c 94 6f e6 bd e3 c3 fc 3d
       -0.085615784 0.015916754 -0.112517506 0.1234205
0001a0 c7 fd 2c bd d7 17 28 be 20 1a 46 3e 20 8b a8 3e
       -0.04223421 -0.16415344 0.19345903 0.32918644
0001b0 04 77 01 bd 28 de fd 3c 5c 37 88 be dc 68 fd 3d
       -0.031607643 0.030989721 -0.26604736 0.12373516
0001c0 1b 47 8e bd c9 f6 31 bc 57 16 23 3e c9 03 83 3d
       -0.06947156 -0.010862061 0.1592649 0.06397206
0001d0 1f 45 94 3d 56 7f d9 3c 07 50 cb bd 58 62 93 bd
       0.07239746 0.026549976 -0.099273734 -0.07196492
0001e0 39 ce 7b bd 9b e8 00 3e 99 87 80 be 9f d6 42 be
       -0.061475966 0.12588732 -0.25103453 -0.19027184
0001f0 ca 75 50 bd bf b0 1a 3e f0 85 c1 3d 29 60 45 bd
       -0.050893582 0.15106486 0.09449375 -0.04818741
000200 46 5d ed 3d 7b d2 b9 3d a4 0b 12 3d 90 95 d4 be
       0.11590056 0.09073349 0.035655633 -0.41520357
000210 81 ff 01 be 32 91 8a bd fd a3 ee bd 18 ba 58 3e
       -0.12695123 -0.06765975 -0.11652372 0.21164739
000220 81 8b 04 be e3 c0 ef 3d b9 4b a2 3e c1 4d b9 3d
       -0.12943842 0.11706712 0.31698397 0.090480335
000230 3d ad 92 3e 19 de 46 be 77 20 8a 3d ec 74 83 3e
       0.28647795 -0.19420661 0.067444734 0.25675142
000240 cd 48 9e be cb ad 36 be 5d 94 83 3e ab a9 27 3e
       -0.30914918 -0.17839734 0.2569913 0.16373317
000250 49 ea 39 be 6b d6 db 3d e8 78 34 bc 84 a3 a2 bd
       -0.18155779 0.10734256 -0.011015154 -0.079413444
000260 bb a9 58 bd ee a0 91 3e 07 ea 77 bd 32 37 04 be
       -0.052896243 0.28443092 -0.06052592 -0.1291168
000270 67 bc 11 3d 2f f1 45 3e f4 a4 9a be 52 f1 34 be
       0.035580065 0.19330285 -0.30203974 -0.17670181
000280 ab e3 5a 3e 9e cf 3a bc 99 70 31 3e 0d 20 5a 3d
       0.21375911 -0.011402039 0.17328109 0.053253222
000290 4d b0 92 3d fe 2b 88 bd f2 f9 08 bc 0c 9c 52 3c
       0.07162533 -0.06649016 -0.008360373 0.012854587
0002a0 16 31 da 3d 71 ab f8 3c 4b e3 44 be 9a cd 56 be
       0.10653894 0.030355187 -0.1922733 -0.20976868
0002b0 56 72 9c bd f8 67 b4 3d 43 35 3d be 62 c5 9d bd
       -0.07638995 0.08808893 -0.18477349 -0.077036634
0002c0 15 16 3c 3e 48 ae 2b bc ef de d0 3d f7 e7 6a 3e
       0.18367799 -0.010478564 0.10198771 0.2294005
0002d0 5e ba 45 be 06 5d 2d be 1f 35 ff bd 6c 43 5e be
       -0.19309375 -0.16930017 -0.12461304 -0.21705407
0002e0 56 f7 61 3e 7b 45 7f 3d c0 13 ce bd d2 21 b7 3d
       0.22067007 0.06232212 -0.10062361 0.089419976
0002f0 2c ac 2a 3e 5f 08 ec bd 6a 2b 78 3c 07 b5 91 be
       0.16667241 -0.11525034 0.0151470695 -0.28458425
000300 6d 03 71 bd 98 78 90 3d f9 95 d1 3d 78 ec 9f bd
       -0.058841158 0.070542514 0.10233683 -0.07808775
000310 6a 45 6b 3d 5a 72 42 be 52 d8 16 bf 05 bb 26 be
       0.057439245 -0.18988934 -0.5892383 -0.1628228
000320 8f 86 a5 bd fa 96 92 3e 4d 5a fe 3c 00 61 71 3d
       -0.08082306 0.2863081 0.031048918 0.058930397
000330 cf 60 3f 3d 7c e7 52 be f2 52 9e 3d 3e bf 87 bd
       0.046723183 -0.20596117 0.07730664 -0.066282734
000340 a8 e9 c3 bd 84 d4 1e 3d f5 fc 9e 3d 23 94 c4 bc
       -0.09566051 0.03877689 0.077630915 -0.023996418
000350 3a 05 79 3e 43 33 0d be 24 37 dc 3d 01 a1 25 3e
       0.243184 -0.13789086 0.10752705 0.161747
000360 83 eb 69 bd 45 de cd bd 96 e4 d6 bc 65 ed 82 3c
       -0.057109367 -0.1005216 -0.026232045 0.01598234
000370 8a d0 85 be 6b 75 52 3e 59 f7 fb 3d 4d 89 a0 3e
       -0.26135665 0.20552604 0.12303037 0.31354752
000380 f6 a2 90 3e 8b f0 b6 3b 8b a0 8d be ff d7 4f bb
       0.2824933 0.005582874 -0.27661547 -0.0031714437
000390 03 a4 03 be 40 ee 57 bc 52 0d c3 be 17 57 ee bd
       -0.12855534 -0.013179362 -0.380961 -0.11637705
0003a0 10 8a ef 3d 5f 80 cc 3e e9 e6 4a be f7 f5 a8 3e
       0.11696255 0.3994169 -0.19814648 0.33000156
0003b0 76 13 59 be ab 61 84 3d a1 e2 33 3c 33 15 d9 be
       -0.2119883 0.06463941 0.0109793255 -0.42398986
0003c0 3e fd 80 be eb c4 a7 bd db 86 2e be e2 be 15 bd
       -0.25193208 -0.08191856 -0.17043631 -0.036558993
0003d0 e5 c7 55 3e 4d 32 ea bd a1 19 f0 3d 54 fd b4 3e
       0.20877035 -0.11435375 0.11723638 0.35349524
0003e0 46 d7 f1 bd d8 51 f3 3e 5e b4 14 3e d3 75 49 bd
       -0.11808638 0.4752338 0.1452193 -0.04918463
0003f0 77 ce 49 3e c7 99 16 3e a5 9c df bd f1 3e 59 be
       0.19707666 0.14707099 -0.109185494 -0.21215416

critic.0.bias f4 [64]
000000 02 fb 05 be f8 e7 06 3e 5c f2 51 3c c3 71 b0 bd
       -0.13084033 0.13174427 0.012814131 -0.08615448
000010 2d 97 aa 3d 35 9e 30 ba 54 fa 15 3c ee ab 21 3e
       0.08329616 -0.0006737442 0.009153921 0.15788242
000020 12 0d 00 be 3e 8f 0e 3e cb f1 26 bd bf a0 b7 bd
       -0.12504986 0.1392183 -0.040757935 -0.08966207
000030 4e a6 07 3e 63 7c e5 3d 50 e5 7c bc 39 7b 0a be
       0.13247034 0.112053655 -0.015435532 -0.13523568
000040 fa dc 06 3e 9f 3e 7e 3d 52 bc 0c be 77 27 bb bd
       0.13170233 0.06207144 -0.13743713 -0.09138387
000050 7d bc 0a be 1f 66 97 3d 61 6d d1 bd 68 51 11 be
       -0.13548465 0.07392525 -0.102259405 -0.1419121
000060 bc 4c 20 bd 43 6f 5a bd 1d b9 07 3e 27 20 ff 3d
       -0.03913568 -0.053328764 0.13254209 0.124573044
000070 2f bf e5 bd aa f3 f4 bd 8e 7b 0e 3e 03 78 68 bd
       -0.11218106 -0.11960538 0.1391432 -0.056755077
000080 a9 bc e3 bd 35 83 03 be 42 9a 1f 3e bd d0 08 3e
       -0.111199684 -0.1284302 0.15586188 0.13360877
000090 d6 71 09 be b1 48 07 be 70 79 02 be e3 02 f0 3d
       -0.13422331 -0.13211323 -0.12741637 0.117193006
0000a0 91 7f fb 3d f0 c4 04 3e 00 4e 01 be 51 06 ac bc
       0.12280191 0.1296575 -0.12627411 -0.020999106
0000b0 03 1a 16 be 60 52 23 bd 45 20 68 bd 48 d5 07 be
       -0.1465836 -0.03987348 -0.0566714 -0.13264954
0000c0 24 cb 07 be fd da bf bd e3 4d f6 bd 17 12 f0 3d
       -0.13261086 -0.093679406 -0.120265745 0.117222
0000d0 b4 91 f7 bd 1c c1 c1 bd e5 28 d9 bd c7 51 21 be
       -0.120883375 -0.09460661 -0.10603503 -0.15753852
0000e0 dc 21 1e be 9a 6e a0 bd 41 0e 16 be f4 f6 43 bd
       -0.15442604 -0.078335956 -0.14653875 -0.047842935
0000f0 fe 3e 01 be b9 c1 ed bc 54 f8 0a be 09 2e 05 be
       -0.12621686 -0.029023038 -0.13571292 -0.13005842

critic.2.weight f4 [64, 64]
000000 85 86 40 3e fd 89 0c bf fb 72 12 be 46 17 45 3e
       0.18801315 -0.54898053 -0.14301674 0.1924716
000010 4c 22 c5 bd 7e ce de bd fc 1d 10 3e 31 1d b7 be
       -0.09625682 -0.10879229 0.14073938 -0.3576446
000020 68 d9 15 bd c6 c0 96 3e 4c 67 14 be 58 54 96 bd
       -0.036584288 0.2944395 -0.1449253 -0.07340306
000030 ba fa bc bd b0 ca 2b be 1e b6 26 be b1 1d 2b 3e
       -0.0922751 -0.16776538 -0.1628041 0.16710545
000040 92 28 9e 3c 2d d8 22 be 66 be 4a 3d 44 74 0a 3e
       0.019306455 -0.15902777 0.049497984 0.13520914
000050 8a 44 9d bd 6a 15 8f 3d f1 e4 2c 3e 37 5f e9 3d
       -0.076790884 0.06986506 0.16884209 0.11395114
000060 36 dd 8f 3e 22 f0 ff 3d 84 1c 45 3e e1 d8 7c 3c
       0.28098458 0.124969736 0.19249159 0.015432567
000070 3b d2 7c 3c e2 86 1a 3e e7 ba fa 3b 35 6c aa 3d
       0.015430982 0.15090516 0.007651675 0.0832142
000080 91 4b 96 bd ac b5 45 3e 9a 55 3c 3e 98 ad a8 bd
       -0.07338632 0.19307584 0.1839203 -0.082362354
000090 79 75 a4 be 2f e0 83 be 49 71 9c bd cc d4 03 bf
       -0.32120875 -0.25756976 -0.07638795 -0.5149658
0000a0 00 55 38 3e 0d 00 4a be 34 a0 41 3d 4e ea c1 bd
       0.18001175 -0.19726582 0.047271922 -0.09468518
0000b0 d2 96 7f be 68 a4 e6 3d 31 3d 91 3d 50 84 97 3e
       -0.24959877 0.11261827 0.070917495 0.29593134
0000c0 81 63 b2 3c c9 4c 43 3e 37 54 72 bd ea 15 a9 bd
       0.021775963 0.1907226 -0.059162345 -0.08256133
0000d0 22 52 b6 3d 6d 15 ea bc 59 22 f2 3b 46 6a 28 3e
       0.08902384 -0.02857467 0.0073893485 0.1644679
0000e0 4f c1 28 3e 60 bb be bc a8 b9 97 3d cf bc 51 bc
       0.16479991 -0.023282707 0.07408458 -0.012801363
0000f0 73 02 82 3e 0c ae ab 3e 99 0c 73 be ff 0b 83 3d
       0.25392494 0.33531225 -0.23735274 0.063987724
000100 e7 d3 9f 3e 22 0d 9f 3d 2b 41 29 3d 06 fe 05 3d
       0.31216356 0.07766177 0.041321915 0.03271296
000110 fc f2 04 be e4 3e 10 be 37 66 ec 3d 6d 6a 9a be
       -0.12983316 -0.14086491 0.115429334 -0.3015932
000120 b0 b3 00 3c 81 cc af be 85 c1 73 3d de d3 d6 bd
       0.007855341 -0.34335712 0.059510726 -0.10489629
000130 a0 d1 af 3e 6a ca 93 3e 21 61 4c bd 02 92 6c 3e
       0.3433962 0.28865367 -0.049897317 0.23102573
000140 65 42 e6 bd bc fa a4 be c7 2d eb 3e fd 02 10 be
       -0.112431325 -0.32222545 0.45933363 -0.1406364
000150 55 7b fe 3d 02 5f 9c 3b 6a 7e e5 3c 00 9b 0a 3e
       0.124258675 0.004772068 0.02801438 0.1353569
000160 6d ed 67 bd 1d d2 b6 3d d6 cd 26 be 8e 83 a2 bd
       -0.05662291 0.08926795 -0.16289458 -0.07935248
000170 2c 73 8f 3e 53 16 94 3e 8b ba f9 bd 1f 5a 18 3e
       0.28017557 0.28923282 -0.121937834 0.14878128
000180 9c f5 30 3e 5c 81 12 3e cc dd 16 be bf e0 68 be
       0.17281193 0.14307159 -0.14733046 -0.22741984
000190 d2 2c 98 3d e2 29 1b bd cf a5 6f bd b4 db 2d 3e
       0.07430424 -0.03788174 -0.058507737 0.16978341
0001a0 53 30 0d 3a 09 7f f4 bd cb c5 89 3e a0 79 ef bc
       0.0005385924 -0.119382925 0.26908717 -0.0292328
0001b0 8c 72 41 3e 92 85 b5 3d 1f 02 86 3e 1e 5f 55 3d
       0.18891352 0.08863367 0.26173493 0.052092664
0001c0 47 4e cf 3e 73 82 e7 bd 86 ad ad 3d 9b 82 1b be
       0.40489408 -0.11304178 0.084803626 -0.15186541
0001d0 52 1e ef 3d 35 a9 a7 bc a3 9a b5 bc e4 1a 10 bd
       0.11675705 -0.020466426 -0.022168463 -0.035181895
0001e0 05 d4 d0 3e e2 2e 03 be 0b 74 81 3e f2 1c 37 3e
       0.40786758 -0.12810853 0.25283846 0.17882136
0001f0 90 a1 47 3e b7 8f bf 3d ea 5b 51 be 74 ce 10 3d
       0.19495225 0.09353583 -0.20445219 0.03535314
000200 7d 25 19 be 05 17 2c 3e 9f 99 3e 3e 9d 32 95 3d
       -0.14955707 0.16805656 0.1861329 0.07285044
000210 ee 09 bd 3e b8 84 5e bd 41 6c 8c 3d ed ab 82 3e
       0.36921638 -0.05432579 0.06856585 0.25521794
000220 78 98 87 be c5 8b c2 3e ef 1d 5b be 27 ef 70 be
       -0.26483512 0.3799726 -0.21398138 -0.2352873
000230 9e d9 0d bd 44 0b 86 3e 51 cd 85 3d 05 eb 82 be
       -0.034631364 0.2618047 0.065333016 -0.2556993
000240 2d 4e a8 be af e9 ae 3c 7b a9 03 3d 2d eb ce bd
       -0.32872143 0.021351663 0.03214405 -0.1010345
000250 0e 52 2c be 60 c6 42 bd df 8a 19 be 1e 9f a0 bc
       -0.16828176 -0.047552466 -0.14994381 -0.019607123
000260 3d b9 01 be d8 e0 57 3d 8f e0 eb 3e 4c 5b 4b 3e
       -0.12668319 0.052704662 0.46069762 0.19859046
000270 17 65 12 3d 3c fd df be 8c 46 56 be 41 0a a5 be
       0.035740938 -0.4374789 -0.20925349 -0.32234386
000280 b7 3b 9a 3e bc 25 46 3d 37 54 d8 bc a7 e4 13 3e
       0.30123684 0.04837583 -0.026407344 0.14442693
000290 81 45 e0 bd ff e6 08 be 38 bf a6 bc 37 15 28 3e
       -0.10950757 -0.13369368 -0.020354852 0.16414343
0002a0 aa 9f 16 3e 18 70 97 be c1 98 73 3e d2 56 3f 3d
       0.14709345 -0.29577708 0.2378874 0.046713658
0002b0 06 c9 55 3b 96 7c 23 be 0e 07 dd 3e 2a 01 51 3d
       0.003262104 -0.15965495 0.43169445 0.0510265
0002c0 36 19 6b 3d 02 a2 94 bc 3c 5b b0 3b 9d 5a 91 3c
       0.05739709 -0.018143658 0.0053819697 0.017743403
0002d0 92 ad 20 be 4b 5a 88 3d c4 7e 1c 3d fc 7c e4 bd
       -0.15691212 0.06657847 0.03820683 -0.111566514
0002e0 ba 53 ae be ed 2e 3c bd 66 7a 23 3d 4a 48 34 be
       -0.34048253 -0.04594319 0.03991165 -0.17605701
0002f0 b6 4d 1a bd 87 80 53 bd ef 73 d0 bd 91 8d 14 bd
       -0.037671767 -0.051636245 -0.101783626 -0.03626782
000300 1b 15 8d 3e 4b 88 13 3e f2 ea 13 be b2 a3 47 3e
       0.27555165 0.1440746 -0.14445093 0.19496039
000310 a4 4f c5 bd e2 22 10 be dd fe 17 bf 2c df 29 be
       -0.09634331 -0.14075807 -0.59373266 -0.1658904
000320 1d 1e bd 3d 07 a5 a8 3a 10 71 1b 3e 94 8d be 3c
       0.09234259 0.0012866565 0.15179849 0.02326087
000330 e2 a7 ea bd b5 5d 66 3e ec 3c 0f 3d b9 1b 4f 3e
       -0.11457802 0.22496684 0.03497021 0.20225419
000340 c5 74 05 be c4 3d ac 3c c4 28 1d bd 51 f4 07 3e
       -0.13032825 0.021025546 -0.038368955 0.13276793
000350 4d cd f2 bd 29 91 64 3d 54 4c df 3e e0 91 66 3e
       -0.11855564 0.055802498 0.4361292 0.22516584
000360 77 f5 50 be 05 3c be bc 48 e5 9a be 42 d7 3b be
       -0.20406137 -0.023221979 -0.30253053 -0.18343833
000370 3e 80 8a bd f8 46 c7 be 71 c8 49 3e 16 94 13 3e
       -0.067627415 -0.38921332 0.19705369 0.14411959
000380 1c 15 93 3c c7 19 59 3e 5f 0f ba bd 86 1d 4d be
       0.017954402 0.2120124 -0.09084963 -0.20030794
000390 78 60 a1 bd 5b 63 79 be bd 9e 49 3e 02 4d e4 bd
       -0.07879728 -0.24354307 0.1968946 -0.111475006
0003a0 e9 75 57 3d e6 13 88 bd 30 24 3d 3e 3f 2c f7 3d
       0.052602682 -0.0664442 0.18470836 0.12068986
0003b0 b3 9c cf bd a8 d1 af 3e 87 a0 00 be 5b d7 c9 3d
       -0.1013731 0.34339643 -0.12561236 0.09855529
0003c0 54 52 6d 3e 79 3c 31 3d 85 f2 2b be 83 a1 06 be
       0.23175937 0.04327056 -0.16791733 -0.1314755
0003d0 f2 cd 27 3e 97 1a 71 bc 55 cb 45 bc 07 64 6f be
       0.16387156 -0.014715812 -0.012072404 -0.23378001
0003e0 9c 0f 42 3e 57 12 d2 bd d7 9c 44 3e 38 00 02 3e
       0.18951267 -0.10257404 0.19200455 0.12695396
0003f0 2f cd 04 be ba ef 2c be 71 14 06 be 7d 23 80 3c
       -0.12968896 -0.16888323 -0.13093735 0.015641922

critic.2.bias f4 [64]
000000 d1 f4 cc bd b5 63 e5 bd 5f 37 e7 3d 8c 5a 18 be
       -0.100076325 -0.11200658 0.11289858 -0.14878291
000010 7f 6d 1a be 49 f5 be bd 6c fa c4 3d 50 d1 14 be
       -0.15080832 -0.09324128 0.09618077 -0.14532971
000020 67 ca 0b be 2b b3 2c be ba d2 e9 bd e3 c7 b4 bd
       -0.13651429 -0.16865222 -0.11417146 -0.08827188
000030 43 95 e5 bd 69 9c 0d be 62 93 fa bd 6b 31 c0 3d
       -0.1121011 -0.13829197 -0.12235142 0.09384426
000040 56 12 e4 bd cd 7d e0 bd 7f ea f0 bd 96 f7 e3 3d
       -0.1113631 -0.109614946 -0.117634766 0.11131208
000050 46 36 e8 bd c9 88 cf 3d ac 88 fa bd 5e e2 5d 3d
       -0.11338477 0.101335116 -0.12233099 0.05417096
000060 5f 3f bc bd 46 40 e7 3d 69 b7 ba 3d 62 74 b9 3d
       -0.091917746 0.11291556 0.09117014 0.090554014
000070 1b 25 00 3e ff 3a 00 be 94 8a b8 3d 82 4c 00 be
       0.12514155 -0.12522505 0.09010807 -0.12529185
000080 1d 76 c2 bd 73 69 d6 3d 01 15 07 3e 9d 6c eb bd
       -0.094951846 0.104693316 0.13191606 -0.11495326
000090 c9 eb f4 3d 89 bc c7 3d bb 59 bb bd 80 76 ee bd
       0.11959035 0.09752757 -0.09147974 -0.11643696
0000a0 ae 7c 38 be 82 ce f3 bd f4 eb f4 3d 46 cf c1 bd
       -0.18016312 -0.119046226 0.11959067 -0.094633624
0000b0 53 f6 1a 3e 5d 8a 1d 3e 3e bd be 3d 29 d5 d9 bd
       0.15133028 0.15384813 0.09313439 -0.1063636
0000c0 e6 45 16 3e db 00 37 bd f3 cd d0 3d 38 98 d9 3d
       0.14675102 -0.04467855 0.10195532 0.106247365
0000d0 1d 8b e0 3d 0c ec 03 3e fb fb da bd ed fc b5 3d
       0.10964034 0.12883013 -0.10692593 0.088861324
0000e0 31 d3 f8 3d 04 54 c3 bd 6d 92 cc 3d c2 d1 be 3d
       0.121496566 -0.09537509 0.09988866 0.09317352
0000f0 58 69 f2 bd eb 5b 0e 3b 5f a0 bd 3d bb 89 d9 3d
       -0.11836499 0.0021722268 0.09259104 0.10621973

critic.4.weight f4 [1, 64]
000000 4d 00 21 3e dc 5f 24 3e c5 c0 0c be ff 4c bd 3d
       0.15722771 0.16052192 -0.1374541 0.092432015
000010 cc a0 d7 3d 6b 38 a9 3e 7d 4f d0 bd ca 77 d2 3d
       0.105287164 0.33050856 -0.10171411 0.10276754
000020 f1 50 df 3d 16 d9 ac 3d 6d 48 85 3e 93 0f b5 3d
       0.1090411 0.08439843 0.2603182 0.08840861
000030 ce ba ca 3d f1 dc 12 3e 53 49 67 3e be 1e 00 be
       0.098989114 0.14342095 0.22586565 -0.12511727
000040 69 fc 10 3e a8 d8 56 3e af 6d 08 3e 84 55 7b bd
       0.14158787 0.20981085 0.13323091 -0.06136085
000050 5a 67 79 3e 0a e3 ae bd 17 85 c8 3d a6 62 35 bd
       0.24355832 -0.08539398 0.0979101 -0.04428353
000060 38 71 a6 3d fb 20 92 be 09 67 72 be 46 94 c6 be
       0.081270635 -0.28540787 -0.23672117 -0.38785
000070 ee 57 2a be 6e ed 5d 3e 98 4b 82 be a0 be 2b 3e
       -0.16635105 0.21672603 -0.25448298 0.16771936
000080 33 28 a2 3e 1b 49 03 be d2 fc 01 be a4 8b 57 3e
       0.31671295 -0.12820856 -0.126941 0.21049362
000090 5f f9 6d be 16 83 b3 be c2 e9 58 3e 66 4a 71 3e
       -0.23239659 -0.35060948 0.21182922 0.23563537
0000a0 d8 22 be 3d b4 36 90 3e c2 4b 18 be 91 f3 53 3e
       0.0928399 0.28166735 -0.1487265 0.20698382
0000b0 66 a4 ce bd 31 f3 ad bd 08 0a 99 be d3 86 16 3e
       -0.1008995 -0.08493651 -0.29890466 0.14699869
0000c0 2b 3f d6 bd 86 4c 0b 3d db 05 3f be e0 55 a2 be
       -0.10461267 0.034008525 -0.18654577 -0.31706142
0000d0 72 17 14 be 3d 6a b3 bd c9 69 48 3e 86 0f b6 be
       -0.14462069 -0.08760498 0.19571604 -0.35558718
0000e0 3c 27 40 be 78 93 41 3e 00 eb 61 bd 27 29 60 be
       -0.18764967 0.18903911 -0.055155754 -0.21890698
0000f0 0d 9c 43 3e 84 c0 b1 3d b8 d3 b3 be 3b 70 f3 be
       0.19102497 0.086792976 -0.35122466 -0.47546563

actor.0.weight f4 [64, 8]
000000 cc 3e 69 bd b6 0a c4 3c 41 a5 69 3e e3 8a bf bd
       -0.056944653 0.023930889 0.22816946 -0.093526624
000010 e9 18 11 bf bd f1 25 be b7 ea 64 3d d9 f1 5c 3e
       -0.56678635 -0.16205497 0.055887904 0.21576633
000020 5a 44 72 be 31 ed bd 3d 33 aa 94 bd bb 7a 0c 3f
       -0.23658887 0.09273756 -0.072590254 0.5487477
000030 a6 e2 31 3e 78 bf b5 bd b8 a6 a1 bd 8e f9 25 3e
       0.17371616 -0.088744104 -0.07893127 0.16208479
000040 70 f7 33 3b 7c 5a 91 be c7 9e 6f bd 60 27 05 bf
       0.0027460717 -0.28389347 -0.05850103 -0.52013206
000050 5f c5 83 3e c5 7e 4a bd 04 7e b8 be 8c d2 97 be
       0.2573652 -0.049437303 -0.36033642 -0.29652822
000060 3f 07 a2 bd e5 9d d8 bc f7 00 5b be cd 8d d2 bd
       -0.07911538 -0.026442477 -0.21387087 -0.102809526
000070 24 db b7 3e 90 54 c7 bd 2c e9 44 be af 91 87 be
       0.3590938 -0.09732926 -0.19229573 -0.26478335
000080 43 26 00 3e 97 55 51 bd 50 a5 f6 bd bd 00 1d be
       0.12514596 -0.051107015 -0.120432496 -0.15332313
000090 be 44 45 3e c0 3d 14 3e a0 eb 43 3e d7 63 a3 be
       0.19264504 0.14476681 0.19132853 -0.3191211
0000a0 43 79 d7 bd cd 0a 84 be c6 4a 83 3d 2e 7c aa 3e
       -0.10521176 -0.2578949 0.06410746 0.33297867
0000b0 52 83 8d be 09 e4 59 3d d4 8d 78 3d 29 95 dd 3d
       -0.27639252 0.053195987 0.060682133 0.10819466
0000c0 8d 0d ab be 2d 64 6f bb 8d e0 83 bd 11 3f 25 bd
       -0.33408776 -0.0036528215 -0.06439314 -0.040343348
0000d0 2f 4a 57 be 5f 78 96 bc 46 f0 15 3e c2 0c ae be
       -0.21024393 -0.018367944 0.14642438 -0.33994108
0000e0 ae ce ec bd 13 4e 57 be c4 9c 83 3e 5a 15 d1 3e
       -0.115628585 -0.21025877 0.2570554 0.40836602
0000f0 8a fe 19 bf 4d 2d f8 be b7 ca d2 3d 76 2e 36 3e
       -0.6015402 -0.48472062 0.10292571 0.17791161
000100 f5 3f 58 be 10 43 18 3e 61 9f fb be 9f 63 bd be
       -0.21118148 0.14869332 -0.49145034 -0.36990067
000110 36 0c ad 3e aa fe a7 3e bc 19 0c bf 77 b9 8d 3d
       0.3379838 0.3281148 -0.5472677 0.0692014
000120 8f 29 ee bd 06 ba fb 3c a1 64 e0 3b 1f 0d 21 3e
       -0.116290204 0.030728351 0.0068479334 0.15727662
000130 07 ab 79 be 88 eb a7 be f8 33 f5 bd d7 48 17 3e
       -0.24381648 -0.32796884 -0.11972803 0.1477388
000140 67 8b 80 bd e7 06 9d 3d 0c 21 dd 3b 8f bf d1 3b
       -0.06276589 0.07667332 0.0067483243 0.0064010094
000150 ac 6c ae be 6d 64 1e 3d f7 f5 89 3e 9d b7 3c 3e
       -0.34067285 0.038669992 0.2694547 0.18429418
000160 4a 95 d3 3c 34 fd b0 bd 74 ac 0d 3d 89 5e 54 bb
       0.025828023 -0.08642045 0.034588292 -0.003240498
000170 fb 5a dd be 5e 96 8a be fc 92 e8 3d 80 4c 2d be
       -0.43233475 -0.27067846 0.1135616 -0.16923714
000180 41 b7 4d be 18 b3 dc bd 37 c3 80 be 48 02 73 be
       -0.20089437 -0.10776347 -0.25148937 -0.23731339
000190 2b ea 7a 3e 6f df bb 3e 99 75 ca bc be 86 12 be
       0.2450339 0.36693904 -0.024714278 -0.14309213
0001a0 d4 70 a8 be ab fa a9 3e a8 25 86 3d 89 4d 55 3d
       -0.3289858 0.33199057 0.06550151 0.052075896
0001b0 b3 b8 76 3c 95 12 9f bd e8 cb 82 3e 3b 82 d6 3c
       0.015058684 -0.07767216 0.25546193 0.026185146
0001c0 33 2c 05 be c5 47 42 be 0f 0e c9 3e 26 a9 dc be
       -0.13005142 -0.1897269 0.39268538 -0.430978
0001d0 45 2b 81 be eb c8 4a bd 18 29 fc 3a 01 ed e7 3c
       -0.25228325 -0.049508017 0.0019238321 0.028311254
0001e0 b5 61 34 be 09 68 d2 3d 2b 9d 9a 3d 5e 20 00 be
       -0.17615397 0.102737494 0.07549509 -0.12512347
0001f0 5f c7 73 be 73 e3 c6 bd 1a 64 aa bd e2 41 dc 3d
       -0.23806523 -0.09711351 -0.08319874 0.10754754
000200 b2 17 93 be 7a 35 7d bd 56 c4 28 3e 94 b8 f0 3e
       -0.28729016 -0.061818577 0.16481146 0.47015822
000210 f8 fe 52 be 79 3b ad be b6 c8 90 3c 8f 2a de 3d
       -0.20605075 -0.33834437 0.017673831 0.10847961
000220 04 d7 31 3e 2a f3 e0 3d 9b 16 29 be 32 c5 85 be
       0.17367178 0.1098388 -0.1651253 -0.2612701
000230 08 23 22 3c af 74 16 bc 70 32 1c 3e eb db 4e be
       0.009896047 -0.009183093 0.15253615 -0.2020108
000240 6d 4a 30 3d 7b 3d b6 3d b8 a8 9d be 9d f6 de 3d
       0.043039728 0.08898445 -0.30792785 0.108868815
000250 5a de 8d 3e 7d f7 12 3e 72 8b 0e 3d 28 93 e5 3b
       0.27708703 0.14352222 0.034800954 0.007006068
000260 3c f3 14 3e de 8a cd bc 0b 92 65 3e e1 d5 cd bd
       0.14545912 -0.025090631 0.22418992 -0.1005056
000270 fb d1 00 bf 14 f9 ae be 79 7e 9d be bd f4 06 be
       -0.50320405 -0.34174407 -0.30760553 -0.13179298
000280 75 b7 14 bd e2 13 26 be 3d c0 4f be 39 fb 05 3d
       -0.03630777 -0.16218522 -0.20288177 0.032710288
000290 f8 aa 2c 3b 3a e1 48 3e d2 ff 9f 3d c8 8e 46 3e
       0.0026347023 0.19617167 0.07812466 0.19390404
0002a0 65 83 d3 3d 7c 39 ab 3c 80 10 d7 3d 30 9e 2f 3e
       0.10327796 0.020901434 0.10501194 0.17150187
0002b0 32 e3 c5 be 82 13 be be 9c 3b 10 3d f9 b9 c1 3d
       -0.386499 -0.37124258 0.035213098 0.094592996
0002c0 d6 b8 e8 3c 51 0d 21 3e 0f e1 2b be 41 3f 13 3f
       0.02840845 0.15727736 -0.16785072 0.5751839
0002d0 df f1 ce 3e d3 4d 95 3e 99 c5 f5 3d 4e 55 0a bc
       0.40418908 0.29160938 0.120005794 -0.00844319
0002e0 9b eb 8f 3e d4 5b 3a 3e 49 bd 41 3e 19 51 c1 be
       0.2810944 0.18199092 0.18919863 -0.37757185
0002f0 db 0c dd 3e f2 a4 41 3e 9c ce 88 be 01 14 4f bd
       0.4317387 0.18910578 -0.2672013 -0.050556187
000300 28 4d 97 be 85 3f de 3c 16 d2 a6 bd 2f 2f 66 3e
       -0.29551053 0.027129898 -0.081455395 0.22478937
000310 73 68 3d be 07 7c 94 be 3f d4 39 3d 91 34 a7 3d
       -0.18496875 -0.29000875 0.04536843 0.08164323
000320 26 25 08 bd 17 8b 9e 3d 98 87 f9 bd a4 77 d2 be
       -0.033238553 0.07741373 -0.121840656 -0.41106904
000330 66 0f a6 bb 63 ff 83 3e 15 5c 46 be 66 14 eb 3c
       -0.0050677536 0.25780782 -0.19371064 0.02869625
000340 c0 0c a7 3d 65 af 4b 3c 20 8c 0f 3f b9 80 24 3e
       0.08156729 0.012431954 0.5607319 0.16064729
000350 08 c1 6d be 37 b9 34 bd 9e c0 5a be 6b 73 8e 3e
       -0.23218167 -0.044121947 -0.2136254 0.27822432
000360 66 76 d8 3d eb 39 22 be 11 0a be bd ed 59 ac be
       0.10569458 -0.15842406 -0.09279264 -0.33662358
000370 d3 08 d9 3e 01 6d ea 3e 52 b7 94 3d ce 70 ae 3d
       0.42389545 0.45786288 0.07261528 0.085176095
000380 d6 bb 74 3c d3 d9 7c be 26 bb ad bd f2 95 4a be
       0.014937362 -0.24692468 -0.08482961 -0.19783762
000390 7f 5f 01 3f f8 52 31 ba 90 24 2e be 03 94 63 bd
       0.5053634 -0.00067643775 -0.17006135 -0.055561077
0003a0 eb 19 ee 3d df 2d 78 bd eb 1b 9c 3c a6 82 37 bf
       0.11626037 -0.06059062 0.019056281 -0.7168373
0003b0 2a 8e 29 be e4 2c 12 bf 22 e2 de bd 5b 90 d4 bd
       -0.16558138 -0.5709975 -0.10882975 -0.10379096
0003c0 3b a2 ad bd c5 c3 06 bd 1f 1d 43 bd 3d 24 f7 3e
       -0.08478209 -0.032901544 -0.047635194 0.48269835
0003d0 a3 db cd 3e 16 b9 2b 3e ba 59 29 3b 38 0d 0f bd
       0.40206632 0.16769823 0.0025840835 -0.034924716
0003e0 2b 60 da 3d 5d ec 8f bc 37 52 2d bd 2d 08 a2 3e
       0.10662874 -0.017568761 -0.042314734 0.31646863
0003f0 77 e2 69 3e 5c 6f 23 3d a0 87 ae bc 76 b8 66 be
       0.22840296 0.039901122 -0.021304905 -0.22531304

actor.0.bias f4 [64]
000000 c8 09 58 3a 2a 19 55 bb 85 71 7e 3d 93 85 c6 3b
       0.00082412036 -0.003251622 0.06211998 0.0060584038
000010 26 d8 67 b9 73 ae 35 bc 38 32 10 bc 0f fc f5 3c
       -0.00022110398 -0.011088955 -0.008801036 0.030027417
000020 3f d8 db bc ab fd 65 3d 50 8f 07 bd b4 dc 68 3c
       -0.026836513 0.05615012 -0.033095658 0.014212776
000030 d3 28 f7 3b eb c1 b2 3c 5c dd 31 3d c9 1c fc bc
       0.0075427084 0.021820983 0.043423995 -0.030775445
000040 17 22 d5 bb 56 8c 89 bc 2c 05 5b 3c 3e 11 34 3c
       -0.006504308 -0.01679055 0.013367932 0.010990439
000050 f1 81 2c 3c da 1e b9 bc 85 bf 57 bd 12 95 0a 3c
       0.010529027 -0.022597719 -0.05267288 0.008458393
000060 18 9a 9b 3c 36 05 e1 3c 39 83 00 bc 41 75 1e 3d
       0.018994376 0.027468305 -0.007843786 0.03868604
000070 36 55 49 3d 0e 58 99 3c 25 ea 06 bd b6 a6 78 3a
       0.04915353 0.018718746 -0.03293814 0.0009485291
000080 6a 50 20 3c fe 8d 4b 3c 01 34 c9 3c 83 cd 00 bd
       0.009784797 0.01242399 0.02456093 -0.03144599
000090 2f 01 88 3c 6a 1b 31 3d d3 80 f3 bb 10 6b 97 bb
       0.016602127 0.043239035 -0.0074311285 -0.004620917
0000a0 43 00 09 bd f3 84 70 3c c0 9f 0d 3c 1a d5 ae bc
       -0.033447515 0.014680135 0.008644044 -0.02134185
0000b0 40 9f 22 bc 0f 41 b2 bc 58 ea 48 bc 70 cc 81 bb
       -0.0099256635 -0.021759538 -0.012262903 -0.0039611384
0000c0 b5 31 fa 3c 03 8d b8 bc b6 2f 83 bc 14 f8 ec bc
       0.03054128 -0.022528177 -0.016013961 -0.028926887
0000d0 97 85 93 3c 64 2a 98 3c 51 be c8 ba 9f c2 8e bc
       0.018008037 0.0185749 -0.0015315508 -0.017426787
0000e0 e7 5b 35 bd 00 99 92 3a d8 62 3b bc 39 87 1c bd
       -0.044277098 0.0011184514 -0.01143714 -0.038214896
0000f0 f4 9c c5 3c 48 20 1c bc d8 e1 0b 3d a6 4a 44 bd
       0.024122693 -0.009529181 0.03415093 -0.047922753

actor.2.weight f4 [64, 64]
000000 1c d9 86 3e c7 d7 08 bd d3 de 7c 3e 3d 4d c1 be
       0.26337516 -0.033408906 0.24694376 -0.3775424
000010 24 b0 f1 3d 45 75 ea 3d 98 8c 6c be e4 2d f9 3d
       0.11801174 0.11448149 -0.23100507 0.12166956
000020 d4 70 c1 3d 20 76 78 be ef 12 25 3e 94 35 24 3e
       0.094453484 -0.24263811 0.16120504 0.16036063
000030 af 5b c5 3c 36 a1 b2 3d 2f 4f 41 bd ee 47 42 3e
       0.02409157 0.08722155 -0.047194656 0.18972751
000040 38 39 38 3e c2 1b 99 3e b5 41 79 3d b9 6e c0 3e
       0.17990577 0.2990399 0.06085368 0.37584475
000050 3d 34 d5 bd 7a f8 ea 3d a6 55 80 bd c0 df a2 3b
       -0.10410354 0.114731744 -0.06266336 0.0049705207
000060 db 42 d4 3d 24 5f 17 3c d6 f0 0e 3e de 09 31 3e
       0.10364314 0.009238992 0.13959059 0.1728892
000070 69 d9 0b be 48 2f da 3e e9 e0 ab be f7 46 03 bf
       -0.13657154 0.42614198 -0.3357003 -0.5128016
000080 ed f6 30 3e 85 10 30 3e 64 95 d6 3d 87 49 99 3e
       0.17281695 0.17193802 0.10477713 0.2993891
000090 17 e0 f7 3d 8f d4 bd 3d e7 27 a9 3e 46 9e 51 3d
       0.121032886 0.09269058 0.33038256 0.051176332
0000a0 0c e3 0c 3f b6 d3 e7 bd 62 63 39 be 94 ac 45 3e
       0.55033946 -0.113196775 -0.18104318 0.19304115
0000b0 b6 cd 76 3e a8 85 05 3e 3e 99 1f bd bf 97 8d bc
       0.2410191 0.13039267 -0.038964503 -0.017284272
0000c0 94 b8 b6 3c ec db 52 3d 86 38 76 bd 53 b9 a8 bd
       0.02230481 0.051479265 -0.0601125 -0.08238473
0000d0 f0 79 81 3a 84 3d 75 3e f2 29 6a 3e 7d 0d 05 be
       0.0009878259 0.23949248 0.22867563 -0.12993427
0000e0 68 1e ae 3d 89 02 80 3e b6 be 85 3c 62 86 32 3e
       0.08501893 0.25001934 0.01632629 0.17434075
0000f0 cc 04 5c 3e 46 4c 10 bf dc 68 b3 3e d4 1f 89 be
       0.21486205 -0.56366384 0.3504094 -0.26782095
000100 b8 65 c5 bd d5 1e 14 be cb da 4e 3e 13 98 a9 3e
       -0.09638542 -0.14464886 0.2020065 0.33123836
000110 6d 95 4f 3e 96 c9 0d be cc fd 05 bc 76 f0 de be
       0.20271845 -0.1384643 -0.008178186 -0.43542832
000120 92 87 89 3c 72 6c b4 3d fb bc 17 be c6 be 60 be
       0.016788278 0.08809747 -0.14818184 -0.21947774
000130 e9 2b 58 3e c8 84 56 bd b8 fb b7 be 6f 10 80 3e
       0.211105 -0.052372724 -0.35934234 0.25012538
000140 cd 75 b3 be 83 09 00 be d9 8f c8 3e b3 c1 4e 3d
       -0.35050812 -0.12503628 0.39172247 0.050477695
000150 e2 45 9e 3d 7c ee 6d bd 6a 4e 53 bd 1c 15 34 3e
       0.07728173 -0.058088765 -0.051588453 0.17586178
000160 80 7f 89 be 20 90 7c 3e 24 4a 9c 3d 7f 5a 90 3d
       -0.26855087 0.24664354 0.07631329 0.07048511
000170 60 6f 2c 3b 0c a0 38 3e 7b 00 57 3c 9f 67 92 3d
       0.0026311502 0.18029803 0.013122673 0.071486704
000180 9e 62 79 be 2b 37 73 be aa 55 b8 3b cc 69 77 3e
       -0.24354026 -0.23751514 0.0056254463 0.24161452
000190 e1 f2 cc be ff 74 5d 3e cf 00 8f 3d 7f cc 6b be
       -0.40029052 0.21626662 0.06982576 -0.23027228
0001a0 ea 65 11 be 7b 37 c4 bd 97 1f db 3e 6d 6e 58 be
       -0.14199033 -0.095808946 0.4279754 -0.21135874
0001b0 70 e3 f4 be 7b 71 ce bc 89 42 62 3e be b7 3d bc
       -0.4782977 -0.025200596 0.22095694 -0.011579452
0001c0 60 05 6f 3c 76 1d c4 be fb 1b a6 3d 82 cc 9a 3e
       0.014588684 -0.38303727 0.081108056 0.30234152
0001d0 14 55 ca 3d 99 5a b5 3b c6 54 14 be 3c 7b a6 bc
       0.098795086 0.0055344817 -0.14485464 -0.020322435
0001e0 d2 44 6a 3e ab 77 89 3e 69 3e d7 3c 15 74 48 be
       0.22877815 0.26849112 0.026274877 -0.19575532
0001f0 60 2a 81 bd 19 e9 97 3e f3 fa 9c 3e 96 57 81 3e
       -0.063069105 0.29670027 0.3066021 0.25262135
000200 fd c2 13 be 73 98 a6 3c a2 49 c6 3d 73 35 9a 3e
       -0.14429851 0.020336365 0.09682013 0.30118904
000210 e5 24 0b bd a0 92 d7 ba 0a 3f 67 be 4a 84 e5 bd
       -0.033970732 -0.0016446896 -0.22582641 -0.11206873
000220 16 15 00 3f 89 ff 8b bd 1a e7 04 3e 3e 5a b4 be
       0.50032175 -0.06835849 0.12978783 -0.352251
000230 5b 18 d5 3e 75 6a b6 bd a5 58 47 3d b7 63 63 bc
       0.41620144 -0.08907024 0.048668522 -0.013878754
000240 79 30 0f 3c 54 5f 3c 3e 79 d0 ef bc 24 bd 50 3d
       0.008739584 0.1839574 -0.029274212 0.05096163
000250 75 fb 07 bd 36 a8 86 3c b7 1f 1f be 73 a2 68 3e
       -0.033198792 0.016437631 -0.15539442 0.2271822
000260 e8 fe 0a 3d 1b 1b 74 3e 47 d9 74 be e5 3b 4d 3d
       0.033934504 0.23838465 -0.2391101 0.050105948
000270 97 fb 92 3d 89 c4 4b 3e 46 df 14 be b4 1b 40 be
       0.07176893 0.19899191 -0.14538297 -0.18760568
000280 eb 51 08 3e 0d 28 6b be 3d 6b 94 3e 3b c8 c2 bd
       0.13312499 -0.22964497 0.28988066 -0.09510847
000290 e4 01 e4 3d ae 55 67 3e ad b7 c0 be 05 36 d2 bc
       0.11133173 0.22591278 -0.37640134 -0.025660524
0002a0 c7 77 e7 bd d2 39 ab 3e f4 f8 d4 3d 02 4e 8d be
       -0.113021426 0.3344255 0.103990465 -0.27598578
0002b0 14 a3 3a 3d 4c 17 c3 bd 00 af a1 3d f6 c6 cf 3c
       0.04556568 -0.09525928 0.07894707 0.025363427
0002c0 14 d9 54 3e c5 1b fc be 3c f6 4e 3c bd b9 82 be
       0.20785934 -0.49239936 0.012631949 -0.25532332
0002d0 df 07 d7 3d 5c ee a5 be a5 93 d8 be ec 95 0e be
       0.10499548 -0.32408416 -0.42300144 -0.13924378
0002e0 06 6c 84 3e 9c 16 97 be 6f 14 62 3e b0 6a 28 3d
       0.25863665 -0.29509437 0.22078107 0.04111737
0002f0 14 51 a9 3e 3f bd ea 3d 06 ed 38 3e b8 6d 2c 3e
       0.3306967 0.11461877 0.18059167 0.1683873
000300 02 58 1d be b8 93 7b bc 51 79 b1 be cf 35 35 be
       -0.15365604 -0.015355043 -0.3466287 -0.17696308
000310 e2 5d 09 be 53 19 60 3e ff de 8e be a1 1b a5 3e
       -0.1341472 0.2188466 -0.27904508 0.32247642
000320 2b 2a ce be 2c c9 4e bc 4d 02 90 bd 33 90 a5 3e
       -0.40266547 -0.012621205 -0.07031689 0.32336578
000330 ad 1e 69 be 37 fd bb be 5a 32 23 bd fa 42 c2 3e
       -0.22765608 -0.36716625 -0.03984294 0.37941724
000340 62 bd c8 3e 28 e3 1f 3e 59 57 75 be 2c 7d da 3d
       0.39206988 0.15613997 -0.23959102 0.10668406
000350 4f 13 ac bd a4 9b be 3e b0 d3 2e bd 47 63 fa 3d
       -0.0840212 0.3722812 -0.04268235 0.12225967
000360 55 70 0e 3d be 35 f0 be 3b 18 57 3e 48 c4 ea bb
       0.034775097 -0.46916002 0.21005337 -0.007164512
000370 f9 60 0a bf 36 65 11 bd 52 1a cd bc 1c b3 53 bd
       -0.5405422 -0.035496913 -0.025036965 -0.051684484
000380 8a 5f 17 be 2c f1 05 bd b9 b8 4c bd 45 e1 7c bc
       -0.14782539 -0.032700703 -0.049980853 -0.015434568
000390 54 e0 52 3c 20 f6 30 3d 37 d1 b1 3c 94 0f 20 be
       0.012870867 0.043203473 0.021706207 -0.15630943
0003a0 7b d2 60 3c fe 8b d4 bd a2 01 77 be c6 02 18 be
       0.013722057 -0.10378264 -0.24121717 -0.14844808
0003b0 ec de 9a 3c 2e e7 8f 3e bf 39 cd 3c 78 5c 28 3e
       0.018905126 0.28106064 0.02505195 0.16441524
0003c0 7e 5a 17 be 3a 7a 77 3e 97 ef 57 3e 6a 96 d3 bd
       -0.14780614 0.2416772 0.2108749 -0.103314236
0003d0 9a 8a fa bd e5 e0 61 3d 19 9c e5 bd d9 e3 8a 3d
       -0.122334674 0.055146117 -0.11211414 0.0678174
0003e0 b1 d1 fc bd 3e 63 95 bd c2 77 ae be 4f b4 17 3e
       -0.12344683 -0.072943196 -0.34075743 0.14814876
0003f0 3c cf 7a be 2a 87 87 3e 10 68 51 bc 10 56 87 3e
       -0.24493116 0.2647031 -0.012781158 0.26432848

actor.2.bias f4 [64]
000000 cc f9 24 bb d1 00 b8 3c f0 9b d2 3c d2 f8 4d bd
       -0.0025173305 0.022461327 0.025709122 -0.05028612
000010 3a 66 d9 3c f4 74 c2 3c 89 7a 0e bc d3 92 d7 bc
       0.026538003 0.023737408 -0.008696207 -0.026315128
000020 09 a7 65 bc a6 56 3d 3c 4f 0e 61 bc 09 e8 71 3c
       -0.014016875 0.011556303 -0.013736322 0.014764794
000030 4c e2 49 bc bf 10 7b 3c e7 3f bf 3c ad 44 c2 bc
       -0.01232202 0.015323817 0.0233459 -0.023714388
000040 5e a3 f8 3c 55 72 ef 3b 45 b5 04 3d 9b 75 23 bc
       0.030351337 0.0073073306 0.032399435 -0.00997677
000050 b9 cb 12 3b 1a 6f d6 bc fc bc 17 3c 7c 01 d1 bb
       0.002239926 -0.026176024 0.009261366 -0.006378351
000060 63 5e 31 3c c3 43 56 bc 6c 16 04 bd 17 cd 91 bc
       0.010825726 -0.013077679 -0.032247946 -0.01779799
000070 aa d2 d1 3c 8c 0e ed 3b 4f bf b4 3c b5 57 37 3b
       0.025613148 0.0072344 0.02206388 0.0027975861
000080 82 06 8b 3c 8a fc 15 3d 2c fb 14 bc 94 80 33 3d
       0.016970877 0.036617793 -0.009093087 0.043823794
000090 c9 dd 00 bd 98 1e c4 bc 49 fd d3 bc 17 83 72 bc
       -0.03146151 -0.02394037 -0.025877612 -0.014801762
0000a0 8c 6f 54 bc ee 87 02 3d 9d 10 92 bc 82 80 67 3a
       -0.012966048 0.031867914 -0.017830187 0.00088311
0000b0 14 3e 35 3c 10 89 5c 3c 43 df 14 bb 54 f0 d8 bc
       0.011062164 0.013460413 -0.0022716082 -0.026481785
0000c0 00 47 44 bd a4 8d d6 bc f0 84 35 3d 2c 43 81 bc
       -0.047919273 -0.026190586 0.044316232 -0.0157791
0000d0 38 b8 2b 3c 11 7f 57 3c 6f 1a 7d 3c 19 66 f3 bc
       0.010480933 0.013152854 0.015448197 -0.02971177
0000e0 38 c5 b5 3c 42 f3 63 bc 70 62 13 bd 30 54 14 bd
       0.022188768 -0.013912978 -0.03598255 -0.0362131
0000f0 4a 93 f3 bc 9d 99 5d 3c f3 b6 fc bc 00 95 e5 bc
       -0.029733319 0.013525394 -0.030848956 -0.02802515

actor.4.weight f4 [4, 64]
000000 e3 7e ec bd ef 86 9f bc 2c 23 f4 bd e6 a1 f0 3d
       -0.11547639 -0.019473521 -0.11920771 0.1174963
000010 9d c7 25 be 7a 3c fa bd 1e 49 e5 3d d0 d4 16 3e
       -0.16189428 -0.12218566 0.111955866 0.14729619
000020 62 10 d2 3d 37 82 09 be 43 26 b0 3b 5c 4c 46 3d
       0.10257031 -0.1342858 0.005375655 0.048412666
000030 c3 75 dc 3d 67 1b e1 bd 9f 2f 13 be 76 27 dd 3d
       0.10764649 -0.10991555 -0.14373635 0.10798542
000040 b7 23 5f bd 20 57 0f be 83 eb 2a 3d 96 af ac 3c
       -0.05447742 -0.1399808 0.041728508 0.02107982
000050 0c d6 45 3d 00 7f 0a 3e 9c a1 03 be 96 3f 03 3c
       0.048299834 0.13525009 -0.12854618 0.008010766
000060 25 e6 ae bd e8 25 d8 3d 8c 2c 0c 3e 10 16 ed 3d
       -0.0853999 0.10554105 0.13688868 0.11576474
000070 e4 d2 08 be ce 43 01 be fe 57 e8 bd 31 c3 93 bd
       -0.13361698 -0.12623522 -0.11344908 -0.07214964
000080 fd dd 0e be 4b 64 d3 bd ec e1 ba bd 26 fd 10 be
       -0.1395187 -0.10321864 -0.091251224 -0.14159068
000090 4b 91 e6 3d d7 44 d1 3d 9d 03 15 3d 5e 89 39 bc
       0.11258181 0.10218208 0.0363804 -0.011324255
0000a0 86 be ab 3c 1d 5b 4c bd 1f 0e fe 3d 76 3d da bd
       0.020964872 -0.04989158 0.12405037 -0.10656254
0000b0 a9 aa 16 bd 6c f9 09 be fd fd 85 3d 92 93 14 3e
       -0.036783848 -0.13474053 0.06542585 0.14509419
0000c0 80 e9 ff 3d 64 e2 76 3d 5a bb 0e be e7 98 04 3e
       0.124957085 0.060274497 -0.13938656 0.12948953
0000d0 b8 1a e7 bd c4 7e 28 3d 80 ec eb bd e1 93 f3 3d
       -0.11284393 0.041136518 -0.11519718 0.1189344
0000e0 fa 8b f2 3d c5 39 04 be eb e4 df 3d f5 87 bc 3d
       0.11843105 -0.12912662 0.109323345 0.09205619
0000f0 f9 f2 1a 3e 4e a6 c9 bc 36 97 9c bb a0 4e f9 3d
       0.15131749 -0.024615433 -0.004778768 0.121732
000100 e1 29 20 3e 7b d9 5d be 3b 94 1f be f0 11 30 3e
       0.15640976 -0.21664993 -0.15583889 0.17194343
000110 c2 cb 08 be ca 18 28 bd b6 00 0d be 8b fc 05 bd
       -0.13358977 -0.041039266 -0.13769802 -0.032711547
000120 57 00 05 be ba 8a a1 3c bf 6d 3b be 2b 75 2b be
       -0.12988411 0.01971947 -0.18303584 -0.16743915
000130 f8 58 5a 3e cd da 6a be 43 4d 1d be 8d 88 23 3e
       0.21323001 -0.22935028 -0.15361504 0.15970059
000140 1e fd 21 3e 9c 1b d3 bd 75 35 44 3e 68 c5 42 be
       0.15819213 -0.103080004 0.19161017 -0.19020617
000150 49 b0 53 be e7 ce c3 bd b9 d2 31 bd a8 7f 40 be
       -0.20672716 -0.09560948 -0.04341385 -0.18798697
000160 ed 8e 89 bd 14 70 6e 3e 2e 03 d8 bd 8b e8 4c 3e
       -0.06716714 0.23284942 -0.105474815 0.20010583
000170 61 95 a4 3d 2c 38 5c 3d ac 1a be 3d 29 5e 25 3e
       0.08036304 0.053764507 0.09282431 0.161492
000180 83 4e d0 bd 43 63 4d be dc 5b ee 3d ad b9 f9 3d
       -0.10171225 -0.20057397 0.116386145 0.12193618
000190 fe a8 d0 bd 50 84 36 3e 02 ba 4c 3e 1d be 21 be
       -0.10188483 0.1782391 0.19992831 -0.15795179
0001a0 ad ee 27 3e ad 67 1b 3e 8c 9a e0 3d e3 53 67 be
       0.16399641 0.15176268 0.109669775 -0.22590594
0001b0 ee 85 49 be 99 fa 41 be c4 df 43 3e 29 30 4e 3e
       -0.19679996 -0.18943252 0.19128329 0.20135559
0001c0 d6 d9 2d bc 76 42 53 3e f8 28 fe bc 60 c1 1a be
       -0.010611018 0.20630822 -0.031025395 -0.15112829
0001d0 76 94 a5 bd 3d 81 43 3e ec ed 07 3e a8 55 14 3e
       -0.08084957 0.19092269 0.13274354 0.144858
0001e0 a3 01 74 bd 89 e5 7d 3d a1 5f 58 3e 46 05 d8 3c
       -0.059571873 0.06198648 0.2113023 0.026369702
0001f0 2d 57 46 3d a3 69 2e be 4c b6 4b be 58 b9 2d 3d
       0.04842298 -0.17032485 -0.1989376 0.042413086
000200 70 cc 27 3e b1 fe 6e 3d c3 13 2d 3e 88 68 48 be
       0.1638658 0.05834836 0.1690207 -0.19571126
000210 4d e0 54 3e 75 b1 fb 3d 72 e0 2b be 71 64 53 be
       0.20788689 0.122897066 -0.16784838 -0.20643784
000220 9f 92 34 be 69 82 2b 3e 4a 3e c1 bb 3b 8c cd bb
       -0.17634057 0.16748966 -0.005897318 -0.0062728203
000230 36 bb 29 be ab 3d 36 3e 61 fc 3d 3e 2b 9d 41 be
       -0.16575322 0.17796962 0.18553306 -0.18907611
000240 6d 45 db 3d c0 ac 37 3e 04 05 59 bd 72 51 01 bd
       0.10706601 0.17936993 -0.0529833 -0.031571813
000250 6a 71 ac bd 4f 74 44 be 3e d8 0e 3e 03 c8 84 bc
       -0.084200695 -0.19184993 0.13949677 -0.016208654
000260 ac f8 12 3d 3d da 2a be fd 85 5a be 7b 1d 49 be
       0.035881683 -0.16684814 -0.21340175 -0.19640152
000270 40 0c 41 3e 17 a9 34 3e 70 a3 36 3e 3f 10 01 3e
       0.18852329 0.17642628 0.17835784 0.12603854
000280 55 17 2f 3e 7f da 41 3e 2e 18 ed 3d b5 6d 5a 3e
       0.17098744 0.18931006 0.115768775 0.21330912
000290 5d ba 09 be 3f 21 39 be 2e a9 f6 bd d9 52 d1 3c
       -0.13449998 -0.18079089 -0.12043987 0.0255522
0002a0 98 0f 75 bd 30 0b ec 3d 14 65 0e be fd b5 28 3e
       -0.059829324 0.11525571 -0.13905746 0.16475673
0002b0 4d 90 ad 3d 07 e6 44 3e 20 5b 08 be 16 cf 4a be
       0.08474789 0.19228373 -0.13316011 -0.1980556
0002c0 d8 f4 5a be fb 51 08 be 6f ea 5e 3e 4e 36 3d be
       -0.21382463 -0.13312523 0.21769117 -0.18477747
0002d0 e4 e3 da 3d 47 77 87 bd ec 49 30 3e 53 c0 41 be
       0.10687998 -0.06614547 0.17215699 -0.18921022
0002e0 61 b6 1c be 5f de 2d 3e b8 20 4f be f3 02 2a be
       -0.15303947 0.16979359 -0.20227325 -0.16602688
0002f0 65 5a 56 be d5 3e a8 3d 8a c7 77 bc ea 83 e4 bd
       -0.2093292 0.08215109 -0.015123257 -0.11157973
000300 bf c5 42 be 5f 2b 5a 3e c1 d7 bd 3d c2 ae bb bd
       -0.19020747 0.21305607 0.092696674 -0.09164192
000310 3e 06 db bd a8 a4 37 bd 49 05 40 3e 0e 6e 3d 3e
       -0.1069455 -0.044834763 0.18752016 0.18499014
000320 cc e8 48 3e 78 38 1b be ac 30 3a 3e 3e 5c 21 3e
       0.19620055 -0.1515826 0.1818263 0.15757844
000330 82 eb 2d be 81 1a 2d 3e bb 12 0b 3d 46 5f 80 bd
       -0.1698437 0.16904642 0.03395341 -0.06268172
000340 d0 d6 36 be 53 6e 9a bd ca c9 3f be 9f 0e 43 3e
       -0.17855382 -0.07540574 -0.1872932 0.19048546
000350 76 74 5d 3e d7 b1 44 3e 33 4e 90 bd e0 59 49 3e
       0.21626458 0.19208466 -0.07046165 0.19663191
000360 93 dd ca 3d d3 54 51 be 1c ab 4f 3e e4 76 0e be
       0.09905543 -0.20442514 0.20280117 -0.1391254
000370 2c 3f 48 be 08 bb 48 be 6a d1 1a be 72 fa 3c be
       -0.19555348 -0.19602597 -0.15118948 -0.18454912
000380 9a 93 81 bd bc 5b 18 3e 3f 63 23 be c7 56 5a be
       -0.06326981 0.14878744 -0.15955828 -0.21322165
000390 44 2c 11 3e a4 7f 87 bd bc 92 22 be 28 ed 1d 3e
       0.14177042 -0.066161424 -0.15876287 0.15422499
0003a0 db aa 1a be 9f be 31 be eb 8c d2 bb e3 ec 24 3e
       -0.15104239 -0.17357872 -0.00642549 0.1610599
0003b0 ec ba 3b 3e 8f 19 05 3d 61 4b 29 be 08 55 f0 bd
       0.18333024 0.032495078 -0.16532661 -0.117349684
0003c0 45 0a 51 3e d6 f6 2e be 84 cf 2d be 3d bf 4c 3e
       0.20414074 -0.17086348 -0.16973692 0.19994827
0003d0 c4 88 49 3d 98 a8 38 be 41 8c 37 be 97 00 ea bc
       0.049202695 -0.18033063 -0.17924596 -0.028564734
0003e0 13 a2 22 3e 15 69 2e be eb 56 f4 bd 25 f5 e3 3d
       0.15882139 -0.17032273 -0.11930641 0.11130742
0003f0 8c fd 45 3e e4 1d 1c 3e d0 f1 4e 3e d3 16 f4 3b
       0.19335002 0.15245777 0.20209432 0.00744901

actor.4.bias f4 [4]
000000 c6 f4 8d bd 3b a5 e6 bb 88 df 40 3d c5 70 14 bc
       -0.069314525 -0.00703874 0.047088176 -0.0090600895
