HFDRL_UNIT8/models/Archived/LunarLander-v3__ppo__1__1768735947__u200.pt (torch, 44753 bytes, 11 tensors)

critic.0.weight f4 [64, 8]
0	0xbdef0de6	-0.11672573
1	0x3e7cb37a	0.2467784
2	0x3d12cd0b	0.035840075
3	0x3daff3ca	0.08591421
4	0xbddf91e1	-0.10916496
5	0x3d9e373a	0.077253774
6	0xbed95a75	-0.42451826
7	0x3e39b5c7	0.18135749
8	0xbddc56d3	-0.10758748
9	0x3eb9bf03	0.36278543
10	0x3e5895da	0.21150914
11	0x3da47e6a	0.08031924
12	0xbec2886e	-0.37994713
13	0xbf0b32fa	-0.5437466
14	0xbdad8272	-0.08472146
15	0x3d1a0841	0.037605528
16	0x3d0b88e8	0.03406611
17	0xbea1f0b1	-0.31628945
18	0x3de7bc5f	0.11315226
19	0x3e16e92f	0.1473739
20	0x3cd0f0a7	0.025505377
21	0x3e0f7f62	0.14013436
22	0x3ecec3bd	0.4038371
23	0x3f4ae8c9	0.7926145
24	0xbe4ae655	-0.19814427
25	0x3e6d95e3	0.23201708
26	0xbce6f138	-0.028191194
27	0xbf167a59	-0.5878044
28	0x3e83e4a5	0.2576038
29	0x3c8d06a6	0.017215084
30	0xbf057f2a	-0.5214716
31	0xbef9fff6	-0.48828095
32	0x3e1a091e	0.1504254
33	0xbe6d18ae	-0.23153946
34	0x3f4ab571	0.7918311
35	0xbd5821a0	-0.052766442
36	0x3eb46bb4	0.3523842
37	0x3be8eba5	0.007108169
38	0x3e37dc73	0.17955188
39	0xbeff4401	-0.4985657
40	0x3e0c747d	0.13716312
41	0xbeb91d90	-0.36155367
42	0x3d3c7a8e	0.046015315
43	0xbee34a04	-0.44392407
44	0x3e19f8ab	0.15036266
45	0x3f202247	0.62552303
46	0x3e16986b	0.1470658
47	0xbe7578d9	-0.23971881
48	0xbef803b1	-0.48440316
49	0xbea54cd5	-0.3228518
50	0xbca56113	-0.02018789
51	0x3dd5680f	0.10420238
52	0x3c414196	0.011795422
53	0xbe457f1e	-0.19286773
54	0x3f12a579	0.5728374
55	0x3e55bf66	0.20873794
56	0xbe17c56a	-0.14821401
57	0x3f242566	0.64119565
58	0x3dad34f8	0.084573686
59	0x3eb6fe25	0.35740772
60	0xbe1ad60f	-0.1512072
61	0xbd6fd875	-0.05855604
62	0x3e0f5d0c	0.14000338
63	0x3f17f251	0.5935412
64	0x3d7f1233	0.062273216
65	0xbba61220	-0.0050680786
66	0x3f172cea	0.5905291
67	0xbe8e1d0b	-0.27756533
68	0x3f0ad0ac	0.5422466
69	0xbe10e83c	-0.1415109
70	0x3d50a90f	0.050942477
71	0xbe32d5ec	-0.17464417
72	0xbd207b6a	-0.039180197
73	0x3eb1b929	0.34711578
74	0x3e9bbcc9	0.3041747
75	0xbc8ae900	-0.016956806
76	0x3df4286d	0.11921773
77	0x3a6194d8	0.00086052483
78	0x3e8c3f4d	0.27392045
79	0x3f3599d5	0.70937854
80	0xbd412ad9	-0.047160003
81	0xbef64c29	-0.4810498
82	0x3dfde5dd	0.123973586
83	0x3eaf0338	0.34182143
84	0x3e257e78	0.16161525
85	0x3f212cf7	0.62959236
86	0x3ebd97ad	0.37029782
87	0xbe201201	-0.15631868
88	0xbd975b8d	-0.07390509
89	0x3eda3531	0.42618707
90	0xbb1f9207	-0.0024348514
91	0x3db89284	0.09012321
92	0xbdc99f0f	-0.09844791
93	0xbcc24331	-0.02371368
94	0xbf00ab68	-0.50261545
95	0x3d46431b	0.04840384
96	0xbcd2fab0	-0.025754303
97	0x3edda28d	0.4328808
98	0x3d98ee1f	0.07467293
99	0x3da3a488	0.07990366
100	0xbe844954	-0.25837195
101	0xbe9b5997	-0.3034179
102	0xbeab9c66	-0.3351776
103	0x3e5cdcba	0.21568576
104	0xbd8bf7b8	-0.06834358
105	0xbe8c11e8	-0.2735741
106	0x3e3797db	0.17929022
107	0x3ec38a82	0.3819161
108	0x3bce2aaf	0.0062917094
109	0x3cda3ca9	0.026640253
110	0x3cd9076d	0.026492799
111	0x3ed00c77	0.4063451
112	0xbdb0b825	-0.08628873
113	0xbe3b5666	-0.18294677
114	0x3e2e5821	0.17025806
115	0x3eb0d8e7	0.34540483
116	0x3e191b14	0.14951736
117	0xbdc1924b	-0.09451731
118	0x3e64d6e4	0.223476
119	0x3edc9e78	0.43089652
120	0xbd31a1c4	-0.043367162
121	0x3e7e8958	0.2485708
122	0xbe483796	-0.19552454
123	0xbea968c9	-0.33087757
124	0xbc4b869b	-0.012422229
125	0x3e211543	0.15730767
126	0xbe91d4ed	-0.28482762
127	0xbed89bb2	-0.42306286
128	0x3df1ef2b	0.11813196
129	0x3e51578e	0.20443556
130	0xbafb062e	-0.0019151622
131	0xbe876cea	-0.26450282
132	0xbe75e347	-0.2401248
133	0xbe575a6f	-0.21030591
134	0xbe6f2f93	-0.23357992
135	0x3e93dae6	0.28877944
136	0xbccdf1e1	-0.02513975
137	0x3e4354ac	0.19075269
138	0x3f47abd9	0.77996594
139	0xbde12b3e	-0.10994576
140	0x3f0135d7	0.5047278
141	0xbf19de19	-0.6010452
142	0xbdb7c8b1	-0.08973826
143	0x3e2ca035	0.16857989
144	0xbef30403	-0.47463998
145	0xbe3bcfde	-0.18341014
146	0x3dbc3051	0.09188903
147	0xbe0c600d	-0.13708515
148	0xbe0d6663	-0.13808589
149	0x3e6299e8	0.22129023
150	0x3c394ce8	0.01130984
151	0xbe4e0fd3	-0.20123224
152	0xbdb523da	-0.08844729
153	0x3eb35124	0.35022843
154	0xbd1e95c1	-0.038717035
155	0xbe054b6e	-0.13017055
156	0x3cfdc81d	0.03097921
157	0x3e33836f	0.17530607
158	0xbefc89d1	-0.49323896
159	0xbeb87c92	-0.3603254
160	0x3e2ba673	0.16762714
161	0xbe33f23c	-0.17572874
162	0x3e20914c	0.15680426
163	0x3e3c55c8	0.18392098
164	0x3dda3115	0.10653893
165	0xbcfd6bab	-0.03093513
166	0x3e65ca77	0.22440515
167	0x3d3e3d90	0.04644543
168	0x3df8bc9b	0.12145349
169	0x3deaaba2	0.114585176
170	0xbe4765b8	-0.19472396
171	0xbe9a8de2	-0.30186373
172	0xbdf59d96	-0.11992948
173	0x3e141d8f	0.144644
174	0xbe6ee41f	-0.23329209
175	0xbe86ecc9	-0.26352528
176	0x3e6176dc	0.22017998
177	0xbe40d81b	-0.18832438
178	0x3de4ffa2	0.111815706
179	0x3d7a9513	0.061177325
180	0xbdde0720	-0.10841203
181	0x3d4c2c62	0.049847014
182	0xbc11dd52	-0.0089028645
183	0xbe9b1ec1	-0.302969
184	0x3e3971d2	0.18109825
185	0x3e780ecb	0.24224393
186	0xbdf7c5dd	-0.12098286
187	0x3d8c51d4	0.06851545
188	0x3e1dff98	0.15429533
189	0xbcf279d3	-0.029599106
190	0x3d1f6e07	0.03892329
191	0xbeed2ed1	-0.4632478
192	0xbd9d2a0e	-0.07674037
193	0x3e335b6f	0.17515348
194	0x3d15a935	0.03653832
195	0xbe57dcde	-0.21080348
196	0x3b42b314	0.002970879
197	0xbe4f0191	-0.20215441
198	0xbf3b221b	-0.73098916
199	0xbea32da4	-0.3187076
200	0xbe66914a	-0.22516361
201	0x3f0145f2	0.50497353
202	0xbd951b80	-0.07280636
203	0x3eb5ebe7	0.35531542
204	0xbe3510f9	-0.17682256
205	0xbf210b44	-0.62907815
206	0xbe520a08	-0.20511639
207	0x3cb3b5d6	0.021937292
208	0xbd828810	-0.06373608
209	0xbdc46d3e	-0.09591149
210	0x3e18fecb	0.14940946
211	0xbcd37b77	-0.025815709
212	0x3e7f271f	0.24917267
213	0xbea7569c	-0.32683265
214	0x3d7489e2	0.059701808
215	0x3ea3306e	0.31872886
216	0xbc1d066e	-0.0095840525
217	0xbe7fc481	-0.24977304
218	0x3c9a0a1e	0.018803652
219	0x3d956101	0.07293893
220	0xbe6527e9	-0.22378506
221	0x3e1d8040	0.15380955
222	0x3e63b034	0.22235185
223	0x3f082652	0.5318347
224	0x3e603559	0.2189535
225	0x3e35151e	0.17683837
226	0xbe947fb4	-0.2900368
227	0xbdf25a47	-0.11833625
228	0xbdf895e0	-0.121379614
229	0x3dab3904	0.08360484
230	0xbedd8b9f	-0.43270585
231	0xbecff77e	-0.4061851
232	0x3e3520b0	0.1768825
233	0x3ee40be6	0.44540328
234	0xbd5030e1	-0.050827865
235	0x3ea7a785	0.32744995
236	0xbe6d0703	-0.23147206
237	0xbdcaf80d	-0.09910593
238	0x3c29e51a	0.0103695635
239	0xbeb3ec12	-0.35141045
240	0xbe6ee894	-0.23330909
241	0xbe87783c	-0.2645892
242	0xbde5210b	-0.11187943
243	0x3db8d6eb	0.09025367
244	0x3eaa232e	0.33229965
245	0xbe5e2788	-0.21694767
246	0x3e2fc645	0.17165478
247	0x3f1c43e4	0.6104109
248	0xbe8f8069	-0.28027657
249	0x3eed6cb9	0.4637201
250	0x3d4620e2	0.048371203
251	0xbd343bad	-0.044002224
252	0x3e041bc0	0.12901211
253	0xbcdd9f1b	-0.027053406
254	0xbec5131d	-0.38491145
255	0xbe56e96b	-0.2098748

critic.0.bias f4 [64]
0	0xbe86f0d7	-0.2635562
1	0xbe824508	-0.25443292
2	0x3e7bf132	0.24603727
3	0xbe49107c	-0.19635195
4	0xbeb152d9	-0.3463352
5	0x3eb48d86	0.35264224
6	0xbd67e626	-0.05661597
7	0x3e917248	0.28407502
8	0xbea71cb8	-0.32639098
9	0xbccd1252	-0.02503315
10	0x3eb9c2a0	0.362813
11	0xbe9263b3	-0.2859169
12	0xbe05b875	-0.13058646
13	0x3e9000be	0.28125566
14	0x3e8428c2	0.25812346
15	0xbe921044	-0.28528035
16	0xbe04b0b8	-0.12958038
17	0x3ec62834	0.38702548
18	0x3e5259cd	0.20542069
19	0xbe801580	-0.25016403
20	0x3e558c4a	0.20854297
21	0xbe15f5be	-0.14644524
22	0x3dcbbff0	0.099487185
23	0xbe5e8b84	-0.21732908
24	0xbdc55801	-0.09635926
25	0xbe83d561	-0.25748733
26	0x3e62f1f2	0.22162607
27	0x3e68725d	0.22699876
28	0xbe1bd181	-0.15216638
29	0xbe857c45	-0.26071373
30	0x3e36ad74	0.17839605
31	0xbe870ab6	-0.2637536
32	0xbe7c1701	-0.2461815
33	0x3e4abee5	0.19799383
34	0x3e995ee1	0.299552
35	0x3e81b41b	0.25332722
36	0x3e510eb3	0.20415764
37	0xbe53de6a	-0.20690313
38	0x3d8ec0a7	0.06970339
39	0x3e431d72	0.19054201
40	0xbecb4ab4	-0.3970543
41	0x3e280de1	0.16411544
42	0x3dd25cc6	0.102716014
43	0xbe42afd4	-0.19012386
44	0x3c8b1503	0.016977793
45	0xbe1e82ef	-0.15479635
46	0x3e1199a5	0.14218767
47	0xbe701884	-0.23446852
48	0xbe78aecd	-0.24285431
49	0xbe81a26f	-0.2531924
50	0xbe27d1b1	-0.16388585
51	0x3e9b3d42	0.30320174
52	0xbe78d474	-0.24299794
53	0x3e83033e	0.2558841
54	0x3e2ef7ab	0.17086665
55	0x3e1a1a4c	0.15049094
56	0xbe971efa	-0.2951582
57	0x3e951f51	0.29125455
58	0xbdbb42cb	-0.09143599
59	0xbdf79437	-0.120888166
60	0x3e71fb7f	0.23631094
61	0x3e86be07	0.26316854
62	0x3e296ac1	0.1654463
63	0xbead5b7b	-0.33858857

critic.2.weight f4 [64, 64]
0	0x3f0856c4	0.53257394
1	0xbebd9f2b	-0.37035498
2	0xbed4f4e4	-0.41593087
3	0x3ecf24cb	0.40457758
4	0x3dee5b58	0.11638516
5	0xbeb066b8	-0.34453368
6	0x3cf77924	0.030209132
7	0xbedd1b40	-0.43184853
8	0x3e69cb6b	0.22831504
9	0x3ea0796e	0.31342643
10	0xbec6c8f9	-0.38825205
11	0x3e11d5bc	0.1424169
12	0xbb12fb67	-0.002242768
13	0xbefd74e4	-0.49503243
14	0xbf21e6c2	-0.63242733
15	0x3f0f877b	0.560661
16	0x3df1ebb4	0.11812535
17	0xbe85671e	-0.26055235
18	0xbd9213b0	-0.07132661
19	0x3ec94c17	0.39315864
20	0xbebbf484	-0.36709988
21	0x3e9a5324	0.30141556
22	0x3dae1692	0.08500399
23	0x3ede1d67	0.43381807
24	0x3ed88697	0.42290184
25	0x3e178787	0.14797793
26	0xbaabb4cb	-0.0013100145
27	0xbeb32b24	-0.3499385
28	0x3e7cf0a1	0.24701168
29	0x3e7c8a4a	0.24662128
30	0xbe8d40de	-0.27588552
31	0x3e839c10	0.25705004
32	0x3e55c2d3	0.20875101
33	0xbdcc330d	-0.09970675
34	0x3e0981c0	0.13428402
35	0xbde77dab	-0.11303266
36	0xbedff700	-0.43743134
37	0xbe59058b	-0.2119352
38	0xbe1d0c57	-0.15336739
39	0xbf4b8f3d	-0.7951544
40	0x3efb1e70	0.4904666
41	0xbe6511db	-0.22370093
42	0xbdabe67a	-0.08393569
43	0xbdaeb73e	-0.085310444
44	0xbe8a2512	-0.26981407
45	0x3e9a0ae6	0.3008644
46	0x3ea4ca96	0.3218581
47	0x3f08e24f	0.5347032
48	0x3e8aed59	0.27134207
49	0x3eff8960	0.49909496
50	0xbda76efa	-0.08175464
51	0x3b263e65	0.002536678
52	0x3e97446a	0.29544383
53	0xbe95d71c	-0.29265678
54	0xbd95c9d8	-0.07313889
55	0xbc497729	-0.012296476
56	0x3e658965	0.22415693
57	0xbed80b9e	-0.42196363
58	0x3daa10f6	0.08304016
59	0x3e62ddcf	0.22154926
60	0xbe1e716b	-0.15472953
61	0xbd9ae661	-0.075634725
62	0xbeab1bef	-0.3341975
63	0x3e3a12f4	0.18171293
64	0x3f114515	0.56746036
65	0x3ea479a1	0.32124045
66	0xbe95c31a	-0.29250413
67	0x3e52b97b	0.20578568
68	0x3d8a8742	0.0676408
69	0xbee79401	-0.45230106
70	0xbdd2f5c4	-0.10300782
71	0xbe89325b	-0.2679623
72	0x3e560288	0.20899403
73	0xbe5f7764	-0.21822888
74	0xbe6f085e	-0.23343036
75	0x3e191583	0.14949612
76	0x3f08f2cc	0.5349548
77	0xbcda3d47	-0.026640547
78	0xbefa1f59	-0.4885204
79	0x3f13785f	0.57605547
80	0x3d72dcfa	0.05929277
81	0xbea12627	-0.3147442
82	0x3e6a6b80	0.2289257
83	0x3e0a34ca	0.134967
84	0xbdd4d382	-0.103919044
85	0x3e92baa9	0.28658035
86	0xbd8c99c1	-0.06865264
87	0x3ecd37db	0.40081677
88	0x3e07afbd	0.13250633
89	0x3e83771c	0.2567681
90	0xbe8b1894	-0.2716719
91	0xbede8188	-0.434582
92	0x3ef4c2bb	0.47804818
93	0x3ef1d180	0.47230148
94	0xbee4ead8	-0.44710422
95	0x3ebe2958	0.37140918
96	0x3ef28159	0.4736431
97	0xbe8a23f3	-0.26980552
98	0xbdb49199	-0.08816833
99	0xbe15b2b7	-0.14618956
100	0xbe10037b	-0.14063828
101	0xbdbda4fe	-0.092599854
102	0xbe714e10	-0.23564935
103	0xbd4dfc43	-0.050289404
104	0x3eb72a71	0.35774568
105	0xbd35f8e0	-0.0444268
106	0x3d1f87b6	0.038947783
107	0xbdeccedc	-0.11562893
108	0x3d4ab863	0.04949225
109	0x3eb08446	0.34475917
110	0x3eff3ad4	0.4984957
111	0x3e31cd93	0.17363577
112	0x3f1bc26d	0.60843545
113	0x3e1f3b69	0.15550007
114	0xbc8801ad	-0.016602362
115	0x3d8bc5eb	0.06824859
116	0x3e48fff8	0.19628894
117	0xbe8e0574	-0.27738535
118	0xbe25feb9	-0.1621045
119	0xbe8d3055	-0.27575937
120	0x3ec19caa	0.37814838
121	0xbf1010bd	-0.5627554
122	0x3e2d8553	0.1694539
123	0x3ee3e9e4	0.44514382
124	0xbe4db5d3	-0.20088892
125	0xbe90d9a0	-0.28291035
126	0xbec396ba	-0.38200933
127	0x3d1257b3	0.035728168
128	0xbf0390de	-0.51392925
129	0xbdb82eb6	-0.089932844
130	0x3f06c795	0.5264829
131	0xbe610c84	-0.2197743
132	0x3e3ba817	0.1832584
133	0x3e7dd091	0.24786593
134	0x3df904bb	0.121591054
135	0x3e9ab266	0.30214232
136	0xbeead9a9	-0.45869187
137	0x3eb1dc2a	0.34738284
138	0x3d60a90d	0.05484872
139	0xbef8b26b	-0.48573622
140	0xbe181e43	-0.14855294
141	0x3f187670	0.5955572
142	0x3f057e6e	0.5214604
143	0xbf2b22e3	-0.6685011
144	0xbecfa887	-0.40558264
145	0x3dce4516	0.10071771
146	0x3d9ad318	0.07559794
147	0xbec7271f	-0.38897035
148	0x3e5997e2	0.21249345
149	0xbe399bc6	-0.18125829
150	0x3cfe194b	0.03101792
151	0xbe8ddac7	-0.27705976
152	0xbeb79e99	-0.35863188
153	0xbd87d4b8	-0.0663237
154	0x3f1ab862	0.60437596
155	0x3f199179	0.599876
156	0xbd89e5cd	-0.06733284
157	0xbf0a923b	-0.5412938
158	0xbcd7ceaa	-0.026343662
159	0xbf0d450a	-0.5518347
160	0xbc96332a	-0.018334944
161	0x3e91f2e3	0.2850562
162	0x3b116161	0.0022183286
163	0x3e1c6193	0.15271597
164	0x3ce9680f	0.028492002
165	0xbe28e4d8	-0.16493547
166	0x3c47cb36	0.012194445
167	0x3ee55672	0.44792515
168	0xbe2138cd	-0.15744324
169	0xbea3f4d8	-0.32022738
170	0x3ea6e92b	0.32599768
171	0x3d916e95	0.0710117
172	0x3d00eb84	0.031474605
173	0xbee41caf	-0.44553134
174	0x3d7c1045	0.061538953
175	0xbe581f80	-0.21105766
176	0xbe01bb7c	-0.12669176
177	0xbeb8ebec	-0.36117494
178	0x3dcbf6b2	0.09959163
179	0x3bbb7b42	0.0057214806
180	0xbede3e81	-0.43407062
181	0x3ec190c3	0.37805757
182	0x3de5060d	0.11182795
183	0x3d326d0c	0.043561026
184	0xbeae61b2	-0.3405891
185	0x3eb0f12b	0.34558997
186	0x3d84e0a3	0.064881586
187	0xbee196cc	-0.4406036
188	0x3eda8b72	0.42684513
189	0x3ec9d86d	0.39422932
190	0x3cb1caf2	0.021703217
191	0xbe159257	-0.14606605
192	0x3f3cd453	0.7376148
193	0x3ecaf299	0.39638212
194	0xbf01b775	-0.5067056
195	0x3f0e127a	0.55496943
196	0x3e045b1a	0.12925377
197	0xbeded0eb	-0.43518767
198	0xbf2b5080	-0.6691971
199	0xbe589d7c	-0.21153826
200	0x3eb767a8	0.3582127
201	0x3d5bee05	0.05369379
202	0xbe3a0c37	-0.18168722
203	0x3e86640a	0.262482
204	0x3cb79f41	0.022414805
205	0xbe74f4e5	-0.23921545
206	0xbf1bc43d	-0.6084631
207	0x3f39b8ff	0.72547907
208	0x3d91886a	0.07106097
209	0xbe367dbb	-0.178214
210	0xbe41942c	-0.1890418
211	0x3ee93ba2	0.4555331
212	0xbf1cd86a	-0.6126772
213	0x3ef4e67f	0.47832105
214	0x3e571732	0.21004942
215	0x3f159037	0.5842318
216	0x3c55c71f	0.013047962
217	0x3c597396	0.013272187
218	0xbf13717b	-0.5759503
219	0xbf206a38	-0.62662077
220	0x3e857d59	0.26072195
221	0xbe899edc	-0.26879013
222	0xbe182847	-0.14859115
223	0x3eb5d96b	0.3551744
224	0x3ec07b4e	0.37594074
225	0xbe08b119	-0.13348807
226	0xbe07ad9c	-0.1324982
227	0xbe5bbe6f	-0.21459363
228	0xbe7bc06a	-0.24585119
229	0xbe76bdbb	-0.24095814
230	0x3d7b4bcb	0.06135158
231	0xbebe03ce	-0.37112278
232	0x3ef3e0de	0.47632498
233	0xbdada325	-0.08478383
234	0x3c76f1f6	0.015072336
235	0x3e032846	0.12808332
236	0xbe12473d	-0.14284988
237	0x3f183278	0.5945201
238	0x3e0ec80e	0.13943502
239	0x3ebe1bba	0.3713053
240	0x3f068da7	0.52559894
241	0x3f02453c	0.50886893
242	0xbe75e87e	-0.2401447
243	0xbdfc5041	-0.12319995
244	0x3f02e792	0.511346
245	0xbee44301	-0.4458237
246	0xbe53e63a	-0.20693293
247	0xbf06ae50	-0.5260973
248	0x3e5da32e	0.2164428
249	0xbf1d4e38	-0.6144748
250	0x3e14d26f	0.14533399
251	0x3ed526fc	0.41631305
252	0xbf35bc53	-0.70990485
253	0xbf4255c9	-0.7591215
254	0xbe9014cd	-0.2814087
255	0x3e3155b7	0.17317854

critic.2.bias f4 [64]
0	0xbe6354ae	-0.22200271
1	0xbe18a63a	-0.1490716
2	0x3e62dcc4	0.22154528
3	0xbe966ca5	-0.29379764
4	0xbe63cc34	-0.22245866
5	0xbe0eb796	-0.1393722
6	0x3e99ddcf	0.3005204
7	0x3c5eeb3a	0.013605887
8	0x3d285328	0.04109493
9	0x3ea30a56	0.31843823
10	0xbc0482bb	-0.008087809
11	0xbe739bfb	-0.2378997
12	0xbe9ae2f2	-0.3025127
13	0xbe0728c1	-0.1319914
14	0x3dc3b011	0.095550664
15	0x3e9bdabf	0.30440328
16	0xbe6ab893	-0.22921972
17	0xbd9059e2	-0.07048394
18	0xbde370d2	-0.11105503
19	0x3e71e809	0.2362367
20	0xbb44e4dc	-0.0030043637
21	0x3e887253	0.26649722
22	0xbe0cd900	-0.13754654
23	0xbea1c86a	-0.31598216
24	0x3e3e7b4a	0.18601719
25	0x3c34aeba	0.011027986
26	0x3e771ce6	0.24132118
27	0x3d75e3db	0.060031753
28	0x3b50891c	0.0031820005
29	0x3d77bb78	0.06048152
30	0x3e58bc04	0.21165472
31	0xbc5e896f	-0.013582571
32	0xbe2bca34	-0.16776353
33	0x3e98dec2	0.2985745
34	0x3d558ad6	0.052134357
35	0xbd90e1c4	-0.070743114
36	0x3c8f91bf	0.017525552
37	0x3e3af9df	0.18259381
38	0xbe332750	-0.17495465
39	0xbd380076	-0.044922315
40	0xbeaa8362	-0.33303362
41	0x3e16f1ee	0.14740726
42	0x3e59e22e	0.21277687
43	0xbe0c25c4	-0.13686281
44	0x3e93e02d	0.2888197
45	0x3ebd0573	0.3691822
46	0x3db81a3f	0.08989381
47	0x3dcd24b9	0.1001677
48	0x3e9b56d7	0.3033969
49	0x3ecf4dba	0.40488988
50	0x3e74fd78	0.23924816
51	0xbe1d297a	-0.15347853
52	0x3d7ffc80	0.062496662
53	0x3e8ac1f1	0.2710109
54	0xbc4ebd17	-0.012618325
55	0x3de8224a	0.11334665
56	0x3d0d3de5	0.034482855
57	0xbe74e35d	-0.23914857
58	0x3e65d7c5	0.22445591
59	0x3dab5fda	0.083678916
60	0x3b9bafb5	0.0047511705
61	0x3eb8db6d	0.3610491
62	0x3e5f2be9	0.21794094
63	0xbc8e3b5a	-0.017362285

critic.4.weight f4 [1, 64]
0	0x3ece0a49	0.40242222
1	0x3ea911c2	0.3302136
2	0xbeaad722	-0.33367258
3	0x3ecf94b8	0.4054315
4	0x3e925c1e	0.28585905
5	0x3f09429f	0.5361728
6	0xbee587cb	-0.44830164
7	0x3e53d859	0.20687999
8	0x3e64e93f	0.22354601
9	0xbed5bc35	-0.41745153
10	0x3ee6f9f3	0.4511257
11	0x3ec4e09f	0.38452622
12	0x3ee55a07	0.44795248
13	0x3e9a5bd2	0.30148178
14	0x3edf1600	0.43571472
15	0xbec7e3e1	-0.39041045
16	0x3ec98842	0.3936177
17	0x3edfddd0	0.43723917
18	0x3eb96689	0.3621104
19	0xbeb72520	-0.35770512
20	0x3ed01984	0.40644467
21	0xbe9c5ff8	-0.30541968
22	0x3e884f64	0.2662307
23	0x3ec8674d	0.39141312
24	0xbec29fc8	-0.38012528
25	0xbf0380c1	-0.5136834
26	0xbf061b25	-0.5238517
27	0xbf1a87cf	-0.6036348
28	0xbea38489	-0.31937054
29	0x3e3975b9	0.18111314
30	0xbefe9bf9	-0.49728373
31	0x3e92f7f8	0.2870481
32	0x3f0f17a9	0.5589548
33	0xbee22a15	-0.4417273
34	0xbe5aa389	-0.21351446
35	0x3ecd0915	0.40045992
36	0xbeda074f	-0.425837
37	0xbf109a02	-0.56485
38	0x3edb595b	0.4284161
39	0x3eb643be	0.35598558
40	0x3ebcf812	0.36908013
41	0x3eb8fc29	0.36129883
42	0xbeb6b7bc	-0.35687053
43	0x3ee48b89	0.44637707
44	0x3f02ca86	0.51090276
45	0x3f15eead	0.58567315
46	0xbef58668	-0.47954106
47	0x3f0ef985	0.55849487
48	0x3ec6f18a	0.38856155
49	0xbea1c299	-0.3159378
50	0xbee02864	-0.43780816
51	0xbecfcced	-0.40586033
52	0xbec4453c	-0.38334072
53	0xbec5e643	-0.38652238
54	0x3ede7058	0.43445086
55	0xbf014ce2	-0.5050794
56	0xbeb672c2	-0.35634428
57	0x3eee137a	0.46499234
58	0xbea67a2f	-0.32515094
59	0xbee59ce5	-0.44846264
60	0x3eaa2d0b	0.3323749
61	0xbee76d6e	-0.45200676
62	0xbf1366a6	-0.57578504
63	0xbf335897	-0.7005705

actor.0.weight f4 [64, 8]
0	0xbd6d9c2e	-0.058010273
1	0x3c97a229	0.018509941
2	0x3e414ee2	0.18877748
3	0xbe007b0e	-0.12546942
4	0xbf4f290f	-0.80922025
5	0xbe4859eb	-0.19565551
6	0x3dad22c8	0.084538996
7	0x3e3ea16c	0.18616265
8	0xbe63701b	-0.22210734
9	0x3e07bf68	0.1325661
10	0xbd73e738	-0.05954668
11	0x3f3440f6	0.7041162
12	0x3e69fbc0	0.22849941
13	0xbdcc0daf	-0.099635474
14	0xbe40347b	-0.1877002
15	0x3e3ea683	0.18618207
16	0x3b154ab8	0.0022780132
17	0xbe9f3412	-0.31094414
18	0xbd57404b	-0.05255155
19	0xbf27cf44	-0.6555064
20	0x3ec0e875	0.3767735
21	0xba854c38	-0.001016981
22	0xbe832193	-0.25611553
23	0xbe85db98	-0.261441
24	0xbd998956	-0.07496898
25	0xbc4a0047	-0.012329168
26	0xbe4d0d50	-0.2002461
27	0x3ca7700a	0.020439167
28	0x3f1aa918	0.60414267
29	0xbd8f0243	-0.06982853
30	0xbe4270f8	-0.18988407
31	0xbe4f7adc	-0.20261711
32	0x3e003ac5	0.12522419
33	0xbd677bea	-0.056514658
34	0xbdbfe764	-0.09370306
35	0xbe20bd3f	-0.15697192
36	0x3eddb1b8	0.4329965
37	0x3e3f6fde	0.18695018
38	0x3e6513e2	0.22370866
39	0xbe8eaf26	-0.27868003
40	0xbdc6cb12	-0.09706701
41	0xbe78b22e	-0.2428672
42	0x3d599b78	0.053126782
43	0x3eeb2af2	0.45931202
44	0xbeeecfbb	-0.4664286
45	0x3c8aaf9e	0.016929444
46	0x3b90cd5b	0.0044190115
47	0x3d8a22f1	0.06744946
48	0xbe8a0ff1	-0.26965287
49	0x3d8a13d2	0.06742062
50	0xbdf88558	-0.12134808
51	0x3e09b6ad	0.13448592
52	0x3e13fa34	0.14450914
53	0x3ddd90e3	0.108186506
54	0x3dcb6cf2	0.09932889
55	0xbe92d95d	-0.2868146
56	0xbddce6b2	-0.10786189
57	0xbe452eb3	-0.19256096
58	0x3e677f47	0.22607146
59	0x3efa03a3	0.488309
60	0xbf509e35	-0.81491405
61	0xbf04e528	-0.51912165
62	0x3d9631f5	0.07333747
63	0x3e0caa71	0.13736893
64	0xbe5681d8	-0.20947969
65	0x3e0db5a7	0.13838826
66	0xbeec773a	-0.46184713
67	0xbedfdd23	-0.437234
68	0x3f0b9313	0.5452129
69	0x3eb1203e	0.3459491
70	0xbf08ce34	-0.5343964
71	0x3dd0b63a	0.10191007
72	0xbe00d38c	-0.12580699
73	0x3d368fc3	0.044570696
74	0xbba77676	-0.005110557
75	0x3e81c570	0.25345945
76	0xbf0b3c55	-0.54388934
77	0xbed25735	-0.4108216
78	0xbe014461	-0.1262374
79	0x3e08c51e	0.13356444
80	0xbd528c58	-0.051403373
81	0x3d00d56f	0.031453546
82	0xbd3b9256	-0.045793854
83	0xbe97fab6	-0.29683465
84	0xbf09b65c	-0.53793883
85	0x3cef910d	0.02924397
86	0x3e8f9035	0.2803971
87	0x3dea12e6	0.11429386
88	0x3cc26a64	0.023732372
89	0xbdb4cd10	-0.08828175
90	0x3b8506c1	0.004059643
91	0x3d03db83	0.032191765
92	0xbf2ba22b	-0.67044324
93	0xbe98b277	-0.29823658
94	0x3e1bbc23	0.15208487
95	0xbe4123a7	-0.18861257
96	0xbe443624	-0.19161278
97	0xbe0792cb	-0.13239591
98	0xbe631004	-0.22174078
99	0xbebac4fa	-0.36478406
100	0x3ee56523	0.44803724
101	0x3ed5ddd3	0.417708
102	0x3c8ebc7b	0.017423859
103	0xbe05f23a	-0.13080683
104	0xbe7de5f4	-0.24794751
105	0x3eafb9f1	0.3432155
106	0x3db61257	0.08890217
107	0xb9f73ab4	-0.00047155248
108	0xbc992adc	-0.018697195
109	0xbd9e71e9	-0.077365704
110	0x3e3033ff	0.17207335
111	0x3d11248b	0.03543524
112	0xbe0570fb	-0.1303138
113	0xbe5d4cfa	-0.21611395
114	0x3ebc21b8	0.36744475
115	0xbf118399	-0.5684143
116	0xbec27b26	-0.3798458
117	0xbd34ac38	-0.044109553
118	0x3dbe781f	0.09300255
119	0x3c0841bf	0.008316456
120	0xbe2b6e53	-0.16741304
121	0x3d9c7277	0.0763902
122	0x3d420c6b	0.047375124
123	0xbe7f7044	-0.2494517
124	0xbee96d3d	-0.45591155
125	0xbe08b06f	-0.13348554
126	0xbd5dd0b4	-0.054154113
127	0x3d99b370	0.07504928
128	0xbe8f483e	-0.27984804
129	0xbcfe064a	-0.031008858
130	0x3e0c5920	0.13705873
131	0x3f1c2ea1	0.6100865
132	0xbebab82b	-0.36468634
133	0xbec89358	-0.39174914
134	0xbd86e276	-0.06586163
135	0x3da01dab	0.07818159
136	0x3e226779	0.15859784
137	0x3d52391b	0.05132399
138	0xbe382316	-0.17982134
139	0xbecfa176	-0.40552872
140	0x3cb019c9	0.02149667
141	0x3c3050cb	0.01076145
142	0x3e8052c1	0.25063136
143	0xbe627b45	-0.22117336
144	0x3d308714	0.04309757
145	0x3dce3a42	0.100697055
146	0xbe8bceb9	-0.27306154
147	0x3e38dd53	0.18053178
148	0x3ef4a6bc	0.47783458
149	0x3e222670	0.15834975
150	0xbc25c124	-0.010116849
151	0x3d278e88	0.040907413
152	0x3e0ba7cc	0.13638228
153	0xbcdf2455	-0.027239004
154	0x3e38c346	0.18043241
155	0xbd9ca14f	-0.07647955
156	0xbf3ab286	-0.72928655
157	0xbec1970e	-0.37810558
158	0xbe8a6005	-0.27026382
159	0xbe168c41	-0.1470194
160	0xbcebd5df	-0.028788505
161	0xbe289289	-0.16462149
162	0xbe2bcd3b	-0.16777508
163	0xbdd183c1	-0.10230208
164	0x3e29bc81	0.16575815
165	0x3e63abbc	0.2223348
166	0x3db25c68	0.08709031
167	0x3e2e970f	0.17049812
168	0x3dc6725b	0.0968978
169	0x3cdd320e	0.027001407
170	0x3d9b44c3	0.07581475
171	0x3e77462c	0.24147862
172	0xbf211f15	-0.6293805
173	0xbed09671	-0.40739778
174	0x3d0625a4	0.03275074
175	0x3d8d2e6e	0.068936214
176	0x3cf6448f	0.030061988
177	0x3e3c6bfa	0.18400565
178	0xbe152345	-0.14564236
179	0x3f334b26	0.7003654
180	0x3f0ff400	0.5623169
181	0x3e988b5f	0.29793832
182	0x3cedad70	0.029013366
183	0xba62522a	-0.0008633459
184	0x3e88df88	0.2673304
185	0x3e260be9	0.16215481
186	0x3e5f3c92	0.2180045
187	0xbefd61fe	-0.49488825
188	0x3f282cf7	0.6569361
189	0x3e728a31	0.23685528
190	0xbe64d4cf	-0.22346805
191	0xbbf96a20	-0.007611528
192	0xbe922f89	-0.2855189
193	0x3d9415d5	0.07230727
194	0xbdff3fb3	-0.124633215
195	0x3ed60d22	0.41806895
196	0xbe88a1c1	-0.26685908
197	0xbe97baff	-0.29634854
198	0xbd109ec0	-0.035307646
199	0x3d8ec670	0.06971443
200	0xbd0edfb1	-0.034881297
201	0x3d3643a2	0.044498093
202	0xbdf9aa4c	-0.12190685
203	0xbf0cf490	-0.5506067
204	0x3d8d4a06	0.068988845
205	0x3e9bbcf6	0.30417603
206	0xbdb5bcbd	-0.088738896
207	0x3d33e0b7	0.043915477
208	0x3da2d32e	0.079504356
209	0x3cc5b7bc	0.024135463
210	0x3f09449e	0.53620327
211	0x3e336aa3	0.17521147
212	0xbed4d601	-0.41569522
213	0xbd1f2bce	-0.038860135
214	0xbe61c559	-0.22047938
215	0x3e7c95e3	0.24666552
216	0x3dd1c086	0.10241799
217	0xbe319d96	-0.1734527
218	0xbd8391a7	-0.06424265
219	0xbee8ba2a	-0.45454532
220	0x3f27d4a5	0.65558845
221	0x3efe59de	0.49677938
222	0x3dcf4f03	0.10122492
223	0x3dcaa7fd	0.098953225
224	0x3c7abba7	0.015303529
225	0xbe7f65ed	-0.24941225
226	0xbd7a115a	-0.061051704
227	0xbe7af463	-0.24507289
228	0x3f41fda2	0.7577764
229	0x3cedf93a	0.029049505
230	0xbe1caf0d	-0.15301152
231	0xbcc8eadb	-0.02452605
232	0x3ddff132	0.10934676
233	0xbdc58aff	-0.09645652
234	0x3a6583b1	0.000875528
235	0xbf5a3fc2	-0.85253537
236	0xbe8dad45	-0.27671257
237	0xbf1268f2	-0.57191384
238	0xbbba0df7	-0.0056779343
239	0xbde69241	-0.112583645
240	0xbda3b262	-0.07993008
241	0xbbbfab7c	-0.0058493
242	0xbcc7759a	-0.024348069
243	0x3f19be9b	0.60056466
244	0x3f0eb1e4	0.5574019
245	0x3e2528b7	0.16128813
246	0xbd9e5eea	-0.07732947
247	0xbcea8527	-0.028627945
248	0x3dd324e3	0.1030977
249	0x3cac840b	0.021059057
250	0xbc93f3ff	-0.018060682
251	0x3ef0d5e9	0.470382
252	0x3e9c1d30	0.30491018
253	0xbbcb8101	-0.006210447
254	0xbdd75b4a	-0.10515459
255	0xbe480122	-0.19531682

actor.0.bias f4 [64]
0	0x3b51d175	0.0032015715
1	0xb84428e7	-4.6768135e-05
2	0x3d3e1e8e	0.046415858
3	0xbb863ca8	-0.0040965863
4	0xb819d24f	-3.6673908e-05
5	0xbc41f46d	-0.011838061
6	0x3c5c9593	0.013463396
7	0x3d3817ec	0.04494469
8	0xbd326b3b	-0.043559294
9	0x3d5e20e1	0.054230575
10	0xbc9d3185	-0.019188652
11	0x3c65fee6	0.014037823
12	0x3be223fe	0.0069012633
13	0xbb560839	-0.003265871
14	0x3d4483c9	0.047977243
15	0xbd059620	-0.032613873
16	0x3b26f5f3	0.0025476187
17	0xbcc968fc	-0.024586193
18	0x3ae50720	0.0017473437
19	0xbb905127	-0.0044042054
20	0x3ce808f8	0.02832459
21	0xbc90ce59	-0.01767652
22	0xbd4d5b09	-0.050135646
23	0xbafea495	-0.0019427711
24	0x3c9e30af	0.019310324
25	0x3cc83d2f	0.024443237
26	0xbabe9095	-0.0014538938
27	0x3d31f2d1	0.04344446
28	0x3d22b527	0.03972354
29	0x3c4f1cb1	0.012641118
30	0xbd054d1c	-0.03254424
31	0xbc457bf0	-0.012053475
32	0x3c25654b	0.010094951
33	0x3c459980	0.012060523
34	0x3bed41c3	0.0072405054
35	0xbd351d26	-0.04421725
36	0x3c935ba1	0.017988028
37	0x3c99426c	0.01870843
38	0xbc36a03b	-0.0111466
39	0xbbadfcbb	-0.005309669
40	0xbcc60b5b	-0.024175337
41	0xbb4647fa	-0.0030255304
42	0x3befe00c	0.0073204096
43	0xbc8e0a07	-0.017338766
44	0xbc902a22	-0.017598215
45	0xbc84af76	-0.016196948
46	0xbc69431c	-0.0142371915
47	0x3bb16ac3	0.0054143383
48	0x3cd5bf41	0.026092174
49	0xbc951558	-0.018198654
50	0xbc8f3922	-0.017483298
51	0xbccdf169	-0.025139527
52	0x3c6754a5	0.014119302
53	0x3c9b082b	0.018924793
54	0xbb72cdec	-0.0037049009
55	0xbc071c25	-0.008246456
56	0xbd70f8e2	-0.058831103
57	0xbbe9cc9c	-0.007134987
58	0x3bf7b57b	0.007559476
59	0xbcf6a962	-0.030110065
60	0x3c8b96d0	0.017039686
61	0x3bca81ec	0.0061800387
62	0x3cbb01b6	0.022827964
63	0xbd36015f	-0.0444349

actor.2.weight f4 [64, 64]
0	0x3eb728e7	0.35773394
1	0xbe023338	-0.12714851
2	0x3e91a2a7	0.28444406
3	0xbee813ab	-0.45327505
4	0x3db8a408	0.090156615
5	0x3e32e33e	0.17469499
6	0xbe9071f6	-0.28211945
7	0x3e4c2735	0.19936831
8	0x3d3800db	0.04492269
9	0xbe4d2096	-0.20031962
10	0x3e82ea56	0.2556941
11	0x3e9a7ebc	0.30174816
12	0x3d3af107	0.045640018
13	0x3d4e9fcc	0.050445363
14	0x3d711431	0.058857147
15	0x3e7d3cf4	0.24730283
16	0x3e57f5fe	0.21089932
17	0x3e9d58bf	0.3073177
18	0xbd16d788	-0.03682664
19	0x3eddd454	0.43326056
20	0xbd5e01f9	-0.0542011
21	0x3e436f49	0.1908542
22	0xbe57d341	-0.2107668
23	0xbd8638dd	-0.065538146
24	0x3da375cf	0.079814546
25	0xbc135375	-0.008992066
26	0x3e003116	0.12518725
27	0x3e2b24b1	0.16713215
28	0xbe1b2db5	-0.15154155
29	0x3f097d11	0.5370646
30	0xbed71052	-0.4200464
31	0xbf103eaa	-0.5634562
32	0x3e8dca10	0.27693224
33	0x3e31c9ed	0.17362185
34	0x3b95b131	0.004568242
35	0x3e923325	0.28554645
36	0x3e960a35	0.29304662
37	0x3dde1d4e	0.10845433
38	0x3eb9ce57	0.36290237
39	0x3dda1461	0.10648418
40	0x3f2358ac	0.6380718
41	0xbe2d7ece	-0.16942903
42	0xbe534250	-0.20630765
43	0x3e52f540	0.20601368
44	0x3e932bb1	0.2874427
45	0x3e0a067c	0.13479036
46	0xbe0c52ed	-0.13703509
47	0xbdb38ac7	-0.08766704
48	0x3c0fd44b	0.008778642
49	0x3dd6c554	0.10486856
50	0xbe2802e0	-0.16407347
51	0xbe0a6186	-0.13513765
52	0x3cafad47	0.02144493
53	0x3ea145c6	0.31498545
54	0x3e9eb480	0.30997086
55	0xbe47376a	-0.19454733
56	0xbd7daf05	-0.06193449
57	0x3e88b61b	0.26701435
58	0x3d0daafa	0.034586884
59	0x3e46a9d3	0.1940072
60	0x3e88e865	0.26739803
61	0xbf216e5e	-0.6305903
62	0x3ece95da	0.40348703
63	0xbe6d821a	-0.23194161
64	0xbe5f320b	-0.21796434
65	0xbd1f758d	-0.038930465
66	0x3e2f1751	0.17098738
67	0x3ec797c5	0.38982978
68	0x3e66f5f0	0.22554755
69	0xbe285cae	-0.16441604
70	0x3cdf9275	0.027291516
71	0xbefa98a0	-0.4894457
72	0x3cd4a557	0.025957746
73	0x3c951bb8	0.018201694
74	0xbe7303b7	-0.23731886
75	0xbebeb20a	-0.37245208
76	0x3e5d3d32	0.21605375
77	0xbcbfef2e	-0.02342948
78	0xbed89fad	-0.42309323
79	0x3e375c9b	0.1790642
80	0xbeb4ec74	-0.3533665
81	0xbe2a4e8f	-0.1663153
82	0x3ee93180	0.45545578
83	0xbd525760	-0.05135286
84	0x3d80108a	0.062531546
85	0xbe29338a	-0.16523567
86	0x3d9649ea	0.07338317
87	0x3e721857	0.23642097
88	0xbe89a51d	-0.26883784
89	0x3e67d177	0.22638498
90	0x3e0189d2	0.1265023
91	0x3e048a8d	0.12943478
92	0x3d886b24	0.066610605
93	0x3d824bf2	0.06362142
94	0x3e0ce1c2	0.13757995
95	0x3df5f40e	0.1200944
96	0xbea8ee98	-0.32994533
97	0xbe9193e4	-0.28433144
98	0x3d761a8b	0.060083907
99	0x3e66fdc2	0.22557738
100	0xbf1c1802	-0.60974133
101	0x3e6fab46	0.2340518
102	0x3cd62381	0.026139976
103	0xbe8a435c	-0.27004516
104	0xbe84dbad	-0.2594885
105	0xbdc1b741	-0.09458781
106	0x3f006503	0.5015413
107	0xbe82d140	-0.2555027
108	0xbf116362	-0.5679227
109	0xbc4d77e5	-0.012540792
110	0x3e9293d2	0.28628403
111	0x3e0472c0	0.12934399
112	0x3d791998	0.060815424
113	0xbef24839	-0.47320727
114	0x3e23677d	0.15957446
115	0x3ed59c61	0.4172087
116	0x3d334a46	0.043772005
117	0xbd6ef1e2	-0.058336146
118	0xbe365fc9	-0.17809977
119	0x3dc3263b	0.09528776
120	0x3eb9d5c8	0.36295915
121	0x3e8e7d9c	0.27830207
122	0x3cf74bcc	0.03018751
123	0xbe863756	-0.26214093
124	0xbdded443	-0.108803295
125	0x3ee58502	0.4482804
126	0x3e8e9b1d	0.27852717
127	0x3e89cb66	0.26912993
128	0xbe558ed6	-0.20855269
129	0xbd2757d2	-0.040855236
130	0x3e38d961	0.18051673
131	0x3ea3bab6	0.31978387
132	0x3d0291f6	0.03187748
133	0xbc3a8306	-0.0113837775
134	0xbe5b628c	-0.21424311
135	0xbe101278	-0.14069545
136	0x3f0081b8	0.50197935
137	0xbe236916	-0.15958056
138	0x3e1e913f	0.15485094
139	0xbed2ffd4	-0.41210806
140	0x3efef0fa	0.49793226
141	0xbdd0032e	-0.101568565
142	0x3dc95438	0.098305166
143	0xbd3aaf81	-0.04557753
144	0xbd4b7d45	-0.049680013
145	0x3e507894	0.20358497
146	0xbcd0c939	-0.025486575
147	0xbcac1d85	-0.02101017
148	0x3cda1c16	0.02662472
149	0xbdad42a7	-0.084599786
150	0xbe395d13	-0.18101911
151	0x3e81952f	0.2530913
152	0xbc9d8409	-0.019227998
153	0x3e84d646	0.25944728
154	0xbe8c3a1f	-0.27388093
155	0x3e2a18fe	0.16611096
156	0x3e26e72d	0.16299124
157	0x3e6bbe79	0.23021878
158	0xbe027295	-0.12739022
159	0xbe5d1cfb	-0.21593086
160	0x3e3767ec	0.17910737
161	0xbe90323f	-0.28163335
162	0x3e545932	0.2073715
163	0xbe1c772f	-0.1527984
164	0x3dc9ddc2	0.0985675
165	0x3e7d4b0b	0.24735658
166	0xbec6c7c2	-0.38824278
167	0xbd109dbb	-0.035306673
168	0xbe60f5f5	-0.21968825
169	0x3eab8fbd	0.335081
170	0x3e22a21f	0.15882157
171	0xbec39790	-0.3820157
172	0xbc0233df	-0.007946937
173	0xbe2fb01f	-0.17157029
174	0x3d10c12e	0.03534048
175	0x3e126c51	0.14299132
176	0x3ea0c647	0.31401274
177	0xbf17cb1e	-0.5929431
178	0xbcafaad2	-0.021443758
179	0xbe38b772	-0.18038729
180	0x3e2d8c0b	0.16947953
181	0xbe8746db	-0.26421246
182	0xbed1cfb3	-0.40978774
183	0xbdb72920	-0.08943391
184	0x3e840bfc	0.25790393
185	0xbe7050e1	-0.23468353
186	0x3e85f857	0.2616603
187	0xbd3a3606	-0.045461677
188	0x3ee6a98e	0.45051235
189	0x3e63f6f0	0.22262168
190	0x3e6dde1b	0.23229258
191	0x3e3ba011	0.18322779
192	0xbdabcbc0	-0.083884716
193	0x3d26fd3a	0.04076884
194	0xbed846c9	-0.42241505
195	0xbe42c6c7	-0.1902114
196	0xbe4eebf3	-0.20207195
197	0x3e6f1a4e	0.23349878
198	0xbe92cae7	-0.28670427
199	0x3eb76420	0.35818577
200	0xbecf1238	-0.40443587
201	0x3da94fb0	0.08267152
202	0xbdbf6b95	-0.093466915
203	0x3ec89de8	0.39182973
204	0xbe9e340a	-0.30899078
205	0xbeb98693	-0.36235484
206	0xbda02483	-0.07819464
207	0x3ed3d5e4	0.41374123
208	0x3eead1c7	0.45863172
209	0x3e060fc9	0.13091959
210	0xbe7f08d1	-0.24905707
211	0x3e3c2f7d	0.1837749
212	0xbe0b1703	-0.13582997
213	0x3ef545b7	0.4790475
214	0xbd0b51e0	-0.03401363
215	0x3db09eb0	0.08624017
216	0x3dbd960e	0.09257136
217	0xbefb135f	-0.49038216
218	0x3e76854a	0.24074283
219	0xbe02033e	-0.1269655
220	0xbf20bbe1	-0.6278668
221	0xbd5b3474	-0.05351682
222	0xbd4da50b	-0.050206225
223	0xbce8e1a7	-0.028427912
224	0xbe422c69	-0.18962254
225	0x3c4aba5f	0.012373536
226	0x3d01cf28	0.0316917
227	0x3d3061bb	0.043061953
228	0x3d2ffb50	0.04296428
229	0x3ce68286	0.02813841
230	0x3d1ab0f8	0.037766427
231	0xbe13222e	-0.14368507
232	0x3e02c566	0.12770614
233	0xbdd62bd5	-0.10457579
234	0xbe95e99b	-0.2927979
235	0xbd1cd0a3	-0.03828491
236	0x3d9c4826	0.07630949
237	0x3eb856ea	0.3600381
238	0x3d5e93ce	0.054340176
239	0x3d1f4d91	0.038892332
240	0xbe82a3c4	-0.25515568
241	0x3eb125f2	0.34599262
242	0x3e6f77e1	0.23385574
243	0xbe38f26f	-0.18061231
244	0xbe3a7f95	-0.18212731
245	0xbb520753	-0.0032047823
246	0xbdeee532	-0.11664809
247	0x3c2d7243	0.010586324
248	0xbe047f0c	-0.1293909
249	0xbe001c18	-0.12510717
250	0xbec052dd	-0.3756322
251	0x3e7069ff	0.23477934
252	0xbebb1de7	-0.3654625
253	0x3e1a28de	0.15054652
254	0xbd683d13	-0.05669887
255	0x3e8241f3	0.2544094

actor.2.bias f4 [64]
0	0xbd020fc8	-0.03175333
1	0x3c3f40d2	0.011673169
2	0x3c102b96	0.008799454
3	0xbd0f8765	-0.03504123
4	0x3d3ec8c5	0.046578187
5	0x3d832654	0.06403795
6	0xbc7b34c3	-0.015332404
7	0xbca81b46	-0.020520817
8	0xbc59256e	-0.013253553
9	0x3d0fae39	0.03507826
10	0xbc5067eb	-0.0127200885
11	0x3ca0e673	0.019641137
12	0x3a17f384	0.00057964795
13	0x3c1c1fe1	0.009529085
14	0x3c900e95	0.017585078
15	0xbc3f9a3c	-0.011694487
16	0x3c9d82bc	0.019227378
17	0x3d07fd89	0.033200774
18	0x3d53d389	0.051715408
19	0xba447368	-0.00074940035
20	0x3c67cdaa	0.014148155
21	0xbd113794	-0.035453394
22	0x3d31fed7	0.043455925
23	0xbbf7da23	-0.0075638457
24	0xbbb49467	-0.005510855
25	0x3b87181c	0.004122747
26	0xbd05e75c	-0.032691345
27	0xbbc58892	-0.0060282433
28	0x3d3c614a	0.04599122
29	0x3d10ba35	0.03533383
30	0x3bee4440	0.0072713196
31	0xbc2c6e34	-0.010524321
32	0x3d3028c7	0.04300764
33	0x3ccc5876	0.024944525
34	0xbb619a40	-0.0034424216
35	0x3c7757a8	0.0150965825
36	0x3a98d1be	0.0011659188
37	0xbd001581	-0.031270508
38	0xbd00cb45	-0.031443853
39	0xbd073a82	-0.03301478
40	0xbb7eeb7d	-0.0038897686
41	0x3cf45ed3	0.029830372
42	0xbd1ce4b3	-0.038304042
43	0xbb910e55	-0.0044267573
44	0x3bb8d6fb	0.005640862
45	0x3bb9ba08	0.0056679286
46	0x3c4a64c0	0.012353122
47	0xbbdd7ede	-0.0067595085
48	0xbd913a31	-0.07091177
49	0xbc9a2524	-0.018816538
50	0x3d893b5c	0.06700775
51	0x3c8226c3	0.015887624
52	0x3c14e3c7	0.0090875095
53	0x3ce1c277	0.027558548
54	0x3bb8a212	0.0056345547
55	0xbd0aeef1	-0.03391928
56	0x3cb6f497	0.022333426
57	0xbbc1a119	-0.005909097
58	0xbcdec834	-0.027195074
59	0xbd828df6	-0.06374733
60	0xbd668e73	-0.056288194
61	0xbb90ec2a	-0.004422684
62	0xbd28e7f2	-0.041236825
63	0xbd6a5821	-0.057212953

actor.4.weight f4 [4, 64]
0	0xbe41c617	-0.18923222
1	0x3ce335cc	0.027735613
2	0xbdf1292c	-0.11775431
3	0x3e02700e	0.12738058
4	0xbe0cbb33	-0.13743286
5	0xbc316750	-0.010827854
6	0x3dfc101c	0.1230776
7	0x3e2600a8	0.16211188
8	0x3dfe5fd2	0.1242062
9	0xbdf8edac	-0.12154707
10	0xbb2e89f1	-0.0026632512
11	0xbc85eb3c	-0.01634752
12	0x3dfd31cb	0.12363013
13	0xbe063b87	-0.13108645
14	0xbe041f87	-0.12902652
15	0x3e1638c1	0.14670087
16	0xbd311386	-0.04323151
17	0xbe002521	-0.12514164
18	0x3d7b5cc1	0.061367754
19	0xbcf20f98	-0.029548451
20	0x3d8b44b6	0.06800215
21	0x3e190c25	0.14946039
22	0xbd426df1	-0.04746813
23	0x3d888338	0.06665653
24	0x3d1771ae	0.036973648
25	0x3ded665d	0.1159179
26	0x3e37933a	0.17927256
27	0x3e17ab01	0.14811327
28	0xbdd408b7	-0.10353225
29	0xbe024d85	-0.12724884
30	0xbe16770a	-0.14693847
31	0xbdf26474	-0.11835566
32	0xbdae3232	-0.08505668
33	0xbe09d360	-0.1345954
34	0xbd9af5d2	-0.07566418
35	0xbe2be7e9	-0.16787685
36	0x3d705081	0.058670525
37	0x3de42506	0.11139874
38	0x3d96d18d	0.073641874
39	0x3bdaca4d	0.006676948
40	0x3d2f7833	0.04283924
41	0xbdbbef78	-0.091765344
42	0x3d58a903	0.052895557
43	0xbe0e430d	-0.13892765
44	0xbd43392f	-0.047661956
45	0xbe289d3d	-0.16466232
46	0x3e06ad77	0.13152109
47	0x3e303651	0.1720822
48	0x3e4b2c25	0.19841059
49	0x3d9f7689	0.07786281
50	0xbe12cd25	-0.14336069
51	0x3e4aacd0	0.19792485
52	0xbcdb532f	-0.026773063
53	0x3d6adcab	0.05733935
54	0xbe1764c7	-0.14784537
55	0x3e1ac190	0.151129
56	0x3e13f755	0.14449818
57	0xbe16b643	-0.14717965
58	0x3e2272f9	0.15864171
59	0x3da0735f	0.07834505
60	0x3e4108ec	0.1885106
61	0xbd95c8a7	-0.07313662
62	0xbc71d7c0	-0.014760911
63	0xbb2f6575	-0.0026763354
64	0x3e8e85ac	0.2783636
65	0xbeb823e2	-0.35964876
66	0xbe71463e	-0.23561952
67	0x3e8cd45a	0.2750576
68	0xbe9320d4	-0.28735983
69	0xbdfa97df	-0.12235998
70	0xbe2052cc	-0.15656585
71	0xbde9f59a	-0.11423798
72	0xbe5c66c4	-0.21523577
73	0xbc509cd5	-0.012732704
74	0xbe9ed01d	-0.31018153
75	0xbe90b9b1	-0.2826667
76	0x3eabca22	0.33552653
77	0xbec62b59	-0.38704947
78	0xbe7df28f	-0.2479956
79	0x3e744383	0.23853879
80	0x3e8d4a17	0.2759559
81	0xbe3d392f	-0.18478845
82	0x3ea44a8f	0.32088134
83	0xbeb7a0b4	-0.35864794
84	0xbeb7d816	-0.35907048
85	0xbdad56ce	-0.08463822
86	0xbde57c06	-0.11205296
87	0xbeb4e294	-0.35329115
88	0xbe2b262c	-0.1671378
89	0x3ec2519b	0.37952885
90	0xbdf04185	-0.11731247
91	0x3ea3f9c4	0.32026494
92	0x3d0b75e8	0.03404799
93	0xbca439f2	-0.020047162
94	0x3dee3810	0.11631787
95	0x3e74b583	0.23897366
96	0xbe454473	-0.19264393
97	0xbea7037d	-0.3261985
98	0x3e2161dc	0.15759987
99	0x3e2ddfae	0.16979858
100	0xbe377a0e	-0.17917654
101	0x3e8c3b73	0.27389106
102	0x3eb1b9a3	0.34711942
103	0xbe820f22	-0.2540217
104	0x3e830d86	0.25596255
105	0x3e6ab291	0.2291968
106	0x3e4b1908	0.19833767
107	0xbec6a48d	-0.38797417
108	0xbeaaebc7	-0.3338301
109	0xbe8e2b06	-0.277672
110	0x3e9212cd	0.2852997
111	0x3ea42f83	0.320675
112	0x3d5d8124	0.054078236
113	0x3ea80f8f	0.3282437
114	0xbd178fb1	-0.03700227
115	0xbe791f8e	-0.24328443
116	0xbe1f494b	-0.15555303
117	0x3ea7c343	0.3276616
118	0x3e474864	0.19461209
119	0x3e51d6fa	0.20492163
120	0xbde4b635	-0.11167566
121	0x3db0b3fc	0.08628079
122	0x3eb3a27d	0.35084906
123	0x3dce1ebc	0.10064456
124	0x3de2a59c	0.11066744
125	0xbe8ab041	-0.27087596
126	0xbeb8e248	-0.3611014
127	0x3decf6e7	0.115705304
128	0x3e61ba72	0.2204378
129	0xbd058c86	-0.032604717
130	0x3e6cdb17	0.23130451
131	0xbe8b28f7	-0.2717969
132	0x3ea3f0f0	0.32019758
133	0x3e38a12c	0.18030232
134	0xbe971f3e	-0.29516023
135	0xbe9fbcd6	-0.31198758
136	0xbe94518d	-0.28968468
137	0x3e877bcc	0.26461637
138	0x3cd12a6f	0.02553293
139	0x3c02d6dc	0.007985797
140	0xbe73aae5	-0.2379566
141	0x3e864b37	0.2622926
142	0x3e89f07f	0.26941296
143	0xbe8d0c85	-0.27548614
144	0x3dae96c1	0.08524848
145	0x3e905136	0.2818696
146	0xbdaea4ff	-0.08527564
147	0x3dac6369	0.084173985
148	0xbd8c8af4	-0.06862441
149	0xbea2acaf	-0.31772372
150	0x3e4c2c6a	0.19938818
151	0xbd91df3f	-0.07122659
152	0x3d698a08	0.057016402
153	0xbe689851	-0.22714354
154	0xbeb9f788	-0.36321664
155	0xbe9b0d46	-0.30283564
156	0x3e9029dc	0.28156936
157	0x3e9159b5	0.28388754
158	0x3e820e1d	0.25401393
159	0x3e51cc9f	0.20488213
160	0x3e834ea1	0.25645927
161	0x3e9748e0	0.29547787
162	0x3e364ed2	0.17803505
163	0x3e91d43e	0.2848224
164	0xbdde6fac	-0.108611435
165	0xbe8d79f0	-0.27632093
166	0xbe6c253b	-0.23061077
167	0xbd188854	-0.037239388
168	0xbd3ad8c4	-0.04561688
169	0x3e4fa856	0.20279059
170	0xbe4aaf58	-0.19793451
171	0x3e8b6c90	0.27231264
172	0x3de013bc	0.10941264
173	0x3e8edb0e	0.279015
174	0xbe5fc93d	-0.2185411
175	0xbe961c76	-0.2931859
176	0xbeb43579	-0.35197046
177	0xbe41efc9	-0.18939127
178	0x3eaceb84	0.33773434
179	0xbe78a722	-0.24282506
180	0x3e0a8c67	0.13530122
181	0xbdbb3cb1	-0.09142435
182	0x3e8f5073	0.27991065
183	0xbe9b1d24	-0.3029567
184	0xbe6060a0	-0.2191186
185	0x3e80f040	0.25183296
186	0xbeaa3136	-0.3324067
187	0xbe8e0e51	-0.27745298
188	0xbeab9822	-0.33514506
189	0x3e0eaea8	0.13933814
190	0x3c38c3b8	0.011277132
191	0xbe190cda	-0.14946309
192	0xbe94d7ab	-0.29070792
193	0x3ec9a159	0.3938091
194	0x3df4df6e	0.11956678
195	0xbe0ed7e3	-0.13949542
196	0xbdd719fc	-0.10503003
197	0xbe0d12b3	-0.13776664
198	0x3eae1a91	0.34004644
199	0x3eb9c21c	0.36280906
200	0x3ebef4f6	0.37296265
201	0xbe902b6f	-0.28158137
202	0x3e92d4d0	0.28677988
203	0x3ea08b38	0.31356215
204	0xbe603755	-0.21896107
205	0x3e688977	0.22708689
206	0x3d21fce8	0.03954783
207	0xbdb02071	-0.08599938
208	0xbe8f35da	-0.27970773
209	0xbe102283	-0.14075665
210	0xbe9c0c3a	-0.30478078
211	0x3e948fd0	0.2901597
212	0x3eaceceb	0.33774504
213	0x3eb2a4fd	0.348915
214	0xbe234db7	-0.15947615
215	0x3eb88121	0.36036018
216	0x3d8d31c3	0.06894257
217	0xbe946413	-0.289826
218	0x3eb770da	0.35828286
219	0xbe36e5f0	-0.17861152
220	0xbeab6a30	-0.33479452
221	0xbea431af	-0.32069156
222	0xbe588250	-0.2114346
223	0xbe95074f	-0.2910714
224	0xbe066638	-0.13124931
225	0x3e558831	0.20852734
226	0xbe95b579	-0.29240015
227	0xbea2c7a2	-0.31792933
228	0x3e7a6969	0.24454273
229	0xbd453141	-0.048142675
230	0xbe5304fe	-0.20607373
231	0x3e8af09c	0.27136695
232	0xbe862b92	-0.26205117
233	0xbe921cea	-0.28537685
234	0x3d2f86ca	0.042853154
235	0x3e520a3c	0.20511717
236	0x3e968e72	0.29405552
237	0x3da02b2d	0.07820735
238	0xbe7354be	-0.23762795
239	0xbe235bb9	-0.15952958
240	0x3e9b3cf7	0.3031995
241	0xbe7fe8c2	-0.24991134
242	0xbe9cd4d5	-0.30631128
243	0x3e947ac6	0.2899992
244	0x3cbd2763	0.02309007
245	0xbe98acda	-0.29819375
246	0xbea33c85	-0.3188211
247	0xbc0d59a3	-0.008627328
248	0x3e8e1191	0.27747777
249	0xbe98b246	-0.29823512
250	0xbe316db8	-0.1732701
251	0x3e5d2e1f	0.21599625
252	0x3e94229f	0.28932664
253	0x3e74c037	0.23901449
254	0x3eace867	0.3377106
255	0x3dbb52a4	0.09146622

actor.4.bias f4 [4]
0	0x3df4c47b	0.11951538
1	0xbdd7a311	-0.10529149
2	0x3d9e051c	0.07715818
3	0xbde43fbc	-0.11144969
