HFDRL_UNIT8/models/Archived/LunarLander-v3__ppo__1__1768735599__u360.pt (torch, 44753 bytes, 11 tensors)

critic.0.weight f4 [64, 8]
000000 cd b7 fa bd 38 b1 1b 3e 32 57 77 3d 46 b0 12 be
       -0.122420885 0.15204322 0.06038589 -0.14325055
000010 bd 04 97 bd 97 ab 1c 3e 54 5d 99 be dd 9c fb 3d
       -0.07373951 0.15299831 -0.29954016 0.12285779
000020 e9 f0 4f be 1f de 8d 3e 59 80 47 3e 0a 11 96 be
       -0.20306744 0.27708527 0.19482554 -0.29309875
000030 1b 12 63 be e7 3e 61 be e4 84 2a 3e f1 94 60 bd
       -0.22174875 -0.21996652 0.16652256 -0.05482954
000040 3f a2 09 bd d7 76 9b be 7c 28 b1 3d 96 81 bd 3e
       -0.033601996 -0.30364105 0.086503 0.3701293
000050 fe 38 b6 3c a4 18 b6 3d 28 b7 06 3e 6a da df 3e
       0.022243973 0.088914186 0.13155806 0.43721324
000060 28 f8 3c be 14 63 56 3e 99 ef 89 3b a4 48 26 bf
       -0.18454039 0.20936233 0.0042094705 -0.6495459
000070 72 93 81 3e 27 94 75 3c 38 51 5b be e8 6a f6 bd
       0.25307804 0.014988936 -0.21417701 -0.120321095
000080 98 38 11 bc b8 f7 43 be 0b 48 2d 3e ac 95 95 3e
       -0.008863591 -0.19137466 0.16922013 0.29215753
000090 5f b3 e5 3c 06 40 11 be 73 8b 92 3e e9 ad ac bd
       0.028039632 -0.14184579 0.28622016 -0.08431608
0000a0 e0 80 93 bb d4 87 a7 be ef 7f 19 3d 2e a1 02 3e
       -0.004501447 -0.32720816 0.037475523 0.12756798
0000b0 05 ec b4 3c 04 7d 6d 3e db 17 3e be 76 41 44 be
       0.0220852 0.23192221 -0.18563788 -0.19165596
0000c0 47 df 95 be f5 24 83 be 13 1e 98 3c 3c c9 10 3e
       -0.2927191 -0.25614133 0.018569028 0.14139265
0000d0 c6 3a 25 3c 3e 0d 84 be 1a 31 e6 3e 82 b6 4b 3e
       0.010084813 -0.25791353 0.44959337 0.1989384
0000e0 25 c1 e6 bc 22 0c 13 3f 28 ff 3e 3e 4d ee 6e 3e
       -0.02816827 0.5744039 0.18652022 0.23333092
0000f0 2c 7f 65 bc 75 19 1c 3e 51 b2 90 3e 91 64 c7 3e
       -0.014007371 0.15244086 0.28261045 0.38943914
000100 68 ed 19 3e d8 15 d3 bb 75 8c c8 3e ce e7 b2 be
       0.1503197 -0.006441813 0.3916966 -0.34942478
000110 92 7d dd 3e e0 49 bf bd 06 e0 78 bd 6d 6a 7f bd
       0.43259865 -0.093402624 -0.06076052 -0.062357355
000120 68 c1 32 bd 66 87 51 3e 12 f3 7f 3e f7 10 93 be
       -0.043641478 0.20461807 0.24995068 -0.2872388
000130 70 f4 2e 3e fd 9e b3 3d ea 39 7e 3e 24 c3 06 3f
       0.17085433 0.08770559 0.2482678 0.5264151
000140 4e 91 aa bd 27 1e d0 be 74 1b 00 3e 54 67 01 3f
       -0.08328496 -0.40648004 0.12510473 0.5054829
000150 5a cc 99 3c 58 dc 87 3e 83 5b ce bd 1e 56 8e be
       0.0187742 0.26535296 -0.10076048 -0.27800077
000160 cf 82 53 bd b0 b8 d5 3e dd f2 a1 bc bf 43 07 be
       -0.05163842 0.41742468 -0.019769127 -0.13209437
000170 fb ca 91 bd 77 c9 5d 3e 45 a5 85 be 2a 0e 15 3a
       -0.071187936 0.21658884 -0.26102653 0.00056860095
000180 62 1d 7d 3c da be 8d 3e ed 67 2e 3d a7 fc b4 bd
       0.0154489 0.2768467 0.04257958 -0.08837252
000190 fd da cb bd a5 93 b4 3c c7 0d df bd 91 a9 00 3e
       -0.09953878 0.022043059 -0.108913 0.12564684
0001a0 fe 61 2e bd f6 e3 83 be 6b 9f 2f 3e 6c 2a 03 3f
       -0.04257392 -0.25759858 0.17150657 0.51236606
0001b0 70 f1 79 bc 5b 95 99 3c 68 1d 76 be f8 f7 17 3e
       -0.015255317 0.018747976 -0.24034655 0.14840686
0001c0 2d ca 81 bd e9 b0 c0 bd aa 86 28 3e ed 54 73 3e
       -0.0633739 -0.09408743 0.1645762 0.23762865
0001d0 65 9a ec 3d 9a 81 9d 3c bb 65 ae bd 79 be 7b bd
       0.11552886 0.019226838 -0.08515497 -0.061460946
0001e0 cc e7 47 bd ea ce 6f 3e 1a e3 68 be e1 66 c4 be
       -0.048805043 0.23418775 -0.22742882 -0.3835974
0001f0 fd fb 88 bd ab 47 37 3e 22 50 7d 3d 91 37 a6 bd
       -0.06688688 0.17898433 0.061844 -0.08116067
000200 71 40 02 3e 18 38 23 3e 63 9a 4a bc bf b3 08 bf
       0.12719895 0.15939367 -0.01236591 -0.5339927
000210 2f fd 29 be 20 53 67 bd 76 d9 f9 bd df bd 53 3e
       -0.16600488 -0.05647576 -0.121996805 0.20677899
000220 ef 94 8a bd 60 2e b1 3d 81 0f d9 3e 71 f6 86 3e
       -0.06766688 0.086514235 0.4239464 0.26359895
000230 38 54 c7 3e 68 2e 7c be be 4c b0 3d 06 f5 8a 3e
       0.3893144 -0.24627078 0.086083874 0.27140063
000240 dd e8 71 be c2 44 09 be 72 1a a7 3e 5c be c3 3d
       -0.23623987 -0.13405135 0.32637364 0.095577925
000250 5b f0 2b be a6 96 d3 3d 37 a0 85 bc 91 15 aa bd
       -0.16790907 0.10331468 -0.016311748 -0.08304895
000260 34 44 44 bd db 2f af 3e 6f 55 b8 bc 86 10 98 be
       -0.047916606 0.34216198 -0.022501675 -0.29700106
000270 ee 00 fe 3c ba 12 4c 3e a3 a2 a5 be f3 42 48 be
       0.031006303 0.19929019 -0.32350644 -0.19556789
000280 5d 04 49 3e 74 84 82 3d f8 fb 84 3e 45 f2 03 be
       0.1963057 0.0637292 0.25973487 -0.12885387
000290 27 e0 de 3d 04 d6 c5 bd ea 7f c5 bc a4 74 33 ba
       0.108825974 -0.09659961 -0.024108846 -0.0006845689
0002a0 a4 70 f5 3d ce ed 10 3e 98 4c 2a be 48 89 d3 be
       0.11984375 0.14153215 -0.1663078 -0.41315675
0002b0 cf a6 c3 bd 52 27 bf 3d fc 3f 4d be 48 9d b9 bd
       -0.095533006 0.09333672 -0.2004394 -0.09063202
0002c0 c8 5e ef 3d d6 78 05 3c d5 b8 a4 3d e6 30 31 3e
       0.11688 0.008146485 0.080430664 0.1730381
0002d0 f8 1a 53 be 9b e3 25 be c6 fe 01 be 10 88 60 be
       -0.20615757 -0.16200106 -0.12694845 -0.21926904
0002e0 40 f1 4a 3e 47 10 2e 3e d9 ed a1 bd 34 44 a6 bd
       0.19818592 0.16998397 -0.07906694 -0.081184775
0002f0 e5 fc 19 3e d0 f9 e4 bd f2 4c 0a bb 9c 5c 98 be
       0.15037878 -0.111804605 -0.0021102992 -0.29758155
000300 b3 f7 56 bd 59 97 34 3e 65 ec e8 3d 12 d6 86 be
       -0.052482318 0.1763586 0.11373214 -0.26335198
000310 f6 6d 20 3d 63 58 25 be f4 f8 1b bf 1a b4 3c be
       0.039167367 -0.16146998 -0.6092675 -0.18428078
000320 97 08 b9 bd 57 50 ba 3e 29 8f 13 3d 31 32 06 be
       -0.090348415 0.3638942 0.0360252 -0.13105084
000330 39 a3 ca 3c e6 a2 34 be 3b 05 66 3d 5d c0 b3 bd
       0.024736034 -0.17640266 0.056157332 -0.08776925
000340 1b 6e 94 bd 8a fc 5a bd 2a 25 cc 3d 59 33 07 3e
       -0.072475635 -0.053463496 0.09968026 0.13203181
000350 c9 ff 90 3e d3 12 18 be ba ea f9 3d f3 56 31 3e
       0.2832015 -0.14850931 0.12202974 0.17318325
000360 8c 97 4e bd df dc 49 be b0 78 28 bd 27 37 40 3e
       -0.050437495 -0.19713162 -0.04113072 0.18771039
000370 75 97 76 be 61 7b 41 3e 37 89 11 3e 69 cc a8 3e
       -0.24081214 0.18894722 0.142125 0.32968453
000380 0a c0 68 3e fb 09 e1 3d dd ee 8f be 19 57 35 be
       0.22729507 0.10988232 -0.28111926 -0.17709006
000390 b7 e2 27 be 20 7c aa 3a 3c 38 cc be 67 02 08 be
       -0.16395079 0.0013006963 -0.39886653 -0.13282166
0003a0 59 60 1d 3e 90 41 e0 3e 24 28 16 be 35 b7 33 3e
       0.15368785 0.4380002 -0.1466375 0.17550357
0003b0 4e 63 55 be 22 4f 86 3d 47 3e 7f bb 94 41 de be
       -0.20838663 0.06558062 -0.0038947032 -0.43409407
0003c0 7e 21 5d be 55 53 39 be 34 f1 36 be 39 35 0f 3e
       -0.21594808 -0.18098195 -0.17865449 0.13985147
0003d0 82 e1 6e 3e 23 c9 ff bd ba e0 0b 3e 22 fb bc 3e
       0.23328212 -0.12489536 0.13659945 0.3691035
0003e0 2c 41 2b be 8e 2d ed 3e cc a6 e8 3d a5 90 67 be
       -0.1672408 0.46323818 0.11359939 -0.22613771
0003f0 03 db 10 3e 40 bb 3c 3e dc e4 05 be d4 9e 6d be
       0.14146046 0.18430805 -0.13075584 -0.2320512

critic.0.bias f4 [64]
000000 f7 6a 63 be de 83 cc 3b 49 b9 10 3e 47 64 47 be
       -0.22208773 0.0062413057 0.1413318 -0.19471847
000010 1b bf 52 3e 82 ab 1b 3e a4 ee ea 3d 53 84 68 3e
       0.20580713 0.15202144 0.11471298 0.22706728
000020 63 2a 80 be f7 39 c3 3d 61 49 0c 3e d1 02 67 be
       -0.25032339 0.0953254 0.13699867 -0.22559668
000030 b4 d2 c6 3d 71 11 70 3e da fa a8 3d 2f 86 82 be
       0.09708157 0.23444153 0.08250971 -0.25493
000040 f2 d5 95 3d ed ee 1a 3e a6 99 da bd 01 42 59 be
       0.073161975 0.15130205 -0.10673837 -0.21216585
000050 8f 29 74 be 48 7f 8b bd 14 d3 dc bd 78 4a 64 be
       -0.23843978 -0.06811386 -0.107824475 -0.22294033
000060 e1 84 15 be 67 b3 4d be 13 8a 4b 3e 81 07 65 3e
       -0.1460147 -0.20087968 0.1987689 0.22366144
000070 81 1c 42 be a6 21 70 be d5 58 70 3e ab f7 4f be
       -0.18956186 -0.23450336 0.23471387 -0.20309322
000080 55 b5 55 be ce 11 57 be 55 49 66 3e 54 f7 49 3e
       -0.20869954 -0.21002886 0.22488911 0.19723254
000090 32 06 c3 bd 4e 17 24 be 85 c7 14 be 2f 26 55 3e
       -0.09522666 -0.16024515 -0.14529236 0.20815347
0000a0 a2 7c 03 3d f0 9f 24 3e 0f 70 b7 bd 66 5d dd 3d
       0.03210128 0.16076636 -0.0895692 0.1080883
0000b0 94 d5 88 bd c4 dc 2b be f5 b7 1f be 82 1b 4d be
       -0.06681362 -0.16783434 -0.15597518 -0.20030025
0000c0 18 4f 65 be 7d 5f 52 be c5 93 0e be 84 83 40 3e
       -0.22393453 -0.20544238 -0.13923557 0.18800169
0000d0 b2 c2 47 be 5d f8 59 3d 39 91 8a bd 73 f3 81 bd
       -0.19507864 0.053215373 -0.0676598 -0.063452624
0000e0 1d 57 58 be 78 76 1e be a0 0b c4 bd 7b e7 20 be
       -0.21126981 -0.1547488 -0.0957253 -0.15713303
0000f0 a5 ce c1 bd 2b 3b ae 3d 28 46 1f be 65 ae 3b be
       -0.094632424 0.08507379 -0.15554106 -0.18328245

critic.2.weight f4 [64, 64]
000000 9a 4b b6 3e 35 72 f4 be 68 0f 90 be 7c 7c b5 3e
       0.35604554 -0.47743383 -0.28136754 0.35446537
000010 61 6d 90 be ce 21 68 be d5 17 77 3c 37 b1 c8 be
       -0.2820845 -0.22669145 0.015081366 -0.39197704
000020 c2 5f da 3d 32 2e ae 3e 18 c3 84 be 3a 17 5b 3d
       0.106627956 0.3401962 -0.25930095 0.053488947
000030 c9 d9 8a bd 7c d5 a8 be 8f 78 9e be a3 a9 ad 3e
       -0.067798205 -0.32975376 -0.30951354 0.33918485
000040 68 13 f0 3d 51 a4 7e be f6 dd 81 3c a5 22 90 3e
       0.117224514 -0.24867369 0.01585291 0.28151432
000050 3f 17 28 3d 5c 78 69 3e 36 81 12 3e 3d f9 85 3e
       0.041037794 0.2279982 0.14307103 0.26166716
000060 31 e9 ea 3e c0 0a 87 3e 94 ec a3 3d 41 ca 1f be
       0.45881036 0.2637539 0.08004108 -0.15604497
000070 dc f1 1b 3e 55 3e 80 3e 40 41 15 be 3a cd 49 3e
       0.15228981 0.25047556 -0.14575672 0.19707194
000080 55 f6 be 3d cc e5 8b 3e 61 1d 19 3e 5e c5 da bd
       0.09324328 0.2732376 0.14952613 -0.10682176
000090 ec f8 ab be f9 4b 7d be 7f 1b d8 bd 87 1b 1e bf
       -0.3358835 -0.24736013 -0.105521195 -0.61760753
0000a0 24 4e 76 3e 46 22 5a be 69 d7 a9 bc 5a 4b 1f be
       0.24053246 -0.21302137 -0.020732598 -0.15556088
0000b0 74 29 8a be a3 f7 85 3e 80 9f 5e 3e e4 a5 bf 3e
       -0.2698475 0.26165494 0.21740532 0.37431252
0000c0 29 78 20 3e 2e 56 bd 3e f7 a6 d0 bd a4 63 03 be
       0.15670837 0.36979812 -0.10188096 -0.12830979
0000d0 6e 4d 61 3e bb 10 33 be a2 e2 c3 bd aa f4 86 3d
       0.22002193 -0.17486851 -0.09564711 0.06589635
0000e0 19 09 5a 3e 28 1f 3e 3d 30 2e fd 3c 95 1f 2e 3e
       0.21292533 0.04641643 0.030905813 0.17004235
0000f0 02 cb 50 3e a7 33 1f 3e d9 e9 70 be c2 d7 ea 3d
       0.20389941 0.15547048 -0.23526706 0.11466934
000100 82 48 b5 3e f0 84 16 3e 93 51 9a bd a2 90 25 3e
       0.35406882 0.14699149 -0.0753509 0.16168454
000110 41 42 8d be 59 58 66 be 53 e0 8f 3c 5c 63 7d be
       -0.2758961 -0.2249464 0.01756302 -0.24744934
000120 e1 d5 9b bc 11 90 8e be 4b 49 0b bd 63 b9 0e bb
       -0.019022884 -0.2784429 -0.034005444 -0.002177798
000130 d0 53 d1 3e 1b 82 20 3e ac 17 2e be be 2b ba 3e
       0.40884256 0.15674631 -0.17001218 0.36361498
000140 bc e9 90 bc ef 38 a2 be 53 ea c5 3e 2d 60 89 bc
       -0.017689578 -0.31684062 0.38655338 -0.016769493
000150 ae ef b9 3d 40 c7 0b 3e 82 77 26 bd 86 e7 3e 3e
       0.090789184 0.13650227 -0.040641315 0.18643007
000160 f4 9c b0 3d 76 5a 40 3e 99 a9 1c be 33 0f 3c be
       0.086236864 0.18784508 -0.15299071 -0.18365173
000170 f2 75 b2 3e 1e 1e c2 3e 22 92 42 be 9f be 6f 3e
       0.3485561 0.37913603 -0.19001058 0.2341256
000180 c8 1f 44 3e 16 36 ce 3d 5b 8c be bd 3f 0b 2d be
       0.19152749 0.1006891 -0.093041144 -0.16898821
000190 ff f8 41 3c ea 15 d0 bd 9c 0a 0a be 4b 53 6a 3e
       0.01183915 -0.1016043 -0.1348061 0.22883336
0001a0 3f 9c a2 3d ad f9 88 bd fb fe 3c 3e 0a 5d c7 bd
       0.07939958 -0.06688247 0.18456642 -0.09734543
0001b0 10 3c 03 3e e9 7c 5c 3e 88 e1 bf 3e 12 d5 8e 3b
       0.12815881 0.21532024 0.37476754 0.004358896
0001c0 b1 2f c9 3e 26 7e d3 bc 12 0c 7b 3c 77 74 e4 bd
       0.39294198 -0.025816988 0.015322702 -0.111550264
0001d0 9a 5b e9 3d cf ee 08 be 2f 4f ce bd 77 c0 fd bd
       0.11394425 -0.13372348 -0.10073697 -0.123902254
0001e0 74 33 b7 3e 86 a5 19 be 30 aa 37 3e bd dc 9f 3e
       0.35781443 -0.15004548 0.17936015 0.31223097
0001f0 7a 30 fa 3d 57 36 37 bd ac ca 8b be 67 de 4b bc
       0.122162774 -0.044729557 -0.27303064 -0.012443162
000200 95 13 a4 be 61 c6 68 3d bf 5f ab 3e b1 a0 c6 bd
       -0.3204619 0.056829814 0.33471486 -0.09698618
000210 b3 f7 0e 3f e7 42 a6 3d 36 78 33 3e ed 52 7f 3e
       0.5584671 0.08118229 0.17526326 0.24933977
000220 ba d8 c2 be 74 8c 9e 3e 1a 31 b0 bd 38 17 c1 be
       -0.38055974 0.30966532 -0.086031154 -0.37713027
000230 83 0b c1 bd 25 a4 db 3e 17 d7 5a 3e 47 ee dd be
       -0.09426024 0.4289867 0.21371113 -0.43345854
000240 e8 62 e0 be f4 49 90 3d ef af 98 3d 8f 80 83 be
       -0.4382546 0.070453554 0.07455432 -0.2568402
000250 3c 96 6e be 49 01 56 be 12 f4 89 bd 0b a6 16 be
       -0.23299497 -0.20898928 -0.06736006 -0.14711778
000260 4e 6e 9f be a8 9b ce bd 04 97 0b 3f 61 8e bd 3e
       -0.31138843 -0.10088283 0.54527307 0.3702269
000270 31 f9 92 bd 81 aa 0b bf 4f a8 91 bd 7e 89 e9 be
       -0.07176436 -0.54557043 -0.071121804 -0.4561271
000280 50 ef 0a 3e f5 4d 8e bc 78 82 d7 bc 27 f8 06 3e
       0.13567853 -0.017371157 -0.02630733 0.131806
000290 2c 58 81 bd 41 55 da bd 94 9b c9 3c b4 bd 75 3e
       -0.063156456 -0.10660792 0.024610318 0.23998147
0002a0 1f f4 7e 3d 43 3b a7 be 63 f4 a0 3e d8 06 0b 3e
       0.06224453 -0.326624 0.31436452 0.1357683
0002b0 39 61 4d 3d 40 f5 a3 be e3 81 86 3e f9 96 6d bb
       0.050141547 -0.32023048 0.2627097 -0.0036253317
0002c0 46 03 3c bd e0 fa 4b be 4d 7c b0 3d 8e 4f 7d 3d
       -0.04590156 -0.1991992 0.086174585 0.061843447
0002d0 1b 72 97 be 84 33 69 3e 9f 69 19 3e ed f0 f3 3a
       -0.29579243 0.22773558 0.14981697 0.001861123
0002e0 fd 72 a9 be 04 78 cc bd f0 1f e9 3d 4c 5d b8 be
       -0.33095542 -0.09983829 0.11383045 -0.3600868
0002f0 b3 c5 70 3d b3 d7 0a 3e 94 70 50 bd ee cf 4f bd
       0.05878229 0.13558845 -0.050888613 -0.050735407
000300 81 5e e6 3e 4d 26 79 3e d4 0d 9b be ec 5d bf 3e
       0.44993976 0.24331017 -0.30283988 0.37376344
000310 bc cf 98 be 20 26 8f be 81 9b 3b bf ea ba 2d be
       -0.2984599 -0.27958775 -0.73284155 -0.16965833
000320 54 43 66 3e be 34 94 3d 4c d9 74 3c ac e9 2d 3e
       0.22486621 0.07236622 0.014944386 0.1698367
000330 2c fd 71 bd 01 3c 38 3d eb b1 00 be 7c 37 c9 3e
       -0.059079334 0.0449791 -0.1256787 0.39300144
000340 b2 2c 09 bc f4 ce 28 bd e4 0e d6 bd 03 75 98 3e
       -0.008372473 -0.04121299 -0.10452059 0.29776773
000350 75 d5 98 bc 09 d1 6c 3e 5d 84 c0 3e bf 36 bd 3e
       -0.018656472 0.23126616 0.37600985 0.3695583
000360 ef 81 7f bc f7 55 07 3e a3 0f ce be ab fc b7 be
       -0.015594943 0.13216387 -0.40246305 -0.35934958
000370 c0 e0 87 3d a7 9b 8b be 96 5b 2e 3d 99 2b 8e 3e
       0.066346645 -0.2726719 0.042567812 0.27767637
000380 f3 04 40 3e 0a 35 86 3e 66 2e c2 bd e1 3c 45 be
       0.18751888 0.2621234 -0.09481506 -0.19261505
000390 07 63 ff bd 38 23 89 be 53 fd 0b 3e 2a 9f 48 be
       -0.1247006 -0.26784682 0.13670854 -0.19591966
0003a0 9c f5 11 3e 3d d8 4e bd 81 54 b6 3d 04 10 00 3d
       0.14253849 -0.05049919 0.089028366 0.031265274
0003b0 1f de 1a be d4 b7 02 3f fc a5 23 3d 17 7b 1d 3e
       -0.15123795 0.5106175 0.039953217 0.15378986
0003c0 62 93 b7 3e a4 59 6e 3e 22 1e 75 be 33 c0 1f be
       0.35854632 0.23276383 -0.23937276 -0.15600662
0003d0 7d f3 93 3e ec 8c 39 be a8 69 03 be 91 e9 b6 be
       0.28896704 -0.18120164 -0.12833273 -0.35725072
0003e0 c2 45 52 3e 1f d3 4d bd 3f f9 f3 3d 56 fa a2 3e
       0.20534423 -0.05025017 0.11912774 0.31831616
0003f0 a1 20 56 be 64 84 b9 be 38 8e 27 be 3a 59 0b 3d
       -0.20910884 -0.3623382 -0.16362846 0.03402064

critic.2.bias f4 [64]
000000 74 c2 3e be 9c c8 8b bd 82 6e 39 3e 44 f0 63 be
       -0.18628865 -0.068253726 0.18108562 -0.22259623
000010 a4 f4 05 be 78 af 30 be 3d 4e 47 3e bd 37 ee bd
       -0.13081604 -0.17254436 0.1946344 -0.11631725
000020 6f c7 00 be e0 62 11 be b3 38 95 bd 18 61 39 be
       -0.12576078 -0.14197874 -0.07286205 -0.18103445
000030 3a 11 62 be 4d f9 14 be 3b 36 df bd 40 e2 49 3e
       -0.22076884 -0.14548226 -0.108990155 0.19715214
000040 d0 a2 33 be d4 b3 29 be b2 6f fa bd 02 15 be 3d
       -0.17542577 -0.16572505 -0.122283354 0.09281351
000050 2a 1c ac bd 11 df 5c 3e f4 2d 39 be b9 81 02 3e
       -0.08403809 0.21569468 -0.18083936 0.12744798
000060 57 20 55 be f5 7e 00 3e f1 d8 3a 3e 16 08 32 3e
       -0.20813118 0.1254843 0.18246819 0.17385897
000070 43 e0 d1 3d 73 58 e4 bd 05 14 37 3e 82 a3 be bd
       0.10247853 -0.11149683 0.1787873 -0.093085304
000080 f5 5c 2c be 4d d0 58 3e cd 0f ec 3d 6c fe 07 be
       -0.16832335 0.2117321 0.11526451 -0.13280648
000090 aa e0 be 3d f8 88 3b 3e ea be 3e be 31 1d bf bd
       0.09320195 0.18313968 -0.18627515 -0.0933174
0000a0 3a b7 13 be e4 99 d6 bd 37 91 26 3e b1 ad 35 be
       -0.14425364 -0.10478571 0.16266333 -0.1774204
0000b0 50 50 ef 3d 70 e7 1b 3e f1 ee 32 3e f3 fc 3d be
       0.1168524 0.15225005 0.17473961 -0.18553524
0000c0 5e a2 e1 3d d6 93 83 bd 74 be 45 3e 36 f8 92 3d
       0.11017297 -0.06424682 0.19310933 0.07176249
0000d0 a8 3e 3e 3e 85 20 d0 3d 52 71 35 be a1 dd 31 3e
       0.18578589 0.101624526 -0.1771901 0.17369701
0000e0 a5 81 c7 3d 0a 0c 3a be 37 98 10 3e cc 36 24 3e
       0.097415246 -0.18168655 0.14120565 0.16036528
0000f0 d4 fe b8 bd f7 14 ce bd 8a 18 30 3e 31 9e 8f 3d
       -0.090329796 -0.100625925 0.17196861 0.070125945

critic.4.weight f4 [1, 64]
000000 eb 7d a4 3e d1 5c 20 3e 06 16 95 be 1e 7f 80 3e
       0.32127318 0.15660407 -0.29118365 0.25096983
000010 7c 43 9f 3d c7 f6 fb 3e 03 9b 8c be a3 00 9c 3d
       0.077765435 0.49211714 -0.27462015 0.07617309
000020 63 01 a3 3d f6 4e 6f 3d f2 88 76 3e 3d 15 82 3e
       0.07959249 0.058424912 0.24075678 0.2540683
000030 fa 0b 8c 3e af d1 d4 3d 0d c3 48 3e 78 70 98 be
       0.27352887 0.103915565 0.19605656 -0.29773307
000040 c4 60 97 3e a0 c9 b8 3e 05 8b 86 3e 2f d5 2e be
       0.29566014 0.36091328 0.26277938 -0.1707351
000050 18 90 5d 3e b8 89 8a be 9a f4 72 3e 80 b9 4a be
       0.21636999 -0.27058196 0.2372612 -0.19797325
000060 87 0a 86 3e 68 62 da be 5f 0d d0 be a4 09 0e bf
       0.26179907 -0.42653203 -0.406352 -0.5548346
000070 61 a2 0d be 95 35 40 3e 89 ae d8 be 59 41 11 3e
       -0.13831474 0.1877044 -0.4232066 0.14185084
000080 48 a5 f5 3e 7c be 97 be f1 49 ca bd ee 97 b1 3e
       0.47977662 -0.29637516 -0.098773845 0.34686226
000090 94 53 51 be 5d 3f 05 bf 12 b1 c4 3e 40 21 55 3e
       -0.20442039 -0.5204981 0.38416344 0.20813465
0000a0 4d 00 8a 3d 2c b7 80 3e 33 f8 94 be 72 04 c2 3e
       0.067383386 0.2513975 -0.2909561 0.37894017
0000b0 a7 38 9a bd f0 04 5b bd 14 7e ef be f5 f6 98 3e
       -0.07530337 -0.053471506 -0.46775877 0.29875913
0000c0 0f b7 a1 bd e9 94 9e ba 4b fe b3 be 1e 85 94 be
       -0.07896244 -0.0012098822 -0.35154948 -0.2900781
0000d0 4d bf 9c be b9 cf 86 bd 7b 17 b6 3e 9b 73 05 bf
       -0.306147 -0.06582589 0.3556479 -0.52129525
0000e0 f2 00 24 be 52 9d b8 3e 37 05 59 be 6e a1 c4 be
       -0.16015986 0.36057526 -0.21193396 -0.3840441
0000f0 eb 5b 35 3e 57 ef 86 3e 63 1b 04 bf 73 ff e5 be
       0.17710845 0.26354477 -0.5160429 -0.44921455

actor.0.weight f4 [64, 8]
000000 e2 20 73 bd 40 8e b2 3c 86 89 54 3e 0f d9 d3 bd
       -0.05935753 0.021796346 0.20755586 -0.10344135
000010 ec 5f 2a bf 7b 18 5f be e7 85 73 3d cf ae 5a 3e
       -0.66552615 -0.21786682 0.05945387 0.21355747
000020 aa 64 6f be 26 7b c8 3d 56 15 96 bd fd b5 23 3f
       -0.23378244 0.09789114 -0.07328288 0.6394957
000030 44 d6 3e 3e 4b 16 a3 bd d8 73 a4 bd 24 47 2b 3e
       0.18636423 -0.079632364 -0.08029908 0.16726357
000040 e0 ec 32 3b 6c e6 92 be a3 25 4a bd b3 ff 1a bf
       0.0027301833 -0.28691423 -0.0493523 -0.60546416
000050 0c 73 94 3e 53 4b 07 bd 31 ea b8 be 4e 48 99 be
       0.28994024 -0.03303082 -0.36116174 -0.29937977
000060 d0 91 9a bd 92 0b e2 bc bc 06 48 be e6 31 29 be
       -0.07547343 -0.027593408 -0.19533819 -0.16522941
000070 45 e2 e7 3e 41 5a 3b bd b1 8a 48 be 67 19 87 be
       0.45289817 -0.04574037 -0.19584157 -0.26386568
000080 ef 64 01 3e aa 84 60 bd 7b f6 d3 bd c4 6b 5f be
       0.1263616 -0.05481402 -0.10349747 -0.21818453
000090 ff 53 90 3e e8 6c 46 3e ad 4b 40 3e f6 a5 a3 be
       0.28189084 0.19377482 0.18778868 -0.31962556
0000a0 6a 03 d3 bd 8d 7c 7f be 97 a3 52 3d 9d 8a d4 3e
       -0.103033856 -0.24949856 0.051425543 0.41512004
0000b0 06 8f ac be fa a8 b1 3c 7d 1d 81 3d 86 bd e0 3d
       -0.33702868 0.02168702 0.063044526 0.10973649
0000c0 e2 89 a7 be b6 4a b8 bb cc 62 af bd 58 8c a0 bd
       -0.32722384 -0.0056241406 -0.08563766 -0.078392684
0000d0 0e 26 9a be 8b ad 90 bd b2 04 19 3e 9b 8c af be
       -0.30107158 -0.07064351 0.14943197 -0.3428696
0000e0 69 f8 eb bd f2 8f 51 be c6 7b 74 3e 85 ac f1 3e
       -0.1152199 -0.20465067 0.23875341 0.47201934
0000f0 e8 3a 30 bf 90 3f 08 bf e3 fa d9 3d 51 01 36 3e
       -0.68839884 -0.5322199 0.10643556 0.1777394
000100 8f 7f 53 be f2 06 14 3e 3f f5 f2 be df 4d e0 be
       -0.20654128 0.14455774 -0.47452733 -0.4380941
000110 00 d9 d8 3e d2 8b be 3e a8 ef 0c bf 43 f1 8d 3d
       0.42353058 0.3721605 -0.55053186 0.06930783
000120 1b 7c f0 bd d0 c5 fb 3c 25 d0 85 bc 2f 28 5b 3e
       -0.11742421 0.030733973 -0.016334603 0.21402048
000130 32 d1 ad be f7 f7 c2 be c2 ba ed bd 7b d9 16 3e
       -0.33948666 -0.38079807 -0.11607887 0.147314
000140 50 0d 81 bd da 8b 9f 3d ba 98 78 bc e8 18 e3 3c
       -0.06301367 0.077903464 -0.015173132 0.027721837
000150 da fb e1 be 96 ae 87 bc 0b c7 8b 3e f1 89 3b 3e
       -0.4413746 -0.016562741 0.27300295 0.18314339
000160 fd 92 b7 3c 23 86 b4 bd 36 f1 7c 3c 6e b6 bd bb
       0.022408957 -0.08814647 0.015438369 -0.0057895696
000170 43 c0 07 bf 3c 89 a6 be 34 84 ef 3d 7b a4 2f be
       -0.53027743 -0.32526577 0.116951376 -0.17152588
000180 6c 70 4a be a1 d3 e0 bd 07 83 6d be 93 66 99 be
       -0.19769448 -0.10977865 -0.23194514 -0.2996107
000190 1e 0b ab 3e f1 2f d5 3e de c0 e8 bc 1d d8 11 be
       0.3340692 0.4163814 -0.028412279 -0.14242597
0001a0 21 1e a3 be 4f 54 a9 3e f2 9e 8b 3d 6a 72 02 3e
       -0.31858924 0.33072135 0.06817426 0.12738958
0001b0 79 97 93 3b 79 03 a3 bd 64 0c 83 3e e4 31 ee 3c
       0.004504141 -0.07959647 0.2559539 0.029076524
0001c0 24 74 06 be 32 1e 46 be 30 c4 c3 3e 67 27 03 bf
       -0.13130242 -0.19347456 0.38235617 -0.51232
0001d0 c2 29 a0 be 64 ca b0 bd a8 d4 85 3b 68 b1 be 3c
       -0.3128186 -0.08632353 0.0040841885 0.023277953
0001e0 81 57 33 be 3b 5e cb 3d d5 bc 7b 3d 3c 1b 2b be
       -0.17513849 0.099300824 0.06145938 -0.16709608
0001f0 e7 c7 a7 be 8d eb 17 be 46 a4 a4 bd 77 fd d5 3d
       -0.327697 -0.14835949 -0.08039145 0.10448735
000200 2d 5a 91 be d9 ba 64 bd 8b 2e 1a 3e c1 6c 0d 3f
       -0.2838911 -0.055842254 0.15056817 0.5524407
000210 5c f1 88 be 9e 5b be be 07 24 a3 3c c5 e0 e0 3d
       -0.26746643 -0.37179273 0.01991464 0.109803714
000220 d4 b9 2b 3e 25 96 ce 3d f3 6e 28 be 32 8b b3 be
       0.16770107 0.100872315 -0.16448574 -0.35067135
000230 58 70 94 3c 48 db db bb c3 51 1c 3e e5 ad 52 be
       0.018119976 -0.00670949 0.15265565 -0.20574148
000240 b3 a3 37 3d 95 3f b8 3d 7a 32 94 be e3 3a 0b 3e
       0.04483385 0.08996502 -0.2894476 0.13596682
000250 11 22 bd 3e 80 29 48 3e a2 60 01 3d a4 88 18 3c
       0.36940053 0.19547081 0.031586297 0.009309921
000260 42 57 10 3e a0 ef eb bc 53 e9 51 3e 46 98 01 be
       0.14095786 -0.028800786 0.20499162 -0.12655744
000270 cf 3d 19 bf c1 c1 ca be 59 b8 9b be 72 0f 0a be
       -0.5985994 -0.39600947 -0.30414084 -0.13482454
000280 51 f9 01 bd fe 84 1b be be 8a 43 be 24 7d 8f 3d
       -0.031731907 -0.15187451 -0.19095895 0.070062906
000290 fe d3 a6 3d c0 a8 72 3e 5f 49 9b 3d 35 c0 48 3e
       0.08145903 0.23697186 0.07582354 0.19604571
0002a0 4b 7a cb 3d ea 58 b2 3c 75 27 af 3d 17 4c 5b 3e
       0.09935435 0.021770913 0.08552448 0.21415745
0002b0 48 7e f8 be fb 19 da be e7 df 1f 3d 0c 3c bf 3d
       -0.48533845 -0.42597947 0.03903189 0.09337625
0002c0 46 fd f9 3c 8a 34 25 3e 91 69 22 be a0 16 28 3f
       0.030516278 0.16133323 -0.15860583 0.65659523
0002d0 42 26 f0 3e 80 ea a8 3e 9a c9 f0 3d 51 58 50 bb
       0.46904188 0.3299141 0.117572024 -0.0031790922
0002e0 9c 6f 8d 3e fa e3 33 3e 9b 72 58 3e bc 82 e9 be
       0.27624214 0.17567435 0.21137469 -0.45607555
0002f0 35 a1 01 3f 62 86 6e 3e 3c 55 8a be f1 ee 51 bd
       0.5063661 0.2329345 -0.27018154 -0.051253263
000300 32 c1 95 be cc 00 03 3d 67 fd ca bd 77 27 99 3e
       -0.2924896 0.03198318 -0.09911614 0.29912922
000310 76 f0 88 be 70 d6 aa be 14 d8 46 3d 7f 44 a8 3d
       -0.26745957 -0.33366728 0.048545912 0.082161896
000320 a0 d1 05 bd 67 ed 8f 3d a8 47 ea bd ff f6 fe be
       -0.032670617 0.07027703 -0.114394486 -0.49797818
000330 a9 09 c9 3c 46 3d 8b 3e 1a c2 46 be d2 da d5 3c
       0.02454074 0.27195185 -0.19409981 0.026105318
000340 05 a7 9f 3d 47 9d 6a 3c 47 1b 0b 3f 32 a3 5b 3e
       0.07795528 0.014319724 0.54338497 0.21448973
000350 c6 1e a5 be 2a 6e be bd af 0a 57 be 02 47 8e 3e
       -0.3225004 -0.09298356 -0.21000169 0.2778855
000360 c1 24 da 3d 56 d9 20 be 31 d4 95 bd 96 e4 c8 be
       0.106515415 -0.15707907 -0.07315863 -0.39236897
000370 7a 92 04 3f 12 4c 02 3f 29 78 8d 3d 61 3b b0 3d
       0.51786005 0.50897324 0.06907684 0.08605076
000380 08 3e 86 3c e7 56 7c be f6 b3 80 bd f7 e0 81 be
       0.016387 -0.24642526 -0.06284325 -0.25366947
000390 2b b1 18 3f 0a 50 4b 3d 69 de 31 be 8b f4 61 bd
       0.59645337 0.049636878 -0.17369999 -0.055164855
0003a0 fc 66 e7 3d a3 1e 88 bd aa 97 68 3c 56 35 4e bf
       0.112989396 -0.066464685 0.014196316 -0.80550134
0003b0 1f 82 53 be 6f 9c 18 bf 7c a7 da bd 0a c9 e0 bd
       -0.20655106 -0.596137 -0.10676476 -0.10975845
0003c0 00 88 a6 bd 56 7e df bc 07 a6 1d bd 38 37 10 3f
       -0.08131409 -0.027281921 -0.038488414 0.5633426
0003d0 16 5e ef 3e f5 41 53 3e 08 6e 35 39 7a 35 f4 bc
       0.4675147 0.2063063 0.00017302495 -0.029810656
0003e0 fa 41 db 3d 24 24 44 bc 98 0c 12 bd 7a c8 cf 3e
       0.107059434 -0.011971507 -0.03565654 0.4058264
0003f0 2d a7 93 3e 9e 77 9a 3d f8 3e c2 bc 61 75 61 be
       0.28838482 0.075423464 -0.023711666 -0.22017433

actor.0.bias f4 [64]
000000 b5 57 ef b8 38 03 ae 3b e1 a9 64 3d 8a 4d f2 3a
       -0.00011412745 0.0053104423 0.05582607 0.0018486243
000010 6f e0 e0 bb 3f 98 b5 3a 40 17 35 bc 23 28 1f 3d
       -0.006862692 0.0013854577 -0.0110529065 0.038856637
000020 7a 43 0d bd e7 f3 6f 3d 00 72 f1 bc 35 f8 63 3c
       -0.03448818 0.058582213 -0.029473305 0.013914158
000030 fc 99 3b 3b 94 19 bd 3c 56 3a 1a 3d 09 c5 0a bd
       0.0028625717 0.023083486 0.03765329 -0.033879314
000040 5a 6f 5a 3b 5b d5 f1 bc 1e eb 5d 3c 0b 1a 01 3c
       0.003333053 -0.029520681 0.013544826 0.007879744
000050 b6 1b af 3c 1e 52 9d bc 81 2e 3f bd 90 40 04 bb
       0.021375518 -0.019204196 -0.04667521 -0.0020180084
000060 6d 0f e3 3c 71 2f 88 3c 4b cf 54 bb e6 8f 19 3d
       0.027717317 0.016624184 -0.003247219 0.037490748
000070 d5 b9 40 3d ff 00 23 3c 95 26 cd bc 56 28 16 3c
       0.047052223 0.009948968 -0.025042811 0.00916489
000080 3d f0 84 39 e2 11 f6 3b 83 02 f9 3c 40 06 19 bd
       0.00025355993 0.007509456 0.030396705 -0.037359476
000090 6d db 20 3c b2 68 ff 3c 8d 65 30 bc 16 d7 27 3c
       0.00981794 0.031177852 -0.010766399 0.010244152
0000a0 08 60 e8 bc 67 6c d5 3a 6e c6 7b 3c 1c 56 7e bc
       -0.028366104 0.0016282917 0.015367134 -0.01552346
0000b0 b0 fc a5 bc cf 43 46 bc 4d 5a d7 bb d8 de ee 39
       -0.020262092 -0.012101128 -0.006572044 0.0004556093
0000c0 59 d4 bc 3c 42 e2 ae bc de bf 2b bc a1 6e d6 bc
       0.023050474 -0.021348123 -0.010482756 -0.026175799
0000d0 ca 30 24 3c 00 6b 1a 3c d1 6e cb bb eb b0 e7 bb
       0.010021398 0.009424925 -0.0062082787 -0.007070651
0000e0 a1 a3 35 bd 09 56 c8 ba 64 3b 56 3b 7e d9 0e bd
       -0.0443455 -0.001528443 0.0032689208 -0.034875385
0000f0 f5 18 7a 3c b6 e0 af bb 91 e0 c7 3c 83 87 07 bd
       0.015264739 -0.005367364 0.024399074 -0.03308822

actor.2.weight f4 [64, 64]
000000 3b ad a9 3e d6 03 90 bd a5 79 87 3e 19 bf ca be
       0.33139977 -0.07031982 0.26459995 -0.3959892
000010 41 62 e3 3d cf 0a fe 3d 8a e0 55 be 1b 9d 12 3e
       0.11102725 0.12404405 -0.20886436 0.14317743
000020 d7 4f b8 3d 2b 26 6c be d1 4c 42 3e 8f 99 52 3e
       0.08999603 -0.23061435 0.18974616 0.2056639
000030 d0 05 dc 3c fb bd 9d 3d bf 7c 3a bc 22 7e 5a 3e
       0.02685824 0.077022515 -0.011382281 0.21337178
000040 e7 de 3c 3e 28 02 9c 3e 5a 4b e5 3c 1e 7c dc 3e
       0.18444405 0.30470395 0.027990032 0.43063444
000050 d9 51 ca bd 99 7d 1d 3e 89 06 01 be 23 c8 3b bc
       -0.098788925 0.15379943 -0.12600149 -0.0114612905
000060 13 da e6 3d 9a 1f 87 3c 30 69 0b 3e 6b c7 25 3e
       0.11272063 0.016494561 0.13614345 0.16189353
000070 e0 ce 0d be 9f 25 fd 3e 07 56 c5 be f8 fe 10 bf
       -0.13848448 0.49442765 -0.38542196 -0.5663905
000080 4d d7 75 3e 32 b6 33 3e de b5 8a 3d aa 57 9d 3e
       0.24007912 0.17549971 0.0677297 0.30730945
000090 41 2e 46 3e 68 1b da 3d 78 c1 b5 3e 67 03 7b 3d
       0.19353582 0.106497586 0.35499167 0.06128254
0000a0 5e 71 14 3f e9 45 ee bd 51 21 48 be 0f 49 4d 3e
       0.57985485 -0.11634428 -0.19543959 0.20047401
0000b0 73 14 89 3e ac 0e f6 3d a2 80 87 bd b4 73 b3 bd
       0.26773414 0.12014517 -0.06616332 -0.08762303
0000c0 d7 5d dc 3c c1 c3 ba 3d cb 6a d5 bd 3f 71 f6 bd
       0.026900215 0.09119368 -0.1042076 -0.12033319
0000d0 48 f7 d9 3c 70 f2 86 3e ce aa 82 3e fe e1 37 be
       0.02660717 0.2635684 0.2552094 -0.17957303
0000e0 18 83 3e 3d 9a bc 84 3e 98 70 a6 3c 0b 66 36 3e
       0.04651174 0.25925142 0.02031736 0.17812364
0000f0 6e 15 7c 3e bb 0f 1e bf 60 c8 bc 3e 89 e8 86 be
       0.2461755 -0.6174275 0.36871624 -0.26349285
000100 d0 91 2a be 1d 95 12 be 4c f3 5c 3e fc 7b c4 3e
       -0.16657186 -0.14314695 0.21577185 0.38375843
000110 21 f9 6f 3e 31 6e 1a be d7 bd c7 bc 29 ae f1 be
       0.23434879 -0.15081097 -0.024382515 -0.47203186
000120 03 56 25 3d 2d f9 4d 3d 33 7a 44 be 65 82 8d be
       0.04036523 0.05028646 -0.1918724 -0.27638546
000130 ad 79 74 3e 95 a9 4b bd c5 91 b9 be 2f 9d 6d 3e
       0.2387454 -0.049722273 -0.36244026 0.23204492
000140 04 f8 c0 be 9d fd ff bd 63 9b d2 3e ce b5 25 bc
       -0.3768922 -0.12499545 0.41134176 -0.010114146
000150 45 8f 9e 3d 35 00 06 be d8 b1 ac bc 1a 8b 50 3e
       0.0774217 -0.13086016 -0.021080896 0.20365563
000160 fb 21 98 be fe 19 85 3e 06 21 86 3d 54 c0 e7 3d
       -0.29713425 0.25996393 0.065492675 0.113159806
000170 8c 7b dd 3c b4 55 1c 3e 97 cd 41 3d ce 34 bf 3d
       0.02703645 0.15267068 0.047315206 0.093362436
000180 8f 71 83 be 2e c1 80 be 79 f2 ee 3b 92 b2 70 3e
       -0.25672576 -0.25147384 0.0072920886 0.23505619
000190 bf c0 ed be ef f5 74 3e 72 74 41 3d cb f8 7a be
       -0.46436116 0.23921941 0.04723019 -0.2450897
0001a0 ab 2e 5a be 2c 2d ae bd 09 db e4 3e 03 1b 88 be
       -0.21306865 -0.085047096 0.4469836 -0.26583108
0001b0 e0 19 ff be 8d 9d 5f bd 17 20 68 3e dc ef 81 3d
       -0.4982443 -0.05459361 0.22668491 0.06344578
0001c0 3a 9c 8c 3d d5 85 e7 be 94 f4 ac 3d 7b 18 b7 3e
       0.06865735 -0.45219293 0.08445087 0.35760865
0001d0 2f 52 ee 3d 8e 44 8e b7 9d 03 1e be 5c d9 ba 3b
       0.11636769 -1.6959642e-05 -0.15431066 0.005702181
0001e0 2e 60 86 3e d7 5b 8f 3e 57 47 fa 3c 56 12 66 be
       0.26245254 0.27999756 0.030551596 -0.22467932
0001f0 69 28 1b bd cf a6 ba 3e dc ee a8 3e 4c 22 79 3e
       -0.037880335 0.3645539 0.32994735 0.2432949
000200 bf c2 44 be 63 fd 82 bc 79 8f 03 3e 3f 58 b3 3e
       -0.19214915 -0.015989965 0.12847699 0.35028264
000210 35 b0 0c 3c 9f 31 0b bc e4 90 73 be 00 8b 10 be
       0.008586933 -0.008495717 -0.2378574 -0.14115524
000220 ee 29 05 3f bf f6 de bd 90 8a c4 3d fe f3 c3 be
       0.52017105 -0.10886907 0.09596741 -0.3827209
000230 4b cf e4 3e 13 3b cf bd e8 44 87 3d 9f 7b e2 bc
       0.44689402 -0.101186894 0.0660494 -0.027646838
000240 74 cb e4 bc 43 e9 48 3e f6 ce e0 bc 3e cb 9a 3c
       -0.027929045 0.19620232 -0.027442437 0.018895742
000250 66 70 d6 bc 31 66 40 bd b0 26 32 be 2c 4c 7e 3e
       -0.026176643 -0.046972457 -0.1739757 0.24833745
000260 4f c7 93 ba a7 67 83 3e a0 52 84 be e1 0a c8 3d
       -0.0011274609 0.25665018 -0.25844288 0.097677
000270 02 b0 cf 3d cb eb 75 3e 0f 56 17 be d7 35 48 be
       0.10140993 0.24015729 -0.14778922 -0.19551788
000280 07 b7 34 3e ec 6f 78 be 65 f5 87 3e db cf d6 bd
       0.17647944 -0.24261445 0.2655441 -0.10488864
000290 d3 09 ee 3d e8 66 7a 3e 3a 62 bf be b5 7c f6 bc
       0.116229676 0.24453318 -0.37379628 -0.030088762
0002a0 50 e2 31 be 12 15 af 3e 61 7b f4 3d f1 30 ab be
       -0.17371488 0.34195763 0.11937595 -0.33435777
0002b0 de cc 06 3d d1 71 0f be 74 6c 91 3d a0 b7 84 3d
       0.03291022 -0.14008261 0.07100764 0.06480336
0002c0 e6 ba 87 3e 6d a3 0e bf 9a 8f d3 bb 73 c5 62 be
       0.2650978 -0.5571812 -0.0064563276 -0.22145633
0002d0 5a 91 15 3e 0b 6e 99 be 62 c4 d5 be 98 42 0d be
       0.14606228 -0.2996677 -0.4175139 -0.13794935
0002e0 9c 75 86 3e 60 32 8e be 6e cf 6c 3e 41 52 30 3c
       0.26261604 -0.27772808 0.23126003 0.010761798
0002f0 0e 05 c6 3e 4b f6 16 3e 06 1c 5b 3e 2a 77 29 3e
       0.3867573 0.14742391 0.21397409 0.16549364
000300 d3 f1 dd bd 71 7c ab 3c e5 00 c0 be 1c 5b 66 be
       -0.1083714 0.020933362 -0.37500682 -0.22495693
000310 8b af 33 be b9 c5 6a 3e 19 31 88 be bf 34 b5 3e
       -0.17547433 0.22926988 -0.2659996 0.35391805
000320 1d ae d8 be ad fe d3 3c 31 af 21 bd 3d 2c b6 3e
       -0.42320338 0.025878275 -0.039473716 0.35580626
000330 63 03 83 be a6 80 b7 be cc c9 61 bd f6 cd c7 3e
       -0.2558852 -0.35840338 -0.05512409 0.39024323
000340 4b 07 dd 3e dc f1 0f 3e db 2b 79 be c2 be 0c 3e
       0.43169627 0.14057106 -0.24333136 0.13744643
000350 88 be b2 bd a2 a4 df 3e 46 60 ca bc af 36 c7 3d
       -0.08727747 0.43680292 -0.02470411 0.09727227
000360 65 9d 8e 3d bd e4 fa be d1 f6 68 3e 57 c1 56 bd
       0.069636144 -0.49002638 0.22750403 -0.052430477
000370 77 f6 10 bf 32 9e a1 bd 7e c1 94 bc 94 96 29 bd
       -0.56626076 -0.078915015 -0.01815867 -0.041403368
000380 b5 45 47 be 9a 29 c2 bc 0f b3 d9 bc 45 fe 22 bc
       -0.19460185 -0.023701478 -0.02657464 -0.009948318
000390 72 c9 d9 3b e4 86 c5 3c f4 03 96 3c 13 29 18 be
       0.0066463286 0.024112172 0.018312432 -0.14859419
0003a0 41 91 9b 3d 78 30 ea bd 48 6c 81 be ba 92 b6 bd
       0.07596064 -0.11435026 -0.25277925 -0.089147046
0003b0 ad 2b e3 3c 4d 22 a8 3e 75 de f2 3c 46 04 03 3e
       0.027730787 0.3283867 0.029647091 0.12794599
0003c0 d6 58 53 be f4 c4 9c 3e f1 50 6a 3e b3 f6 09 be
       -0.20639357 0.30619013 0.22882439 -0.13473015
0003d0 8d 8a 26 be 87 01 03 3d 4a 9e ea bd 85 d6 8f 3d
       -0.1626379 0.03198388 -0.114559725 0.07023338
0003e0 96 be 04 be d0 ff b0 bd 51 c9 b1 be 62 bc 33 3e
       -0.12963328 -0.08642542 -0.34723905 0.17552331
0003f0 c8 d9 99 be 19 20 71 3e 1f 7a 34 bd d1 ca 8a 3e
       -0.30048966 0.235474 -0.044061776 0.27107862

actor.2.bias f4 [64]
000000 37 de 67 bc 82 f7 b4 3c f2 f6 60 3c 42 ec 2c bd
       -0.014152101 0.022090677 0.013730751 -0.0422175
000010 2d fe c2 3c 53 e9 ba 3b 8c a9 fe 3a 5f 61 9b bc
       0.023802841 0.005704084 0.0019429191 -0.018967329
000020 5f 8f b5 bb d4 71 0f 3b c4 2d 52 bc 3b 06 cc 3c
       -0.005540773 0.0021887915 -0.012828294 0.024905315
000030 32 0d 15 bb 0b dc e4 3b 49 91 63 3c bc 3f 8f bc
       -0.002274346 0.006984239 0.013889619 -0.017486446
000040 0f e6 c7 3c 8b 80 e6 3a cc 16 21 3d 4d dd e8 bb
       0.024401693 0.0017585916 0.03932838 -0.0071064592
000050 31 c6 e9 3b c8 6e 88 bc a6 9e 01 bc ef 9c ad bb
       0.007134222 -0.016654387 -0.00791136 -0.005298249
000060 0d 22 a0 bc 64 8b 2f bb f6 bf ce bc 9d af 23 bc
       -0.019547487 -0.0026785964 -0.025238018 -0.0099906
000070 43 80 86 3c 22 3f 0f 3a a0 07 4f 3c 3e 3b bc bb
       0.016418582 0.00054644246 0.012636095 -0.005744367
000080 66 3e e4 3b 67 5f f0 3c c7 94 ac bc 61 ba 0d 3d
       0.0069654463 0.029342366 -0.021067036 0.034601573
000090 9b 40 81 bc 2d e3 a4 bc ff 3c c0 bc 6e 36 85 bc
       -0.015777877 -0.020127857 -0.023466585 -0.016261306
0000a0 10 03 43 bc 46 5d df 3c 07 63 22 bb 88 5c 04 bc
       -0.011902586 0.027266156 -0.0024778263 -0.008078702
0000b0 84 c1 f7 3b 84 77 1f 3c 3d 01 82 3b f3 1b 7e bc
       0.0075609107 0.009733085 0.003967433 -0.015509593
0000c0 3e 24 55 bd 4f a3 bb bc 81 92 30 3d 30 d7 a1 bb
       -0.052036516 -0.02290502 0.043108467 -0.0049389824
0000d0 97 bc 4e bc 4f 1c 98 3c 60 51 84 3b e4 41 db bc
       -0.0126182055 0.018568186 0.004038021 -0.026764818
0000e0 3c 35 05 3d e8 24 c6 bc 26 77 f9 bc c2 da 0c bd
       0.03252147 -0.02418752 -0.030452322 -0.03438831
0000f0 82 9c ff bc 2f 89 23 3c cb d3 04 bd 57 27 61 bb
       -0.031202558 0.009981438 -0.032428544 -0.0034355724

actor.4.weight f4 [4, 64]
000000 59 21 17 be 38 bd 31 bd 89 bc f3 bd 93 e7 1b 3e
       -0.14758815 -0.043393344 -0.119011946 0.15225057
000010 41 cb 44 be 53 15 ae bd 7d 20 02 3e 0e 8a 29 3e
       -0.1921816 -0.08500161 0.12707706 0.1655657
000020 df 9c 07 3e 42 8e 10 be ec 3a 32 3c 3b 78 8a 3b
       0.13243435 -0.14116767 0.010878306 0.0042257584
000030 f2 61 01 3e 83 3d 0d be e2 b6 1f be 5b eb 10 3e
       0.1263502 -0.13792996 -0.15597108 0.14152281
000040 55 65 a5 bd 25 21 1c be cc d8 01 3d 09 8a f9 3c
       -0.08075968 -0.15247019 0.031700894 0.030461328
000050 92 fd 89 3d 7c 93 23 3e 75 da d4 bd 2b df 65 3b
       0.06737818 0.1597423 -0.1039323 0.0035075645
000060 98 a9 0d bd 91 88 fa 3d d6 57 47 3e 04 19 31 3e
       -0.034585565 0.12233079 0.194671 0.17294699
000070 53 19 17 be 43 fd 1b be ca 7c 15 be dd a5 b3 bd
       -0.14755754 -0.1523333 -0.14598384 -0.0877187
000080 58 04 09 be e1 b1 1e be 1b 85 9b bd 4a d2 42 be
       -0.13380563 -0.15497543 -0.07593747 -0.19025531
000090 bb 40 ae 3d 3c db 12 3e 9e 68 8a 3d 9b f0 c4 3b
       0.0850844 0.14341444 0.067582354 0.0060101277
0000a0 7c 6a 5d 3d 88 73 b3 bd c2 f2 d7 3d 32 20 07 be
       0.05405663 -0.0876227 0.10544349 -0.13195875
0000b0 c6 cb 8a bd bc 87 3a be 36 32 c7 3d 65 36 35 3e
       -0.06777148 -0.18215841 0.09726374 0.17696531
0000c0 76 32 45 3e 76 54 cb 3d 14 fb 3c be f4 a0 35 3e
       0.1925753 0.09928219 -0.18455154 0.1773718
0000d0 40 20 9f bd fe 5f 20 3d 97 4e 0e be ec 40 16 3e
       -0.07769823 0.039154045 -0.13897167 0.14673203
0000e0 0c ba 07 3e a5 bc 16 be d4 ed 2b 3e 09 af ea 3d
       0.13254565 -0.147204 0.16789943 0.114591666
0000f0 a2 b7 56 3e 37 22 58 bd e6 3d b9 3c ae 19 9c 3d
       0.20968488 -0.052767005 0.022612523 0.076220855
000100 7c 05 5e 3e e2 d4 9a be 02 4f 72 be c4 94 82 3e
       0.2168178 -0.30240542 -0.23662952 0.25504124
000110 96 ef 46 be 04 43 9c bd 8a 71 37 be 0d 17 01 bd
       -0.19427332 -0.0762997 -0.17914405 -0.031516124
000120 f9 de 2b be 8b 8c 4d 3b fc bc 8c be a0 a9 63 be
       -0.16784276 0.0031364288 -0.27487934 -0.22232676
000130 35 3b 9c 3e 4a cd a8 be 06 89 67 be 83 d6 69 3e
       0.3051392 -0.32969123 -0.22610864 0.22835736
000140 87 1f 76 3e 89 09 1b be 7b 40 95 3e 13 cc 92 be
       0.24035464 -0.15140356 0.29150757 -0.2867132
000150 5b e5 94 be a7 c5 e7 bd 22 ac 9e bd ee 60 88 be
       -0.29081234 -0.11316996 -0.077476755 -0.2663645
000160 dd b6 e5 bd 58 60 a8 3e 17 0b 12 be 6e 53 97 3e
       -0.11216519 0.32886004 -0.14262043 0.2955584
000170 21 3e b9 3d d0 f7 82 3d 0c 48 e6 3d e9 9b 6e 3e
       0.09045053 0.06394923 0.112442106 0.23301663
000180 80 4c 21 be 37 14 99 be b6 5c 0d 3e 21 75 24 3e
       -0.15751839 -0.29898235 0.13804898 0.16060306
000190 16 db d1 bd cf 17 88 3e b9 f9 99 3e 64 28 82 be
       -0.102468655 0.26580665 0.30073336 -0.2542144
0001a0 b6 c0 81 3e 74 1d 6f 3e d3 4e 2a 3e 8e b5 a8 be
       0.2534234 0.23351079 0.16631632 -0.32951015
0001b0 dc 0d 97 be 1b f5 89 be 4c 82 92 3e d3 dd 97 3e
       -0.2950276 -0.26944813 0.28615034 0.29661426
0001c0 79 0c ef bc ef 65 96 3e 9b 94 57 bd 2d 10 55 be
       -0.029180752 0.29374644 -0.052631956 -0.20806952
0001d0 11 9b 01 be 8d 1a 95 3e 39 02 3a 3e 5f fe 5a 3e
       -0.1265681 0.2912182 0.1816491 0.21386097
0001e0 d4 bf 88 bd 31 0a 87 3d 25 7c 9a 3e 31 db 7c 3d
       -0.06677213 0.06593741 0.3017284 0.061732475
0001f0 6b 9e 83 3d 1a 9a 81 be 17 b5 9a be 8c b0 9b 3d
       0.064267 -0.25312883 -0.30216286 0.07602033
000200 15 89 6a 3e c6 91 a2 3d 60 c7 69 3e c1 e2 8a be
       0.22903855 0.0793796 0.22829962 -0.27126125
000210 64 0e 94 3e d5 1b 20 3e a2 35 6f be 0c 5c 8e be
       0.2891723 0.15635617 -0.23360303 -0.278046
000220 d4 dc 77 be f4 e9 6d 3e a2 8f 82 bb 96 0e 51 bb
       -0.24205333 0.23233777 -0.0039844075 -0.0031899563
000230 a6 86 65 be f3 14 80 3e 5a 19 83 3e 57 73 84 be
       -0.22414646 0.25015983 0.2560528 -0.25869247
000240 bf fc 1a 3e 97 63 7f 3e 42 6a 9e bd c4 34 15 bd
       0.15135477 0.24940334 -0.07735111 -0.036427274
000250 e9 2b da bd 6a 75 88 be 01 2f 3a 3e 32 4a 7e bc
       -0.106529064 -0.2665208 0.18181993 -0.015520619
000260 9c 2c 3d 3d 55 b4 5f be a5 3a 9a be 43 c9 91 be
       0.04618512 -0.21846135 -0.30122867 -0.28473863
000270 86 5e 84 3e c0 e8 7c 3e ce 97 80 3e bb 65 34 3e
       0.25853366 0.24698162 0.25115818 0.17616932
000280 ff 2a 6b 3e 0f 79 8a 3e 56 a6 24 3e fb 87 95 3e
       0.2296562 0.27045485 0.16079077 0.29205307
000290 3d c0 31 be b1 f4 87 be 0d 19 3e be 7c 46 21 3d
       -0.1735849 -0.26553872 -0.18564244 0.03937386
0002a0 3e f7 ca bd 8a 65 2b 3e 73 f0 39 be 49 1f 6f 3e
       -0.09910439 0.16737953 -0.1815813 0.23351778
0002b0 ec a0 01 3e 1d 51 8d 3e ff e2 47 be cf 9b 8e be
       0.12659043 0.27600947 -0.19520186 -0.27853248
0002c0 b4 ea 99 be 86 bb 42 be 94 6f 9a 3e 7d 4c 83 be
       -0.30061877 -0.19016847 0.30163252 -0.25644293
0002d0 6c d3 0b 3e 70 77 c8 bd 76 4c 77 3e ea 70 87 be
       0.1365487 -0.09788406 0.24150261 -0.26453334
0002e0 e8 f7 5e be a1 72 74 3e 8a 68 92 be 53 a6 70 be
       -0.21774256 0.23871852 -0.28595382 -0.23500948
0002f0 2b bd 98 be c7 58 f5 3d de be ac bc 56 2f 0a be
       -0.29831824 0.119798236 -0.021087106 -0.1349462
000300 7a ed 93 be f9 52 99 3e 52 68 d8 3d 07 2c f2 bd
       -0.28892118 0.29946116 0.105667725 -0.11824804
000310 8a 45 20 be aa 49 a6 bd e1 85 94 3e ec f0 8a 3e
       -0.15651527 -0.08119519 0.29008391 0.27136934
000320 3a d7 91 3e 14 8e 66 be 6b 98 89 3e 3f 29 7e 3e
       0.28484517 -0.22515136 0.26874098 0.24820422
000330 8b 5a 61 be 71 f7 63 3e ec e4 87 3c e8 39 96 bd
       -0.22007196 0.2226236 0.01658865 -0.073352635
000340 c2 e4 8b be db 8f 03 be 2f 39 86 be fd 32 91 3e
       -0.27322966 -0.12847845 -0.26215503 0.28359213
000350 22 c5 9b 3e b1 07 93 3e 7a 3d e6 bd 64 1c 8e 3e
       0.30423838 0.28716806 -0.112421945 0.27756035
000360 e3 be bd 3d 34 5c 89 be c7 0d 97 3e 99 9a 46 be
       0.092649244 -0.26828158 0.295027 -0.19394912
000370 2e 1c 94 be 50 43 92 be ed 89 6d be 85 0e 93 be
       -0.2892775 -0.2856698 -0.23197146 -0.28722015
000380 34 07 c5 bd 4e 04 5c 3e 75 fc 7c be 42 28 9a be
       -0.096205145 0.21486017 -0.2470568 -0.3010884
000390 93 d5 5a 3e 58 68 a6 bd 08 68 6c be ac 3d 6c 3e
       0.21370535 -0.08125371 -0.2308656 0.23070401
0003a0 49 4b 74 be 84 04 88 be 85 05 f4 3b 13 69 5b 3e
       -0.23856844 -0.26565945 0.007446947 0.21426801
0003b0 55 b0 8b 3e 87 ef 1a 3d 63 99 6e be c8 1a 16 be
       0.27282968 0.037826087 -0.233007 -0.14658654
0003c0 b8 46 8e 3e cb 25 7a be 61 84 76 be bf 13 95 3e
       0.2778833 -0.2442848 -0.24073936 0.29116628
0003d0 07 1b 02 3d 6e c3 82 be fb 61 90 be 1b 4c 47 bc
       0.031764057 -0.25539726 -0.28199753 -0.012164141
0003e0 83 82 7a 3e 20 f8 83 be 4c 64 2e be 52 e8 25 3e
       0.24463849 -0.25775242 -0.17030448 0.16201904
0003f0 14 c3 8b 3e b2 e7 65 3e 68 37 94 3e 85 cb 1a 3d
       0.2729727 0.22451666 0.28948522 0.037791748

actor.4.bias f4 [4]
000000 d4 35 2e bc bb 4a 05 bd bd 61 50 3d 83 c8 0f bd
       -0.010632951 -0.03254197 0.05087446 -0.035103332
