HFDRL_UNIT8/models/Archived/LunarLander-v3__ppo__1__1768735658__u360.pt (torch, 44753 bytes, 11 tensors)

critic.0.weight f4 [64, 8]
0	0xbdfd00d7	-0.12353676
1	0x3e0e529c	0.138987
2	0x3d2219e8	0.039575487
3	0xbe14bcf7	-0.1452521
4	0xbd945da4	-0.07244423
5	0x3e189843	0.14901833
6	0xbe9d772a	-0.30754977
7	0x3df55f3f	0.119810574
8	0xbe0c158f	-0.13680099
9	0x3e651a53	0.22373323
10	0x3e5776cb	0.2104141
11	0xbe206074	-0.15661794
12	0xbe3bb329	-0.18330063
13	0xbe3b774d	-0.18307228
14	0x3e30a2c4	0.1724959
15	0xbd60e7be	-0.054908507
16	0x3ca1d53f	0.019755004
17	0xbe8ef0aa	-0.27917987
18	0x3e0647d4	0.13113338
19	0x3e649bf2	0.22325113
20	0x3cf09ab4	0.029370643
21	0x3dd0e1e3	0.101993345
22	0x3e58269a	0.21108475
23	0x3f0dd3a5	0.5540107
24	0xbe3d2990	-0.18472886
25	0x3e321e54	0.17394382
26	0xbca0a5ec	-0.019610368
27	0xbf221f71	-0.63329226
28	0x3e84e2e9	0.2595437
29	0x3c9f493f	0.019444106
30	0xbe9573dc	-0.29189956
31	0xbe3ef91c	-0.18649715
32	0x3d6341ac	0.05548255
33	0xbc938b59	-0.018010782
34	0x3eae5482	0.3404885
35	0xbe577014	-0.21038848
36	0x3d8aae41	0.067715175
37	0xbe141d36	-0.14464268
38	0xbbdc5616	-0.0067241294
39	0xbed01a80	-0.40645218
40	0x3c327198	0.010891341
41	0xbe879136	-0.26477975
42	0x3d8808e1	0.066423185
43	0x3a00fd10	0.0004920522
44	0x3c6899d6	0.014196834
45	0x3e7ce07d	0.2469501
46	0xbe3adde2	-0.18248704
47	0xbe3b3cbf	-0.18284892
48	0xbe9f6571	-0.3113208
49	0xbe6e0ec1	-0.23247816
50	0x3d4741a2	0.048646577
51	0x3e041834	0.12899858
52	0xbb7a83c7	-0.0038225518
53	0xbe8ebc43	-0.27878007
54	0x3ee797cb	0.45232996
55	0x3e453674	0.19259053
56	0xbd4e1696	-0.05031451
57	0x3f01695c	0.5055139
58	0x3e42b5aa	0.19014612
59	0x3e835a9f	0.25655076
60	0xbd3823d2	-0.044956036
61	0x3df4cdd3	0.1195332
62	0x3e91bc1a	0.28463823
63	0x3ec6f648	0.38859773
64	0x3e244555	0.16042073
65	0xbbc1465a	-0.005898279
66	0x3eae04a2	0.3398791
67	0xbeb2ee58	-0.34947467
68	0x3ecb9f74	0.3977009
69	0xbd9cc712	-0.07655157
70	0xbd977d20	-0.073969126
71	0xbd8cd222	-0.06876017
72	0x3ca553ae	0.020181503
73	0x3e1ccf33	0.15313415
74	0x3ec58d3e	0.38584322
75	0xbe1f5be6	-0.155624
76	0x3e67fcd9	0.22655047
77	0x3cf928c2	0.030414943
78	0x3e81e58e	0.2537045
79	0x3f089de4	0.5336592
80	0xbd95216b	-0.072817646
81	0xbedf541e	-0.43618864
82	0x3e107303	0.14106373
83	0x3f048fdf	0.5178203
84	0xbbcb8576	-0.006210978
85	0x3e709452	0.2349408
86	0xbd1ff467	-0.03905144
87	0xbe521687	-0.20516406
88	0xbd4d7cd8	-0.05016789
89	0x3ecffed5	0.4062411
90	0xbd382ebd	-0.044966448
91	0xbddd9071	-0.10818566
92	0xbd893b7a	-0.067007974
93	0x3e538a5b	0.20658247
94	0xbe952df7	-0.2913663
95	0xbcc88609	-0.024477975
96	0x3d3d85da	0.04627023
97	0x3e9a0aa1	0.30086234
98	0x3d83aace	0.06429063
99	0xbe061ac0	-0.13096142
100	0xbdab2e74	-0.083584696
101	0x3cd8c052	0.026458893
102	0xbdec7651	-0.115460046
103	0x3dec4956	0.11537425
104	0xbd2a0bd4	-0.041515186
105	0xbe62409b	-0.22094958
106	0x3e4f5972	0.20248964
107	0x3f00d1f8	0.50320387
108	0xbc7f5aa3	-0.015585574
109	0x3cbdede1	0.023184719
110	0xbe51c5c6	-0.20485601
111	0x3e3b0e05	0.18267067
112	0xbddce420	-0.10785699
113	0xbe1db202	-0.15399936
114	0x3e378189	0.17920507
115	0x3ecdb9d7	0.40180847
116	0x3df4e99d	0.11958621
117	0xbbef3151	-0.00729958
118	0x3ca085a4	0.019594975
119	0x3d207f12	0.039183684
120	0xbd44c865	-0.048042674
121	0x3e4089bf	0.18802546
122	0xbe7a0ff0	-0.24420142
123	0xbec45cd9	-0.38352087
124	0xbd133114	-0.035935476
125	0x3e338b5b	0.17533629
126	0x3c758dcd	0.014987421
127	0xbe02efed	-0.12786837
128	0x3dea7298	0.11447638
129	0x3ddd9005	0.10818485
130	0xbcb111ae	-0.021614876
131	0xbef69050	-0.48156977
132	0xbe13e478	-0.14442623
133	0xbd1925db	-0.037389617
134	0xbdf26b86	-0.11836915
135	0x3e536802	0.20645145
136	0xbdd6c8bc	-0.10487506
137	0x3e84c924	0.25934708
138	0x3e5a146a	0.2129685
139	0xbe11f9d5	-0.1425546
140	0x3e31dd8d	0.17369671
141	0xbe070e60	-0.13189077
142	0xbd891eb7	-0.066953115
143	0x3dc75d9f	0.09734654
144	0xbe7fd8b4	-0.2498501
145	0xbdb85265	-0.090000905
146	0x3e8a526b	0.27016005
147	0x3d590cc6	0.052990697
148	0xbe43e7f2	-0.19131449
149	0x3debaba2	0.11507346
150	0xbca42f6d	-0.020042146
151	0xbdad2dbf	-0.08455991
152	0xbd37883f	-0.04480767
153	0x3ea3fa50	0.3202691
154	0xbd36a917	-0.04459485
155	0xbe90035d	-0.28127566
156	0x3ca2313e	0.019798871
157	0x3e3ed362	0.18635324
158	0xbeb8a844	-0.36065876
159	0xbe63043a	-0.22169581
160	0x3e5b834c	0.21436805
161	0x3d8114a5	0.06302766
162	0x3e7617c8	0.2403251
163	0xbe0563c6	-0.13026342
164	0x3df3f5a6	0.11912088
165	0xbdc01778	-0.09379476
166	0xbca71975	-0.020397881
167	0x3bdc39ef	0.0067207734
168	0x3de760b1	0.11297739
169	0x3dcedf5c	0.10101196
170	0xbe4ca396	-0.19984278
171	0xbed252eb	-0.41078886
172	0xbdabcfb5	-0.08389226
173	0x3dbd994f	0.09257757
174	0xbe5d6a8b	-0.21622674
175	0xbde1f4f3	-0.110330485
176	0x3e0b1ed7	0.13585983
177	0x3cb19efd	0.021682257
178	0x3d67ec32	0.056621738
179	0x3e0ee6d8	0.13955247
180	0xbe53b538	-0.20674598
181	0xbe0d7746	-0.1381503
182	0xbe05fd6e	-0.13084957
183	0xbe647366	-0.22309646
184	0x3e53d44e	0.20686457
185	0x3e205b10	0.15659738
186	0xbde19456	-0.11014621
187	0xbdb864ac	-0.09003577
188	0x3e1012ef	0.14069723
189	0xbdc5fb98	-0.09667128
190	0xbba0b6c3	-0.0049045994
191	0xbe97ac3f	-0.296236
192	0xbd7e10cc	-0.062027737
193	0x3e0d33e9	0.13789333
194	0x3d86db0f	0.06584751
195	0xbe8474f1	-0.2587047
196	0x3cdd8bc3	0.027044183
197	0xbe34b247	-0.17646132
198	0xbf1d5b89	-0.61467797
199	0xbe3e5f96	-0.1859115
200	0xbdada925	-0.084795274
201	0x3eb6b5ac	0.3568548
202	0x3c381f1c	0.011237886
203	0xbe0340dc	-0.1281771
204	0x3c1cc4f6	0.0095684435
205	0xbe49d72e	-0.19710991
206	0x3d7402dc	0.05957304
207	0xbdc27b95	-0.09496228
208	0xbdbbb26f	-0.09164893
209	0xbd33a059	-0.04385409
210	0x3ddd42c8	0.10803753
211	0x3e0a90e9	0.13531841
212	0x3e893a83	0.26802453
213	0xbe1c3f73	-0.15258579
214	0x3e015a45	0.12632091
215	0x3e360500	0.17775345
216	0xbd530083	-0.05151416
217	0xbe3a9e82	-0.18224528
218	0xbc41a396	-0.011818787
219	0x3e47df08	0.19518673
220	0xbe68ba38	-0.22727287
221	0x3e3b2296	0.18274912
222	0x3e15948c	0.14607447
223	0x3ea8d906	0.32978076
224	0x3e7f1004	0.24908453
225	0x3dbc0022	0.09179713
226	0xbe97fc62	-0.2968474
227	0xbe3d4cdf	-0.18486355
228	0xbe154551	-0.14577223
229	0x3c534379	0.012894505
230	0xbecc53c7	-0.39907667
231	0xbdf4ece4	-0.11959246
232	0x3e14b9ee	0.14524052
233	0x3edec62d	0.4351057
234	0xbe21a625	-0.15786035
235	0x3e23aa7c	0.15983003
236	0xbe457327	-0.19282208
237	0x3d89e0a1	0.06732298
238	0xbbc8190a	-0.0061065005
239	0xbee10672	-0.4395023
240	0xbe83312a	-0.25623447
241	0xbe3329ab	-0.17496364
242	0xbe1c9be6	-0.15293846
243	0x3e234413	0.15943937
244	0x3e7eca3b	0.24881832
245	0xbe030d6c	-0.12798089
246	0x3e0743ab	0.13209407
247	0x3ec17548	0.3778479
248	0xbdfaaa07	-0.122394614
249	0x3eeaa682	0.4583016
250	0x3db7cd6d	0.08974729
251	0xbe3dd095	-0.18536599
252	0x3e15fae6	0.14646491
253	0x3e3a1f9e	0.18176123
254	0xbe411bd7	-0.18858276
255	0xbe9387af	-0.28814456

critic.0.bias f4 [64]
0	0xbe40c1e8	-0.1882397
1	0x3d3b6f90	0.04576069
2	0x3e38b7c3	0.1803885
3	0xbe2b1ac2	-0.16709426
4	0xbe5b7958	-0.21433008
5	0x3dbbbf8d	0.09167395
6	0x3d5eadc9	0.054364953
7	0x3e50cc65	0.2039047
8	0xbe4de2f8	-0.20106113
9	0x3e14a4aa	0.1451594
10	0x3e3171c5	0.17328556
11	0xbe47f2c0	-0.19526196
12	0x3d9670df	0.07345747
13	0x3e49fe6c	0.1972596
14	0x3e1c83a1	0.15284587
15	0xbe4c7324	-0.19965798
16	0x3d868820	0.065689325
17	0xbdfeed58	-0.124476135
18	0xbde90204	-0.113773376
19	0xbe3bb355	-0.18330128
20	0xbe4a9771	-0.19784333
21	0xbd78c6ca	-0.060736455
22	0xbdedcdb6	-0.11611502
23	0xbe42a628	-0.19008696
24	0xbdc48d09	-0.09597213
25	0xbe168fd8	-0.1470331
26	0x3e3007f2	0.17190531
27	0x3e3c2912	0.18375042
28	0xbe1e15a6	-0.15437946
29	0xbe348c1a	-0.1763157
30	0x3e3be8f2	0.1835058
31	0xbe3d5a16	-0.18491396
32	0xbe36fafc	-0.1786918
33	0xbe400f1f	-0.18755768
34	0x3e454120	0.19263124
35	0x3e250069	0.16113438
36	0xbda3ba06	-0.079944655
37	0xbe1ac185	-0.15112884
38	0xbe0a9e89	-0.13537039
39	0x3e3073bc	0.17231649
40	0xbd985436	-0.07437937
41	0x3e21a6c4	0.15786272
42	0xbd7ad973	-0.061242532
43	0x3c26baf8	0.010176413
44	0xbdc3bf76	-0.09558003
45	0xbe0c2366	-0.13685378
46	0xbe153bb7	-0.1457356
47	0xbe303b4d	-0.17210121
48	0xbe3d6efe	-0.18499371
49	0xbe35990d	-0.17734165
50	0xbe0a2cb2	-0.13493612
51	0x3e261d66	0.16222152
52	0xbe33326e	-0.17499706
53	0x3dd33e74	0.10314646
54	0xbd8562cd	-0.065129854
55	0x3cd9026a	0.026490409
56	0xbe396616	-0.18105349
57	0x3dff650e	0.124704465
58	0xbdde0216	-0.108402416
59	0xbde47f7e	-0.1115713
60	0x3d977287	0.07394891
61	0x3e36e008	0.17858899
62	0xbdffbe96	-0.12487523
63	0xbe3576c7	-0.17721091

critic.2.weight f4 [64, 64]
0	0x3eaca428	0.3371899
1	0xbf097221	-0.5368977
2	0xbe9952a6	-0.29945868
3	0x3eb83cb4	0.35983813
4	0x3dbbf2d6	0.09177177
5	0xbe0904ee	-0.13380787
6	0x3da249c8	0.07924229
7	0xbec4a6d8	-0.38408542
8	0x3dcdcc67	0.10048752
9	0x3e997655	0.29973093
10	0xbe826c6b	-0.2547334
11	0x3d0183df	0.031619903
12	0xbd9b60a8	-0.07586795
13	0xbea7b642	-0.3275624
14	0xbedc8c7e	-0.43075937
15	0x3eb1752f	0.34659716
16	0x3dbd43cb	0.09241446
17	0xbc618973	-0.013765681
18	0x3d08e6dc	0.03342329
19	0x3e8b5f8e	0.2722134
20	0x3b1d274d	0.0023979724
21	0x3e77207f	0.2413349
22	0x3e2493e1	0.16072036
23	0x3e6d875b	0.23196165
24	0x3ee25cab	0.44211325
25	0x3e385f70	0.18005157
26	0x3dd2cfe8	0.10293561
27	0xbe0f9b23	-0.14024024
28	0x3e0679e5	0.13132437
29	0x3e3af74a	0.18258396
30	0xbe06f231	-0.13178326
31	0x3e322ce6	0.1739994
32	0x3d9ca5ed	0.07648835
33	0x3e9c81db	0.30567822
34	0x3e197c8b	0.14988916
35	0xbdd58db3	-0.104274176
36	0xbea7d087	-0.3277628
37	0xbe75a394	-0.23988181
38	0xbdc200dc	-0.0947282
39	0xbf1be618	-0.6089797
40	0x3e899d2b	0.26877722
41	0xbe6f0535	-0.2334183
42	0xbc4c08b4	-0.012453247
43	0xbdc29a40	-0.09502077
44	0xbe7b9fe4	-0.24572712
45	0x3e78102a	0.24224916
46	0x3e48372f	0.19552301
47	0x3ebaf064	0.36511528
48	0x3e1d5a9f	0.153666
49	0x3eb4827d	0.35255805
50	0xbda197ce	-0.078902826
51	0xbdea01c7	-0.1142612
52	0x3e4f4a3d	0.20243163
53	0xbe4dc429	-0.2009436
54	0xbd89b37e	-0.067236885
55	0x3ce13e01	0.027495386
56	0x3e4f47bb	0.20242207
57	0xbe5949ad	-0.21219511
58	0x3d4ca12c	0.049958393
59	0x3e19352f	0.14961694
60	0x3dd1a55a	0.102366164
61	0x3de65cab	0.11248144
62	0xbe7551c4	-0.23956972
63	0x3e0754d7	0.13215958
64	0x3ed8a71a	0.42314988
65	0x3e4123e7	0.18861352
66	0xbe340f6c	-0.17584008
67	0x3e522144	0.20520502
68	0x3d561f01	0.05227566
69	0xbe8ad536	-0.27115792
70	0xbbe73dcd	-0.007056928
71	0xbe72c54e	-0.23708078
72	0x3d9df623	0.077129625
73	0xbe80672f	-0.25078723
74	0xbdff05ea	-0.124523
75	0x3d4672d1	0.04844934
76	0x3eea8471	0.4580417
77	0x3ddc4e1d	0.107570864
78	0xbe9b5002	-0.3033448
79	0x3ecc06db	0.3984898
80	0x3d08b1ae	0.033372574
81	0xbe0c7f5b	-0.13720457
82	0x3eb301c9	0.349623
83	0x3cd5ae0d	0.02608397
84	0x3e295f5f	0.16540287
85	0x3e549bf4	0.20762616
86	0xbc6c313e	-0.014416037
87	0x3e65beba	0.22436038
88	0x3e10dece	0.14147493
89	0x3e850eab	0.25987753
90	0xbe409bf2	-0.18809488
91	0xbe701217	-0.234444
92	0x3eb93353	0.3617197
93	0x3ed0b906	0.40766162
94	0xbe8a16fd	-0.26970664
95	0x3e98f42c	0.29873788
96	0x3ead3b89	0.33834484
97	0x3e350742	0.1767855
98	0xbda73fbf	-0.081664555
99	0xbe1a3f9e	-0.1506333
100	0xbceb4d38	-0.028723344
101	0xbddf8256	-0.109135315
102	0xbe262e1c	-0.16228527
103	0x3e04e2a9	0.12977089
104	0x3e26c041	0.16284277
105	0xbd5469ff	-0.0518589
106	0x3e031acf	0.12803195
107	0xbe02ff48	-0.12792695
108	0x3dafa9ee	0.085773334
109	0x3e97dccd	0.29660645
110	0x3ed7ca42	0.42146498
111	0x3d42a6d3	0.047522377
112	0x3f00e58e	0.5035027
113	0x3d56ca25	0.052438874
114	0xbca65d54	-0.020308174
115	0xbdc63fc1	-0.09680129
116	0x3e361da3	0.17784743
117	0xbe6abddd	-0.2292399
118	0xbe16fe77	-0.14745508
119	0xbe6e8cec	-0.23295945
120	0x3ebb56ef	0.36589763
121	0xbebbac2d	-0.36654797
122	0x3e136fde	0.14398143
123	0x3eb9a8fa	0.3626173
124	0xbbf4c306	-0.0074695377
125	0xbe123717	-0.14278828
126	0xbe9466d4	-0.28984702
127	0x3c863a9a	0.016385365
128	0xbe93e8fd	-0.28888693
129	0x3def8c8a	0.116967276
130	0x3ebd6847	0.3699362
131	0xbdc46bb4	-0.09590855
132	0x3e4548fa	0.1926612
133	0x3bad418c	0.005287355
134	0x3e13914c	0.14410895
135	0x3e8163af	0.25271365
136	0xbec14cf2	-0.37754017
137	0x3eb5caff	0.35506436
138	0xbdaecaf8	-0.08534807
139	0xbeb56590	-0.3542905
140	0xbda73138	-0.081636846
141	0x3eda6bb7	0.42660305
142	0x3ea9919a	0.33118898
143	0xbedf67f5	-0.43634
144	0xbed62e22	-0.41832072
145	0xbe1b74b5	-0.15181239
146	0x3d69c2e3	0.057070624
147	0xbe78dcad	-0.24302931
148	0xbe66a991	-0.22525622
149	0xbe60242a	-0.21888795
150	0xbddc212c	-0.107485145
151	0xbe07692f	-0.13223718
152	0xbe9e6a2d	-0.3094038
153	0xbd23abe0	-0.039958835
154	0x3f072b13	0.528001
155	0x3ebaf501	0.36515048
156	0xbd873a9c	-0.06602976
157	0xbefb9055	-0.49133554
158	0xbd9a951a	-0.0754797
159	0xbedc5efe	-0.43041223
160	0x3e12c4c4	0.14332873
161	0xbd46eefd	-0.04856776
162	0xbcab192e	-0.02088603
163	0x3e0baf75	0.1364115
164	0xbd98d35a	-0.07462187
165	0xbe01856e	-0.12648556
166	0x3c381018	0.011234306
167	0x3e7ed1f5	0.2488478
168	0x3d2611ba	0.04054425
169	0xbe986825	-0.29766956
170	0x3e9e7379	0.30947474
171	0x3da1ba47	0.07896858
172	0x3cf24d32	0.029577825
173	0xbea059f2	-0.31318623
174	0x3e92697d	0.28596106
175	0xbbc45705	-0.005991819
176	0xbd828cd6	-0.063745186
177	0xbe511cc5	-0.20421131
178	0x3d783824	0.060600415
179	0x3d2d901f	0.042373773
180	0xbe8837f7	-0.26605198
181	0x3e7ecdf3	0.24883251
182	0x3e02f3a8	0.1278826
183	0x3d1a4fd1	0.037673775
184	0xbeaf1316	-0.3419425
185	0x3e1935fb	0.14961998
186	0x3db8dbce	0.090262994
187	0xbeb1bfc4	-0.34716618
188	0x3e0b4c42	0.13603309
189	0x3e301583	0.17195706
190	0xbd95ae44	-0.07308629
191	0xbdae6add	-0.08516476
192	0x3edf2272	0.43580967
193	0x3e47fa96	0.19529185
194	0xbeb0cc0f	-0.34530684
195	0x3ec4ac05	0.3841249
196	0x3df4f4d8	0.11960763
197	0xbe4e3d8e	-0.20140669
198	0xbf2ecf4d	-0.68285066
199	0xbe1f82c0	-0.15577221
200	0x3e54fee2	0.20800355
201	0x3d1c85c7	0.038213518
202	0xbada0784	-0.001663432
203	0x3e1a791d	0.15085264
204	0xbd5ec3e2	-0.054386027
205	0x3d0656ce	0.032797627
206	0xbe9a028a	-0.30080062
207	0x3ecebc2d	0.40377942
208	0xbc601913	-0.013677853
209	0x3e52f344	0.20600611
210	0xbdb076e4	-0.086164266
211	0x3e950b58	0.29110217
212	0xbd81c969	-0.06337244
213	0x3e86d28a	0.26332504
214	0x3ed058da	0.40692788
215	0x3eaac3d9	0.33352545
216	0xbb748165	-0.003730857
217	0x3d97a15e	0.07403825
218	0xbec3ac05	-0.38217178
219	0xbeb0ba8d	-0.34517327
220	0x3d21fcd2	0.03954775
221	0xbe9ef252	-0.3104425
222	0x3d41d0c5	0.04731824
223	0x3e85ea15	0.26155153
224	0x3e478aef	0.19486593
225	0x3ea7d194	0.32777083
226	0xbdc32cdc	-0.095300406
227	0xbe3d8a97	-0.18509899
228	0xbe0406a2	-0.12893155
229	0xbe8776b2	-0.26457745
230	0x3e111f80	0.14172173
231	0xbe4149a3	-0.18875746
232	0x3e3f2cd7	0.18669449
233	0xbd956318	-0.07294291
234	0x3db53085	0.08847145
235	0x3db6f79b	0.08933946
236	0xbe0b7dd1	-0.13622214
237	0x3f01c5f4	0.5069268
238	0x3c8cb69c	0.017176919
239	0x3e1829bd	0.14859672
240	0x3eb90806	0.36138934
241	0x3e637dad	0.2221591
242	0xbe67f8af	-0.22653459
243	0xbe147adc	-0.14499992
244	0x3e91c531	0.28470758
245	0xbe6e826a	-0.23291937
246	0xbdfdc619	-0.123913
247	0xbed3195b	-0.41230282
248	0x3e434b14	0.19071609
249	0xbea7dfcf	-0.3278794
250	0x3e001433	0.12507705
251	0x3ea0a8ec	0.31378877
252	0xbea9615c	-0.33082092
253	0xbee232fd	-0.44179526
254	0xbe2dff4f	-0.16991924
255	0x3d861d3c	0.06548545

critic.2.bias f4 [64]
0	0xbe23dcb5	-0.16002162
1	0xbde00d19	-0.10939998
2	0x3e206c8e	0.1566641
3	0xbe4a5304	-0.1975823
4	0xbe0771a0	-0.13226938
5	0xbe153edd	-0.14574762
6	0x3e2ca03f	0.16858004
7	0xbdef3502	-0.11680032
8	0xbde002bb	-0.10938021
9	0x3e4ed021	0.20196582
10	0xbdcc0329	-0.0996154
11	0xbe0d9564	-0.13826519
12	0xbe410b68	-0.18852007
13	0xbe019c52	-0.12657288
14	0xbdb3f6c0	-0.08787298
15	0x3e3608df	0.17776822
16	0xbe1f50a3	-0.15558104
17	0xbe18a960	-0.14908361
18	0xbe0f7907	-0.14011012
19	0x3e06a959	0.13150539
20	0xbdba6225	-0.09100751
21	0x3e3ebab6	0.18625912
22	0xbe2cbb69	-0.16868366
23	0x3dbeb319	0.09311504
24	0x3d796248	0.060884744
25	0x3e030f03	0.12798695
26	0x3e25bf81	0.16186334
27	0x3e1f0ce5	0.15532263
28	0x3de33614	0.11094299
29	0xbde47afd	-0.11156271
30	0x3e280d40	0.16411304
31	0xbdd33c73	-0.10314264
32	0xbe0e63fa	-0.13905326
33	0x3e3c8cef	0.18413137
34	0x3dd9a59e	0.10627292
35	0xbe094295	-0.13404305
36	0x3dc6bd57	0.097040825
37	0x3e2ca952	0.16861466
38	0xbe2b4c2f	-0.1672828
39	0xbdaaf530	-0.08347547
40	0xbe04683c	-0.12930387
41	0xbd8c1acf	-0.06841051
42	0x3e19537e	0.14973256
43	0xbe245109	-0.16046537
44	0x3df62512	0.12018789
45	0x3de548fb	0.111955605
46	0x3e255ad0	0.16147923
47	0xbe251d7c	-0.16124529
48	0x3dee7367	0.11643105
49	0xbd13de0e	-0.03610044
50	0x3e28d560	0.16487646
51	0x3da62334	0.08112183
52	0x3e261ccd	0.16221924
53	0x3e0de02a	0.13855043
54	0xbe163784	-0.14669615
55	0x3e1c44b3	0.15260582
56	0x3dda3a6d	0.10655675
57	0xbe23744f	-0.15962337
58	0x3e101b0b	0.14072816
59	0x3e1a10fc	0.15045542
60	0xbdc2cdce	-0.095119104
61	0xbd499d9a	-0.049222566
62	0x3e1b4c72	0.1516588
63	0x3d9b3da1	0.07580114

critic.4.weight f4 [1, 64]
0	0x3ea4900c	0.3214115
1	0x3e8d5f53	0.2761179
2	0xbe8d99bf	-0.2765636
3	0x3e88c59a	0.26713258
4	0x3dc24735	0.09486238
5	0x3ef6d86c	0.48211992
6	0xbe8df60e	-0.27726787
7	0x3dbd6e33	0.092495345
8	0x3dc93a9e	0.098256335
9	0xbe8ed01f	-0.2789316
10	0x3ec37986	0.38178653
11	0x3e7e182b	0.24813907
12	0x3e94d672	0.2906986
13	0x3e7b4e0b	0.2454149
14	0x3e8397e4	0.2570182
15	0xbe975406	-0.29556292
16	0x3e9b522b	0.30336127
17	0x3eb7d2e7	0.35903093
18	0x3e9022d4	0.28151572
19	0xbe497611	-0.19673945
20	0x3e6e143c	0.23249906
21	0xbe84d89f	-0.2594652
22	0x3e762623	0.24037986
23	0xbe55c167	-0.20874558
24	0xbe78424f	-0.24244045
25	0xbed8f431	-0.42373803
26	0xbecebfe8	-0.40380788
27	0xbf0c9be5	-0.54925376
28	0xbe1bc2ee	-0.15211079
29	0x3e44ba95	0.192118
30	0xbed74379	-0.42043665
31	0x3e1f1d37	0.15538488
32	0x3ef27ae4	0.47359383
33	0xbe99af09	-0.30016354
34	0xbdf68a86	-0.1203814
35	0x3eb41b4e	0.35177082
36	0xbe61c56a	-0.22047964
37	0xbf02b67e	-0.5105971
38	0x3eb9d070	0.36291838
39	0x3e967c2a	0.29391605
40	0x3db11fe6	0.08648662
41	0x3ea41e74	0.32054484
42	0xbe91b8f5	-0.28461424
43	0x3ec2ca40	0.3804493
44	0xbdad0906	-0.08448987
45	0xbe127cd5	-0.14305432
46	0xbeea8bf4	-0.458099
47	0x3e948429	0.2900708
48	0xbdc0b38c	-0.09409246
49	0xbd08ee35	-0.033430297
50	0xbeaadddd	-0.33372393
51	0xbe9c9049	-0.3057883
52	0xbe9ac7b1	-0.30230477
53	0xbe66f9d8	-0.22556245
54	0x3eaac1db	0.33351025
55	0xbeff6ba0	-0.498868
56	0xbe353e16	-0.17699465
57	0x3eb2c7ba	0.34918004
58	0xbe689647	-0.22713576
59	0xbec15f08	-0.37767816
60	0x3e906976	0.2820546
61	0x3e40072c	0.18752736
62	0xbf00c7b0	-0.503047
63	0xbeefb4d7	-0.46817657

actor.0.weight f4 [64, 8]
0	0xbd74a89f	-0.059731122
1	0x3cd51c4f	0.026014475
2	0x3e5c4ef7	0.21514498
3	0xbd4ddadb	-0.050257545
4	0xbf281af0	-0.65666103
5	0xbe5d2eb1	-0.21599843
6	0x3daa1915	0.08305565
7	0x3e6da7a2	0.23208478
8	0xbe6e24fe	-0.23256299
9	0x3dd889d1	0.105731614
10	0xbda2a5cb	-0.07941779
11	0x3f22e819	0.636354
12	0x3e4ea5bd	0.20180412
13	0xbd92dab3	-0.0717062
14	0xbdbc2b94	-0.09187999
15	0x3e1bdcaf	0.15220903
16	0x3bef48a4	0.0073023606
17	0xbe924233	-0.2856613
18	0xbd58df63	-0.052947413
19	0xbf1a4568	-0.60262156
20	0x3e9d7959	0.30756643
21	0xbcc21cb7	-0.023695333
22	0xbeb8eb25	-0.361169
23	0xbe955850	-0.2916894
24	0xbd93e377	-0.0722112
25	0xbcbdc006	-0.023162853
26	0xbe51131a	-0.20417443
27	0xbe0cb32b	-0.13740222
28	0x3ee5af84	0.4486047
29	0xbd2f8f59	-0.042861316
30	0xbe4c4ed6	-0.19951949
31	0xbe87a456	-0.26492566
32	0x3dfe2c51	0.124107964
33	0xbd6451e2	-0.055742152
34	0xbddf4e27	-0.10903578
35	0xbe667038	-0.22503746
36	0x3e8a698b	0.27033648
37	0x3e4455d3	0.19173364
38	0x3e36b41c	0.17842144
39	0xbea4bf28	-0.3217709
40	0xbdceaf6c	-0.10092053
41	0xbe7f80a8	-0.24951422
42	0x3d74661b	0.059667688
43	0x3ed4cdc2	0.4156323
44	0xbeacc274	-0.33742106
45	0x3c8821eb	0.016617736
46	0x3d804356	0.06262843
47	0x3dd190d8	0.10232705
48	0xbea5894c	-0.32331312
49	0xbb904ed9	-0.0044039306
50	0xbd856c06	-0.065147445
51	0xbdaefd2e	-0.08544384
52	0xbe9cf665	-0.30656734
53	0xbd8f03f8	-0.06983179
54	0x3e1914c0	0.14949322
55	0xbeadb3cd	-0.3392624
56	0xbde98e6c	-0.11404118
57	0xbe50be5b	-0.20385115
58	0x3e717c75	0.23582633
59	0x3ef0d463	0.47037038
60	0xbf2d152e	-0.6761044
61	0xbf0904c5	-0.535229
62	0x3de1640d	0.11005411
63	0x3e326358	0.17420709
64	0xbe5324bc	-0.20619482
65	0x3e135897	0.14389263
66	0xbef37dd5	-0.4755694
67	0xbee15e14	-0.44017088
68	0x3ed07e6a	0.40721446
69	0x3ebdca3d	0.37068358
70	0xbf0e8a69	-0.5567995
71	0x3d8b0d5e	0.06789659
72	0xbdf67ffa	-0.12036128
73	0x3d3dfbe0	0.046382785
74	0x3a8af0cd	0.0010600329
75	0x3ea135b0	0.31486273
76	0xbead0c29	-0.3379834
77	0xbec39df5	-0.3820645
78	0xbdb7aa42	-0.08968021
79	0x3e32190c	0.17392367
80	0xbd83a40e	-0.06427775
81	0x3d7b7973	0.06139512
82	0x3c687b19	0.014189505
83	0xbd3a91db	-0.045549255
84	0xbeecb670	-0.4623294
85	0xbcfdf128	-0.030998781
86	0x3e8ab6cf	0.27092597
87	0x3e36915d	0.17828889
88	0x3cc3a8c4	0.023884185
89	0xbdb1d845	-0.08683828
90	0x3cb0b9d3	0.021572983
91	0xbc6114ba	-0.013737852
92	0xbf054875	-0.52063686
93	0xbea704ba	-0.32620794
94	0x3e05f8c8	0.13083184
95	0xbe250a5f	-0.16117238
96	0xbe46b1e0	-0.19403791
97	0xbde6dcef	-0.112726085
98	0xbe718715	-0.23586686
99	0xbea6e66c	-0.32597673
100	0x3ea44f16	0.32091588
101	0x3ed44aea	0.41463405
102	0xbd396214	-0.04525955
103	0xbe1d4101	-0.15356828
104	0xbe99ff94	-0.30077803
105	0x3e9c6969	0.30549172
106	0x3d780949	0.06055573
107	0x3d44433c	0.047915682
108	0xbcfe17fa	-0.031017292
109	0xbdd095d1	-0.10184825
110	0x3e7884c7	0.242694
111	0x3c9f1ec3	0.019423848
112	0xbe03e03e	-0.1287851
113	0xbe48b07f	-0.19598578
114	0x3ec514c6	0.3849241
115	0xbf0359e0	-0.51309013
116	0xbe9d6515	-0.30741182
117	0xbda1efa4	-0.07907036
118	0x3cbf147f	0.023325203
119	0x3d227470	0.039661825
120	0xbe317c23	-0.1733251
121	0x3db1445c	0.08655617
122	0x3d8ed322	0.06973864
123	0xbe8c8ea6	-0.27452582
124	0xbea30d8a	-0.31846267
125	0xbe0abcf4	-0.13548642
126	0xbdb31f86	-0.08746247
127	0x3dc6eb5d	0.09712861
128	0xbe90adca	-0.2825759
129	0xbd5db4cc	-0.0541275
130	0x3e19249a	0.14955369
131	0x3f0cfb0d	0.55070573
132	0xbe87e527	-0.26542017
133	0xbec2a201	-0.38014224
134	0x3c99780c	0.018734
135	0x3dce269a	0.100659564
136	0x3e2e9402	0.17048648
137	0x3dbe7383	0.09299376
138	0xbe2701e7	-0.1630932
139	0xbeb6984d	-0.3566307
140	0x3c9e4d14	0.019323863
141	0xbc1c0c0a	-0.009524355
142	0x3e212d66	0.15739974
143	0xbe457f84	-0.19286925
144	0x3d34343a	0.04399512
145	0x3dbc7603	0.092021964
146	0xbe9724ab	-0.29520163
147	0x3e055af2	0.13022974
148	0x3eb74c6c	0.35800493
149	0x3e4329ef	0.19058965
150	0x3c8797de	0.016551908
151	0xbb1ec8c2	-0.0024228548
152	0x3e11378c	0.14181346
153	0xbcc39862	-0.023876373
154	0x3e58ba91	0.2116492
155	0xbdd92f50	-0.10604727
156	0xbf164d58	-0.5871177
157	0xbec853fb	-0.39126572
158	0xbe909d99	-0.28245237
159	0xbdf39ed2	-0.11895527
160	0xbcfebb1b	-0.031095078
161	0xbe16fbb8	-0.1474446
162	0xbe48decf	-0.19616245
163	0x3dc1abe8	0.09456617
164	0x3d85fc71	0.0654229
165	0x3e6740ca	0.22583309
166	0x3d83264a	0.064037874
167	0x3e3efe80	0.18651772
168	0x3dca88dc	0.09889385
169	0x3cb344b9	0.021883355
170	0x3dba75f8	0.09104532
171	0x3e60398a	0.2189695
172	0xbef1f29e	-0.47255415
173	0xbeda3aa1	-0.42622855
174	0x3d4b52a8	0.049639374
175	0x3dca6865	0.09883193
176	0x3cee1735	0.0290638
177	0x3e25a844	0.1617747
178	0xbe28a42c	-0.16468877
179	0x3f2790af	0.65455145
180	0x3ef1289c	0.47101295
181	0x3ea7bb56	0.32760113
182	0x3dcdad79	0.10042853
183	0xbc91be4f	-0.017790942
184	0x3e8aae74	0.27086222
185	0x3e304546	0.17213926
186	0x3e491e8d	0.1964056
187	0xbee72674	-0.45146525
188	0x3f03aead	0.5143841
189	0x3e7da02e	0.24768135
190	0xbe8b34d5	-0.27188745
191	0xbd44aabb	-0.048014384
192	0xbe91807d	-0.2841834
193	0x3d20c015	0.039245684
194	0xbdeb8596	-0.11500089
195	0x3e9d975f	0.3077955
196	0xbe56a961	-0.2096305
197	0xbe9df017	-0.30847237
198	0x3d496001	0.049163822
199	0x3dabb46d	0.08384023
200	0xbd00bf4b	-0.03143243
201	0x3d89a7ca	0.06721456
202	0xbde2c128	-0.11071998
203	0xbefac6e9	-0.4897988
204	0x3cd237fd	0.025661463
205	0x3e8b33a3	0.27187833
206	0xbe41eff4	-0.18939191
207	0x3d1cfe31	0.038328353
208	0x3da4a1aa	0.080386475
209	0x3c5ac544	0.013352696
210	0x3f0be0ae	0.5463971
211	0x3e64c113	0.22339277
212	0xbe9a00ba	-0.3007868
213	0xbda9db9f	-0.082938425
214	0xbe4c23a6	-0.19935474
215	0x3e90c6a0	0.2827654
216	0x3dd8dfa0	0.10589528
217	0xbe2396ce	-0.15975496
218	0xbda06e77	-0.078335695
219	0xbed61cb1	-0.41818765
220	0x3f017590	0.5057001
221	0x3f033fb7	0.51269096
222	0x3d732b24	0.059367314
223	0x3da0b2bd	0.078465916
224	0x3ca0c873	0.019626832
225	0xbe77b6d3	-0.24190836
226	0xbd96f403	-0.0737076
227	0xbe882bf9	-0.26596048
228	0x3f17fc42	0.5936929
229	0x3d6b9470	0.057514608
230	0xbe3cca21	-0.18436481
231	0xbd82bbc4	-0.0638347
232	0x3deda2e1	0.11603332
233	0xbd8e039d	-0.06934283
234	0x3ca15a16	0.019696277
235	0xbf4b91e0	-0.7951946
236	0xbe5b7328	-0.21430647
237	0xbf1a88df	-0.603651
238	0xbdbb83d5	-0.09156004
239	0xbdc16c75	-0.09444515
240	0xbda4c3a4	-0.08045128
241	0xbcd8395a	-0.026394535
242	0xbd2e8d07	-0.042614963
243	0x3f0dc6ad	0.5538128
244	0x3eef23c4	0.46706975
245	0x3e4aeb5e	0.19816348
246	0xbc6fda17	-0.014639399
247	0xbd41211a	-0.04715071
248	0x3dda5651	0.10660995
249	0xbbf5afa0	-0.007497743
250	0xbd32eac1	-0.04368091
251	0x3ecfc271	0.40578035
252	0x3e953a4a	0.29146034
253	0x3d881d16	0.06646173
254	0xbd09c08c	-0.033630893
255	0xbe6d88b6	-0.23196682

actor.0.bias f4 [64]
0	0xbb95a439	-0.004566696
1	0x3bc9dc99	0.0061603305
2	0x3d5d6ce1	0.054058913
3	0xbac0ec07	-0.0014718779
4	0xbc14ac2d	-0.009074253
5	0x3b0e42cc	0.0021707295
6	0xbc474e1f	-0.012164622
7	0x3d16928f	0.036760863
8	0xbd0a11c3	-0.033708345
9	0x3d61f409	0.05516437
10	0xbd068600	-0.032842636
11	0x3c85ea6b	0.01634713
12	0x3bbc36f3	0.005743855
13	0x3b988e2e	0.004655621
14	0x3d1aa0cc	0.037751004
15	0xbd087ff4	-0.03332515
16	0x3b612ddb	0.0034359607
17	0xbcba6e42	-0.022757653
18	0x3c786eeb	0.015163164
19	0x3badde38	0.0053060316
20	0x3c8748ee	0.016514268
21	0xbc99e86e	-0.018787589
22	0xbd3c5080	-0.04597521
23	0xbb881627	-0.0041530314
24	0x3d0dbfb6	0.034606658
25	0x3c62557f	0.013814329
26	0xbb201b55	-0.0024430354
27	0x3d1dd827	0.038536217
28	0x3d43f44e	0.04784041
29	0x3c1a1b61	0.009405942
30	0xbcbf1381	-0.02332473
31	0x3bcc0c3e	0.0062270453
32	0x3b603043	0.0034208454
33	0x3bdac2c4	0.00667605
34	0x3d028c11	0.03187186
35	0xbd1c0dd2	-0.038099118
36	0x3c2c694e	0.0105231535
37	0x3cf5270d	0.029925847
38	0xbc3a0a68	-0.01135502
39	0x3c4b3f7f	0.012405275
40	0xbcdbc73d	-0.026828403
41	0x3b65a5bc	0.0035041412
42	0x3c437360	0.011929363
43	0xbc71277e	-0.014718888
44	0xbc911382	-0.017709497
45	0xbbbd59bd	-0.00577852
46	0xbc24add0	-0.010051206
47	0x3a8d9f7f	0.001080498
48	0x3ca37e53	0.019957697
49	0xbc9870f2	-0.018608544
50	0xbc4ea38e	-0.012612237
51	0xbcd8ed12	-0.026480231
52	0x3c205f12	0.0097882915
53	0x3c571bfc	0.013129231
54	0xbbb53080	-0.0055294633
55	0xbc045cbf	-0.008078753
56	0xbd3a2c1e	-0.04545223
57	0xbbadf6a3	-0.0053089424
58	0x3b1d2b6a	0.0023982176
59	0xbd1d785a	-0.038444854
60	0x3c4f4f57	0.012653193
61	0xbbc93fd8	-0.006141644
62	0x3cd19f2b	0.025588593
63	0xbce7a99b	-0.028279116

actor.2.weight f4 [64, 64]
0	0x3ea611fe	0.32435602
1	0xbd981fb3	-0.07427921
2	0x3e86755c	0.26261413
3	0xbed20d3e	-0.41025728
4	0x3de3d405	0.11124424
5	0x3e0157e5	0.12631185
6	0xbe4ff4ac	-0.20308179
7	0x3e1d7acd	0.15378876
8	0x3dabd81f	0.08390831
9	0xbe774127	-0.24145947
10	0x3e64278a	0.22280708
11	0x3e5c9e85	0.21544845
12	0x3ccba89f	0.024860678
13	0x3dab0ee2	0.08352448
14	0xbaab94e2	-0.0013090635
15	0x3e70831c	0.23487514
16	0x3e428af3	0.18998317
17	0x3e9cf6b1	0.3065696
18	0x3cad33d8	0.021142885
19	0x3ed9c0ab	0.42529806
20	0xbdc95fd4	-0.09832731
21	0x3e201f3a	0.15636912
22	0xbe05c425	-0.13063104
23	0xbcb2d93f	-0.021832107
24	0x3dc4a8fe	0.09602545
25	0x3c924265	0.017853925
26	0x3e0d1faa	0.1378161
27	0x3e246aa2	0.16056302
28	0xbe1657bc	-0.14681906
29	0x3efacb98	0.48983455
30	0xbec60365	-0.38674465
31	0xbf1140d8	-0.5673957
32	0x3e7510b8	0.23932159
33	0x3e3ed3c6	0.18635473
34	0x3d7148c9	0.058907304
35	0x3e9e753c	0.30948818
36	0x3e44f269	0.19233097
37	0x3de90bda	0.11379214
38	0x3eb6acd7	0.3567874
39	0x3d80a29d	0.06281016
40	0x3f176d30	0.5915098
41	0xbdf49810	-0.11943066
42	0xbe525974	-0.20541936
43	0x3e569d8e	0.2095854
44	0x3e8abbe2	0.27096468
45	0x3de4b14a	0.11166628
46	0xbda9accc	-0.082849115
47	0xbdae6ba3	-0.08516624
48	0x3cd1b097	0.0255969
49	0x3db9dc84	0.09075263
50	0xbde58f3a	-0.11208959
51	0xbdef89b9	-0.116961904
52	0x3ccbd447	0.024881495
53	0x3e8b96c5	0.27263466
54	0x3e88f47d	0.2674903
55	0xbe3846f0	-0.1799581
56	0x3d0e8719	0.034796808
57	0x3e82bc4a	0.25534278
58	0x3c7c17bb	0.015386517
59	0x3e44fe98	0.19237745
60	0x3e7e825c	0.24854416
61	0xbf1db37b	-0.6160199
62	0x3ec03b65	0.37545314
63	0xbe86aed1	-0.2630525
64	0xbe3263ea	-0.17420927
65	0xbdd1be42	-0.10241367
66	0x3e50caea	0.20389906
67	0x3ec2c69f	0.3804216
68	0x3e68ebda	0.2274622
69	0xbe1dacf9	-0.15398015
70	0xbcf4ccae	-0.029882755
71	0xbef57245	-0.47938743
72	0x3d291d26	0.041287564
73	0x3d39c954	0.045358017
74	0xbe5b801a	-0.21435586
75	0xbe9147a8	-0.28374982
76	0x3e755cab	0.23961131
77	0xbd30d54a	-0.04317216
78	0xbec70a71	-0.38875154
79	0x3e65dcec	0.22447556
80	0xbebf8892	-0.37408882
81	0xbe051096	-0.12994608
82	0x3eda4eb5	0.42638174
83	0xbc6d6ce3	-0.014491293
84	0x3d9409bc	0.07228419
85	0xbe02fd46	-0.12791929
86	0x3c026095	0.007957597
87	0x3e584c67	0.21122895
88	0xbe8bc9f6	-0.2730252
89	0x3e8185b5	0.25297323
90	0x3d8df216	0.0693094
91	0x3de5a8f3	0.11213865
92	0x3d17a58f	0.037023123
93	0x3dedbecc	0.11608657
94	0x3d92c5ff	0.07166671
95	0x3de6b97b	0.11265846
96	0xbe955bb5	-0.2917153
97	0xbe8459f5	-0.25849882
98	0x3c32b8c6	0.010908311
99	0x3e68193e	0.22665879
100	0xbef70968	-0.48249364
101	0x3e637c57	0.222154
102	0x3d0834ce	0.033253483
103	0xbe7da031	-0.2476814
104	0xbe5abaa7	-0.21360265
105	0xbdb15ee8	-0.0866068
106	0x3eebf869	0.4608796
107	0xbe86294b	-0.2620338
108	0xbf04bb3a	-0.51848185
109	0xbd0eeedd	-0.034895767
110	0x3e7b17bc	0.24520773
111	0x3d8bdbb0	0.068290114
112	0x3d731617	0.05934724
113	0xbee5ee03	-0.4490815
114	0x3de7e088	0.11322123
115	0x3eb812bd	0.35951796
116	0x3dc289fb	0.09498974
117	0xbcc38da4	-0.02387125
118	0xbe352040	-0.17688084
119	0x3d057446	0.03258159
120	0x3e8fa5d6	0.2805621
121	0x3e8f647f	0.2800636
122	0x3d096047	0.033539083
123	0xbe730d3e	-0.2373552
124	0xbd8730ad	-0.06601081
125	0x3ebd77aa	0.3700536
126	0x3e9fb800	0.31195068
127	0x3e7ab249	0.24482073
128	0xbe4ec00c	-0.20190448
129	0xbc26bf1d	-0.010177401
130	0x3e0e1483	0.13875012
131	0x3eafb0d3	0.34314594
132	0x3c1451c1	0.009052695
133	0xbc8fa4fc	-0.017534725
134	0xbe75579c	-0.23959202
135	0xbe0f722c	-0.14008397
136	0x3f04fdfc	0.5195005
137	0xbe057206	-0.13031778
138	0x3dc2f54c	0.09519443
139	0xbec617c0	-0.38689995
140	0x3ee84b8c	0.45370138
141	0xbdc73a4b	-0.097279154
142	0x3d8b8ccd	0.06813965
143	0xbc27dbb9	-0.010245257
144	0xbcef0163	-0.029175466
145	0x3e519e1e	0.20470473
146	0xbcc2b065	-0.023765752
147	0x3c982a72	0.018574927
148	0xbceeb52e	-0.029139128
149	0xbd31cb63	-0.043406855
150	0xbe2f8940	-0.171422
151	0x3e83d6d5	0.2574984
152	0x3bec3422	0.007208363
153	0x3e860824	0.26178086
154	0xbe829860	-0.25506878
155	0x3dd1f644	0.102520496
156	0x3def692f	0.11689984
157	0x3e704cdf	0.23466824
158	0xbe13ec36	-0.14445576
159	0xbe475bed	-0.1946866
160	0x3e2e6e66	0.17034301
161	0xbe780d92	-0.24223927
162	0x3e7e6720	0.24844027
163	0xbdda250f	-0.106515996
164	0x3de2e50c	0.110788435
165	0x3e7ac234	0.24488145
166	0xbec07003	-0.37585458
167	0xbd12a29f	-0.03579962
168	0xbe30f059	-0.17279185
169	0x3eb14e8b	0.34630236
170	0x3e0215af	0.12703584
171	0xbeaa4bae	-0.33260864
172	0x3cccd29b	0.025002768
173	0xbe120c59	-0.14262523
174	0x3d875cef	0.066095226
175	0x3d8da9ec	0.06917176
176	0x3e86c73b	0.26323876
177	0xbf0cfcd1	-0.5507327
178	0xbbcbb2cf	-0.006216384
179	0xbe64d004	-0.22344977
180	0x3e141a24	0.14463097
181	0xbe9d4cb7	-0.3072259
182	0xbed9beba	-0.42528325
183	0xbe06b8ef	-0.13156484
184	0x3e8a1908	0.26972222
185	0xbe8b269d	-0.27177897
186	0x3e726620	0.2367177
187	0xbbc0f2f1	-0.005888336
188	0x3ec48bf9	0.3838804
189	0x3e1adeac	0.15124005
190	0x3e600810	0.21878076
191	0x3e24b452	0.16084412
192	0xbdc00b80	-0.093771935
193	0x3c60a9ba	0.013712341
194	0xbec63124	-0.38709366
195	0xbe5f34eb	-0.2179753
196	0xbe350d34	-0.17680818
197	0x3e744695	0.2385505
198	0xbe86b4bf	-0.26309773
199	0x3eb4b86e	0.3529696
200	0xbed8360b	-0.42228732
201	0x3d4f74e6	0.050648592
202	0xbd14bc58	-0.03631243
203	0x3eb8f058	0.36120868
204	0xbe87bb60	-0.26510143
205	0xbebaf191	-0.36512426
206	0xbd608955	-0.05481847
207	0x3ebef4f2	0.37296253
208	0x3eddbc8c	0.43307912
209	0x3e06708c	0.1312887
210	0xbe7ec68e	-0.2488043
211	0x3e0ef175	0.13959296
212	0xbda62b53	-0.08113732
213	0x3ede66e7	0.43437883
214	0xbcff8cb5	-0.031195024
215	0x3db21f5c	0.086973876
216	0x3d7d4263	0.06183089
217	0xbefd6b21	-0.49495795
218	0x3e665541	0.2249346
219	0xbd77ca41	-0.06049562
220	0xbf15ccc1	-0.58515555
221	0xbd937eb5	-0.07201902
222	0xbcbfc71c	-0.023410372
223	0xbd33c422	-0.04388822
224	0xbe3f7a97	-0.18699108
225	0xbcdaa151	-0.02668825
226	0xbc16af60	-0.009197086
227	0xbbc2acda	-0.0059410157
228	0x3c82f667	0.015986634
229	0x3cc82e27	0.02443607
230	0x3caf1528	0.021372393
231	0xbe128d3e	-0.14311692
232	0x3d9b2c6b	0.075768314
233	0xbdf28a94	-0.11842838
234	0xbe84ffba	-0.25976354
235	0xbdb8df57	-0.09026974
236	0x3d1fd99e	0.039025895
237	0x3ea951af	0.33070132
238	0x3d00e7cb	0.031471055
239	0x3df58ca4	0.11989716
240	0xbe5126df	-0.20424984
241	0x3e9a46f6	0.30132264
242	0x3e67d488	0.22639668
243	0xbe099fdc	-0.13439888
244	0xbe258e56	-0.16167578
245	0x3d247637	0.0401518
246	0xbdd7fe9b	-0.10546609
247	0x3d776135	0.06039544
248	0xbe0d54b6	-0.13801846
249	0xbdbc79c3	-0.09202912
250	0xbeb2e6e8	-0.34941792
251	0x3e4686e0	0.19387388
252	0xbe98aa71	-0.29817536
253	0x3e69b97d	0.22824664
254	0xbd45801d	-0.04821788
255	0x3e8d66da	0.27617532

actor.2.bias f4 [64]
0	0xbc1b6a0d	-0.009485734
1	0x3c875f96	0.016525071
2	0x3c61ebb1	0.013789103
3	0xbd2c0073	-0.041992616
4	0x3ca12900	0.01967287
5	0x3baa46f9	0.005196449
6	0xbb83e92f	-0.0040256004
7	0xbca2c824	-0.019870825
8	0xbc05b286	-0.008160239
9	0x3b4b02fe	0.0030977125
10	0xbc7691a9	-0.0150493765
11	0x3ca80901	0.020512106
12	0xbb852b1a	-0.004063976
13	0x3bee8d16	0.0072800023
14	0x3c830189	0.015991943
15	0xbc9df933	-0.019283867
16	0x3ccc6f7c	0.024955504
17	0x3aaf3ed6	0.0013370167
18	0x3d21c04c	0.03949003
19	0xbc30381f	-0.010755568
20	0x3ab94377	0.0014134486
21	0xbc97afbf	-0.01851642
22	0xbc13d5d8	-0.009023152
23	0xbc1e72da	-0.009670937
24	0xbc5e3053	-0.013561326
25	0xbbbd7dff	-0.005782842
26	0xbce63c6e	-0.028104987
27	0xbc21b600	-0.009870052
28	0x3c8e1e10	0.01734832
29	0x3a9f2a5a	0.0012143359
30	0x3c8ad59c	0.01694756
31	0xbaaddf08	-0.0013265321
32	0x3b7e2376	0.003877846
33	0x3cf84be5	0.030309627
34	0xbc8c5730	-0.017131418
35	0x3d0b6aea	0.034037508
36	0xbca008d2	-0.019535456
37	0xbc9e28e2	-0.019306604
38	0xbcaa3016	-0.020774882
39	0xbc9b81c9	-0.018982785
40	0xbc7325a0	-0.0148405135
41	0x3d08e62e	0.03342264
42	0x3afd8b07	0.0019343802
43	0xbc248e5a	-0.010043705
44	0x3c2095d4	0.009801347
45	0x3c4d9695	0.012548109
46	0x3b81a536	0.0039564623
47	0xbc7420c6	-0.014900392
48	0xbd4dc2c3	-0.050234567
49	0xbcd74be1	-0.0262813
50	0x3d319190	0.04335171
51	0xbc1ceee6	-0.009578442
52	0xbc2c5bbe	-0.01051992
53	0x3c97ad22	0.018515173
54	0x3bf4cc79	0.007470664
55	0xbce04d92	-0.027380738
56	0x3d041c1d	0.032253373
57	0xbcb45c8d	-0.022016788
58	0xbcfdf8ca	-0.031002421
59	0xbcfca41e	-0.030839976
60	0xbcfc3fb2	-0.030792091
61	0x3c0fc4ac	0.008774918
62	0xbd12b8f4	-0.035820916
63	0xbb5ccd12	-0.0033691567

actor.4.weight f4 [4, 64]
0	0xbe16da12	-0.14731625
1	0xbbf58f38	-0.0074938796
2	0xbde42c4a	-0.1114126
3	0x3e1001b6	0.14063153
4	0xbe383c3f	-0.17991732
5	0xbdc89e35	-0.097958006
6	0x3e024661	0.1272216
7	0x3e243b6b	0.16038291
8	0x3df6027a	0.12012191
9	0xbe174677	-0.14772974
10	0xbbdd533c	-0.006754307
11	0x3c1a97f3	0.009435642
12	0x3df174f9	0.11789889
13	0xbe07af48	-0.13250458
14	0xbe1739db	-0.14768164
15	0x3e081958	0.13290918
16	0xbd51a0ea	-0.05117885
17	0xbe1ec440	-0.15504551
18	0x3d128c8c	0.035778567
19	0x3baf820c	0.005356079
20	0x3d9326c7	0.071851306
21	0x3e1edb4e	0.15513346
22	0xbde2becf	-0.1107155
23	0x3d2de0e6	0.042450808
24	0xbd581fe6	-0.052764796
25	0x3de4ee16	0.11178224
26	0x3e32e584	0.17470366
27	0x3e1b7857	0.15182625
28	0xbe15dad1	-0.14634253
29	0xbe1bbd04	-0.15208822
30	0xbe0b0744	-0.1357699
31	0xbd9371a3	-0.07199409
32	0xbe0ce5e6	-0.13759574
33	0xbe0c6f3d	-0.13714309
34	0xbdba7086	-0.091034934
35	0xbe2ae011	-0.16687037
36	0x3dc733bd	0.09726665
37	0x3e0e43fd	0.13893123
38	0x3da52f3e	0.08065651
39	0xbbe7f669	-0.007078935
40	0x3d6e7b41	0.058223013
41	0xbd86a970	-0.065752864
42	0x3de45dc2	0.111506954
43	0xbdffb401	-0.12485505
44	0xbd8d0d55	-0.068873085
45	0xbe27e43b	-0.16395657
46	0x3db51f68	0.08843881
47	0x3e1f863a	0.15578547
48	0x3e3ad157	0.1824392
49	0x3dc4b1f7	0.096042566
50	0xbe2e8542	-0.17043021
51	0x3e2671d3	0.16254358
52	0xbda5b1af	-0.08090531
53	0x3d19ef80	0.03758192
54	0xbe0bdbcb	-0.13658063
55	0x3e130dc9	0.14360727
56	0x3e0f52aa	0.13996378
57	0xbe1c04da	-0.15236226
58	0x3e249e96	0.1607612
59	0x3df74174	0.12073031
60	0x3e433561	0.19063331
61	0xbd655fad	-0.055999447
62	0x3c2ffcca	0.010741422
63	0x3db9c2b6	0.09070341
64	0x3e58e4bb	0.21181004
65	0xbe94cf3f	-0.29064366
66	0xbe69ee03	-0.228447
67	0x3e7b94e9	0.24568523
68	0xbe530f13	-0.20611219
69	0xbd9bba0d	-0.07603846
70	0xbe347192	-0.17621449
71	0x3c807b1b	0.015683701
72	0xbe3ecb2b	-0.1863219
73	0x3bbf22a0	0.005832985
74	0xbe838fae	-0.25695556
75	0xbe6ab12a	-0.22919145
76	0x3e8fcebe	0.2808742
77	0xbe9b2a47	-0.30305693
78	0xbe5d1298	-0.21589124
79	0x3e6d174e	0.23153421
80	0x3e6ebd2a	0.23314348
81	0xbe120117	-0.14258228
82	0x3e8a3c8b	0.26999316
83	0xbe8c2780	-0.27373886
84	0xbe88fab0	-0.2675376
85	0xbe053a22	-0.13010457
86	0xbd93d13b	-0.07217642
87	0xbe846292	-0.25856453
88	0xbde2a65c	-0.11066887
89	0x3e9b2b2a	0.3030637
90	0xbe08e8b3	-0.13370018
91	0x3e8d088c	0.27545583
92	0x3dbd6b8b	0.09249028
93	0x3d7729c1	0.060342554
94	0x3df1cadf	0.11806273
95	0x3e69d45c	0.22834915
96	0xbe28a59c	-0.16469425
97	0xbe8e40fd	-0.27783957
98	0x3e15e191	0.14636828
99	0x3e12d627	0.14339505
100	0xbdc1b565	-0.094584264
101	0x3e78b20e	0.24286672
102	0x3e900857	0.28131363
103	0xbe7300d4	-0.23730785
104	0x3e7c99c1	0.24668027
105	0x3e65a9fb	0.22428124
106	0x3e3dfb91	0.18552996
107	0xbe9dc347	-0.30813047
108	0xbe8f5a80	-0.27998734
109	0xbe7f81dc	-0.24951881
110	0x3e878aa4	0.26472962
111	0x3e90234d	0.28151932
112	0xbc6dcd5b	-0.014514293
113	0x3e8eea09	0.2791293
114	0xbd8ac37b	-0.06775566
115	0xbe4737a0	-0.19454813
116	0xbdfac694	-0.12244907
117	0x3e8dd8fd	0.2770461
118	0x3e39a2d8	0.18128526
119	0x3e505b94	0.20347434
120	0xbd91e5b2	-0.07123889
121	0x3d751f84	0.05984451
122	0x3e92fa88	0.28706765
123	0x3d5d2c5f	0.053997394
124	0x3d93c96b	0.07216152
125	0xbe77892b	-0.24173419
126	0xbe9055bf	-0.2819042
127	0x3d972e4e	0.07381879
128	0x3e695b32	0.22788695
129	0x3d0c3c9c	0.03423749
130	0x3e5505a7	0.20802937
131	0xbe78fda3	-0.24315505
132	0x3e8a5f3c	0.27025783
133	0x3e21fa8b	0.15818231
134	0xbe6c7409	-0.23091139
135	0xbe879a99	-0.26485136
136	0xbe67c3fb	-0.22633354
137	0x3e69a156	0.22815451
138	0x3c7f8b71	0.01559721
139	0xbc13def6	-0.009025326
140	0xbe528fa2	-0.20562604
141	0x3e697962	0.2280021
142	0x3e726fa9	0.23675407
143	0xbe787c2b	-0.24266116
144	0x3df324ee	0.11872278
145	0x3e750ff4	0.23931867
146	0xbd8b406d	-0.067993976
147	0xbc6a0168	-0.014282562
148	0xbe01f892	-0.12692478
149	0xbe840165	-0.25782314
150	0x3e34724c	0.17621726
151	0xbd8c7b76	-0.06859486
152	0x3d7b0cbc	0.06129144
153	0xbe4b41ff	-0.19849394
154	0xbe92749f	-0.286046
155	0xbe83a689	-0.25712994
156	0x3e7f878c	0.24954051
157	0x3e73b7fb	0.23800652
158	0x3e765b4a	0.24058262
159	0x3e1f3f0a	0.15551391
160	0x3e63cc3f	0.22245882
161	0x3e7d2d84	0.24724394
162	0x3e2642c5	0.16236408
163	0x3e8ac304	0.2710191
164	0xbe31f3b3	-0.1737812
165	0xbe79bcf7	-0.2438849
166	0xbe36a099	-0.178347
167	0x3d08c502	0.033391006
168	0xbe008512	-0.12550762
169	0x3e14532d	0.14484854
170	0xbe36d920	-0.17856264
171	0x3e5acbe6	0.21366844
172	0x3e103bc4	0.14085299
173	0x3e834599	0.25639036
174	0xbe35e024	-0.17761284
175	0xbe806434	-0.2507645
176	0xbe9229aa	-0.28547412
177	0xbe457c34	-0.19285661
178	0x3e929dd0	0.28636026
179	0xbe7985c9	-0.24367441
180	0x3e06647f	0.13124274
181	0xbdb68a8a	-0.08913143
182	0x3e70d7be	0.23519799
183	0xbe7f05f3	-0.24904613
184	0xbe5b63a1	-0.21424724
185	0x3e6d7193	0.23187856
186	0xbe8d27ff	-0.27569577
187	0xbe63e8ea	-0.22256818
188	0xbe8ea5ea	-0.27860957
189	0x3df76f98	0.12081832
190	0xbcd3ab45	-0.025838504
191	0xbe0ba20d	-0.13636036
192	0xbe89ee15	-0.26939455
193	0x3e995d12	0.2995382
194	0x3dec1238	0.115269125
195	0xbe03de45	-0.12877758
196	0xbe0e6340	-0.13905048
197	0xbda4c2d7	-0.08044975
198	0x3e89b313	0.26894435
199	0x3e737759	0.23775996
200	0x3e8c7e63	0.27440175
201	0xbe5e91db	-0.21735327
202	0x3e823569	0.25431374
203	0x3e7cda9a	0.24692765
204	0xbe5b8859	-0.21438731
205	0x3e5e3601	0.21700288
206	0x3c83e740	0.01610148
207	0xbdaa998e	-0.083300695
208	0xbe84240a	-0.25808746
209	0xbe10f09e	-0.14154288
210	0xbe83082d	-0.25592175
211	0x3e8b99ae	0.27265686
212	0x3e944661	0.28959945
213	0x3e8b9518	0.27262187
214	0xbdea2e66	-0.11434631
215	0x3e91c871	0.28473237
216	0x3dbd7a26	0.092518136
217	0xbe83b967	-0.25727388
218	0x3e8cf33a	0.27529317
219	0xbe410edf	-0.18853329
220	0xbe899911	-0.26874593
221	0xbe87b00d	-0.26501504
222	0xbe5ff989	-0.21872534
223	0xbe88bb4d	-0.267054
224	0xbdc71784	-0.09721282
225	0x3e529798	0.20565641
226	0xbe6dc7a6	-0.23220691
227	0xbe8f9033	-0.28039703
228	0x3e46448b	0.19362085
229	0xbd8d2cb2	-0.068932906
230	0xbe617377	-0.22016703
231	0x3e641da4	0.22276932
232	0xbe603988	-0.21896946
233	0xbe7f62c7	-0.24940024
234	0xbbebfc02	-0.0072016725
235	0x3e5f20c8	0.21789849
236	0x3e826825	0.2547008
237	0x3beead0b	0.007283812
238	0xbe65e4d9	-0.2245058
239	0xbe1b04f3	-0.15138607
240	0x3e85bda6	0.26121253
241	0xbe69ba59	-0.22824992
242	0xbe69fe62	-0.22850946
243	0x3e8b0fd9	0.27160528
244	0x3d1124a4	0.035435334
245	0xbe7f8520	-0.24953127
246	0xbe87154f	-0.26383445
247	0xbc9dc74c	-0.019260071
248	0x3e6e54f5	0.23274596
249	0xbe730ace	-0.2373459
250	0xbe21b39a	-0.15791169
251	0x3e2672d6	0.16254744
252	0x3e8309c8	0.255934
253	0x3e5d10b0	0.21588397
254	0x3e8eaf8b	0.27868304
255	0x3d22589c	0.039635286

actor.4.bias f4 [4]
0	0xbcadeb8e	-0.021230485
1	0xbca3655a	-0.01994579
2	0x3d3e0f49	0.046401296
3	0xbcf7c2e0	-0.03024429
