HFDRL_UNIT8/models/Archived/LunarLander-v3__ppo__1__1768732591_resume__u20.pt (torch, 44861 bytes, 11 tensors)

critic.0.weight f4 [64, 8]
-0.15916146 0.050210617 0.020066813 0.06391606 -0.057373323 0.14103197 -0.2803205 0.14081196
-0.19436164 0.2349301 0.25007167 -0.13417117 -0.19933777 -0.23640616 0.16309918 -0.05930858
0.006375936 -0.22156255 0.15126131 0.093558826 0.03617086 0.10904963 0.14664604 0.4790569
-0.21690194 0.08325779 -0.03390757 -0.4191006 0.25620088 -0.0028106845 -0.19537939 -0.10172319
0.020939836 -0.123317674 0.2267311 0.018628338 -0.0030535113 -0.093010984 0.013547388 -0.3722473
-0.04690772 -0.2215459 -0.016249215 -0.09267562 -0.027814291 0.27691692 -0.21652526 -0.22376326
-0.28718287 -0.14974241 -0.021104239 -0.069280356 -0.082879424 -0.20525372 0.43546945 0.18739161
-0.07078764 0.4814458 0.1419208 0.0799478 -0.0570462 0.16718715 0.26620087 0.37792498
0.14094909 -0.076090306 0.22909941 -0.13548537 0.33864614 -0.032164525 -0.022850344 -0.029476205
0.00055918674 0.19449729 0.30300912 -0.29867014 0.21317896 0.07225745 0.24013814 0.52250487
-0.03329371 -0.3655209 0.16246907 0.27663732 0.002957368 0.2841963 -0.12011008 -0.2935953
-0.08765357 0.3807289 -0.09633593 0.07796943 -0.09094992 0.21528462 -0.24583906 0.015864486
-0.022972194 0.25384226 0.06959486 -0.084750004 -0.09141835 0.018018704 -0.114772476 0.12194633
-0.029162085 -0.13293953 0.21765968 0.2976737 -0.017800394 0.037775744 -0.27291638 0.11813977
-0.058464617 -0.011322838 0.1680531 0.06623002 0.08792257 0.026986277 -0.09475948 -0.06937593
-0.06939518 0.080116116 -0.25520504 -0.13888435 -0.0478548 0.153346 0.11117402 -0.031431615
0.11996949 0.07714094 0.041456804 -0.4233687 -0.1317994 -0.06747866 -0.11752138 0.2107042
-0.1284197 0.11600161 0.3112007 0.05069951 0.28255486 -0.19311127 0.07136964 0.26206934
-0.32166955 -0.16698116 0.2498574 0.17482391 -0.19218732 0.112035945 -0.00932952 -0.07960531
-0.06886252 0.2752448 -0.08543517 -0.091407865 0.029640136 0.19384629 -0.30747038 -0.18082123
0.212123 -0.008157727 0.15255257 0.07475917 0.06411299 -0.06374989 -0.005264134 0.01676212
0.10065146 0.023635197 -0.18366283 -0.23835124 -0.06541244 0.057955205 -0.19259931 -0.084657654
0.17855068 -0.011982111 0.093598835 0.2449775 -0.19917281 -0.17105436 -0.12153627 -0.21480931
0.21658537 0.053489577 -0.116646305 0.11939756 0.1660712 -0.11767582 0.018706154 -0.2833576
-0.075772986 0.052901044 0.08659627 -0.03464212 0.0589398 -0.19414394 -0.59802395 -0.17236875
-0.093034945 0.25497088 0.0144009525 0.11128816 0.046591543 -0.20214872 0.06609961 -0.08847175
-0.09142429 0.043053187 0.083252385 -0.0499386 0.25175813 -0.13893151 0.10427437 0.1596776
-0.040757358 -0.088028625 -0.0054760803 -0.01916315 -0.26052055 0.20758018 0.11889741 0.31171262
0.27472416 -0.0073884143 -0.29112452 0.03788076 -0.12500986 -0.017539993 -0.37445506 -0.10807087
0.09676183 0.39142558 -0.22084172 0.36643043 -0.21918912 0.061252154 0.016512241 -0.4239029
-0.24590528 -0.07436599 -0.15484129 -0.074575745 0.20573206 -0.11946159 0.109364815 0.34856793
-0.11404343 0.47758794 0.15423273 -0.011248132 0.21174197 0.14617735 -0.110601485 -0.21663503
00000000: 39fb 22be a6a9 4d3d 2863 a43c 6ce6 823d
00000010: 4a00 6bbd af6a 103e 2b86 8fbe 0331 103e
00000020: bd06 47be 8491 703e 6509 803e 2b64 09be
00000030: 331f 4cbe 7514 72be 7903 273e 8eed 72bd
00000040: 3aed d03b 4be1 62be 3fe4 1a3e c59b bf3d
00000050: e527 143d 6a55 df3d 612a 163e f246 f53e
00000060: 8b1b 5ebe 0f83 aa3d aae2 0abd 5b94 d6be
00000070: c32c 833e 7633 38bb 8911 48be 3f54 d0bd
00000080: 058a ab3c fa8d fcbd 332c 683e 759a 983c
00000090: 6b1d 48bb 8b7c bebd ddf5 5d3c 3397 bebe
000000a0: 4f22 40bd eedc 62be 131d 85bc b7cc bdbd
000000b0: ccda e3bc 0ec8 8d3e ccb8 5dbe 3222 65be
000000c0: a209 93be 1356 19be cce2 acbc dce2 8dbd
000000d0: b0bc a9bd 082e 52be daf5 de3e 96e3 3f3e
000000e0: 1cf9 90bd 1080 f63e b053 113e acbb a33d
000000f0: 47a9 69bd 1c33 2b3e 7b4b 883e 627f c13e
00000100: f554 103e 3cd5 9bbd 0999 6a3e adbc 0abe
00000110: 0763 ad3e f3be 03bd a530 bbbc 1578 f1bc
00000120: 6396 123a 4c2a 473e 0324 9b3e 4beb 98be
00000130: 964b 5a3e b7fb 933d c6e6 753e e1c2 053f
00000140: fc5e 08bd 8e25 bbbe 4b5e 263e 68a3 8d3e
00000150: 67d0 413b 2d82 913e 46fc f5bd 2052 96be
00000160: b783 b3bd e6ee c23e c64b c5bd 70ae 9f3d
00000170: f443 babd 9273 5c3e 3cbd 7bbe 3df6 813c
00000180: 2f30 bcbc 9df7 813e c087 8e3d 6991 adbd
00000190: 8b39 bbbd f69b 933c d50d ebbd ffbe f93d
000001a0: 53e5 eebc 4d21 08be 2ee2 5e3e b068 983e
000001b0: 22d2 91bc bdba 1a3d b2bb 8bbe 44f3 f13d
000001c0: 9878 6fbd 6d83 39bc 1d16 2c3e 9ba3 873d
000001d0: c010 b43d 5312 dd3c 4211 c2bd f814 8ebd
000001e0: 0f1f 8ebd eb13 a43d 3caa 82be b337 0ebe
000001f0: 6503 44bd bc06 1d3e 34af e33d 70be 00bd
00000200: 90b2 f53d 12fc 9d3d 9cce 293d c8c3 d8be
00000210: 6cf6 06be 4032 8abd 0daf f0bd d8c2 573e
00000220: 7480 03be 4192 ed3d b355 9f3e 4aaa 4f3d
00000230: 08ab 903e f6be 45be 3f2a 923d f42d 863e
00000240: dfb1 a4be 1cfd 2abe 9eda 7f3e 0a05 333e
00000250: c1cc 44be 1a73 e53d d8da 18bc 1c08 a3bd
00000260: cb07 8dbd e3ec 8c3e a2f8 aebd 0c34 bbbd
00000270: dfcf f23c a47f 463e c26c 9dbe 3329 39be
00000280: c636 593e fda7 05bc be36 1c3e 561b 993d
00000290: ac4d 833d 4d8f 82bd c27e acbb b750 893c
000002a0: 5a22 ce3d 9a9e c13c 1c12 3cbe 5912 74be
000002b0: f5f6 85bd 7062 6d3d c138 45be fe60 adbd
000002c0: fdd5 363e 9e50 44bc bfb0 bf3d 62db 7a3e
000002d0: f5f3 4bbe e028 2fbe 02e8 f8bd f9f6 5bbe
000002e0: 8ec8 5d3e e317 5b3d 42e4 eebd b586 f43d
000002f0: 920e 2a3e 0500 f1bd a63d 993c 3f14 91be
00000300: de2e 9bbd c4ae 583d 6359 b13d e5e4 0dbd
00000310: dc6a 713d abcd 46be 1918 19bf 6f81 30be
00000320: 1b89 bebd 8b8b 823e f9f1 6b3c 0ceb e33d
00000330: c6d6 3e3d 1300 4fbe 3b5f 873d ad30 b5bd
00000340: a83c bbbd 8a58 303d 3a80 aa3d 6b8c 4cbd
00000350: 71e6 803e 1044 0ebe cd8d d53d 8682 233e
00000360: 30f1 26bd 5a48 b4bd b170 b3bb 0afc 9cbc
00000370: f362 85be e68f 543e 7c80 f33d cc98 9f3e
00000380: a5a8 8c3e 831a f2bb 460e 95be db28 1b3d
00000390: 9602 00be 08b0 8fbc 93b8 bfbe 4354 ddbd
000003a0: 112b c63d ef68 c83e 5524 62be c59c bb3e
000003b0: 1d73 60be 8ae3 7a3d ae44 873c cd09 d9be
000003c0: 98ce 7bbe 324d 98bd b78e 1ebe 2bbb 98bd
000003d0: 6dab 523e 47a8 f4bd a9fa df3d 7f77 b23e
000003e0: 9a8f e9bd 6886 f43e 2fef 1d3e 164a 38bc
000003f0: e3d2 583e 84af 153e 0883 e2bd 93d5 5dbe

critic.0.bias f4 [64]
-0.10756925 0.12172429 0.023113847 -0.045831107 -0.14369191 0.0156072695 -0.012891323 0.128535
-0.088018514 0.11623884 -0.047552772 -0.055805366 0.11373685 0.07191496 -0.013453689 -0.08190097
0.11386564 0.04030272 -0.117468305 -0.058436915 -0.11407478 0.10313264 -0.089584254 -0.11719628
-0.02037496 -0.041181315 0.107434556 0.09693722 -0.09126314 -0.09682668 0.114055894 -0.016640982
-0.08191507 -0.11185102 0.12750688 0.10983854 -0.11280032 -0.110248104 -0.10906738 0.0959848
0.1046049 0.104872175 -0.10784887 -0.0044363127 -0.12595116 -0.010760993 -0.021352464 -0.11222219
-0.105775945 -0.073731326 -0.099438936 0.10023391 -0.10144706 -0.09829154 -0.091119364 -0.1470379
-0.124995925 -0.08447244 -0.117143594 -0.034108978 -0.10941047 -0.030872667 -0.119437575 -0.110175155
00000000: 444d dcbd 964a f93d 4059 bd3c 66b9 3bbd
00000010: f923 13be a2b5 7f3c 2136 53bc ae9e 033e
00000020: 0d43 b4bd a10e ee3d b2c6 42bd 2b94 64bd
00000030: deee e83d 2748 933d dd6c 5cbc b2bb a7bd
00000040: 6332 e93d 7714 253d 3993 f0bd 8c5b 6fbd
00000050: 0aa0 e9bd 3537 d33d f377 b7bd 9a04 f0bd
00000060: 63e9 a6bc bdad 28bd a606 dc3d 0587 c63d
00000070: 2be8 babd 114d c6bd 2396 e93d ab52 88bc
00000080: 17c3 a7bd 2612 e5bd 2a91 023e 07f3 e03d
00000090: db03 e7bd c2c9 e1bd b85e dfbd ae93 c43d
000000a0: 183b d63d 39c7 d63d dedf dcbd 7d5e 91bb
000000b0: 57f9 00be e04e 30bc 5deb aebc bfd4 e5bd
000000c0: 0fa1 d8bd 7300 97bd a4a6 cbbd 7047 cd3d
000000d0: 7ac3 cfbd 134d c9bd ca9c babd 1a91 16be
000000e0: ddfd ffbd e3ff acbd fbe8 efbd dbb5 0bbd
000000f0: 9912 e0bd ade8 fcbc b09b f4bd 83a3 e1bd

critic.2.weight f4 [64, 64]
0.16487654 -0.5598392 -0.121476695 0.15219149 -0.009288451 -0.0966224 0.15880628 -0.3579803
-0.062311042 0.28527084 -0.12883067 -0.10327768 -0.099192865 -0.1271578 -0.15675639 0.122466214
0.0049878196 -0.14752218 0.056200594 0.10049533 -0.09138436 0.059628803 0.17002772 0.0932922
0.25430128 0.09992589 0.20637113 0.04262635 -0.010485671 0.12944458 0.033228915 0.060498435
-0.100191526 0.18388829 0.1867277 -0.083353326 -0.31465864 -0.25461462 -0.06882138 -0.51003176
0.16908757 -0.19798355 0.05872492 -0.0843502 -0.24486896 0.08127993 0.036866147 0.29220486
0.00070181704 0.19041798 -0.049096044 -0.08491134 0.078313276 -0.01108183 0.026249694 0.17443435
0.16076013 -0.017387314 0.08440191 -0.037291247 0.26095095 0.35662982 -0.23141168 0.060677506
0.29224086 0.09518976 0.032889564 0.007306412 -0.0062533556 -0.16425435 0.11010189 -0.27939183
-0.019514754 -0.33047467 0.046492193 -0.10169075 0.36235446 0.31288195 -0.053006805 0.1934764
-0.10320831 -0.28532457 0.44782344 -0.15012543 0.10794995 0.0020685594 0.022836711 0.12132549
-0.037171554 0.11735894 -0.1369455 -0.06829686 0.2601146 0.31626487 -0.10628752 0.160165
0.15269949 0.13049714 -0.1250216 -0.20822498 0.055319414 -0.053015366 -0.068359934 0.17919071
0.01300255 -0.09756854 0.2594791 -0.05222101 0.16907768 0.091681734 0.25993317 0.041781247
0.3805377 -0.1074402 0.07239332 -0.1401239 0.10721663 -0.024741806 -0.029231215 -0.045843147
0.3858334 -0.13499284 0.23913752 0.18266025 0.18107116 0.10038341 -0.21973649 0.01618505
-0.12631063 0.17800419 0.17089398 0.11242438 0.27290893 -0.0647183 0.06761332 0.25483522
-0.2369246 0.39090258 -0.23035991 -0.21027486 -0.028979741 0.22072572 0.05800849 -0.21189013
-0.3140685 0.012985304 0.027779454 -0.069339424 -0.16266339 -0.03786004 -0.15744318 -0.006256254
-0.10565248 0.07148399 0.44978705 0.17602248 0.04688286 -0.43401086 -0.22584033 -0.30252057
0.32577938 0.0575854 -0.030162413 0.1436162 -0.11323864 -0.13605833 -0.027977552 0.16417415
0.15833479 -0.29464203 0.22751315 0.037515894 0.0014276564 -0.13248102 0.46762797 0.05243782
0.07137779 -0.01363051 -0.0058684223 0.016156014 -0.14575094 0.04499918 0.018761162 -0.12166229
-0.33987716 -0.051839158 0.028970638 -0.16458632 -0.048999052 -0.08283825 -0.11005254 -0.032387704
0.25741675 0.13724408 -0.1275334 0.15045199 0.028399076 -0.12938502 -0.57624614 -0.16288538
0.061290238 -0.0076285983 0.16533896 -0.0032294816 -0.11794634 0.27077368 0.037037067 0.1540304
-0.14249201 0.028020313 -0.0312282 0.097415075 -0.13575727 0.047896817 0.437114 0.20741408
-0.22637598 -0.04246312 -0.2899303 -0.15937626 -0.08507851 -0.39870378 0.22486196 0.12197218
-0.013089089 0.2077938 -0.085954145 -0.19855078 -0.075299256 -0.24337645 0.20307799 -0.10071242
0.04336005 -0.06419407 0.19680695 0.1267288 -0.09903967 0.31270748 -0.15648675 0.09535307
0.21042801 0.042763572 -0.16053928 -0.13663076 0.15848966 0.00038683522 0.0008472945 -0.224518
0.18187062 -0.09638403 0.19916482 0.10548764 -0.12665388 -0.14971225 -0.12980336 0.011423064
00000000: 65d5 283e 9f51 0fbf c6c8 f8bd 16d8 1b3e
00000010: 962e 18bc f7e1 c5bd 1d9e 223e 3249 b7be
00000020: dd39 7fbd 050f 923e 30ec 03be 4083 d3bd
00000030: a125 cbbd a835 02be bf84 20be 91cf fa3d
00000040: dd70 a33b 0e10 17be 9832 663d 7fd0 cd3d
00000050: b927 bbbd 553d 743d bf1b 2e3e fb0f bf3d
00000060: c733 823e f2a5 cc3d f452 533e f898 2e3d
00000070: 18cc 2bbc 1f8d 043e 0b1b 083d 35cd 773d
00000080: 3731 cdbd 364d 3c3e 8c35 3f3e 26b5 aabd
00000090: f01a a1be d95c 82be 39f2 8cbd 7191 02bf
000000a0: 4b25 2d3e 33bc 4abe 8b89 703d ccbf acbd
000000b0: eebe 7abe 1876 a63d f500 173d e09b 953e
000000c0: 25fa 373a eefc 423e ef18 49bd ffe5 adbd
000000d0: b662 a03d 9090 35bc 9909 d73c eb9e 323e
000000e0: 4e9e 243e d76f 8ebc e9da ac3d b5be 18bd
000000f0: 5d9b 853e 2f98 b63e 2ff7 6cbe fa88 783d
00000100: 98a0 953e d9f2 c23d 35b7 063d a06a ef3b
00000110: f3e8 ccbb 4b32 28be 1a7d e13d 720c 8fbe
00000120: 68dd 9fbc fa33 a9be 996e 3e3d 3d43 d0bd
00000130: 8686 b93e 1032 a03e aa1d 59bd ad1e 463e
00000140: e15e d3bd 1016 92be 1d49 e53e 7bba 19be
00000150: dd14 dd3d ab90 073b 0e14 bb3c 8079 f83d
00000160: 3341 18bd e259 f03d 713b 0cbe 39df 8bbd
00000170: be2d 853e 78ed a13e 45ad d9bd 4b02 243e
00000180: 415d 1c3e 0ba1 053e aa05 00be ee38 55be
00000190: 9c96 623d a426 59bd 4b00 8cbd c57d 373e
000001a0: a608 553c 04d2 c7bd 72da 843e b3e5 55bd
000001b0: b322 2d3e a2c3 bb3d f615 853e d022 2b3d
000001c0: d6d5 c23e 9c09 dcbd f342 943d a47c 0fbe
000001d0: 6494 db3d 54af cabc 4d76 efbc 06c6 3bbd
000001e0: f58b c53e 903b 0abe 77e0 743e 4a0b 3b3e
000001f0: b86a 393e d195 cd3d 9a02 61be 8396 843c
00000200: 9357 01be bb46 363e d5fe 2e3e c13e e63d
00000210: b8ba 8b3e 078b 84bd da78 8a3d c379 823e
00000220: 5d9c 72be 6224 c83e 78e3 6bbe 4b52 57be
00000230: ec66 edbc ec05 623e 4f9a 6d3d baf9 58be
00000240: 96cd a0be 50c0 543c bd91 e33c d401 8ebd
00000250: 3b91 26be 2113 1bbd c938 21be 4301 cdbb
00000260: 5460 d8bd 3366 923d 7d4a e63e 3d3f 343e
00000270: 3e08 403d ac36 debe b042 67be fae3 9abe
00000280: 8ecc a63e abde 6b3d 2a17 f7bc 2010 133e
00000290: a9e9 e7bd e052 0bbe 2e31 e5bc 451d 283e
000002a0: 8422 223e 52db 96be 35f9 683e 44aa 193d
000002b0: 3320 bb3a 1ba9 07be ef6c ef3e 0ac9 563d
000002c0: 852e 923d 8152 5fbc e54b c0bb 9e59 843c
000002d0: bc3f 15be 0f51 383d 02b1 993c 142a f9bd
000002e0: 6104 aebe 4c55 54bd d553 ed3c 5189 28be
000002f0: 3bb3 48bd 1aa7 a9bd 3a63 e1bd f8a8 04bd
00000300: 21cc 833e b689 0c3e 1e98 02be 1610 1a3e
00000310: 2ea5 e83c 827d 04be de84 13bf 6dcb 26be
00000320: 790b 7b3d 52f9 f9bb 9e4e 293e b6a5 53bb
00000330: da8d f1bd d9a2 8a3e 2eb4 173d 25ba 1d3e
00000340: 6de9 11be db8a e53c 48d2 ffbc 8e81 c73d
00000350: f403 0bbe 742f 443d 68cd df3e 5b64 543e
00000360: 1bcf 67be cfed 2dbd bf71 94be 8833 23be
00000370: a43d aebd e722 ccbe 3742 663e 8dcc f93d
00000380: 9e73 56bc e6c7 543e ba08 b0bd e550 4bbe
00000390: 7f36 9abd ad37 79be adf3 4f3e 5042 cebd
000003a0: 4f9a 313d 2e78 83bd c387 493e 32c5 013e
000003b0: 4fd5 cabd 321b a03e 103e 20be 7848 c33d
000003c0: 717a 573e db28 2f3d 6964 24be efe8 0bbe
000003d0: 1d4b 223e 25d0 ca39 f91c 5e3a 0ce8 65be
000003e0: 4b3c 3a3e fe64 c5bd ddf1 4b3e e709 d83d
000003f0: 8eb1 01be 2b4e 19be 2ceb 04be ce27 3b3c

critic.2.bias f4 [64]
-0.079875596 -0.083862744 0.09180773 -0.12616785 -0.12474012 -0.07554577 0.07895144 -0.11344868
-0.111155145 -0.14754266 -0.092917144 -0.067343 -0.0798598 -0.113913625 -0.10191461 0.06728834
-0.09311946 -0.08811524 -0.09422987 0.08402915 -0.09515575 0.08033543 -0.09952665 0.026586678
-0.07699049 0.09338214 0.06998927 0.07089769 0.102225296 -0.10869045 0.06850707 -0.104750395
-0.077781096 0.07983068 0.104243875 -0.09735721 0.0940014 0.07871688 -0.070580974 -0.094846964
-0.15937418 -0.09267243 0.095144585 -0.07460491 0.12744403 0.1283465 0.073986545 -0.08847815
0.12266311 -0.01755501 0.082844354 0.092870764 0.09212143 0.10176998 -0.08781449 0.069196545
0.09438299 -0.07262966 0.094272956 0.073943704 -0.092125714 0.03325981 0.07329952 0.08764914
00000000: d195 a3bd 3bc0 abbd b105 bc3d 2532 01be
00000010: bf77 ffbd beb7 9abd 4bb1 a13d c857 e8bd
00000020: 4fa5 e3bd 6c15 17be 584b bebd 20eb 89bd
00000030: 898d a3bd 8c4b e9bd 9bb8 d0bd 78ce 893d
00000040: 6ab5 bebd c375 b4bd 97fb c0bd 7a17 ac3d
00000050: 05e1 c2bd e786 a43d a1d4 cbbd 4ecc d93c
00000060: 31ad 9dbd 233f bf3d 8956 8f3d cf32 913d
00000070: 7f5b d13d 1999 debd 6f4d 8c3d 6087 d6bd
00000080: b24b 9fbd 447e a33d d07d d53d 3863 c7bd
00000090: ce83 c03d 5136 a13d c28c 90bd 203f c2bd
000000a0: fc32 23be 0bcb bdbd 2adb c23d 76ca 98bd
000000b0: b080 023e 446d 033e 4286 973d 0834 b5bd
000000c0: cc36 fb3d 86cf 8fbc 4daa a93d 0733 be3d
000000d0: 29aa bc3d c76c d03d 15d8 b3bd ebb6 8d3d
000000e0: de4b c13d dcbe 94bd 2e12 c13d cc6f 973d
000000f0: 68ac bcbd 703b 083d 0f1e 963d 6481 b33d

critic.4.weight f4 [1, 64]
0.13962406 0.14704792 -0.119823046 0.07348096 0.086562194 0.3130111 -0.08331288 0.08695793
0.089814775 0.067102484 0.24437109 0.06840799 0.08723275 0.13257955 0.20815346 -0.100373216
0.12441264 0.19106574 0.11451152 -0.04961278 0.22643389 -0.06863687 0.084797695 -0.026387563
0.05619218 -0.27018943 -0.21797349 -0.3645927 -0.1467797 0.19857979 -0.23550224 0.15125734
0.30079103 -0.11159308 -0.11335617 0.20144302 -0.21619013 -0.3220963 0.18651478 0.21735443
0.07500201 0.27441943 -0.13734756 0.19377777 -0.08623333 -0.06848912 -0.27846292 0.13451594
-0.08673826 0.022004647 -0.16550371 -0.3010352 -0.11916082 -0.067181095 0.17908818 -0.33802146
-0.17122468 0.17080611 -0.058665417 -0.20439377 0.17936352 0.06096521 -0.331403 -0.46098328
00000000: 9cf9 0e3e bb93 163e c965 f5bd 307d 963d
00000010: 8547 b13d fe42 a03e f19f aabd 0017 b23d
00000020: cff0 b73d 076d 893d 6a3c 7a3e 7d19 8c3d
00000030: 16a7 b23d efc2 073e 2e26 553e 7990 cdbd
00000040: 0ecc fe3d bda6 433e 0485 ea3d c536 4bbd
00000050: 49de 673e 7d91 8cbd 6aaa ad3d bb2a d8bc
00000060: c529 663d 4556 8abe 7134 5fbe e5ab babe
00000070: 6b4d 16be 8058 4b3e 8027 71be 34e3 1a3e
00000080: 4801 9a3e ea8a e4bd 4827 e8bd 1447 4e3e
00000090: f260 5dbe cee9 a4be bbfd 3e3e 2992 5e3e
000000a0: a79a 993d b480 8c3e d7a4 0cbe ae6d 463e
000000b0: 1a9b b0bd 0644 8cbd b192 8ebe 8cbe 093e
000000c0: d4a3 b1bd 1743 b43c ce79 29be 4921 9abe
000000d0: 970a f4bd 3e96 89bd e462 373e 2611 adbe
000000e0: 8655 2fbe cce7 2e3e 264b 70bd 9a4c 51be
000000f0: 12ab 373e a8b6 793d a7ad a9be 0006 ecbe

actor.0.weight f4 [64, 8]
-0.055434156 0.031318046 0.22886778 -0.06381382 -0.5287986 -0.12450258 0.06330268 0.22277786
-0.23625445 0.09540394 -0.056535996 0.5009069 0.11010699 -0.11626966 -0.09121354 0.15311295
0.0008353773 -0.28497437 -0.047784753 -0.47828293 0.23663019 -0.066098616 -0.3530108 -0.29249722
-0.08129347 -0.030994512 -0.2132056 -0.07432003 0.32652563 -0.13236614 -0.18886551 -0.2642979
0.121689074 -0.05060474 -0.120245226 -0.14272982 0.16454749 0.11734515 0.19448943 -0.31959856
-0.10059006 -0.26234725 0.06978928 0.29579008 -0.27254593 0.061723873 0.05428608 0.104034044
-0.34168804 0.001435707 -0.05101658 -0.047755633 -0.20027833 0.0002767565 0.13943537 -0.34672847
-0.109400705 -0.21630238 0.25315434 0.377169 -0.56880534 -0.45706972 0.098323956 0.17432153
-0.21608654 0.15003248 -0.48964718 -0.336967 0.3063696 0.29793096 -0.544865 0.07409858
-0.11391401 0.041830406 -0.0062821866 0.20300023 -0.1774282 -0.27984765 -0.10144422 0.17423801
-0.06320498 0.082061864 0.023263209 -0.0202249 -0.32495716 0.059545178 0.2641161 0.18241623
0.030082176 -0.0842155 0.03418578 0.007974984 -0.39572328 -0.23522888 0.12222946 -0.16090184
-0.2053208 -0.11495379 -0.25098625 -0.22342929 0.20963502 0.32679737 -0.029509563 -0.14888312
-0.33422107 0.33899578 0.06473654 0.014615246 -0.007064888 -0.0971437 0.25079504 0.027375475
-0.12916398 -0.19022486 0.39688343 -0.3829764 -0.22520809 -0.02192599 0.015351008 0.04055081
-0.17838287 0.10565071 0.074773096 -0.14202021 -0.2080419 -0.06366249 -0.08872247 0.10460674
-0.28158182 -0.065701 0.15870598 0.42734134 -0.18453076 -0.31997296 0.008625468 0.10363539
0.17722794 0.110399626 -0.14236762 -0.21252708 -0.043206237 -0.040634982 0.16687109 -0.19279684
0.040133882 0.084624134 -0.30725533 0.10777577 0.24283032 0.10918519 0.03849932 0.0095942225
0.15037131 -0.021472942 0.22678946 -0.07873371 -0.46635637 -0.30190137 -0.30050522 -0.1248822
-0.04245698 -0.1675814 -0.2088532 0.0143452175 -0.016059732 0.18055613 0.06779051 0.18389241
0.10708755 0.024373736 0.10380382 0.1470444 -0.3508416 -0.33691671 0.035688333 0.09472411
0.027959356 0.15668663 -0.17253055 0.53282183 0.375877 0.26416487 0.10758889 -0.01887461
0.2762168 0.18387721 0.17790754 -0.33835596 0.42728558 0.17740756 -0.26195574 -0.048040505
-0.29545343 0.018155526 -0.07753752 0.18233766 -0.17239419 -0.2766035 0.039848134 0.079178944
-0.035866726 0.080737315 -0.1136142 -0.36781478 -0.008690432 0.25058523 -0.18187088 0.034399025
0.08494427 0.01584407 0.5593633 0.1343746 -0.20213783 -0.012912262 -0.21990798 0.27378517
0.10260243 -0.16423152 -0.09151038 -0.30762765 0.3886373 0.4247517 0.07439598 0.08367013
0.013876372 -0.2508205 -0.08441026 -0.1498201 0.4717554 -0.032808412 -0.16058992 -0.04749035
0.11593111 -0.059403826 0.024553973 -0.6728875 -0.14380819 -0.5530364 -0.0938826 -0.09374526
-0.084314086 -0.034813084 -0.050986245 0.44232467 0.37353605 0.1405499 -0.007597092 -0.044492967
0.108684644 -0.018875482 -0.039033264 0.27549228 0.18659233 0.00665688 -0.027281668 -0.23167452
00000000: ed0e 63bd 5a47 003d 515c 6a3e d2b0 82bd
00000010: 585f 07bf 35fb febd d6a4 813d e11f 643e
00000020: b0ec 71be 2463 c33d 4a92 67bd 6f3b 003f
00000030: c67f e13d ca1e eebd 2ace babd a4c9 1c3e
00000040: 39fd 5a3a 29e8 91be f2b9 43bd 80e1 f4be
00000050: 2f4f 723e b65e 87bd d5bd b4be 32c2 95be
00000060: 317d a6bd 34e8 fdbc 9252 5abe 1a35 98bd
00000070: 5e2e a73e fd8a 07be f665 41be 0e52 87be
00000080: 1f38 f93d ea46 4fbd 2143 f6bd c427 12be
00000090: 237f 283e a752 f03d 3d28 473e 6ca2 a3be
000000a0: 2902 cebd 6152 86be afed 8e3d cc71 973e
000000b0: 248b 8bbe 2cd2 7c3d 155b 5e3d cd0f d53d
000000c0: bcf1 aebe 552e bc3a c3f6 50bd 699b 43bd
000000d0: c315 4dbe a119 9139 25c8 0e3e 6586 b1be
000000e0: 7a0d e0bd 5f7e 5dbe 729d 813e 4c1c c13e
000000f0: 3a9d 11bf 0b05 eabe 125e c93d 5881 323e
00000100: ca45 5dbe 1da2 193e 09b3 fabe f086 acbe
00000110: 7adc 9c3e 688a 983e 467c 0bbf ffc0 973d
00000120: c04b e9bd 5c56 2b3d cdda cdbb 4bdf 4f3e
00000130: bdaf 35be 3148 8fbe fdc1 cfbd 736b 323e
00000140: 9d71 81bd 0d10 a83d 7c92 be3c b1ae a5bc
00000150: c960 a6be a5e5 733d 3a3a 873e 52cb 3a3e
00000160: e56e f63c 2d79 acbd 6306 0c3d 82a9 023c
00000170: 3e9c cabe d7df 70be 7053 fa3d 74c3 24be
00000180: 9e3f 52be e56c ebbd 4581 80be a6ca 64be
00000190: 90aa 563e fc51 a73e 0abe f1bc d174 18be
000001a0: 061f abbe db90 ad3e 9794 843d c974 6f3c
000001b0: 9380 e7bb 47f3 c6bd 3568 803e 8842 e03c
000001c0: 9043 04be 4eca 42be 4e34 cb3e 7c15 c4be
000001d0: f39c 66be 229e b3bc cb82 7b3c 9b18 263d
000001e0: 00aa 36be 665f d83d a322 993d bf6d 11be
000001f0: f008 55be 7b61 82bd 20b4 b5bd 0f3c d63d
00000200: 7e2b 90be 3f8e 86bd d283 223e 7ccc da3e
00000210: a2f5 3cbe 7fd3 a3be d651 0d3c cb3e d43d
00000220: 3e7b 353e 3319 e23d d1c8 11be b3a0 59be
00000230: 06f9 30bd de70 26bd 41e0 2a3e 896c 45be
00000240: 6d63 243d 6b4f ad3d 9250 9dbe 8bb9 dc3d
00000250: 83a8 783e 7c9c df3d 77b1 1d3d 1631 1d3c
00000260: f0fa 193e 06e8 afbc 7f3b 683e 243f a1bd
00000270: 43c6 eebe d192 9abe d2db 99be 3dc2 ffbd
00000280: 5fe7 2dbd 759a 2bbe 9ddd 55be 3408 6b3c
00000290: b38f 83bc b5e3 383e c0d5 8a3d 4b4e 3c3e
000002a0: b850 db3d 6eab c73c 1997 d43d cf92 163e
000002b0: 83a1 b3be 5980 acbe ee2d 123d b7fe c13d
000002c0: 050b e53c 7672 203e d9ab 30be 0367 083f
000002d0: f372 c03e 9e40 873e 9057 dc3d ed9e 9abc
000002e0: 4a6c 8d3e 4f4a 3c3e 652d 363e fe3c adbe
000002f0: 2dc5 da3e 54aa 353e 101f 86be 1fc6 44bd
00000300: ac45 97be e6ba 943c fecb 9ebd b9b6 3a3e
00000310: 1a88 30be f99e 8dbe cc37 233d 9228 a23d
00000320: fde8 12bd 9b59 a53d 90ae e8bd 3852 bcbe
00000330: 5062 0ebc b54c 803e 5c3c 3abe fee5 0c3d
00000340: 43f7 ad3d 6ccb 813c 6f32 0f3f 7f99 093e
00000350: 38fd 4ebe f48d 53bc 8f2f 61be 922d 8c3e
00000360: 3921 d23d 4f2c 28be cb69 bbbd 5f81 9dbe
00000370: 78fb c63e 0e79 d93e eb5c 983d 3f5b ab3d
00000380: b959 633c 8b6b 80be 49df acbd 716a 19be
00000390: ec89 f13e 1d62 06bd af71 24be 3e85 42bd
000003a0: 4a6d ed3d 6d51 73bd 6a25 c93c 5b42 2cbf
000003b0: 7442 13be cb93 0dbf 8545 c0bd 84fd bfbd
000003c0: ddac acbd 2a98 0ebd f4d6 50bd 6178 e23e
000003d0: 1e40 bf3e 50ec 0f3e 07f1 f8bb 423e 36bd
000003e0: 0e96 de3d c1a0 9abc 58e1 1fbd 530d 8d3e
000003f0: 0f12 3f3e f521 da3b ce7d dfbc 163c 6dbe

actor.0.bias f4 [64]
-0.002617313 -0.011028746 0.07250005 0.009372116 0.0133605525 -0.02231881 0.004532241 0.023085414
-0.020636538 0.04660746 -0.031829488 0.015269148 0.014645187 0.025736334 0.04709391 -0.02308454
-0.014344757 -0.00632347 0.009622559 0.01369457 0.0021952547 -0.022375712 -0.06040783 0.0141841145
0.010092565 0.03900355 -0.011756095 0.03659226 0.04448727 0.031187046 -0.042242695 -0.0034770535
0.014465345 0.015213988 0.02122797 -0.019512344 0.025251048 0.05779564 -0.002611536 -0.01735801
-0.04032613 0.030981563 0.005656645 -0.026083011 -0.0011344289 -0.034128107 -0.019469224 -0.011032541
0.03822626 -0.0228803 -0.022914652 -0.036213502 0.027775165 0.03278253 0.00050652644 -0.030821202
-0.04481036 0.0036654219 -0.023471383 -0.042819247 0.034619488 -0.015293528 0.0506383 -0.06675488
00000000: 3a87 2bbb eab1 34bc e87a 943d 818d 193c
00000010: 38e6 5a3c f0d5 b6bc 3183 943b 9f1d bd3c
00000020: f50d a9bc 77e7 3e3d a35f 02bd 732b 7a3c
00000030: 5ef2 6f3c 01d5 d23c 8be5 403d ca1b bdbc
00000040: 4606 6bbc 1c35 cfbb f0a7 1d3c 315f 603c
00000050: 43de 0f3b 454d b7bc 336e 77bd 7d64 683c
00000060: 495b 253c 30c2 1f3d a39c 40bc c4e1 153d
00000070: 4938 363d fa7b ff3c ad06 2dbd 47df 63bb
00000080: 0e00 6d3c 1744 793c 48e6 ad3c 5ad8 9fbc
00000090: 49db ce3c 1fbb 6c3d 4e26 2bbb 6332 8ebc
000000a0: 032d 25bd 0ccd fd3c 615b b93b 0aac d5bc
000000b0: 1eb1 94ba eac9 0bbd ec7d 9fbc d5c1 34bc
000000c0: 2493 1c3d 786f bbbc 82b7 bbbc 9c54 14bd
000000d0: be88 e33c f946 063d 6ac8 043a bf7c fcbc
000000e0: 118b 37bd 9337 703b 0f47 c0bc 3c63 2fbd
000000f0: 2acd 0d3d b591 7abc 1b6a 4f3d c8b6 88bd

actor.2.weight f4 [64, 64]
0.23258325 -0.010907636 0.24495119 -0.37312543 0.124639586 0.11281414 -0.23524179 0.106417455
0.10166672 -0.2766943 0.15550087 0.13956545 0.035983384 0.093611814 -0.062895864 0.17530994
0.17442021 0.30135137 0.0747878 0.3481855 -0.102133475 0.09273838 -0.03668743 0.010124972
0.10218225 0.0065609757 0.13888714 0.1948685 -0.12466129 0.39469215 -0.30757427 -0.48807874
0.14999382 0.16293056 0.111099966 0.282881 0.091530874 0.081575945 0.31232533 0.045618877
0.53048015 -0.11023398 -0.16919813 0.18176197 0.21653408 0.13065894 -0.027097506 0.010281082
0.028657464 0.024500204 -0.040449765 -0.059138745 -0.008299625 0.22970264 0.2160573 -0.10451168
0.10248657 0.25561008 0.022033935 0.16089769 0.21243672 -0.53713596 0.3426352 -0.26671836
-0.08621622 -0.16978928 0.20818485 0.32927835 0.19829573 -0.13879167 0.004397384 -0.42787412
0.017845122 0.101031624 -0.14365712 -0.20520745 0.21064678 -0.060129225 -0.35373545 0.26653054
-0.34366032 -0.13810793 0.38364017 0.06416949 0.08059893 -0.045393724 -0.06558477 0.166743
-0.2601751 0.24655446 0.070669115 0.058818888 -0.0011459255 0.19801258 0.0014203767 0.055238325
-0.23785228 -0.23589179 -0.006666466 0.2459985 -0.37980106 0.21606201 0.07200356 -0.22696377
-0.12804164 -0.09414356 0.42847553 -0.20205563 -0.47099078 -0.021297533 0.2120083 -0.028847715
0.0053185527 -0.3722388 0.07215173 0.2912323 0.10351279 0.0076412857 -0.13943015 -0.034299515
0.21868859 0.27651292 0.030871052 -0.18883021 -0.058104303 0.2806106 0.3116848 0.25090277
-0.13398854 0.035601873 0.07711188 0.28773886 -0.047592375 0.0046826173 -0.22286876 -0.08627848
0.48223546 -0.05084204 0.13336366 -0.33677742 0.39802614 -0.08349747 0.040733647 -0.0057887416
0.0381679 0.16270402 -0.035887685 0.065096 -0.038192585 0.039443303 -0.1430982 0.21102864
0.05092183 0.22064209 -0.22633171 0.024746269 0.055504907 0.17933565 -0.13749938 -0.18523605
0.11595254 -0.22770995 0.2944222 -0.08257848 0.09413971 0.22627206 -0.37397632 -0.022064034
-0.08541018 0.32122344 0.10667374 -0.25073752 0.046148982 -0.0694099 0.08597633 0.013010255
0.18263835 -0.46842209 0.02178503 -0.27007177 0.08318288 -0.33819762 -0.4196836 -0.13272986
0.25517872 -0.30503714 0.21410838 0.055675637 0.3045284 0.1058209 0.17122415 0.17749408
-0.16271037 -0.031597536 -0.32875133 -0.16282293 -0.122219056 0.20739764 -0.28364748 0.2939028
-0.38233033 -0.027937656 -0.07352225 0.30487135 -0.2101253 -0.36862642 -0.033086088 0.37283805
0.35992298 0.17980497 -0.22997306 0.09166745 -0.08335195 0.34731373 -0.054326918 0.14275162
0.017963188 -0.44813025 0.19716515 0.01844566 -0.5265165 -0.01505617 -0.03560533 -0.05645187
-0.12835985 -0.03003207 -0.053223807 -0.024907157 0.029917214 0.043588907 0.017958276 -0.16535106
-0.016512185 -0.08688702 -0.24855895 -0.17504093 0.021594994 0.25187647 0.021978196 0.17627476
-0.11956636 0.2172072 0.20213425 -0.08777332 -0.098446295 0.06801111 -0.11846424 0.05886156
-0.11639927 -0.06718925 -0.33885255 0.1353884 -0.21789537 0.27251223 -0.0046710307 0.25076222
00000000: 4e2a 6e3e f1b5 32bc 7cd4 7a3e 4c0a bfbe
00000010: 0a43 ff3d 1a0b e73d 39e3 70be 65f1 d93d
00000020: a436 d03d e0aa 8dbe 9f3b 1f3e 3fea 0e3e
00000030: 5063 133d 8db7 bf3d 8ccf 80bd 7384 333e
00000040: 369b 323e ba4a 9a3e 592a 993d 5f45 b23e
00000050: 5b2b d1bd 9fed bd3d 8f45 16bd 36e3 253c
00000060: ed44 d13d 74fd d63b 6e38 0e3e 9c8b 473e
00000070: 6b4e ffbd 1715 ca3e 607a 9dbe 75e5 f9be
00000080: fb97 193e 45d7 263e 6188 e33d c7d5 903e
00000090: 8a74 bb3d 4a11 a73d 1be9 9f3e dcda 3a3d
000000a0: 8ccd 073f 5ac2 e1bd 4642 2dbe cf1f 3a3e
000000b0: 1cbb 5d3e 75cb 053e 97fb ddbc fc71 283c
000000c0: 0fc3 ea3c a7b4 c83c a7ae 25bd 783b 72bd
000000d0: 26fb 07bc 2b37 6b3e 203e 5d3e 380a d6bd
000000e0: 7be4 d13d 53df 823e 8380 b43c 5dc2 243e
000000f0: 0389 593e be81 09bf e26d af3e 4f8f 88be
00000100: 2192 b0bd 3edd 2dbe 692e 553e 2c97 a83e
00000110: 090e 4b3e 671f 0ebe ee17 903b 5112 dbbe
00000120: ef2f 923c abe9 ce3d da1a 13be e721 52be
00000130: cab3 573e 104a 76bd d01c b5be b176 883e
00000140: 3ff4 afbe 2a6c 0dbe 7c6c c43e 4b6b 833d
00000150: 0d11 a53d c5ee 39bd 4f51 86bd adbe 2a3e
00000160: ac35 85be c678 7c3e f8ba 903d 13ec 703d
00000170: e132 96ba cfc3 4a3e ef2b ba3a 9541 623d
00000180: 8c8f 73be 9e8d 71be 5f72 dabb 08e7 7b3e
00000190: 4975 c2be 5c3f 5d3e 9a76 933d 3169 68be
000001a0: 591d 03be 57ce c0bd 2561 db3e ace7 4ebe
000001b0: b425 f1be 2a78 aebc b418 593e 0b52 ecbc
000001c0: 4147 ae3b 1696 bebe 49c4 933d 661c 953e
000001d0: 83fe d33d c063 fa3b c7c6 0ebe a67d 0cbd
000001e0: e7ef 5f3e 1a93 8d3e 4ae5 fc3c b55c 41be
000001f0: c7fe 6dbd 31ac 8f3e 2695 9f3e 5476 803e
00000200: 4b34 09be 45d3 113d d5ec 9d3d 8252 933e
00000210: 39f0 42bd a470 993b b537 64be c6b2 b0bd
00000220: 91e7 f63e be3f 50bd 7c90 083e 176e acbe
00000230: 15ca cb3e b900 abbd 53d8 263d 7caf bdbb
00000240: f255 1c3d e29b 263e f7fe 12bd 0d51 853d
00000250: d46f 1cbd 4d8f 213d 5688 12be e417 583e
00000260: 6993 503d 00f0 613e 80c3 67be b0b8 ca3c
00000270: 1d59 633d c4a3 373e a3cc 0cbe 85ae 3dbe
00000280: 8678 ed3d cc2c 69be 82be 963e e81e a9bd
00000290: 52cc c03d ddb3 673e d379 bfbe a2bf b4bc
000002a0: 88eb aebd 6677 a43e c377 da3d ab60 80be
000002b0: b706 3d3d c726 8ebd 5c14 b03d f728 553c
000002c0: 8c05 3b3e 05d5 efbe 8576 b23c d946 8abe
000002d0: c95b aa3d 3d28 adbe c5e0 d6be 56ea 07be
000002e0: c9a6 823e d42d 9cbe 3a3f 5b3e 230c 643d
000002f0: 25eb 9b3e a1b8 d83d 6255 2f3e 02c1 353e
00000300: 8c9d 26be 6b6c 01bd 1852 a8be 0ebb 26be
00000310: fc4d fabd 0c60 543e 3e3a 91be 6e7a 963e
00000320: cdc0 c3be 83dd e4bc d592 96bd 1918 9c3e
00000330: 162b 57be 9abc bcbe 4785 07bd a1e4 be3e
00000340: d347 b83e cb1e 383e 0f7e 6bbe 25bc bb3d
00000350: 6db4 aabd 1bd3 b13e e785 5ebd 7b2d 123e
00000360: 8927 933c 5471 e5be a9e5 493e 5a1b 973c
00000370: c9c9 06bf 27ae 76bc e5d6 11bd 133a 67bd
00000380: c470 03be d105 f6bc 3501 5abd 180a ccbc
00000390: f214 f53c 488a 323d 3c1d 933c ca51 29be
000003a0: 9044 87bc d2f1 b1bd 3d86 7ebe ee3d 33be
000003b0: fce7 b03c f4f5 803e 9e0b b43c 5f81 343e
000003c0: 35df f4bd 906b 5e3e 48fc 4e3e 80c2 b3bd
000003d0: 369e c9bd 6949 8b3d 619d f2bd d218 713d
000003e0: be62 eebd 849a 89bd 157e adbe 42a3 0a3e
000003f0: f71f 5fbe b986 8b3e 720f 99bb e863 803e

actor.2.bias f4 [64]
0.008126648 0.025174446 0.03719859 -0.057980746 0.0361692 0.042995606 -0.020463232 -0.03330703
-0.01786887 0.023697708 -0.015249433 0.0057524745 -0.018519547 0.020299654 0.036988866 -0.029067218
0.032795068 0.019886399 0.031009171 -0.015483886 -0.0041443254 -0.0369718 0.030621236 -0.0052912096
0.019819563 -0.016350359 -0.03729253 -0.02225656 0.035439726 0.015919788 0.030992907 0.0102968905
0.03241019 0.041502263 0.00420714 0.052138977 -0.044014025 -0.029377984 -0.024888147 -0.012831622
-0.014904325 0.03252724 -0.025967741 0.002771147 0.018271271 0.019713052 -0.0014623976 -0.036916588
-0.046534896 -0.02955743 0.04780603 -0.023714876 0.030140137 0.009621512 0.026348915 -0.037298568
0.011328959 -0.0020166375 -0.04176703 -0.04326654 -0.033377018 0.01256004 -0.029715965 -0.050619356
00000000: a225 053c a43a ce3c 8c5d 183d 387d 6dbd
00000010: 2826 143d 291c 303d 82a2 a7bc f46c 08bd
00000020: bd61 92bc b221 c23c c2d8 79bc 417f bc3b
00000030: 4eb6 97bc 764b a63c a381 173d 601e eebc
00000040: 1f54 063d cde8 a23c f206 fe3c 20b0 7dbc
00000050: 1fcd 87bb be6f 17bd 63d9 fa3c e261 adbb
00000060: a35c a23c 30f1 85bc 0dc0 18bd 6453 b6bc
00000070: 3f29 113d 376a 823c d6e4 fd3c 4ab4 283c
00000080: 8cc0 043d 47fe 293d 0cdc 893b ae8f 553d
00000090: 0d48 34bd 19aa f0bc 3ae2 cbbc b93b 52bc
000000a0: 4531 74bc 493b 053d 4dba d4bc 229c 353b
000000b0: a2ad 953c 447d a13c ecad bfba d935 17bd
000000c0: 609b 3ebd 6c22 f2bc 41d0 433d b345 c2bc
000000d0: 73e8 f63c 8ca3 1d3c aed9 d73c 62c6 18bd
000000e0: 199d 393c 9029 04bb e813 2bbd 4138 31bd
000000f0: 57b6 08bd a0c8 4d3c e56e f3bc 3e56 4fbd

actor.4.weight f4 [4, 64]
-0.10095401 -0.03438707 -0.107143976 0.10438461 -0.14332068 -0.122695684 0.099495694 0.12692578
0.0728706 -0.12364955 -0.0025009864 0.042558596 0.10226007 -0.10307868 -0.13559702 0.09077442
-0.029643703 -0.12808679 0.038132403 0.0126382625 0.036539193 0.12215333 -0.12304714 -0.0064676474
-0.090448566 0.090739205 0.115928896 0.10410444 -0.1227656 -0.11270543 -0.09798928 -0.054226264
-0.13001825 -0.09608907 -0.088130064 -0.1242787 0.107638694 0.10074917 0.039051205 -0.024650693
0.022093438 -0.024804525 0.1177386 -0.09364137 -0.04586947 -0.1223538 0.05318514 0.13281398
0.11013022 0.056179155 -0.11824034 0.11537801 -0.11459914 0.041411422 -0.09858662 0.11381312
0.103194326 -0.114748016 0.112486124 0.08757051 0.13728188 -0.032941204 -0.011507493 0.123243995
0.12518609 -0.19638734 -0.12669678 0.13921726 -0.095315315 -0.037160907 -0.11290183 -0.052589327
-0.11597812 0.031023214 -0.14581718 -0.14023332 0.17581342 -0.18726856 -0.12465436 0.130663
0.12700833 -0.07818296 0.15210646 -0.14748727 -0.166885 -0.07706903 -0.028872192 -0.17601182
-0.056515645 0.19573788 -0.09137965 0.1615285 0.07876781 0.059185818 0.0785535 0.13407934
-0.096798226 -0.1629595 0.09901332 0.09601371 -0.09288155 0.14141212 0.15650412 -0.12630305
0.13268805 0.12605873 0.11088976 -0.18666361 -0.16228132 -0.16003194 0.15188515 0.16757382
-0.030185347 0.17010245 -0.026131721 -0.11950187 -0.06097569 0.15244685 0.10616864 0.1168079
-0.061785247 0.059872545 0.17256384 0.005837476 0.042243686 -0.13540438 -0.15921076 0.025403438
0.14857788 0.074942976 0.14047958 -0.16496393 0.1699342 0.10899365 -0.14457805 -0.1723837
-0.13496159 0.14318818 -0.013044867 -0.009733742 -0.14199941 0.13929369 0.15582168 -0.15590735
0.08003332 0.1482704 -0.02830082 -0.042176697 -0.07507222 -0.16448773 0.11707217 -0.0001643295
0.019532317 -0.13553683 -0.18278179 -0.15988629 0.16616793 0.14800675 0.15460949 0.10411746
0.14358066 0.16281883 0.10291583 0.18212445 -0.11348299 -0.14813721 -0.08044346 0.025377419
-0.06448459 0.08187287 -0.11618148 0.12201868 0.09871186 0.16727403 -0.095860384 -0.16801186
-0.18562002 -0.123218514 0.1835975 -0.16376114 0.09106941 -0.04789163 0.14377376 -0.15726984
-0.12903588 0.14496641 -0.18124904 -0.13076046 -0.18159197 0.069799915 -0.025743691 -0.09914069
-0.15217707 0.19553228 0.08699476 -0.08449372 -0.08875187 -0.027794717 0.1506336 0.15737107
0.15869102 -0.12021078 0.1515923 0.13058844 -0.1517023 0.15749773 0.037225947 -0.06653974
-0.14514081 -0.06013435 -0.15965341 0.1586603 0.18040073 0.15256195 -0.05371975 0.18596715
0.11024111 -0.18155247 0.1695954 -0.12684973 -0.16111866 -0.15734965 -0.12090324 -0.14817666
-0.032035887 0.12941667 -0.12137382 -0.1725084 0.116902456 -0.07479539 -0.1381207 0.1293814
-0.12094474 -0.14111048 -0.041248467 0.16336116 0.14883308 0.041048735 -0.14220114 -0.10915878
0.18054257 -0.1375059 -0.13889416 0.16118702 0.053260952 -0.15201826 -0.14338085 -0.038942516
0.12361099 -0.13215981 -0.100505225 0.08213894 0.16035566 0.12712947 0.17115626 0.014734197
00000000: fac0 cebd 75d9 0cbd 4d6e dbbd 99c7 d53d
00000010: a8c2 12be e047 fbbd 66c4 cb3d d5f8 013e
00000020: 2e3d 953d fa3b fdbd 97e7 23bb ec51 2e3d
00000030: ba6d d13d ea1a d3bd f2d9 0abe f0e7 b93d
00000040: 5ad7 f2bc 2f29 03be b930 1c3d b710 4f3c
00000050: 1faa 153d 862b fa3d 2400 fcbd 8fee d3bb
00000060: 193d b9bd 7ad5 b93d 216c ed3d b534 d53d
00000070: 886c fbbd 1bd2 e6bd 9bae c8bd 5c1c 5ebd
00000080: 8123 05be 59ca c4bd 897d b4bd d585 febd
00000090: ad71 dc3d 9555 ce3d 28f4 1f3d 40f0 c9bc
000000a0: 4cfd b43c dc32 cbbc ef20 f13d 0cc7 bfbd
000000b0: a0e1 3bbd a194 fabd a9d8 593d 6300 083e
000000c0: f48b e13d 1d1c 663d fe27 f2bd 4e4b ec3d
000000d0: f4b2 eabd 069f 293d c8e7 c9bd da16 e93d
000000e0: 8c57 d33d 0201 ebbd 205f e63d 2b58 b33d
000000f0: 9f93 0c3e 5bed 06bd ed89 3cbc 5967 fc3d
00000100: c830 003e c319 49be cdbc 01be f88e 0e3e
00000110: ad34 c3bd 0936 18bd 1339 e7bd e867 57bd
00000120: f085 edbd 6524 fe3c 1951 15be 5399 0fbe
00000130: 6f08 343e 54c3 3fbe c94a ffbd 85cc 053e
00000140: 790e 023e 631e a0bd ccc1 1b3e e706 17be
00000150: e7e3 2abe 5ed6 9dbd 6085 ecbc 713c 34be
00000160: f37c 67bd 836f 483e 4125 bbbd ba67 253e
00000170: 0451 a13d d46c 723d a8e0 a03d 184c 093e
00000180: 263e c6bd dbde 26be 7fc7 ca3d d6a2 c43d
00000190: af38 bebd 57ce 103e 9e42 203e 9655 01be
000001a0: 60df 073e 8a15 013e 2c1a e33d bf24 3fbe
000001b0: 132d 26be 6adf 23be c887 1b3e 7998 2b3e
000001c0: 4347 f7bc 562f 2e3e 3112 d6bc 65bd f4bd
000001d0: a5c1 79bd 071b 1c3e f26e d93d fb38 ef3d
000001e0: 8712 7dbd ea3c 753d 93b4 303e 4c48 bf3b
000001f0: b707 2d3d 72a7 0abe 2508 23be df1a d03c
00000200: cd24 183e b47b 993d e1d9 0f3e 4eec 28be
00000210: 3b03 2e3e 1038 df3d 450c 14be 5a85 30be
00000220: 5f33 0abe ec9f 123e 23ba 55bc 467a 1fbc
00000230: 4b68 11be 01a3 0e3e b88f 1f3e 2da6 1fbe
00000240: 82e8 a33d 32d4 173e 1fd7 e7bc 79c1 2cbd
00000250: 77bf 99bd 796f 28be 89c3 ef3d dd4f 2cb9
00000260: 3d02 a03c 2bca 0abe 262b 3bbe 3bb9 23be
00000270: ed27 2a3e 158f 173e f351 1e3e 893b d53d
00000280: cf06 133e fbb9 263e 89c5 d23d d57e 3a3e
00000290: c569 e8bd 48b1 17be 8abf a4bd 4ee4 cf3c
000002a0: 7f10 84bd f7ac a73d 8ef0 edbd eee4 f93d
000002b0: 7229 ca3d e249 2b3e 7352 c4bd 4d0b 2cbe
000002c0: 2d13 3ebe fd59 fcbd fc00 3c3e 00b1 27be
000002d0: 9982 ba3d 042a 44bd 6e39 133e 580b 21be
000002e0: fb21 04be 1372 143e 5999 39be 12e6 05be
000002f0: 3ff3 39be 42f3 8e3d 6fe4 d2bc 460a cbbd
00000300: 4ed4 1bbe 9d39 483e 4f2a b23d 0b0b adbd
00000310: 8ac3 b5bd bfb1 e3bc b23f 1a3e e225 213e
00000320: e67f 223e 1231 f6bd 033b 1b3e fab8 053e
00000330: d957 1bbe 1647 213e 3c7a 183d fd45 88bd
00000340: cb9f 14be 704f 76bd 2f7c 23be d877 223e
00000350: f8ba 383e 3339 1c3e 3e09 5cbd 2c6e 3e3e
00000360: 17c6 e13d e4e8 39be 6baa 2d3e e5e4 01be
00000370: 4afc 24be 4420 21be 1e9c f7bd 9fbb 17be
00000380: 1038 03bd ce85 043e d692 f8bd 0ba6 30be
00000390: 8e6a ef3d 532e 99bd 836f 0dbe 8f7c 043e
000003a0: e0b1 f7bd 447f 10be 27f4 28bd 2648 273e
000003b0: b367 183e b822 283d 2d9d 11be a38e dfbd
000003c0: 27e0 383e 59ce 0cbe 453a 0ebe 360e 253e
000003d0: 2828 5a3d adaa 1bbe 6ed2 12be 3082 1fbd
000003e0: c227 fd3d e754 07be afd5 cdbd 7638 a83d
000003f0: 4634 243e 3a2e 023e 9643 2f3e b467 713c

actor.4.bias f4 [4]
-0.08153294 -0.0019623928 0.05131065 -0.004533443
00000000: befa a6bd 7d9b 00bb 1e2b 523d 478d 94bb
