HFDRL_UNIT8/models/Archived/LunarLander-v3__ppo__1__1768735599__u220.ckpt (torch, 134281 bytes, 33 tensors)

critic.0.weight f4 [64, 8]
00000000: 7ff9 fcbd 3367 e33d 3bdd 983d 3a53 8ebd
00000010: 5545 42bd 4558 1c3e 7f91 91be 1d9b 0c3e
00000020: ce00 3bbe e9b6 8f3e 174f 643e e7e6 5ebe
00000030: badf 4abe 028f 69be b2bc 2a3e defd 5ebd
00000040: c0a1 06bd dc1d 95be 3be9 ad3d fccd 993e
00000050: 3124 d53b a1f0 9f3d 15c8 e63d c930 d53e
00000060: 9778 3cbe 6acb 373e 0533 563c 4363 14bf
00000070: 9130 8c3e 3a82 9c3c f518 46be be19 c3bd
00000080: 0f00 7bbc a8a4 23be 2195 1f3e 2400 613e
00000090: 29d6 f53a f839 13be 84f8 873e c766 e0bd
000000a0: 1e68 81bc 4983 a2be f8e8 793c 96ef 513d
000000b0: 257b 0fbc cb8b 6b3e 1245 50be f816 5bbe
000000c0: 6876 99be fe8e 69be 3827 88bc b8c0 923d
000000d0: 5a17 0fbd e982 76be 569f dd3e dcd7 3b3e
000000e0: 738c 42bd 0147 0a3f 4fa2 143e bb34 293e
000000f0: f200 55bd 11d6 263e 184d 8b3e 9a04 c33e
00000100: fc43 283e ffaf c3bc 1fd1 b13e 124c 8dbe
00000110: 2852 cd3e 9d67 45bd ae57 2cbd bf74 2ebd
00000120: 0a6d 7f3c a432 743e fd7f a33e dcae 90be
00000130: c136 533e 8daf 983d 85ee 793e 0141 063f
00000140: 1427 afbd f22d dabe 4e9b d63d 6e1e dd3e
00000150: d55f 3fbc de7a 843e d2ad f0bd 13c0 97be
00000160: ce95 5bbd 36da d53e 5b4a e6bc b32f 81bd
00000170: d945 81bd 535e 663e 947a 7abe b2eb 8c3c
00000180: 090b 353b 6822 953e 52e5 9a3d 573d 89bd
00000190: 1776 aebd 4e0d 7e3c 8bee e5bd ffde fc3d
000001a0: bf4b 3fbd d3f6 6dbe 01fe 283e db68 e23e
000001b0: 4059 0dbd 1500 413c d594 85be 1a40 003e
000001c0: 0f3f 91bd 1c11 79bd 8d36 163e bc49 1a3e
000001d0: c59c ad3d 8e41 8a3c f305 cabd c812 93bd
000001e0: 2ddd 5ebd 5696 513e fc66 6dbe 7d7a 9fbe
000001f0: 578e 63bd f4e2 413e 0463 ab3d f6f3 56bd
00000200: 54a3 fb3d eda2 183e d8b8 3d3c 39f5 ecbe
00000210: 7332 0fbe 77db 79bd 9bcc eebd 4dac 583e
00000220: 0cd0 babd c2f7 e33d a6d0 bc3e c25a 3c3e
00000230: 6667 aa3e 8e94 65be 6e35 8d3d 58a5 833e
00000240: ec1c 8cbe 5f94 38be 9931 8e3e 13bb 083e
00000250: 118b 37be ace2 dc3d 0cb1 38bc 20b7 a2bd
00000260: e756 30bd 9f90 a73e fb1f 99bc 4988 6abe
00000270: 8281 4a3d 3b41 523e 0c52 9cbe bfd6 35be
00000280: 503d 5b3e 3646 053d e000 773e 6db0 62bd
00000290: 9fe2 d43d f2a2 8ebd 4650 1dbc b2e1 4b3c
000002a0: 822d f23d e25f e73d c982 27be 4ee3 abbe
000002b0: 058e a0bd 6ef1 cb3d 3a5a 3ebe ef8a 9ebd
000002c0: 7248 273e 0de9 a13b a34f f93d 37d3 433e
000002d0: 2aa3 40be 087a 2dbe 57cd ffbd 4f59 5ebe
000002e0: 55ca 5c3e 0ece 073e 548c 82bd 253c 34bc
000002f0: 5b00 343e c99f d9bd dcc7 5d3c 4def 91be
00000300: 196f 39bd 9b83 143e 6585 093e 811d 44be
00000310: 90dd 8d3d daed 29be 7272 17bf a59e 27be
00000320: e828 9dbd 87e0 b23e d204 6a3d 1983 70bd
00000330: ddda 5d3d aa10 35be 6084 973d a905 8abd
00000340: 1ea4 b0bd ef1e 95bc 730f 9a3d 6157 813d
00000350: 9a4e 813e 6720 17be a847 de3d 83ed 253e
00000360: 08e8 81bd 42e0 2abe 48bf 70bd f416 f43d
00000370: 17d4 89be 1f06 403e 7d56 003e 33d5 a03e
00000380: 54c9 813e 31e5 883d 5fce 84be ed58 d3bd
00000390: b320 08be c82e 503b 56f4 c3be 968c efbd
000003a0: c0a7 123e 03ce dd3e 14bb 1abe 6d64 773e
000003b0: d805 48be 9563 993d 2b8c 193c f44b d9be
000003c0: 028e 75be ce25 12be 3d8c 4abe bb03 8d3d
000003d0: d9e9 503e 0ac9 04be 1f6e f53d 6559 b53e
000003e0: be3c 13be 5070 f43e 13f2 0c3e 3c23 1fbe
000003f0: d372 333e 66cd 373e ba7e e6bd 9638 5abe
-0.12352275 0.11103668 0.07464071 -0.06949468 -0.0474294 0.15268047 -0.28431317 0.13731046
-0.18262026 0.28069237 0.22295795 -0.2176777 -0.19811907 -0.2280846 0.16673544 -0.054441325
-0.0328691 -0.29124343 0.08491751 0.30039966 0.0065045585 0.07809568 0.11268631 0.41638783
-0.18405376 0.1794869 0.013073687 -0.5796396 0.27380803 0.019105066 -0.19345458 -0.09526394
-0.015319838 -0.1598078 0.15584232 0.2197271 0.0018755841 -0.14377582 0.2655679 -0.10957103
-0.015796717 -0.31740788 0.015253298 0.051253878 -0.008757387 0.23002546 -0.20338848 -0.2139548
-0.2997315 -0.22808453 -0.016620263 0.071656644 -0.03493438 -0.24073376 0.43285626 0.18344063
-0.047497224 0.54014593 0.14515041 0.16524021 -0.052002855 0.16292597 0.27207255 0.38089448
0.16432184 -0.023887632 0.3472986 -0.275971 0.40101743 -0.048194516 -0.042075805 -0.042591807
0.015589962 0.23847443 0.31933585 -0.28258407 0.20626356 0.07455359 0.24407394 0.5244294
-0.085523754 -0.42613178 0.10478841 0.43187279 -0.011680563 0.2587499 -0.117519036 -0.29638728
-0.05360966 0.41768044 -0.028111627 -0.06307926 -0.063121505 0.2249692 -0.24460822 0.017202232
0.0027624986 0.29127812 0.07563271 -0.06701153 -0.085186176 0.015506102 -0.11227139 0.12347221
-0.046703096 -0.23238687 0.16503145 0.44220623 -0.034508944 0.011779805 -0.26090112 0.12524453
-0.070921056 -0.060807332 0.14669247 0.1506719 0.08477167 0.016876962 -0.09864416 -0.071813166
-0.05441015 0.20467505 -0.23183817 -0.3114814 -0.055555668 0.18934232 0.08368495 -0.052478753
0.12287012 0.14905901 0.011579715 -0.4628084 -0.13984089 -0.061000314 -0.11660119 0.21159478
-0.09121713 0.111312404 0.36877936 0.18393996 0.33282012 -0.2241995 0.068949565 0.25712085
-0.27365816 -0.18025349 0.27772215 0.13352613 -0.17924143 0.10785422 -0.01127268 -0.079450846
-0.043051627 0.32727525 -0.018692007 -0.22903551 0.049439915 0.20532696 -0.30531347 -0.177577
0.21410108 0.03253766 0.24121428 -0.055344034 0.10394787 -0.06964673 -0.009601658 0.012443947
0.11825086 0.11297585 -0.16358484 -0.33571857 -0.07839588 0.099581584 -0.18589106 -0.07741343
0.1633623 0.004941112 0.121733926 0.19123541 -0.18812242 -0.16941082 -0.12490337 -0.21713756
0.21561559 0.13262197 -0.06374422 -0.011000668 0.1757826 -0.1062618 0.01353642 -0.28502885
-0.045271967 0.14503329 0.13429792 -0.1915188 0.06927025 -0.1659464 -0.59159005 -0.16369112
-0.07673818 0.34936926 0.057133503 -0.058718774 0.054163802 -0.17682138 0.073982954 -0.06739361
-0.08625053 -0.018203227 0.07522478 0.06315494 0.2525528 -0.14758454 0.10853511 0.16203885
-0.063430846 -0.1668711 -0.05877617 0.119184405 -0.26919624 0.18752335 0.12532993 0.31412658
0.25348914 0.0668434 -0.259387 -0.103196956 -0.13293724 0.0031766165 -0.3827235 -0.116967365
0.14321804 0.43321237 -0.15110427 0.24159403 -0.19533479 0.07489697 0.009371798 -0.4244076
-0.23979953 -0.14272234 -0.19780059 0.06885477 0.20401706 -0.12967315 0.119838946 0.35419765
-0.1437864 0.47741938 0.13764219 -0.15540785 0.1752427 0.17949447 -0.1125464 -0.21310648

critic.0.bias f4 [64]
00000000: 4d35 51be e039 a83d 4a02 ca3d 5c4b 2abe
00000010: a38e 313e 621a bd3d 97fa a53d 2db5 603e
00000020: 0d49 5bbe 8368 1e3e e735 943d bba9 34be
00000030: f906 1e3e 83d4 4a3e cb25 133d 1cbf 62be
00000040: c189 043e 800d 073e a4c4 22be 0687 30be
00000050: 3972 5bbe ae2f c6bc fe65 04be bbb5 51be
00000060: 8dfa ebbd e71f 1bbe 2505 3f3e 0622 493e
00000070: 611c 36be bd46 43be 0191 5a3e db88 1abe
00000080: 2086 40be 3e7e 4bbe 3285 5c3e 1065 433e
00000090: 72df 21be 4167 31be ec92 28be d460 383e
000000a0: a58d d63d c5a8 303e e240 0ebe 188a 073d
000000b0: 4234 0ebe d208 02be 8851 10be 2df5 3dbe
000000c0: 8205 54be 075e 33be 1260 22be 5d79 2f3e
000000d0: 5976 39be c91b 903b 8e40 e8bd 684c ecbd
000000e0: bd83 57be a77d 01be 346b 21be 3647 03be
000000f0: e385 14be 49b9 3d3d cb02 39be d3f8 43be
-0.20430489 0.08214164 0.09863718 -0.1663031 0.17339568 0.09233548 0.08104437 0.21944113
-0.21414585 0.15469556 0.072368436 -0.17642872 0.15432347 0.1980763 0.035924714 -0.22143215
0.12943174 0.13188744 -0.15895325 -0.17239007 -0.21430291 -0.024192657 -0.12929532 -0.20479481
-0.11522398 -0.15148889 0.18654306 0.19641885 -0.17784263 -0.19069953 0.21344377 -0.15091269
-0.18801165 -0.19872376 0.21535185 0.19081521 -0.15807894 -0.17324544 -0.16462296 0.18005687
0.10476235 0.1725188 -0.13891938 0.03309068 -0.13887122 -0.12698677 -0.14093602 -0.18550558
-0.20705226 -0.17516337 -0.1585696 0.1713614 -0.18111552 0.0043978435 -0.11340438 -0.11538011
-0.21046348 -0.12645589 -0.15763551 -0.12820134 -0.14504199 0.04631928 -0.18067472 -0.19137888

critic.2.weight f4 [64, 64]
00000000: 8d05 963e 7262 03bf 0991 68be 4192 953e
00000010: be98 5dbe 02c0 36be dd57 7c3d fe1f bfbe
00000020: 64c9 643d d2e9 a43e 0d4b 59be abc2 bf3b
00000030: fd32 a0bd 7258 89be 03e1 72be ec85 8d3e
00000040: 7134 963d f6a8 50be a3d0 f73c b170 673e
00000050: 6c34 4539 7597 283e 754c 1f3e 5ef3 543e
00000060: 71be c83e f917 593e 21cb 023e e8f4 bebd
00000070: 82c1 cb3d 3744 5d3e 75ba bcbd 4596 1c3e
00000080: d679 013d b817 743e 42b3 283e 7796 c3bd
00000090: bb55 a9be f85d 81be 7376 c2bd 1cea 13bf
000000a0: 09c0 5a3e 4812 52be c14e 173c 4582 04be
000000b0: 2c24 85be 1b2b 513e ea43 273e 6e8f ac3e
000000c0: 2e46 da3d c56a 9b3e 604e afbd e9b9 ccbd
000000d0: 4a39 283e eb78 e9bd 5863 3abd c984 e53d
000000e0: ef61 463e 2d14 aeba e19b 463d 470a d03d
000000f0: 03e0 693e f586 653e e93e 73be 49d3 be3d
00000100: f384 b63e 02fc 6f3d a2ff cb3c abd1 9b3d
00000110: 0943 42be 0e59 03be 4c84 e63d 5c34 aabe
00000120: aa18 423d 5ee8 bbbe 1703 7a3d aed9 c8bd
00000130: 6adb a23e 9d5c 7a3e 132f 99bd 98da 903e
00000140: 7458 ebbd 6440 bebe b78d f53e 7c3f e9bd
00000150: f8a1 223e eb24 033d fdd5 203d b468 2d3e
00000160: 08ae 40bc 7899 b83d 8a0f 4fbe 171e f9bd
00000170: cad9 a53e 7128 923e b9ba 27be a068 123e
00000180: d5f2 603e 972e 3a3e 0776 35be 8616 83be
00000190: 04fd ce3d ca7b 62bc e110 37bd 4342 283e
000001a0: 4cde 74bc 276c 19be 635f 903e 44d6 60bb
000001b0: 440e 5c3e d285 e93d 50a6 903e 25be a03d
000001c0: 0e2c e33e 53a0 9ebd fd64 d23d 987f 3dbe
000001d0: b74c 203e 0ae5 18bd 2800 b1bc 88c9 cebc
000001e0: cea4 e03e 6dc2 cabd a032 8a3e df6f 683e
000001f0: 1533 5b3e ac9e 653d 0ce4 38be 9bef 913d
00000200: c5c3 81be e341 cb3d bac6 903e 5792 04bd
00000210: d7c1 fb3e a856 103d 5e5b 193e 079d 6e3e
00000220: 90f3 afbe cea6 a63e 27fd 04be 64de a8be
00000230: 6295 a9bd 2959 bc3e d0b5 113e e080 bcbe
00000240: ebc1 ccbe de61 ae3c 8ab4 8f3d 01ec 4ebe
00000250: 2e0c 5dbe bbab 19be 4f0f d0bd b9bf dcbd
00000260: 8cc9 7bbe 61f7 49bd 7424 ff3e 9c6a 9f3e
00000270: 78b3 d6bc e4e9 04bf 6f23 dfbd cf46 d2be
00000280: 8269 483e 3144 ca3c bd0a 26bd f13c fc3d
00000290: 068d 89bd 8842 d9bd 797a 9d3c 3caa 603e
000002a0: ef39 b43d a011 a8be ac75 963e 8bfc e33d
000002b0: 2f20 343d 766a 86be 0e97 a63e 696e fc3c
000002c0: 7e5a 0abc c921 06be 5566 803d 85b8 8c3c
000002d0: e2ae 6bbe 7251 293e 21d1 d83d 8a54 21bd
000002e0: 0ee8 a6be 0c9c 46bd 1ac9 c03d ba7a 97be
000002f0: f0c1 d03c 490b 883d bf45 76bd 1a07 e8bc
00000300: 4846 c43e 4293 553e 1d07 7fbe 6af9 9d3e
00000310: 9e74 6bbe 03b4 70be 6711 31bf f148 19be
00000320: 7b93 393e c417 6f3d 7d26 793d 1aab fd3d
00000330: 558c 8cbd bd7d df3d fcc8 53bd f601 a73e
00000340: c39f 57bd 27f7 703c 65b5 b5bd f82b 783e
00000350: b2bd 43bd 5404 2b3e 528e cc3e 6daf a33e
00000360: 8874 a6bd db82 ab3d b800 b3be fdb6 98be
00000370: 8815 1a3c 201c 9bbe ae21 bc3d 57eb 713e
00000380: 1948 013e ced3 663e 7d53 a2bd 69e5 3abe
00000390: 1cc3 f7bd 4a63 89be bb6b 1a3e f8d1 35be
000003a0: 0d82 eb3d 7adb 29bd 42a8 f23d 6385 5e3d
000003b0: efbf 13be 4949 e83e 2fab 7bbc 4fb9 f93d
000003c0: a6ea 9f3e 74a1 273e b9ee 63be 0332 efbd
000003d0: 1b1d 693e 75ff f2bd 9b69 a3bd 19a6 9fbe
000003e0: 2695 433e db3d d5bd 8df1 0c3e fda0 803e
000003f0: b3e2 3bbe 53d9 95be 3c85 24be 5f05 323c
0.2930111 -0.5132209 -0.22711577 0.29213145 -0.21640298 -0.17846683 0.06160723 -0.37329096
0.055856124 0.3220964 -0.21220036 0.0058520637 -0.07822225 -0.2682529 -0.23718648 0.27641237
0.07334221 -0.20376953 0.030250853 0.22601582 0.00018806913 0.16464026 0.1555651 0.20795962
0.39207795 0.21200551 0.127728 -0.09324056 0.09949018 0.21608053 -0.09215251 0.15291698
0.031610332 0.23837173 0.16474631 -0.09550183 -0.3307322 -0.25267005 -0.09495249 -0.577791
0.21362318 -0.20514786 0.009235085 -0.12940319 -0.2600416 0.204266 0.16334501 0.33703178
0.10657917 0.30354896 -0.08559871 -0.09996397 0.16428104 -0.114000164 -0.045504898 0.112069674
0.19373296 -0.0013281159 0.0484885 0.1015821 0.2283936 0.22414763 -0.23754467 0.09317643
0.35648307 0.058589943 0.024902169 0.0760835 -0.18970884 -0.1282694 0.112557024 -0.33243072
0.047386803 -0.3670072 0.061038103 -0.09807144 0.31808025 0.24449392 -0.07479682 0.28291774
-0.114914805 -0.371585 0.47959682 -0.11389062 0.15882099 0.03201763 0.039266575 0.16934472
-0.011760242 0.09013647 -0.20220771 -0.12163942 0.32392722 0.2854648 -0.16379823 0.14297724
0.21967633 0.18181835 -0.17720805 -0.25603122 0.10106853 -0.013823459 -0.04469383 0.16431527
-0.014945578 -0.14982663 0.28197774 -0.00343074 0.21489817 0.11402477 0.28251886 0.07848767
0.4436955 -0.07745423 0.10273168 -0.18505704 0.15654264 -0.037327804 -0.02160652 -0.025242582
0.43875736 -0.09900365 0.2699175 0.22698925 0.21406205 0.056059524 -0.18055743 0.07125779
-0.25344673 0.09924676 0.28276616 -0.032366123 0.49171326 0.03523889 0.1497626 0.23302089
-0.3436551 0.32549137 -0.12987195 -0.3298217 -0.08280446 0.36786774 0.14229512 -0.36817074
-0.39991698 0.021286901 0.07016857 -0.20207216 -0.21586677 -0.15006916 -0.1015917 -0.10778756
-0.24588603 -0.049308185 0.498325 0.31136024 -0.026208624 -0.5191939 -0.1089543 -0.41069648
0.19571498 0.02469072 -0.040537585 0.12316311 -0.06716351 -0.10608393 0.019223439 0.2193994
0.088001125 -0.32825947 0.29386652 0.11132153 0.043976005 -0.26253098 0.3253712 0.030814366
-0.008444427 -0.13098826 0.06269518 0.01717783 -0.23015931 0.16534975 0.10586763 -0.039387263
-0.3259892 -0.04848866 0.09413357 -0.2958582 0.025483102 0.066427775 -0.06012511 -0.028323699
0.3833487 0.20856956 -0.24905057 0.3085435 -0.22993705 -0.23506169 -0.6916718 -0.14969231
0.18122666 0.058372274 0.06082772 0.12386151 -0.06862704 0.109126545 -0.051705346 0.32618684
-0.052642595 0.014707363 -0.08872489 0.24235523 -0.04778833 0.1670087 0.39952332 0.31969777
-0.08127695 0.08374568 -0.34961486 -0.2982711 0.0094045475 -0.30294895 0.091861114 0.23624931
0.1262516 0.22541735 -0.079260804 -0.18251576 -0.12097761 -0.26833564 0.15080158 -0.17755878
0.114994146 -0.041469075 0.11848499 0.054326426 -0.14428686 0.45368412 -0.015360638 0.12193548
0.3123371 0.16370183 -0.22259034 -0.11679461 0.22765009 -0.11865131 -0.07979127 -0.3118141
0.19099864 -0.104121886 0.1376402 0.25122824 -0.18348198 -0.29267368 -0.1606645 0.010865538

critic.2.bias f4 [64]
00000000: 449a 24be 28d1 0dbe 55dd 203e 38f0 49be
00000010: f45e 35be db20 16be 2704 2b3e 3626 2cbe
00000020: ffa0 26be 9160 47be 3b85 0cbe ca7e 1dbe
00000030: f4cc 3fbe 8dd5 33be 86c2 1abe 5b27 283e
00000040: b3ce 1ebe 2dba 15be 9f7e 06be 39fa f53d
00000050: c5ca 06be 1d69 3f3e 019c 25be 7c2b c83d
00000060: 6126 31be 55e8 f53d 3f49 1b3e 3666 163e
00000070: 0629 153e 67ec 19be 2d6f 183e ae72 15be
00000080: 2535 15be 1418 333e e6b4 203e c2c8 0cbe
00000090: f45a 0e3e 6046 1d3e 2b64 1ebe c8fa 13be
000000a0: 9fd7 4dbe 20d4 17be 6ac0 1a3e 16e0 1ebe
000000b0: ed41 323e c97b 403e 4305 1c3e 970b 26be
000000c0: cc86 2a3e 8004 adbd b4af 283e 6c18 f83d
000000d0: 6bce 263e 0983 263e 063d 1ebe 1a17 143e
000000e0: 25c9 133e 26ac 1ebe 3aff 033e 6eff 193e
000000f0: ac60 1cbe 1230 9cbd cf0e 163e 2489 fb3d
-0.16074473 -0.13849318 0.15709431 -0.19720542 -0.17712003 -0.14660971 0.16700803 -0.16811451
-0.16272353 -0.19470431 -0.13722698 -0.15380397 -0.18730527 -0.17561932 -0.15113267 0.16421263
-0.15508537 -0.14621802 -0.1313424 0.12010617 -0.13163288 0.18692441 -0.16172792 0.09773919
-0.17299797 0.120072044 0.1516466 0.14687428 0.1456643 -0.15031587 0.1488616 -0.14594528
-0.14571054 0.17489654 0.15694007 -0.13748458 0.13901883 0.15358877 -0.15467899 -0.14451134
-0.20101784 -0.14827013 0.15112463 -0.1551517 0.17407961 0.1879722 0.15236382 -0.16215359
0.16652983 -0.08448124 0.16473275 0.12114033 0.1628968 0.16260923 -0.15452966 0.14461938
0.144322 -0.15495357 0.1289033 0.15038845 -0.15271252 -0.07626356 0.14654087 0.12282017

critic.4.weight f4 [1, 64]
00000000: 53f7 843e 4b25 483e ac8d 6cbe 02f1 3f3e
00000010: 2f9b 0f3e 1653 dd3e c966 58be d2f3 0c3e
00000020: 07f1 123e ffcb f53d 7705 983e 0e4c 443e
00000030: f765 573e 306e 2f3e 1d23 853e fd83 71be
00000040: 5a7a 713e 8a9f 993e 8acb 4a3e d2d2 e7bd
00000050: 3c8e 8e3e 9912 54be 3883 353e 765c 08be
00000060: 3613 4b3e 845e b9be 9d8a b0be a573 fdbe
00000070: 9eb2 4dbe 6b14 813e e5a0 b9be a9a2 4f3e
00000080: f625 d63e b605 70be 2133 26be b9c3 903e
00000090: 7e6a 88be 3634 ebbe 93fa a43e 7475 8a3e
000000a0: fe20 043e 3c7a a13e 6a33 6abe 6dc6 a13e
000000b0: ed7d 0bbe d53e f3bd 4d17 d0be 549b 743e
000000c0: 0927 0fbe 4d88 833d bee2 94be e64e b4be
000000d0: c841 7abe fcb3 fabd 2533 973e c2cd ebbe
000000e0: 30e4 62be 9ce6 983e aeb3 14be 161d a5be
000000f0: 9acf 623e c339 4d3e 7a03 e9be 7d94 02bf
0.25969943 0.19545476 -0.23100919 0.18744281 0.14024042 0.43227452 -0.2113296 0.13764885
0.14349757 0.120018 0.2969167 0.19169638 0.2103499 0.17131877 0.26003352 -0.23585506
0.2358183 0.3000453 0.19804206 -0.11319508 0.2784289 -0.2071022 0.17725837 -0.13316521
0.19831547 -0.36204922 -0.34480754 -0.49502292 -0.20087668 0.2521089 -0.36255565 0.20276894
0.41825837 -0.23439679 -0.16230442 0.28274325 -0.26643747 -0.4593827 0.32222423 0.27042735
0.1290321 0.3153857 -0.22871175 0.315967 -0.13622256 -0.11877219 -0.40642777 0.23887378
-0.13979734 0.06422482 -0.2907924 -0.35216445 -0.24439156 -0.122413605 0.29531208 -0.46055418
-0.22157359 0.2986344 -0.14521667 -0.32248753 0.22149506 0.20041566 -0.45510465 -0.51007825

actor.0.weight f4 [64, 8]
00000000: 1e5e 70bd df79 c43c 0100 613e cec0 c7bd
00000010: 3dc3 1fbf d714 50be 0736 6c3d 93b8 5b3e
00000020: 2b8c 6ebe 6645 bb3d b7f7 92bd 3fb3 1d3f
00000030: cac8 3a3e f258 a3bd f108 a3bd 2e5f 273e
00000040: 9cf6 b63a 623b 90be 3137 64bd 0247 15bf
00000050: f67e 8d3e 6900 1fbd 4fae b8be 4a13 98be
00000060: 8215 9ebd 997c d4bc f279 54be aca5 1dbe
00000070: 4016 d43e 48a0 75bd 3978 46be 3b2c 87be
00000080: f545 003e 8c6f 52bd 8807 ebbd a44d 53be
00000090: 69b0 7b3e a5a1 383e 158d 423e ae26 a3be
000000a0: f709 d2bd 933d 82be 4992 783d 4a35 ca3e
000000b0: bcac 9fbe f97f fe3c d159 7b3d 3590 dd3d
000000c0: da63 a8be a967 53bb 7da9 96bd 1d3f 89bd
000000d0: 08d1 86be 1748 6abd 976a 173e 737e aebe
000000e0: 4d79 eabd 347f 54be eb6a 803e d29a eb3e
000000f0: ede0 26bf 56cd 04bf b266 d53d f480 353e
00000100: ae58 55be 4d82 163e a33b f8be 7f58 d9be
00000110: 09f7 c63e e044 b83e db66 0cbf 1def 8e3d
00000120: 9d20 eebd 90a4 f33c 35f2 29bb 293e 513e
00000130: 62e9 99be edd2 bbbe 3602 f2bd 567a 163e
00000140: 636b 80bd d50f 9f3d 855d 00bb 47b5 e03c
00000150: ad87 ccbe 53b1 d3ba c3c3 8a3e 7dec 3b3e
00000160: 4d64 c03c 02f8 afbd f2d1 df3c 16c3 14bb
00000170: 9641 fabe 9e12 9fbe e4df eb3d 80ad 2ebe
00000180: 7316 4cbe 51d0 dbbd dc69 7abe 6791 93be
00000190: f92d 983e e830 ce3e 7d79 d6bc dbe8 11be
000001a0: ced5 a3be 262f a63e 2dc6 8b3d 32fd d93d
000001b0: 6d3f f73b fadb 9fbd 75d6 823e f31f d83c
000001c0: 7e18 07be ac60 40be 4d36 c63e 24cb fabe
000001d0: ac11 94be 8b3d a1bd b353 503b d841 dc3c
000001e0: cddb 33be bbef d13d 8f62 903d 8548 1ebe
000001f0: d1a9 94be 2ba8 0abe 0176 a7bd 11a6 d93d
00000200: 1519 91be 3972 79bd f3e0 233e deae 083f
00000210: b061 78be 375f b9be f32c 963c 66fb dd3d
00000220: 65ea 2b3e b9a8 dd3d 6bb6 2abe 0977 a8be
00000230: 3465 6e3c 5034 12bc d452 1c3e b005 50be
00000240: 69d0 363d ea30 b43d 11be 99be 3584 003e
00000250: 7544 a93e 4a39 3a3e b14d 083d 4456 043c
00000260: 2a6e 113e 533b d1bc 0a70 5d3e 8c47 f2bd
00000270: c5fc 0ebf 0fa4 c3be a4a5 9cbe 0258 08be
00000280: dabc 04bd e659 21be b092 4abe a386 773d
00000290: 4f09 4a3d 1518 693e 3024 9e3d 5877 473e
000002a0: 39e2 ce3d 019d ad3c 83d4 c83d 363d 553e
000002b0: 4d61 e3be e174 d2be c0d3 163d b1b6 bf3d
000002c0: 0dfe fd3c 3b93 1f3e 1429 27be 6d75 223f
000002d0: 9417 e33e 84e8 a43e d7eb f23d 6ab1 e2bb
000002e0: 625e 8d3e 5ac7 373e 71dc 493e 9348 e0be
000002f0: 67e6 f23e be2b 613e 714f 89be ae65 4dbd
00000300: 4289 95be 8f85 e53c ce65 b4bd ee88 913e
00000310: a560 70be fcb8 a4be 7aa3 3e3d 8867 a63d
00000320: 82a1 0bbd 601f 9c3d 6c2a f5bd afe0 f3be
00000330: 5d96 4d3c 4b9f 883e d984 46be d269 e63c
00000340: 3bc4 a23d 3a12 533c 48f4 0d3f 8c12 523e
00000350: abb5 91be 9850 a2bd a673 59be d61d 8e3e
00000360: 2c39 d83d 4c20 20be ed60 afbd afd5 c3be
00000370: 8121 f53e a06a fd3e 50dd 913d eb58 b03d
00000380: 15c1 7b3c 64c1 7abe ac6f 9cbd 337f 79be
00000390: 92e1 0e3f 4d92 103d fe91 2fbe 57ad 60bd
000003a0: 0fa5 e63d 4b41 75bd f0fc 823c 1b31 48bf
000003b0: d2c7 43be 5f9d 17bf eacf dcbd 71bb d7bd
000003c0: b67a a6bd 7463 06bd 1a76 31bd cbac 0a3f
000003d0: 8ff1 e13e a2f7 4a3e a74f 9b3a c474 09bd
000003e0: 3222 dd3d 6377 94bc cfbf 1fbd da18 c43e
000003f0: 77f7 873e 491b 8d3d 848f babc 0a20 65be
-0.058683507 0.023983894 0.21972658 -0.097535715 -0.62407285 -0.2032045 0.057668712 0.21457128
-0.23295657 0.09144096 -0.07176154 0.6160163 0.18240657 -0.07975949 -0.0796069 0.16344902
0.0013958993 -0.28170305 -0.055716697 -0.58311474 0.27635926 -0.03881875 -0.36070487 -0.29702216
-0.07718946 -0.025938319 -0.20749643 -0.1539523 0.41423225 -0.05996731 -0.19381799 -0.26400933
0.12526686 -0.05137591 -0.11476046 -0.20635086 0.24579014 0.18030412 0.18999131 -0.31865448
-0.10255807 -0.25437602 0.060686383 0.3949378 -0.31186473 0.031066881 0.061364952 0.10818521
-0.3288868 -0.0032257831 -0.07356546 -0.06701491 -0.26331353 -0.057197656 0.14786755 -0.34080848
-0.114489175 -0.20751649 0.25081572 0.46016556 -0.6518696 -0.5187582 0.10419978 0.17724973
-0.2083461 0.14698143 -0.48483 -0.4245033 0.38860348 0.35990047 -0.54844445 0.06979201
-0.11627314 0.029741555 -0.002593172 0.20433868 -0.3006087 -0.3668436 -0.11816828 0.14695105
-0.062704824 0.077666916 -0.0019586992 0.02743019 -0.39947262 -0.0016150869 0.2710248 0.18351932
0.023485327 -0.085922256 0.02732179 -0.0022699288 -0.48878163 -0.3106889 0.11517313 -0.17058372
-0.19930439 -0.107330926 -0.24454445 -0.2882187 0.29722574 0.40271688 -0.026180977 -0.14248984
-0.31999058 0.32457846 0.068249084 0.10643996 0.0075454027 -0.07805629 0.25554243 0.026382422
-0.13192937 -0.18786877 0.38713303 -0.4898311 -0.28919733 -0.078730665 0.003178817 0.026886865
-0.17564316 0.10250803 0.070500486 -0.15457352 -0.2903581 -0.13540713 -0.08176804 0.10627378
-0.2833945 -0.060899947 0.1600378 0.53391826 -0.24256015 -0.36205456 0.01833198 0.10838966
0.16788633 0.10823197 -0.1667115 -0.32903317 0.014550496 -0.008923605 0.15265971 -0.2031467
0.04463235 0.08798392 -0.30027822 0.12550433 0.3306004 0.18185917 0.033277217 0.008077208
0.1420218 -0.025540983 0.21624771 -0.11830053 -0.55854446 -0.38211104 -0.30595124 -0.13314822
-0.032406665 -0.1575695 -0.1978252 0.060431134 0.049325284 0.22763093 0.07721746 0.1947912
0.10101742 0.02119303 0.098061584 0.20824131 -0.44410172 -0.41104797 0.036823034 0.093610175
0.03100493 0.15583508 -0.16324264 0.6346043 0.44353926 0.32208645 0.11861389 -0.006918122
0.2761107 0.1794714 0.19712998 -0.4380537 0.47441408 0.21989343 -0.2681842 -0.050145797
-0.29206282 0.028017787 -0.0880848 0.28424782 -0.23474367 -0.32172382 0.046542622 0.08125216
-0.034089573 0.07623172 -0.11970982 -0.47632357 0.012548056 0.2668403 -0.19386615 0.028126631
0.07947584 0.0128827635 0.5545087 0.20514888 -0.28458914 -0.07925528 -0.21235523 0.27757138
0.1055778 -0.1563732 -0.08563409 -0.38248965 0.47877124 0.4949541 0.0712229 0.0861071
0.015365859 -0.24487835 -0.07638487 -0.24364929 0.55812943 0.035295773 -0.17145535 -0.05485281
0.11261951 -0.05987672 0.01598975 -0.7819993 -0.19119194 -0.59224504 -0.10781844 -0.105337985
-0.08128874 -0.03280969 -0.04332552 0.5416991 0.44129607 0.19821027 0.00118493 -0.033558622
0.10797538 -0.018123334 -0.039001282 0.3830021 0.26555988 0.0688997 -0.022773512 -0.22375503

actor.0.bias f4 [64]
00000000: 5c1f 5539 15b7 533b fb12 6a3d b374 2f3b
00000010: 80f5 9abb e262 45ba a805 36bc 074d 183d
00000020: c57d 08bd ee7b 6e3d 4a0c fbbc bd65 6d3c
00000030: 0d6d 883b d142 ae3c 506e 203d 19cc 08bd
00000040: d086 843a 1e85 d7bc 10e3 623c 1d42 113c
00000050: 1e74 973c 7fd0 a2bc 18cb 44bd a785 edb8
00000060: d0bf d03c 51fa 993c 8ad3 8abb ef0b 1a3d
00000070: 84fb 433d cdfd 463c ce4a dabc 15d7 ec3b
00000080: 7b6b 313b 81b6 083c 7052 f43c b353 14bd
00000090: 3d84 3b3c c088 0d3d 53e5 1ebc e47b 0a3c
000000a0: ae27 eebc 791a 893b 8ae0 6e3c 26b0 89bc
000000b0: f745 91bc 8f69 60bc 9da1 06bc 1c65 2bba
000000c0: eb05 ca3c 54c2 adbc 034d 40bc ada2 dbbc
000000d0: ab36 3c3c 6936 423c cba7 97bb 5244 1cbc
000000e0: ff66 36bd 517c 5cb9 74fa 283a f7be 13bd
000000f0: 15bf 8f3c 061d cebb 533a db3c c9ab 10bd
0.00020324945 0.003230517 0.057147007 0.002677244 -0.004728973 -0.00075296883 -0.011109747 0.037182834
-0.03332307 0.058223657 -0.030645508 0.014489588 0.0041633905 0.021272095 0.039167702 -0.033397768
0.0010110978 -0.026308592 0.013848081 0.00886586 0.018487986 -0.01987481 -0.048045248 -0.00011325935
0.025482088 0.018796118 -0.004236643 0.037609037 0.047847286 0.012145472 -0.026646998 0.007227788
0.002707212 0.008344294 0.029824466 -0.036212634 0.011445102 0.034554243 -0.00969823 0.008452389
-0.029071655 0.004184064 0.0145799015 -0.016807627 -0.017733557 -0.013697042 -0.008217243 -0.0006538199
0.024661025 -0.021210827 -0.011737111 -0.026810968 0.011487643 0.011853793 -0.004628157 -0.009537773
-0.04453182 -0.00021027146 0.0006446012 -0.03607079 0.01754717 -0.006290081 0.02676121 -0.035320077

actor.2.weight f4 [64, 64]
00000000: e789 9e3e 0761 74bd ff8e 823e 4e13 c8be
00000010: 0406 e23d 9011 ee3d e499 5cbe c610 073e
00000020: 5e8e c03d af4b 6ebe 101e 3c3e 2aa0 3e3e
00000030: 6ff1 b73c 2164 ac3d a447 ccbc 13f5 573e
00000040: cd1f 393e e110 9d3e 0e43 243d de19 d43e
00000050: 3041 d8bd 45b0 113e 7029 d1bd 2387 09bb
00000060: 98e1 e23d a116 903c 401f 0e3e 2897 243e
00000070: 76ae 11be 8f83 f23e 2cab bebe bf96 0dbf
00000080: 547f 613e 4ecf 363e c3f1 a33d d634 9f3e
00000090: 7fd6 2a3e bc63 d83d f1fc b23e 38cc 583d
000000a0: 5c73 113f c681 e3bd f5c1 47be 5dba 4e3e
000000b0: db3b 873e 2a6d f23d 6478 63bd 98cb 7ebd
000000c0: a34c e23c fc9e a73d 7634 b9bd dd7f e0bd
000000d0: a8de ac3c e68b 813e 426c 7a3e 6239 2bbe
000000e0: 5cb2 823d fb7c 813e 823f 723c d82e 3a3e
000000f0: a5e6 6f3e 33ac 19bf 62e3 b83e 3bd9 89be
00000100: 4508 10be b2d0 14be ebf9 583e c154 bc3e
00000110: f9f5 673e 05d6 16be 7ed4 97bc f667 ecbe
00000120: 6630 163d ed8a 7b3d 044e 33be 87f5 82be
00000130: 9d32 6e3e 3c81 4fbd 539b b9be 1a18 743e
00000140: cd81 bebe 427f fabd 7e36 d03e 0061 0a3c
00000150: e152 a03d fe91 dabd bb7a 02bd e10c 473e
00000160: d648 94be d98c 843e 16a3 813d c6e4 cd3d
00000170: 9119 983c 65d6 263e 560d 073d e5a3 ab3d
00000180: 4bb7 80be c9ec 7bbe d32c cc3b 2d51 703e
00000190: 247e dfbe 5062 6b3e 489d 543d eee2 75be
000001a0: fd66 41be afdf b1bd bbe9 e03e 2924 80be
000001b0: 7b5a fbbe 57a8 44bd da66 663e d5ca 053d
000001c0: cd95 5e3d dabd dbbe 8403 ad3d 241e ae3e
000001d0: 0040 f03d df32 863b 0864 1cbe 2c4c 99bb
000001e0: 4638 803e 54d2 8d3e 7fc8 eb3c 3620 5cbe
000001f0: 2250 2cbd c658 ad3e 937b a43e 78fd 7b3e
00000200: 1a8c 31be a4a6 febb 2bd1 ef3d 7414 ac3e
00000210: 84ca 84bb 5617 0fbc 5d4a 6ebe adfc 0abe
00000220: cef0 043f 2173 c6bd d9c4 e33d 5e74 bfbe
00000230: c6ca e03e c2d0 c3bd 8e8f 743d bfb5 a0bc
00000240: 17b9 a8bc 4010 493e 11c4 dabc b887 dd3c
00000250: ed5a f5bc 91a1 e4bc ee7d 2dbe c4d6 783e
00000260: 4c09 0c3c d1c1 823e 0f4b 83be 889c a63d
00000270: 9cd4 b63d 623a 6e3e c196 1bbe 43ed 4bbe
00000280: 4193 2b3e acc1 71be 4e16 8b3e dce9 cdbd
00000290: af6a fa3d 63e5 743e 6232 c0be 0afa fdbc
000002a0: 5c77 1fbe 8aae af3e 9342 e33d d149 a2be
000002b0: c8ef 263d fb9c 05be 6938 963d ed4d 423d
000002c0: cae1 803e 8218 09bf 4837 dbba 3149 6cbe
000002d0: 80cb 0e3e 0bc3 9cbe 1f69 d7be f9c0 12be
000002e0: b176 863e 890f 91be 9743 673e 5a44 bb3c
000002f0: c5ea bd3e d929 093e 3ef6 4e3e 7936 283e
00000300: 7211 02be 5557 3e3c d7e9 b9be 354a 58be
00000310: 5c1e 26be 2051 6b3e 0324 8bbe a1a7 b23e
00000320: 90bc d8be da95 593c e11b 61bd daeb b13e
00000330: 9821 7ebe caa4 babe f132 44bd 6a84 c33e
00000340: 580d d93e 5bbf 0f3e 92ed 7abe f389 053e
00000350: 01d8 aabd 61de d53e 9be7 f9bc 46ec d23d
00000360: 3c4a 723d 0574 fabe 1922 683e 48b8 11bd
00000370: e4c8 0dbf 4db2 8fbd 3086 6bbc 2b70 1abd
00000380: 6946 3cbe b18f f9bc 7472 0abd 0e3a 67bc
00000390: 2235 5f3a f06f f23c cb01 ab3c fcb4 16be
000003a0: ce78 6d3d 03a7 edbd 9eec 79be fd9e dbbd
000003b0: 46b2 a13c 3822 a33e cd6e df3c 1897 143e
000003c0: cdb7 45be d090 913e 4096 643e 64e1 00be
000003d0: cde5 20be 49ec 203d 21db e2bd 9a7e 9a3d
000003e0: 1f9f 05be 1da7 a5bd 88dd aebe 1fc3 263e
000003f0: de40 91be f7a3 7e3e 576d 00bd 628c 8b3e
0.30964586 -0.059662845 0.25499722 -0.39077228 0.11036304 0.116244435 -0.2154308 0.13189992
0.094021544 -0.23271058 0.18370843 0.18615785 0.022453992 0.084175356 -0.024936505 0.21089582
0.18078537 0.3067694 0.04010301 0.41425985 -0.105593085 0.14227398 -0.10212982 -0.0020985089
0.11078185 0.017588915 0.13879108 0.16073287 -0.14226708 0.47365996 -0.3723997 -0.55308145
0.22021228 0.17852518 0.08005097 0.31094998 0.16683386 0.10565898 0.34958604 0.052929133
0.5681665 -0.11108737 -0.19507582 0.2018828 0.26412854 0.11837228 -0.055534735 -0.06220588
0.027624434 0.08184621 -0.09043209 -0.10961888 0.021102265 0.25302047 0.2445536 -0.16721109
0.063816756 0.25290665 0.014785649 0.18181932 0.23427828 -0.6002838 0.3611098 -0.26923546
-0.14065655 -0.14532736 0.21189086 0.36783412 0.22652425 -0.1473008 -0.018533941 -0.46173066
0.03666725 0.061411787 -0.1751023 -0.25577947 0.23261495 -0.050660357 -0.36251315 0.23837319
-0.37208405 -0.12231304 0.40666574 0.008445978 0.07828308 -0.10672377 -0.031855326 0.19438507
-0.2896182 0.25888708 0.06329934 0.10053401 0.018566879 0.16292723 0.032971703 0.0838087
-0.2513984 -0.24602045 0.0062309294 0.23468466 -0.43650925 0.22986722 0.051907808 -0.24012348
-0.18886943 -0.086852424 0.43928322 -0.25027588 -0.4909247 -0.048012104 0.22500172 0.03266414
0.05434208 -0.42918283 0.08447936 0.3400737 0.11730957 0.00409542 -0.15272534 -0.00467827
0.25042933 0.2769953 0.028782127 -0.21496662 -0.042068608 0.3385679 0.3212553 0.2460841
-0.17338601 -0.00777133 0.117098175 0.33609354 -0.004052462 -0.008733591 -0.23270555 -0.1357295
0.5192994 -0.09689928 0.1112153 -0.3739347 0.43904704 -0.09561302 0.059707217 -0.019617913
-0.02059607 0.19635105 -0.02670482 0.027042255 -0.029950583 -0.027909072 -0.1694257 0.24300677
0.008547138 0.25538495 -0.25643203 0.08135325 0.08927271 0.23264459 -0.15194227 -0.19914727
0.16755392 -0.23609036 0.27165455 -0.10054371 0.122273795 0.23915629 -0.3753844 -0.031003017
-0.15572876 0.3431285 0.110966824 -0.31696942 0.040756017 -0.13048165 0.07334978 0.047437597
0.25172263 -0.5355302 -0.0016724849 -0.23074795 0.13944817 -0.30617556 -0.4207239 -0.14331426
0.2626243 -0.28332165 0.22584377 0.022859741 0.37093177 0.1339487 0.20211121 0.1642703
-0.12701967 0.011617501 -0.36311218 -0.21122058 -0.16222519 0.22980165 -0.27175912 0.34893516
-0.42331362 0.013280356 -0.054958228 0.34750253 -0.24817502 -0.3645385 -0.047900144 0.3818696
0.42392993 0.1403784 -0.24504688 0.13040905 -0.08341981 0.41771224 -0.030505946 0.10298972
0.059152827 -0.4891664 0.22669257 -0.035576135 -0.5538466 -0.0701643 -0.0143752545 -0.037704628
-0.18386234 -0.030464025 -0.033800557 -0.014112962 0.00085146923 0.029594392 0.020874878 -0.14717478
0.057976536 -0.116041206 -0.24406669 -0.10723684 0.019738328 0.31862044 0.027274514 0.14510763
-0.19308396 0.28430796 0.22322941 -0.1258598 -0.15712662 0.03928784 -0.11076952 0.075436786
-0.13048981 -0.08088515 -0.3415339 0.1628537 -0.28369802 0.24867235 -0.031354275 0.2725554

actor.2.bias f4 [64]
00000000: 3cf2 24bc daf6 b63c fbc5 833c 28f7 37bd
00000010: ef5e ba3c 6845 d93b fdec 8dba 787e a6bc
00000020: 75cd 0abc 2a2d 493b 3b99 62bc 6730 bc3c
00000030: c308 b9bb 8ae2 1e3c 7b79 783c b79e 9dbc
00000040: 5571 de3c 968d 093a f95b 1c3d ebd6 0fbc
00000050: 6f91 973b 0ec7 9cbc af34 f4bb 0ba5 c2bb
00000060: c1d3 3abc ea5a cabb 7ba3 e7bc 29b3 5bbc
00000070: 6d25 963c 3897 d13a 8165 7d3c c5d1 3dbb
00000080: b9fa db3b bbf7 043d 5e54 9cbc cf23 1d3d
00000090: 7595 99bc 2cb4 acbc 1c3e c6bc e53f 8cbc
000000a0: 45b4 51bc 785a f43c 5104 87bb 1a38 b1bb
000000b0: 0c8c 143c 1475 313c 91ab eb3a 375e 9abc
000000c0: 3840 53bd e8bf cabc 4911 303d f70e 1abc
000000d0: dd59 11bc 4048 903c 15d3 f63b 30ca d7bc
000000e0: ad44 fe3c 7e80 b7bc bffd 07bd 8046 09bd
000000f0: 659c f6bc a276 3f3c c3b7 07bd a259 c9bb
-0.010067519 0.022334505 0.016085615 -0.04491344 0.022750346 0.0066305883 -0.0010828074 -0.020323977
-0.008471836 0.0030697086 -0.013830478 0.022972299 -0.0056467964 0.009697566 0.015165682 -0.01924072
0.02715365 0.0005247233 0.03817365 -0.008779268 0.0046254913 -0.019137885 -0.0074525694 -0.005940085
-0.011403025 -0.0061753886 -0.028276196 -0.013409414 0.018328393 0.0015990501 0.015466095 -0.0028964144
0.006713238 0.032462817 -0.019083198 0.038364228 -0.018748024 -0.021082006 -0.024199538 -0.017120311
-0.012799327 0.029828295 -0.0041203876 -0.005408299 0.009066593 0.010831136 0.0017980208 -0.018843753
-0.051574916 -0.024749711 0.042985234 -0.009402982 -0.008871523 0.017612576 0.007532487 -0.026341528
0.031038607 -0.022400137 -0.033200976 -0.0335145 -0.030103872 0.011685999 -0.033134233 -0.0061447183

actor.4.weight f4 [4, 64]
00000000: c9f4 0cbe e1cf 1cbd 52d6 fcbd b19c 123e
00000010: ac49 41be a65d dabd 822f ff3d c0a6 293e
00000020: 061c 023e 2e27 15be 139f a43b 8c7f c13c
00000030: 2905 013e 9f84 09be b5fc 20be a9b8 063e
00000040: 3faf 94bd 5595 1ebe cc53 223d 3a04 d53c
00000050: 4c16 6e3d 445e 1e3e d7c7 f4bd e354 123b
00000060: 2217 70bd 1f91 f93d 4efc 353e 285f 213e
00000070: e4bd 17be 909f 16be d4fd 0dbe b6a2 a8bd
00000080: bb3e 12be 9bbf 10be fe97 b1bd 0a28 32be
00000090: 481f d03d 4f6e 0b3e e0fd 793d 9194 06bb
000000a0: 08a3 2c3d d64a 9abd c7c8 f03d 3d8a 02be
000000b0: 8f30 70bd 4dea 2fbe 7969 ba3d c61b 2d3e
000000c0: cf46 2f3e e3ba b73d 39ba 34be 89e9 233e
000000d0: a439 c4bd 1d0c 273d 33c2 07be 2642 123e
000000e0: f686 083e 8ecb 15be b690 1a3e b386 e63d
000000f0: 4b22 463e adac 2dbd bd6c 293c 745d cd3d
00000100: 1fe7 403e d402 89be e730 56be 729e 6a3e
00000110: 3a6d 36be d398 81bd 4f81 23be b39d e8bc
00000120: cd96 1bbe c85f b13b 9afe 71be be42 4ebe
00000130: 7b68 8b3e afc7 95be 9880 50be a0f0 573e
00000140: de8b 533e 5021 0fbe d239 803e 721e 7cbe
00000150: 626e 82be 502f d2bd 0447 88bd b0ed 6fbe
00000160: 6648 bebd f79a 953e 79f6 fdbd 039e 853e
00000170: 7975 a93d f58b 5c3d 7911 d53d 017a 4e3e
00000180: e157 0ebe 01e2 85be 59e5 023e 23f7 113e
00000190: b474 d0bd 2ee4 723e a828 863e f2ac 5cbe
000001a0: dade 603e 9274 4b3e 47b3 153e 34ff 93be
000001b0: 1826 82be 6b9b 7bbe 0238 803e 559b 863e
000001c0: 583e 66bc 18ce 853e cce2 4abd 8236 39be
000001d0: b605 e2bd 35bc 803e cd7e 223e 9467 483e
000001e0: f5df 72bd 1b0f 733d ec46 8b3e ceb6 553d
000001f0: 55e5 8d3d c491 65be 21c0 83be d799 803d
00000200: 94dc 563e 45de 903d f170 593e 08e5 7ebe
00000210: 5e50 873e 9f03 183e 152a 5abe d6d2 82be
00000220: ddc0 64be e69e 5a3e 8f4f adbb 61cd ddbb
00000230: eb0c 54be 3fa6 683e b9e5 703e 7c08 76be
00000240: 2c73 0c3e 454b 6b3e 4fc5 8fbd d867 13bd
00000250: f765 d1bd 9e68 78be 0af5 2f3e b67b 9abc
00000260: 78ab 383d dbc4 4ebe 6996 8abe eeee 81be
00000270: d747 723e dabf 683e c8b0 693e e474 253e
00000280: 1f44 5a3e d7ae 773e e85b 193e 0384 883e
00000290: 6fd1 26be 83cd 73be c34a 29be 6b0f 153d
000002a0: aab0 b0bd 6e48 1a3e de41 2fbe 6bb6 573e
000002b0: 4681 e33d 93f9 7f3e 7091 34be 450c 81be
000002c0: cbd7 89be 8f65 2ebe 569d 8c3e 1e5c 70be
000002d0: 839b 053e da9d b8bd 7157 603e 9d49 79be
000002e0: c1af 4cbe 0a76 5f3e 630b 85be 7570 5cbe
000002f0: 2f1f 8abe 2ad2 e13d fca2 9dbc c001 05be
00000300: bb3e 80be fe7e 883e c9b1 cf3d 9355 e2bd
00000310: 19da 0fbe dfa1 89bd b3ff 7e3e f6fb 733e
00000320: 606b 813e 5a07 4bbe a6aa 6f3e 4114 593e
00000330: e966 50be 9e15 513e a4fd bb3c 5e19 8fbd
00000340: ca60 70be ff2d e2bd 46db 6dbe 910d 7c3e
00000350: a29e 8a3e 1d8b 803e a2ed c8bd 209e 7e3e
00000360: 93ac c23d 7cbf 7bbe 6038 853e 2274 32be
00000370: f097 81be bc02 82be 3e88 4fbe e91c 7bbe
00000380: 17dd aebd f81e 423e 16ad 5abe 89f9 89be
00000390: 1b2b 3e3e f86e a1bd 08e5 51be 6e73 4e3e
000003a0: 0b18 50be 44f2 69be 7c06 913b 7f10 463e
000003b0: f370 713e 18eb 153d 6e0a 54be dc36 0bbe
000003c0: 6015 803e ae77 60be 9264 5dbe e2e1 833e
000003d0: a0d1 193d 6788 66be cb4d 76be f402 99bc
000003e0: 8fbc 593e 8e19 66be 77a1 1bbe b070 163e
000003f0: efd0 7b3e 68f8 493e 1a25 823e 719b d03c
-0.13765253 -0.038284186 -0.12345566 0.14317586 -0.1887576 -0.10662393 0.12460233 0.16567516
0.12706003 -0.14565727 0.005023846 0.02362039 0.12599625 -0.13429497 -0.157214 0.1315638
-0.07259988 -0.15486653 0.039630696 0.026002992 0.058126733 0.15465647 -0.11952179 0.0022328428
-0.05861581 0.12185883 0.17772028 0.15758955 -0.14818531 -0.14709306 -0.13866359 -0.0823416
-0.14281742 -0.14135592 -0.08671568 -0.17398086 0.101622164 0.13616298 0.06103313 -0.002053533
0.042147666 -0.07533805 0.11757045 -0.12748046 -0.05864006 -0.17179222 0.091021486 0.16905126
0.17116855 0.08971193 -0.17649163 0.16007055 -0.095813066 0.040783037 -0.13257675 0.14283046
0.13332734 -0.14628431 0.15094265 0.112561606 0.19349019 -0.042401005 0.010340867 0.100275904
0.18838166 -0.2675997 -0.20917092 0.22912005 -0.17815104 -0.06327977 -0.15967296 -0.02839551
-0.15194245 0.0054130293 -0.23632279 -0.20142648 0.2722815 -0.2925391 -0.20361555 0.21087885
0.20658824 -0.13977551 0.25044113 -0.24620989 -0.2547484 -0.102629304 -0.0665417 -0.23430514
-0.09291153 0.2921979 -0.124005266 0.26097116 0.08274359 0.05384441 0.10403723 0.20163728
-0.1390071 -0.2614899 0.12782802 0.14254431 -0.10178509 0.23719856 0.26202893 -0.21550348
0.21960011 0.19868687 0.1461917 -0.28905642 -0.25419688 -0.24571006 0.2504273 0.26290384
-0.01405295 0.261338 -0.049532697 -0.180872 -0.110362455 0.2514359 0.15868683 0.19570762
-0.059295613 0.059340578 0.27202547 0.05217629 0.06928507 -0.22418886 -0.2573252 0.062793426
0.20982581 0.070736445 0.2123449 -0.24892056 0.26428503 0.14845131 -0.21305116 -0.2555148
-0.22339197 0.21349677 -0.005289025 -0.006768868 -0.20708053 0.22719668 0.23525132 -0.24026674
0.1371581 0.22977932 -0.070200555 -0.035987705 -0.102245264 -0.24258658 0.17183319 -0.018857818
0.0450854 -0.20192282 -0.2706788 -0.253776 0.23660217 0.22729436 0.22821343 0.16157871
0.21315049 0.2418779 0.14976466 0.26663217 -0.1629083 -0.23808865 -0.16532426 0.036391657
-0.08627446 0.15066692 -0.1711497 0.2106568 0.11108641 0.24997549 -0.17633605 -0.25204673
-0.2692245 -0.17030929 0.27463788 -0.2347264 0.13047604 -0.09014483 0.21908356 -0.24344487
-0.1998892 0.21822372 -0.2598525 -0.21527274 -0.26976916 0.11026414 -0.019242756 -0.12988949
-0.2504786 0.26659387 0.10141332 -0.11051478 -0.14048041 -0.067203276 0.24902229 0.23826584
0.25277233 -0.19827023 0.23404941 0.21199133 -0.20351757 0.20418403 0.022948094 -0.0698726
-0.23474422 -0.11043929 -0.23228177 0.2461455 0.27074152 0.25106135 -0.0981095 0.24865007
0.09505572 -0.24584764 0.26019573 -0.17427114 -0.25311232 -0.2539271 -0.20266816 -0.24522747
-0.08538263 0.18957126 -0.2135509 -0.26948193 0.18571131 -0.07882494 -0.20497525 0.2016122
-0.20321672 -0.22846323 0.004425822 0.1934223 0.23578243 0.036601156 -0.20707104 -0.13595146
0.25016308 -0.21920654 -0.21620396 0.25758272 0.03755343 -0.22512971 -0.24053113 -0.018678166
0.21263336 -0.22470686 -0.15198313 0.14691424 0.2459142 0.19723666 0.2541893 0.025464745

actor.4.bias f4 [4]
00000000: a2e0 18bd 0ab8 9fbc ec19 473d 212d b7bc
-0.0373236 -0.019496936 0.048608705 -0.022360386

exp_avg f4 [64, 8]
00000000: 9c52 af3b 4c2e 15bc 26bf 6b3b fa27 893c
00000010: f463 9d3a 8563 ccb8 42ab 9b35 d2aa c634
00000020: bc14 013b d63c d93a d3da 8e3a 325e 463b
00000030: 4ea2 a139 e068 95b8 26c4 0733 f30e 2232
00000040: c220 c8bb 3ea0 26bb a44e 20bb 4328 9fbc
00000050: cea1 31ba 04fa 2eb9 731c f6b5 b111 c9b4
00000060: 79e7 053c 3d20 33bc c7b5 9a3b f679 c63c
00000070: 18d4 c23a 8f04 1eb8 c282 d635 ce87 0335
00000080: a8cb 08bc 12f4 2f3c 88f7 8ebb ad57 b4bc
00000090: 4fc3 b8ba e104 4f38 2791 f0b5 569c 0db5
000000a0: fc84 92bb d818 8bba eb1b 43bb 783d 13bc
000000b0: a604 87ba 7ce5 0039 4de0 71b5 f89a 7db4
000000c0: 3f83 d9bb b727 eb3b 2a43 ddbb efc8 89bc
000000d0: 52c6 30bb 6223 263a b4d6 aeb5 af63 ccb4
000000e0: 931b 50bb 97f6 31bc 5b1d b5ba eac6 c5bb
000000f0: 3418 08ba a87b 8a38 18b7 2eb5 2559 cfb3
00000100: 8434 893b 98ba 723b d8bf 40bb b837 6e3c
00000110: baff cbba 012d 703a 1702 c335 a330 cf34
00000120: 5492 a73a 407c 97b9 4021 8c3a 883b 2f3a
00000130: d66e d939 c58d e9b8 6f2e 24b4 a84c 87b1
00000140: b175 79bb 7352 25bc 7a58 1fbb 8e58 24bc
00000150: 61bc 4cba 5a15 52b7 a082 85b5 04ff 8eb4
00000160: 0244 a03b bf4b 293c cdda db39 66eb 933c
00000170: 684c dbb7 4bef 8839 05d7 ca35 b142 f234
00000180: 08a2 87b9 5567 8bba 2f03 21b9 b4ca c939
00000190: ba18 90b8 5648 d436 1bf8 2bb4 5ebc 17b2
000001a0: 663f 03bc 52a9 dd3b f68a 86bb fe16 adbc
000001b0: b5b5 abba 0287 fa37 ed31 05b6 4dc9 06b5
000001c0: 53b6 3fbb cace 493b aab7 e7ba 7a0f f3bb
000001d0: c2e2 1fba 04b2 5138 ac3b 2db5 4870 32b4
000001e0: bdea ce3b 5943 37bc 1075 183b ee64 c33c
000001f0: 76e9 183a 059e 2639 81ef 2036 4410 2935
00000200: a57a e93a 1179 25bb baba ef3a a987 ae3b
00000210: 9130 2c3a 4f4c 2db9 e857 ea34 be89 1334
00000220: 94f8 90bb 61e6 e1ba 3fb4 51bb 87b8 debb
00000230: ee2a 9bba 6242 6f39 e00a 4bb5 d607 2bb4
00000240: 3c8c 5bba 3092 85ba fd00 18ba b129 a83a
00000250: c6af 6eb9 75f2 ac38 745f b034 6b1d 6b33
00000260: 3711 0f3c 7ed7 483b 3e95 523b 6ba6 c13c
00000270: c038 853a 1c81 f738 2208 f235 b65c 0635
00000280: 792c 993b 7d30 04bb 605b 18ba 7a95 4e3c
00000290: a362 0fba 0bad 023a c242 aa35 dfc6 b734
000002a0: ddb0 893b fdb9 90bb 8333 0a3b b768 573c
000002b0: 7d9b 313a 4fb6 b0b7 6a78 7a35 2457 9134
000002c0: 00f9 8b3a 8a32 35ba 05f2 9138 93c4 be3a
000002d0: 53da a5b7 21df 4038 82af 2234 8feb 6332
000002e0: 5017 1d3c d37a 7abc 0a76 8b3b ada5 b03c
000002f0: e129 a73a 6b0b 0238 f932 0a36 96b2 0035
00000300: 49d0 123c 4589 60bc 1e1c ad3b d745 be3c
00000310: af92 d93a b2df 1ab9 7b41 9a35 306f 8234
00000320: bc8b fa3b fb0d f939 24a3 813b 0140 843c
00000330: 7404 9f3a e809 72b8 24d1 d935 1719 e634
00000340: 5f80 05bc 7543 413c 0b5a 9cbb e668 8fbc
00000350: 4f0c d1ba a7ae 1f39 f6fb eeb5 662e ddb4
00000360: d9f8 4abc b07b 6d3c 72bf dcbb 5a30 e7bc
00000370: d630 12bb 0633 2e39 10f0 2bb6 c18d 16b5
00000380: 9b92 123c c40d 24bc 0584 833b e79a 803c
00000390: 0507 ab3a aa9a 5db8 07e8 c035 e638 af34
000003a0: b584 313b 6613 e23b 1157 753a f940 9c3c
000003b0: 1c21 9539 d735 4739 d056 ef35 23e0 d034
000003c0: d244 1fbc 460a 233c 9bab 86bb 23ca 9fbc
000003d0: 2fe3 a4ba 7e93 93b8 7961 e3b5 4ca2 c6b4
000003e0: 7935 243c 2d7c 773c a247 983b a8f1 803c
000003f0: b94d d93a 4358 44b9 5b23 dd35 fdd4 e634
0.005350424 -0.009105276 0.0035972088 0.016742695 0.0012007938 -9.746015e-05 1.1598243e-06 3.7004662e-07
0.0019696197 0.0016573917 0.0010898955 0.0030268547 0.0003082924 -7.124408e-05 3.1610533e-08 9.43304e-09
-0.0061074207 -0.0025425102 -0.0024460936 -0.019428378 -0.0006776125 -0.00016687071 -1.8336708e-06 -3.745204e-07
0.008172863 -0.010932979 0.0047213766 0.024228077 0.0014864234 -3.767438e-05 1.5982298e-06 4.8998925e-07
-0.008349337 0.010739343 -0.004363004 -0.022014463 -0.0014096292 4.935719e-05 -1.7923638e-06 -5.275409e-07
-0.0044714194 -0.0010612262 -0.002977128 -0.008986823 -0.0010301068 0.00012292521 -9.0105897e-07 -2.3618838e-07
-0.00663796 0.0071763652 -0.0067523913 -0.016819445 -0.0026973677 0.000633767 -1.3026497e-06 -3.807049e-07
-0.0031754717 -0.010862014 -0.0013817953 -0.0060356753 -0.0005191595 6.6033856e-05 -6.508649e-07 -9.655404e-08
0.0041871686 0.0037037488 -0.0029411223 0.014539652 -0.0015563883 0.00091619795 1.452924e-06 3.8592142e-07
0.0012784698 -0.00028893538 0.0010691062 0.0006684591 0.00041472045 -0.000111367124 -1.5290583e-07 -3.937732e-09
-0.0038064534 -0.010090458 -0.002431421 -0.010030879 -0.0007810053 -1.2521947e-05 -9.947289e-07 -2.663511e-07
0.0048909197 0.010333001 0.00041933954 0.018056583 -2.6142414e-05 0.0002611823 1.5112752e-06 4.5124537e-07
-0.0002586993 -0.0010635654 -0.00015355342 0.00038488733 -6.871061e-05 6.3265134e-06 -1.6015876e-07 -8.8321865e-09
-0.008010721 0.0067645693 -0.004105921 -0.021129128 -0.0013100418 2.986519e-05 -1.9847605e-06 -5.021182e-07
-0.002925296 0.0030793422 -0.0017678638 -0.0074176164 -0.0006099158 4.9995273e-05 -6.4534356e-07 -1.661839e-07
0.006314604 -0.0111854905 0.0023263134 0.023851838 0.0005833128 0.0001588986 2.3981268e-06 6.2981076e-07
0.001781304 -0.0025249163 0.0018289902 0.0053262305 0.0006568516 -0.00016526993 4.3649857e-07 1.3740552e-07
-0.004424164 -0.0017234796 -0.0031998304 -0.0067968997 -0.0011838356 0.00022817546 -7.563922e-07 -1.5928467e-07
-0.00083750836 -0.0010190662 -0.0005798487 0.0012829808 -0.0002276293 8.24676e-05 3.2852006e-07 5.4741957e-08
0.008732132 0.0030646021 0.0032132412 0.023638925 0.0010164008 0.00011801926 1.8032772e-06 5.00538e-07
0.004674491 -0.0020170503 -0.0005811956 0.01260888 -0.0005469715 0.0004984892 1.2685416e-06 3.4231104e-07
0.004201992 -0.004416703 0.0021087832 0.013147525 0.0006775184 -2.1065729e-05 9.3307483e-07 2.7071758e-07
0.0010679066 -0.0006912133 6.9592184e-05 0.0014554433 -1.9771198e-05 4.5984172e-05 1.5151275e-07 1.3266699e-08
0.009588078 -0.015288073 0.0042560147 0.021563375 0.001275357 3.100505e-05 2.0593272e-06 4.794359e-07
0.008960792 -0.013704603 0.005282893 0.023226662 0.0016599501 -0.00014769917 1.1492951e-06 2.4295286e-07
0.007646052 0.00047503397 0.0039562155 0.0161438 0.0012132064 -5.7706522e-05 1.6228628e-06 4.2859094e-07
-0.008148282 0.011795868 -0.004771476 -0.017506074 -0.0015949103 0.00015228485 -1.7805712e-06 -4.1198217e-07
-0.0123884315 0.014494821 -0.0067366892 -0.028221298 -0.002230694 0.00016612941 -2.562072e-06 -5.6085634e-07
0.008946086 -0.010013048 0.0040135407 0.015698863 0.0013048357 -5.2834548e-05 1.4372644e-06 3.263769e-07
0.0027087156 0.006899285 0.0009358982 0.01907395 0.00028444163 0.00018998176 1.7832153e-06 3.89061e-07
-0.009720998 0.00995118 -0.0041098124 -0.019505566 -0.0012579913 -7.036979e-05 -1.6941186e-06 -3.699846e-07
0.0100225145 0.015105289 0.004647211 0.01574023 0.0016578949 -0.00018724897 1.6476073e-06 4.2995808e-07
