HFDRL_UNIT8/models/Archived/LunarLander-v3__ppo__1__1768735947__u240.pt (torch, 44753 bytes, 11 tensors)

critic.0.weight f4 [64, 8]
0	0xbe044ac4	-0.12919146
1	0x3e81ca1b	0.25349507
2	0x3d0f6299	0.03500614
3	0x3e2a661e	0.16640517
4	0xbda90e1c	-0.08254644
5	0x3def5faf	0.11688172
6	0xbee44110	-0.4458089
7	0x3e1bfabf	0.15232371
8	0xbdec76db	-0.115461074
9	0x3ec634c8	0.38712144
10	0x3e5b35ba	0.21407214
11	0x3e3880a3	0.18017821
12	0xbec12040	-0.37719917
13	0xbf09b929	-0.53798157
14	0xbde4b762	-0.1116779
15	0x3c571a53	0.013128835
16	0x3cea481b	0.028598836
17	0xbe9a9b82	-0.30196768
18	0x3dfd51ad	0.12369094
19	0x3dda4b7c	0.10658929
20	0x3c58654e	0.013207747
21	0x3e2f404d	0.17114373
22	0x3eef3f98	0.46728206
23	0x3f56e468	0.8394227
24	0xbe4a6d42	-0.19768241
25	0x3e62bc22	0.2214208
26	0xbd38b65b	-0.045095783
27	0xbf11c29d	-0.5693758
28	0x3e87479d	0.26421824
29	0xbd0b6a06	-0.03403666
30	0xbf124055	-0.5712941
31	0xbf09104d	-0.535405
32	0x3e7ae6c1	0.24502088
33	0xbe7a0675	-0.24416526
34	0x3f685a2c	0.9076259
35	0x3cb29b79	0.02180265
36	0x3ee8e864	0.454898
37	0x3d5e4247	0.054262426
38	0x3e4a9946	0.19785032
39	0xbf0661cd	-0.5249298
40	0x3e4e9d60	0.20177221
41	0xbebfa8c3	-0.37433442
42	0x3da86cf6	0.08223908
43	0xbf0b50a4	-0.5441992
44	0x3e294bc9	0.16532816
45	0x3f27c562	0.6553556
46	0x3e3f91c3	0.18707947
47	0xbe5c8893	-0.21536474
48	0xbf1bfccd	-0.6093262
49	0xbeb4fc9b	-0.35348973
50	0xbdf08091	-0.11743272
51	0x3e171b30	0.14756465
52	0xbd093c18	-0.033504575
53	0xbe6ad070	-0.22931075
54	0x3f263063	0.6491758
55	0x3e881f46	0.2658636
56	0xbe11aca0	-0.14226007
57	0x3f31e3e7	0.69488376
58	0x3da99216	0.08279817
59	0x3eed78c2	0.46381193
60	0xbe15608e	-0.14587614
61	0xbdb01c83	-0.08599188
62	0x3dc82148	0.09771973
63	0x3f160422	0.58600056
64	0x3cc3af00	0.023887157
65	0xbd1a2c27	-0.037639763
66	0x3f1ee600	0.620697
67	0xbe6b7c4d	-0.22996636
68	0x3f17dbbf	0.5931968
69	0xbe5d2fb2	-0.21600226
70	0x3db07ce3	0.0861757
71	0xbe5e44f3	-0.2170599
72	0xbe0aa64c	-0.1354
73	0x3ebf3355	0.3734385
74	0x3e74005c	0.23828262
75	0x3dd3be5a	0.10339041
76	0x3ddcfafe	0.107900605
77	0x3d430160	0.047608733
78	0x3e93a049	0.28833225
79	0x3f34ccd7	0.7062506
80	0xbd9c0d8d	-0.07619772
81	0xbef91986	-0.48652285
82	0x3de57f5c	0.112059325
83	0x3e8994c4	0.26871312
84	0x3e21204a	0.15734974
85	0x3f2b1421	0.6682759
86	0x3ec047ee	0.37554878
87	0xbe12992d	-0.14316244
88	0xbd874a8e	-0.06606017
89	0x3ed6e1c6	0.41969126
90	0x3b45edba	0.003020151
91	0x3e25c387	0.16187869
92	0xbda5e897	-0.081010036
93	0xbd17bdbe	-0.037046187
94	0xbf0b516c	-0.54421115
95	0x3ca1ed22	0.019766394
96	0xbd6bb4cf	-0.05754548
97	0x3eedade3	0.46421728
98	0x3d8dea1e	0.0692942
99	0x3e3d6ea9	0.18499245
100	0xbe8faf2f	-0.28063342
101	0xbeacddad	-0.33762875
102	0xbebb6900	-0.36603546
103	0x3e422467	0.18959199
104	0xbdb5de80	-0.08880329
105	0xbe8469a4	-0.25861847
106	0x3e34804e	0.1762707
107	0x3eade6c0	0.3396511
108	0xbb1f42a8	-0.0024301205
109	0x3ce7d547	0.02829994
110	0x3da682b7	0.08130401
111	0x3eea7ff0	0.45800734
112	0xbdd8ac70	-0.10579765
113	0xbe2c69a6	-0.16837177
114	0x3e308685	0.17238815
115	0x3e9eb76c	0.30999315
116	0x3e0ef22d	0.1395957
117	0xbdcf6248	-0.101261675
118	0x3e9bd101	0.30432895
119	0x3eee9418	0.46597362
120	0xbd1f8871	-0.03894848
121	0x3e6ed4a6	0.23323306
122	0xbe56bbb0	-0.20970035
123	0xbe942d24	-0.2894069
124	0xbb2b5c39	-0.0026147498
125	0x3e01c12e	0.12671348
126	0xbeae5eda	-0.3405674
127	0xbef1ebde	-0.47250265
128	0x3dff6466	0.12470321
129	0x3e4e4ffd	0.201477
130	0x3c017bf4	0.007903088
131	0xbe46a515	-0.19398911
132	0xbe7dc85c	-0.24783462
133	0xbe612ae7	-0.21989022
134	0xbe860881	-0.26178363
135	0x3e81a5e2	0.2532187
136	0x3a0cef28	0.0005376213
137	0x3e45350d	0.19258519
138	0x3f616720	0.8804798
139	0xbe2bea82	-0.16788676
140	0x3f1474bf	0.5799064
141	0xbf3ce6a2	-0.7378942
142	0xbe11e260	-0.14246511
143	0x3e089a4f	0.13340114
144	0xbf0cea6c	-0.550452
145	0xbe3dcf3d	-0.18536086
146	0xbcbbab01	-0.02290869
147	0xbe80b377	-0.2513692
148	0xbe2905ff	-0.16506194
149	0x3e0f7138	0.14008033
150	0x3ceb2ed3	0.028708851
151	0xbe2e1c2f	-0.17002939
152	0xbdc68690	-0.096936345
153	0x3eae739c	0.34072578
154	0xbd44a844	-0.048012033
155	0xbda549a5	-0.08070687
156	0x3d4480c8	0.047974378
157	0x3e1d695c	0.15372223
158	0xbf047dc5	-0.5175441
159	0xbecf86bb	-0.4053248
160	0x3e44ddf4	0.19225293
161	0xbe2fe461	-0.17176963
162	0x3e3938ed	0.18088122
163	0x3dffbbcb	0.124869905
164	0x3dba1e61	0.090878256
165	0xbc5154ae	-0.012776537
166	0x3e651cd5	0.2237428
167	0x3d7f1f2c	0.062285587
168	0x3e1a58e8	0.15072978
169	0x3dd57737	0.10423129
170	0xbe40366e	-0.18770763
171	0xbe8e0698	-0.27739406
172	0xbdd40573	-0.10352602
173	0x3e2f80ad	0.1713893
174	0xbe6a7156	-0.22894797
175	0xbea3c57a	-0.319866
176	0x3eb14aa3	0.34627256
177	0xbe39d2ab	-0.1814677
178	0x3e53a3a4	0.20667893
179	0xbceed877	-0.029155953
180	0xbdbb208f	-0.091370694
181	0x3e10b44b	0.14131276
182	0xbca19b0a	-0.019727249
183	0xbe9c354e	-0.30509418
184	0x3e44e51c	0.19228023
185	0x3e7176ef	0.23580526
186	0xbdecbfda	-0.1156003
187	0x3dfbbcda	0.1229188
188	0x3e2e6b5f	0.17033146
189	0x3b9d1767	0.0047940495
190	0x3d524a34	0.051340297
191	0xbf04213d	-0.5161322
192	0xbd9f4562	-0.077769056
193	0x3e1f2b46	0.15543851
194	0x3c856503	0.016283518
195	0xbe390026	-0.18066463
196	0xbaf4b4c8	-0.00186696
197	0xbe774365	-0.24146803
198	0xbf4e307f	-0.8054275
199	0xbec4df43	-0.38451585
200	0xbe96dfa4	-0.294675
201	0x3f01efd3	0.5075657
202	0xbe1131e1	-0.14179184
203	0x3ef128c2	0.47101408
204	0xbe4e70f7	-0.2016028
205	0xbf2edb70	-0.68303585
206	0xbe6f0d45	-0.23344906
207	0x3b6ccbe7	0.0036132277
208	0xbd52e536	-0.051488124
209	0xbdb4d43c	-0.08829543
210	0x3e27db80	0.16392326
211	0xbdb0d314	-0.0863401
212	0x3e711730	0.23544002
213	0xbec3fe36	-0.38279885
214	0x3c9276d7	0.017878933
215	0x3e93927f	0.28822705
216	0xbc4b9582	-0.012425782
217	0xbe78f4b6	-0.243121
218	0x3ccb9fc4	0.024856456
219	0x3c9e50f0	0.019325703
220	0xbe76d3ca	-0.24104229
221	0x3e19f96f	0.15036558
222	0x3e8239a2	0.25434595
223	0x3f0fdaa7	0.5619301
224	0x3e75ec7d	0.24015994
225	0x3e2b8bec	0.16752595
226	0xbe929860	-0.28631878
227	0xbd9646ce	-0.07337724
228	0xbdd9d5b7	-0.10636466
229	0x3d9d32e5	0.07675723
230	0xbf0103b0	-0.5039625
231	0xbee4424c	-0.4458183
232	0x3e4f5106	0.20245752
233	0x3ee551a7	0.44788858
234	0xbbdac712	-0.006676563
235	0x3ed18774	0.40923655
236	0xbe473483	-0.19453625
237	0xbcc41404	-0.023935325
238	0x3c5e8530	0.013581559
239	0xbec3ed28	-0.38266873
240	0xbe8a9c76	-0.27072495
241	0xbe891314	-0.26772368
242	0xbe04aab2	-0.1295574
243	0x3d456874	0.048195317
244	0x3ea2b317	0.3177726
245	0xbe8a9f7f	-0.2707481
246	0x3e3fcfd5	0.18731625
247	0x3f29aa80	0.6627579
248	0xbea57640	-0.3231678
249	0x3eec5910	0.461617
250	0x3c536132	0.012901591
251	0xbba8ef06	-0.005155447
252	0x3e0c3f05	0.13695915
253	0xbdb8f675	-0.09031383
254	0xbed8654f	-0.42264792
255	0xbe72aa59	-0.23697795

critic.0.bias f4 [64]
0	0xbe8a3b0a	-0.26998168
1	0xbe7bd591	-0.24593188
2	0x3e8582b3	0.26076278
3	0xbe4c62cc	-0.19959563
4	0xbebe1bc9	-0.37130573
5	0x3eb9ce4a	0.362902
6	0xbe04147a	-0.12898436
7	0x3e98e959	0.2986553
8	0xbeb6f84e	-0.35736316
9	0xbd4b9043	-0.049698126
10	0x3eb5f333	0.3553711
11	0xbe96467e	-0.29350656
12	0xbdef6dd8	-0.11690873
13	0x3e96d4ae	0.29459137
14	0x3e8af1f6	0.27137727
15	0xbe99e688	-0.30058694
16	0xbe0abc4d	-0.13548394
17	0x3ed610a1	0.41809562
18	0x3e85b23d	0.26112548
19	0xbe8621ee	-0.2619776
20	0x3e62626f	0.22107862
21	0xbe1c6039	-0.15271081
22	0x3e0bcaca	0.13651577
23	0xbe676b26	-0.22599468
24	0xbde420ab	-0.111390434
25	0xbe8baffe	-0.2728271
26	0x3e7a63e5	0.24452169
27	0x3e740c37	0.23832785
28	0xbe22d90e	-0.15903112
29	0xbe8821cc	-0.26588285
30	0x3e2cb640	0.16866398
31	0xbe879ec4	-0.26488316
32	0xbe8653c7	-0.26235792
33	0x3e48d028	0.19610655
34	0x3ea6a277	0.32545826
35	0x3e83efda	0.2576893
36	0x3e4ba05c	0.19885391
37	0xbe624c13	-0.22099333
38	0x3d355323	0.04426874
39	0x3e4b64fb	0.1986274
40	0xbed09746	-0.40740412
41	0x3e1a3022	0.15057424
42	0x3d691e68	0.056913763
43	0xbe5271de	-0.2055125
44	0x3c2cacb9	0.010539227
45	0xbe1551ba	-0.14581957
46	0x3e733b77	0.23753153
47	0xbe7529f4	-0.23941785
48	0xbe831663	-0.25603017
49	0xbe8b4139	-0.27198198
50	0xbe445726	-0.1917387
51	0x3ec12912	0.37726647
52	0xbe85dead	-0.2614645
53	0x3e8c8071	0.27441743
54	0x3e2aadaf	0.16667818
55	0x3e1e7168	0.15472949
56	0xbe98e974	-0.2986561
57	0x3e9607f7	0.29302952
58	0xbd68a334	-0.056796268
59	0xbdf097b3	-0.11747684
60	0x3e7b1fea	0.24523893
61	0x3e8cc8bb	0.27496895
62	0x3e2ebd74	0.17064458
63	0xbeb84bea	-0.35995418

critic.2.weight f4 [64, 64]
0	0x3f151e09	0.58248955
1	0xbeb6bdb5	-0.3569161
2	0xbedddfd5	-0.43334833
3	0x3ec810ef	0.3907542
4	0x3e168a21	0.1470113
5	0xbec8c826	-0.392152
6	0x3cc5a422	0.024126116
7	0xbee97f7d	-0.45605078
8	0x3e85f1bc	0.2616099
9	0x3e9a7477	0.3016698
10	0xbec989cb	-0.3936294
11	0x3e25c7db	0.1618952
12	0xbc2e2eef	-0.010631307
13	0xbf031881	-0.51209265
14	0xbf28404b	-0.65723103
15	0x3f15f839	0.5858188
16	0x3dde9917	0.10869043
17	0xbe9cfb5a	-0.30660516
18	0xbda95256	-0.082676575
19	0x3ed0de41	0.40794566
20	0xbec36483	-0.38162622
21	0x3e9b57a5	0.30340305
22	0x3d9dff6f	0.07714736
23	0x3eee9b10	0.46602678
24	0x3ed3b0d9	0.41345862
25	0x3e22ea3c	0.15909666
26	0xbd2aacef	-0.04166883
27	0xbec8cb05	-0.39217392
28	0x3e84c2e7	0.2592995
29	0x3e866785	0.26250854
30	0xbe9020de	-0.28150076
31	0x3e87a814	0.2649542
32	0x3e70da94	0.23520881
33	0xbde66da6	-0.112513825
34	0x3de68fc5	0.112578906
35	0xbe05f8fc	-0.13083261
36	0xbee89ecb	-0.4543365
37	0xbe3f1461	-0.18660118
38	0xbe19acc6	-0.15007314
39	0xbf58286c	-0.8443668
40	0x3effb71b	0.49944386
41	0xbe74897e	-0.23880574
42	0xbdaf44d6	-0.08558051
43	0xbd974acb	-0.073873125
44	0xbe8018d5	-0.25018945
45	0x3e973ce1	0.29538634
46	0x3eb3e585	0.35136047
47	0x3f14c745	0.5811656
48	0x3e9481b8	0.29005218
49	0x3f0c9a1b	0.54922646
50	0xbda20140	-0.07910395
51	0x3b797f63	0.0038070313
52	0x3ea6d8e8	0.3258736
53	0xbe8fd40d	-0.2809147
54	0xbda19f7b	-0.078917466
55	0x3c8bc040	0.017059445
56	0x3e779101	0.24176408
57	0xbedfef87	-0.43737432
58	0x3dc3e97c	0.09566018
59	0x3e687f12	0.22704723
60	0xbe1722aa	-0.14759317
61	0xbda15a7a	-0.07878585
62	0xbea7b2cd	-0.32753602
63	0x3e57b5e5	0.21065481
64	0x3f1af414	0.60528684
65	0x3ea3ea23	0.3201457
66	0xbe9b7b6c	-0.303676
67	0x3e51047a	0.20411864
68	0x3daaa159	0.08331556
69	0xbef67826	-0.4813854
70	0xbde7a04c	-0.11309871
71	0xbe936315	-0.2878653
72	0x3e6bcd3d	0.23027511
73	0xbe6b45e3	-0.22975878
74	0xbe6a9ef6	-0.22912201
75	0x3e23bb28	0.15989363
76	0x3f05ff92	0.52343094
77	0xbd121516	-0.03566464
78	0xbf015006	-0.5051273
79	0x3f19ee88	0.60129595
80	0x3d321d01	0.04348469
81	0xbeb5fb15	-0.35543123
82	0x3e73e467	0.23817597
83	0x3e175728	0.14779341
84	0xbdf7e274	-0.121037394
85	0x3e926775	0.28594556
86	0xbdaa9164	-0.08328512
87	0x3ed35a55	0.41279855
88	0x3dfff9b7	0.12498801
89	0x3e868964	0.26276696
90	0xbe9b1704	-0.30290997
91	0xbeeaf424	-0.4588939
92	0x3ef544d7	0.47904083
93	0x3ef1d068	0.47229314
94	0xbee21983	-0.4416009
95	0x3ec2fbe5	0.38082805
96	0x3efac0e2	0.48975283
97	0xbe89ae49	-0.26890782
98	0xbdd6486f	-0.10463034
99	0xbe1ee3a1	-0.15516521
100	0xbe123ac0	-0.14280224
101	0xbda8056e	-0.08204161
102	0xbe671e14	-0.22570068
103	0xbda328c6	-0.07966761
104	0x3eb5c0d5	0.35498682
105	0xbd642b10	-0.05570513
106	0x3d2255ac	0.039632484
107	0xbde62e1f	-0.11239266
108	0x3d8eda5e	0.06975244
109	0x3eaff02a	0.34362918
110	0x3f0cf45d	0.5506037
111	0x3e4fa5a1	0.20278026
112	0x3f1cabf5	0.61199886
113	0x3e4cef0a	0.20013061
114	0xbd0273e4	-0.031848803
115	0x3da86c0e	0.08223735
116	0x3e61f299	0.220652
117	0xbe8df843	-0.2772847
118	0xbe1d7401	-0.15376283
119	0xbe802a31	-0.2503219
120	0x3ec457c4	0.3834821
121	0xbf10f0f1	-0.5661765
122	0x3e2f2304	0.17103201
123	0x3ee262db	0.44216046
124	0xbe4d8635	-0.20070727
125	0xbe93c18e	-0.28858608
126	0xbebf6973	-0.3738514
127	0x3d5bd3aa	0.053668655
128	0xbf12c9e5	-0.57339317
129	0xbdf50b90	-0.11965096
130	0x3f0e5f75	0.55614406
131	0xbe58f1f1	-0.21186043
132	0x3e1df54c	0.15425605
133	0x3ea14495	0.31497636
134	0x3df36d23	0.118860506
135	0x3ea66709	0.32500485
136	0xbefb97cf	-0.49139258
137	0x3eb5f1ec	0.35536134
138	0x3d8f667c	0.07001969
139	0xbf04628c	-0.5171287
140	0xbe16c44d	-0.1472332
141	0x3f1d6116	0.61476266
142	0x3f0af76f	0.54283804
143	0xbf33151a	-0.69954073
144	0xbec999cc	-0.3937515
145	0x3e18ba70	0.1491487
146	0x3daa85c9	0.08326299
147	0xbed398f3	-0.41327628
148	0x3e746088	0.23864949
149	0xbe2be078	-0.16784847
150	0x3d66c122	0.05633653
151	0xbea0d9a5	-0.3141605
152	0xbeb76331	-0.35817865
153	0xbdc520a7	-0.096253686
154	0x3f254ac9	0.6456724
155	0x3f278a14	0.65445065
156	0xbd96c3d8	-0.07361573
157	0xbf102752	-0.5631
158	0xbce8c80b	-0.0284157
159	0xbf1290ee	-0.57252395
160	0xbd343495	-0.04399546
161	0x3e97dfc0	0.29662895
162	0x3cb0410e	0.021515395
163	0x3e2afeaf	0.16698717
164	0x3d63ff53	0.055663418
165	0xbe408ea3	-0.18804412
166	0x3b78346a	0.0037873038
167	0x3f0129b2	0.50454247
168	0xbe2b9b0d	-0.16758366
169	0xbe9f6f7f	-0.31139752
170	0x3ea56146	0.32300776
171	0x3d86296b	0.065508686
172	0x3c633a52	0.013868885
173	0xbee794e2	-0.45230776
174	0x3cdb37c0	0.026759982
175	0xbe8918b4	-0.2677666
176	0xbe10c2af	-0.14136766
177	0xbed5f56b	-0.41788802
178	0x3dd4ce2c	0.10390887
179	0x3c78a379	0.015175694
180	0xbef40184	-0.47657406
181	0x3eb992fb	0.3624495
182	0x3dd86325	0.10565785
183	0x3b791fe8	0.0038013402
184	0xbeb56bf6	-0.3543393
185	0x3eb592c0	0.35463524
186	0x3d68191e	0.05666458
187	0xbee94f38	-0.45568252
188	0x3ed7ea65	0.42171016
189	0x3ecbbc32	0.3979202
190	0x3caa703c	0.02080547
191	0xbe347014	-0.1762088
192	0x3f509a5c	0.81485534
193	0x3ee4c808	0.44683862
194	0xbf07e47a	-0.53083
195	0x3f022d50	0.5085039
196	0x3e0e9aee	0.13926288
197	0xbf04f72d	-0.5193966
198	0xbf2f7723	-0.68541163
199	0xbe50bcfb	-0.2038459
200	0x3eb7b767	0.35882112
201	0x3d9ad35c	0.07559845
202	0xbe3fd98f	-0.18735336
203	0x3ea11b63	0.31466207
204	0x3d4ea720	0.05045235
205	0xbe545332	-0.20734861
206	0xbf0fd4e7	-0.5618424
207	0x3f365467	0.7122254
208	0x3d539c25	0.051662583
209	0xbe5436cf	-0.20724033
210	0xbe552f21	-0.2081876
211	0x3efa6b78	0.48910117
212	0xbf1e998e	-0.61953056
213	0x3ed20940	0.41022682
214	0x3e37f062	0.17962793
215	0x3f23af9e	0.63939846
216	0x3a2b3e09	0.0006532376
217	0x3d888305	0.06665615
218	0xbf1b0000	-0.60546875
219	0xbf2d2a3a	-0.6764256
220	0x3e870893	0.2637373
221	0xbe5a1966	-0.21298751
222	0xbe2ac287	-0.16675769
223	0x3ec881d3	0.39161548
224	0x3eb68b29	0.35653046
225	0xbe1bb8b6	-0.1520718
226	0xbdfa50d5	-0.12222449
227	0xbe50d925	-0.20395334
228	0xbe9f0827	-0.31060907
229	0xbe6bf1ce	-0.2304146
230	0x3d3f21e0	0.046663165
231	0xbee8ecf9	-0.45493296
232	0x3ef1d80a	0.47235137
233	0xbd846f09	-0.06466491
234	0x3c046ce7	0.008082605
235	0x3ddd6019	0.10809345
236	0xbe1ee754	-0.15517932
237	0x3f19f909	0.6014562
238	0x3e336340	0.1751833
239	0x3eda8cfe	0.42685694
240	0x3f02a879	0.5103832
241	0x3f10748e	0.5642785
242	0xbe7ed038	-0.24884117
243	0xbdfc2ed2	-0.12313618
244	0x3f0eb522	0.55745137
245	0xbeb38439	-0.35061815
246	0xbe3e0355	-0.18555959
247	0xbee65e1c	-0.44993675
248	0x3e53c37c	0.2068004
249	0xbf11954a	-0.5686842
250	0x3e0c1595	0.13680108
251	0x3ee649fb	0.44978318
252	0xbf2b9dca	-0.6703764
253	0xbf2e5331	-0.6809569
254	0xbe9c8f18	-0.30577922
255	0x3e39dbc1	0.18150236

critic.2.bias f4 [64]
0	0xbe7dcb8f	-0.24784683
1	0xbe2c1b0f	-0.16807197
2	0x3e7f0a56	0.24906287
3	0xbe97ab26	-0.29622763
4	0xbe6a40e9	-0.22876324
5	0xbe243809	-0.16037
6	0x3e9ce316	0.30642003
7	0xbb2aa690	-0.002603922
8	0x3d8b8e2a	0.06814225
9	0x3ea78218	0.3271644
10	0xbcbf4f8f	-0.023353366
11	0xbe8720fd	-0.26392356
12	0xbe994247	-0.29933378
13	0xbe16a304	-0.14710623
14	0x3e302d84	0.17204863
15	0x3e9f8667	0.31157228
16	0xbe7a0ce5	-0.24418981
17	0xbd9deece	-0.07711564
18	0xbddd29ee	-0.10799013
19	0x3e891c47	0.26779386
20	0xbcf9962a	-0.030467112
21	0x3e95bf1f	0.29247376
22	0xbe12359c	-0.14278263
23	0xbe9eb31d	-0.30996028
24	0x3e405fcf	0.18786548
25	0x3cd9427b	0.026520958
26	0x3e822e8b	0.25426134
27	0x3d9ea15d	0.07745621
28	0x3cf94f8d	0.03043344
29	0x3d531dc1	0.051542047
30	0x3e696f19	0.22796287
31	0xbd3c8472	-0.046024747
32	0xbe455f0f	-0.19274543
33	0x3ea16171	0.31519654
34	0x3d4a7a66	0.049433134
35	0xbd9362ce	-0.0719658
36	0x3d41ca2d	0.04731195
37	0x3e3bc647	0.18337356
38	0xbe30c422	-0.17262319
39	0xbd60bad0	-0.05486566
40	0xbeaa3daf	-0.33250186
41	0x3e412d9b	0.18865053
42	0x3e7636c8	0.24044335
43	0xbe150ccf	-0.14555667
44	0x3eb70729	0.3574765
45	0x3e5c3efb	0.215084
46	0x3dbb5da7	0.09148722
47	0x3e1ed5fd	0.15511318
48	0x3dec6396	0.11542432
49	0x3edb4cd9	0.42832068
50	0x3e845fcf	0.25854346
51	0xbe11a109	-0.14221586
52	0x3d99ed0a	0.07515915
53	0x3e934927	0.28766748
54	0xbd001f1c	-0.03127967
55	0x3e06784b	0.13131826
56	0x3d8c78bd	0.068589665
57	0xbe7e9b32	-0.2486389
58	0x3e7ac2f8	0.24488437
59	0x3dbb7556	0.091532394
60	0xbc516d53	-0.012782413
61	0x3ec5744b	0.38565287
62	0x3e7fb1de	0.24970195
63	0x3ca66b3a	0.020314801

critic.4.weight f4 [1, 64]
0	0x3ed92dee	0.42417854
1	0x3eb489e1	0.35261443
2	0xbeb44459	-0.35208395
3	0x3ed8ff7b	0.42382416
4	0x3e9d3b89	0.30709484
5	0x3f0d40c5	0.55176955
6	0xbef26b0c	-0.47347295
7	0x3ea0f25e	0.3143491
8	0x3e9b6314	0.30349028
9	0xbee31679	-0.44353083
10	0x3f022029	0.5083032
11	0x3ed06cb2	0.40707928
12	0x3eef2f2f	0.46715686
13	0x3ea469f3	0.32112083
14	0x3f11586b	0.5677554
15	0xbed3e96d	-0.41389027
16	0x3ed37678	0.41301322
17	0x3efc4d46	0.49277705
18	0x3ec74c1a	0.38925248
19	0xbec1babd	-0.37837783
20	0x3f01abf5	0.5065301
21	0xbea6020d	-0.3242344
22	0x3e93eef4	0.28893244
23	0x3ed30684	0.4121591
24	0xbecd6ae4	-0.40120614
25	0xbf13b333	-0.5769531
26	0xbf0c8ef5	-0.54905635
27	0xbf30a3bc	-0.6899984
28	0xbed85720	-0.4225397
29	0x3e7063e8	0.23475611
30	0xbf04752c	-0.5174129
31	0x3ec71e7b	0.38890442
32	0x3f145717	0.5794539
33	0xbef01a9a	-0.46895295
34	0xbe7a54a6	-0.24446353
35	0x3ee63799	0.44964293
36	0xbf0640f9	-0.5244289
37	0xbf161d1e	-0.5863818
38	0x3ee95525	0.45572773
39	0x3ec1b7a6	0.37835425
40	0x3ec8234f	0.39089438
41	0x3eebf299	0.46083525
42	0xbec254e5	-0.37955394
43	0x3eeb9ec0	0.46019554
44	0x3f1b7da8	0.6073861
45	0x3f2e8e48	0.68185854
46	0xbf074376	-0.5283731
47	0x3f2a569b	0.665384
48	0x3ee45c17	0.4460151
49	0xbeadae24	-0.3392192
50	0xbeeb354c	-0.459391
51	0xbf068e4f	-0.52560896
52	0xbedf426a	-0.43605357
53	0xbed3fe92	-0.4140516
54	0x3f052fb2	0.520259
55	0xbf04ad9d	-0.5182741
56	0xbeea6982	-0.4578362
57	0x3efacd89	0.48984936
58	0xbeb32bc9	-0.34994343
59	0xbef6c4e9	-0.48197106
60	0x3ec9245a	0.39285547
61	0xbef123b4	-0.47097552
62	0xbf192f51	-0.59837824
63	0xbf4c66ac	-0.79844165

actor.0.weight f4 [64, 8]
0	0xbd6ec005	-0.058288593
1	0x3c9bbb08	0.019010082
2	0x3e3c35c3	0.18379883
3	0xbdfb7a09	-0.12279136
4	0xbf52e308	-0.8237767
5	0xbe3e8dc3	-0.18608765
6	0x3dba31e7	0.09091549
7	0x3e351863	0.17685084
8	0xbe672e4d	-0.22576256
9	0x3e00e9b9	0.12589158
10	0xbd816679	-0.06318373
11	0x3f3617af	0.7112989
12	0x3e6609fd	0.22464748
13	0xbddbe5e4	-0.107372075
14	0xbe4ad919	-0.19809379
15	0x3e509174	0.20367986
16	0x3bd0e63c	0.0063751023
17	0xbe9bd987	-0.30439398
18	0xbd3e24e7	-0.04642191
19	0xbf29e7f0	-0.66369534
20	0x3ec6830f	0.38771865
21	0x3acc37a0	0.0015580542
22	0xbe7bcf07	-0.24590693
23	0xbe86f5a3	-0.2635928
24	0xbd982034	-0.07428017
25	0xbc4b3b42	-0.012404265
26	0xbe48c175	-0.19605048
27	0x3c945cc7	0.018110646
28	0x3f1dd60a	0.6165472
29	0xbda82dcf	-0.08211862
30	0xbe4c355d	-0.19942231
31	0xbe46bd33	-0.19408111
32	0x3e0392de	0.12848994
33	0xbd56edfd	-0.052473057
34	0xbdb155e1	-0.08658958
35	0xbe27e69b	-0.16396563
36	0x3ee657cb	0.44988856
37	0x3e395966	0.18100509
38	0x3e64ce69	0.22344364
39	0xbe8ba274	-0.2727238
40	0xbdcd2eaa	-0.10018666
41	0xbe7e93e9	-0.24861111
42	0x3d3bbc31	0.04583377
43	0x3eeffc28	0.46872067
44	0xbef7147a	-0.4825781
45	0x3c9e01eb	0.019288024
46	0xba40458b	-0.00073345815
47	0x3d7e1806	0.06203463
48	0xbe8b792e	-0.2724089
49	0x3d87de24	0.06634167
50	0xbe02da6c	-0.12778634
51	0x3e0b690c	0.13614291
52	0x3e139705	0.14413078
53	0x3dcdc62e	0.100475654
54	0x3dbec18d	0.09314261
55	0xbe8ce3dd	-0.27517596
56	0xbde24a22	-0.11049296
57	0xbe48a994	-0.19595939
58	0x3e601c0f	0.21885704
59	0x3efd56f1	0.49480394
60	0xbf5503e2	-0.8320905
61	0xbf02eaf7	-0.5113978
62	0x3d9b4b06	0.07582669
63	0x3e0597ba	0.1304616
64	0xbe535244	-0.2063685
65	0x3e1104ca	0.14161983
66	0xbee90e28	-0.45518613
67	0xbee3137d	-0.44350806
68	0x3f0fd90e	0.56190574
69	0x3eac0a83	0.3360177
70	0xbf0a4d1a	-0.540239
71	0x3dde0853	0.108414315
72	0xbe03d597	-0.12874447
73	0x3d29391b	0.041314226
74	0xbc4e00b9	-0.0125734145
75	0x3e857086	0.2606241
76	0xbf0fe5f3	-0.5621025
77	0xbecfdf50	-0.4060006
78	0xbe02050b	-0.12697236
79	0x3e0238d7	0.12716995
80	0xbd4c84a3	-0.04993118
81	0x3d1080da	0.035279132
82	0xbd44464d	-0.047918607
83	0xbe989360	-0.29799938
84	0xbf0c2c6c	-0.5475528
85	0x3d1c8eff	0.03822231
86	0x3e93bb3e	0.28853792
87	0x3dd59a4b	0.1042982
88	0x3cbf110b	0.023323556
89	0xbdb3db5e	-0.08782075
90	0xb9984db6	-0.00029049598
91	0x3d0ee579	0.03488681
92	0xbf2f4663	-0.68466777
93	0xbe931416	-0.28726262
94	0x3e2301d0	0.1591866
95	0xbe4abd4b	-0.19798772
96	0xbe40bfb2	-0.18823126
97	0xbe030786	-0.12795839
98	0xbe5b308d	-0.2140524
99	0xbebea853	-0.37237796
100	0x3eee7c89	0.46579388
101	0x3ed57864	0.41693413
102	0x3cbe6a80	0.023244143
103	0xbe01ab22	-0.12662938
104	0xbe808967	-0.2510483
105	0x3ead777f	0.3388023
106	0x3db33a33	0.08751335
107	0x3b979cb6	0.0046268357
108	0xbcaa9e87	-0.020827545
109	0xbda74b01	-0.08168603
110	0x3e2a2a72	0.16617754
111	0x3d3bbd8e	0.04583507
112	0xbe02490b	-0.12723176
113	0xbe5716ea	-0.21004835
114	0x3ebcf77a	0.3690756
115	0xbf130c9f	-0.57441133
116	0xbec2c9d9	-0.38044623
117	0xbd0cf1c5	-0.034410257
118	0x3dd33731	0.10313261
119	0xbba37398	-0.004988145
120	0xbe2b2ccb	-0.16716306
121	0x3da0a042	0.07843067
122	0x3d318da4	0.04334797
123	0xbe7f06e6	-0.24904975
124	0xbeeff62b	-0.468675
125	0xbdfe4223	-0.12414958
126	0xbd414a34	-0.047189906
127	0x3d86e64d	0.06586895
128	0xbe911f72	-0.28344303
129	0xbd150926	-0.036385678
130	0x3e0479c4	0.12937075
131	0x3f1e78fa	0.61903346
132	0xbec305b0	-0.38090277
133	0xbeca2b53	-0.3948618
134	0xbd9d741b	-0.07688161
135	0x3d99fe35	0.07519189
136	0x3e2633f7	0.1623076
137	0x3d6d87c5	0.057990808
138	0xbe34561e	-0.17610976
139	0xbed31813	-0.41229305
140	0x3cd6b4a6	0.026209187
141	0x3c89ffcd	0.016845608
142	0x3e856219	0.26051405
143	0xbe74c16a	-0.23901907
144	0x3d2d647a	0.04233215
145	0x3dc85215	0.09781281
146	0xbe8a60df	-0.27027032
147	0x3e39e1a9	0.18152489
148	0x3ef9cdb5	0.48789755
149	0x3e16ea9b	0.14737932
150	0xbc96b5ab	-0.018397173
151	0x3d4e6ed8	0.050398678
152	0x3e0b1e04	0.13585669
153	0xbcdfcbf3	-0.02731893
154	0x3e3383eb	0.17530791
155	0xbd9493f1	-0.0725478
156	0xbf3ef558	-0.74593115
157	0xbebdf2fa	-0.3709944
158	0xbe87eeb2	-0.26549298
159	0xbe1f74b1	-0.15571858
160	0xbccd2290	-0.025040895
161	0xbe227cb7	-0.15867887
162	0xbe25b1db	-0.16181128
163	0xbde2f74a	-0.11082323
164	0x3e3604d2	0.17775276
165	0x3e5f6de6	0.21819267
166	0x3db52036	0.088440344
167	0x3e32f890	0.17477632
168	0x3dc14fb6	0.09439032
169	0x3cc64305	0.02420188
170	0x3d8dd7a7	0.06925898
171	0x3e7d80c5	0.24756153
172	0xbf25b927	-0.64735645
173	0xbecc798b	-0.3993648
174	0x3d1138c5	0.03545453
175	0x3d7c6b52	0.061625786
176	0x3ce07345	0.027398715
177	0x3e36a640	0.17836857
178	0xbe162244	-0.14661509
179	0x3f348e0a	0.70529234
180	0x3f10bfe9	0.5654283
181	0x3e93a6ff	0.28838345
182	0x3ca0cbce	0.019628432
183	0x3c33aa7d	0.010965941
184	0x3e8a66c4	0.2703153
185	0x3e2a1027	0.16607724
186	0x3e694495	0.22780068
187	0xbf00d7f1	-0.503295
188	0x3f2cf054	0.6755421
189	0x3e6d843d	0.23194976
190	0xbe6321d0	-0.22180867
191	0xba6099de	-0.000856785
192	0xbe9449c4	-0.2896253
193	0x3d87820f	0.066166036
194	0xbe06c1f9	-0.13159932
195	0x3edac4be	0.42728227
196	0xbe907336	-0.282129
197	0xbe99c77d	-0.3003501
198	0xbd416c96	-0.047222696
199	0x3d8a4b07	0.067525916
200	0xbcfbe8ef	-0.03075072
201	0x3d530653	0.051519703
202	0xbdee2e64	-0.11629942
203	0xbf0f5c84	-0.5600054
204	0x3da4835d	0.08032868
205	0x3e9f1060	0.3106718
206	0xbd9c571f	-0.076338045
207	0x3d2241a6	0.03961339
208	0x3d9b5acd	0.07585678
209	0x3c9cac99	0.01912527
210	0x3f07ae54	0.5300038
211	0x3e398e47	0.18120681
212	0xbedbe77f	-0.42950055
213	0xbce024b4	-0.027361251
214	0xbe5a2a13	-0.21305113
215	0x3e771283	0.24128155
216	0x3dd86f3a	0.1056809
217	0xbe2ce2eb	-0.16883437
218	0xbd694a01	-0.05695534
219	0xbeecc754	-0.46245825
220	0x3f2c864f	0.6739244
221	0x3efc089d	0.4922532
222	0x3dd33849	0.1031347
223	0x3dd67453	0.10471406
224	0x3c94ff67	0.018188192
225	0xbe7bc534	-0.24586946
226	0xbd5ce25d	-0.053926814
227	0xbe80e843	-0.25177202
228	0x3f465833	0.7747833
229	0x3cada630	0.021197408
230	0xbe1f33ec	-0.1554715
231	0xbc925fb1	-0.017867895
232	0x3de6a64a	0.11262186
233	0xbdb88348	-0.09009415
234	0x3b450a8e	0.0030066106
235	0xbf5bcca7	-0.8585915
236	0xbe8dd2e9	-0.27699974
237	0xbf104e5e	-0.5636958
238	0x3b742726	0.003725478
239	0xbe015c7c	-0.12632936
240	0xbda8347f	-0.08213138
241	0xbc39f637	-0.011350206
242	0xbcc86c2d	-0.024465645
243	0x3f1af1f6	0.60525453
244	0x3f0fd0dc	0.5617807
245	0x3e1aae30	0.1510551
246	0xbdb20d24	-0.086939126
247	0xbc8df1b6	-0.01732717
248	0x3dcc4947	0.09974914
249	0x3c737dc3	0.014861527
250	0xbca56fa7	-0.020194842
251	0x3ef3eff5	0.4764401
252	0x3e9c13e9	0.3048394
253	0xbc829410	-0.015939742
254	0xbdecc776	-0.11561482
255	0xbe399faf	-0.1812732

actor.0.bias f4 [64]
0	0x3b6e74a6	0.0036385446
1	0x3bc29e07	0.0059392485
2	0x3d263195	0.04057463
3	0xbba336a5	-0.0049808794
4	0xbb95ce7b	-0.0045717335
5	0xbbed8ac5	-0.0072492086
6	0x3cb7e9df	0.022450386
7	0x3d482a7c	0.04886864
8	0xbd416a22	-0.047220357
9	0x3d6d3776	0.05791422
10	0xbcaad741	-0.020854594
11	0x3c692254	0.014229376
12	0x3af4ba5f	0.0018671266
13	0x3b9013c0	0.0043968856
14	0x3d323d2a	0.04351536
15	0xbd0724f1	-0.032994214
16	0x3c0e3036	0.008678487
17	0xbcffc8a9	-0.031223612
18	0x3b248cd1	0.0025108347
19	0xbb8bf7d2	-0.004271486
20	0x3cc0262d	0.023455704
21	0xbc748183	-0.014923456
22	0xbd3ec6bd	-0.04657625
23	0xbbe5b72c	-0.007010361
24	0x3cd099b8	0.025463924
25	0x3c9cb037	0.019126995
26	0x3b4f4477	0.0031626502
27	0x3d21b6fd	0.03948115
28	0x3d138425	0.036014695
29	0x3bfe411b	0.007759226
30	0xbcf10179	-0.029419648
31	0xbbfa4591	-0.0076376875
32	0x3ba8a2b4	0.005146349
33	0x3c55b61c	0.013043907
34	0x3c4a0691	0.012330667
35	0xbd32a204	-0.04361154
36	0x3c714998	0.014727019
37	0x3c409f68	0.011756755
38	0xbc47f272	-0.0122038
39	0xb9d08c2b	-0.00039777285
40	0xbca9d552	-0.020731602
41	0xbc069271	-0.008213625
42	0x3c01e981	0.007929207
43	0xbc5020a2	-0.012703093
44	0xbca40c11	-0.020025285
45	0xbc2cfdb7	-0.010558537
46	0xbbfc1146	-0.007692489
47	0x3b94383e	0.004523306
48	0x3caaace9	0.020834403
49	0xbc8010da	-0.015633035
50	0xbc585042	-0.013202729
51	0xbcd44a76	-0.025914412
52	0x3c119378	0.008885257
53	0x3c558c1b	0.013033892
54	0xbbea1caa	-0.0071445303
55	0xbba02906	-0.004887703
56	0xbd69ff8f	-0.057128485
57	0xbc500412	-0.012696283
58	0x3bc6f523	0.006071703
59	0xbcd59134	-0.026070215
60	0x3c38bb7f	0.011275171
61	0x3bbc50ac	0.0057469215
62	0x3c8d70c9	0.017265694
63	0xbd1e9435	-0.03871556

actor.2.weight f4 [64, 64]
0	0x3eb639f7	0.355911
1	0xbe073b2a	-0.13206163
2	0x3e8fca3f	0.2808399
3	0xbee90125	-0.45508686
4	0x3dc3b190	0.09555352
5	0x3e308f26	0.17242107
6	0xbe90cc7f	-0.28281018
7	0x3e46bff6	0.19409165
8	0x3d2fefbf	0.04295325
9	0xbe528ed7	-0.20562302
10	0x3e841464	0.25796807
11	0x3e9df96a	0.3085435
12	0x3d309ae9	0.043116484
13	0x3d4b3da1	0.04961932
14	0x3d5a157f	0.053243157
15	0x3e7cb1b3	0.24677162
16	0x3e5468ed	0.20743151
17	0x3ea15fc0	0.31518364
18	0xbd17e736	-0.037085734
19	0x3ee06e13	0.4383398
20	0xbd7af3bd	-0.061267603
21	0x3e4823d6	0.1954492
22	0xbe512085	-0.20422561
23	0xbd8197ba	-0.06327768
24	0x3d9d0613	0.07667174
25	0xbc31eb6e	-0.0108593535
26	0x3dfe2e51	0.12411178
27	0x3e26e130	0.1629684
28	0xbe23027e	-0.1591892
29	0x3f0a33a9	0.5398508
30	0xbed8120f	-0.42201278
31	0xbf0f2508	-0.5591588
32	0x3e8dba67	0.27681276
33	0x3e36d29a	0.17853776
34	0xbb597c6d	-0.0033185736
35	0x3e9709a2	0.29499537
36	0x3e99fc76	0.30075425
37	0x3dd99cf7	0.10625642
38	0x3ebb1f26	0.36547202
39	0x3ddeda44	0.108814746
40	0x3f247501	0.64241034
41	0xbe2dadf3	-0.16960888
42	0xbe55ea50	-0.20890164
43	0x3e55e6f2	0.2088888
44	0x3e9352c6	0.2877409
45	0x3e09e65b	0.1346678
46	0xbe0a2cc1	-0.13493635
47	0xbdc2e8ca	-0.09517057
48	0x3bb30288	0.0054629482
49	0x3dde1e7d	0.10845659
50	0xbe26106b	-0.162172
51	0xbe12c0ea	-0.14331403
52	0x3c9f7b2a	0.019467909
53	0x3ea36903	0.31916055
54	0x3e9c106b	0.30481276
55	0xbe49d1f2	-0.19708994
56	0xbd815876	-0.06315701
57	0x3e86048e	0.2617535
58	0x3d02ce87	0.03193524
59	0x3e51063d	0.20412536
60	0x3e87eb5e	0.26546758
61	0xbf236b09	-0.638352
62	0x3ecd89b0	0.4014411
63	0xbe71462e	-0.23561928
64	0xbe602c8b	-0.21891992
65	0xbd1e4910	-0.038643897
66	0x3e325d1f	0.17418335
67	0x3ec7f1d2	0.39051682
68	0x3e653a72	0.22385576
69	0xbe286c63	-0.16447596
70	0x3cc51135	0.024056057
71	0xbefa73d7	-0.48916504
72	0x3cdb54ea	0.026773889
73	0x3c8d2b7d	0.01723265
74	0xbe76c6f8	-0.24099338
75	0xbec303b1	-0.38088754
76	0x3e5d17d5	0.21591122
77	0xbccb8110	-0.024841815
78	0xbed735e2	-0.42033297
79	0x3e3683ed	0.17823763
80	0xbeb53243	-0.3538991
81	0xbe2d781a	-0.16940346
82	0x3ee8d242	0.45472914
83	0xbd57808a	-0.05261282
84	0x3d858fbe	0.06521557
85	0xbe2b5384	-0.16731077
86	0x3d9012b5	0.07034818
87	0x3e746047	0.23864852
88	0xbe8a7e34	-0.2704941
89	0x3e68702a	0.22699037
90	0x3e05cdba	0.1306676
91	0x3e09a1c4	0.13440615
92	0x3d95a91b	0.07307645
93	0x3d875ab1	0.06609095
94	0x3e0d7084	0.13812453
95	0x3df29b7d	0.11846063
96	0xbea6c1a6	-0.32569617
97	0xbe9376d3	-0.28801593
98	0x3d82d3fd	0.0638809
99	0x3e6323ff	0.221817
100	0xbf1d8c55	-0.61542255
101	0x3e707c5b	0.23484938
102	0x3ce34531	0.027742954
103	0xbe8b5f42	-0.27221113
104	0xbe869c9f	-0.26291367
105	0xbdc05761	-0.09391666
106	0x3f018f3c	0.50609183
107	0xbe833a02	-0.25630194
108	0xbf11fdef	-0.57028097
109	0xbc7f0e6f	-0.015567406
110	0x3e92d9d4	0.28681815
111	0x3e09f0fe	0.13470837
112	0x3d7d548e	0.061848216
113	0xbef2dc9a	-0.4743393
114	0x3e230e02	0.15923312
115	0x3ed8970a	0.42302734
116	0x3d3531c3	0.04423691
117	0xbd751b00	-0.059840202
118	0xbe322900	-0.17398453
119	0x3dca45af	0.09876572
120	0x3ebb732c	0.36611307
121	0x3e8fe837	0.28106853
122	0x3d02423f	0.03180146
123	0xbe8a9d5c	-0.2707318
124	0xbdd5b966	-0.104357526
125	0x3ee7fe6c	0.45311296
126	0x3e9039be	0.28169054
127	0x3e8b3b9e	0.27193922
128	0xbe58ba43	-0.21164803
129	0xbd34cea8	-0.044142395
130	0x3e316eeb	0.17327468
131	0x3ea27235	0.31727758
132	0x3d12110e	0.035660796
133	0xbc963e31	-0.018340202
134	0xbe5f5a59	-0.21811809
135	0xbe1aba12	-0.15110043
136	0x3f0087cf	0.5020723
137	0xbe2a437c	-0.16627306
138	0x3e1ed4ff	0.15510939
139	0xbed7dd84	-0.4216119
140	0x3efc795a	0.49311334
141	0xbdcc4276	-0.09973614
142	0x3dba14d7	0.09086006
143	0xbd3e01f7	-0.046388593
144	0xbd62f232	-0.055406757
145	0x3e578ca7	0.21049748
146	0xbcad000b	-0.021118185
147	0xbca38c67	-0.01996441
148	0x3c9bccc9	0.019018548
149	0xbda93930	-0.08262861
150	0xbe2e3b58	-0.17014825
151	0x3e855e5f	0.26048562
152	0xbcc68760	-0.024234474
153	0x3e854ca6	0.2603504
154	0xbe8a6b5d	-0.27035037
155	0x3e2a4a96	0.16630015
156	0x3e21c9e5	0.15799673
157	0x3e6f29f1	0.23355843
158	0xbe046555	-0.1292928
159	0xbe5abb85	-0.21360596
160	0x3e3a5e94	0.18200141
161	0xbe8e2891	-0.27765325
162	0x3e51cdf5	0.20488723
163	0xbe141d3f	-0.14464281
164	0x3dc1ed1c	0.09469053
165	0x3e7a8544	0.244649
166	0xbec4b944	-0.38422596
167	0xbd27af50	-0.040938675
168	0xbe629799	-0.22128142
169	0x3ead8ef0	0.33898115
170	0x3e22ce40	0.1589899
171	0xbec1be7b	-0.37840638
172	0xbc1a463b	-0.009416158
173	0xbe36d396	-0.17854151
174	0x3d26469c	0.040594682
175	0x3e1686a2	0.14699796
176	0x3ea01b03	0.31270608
177	0xbf16da3b	-0.58926743
178	0xbc8aa333	-0.016923523
179	0xbe3922e5	-0.18079717
180	0x3e2cdd92	0.16881397
181	0xbe871236	-0.2638108
182	0xbed47e59	-0.41502646
183	0xbdb05d73	-0.08611574
184	0x3e893dc3	0.26804933
185	0xbe7563ab	-0.23963802
186	0x3e83050d	0.2558979
187	0xbd2796e6	-0.040915392
188	0x3ee6b92d	0.45063153
189	0x3e64757e	0.22310445
190	0x3e697c82	0.22801402
191	0x3e37415d	0.17896028
192	0xbda4c85e	-0.080460295
193	0x3d3483c9	0.044070993
194	0xbed4b4f4	-0.41544306
195	0xbe404166	-0.18774948
196	0xbe52be8e	-0.20580503
197	0x3e75e571	0.24013306
198	0xbe90a184	-0.28248227
199	0x3ebc8c41	0.36825755
200	0xbecefeaf	-0.40428683
201	0x3db73185	0.08944992
202	0xbdbe4ecc	-0.09292373
203	0x3ecd9433	0.4015213
204	0xbe9b91a2	-0.30384547
205	0xbeba3776	-0.36370438
206	0xbd90767b	-0.07053848
207	0x3ed463b0	0.41482306
208	0x3eedb3ff	0.4642639
209	0x3dfe738d	0.12424383
210	0xbe81a8ed	-0.25324193
211	0x3e3a8212	0.1821368
212	0xbe03107d	-0.12799259
213	0x3ef3fa33	0.47651824
214	0xbd3a2f2c	-0.045455143
215	0x3da16a40	0.07881594
216	0x3dc821f0	0.09772098
217	0xbefb379f	-0.49065873
218	0x3e7257c9	0.236663
219	0xbe0216e9	-0.12704052
220	0xbf1f8d20	-0.62324715
221	0xbd693c2d	-0.056942154
222	0xbd473d0a	-0.048642196
223	0xbd0059ad	-0.03133552
224	0xbe451ffd	-0.19250484
225	0x3c0d891b	0.0086386455
226	0x3d090465	0.033451457
227	0x3d0eea1f	0.034891244
228	0x3d429c6a	0.04751245
229	0x3cfe405a	0.031036545
230	0x3d0904a9	0.03345171
231	0xbe0de3df	-0.13856457
232	0x3e03b548	0.12862122
233	0xbddd6170	-0.108096
234	0xbe963999	-0.2934082
235	0xbd2ec5a4	-0.042668954
236	0x3da00cbd	0.0781493
237	0x3ebbaf31	0.36657098
238	0x3d48545e	0.048908584
239	0x3d10886b	0.03528635
240	0xbe81916d	-0.25306264
241	0x3eaef764	0.3417312
242	0x3e6a8aec	0.22904557
243	0xbe38544d	-0.18000908
244	0xbe39247d	-0.18080325
245	0xbb6671a1	-0.0035162943
246	0xbde4bebd	-0.11169193
247	0x3be2a5de	0.0069167456
248	0xbe0f15af	-0.13973115
249	0xbdf608fc	-0.120134324
250	0xbebd8c71	-0.3702121
251	0x3e6c2dae	0.230643
252	0xbebb1e6f	-0.36546656
253	0x3e1a1366	0.15046462
254	0xbd5745e1	-0.052556876
255	0x3e84339f	0.25820634

actor.2.bias f4 [64]
0	0xbd1b25f1	-0.03787798
1	0x3c3b108b	0.011417518
2	0x3b4d9378	0.0031368416
3	0xbceeaf73	-0.029136395
4	0x3d2caa72	0.042154737
5	0x3d7b7f98	0.06140098
6	0xbc4bcb5c	-0.012438621
7	0xbc894e2a	-0.016760904
8	0xbc1475bf	-0.009061276
9	0x3d044040	0.032287836
10	0xbc6047a6	-0.013688957
11	0x3c98799a	0.018612672
12	0x3bd00f67	0.0063494924
13	0x3b93c7f2	0.0045099193
14	0x3c4e9713	0.012609261
15	0xbb8e976d	-0.0043515475
16	0x3c88f768	0.016719535
17	0x3ceedc29	0.029157715
18	0x3d5fe1bb	0.054658633
19	0xbb2ebb6c	-0.0026662005
20	0x3c817289	0.015801685
21	0xbd05aaf2	-0.03263373
22	0x3d24eb69	0.040263567
23	0xbbd40a6a	-0.006470968
24	0xbbba2ed7	-0.0056818533
25	0x3c14ed77	0.009089819
26	0xbce8f830	-0.028438658
27	0xb9a28941	-0.0003100131
28	0x3d330f60	0.043715835
29	0x3d035a95	0.032068808
30	0x3ad7a584	0.0016452526
31	0xbc7bb306	-0.015362507
32	0x3d214b4c	0.03937845
33	0x3c9f54cc	0.019449614
34	0xbbbb2348	-0.005710993
35	0x3c1fb20b	0.009747039
36	0x3b95e299	0.0045741317
37	0xbcd70ba1	-0.026250662
38	0xbcddea04	-0.027089126
39	0xbd05bbbd	-0.032649744
40	0xbad984f0	-0.0016595405
41	0x3cd09bce	0.025464918
42	0xbd0c657b	-0.034276467
43	0xbc18454c	-0.009293865
44	0x3b4de8d8	0.0031419303
45	0xba086b90	-0.00052040163
46	0x3c92e78a	0.017932672
47	0xba5718a5	-0.00082052714
48	0xbd88c893	-0.066788815
49	0xbc6c139b	-0.014408971
50	0x3d8312b8	0.06400055
51	0x3cb3c89f	0.02194625
52	0x3bb1ab41	0.0054220264
53	0x3cf82ce2	0.03029484
54	0x3af43940	0.0018632784
55	0xbcedf9fc	-0.029049866
56	0x3cd9b961	0.026577653
57	0xbc1b4a94	-0.00947823
58	0xbcaa1f8f	-0.020767001
59	0xbd784258	-0.060610145
60	0xbd553b71	-0.05205864
61	0xbc1f5310	-0.0097243935
62	0xbd2b2c7b	-0.041790467
63	0xbd5c53f0	-0.053790987

actor.4.weight f4 [4, 64]
0	0xbe4bbbba	-0.19895831
1	0x3cdc8ce0	0.026922643
2	0xbdf16833	-0.117874525
3	0x3e00dc56	0.12584051
4	0xbe0df828	-0.13864195
5	0xbc40780a	-0.01174737
6	0x3e047111	0.12933756
7	0x3e2a79e4	0.1664806
8	0x3e054e95	0.13018258
9	0xbe00b734	-0.12569886
10	0xbb27b21e	-0.0025588344
11	0xbbe9207f	-0.0071144695
12	0x3e02bc80	0.1276722
13	0xbe0601a7	-0.13086568
14	0xbe063391	-0.13105609
15	0x3e162c45	0.14665325
16	0xbd449c61	-0.048000697
17	0xbe013e43	-0.12621407
18	0x3d84ccd6	0.06484382
19	0xbcc8fb77	-0.02453397
20	0x3d9347a5	0.071913995
21	0x3e1d121b	0.15338938
22	0xbd4ba99e	-0.049722306
23	0x3d888f59	0.066679664
24	0x3d2bdf65	0.041961093
25	0x3df458dd	0.11931012
26	0x3e3b6221	0.18299152
27	0x3e161961	0.14658119
28	0xbdd7d137	-0.105379514
29	0xbe039aa0	-0.12851954
30	0xbe1cb096	-0.15301737
31	0xbdf95a26	-0.121753976
32	0xbdb2562c	-0.08707842
33	0xbe0c2979	-0.13687696
34	0xbda71572	-0.08158387
35	0xbe2e9d63	-0.17052226
36	0x3d8b251c	0.067941874
37	0x3ddf6588	0.109080374
38	0x3d8a5e32	0.067562476
39	0x3c74fbd8	0.014952622
40	0x3d24e4a3	0.040257107
41	0xbdc5e342	-0.096624866
42	0x3d5f75d9	0.054555748
43	0xbe0d8b53	-0.13822679
44	0xbd4d20d8	-0.05008015
45	0xbe2e49ea	-0.17020383
46	0x3e0b252e	0.13588402
47	0x3e331b4c	0.17490882
48	0x3e4a7f92	0.19775227
49	0x3da391bd	0.07986782
50	0xbe13ff60	-0.14452887
51	0x3e511d6d	0.20421381
52	0xbcc61705	-0.024180898
53	0x3d6984ab	0.057011288
54	0xbe210e71	-0.15728165
55	0x3e1988b4	0.14993554
56	0x3e1d09c9	0.15335764
57	0xbe1d941c	-0.1538853
58	0x3e219ab6	0.15781674
59	0x3d998ef4	0.07497969
60	0x3e44bf4b	0.19213597
61	0xbd936ac1	-0.07198096
62	0xbc27a53b	-0.010232265
63	0xba6826e1	-0.0008855891
64	0x3e94dd1b	0.2907494
65	0xbebe7874	-0.37201273
66	0xbe738d4f	-0.23784374
67	0x3e8de30f	0.27712294
68	0xbe94363b	-0.28947625
69	0xbe014d0b	-0.12627046
70	0xbe29aa07	-0.16568767
71	0xbdfae82c	-0.122513145
72	0xbe64f5cf	-0.22359394
73	0xbc4b9cd9	-0.012427532
74	0xbea5a404	-0.32351696
75	0xbe97be90	-0.29637575
76	0x3eaf2732	0.3420959
77	0xbecb681e	-0.39727873
78	0xbe7f87f1	-0.24954201
79	0x3e72f59d	0.23726507
80	0x3e9526c4	0.29131138
81	0xbe3dab7a	-0.18522444
82	0x3eaabdab	0.3334783
83	0xbec00556	-0.3750407
84	0xbebf74a4	-0.37393677
85	0xbdb8ccda	-0.09023447
86	0xbdeb7b51	-0.1149813
87	0xbeba8ca3	-0.36435422
88	0xbe345121	-0.17609073
89	0x3ec6540c	0.38735998
90	0xbe00eef7	-0.12591158
91	0x3ea812e8	0.32826924
92	0x3d15bd34	0.03655739
93	0xbc9346b9	-0.01797806
94	0x3df89b8a	0.12139042
95	0x3e803d86	0.2504694
96	0xbe48aee7	-0.1959797
97	0xbeaa7cb7	-0.33298275
98	0x3e252a70	0.1612947
99	0x3e386093	0.1800559
100	0xbe408f3e	-0.18804643
101	0x3e8f4362	0.27981097
102	0x3eb74b04	0.3579942
103	0xbe8956fd	-0.2682418
104	0x3e87cc96	0.26523274
105	0x3e76e7e7	0.24111901
106	0x3e507a25	0.20359094
107	0xbecb7c38	-0.3974321
108	0xbeb0272f	-0.34404895
109	0xbe8f4abd	-0.27986708
110	0x3e96528b	0.2935985
111	0x3ea582c0	0.32326317
112	0x3d4a78f1	0.049431745
113	0x3eab2878	0.33429313
114	0xbd0db1fd	-0.03459357
115	0xbe829f10	-0.2551198
116	0xbe251b65	-0.16123731
117	0x3ead0efd	0.33800498
118	0x3e545ece	0.2073929
119	0x3e526db7	0.20549665
120	0xbded0fc1	-0.115752704
121	0x3db85dde	0.09002279
122	0x3eb5a183	0.35474786
123	0x3dd2ccb3	0.102929495
124	0x3dda1d79	0.10650153
125	0xbe8de508	-0.277138
126	0xbec274e6	-0.3797981
127	0x3df19dba	0.11797662
128	0x3e5d4ccf	0.21611331
129	0xbccea091	-0.025223048
130	0x3e6dd6c0	0.23226452
131	0xbe8a4114	-0.27002776
132	0x3ea6cd30	0.3257842
133	0x3e40ed52	0.1884053
134	0xbe974c19	-0.29550245
135	0xbe9c6b8e	-0.30550808
136	0xbe947efe	-0.29003137
137	0x3e8a49cf	0.27009436
138	0x3d08b900	0.033379555
139	0x3bfb8eb7	0.007676925
140	0xbe7af6f6	-0.2450827
141	0x3e88ab71	0.266933
142	0x3e8caf85	0.2747766
143	0xbe8bf353	-0.2733408
144	0x3d9f18a8	0.07768375
145	0x3e936bd7	0.28793213
146	0xbdc1b221	-0.094578035
147	0x3db444f4	0.08802214
148	0xbd7f7405	-0.062366504
149	0xbea2c91b	-0.31794056
150	0x3e54fd9e	0.20799872
151	0xbd81c4a5	-0.06336335
152	0x3d81f9ad	0.0634645
153	0xbe6ed1eb	-0.23322265
154	0xbeb9bf17	-0.36278602
155	0xbe9b6bb1	-0.303556
156	0x3e90866a	0.2822755
157	0x3e93bc43	0.2885457
158	0x3e7f20d3	0.24914865
159	0x3e466598	0.19374692
160	0x3e874212	0.26417595
161	0x3e991471	0.29898408
162	0x3e3841b6	0.17993817
163	0x3e8bee92	0.27330452
164	0xbdd689d4	-0.104755074
165	0xbe8ebf84	-0.2788049
166	0xbe6b7f08	-0.22997677
167	0xbd0fba60	-0.03508985
168	0xbd442844	-0.047889963
169	0x3e476235	0.19471057
170	0xbe52013d	-0.20508285
171	0x3e8cbc9f	0.27487656
172	0x3de9ad71	0.114100344
173	0x3e92b6d7	0.2865512
174	0xbe66ee00	-0.22551727
175	0xbe97aecd	-0.2962555
176	0xbeb2f2fe	-0.34951013
177	0xbe45c129	-0.19311966
178	0x3eac4516	0.33646458
179	0xbe7038dc	-0.2345919
180	0x3e0eb05b	0.13934462
181	0xbdc36532	-0.09540786
182	0x3e8edb6c	0.2790178
183	0xbe9bd590	-0.30436373
184	0xbe63dc08	-0.22251904
185	0x3e82d76c	0.2555498
186	0xbea99c98	-0.33127284
187	0xbe8f3db8	-0.27976775
188	0xbeae4fbf	-0.34045216
189	0x3e0dd4d0	0.13850713
190	0x3c99b2a9	0.01876195
191	0xbe226bf8	-0.158615
192	0xbe92f839	-0.28705004
193	0x3ecafb27	0.3964474
194	0x3df728e2	0.12068345
195	0xbe11146b	-0.14167945
196	0xbdddba20	-0.10826516
197	0xbe12ccef	-0.14335988
198	0x3eafa50e	0.34305614
199	0x3eb8608a	0.36011153
200	0x3ec01871	0.37518647
201	0xbe914033	-0.28369293
202	0x3e9378ec	0.28803194
203	0x3ea25c3c	0.31710994
204	0xbe61a6f5	-0.22036345
205	0x3e6af0b0	0.22943377
206	0x3d1960e5	0.03744592
207	0xbdb2c407	-0.087287955
208	0xbe8eacbf	-0.2786617
209	0xbe15ce4b	-0.14629476
210	0xbe9d9dfa	-0.3078459
211	0x3e95fba8	0.2929356
212	0x3ead6752	0.3386789
213	0x3eb39357	0.3507335
214	0xbe29464d	-0.16530724
215	0x3eb874f6	0.36026734
216	0x3d825f7e	0.0636587
217	0xbe95fa0d	-0.29292336
218	0x3eb9b569	0.36271217
219	0xbe3a921a	-0.18219796
220	0xbeac1606	-0.33610553
221	0xbea77abd	-0.3271083
222	0xbe51bd44	-0.20482355
223	0xbe92bf30	-0.2866149
224	0xbe0aab1b	-0.13541834
225	0x3e59a96c	0.21256036
226	0xbe9569ae	-0.2918219
227	0xbe9fff90	-0.31249666
228	0x3e753a72	0.23948076
229	0xbd432a34	-0.04764767
230	0xbe55ec7b	-0.20890991
231	0x3e8c03ee	0.27346748
232	0xbe87fb48	-0.265589
233	0xbe9117d3	-0.2833849
234	0x3d39be17	0.0453473
235	0x3e559e75	0.20861228
236	0x3e997b15	0.29976717
237	0x3d9fe949	0.078081675
238	0xbe779469	-0.24177708
239	0xbe259bb1	-0.16172673
240	0x3e9cb5ce	0.30607456
241	0xbe8166e4	-0.25273812
242	0xbe9ca652	-0.30595642
243	0x3e923097	0.28552696
244	0x3ca691f9	0.020333277
245	0xbe9a99ee	-0.30195564
246	0xbea40190	-0.32032442
247	0xbbd23749	-0.006415282
248	0x3e8cc355	0.27492777
249	0xbe98b0b6	-0.2982232
250	0xbe350f80	-0.17681694
251	0x3e6189e8	0.22025263
252	0x3e97087c	0.2949866
253	0x3e7a453a	0.2444047
254	0x3eaddaf5	0.33956113
255	0x3dca4b83	0.09877684

actor.4.bias f4 [4]
0	0x3e057f3e	0.1303682
1	0xbddbd60d	-0.10734186
2	0x3d965415	0.07340256
3	0xbdede24a	-0.11615427
