HFDRL_UNIT8/models/Archived/LunarLander-v3__ppo__1__1768735599__u80.pt (torch, 44735 bytes, 11 tensors)

critic.0.weight f4 [64, 8]
00000000: 1595 3ebe a9c0 023d 1ad6 b93c 36de 083e
00000010: dc79 45bd 9219 0b3e 17fc 97be 931e ff3d
00000020: a5b1 2abe d1e6 453e 4d17 7a3e 0604 2fbe
00000030: 3b45 3dbe c1ee 75be 91c9 363e 3035 32bd
00000040: 67c6 cc3c 8da6 4cbe 61e5 143e 1804 5c3d
00000050: c6ab 843c 5607 e23d 3c70 103e 8407 e73e
00000060: 6875 77be ad74 1f3d d125 c1bc 0678 aebe
00000070: 9131 8e3e b23b eabb 377b 51be f6d5 e7bd
00000080: d331 9cbb 6e15 dfbc 8b07 3a3e d82b 45bd
00000090: a483 993b 8026 d2bd f165 8c3e 6562 c9bd
000000a0: 97e7 bebd 7227 4fbe 331d 5bbd 01cf 5bbd
000000b0: 4fb9 79bd 77ac 8c3e 32cd 64be c4da 6bbe
000000c0: 7194 86be 7423 e8bd c1d2 2dbd 2c59 1abe
000000d0: 01e3 a9bd 7846 3dbe 1ee7 e73e c928 4e3e
000000e0: 893e 58bd 2e59 f63e 61a8 033e 3922 a23c
000000f0: 36f4 6fbd ffdf 383e 0831 913e 97c0 c73e
00000100: 7e77 fa3d 7ae8 d0bd dcd6 673e 9b4c 87bd
00000110: 6ec1 9e3e 9508 e1bc 4fb2 3dbd e091 41bd
00000120: 428d c53a c543 3f3e 1feb 8c3e bf24 b8be
00000130: 82e8 3d3e a0f0 b13d 41e3 833e b3cf 0a3f
00000140: 28e0 d6bc 0460 a4be e8db 4c3e 9daa 823e
00000150: ca03 f93c 9b45 8d3e 9651 08be eeb8 9ebe
00000160: a161 d4bd d3b1 b13e c202 b6bd 6bf4 1e3e
00000170: eed8 9fbd 1a43 573e d98a 87be 1be5 dcbb
00000180: c6e5 4e39 d2b9 6b3e 2769 993d 560a 09be
00000190: ea72 a8bd 98cf 903c f448 cdbd dee4 093e
000001a0: eaf3 adbc a589 bdbd ff9b 513e 469b 713e
000001b0: 2b00 dbbc 04ef f23c 6ef2 88be 7f73 fe3d
000001c0: 4487 9fbd 5f39 dfbc 1e7e 2c3e 1a79 f63d
000001d0: 36de a53d 29b9 993c eec1 e1bd 88dd a6bd
000001e0: b6ba 85bd 606d 3c3d 6ac1 58be 69f1 8ebd
000001f0: be1a 37ba c846 173e e9d4 d93d a522 4bbd
00000200: 70d6 143e ae06 9a3d c84d 233d b32e f7be
00000210: 2c8e 04be 709c 8abd abcf ccbd 9fcb 693e
00000220: 372d 06be 09d0 e23d 11d2 923e 49ef 67bc
00000230: a269 863e 5d0d 3ebe ea47 a53d e30b 8c3e
00000240: c892 aebe 6ecd 26be dfba 873e 711d 6c3e
00000250: 968d 28be 0032 d33d ab36 d5bc 345c c3bd
00000260: 274b b6bd 6e8a 763e c5f5 9fbd b8ca 8abc
00000270: cdf8 1f3d 1fc2 443e cfc9 a5be b980 4bbe
00000280: 2608 4f3e fee3 b8bc 863f 2c3e 59f2 0f3e
00000290: 638d 9b3d f799 91bd de25 a8bc 5081 7d3a
000002a0: ae82 c63d f530 d8bc 146d 51be f84b 32be
000002b0: e69f a0bd e0c2 ba3d 76ae 35be fa5a 92bd
000002c0: 1a74 303e 3313 b1bc c4eb d63d 47bc 9a3e
000002d0: d797 40be 4df1 38be a966 0fbe f838 6ebe
000002e0: 087b 463e 6c0c fc3c 3c3e ddbd 47bd 443e
000002f0: 1a01 243e b3f3 f7bd 776a 1cba e33b 98be
00000300: 9a56 cebd ed27 fb3c 42d5 af3d b821 343d
00000310: 385b 4f3d a962 5abe 95a2 1bbf e482 33be
00000320: 410a f4bd 2428 593e 70c4 c23c 9a0e 3c3e
00000330: d892 5d3d 310e 59be 30c9 833d 733f a5bd
00000340: c0d8 a9bd ec07 693d 0178 853d cd87 ebbd
00000350: 53f7 693e a079 09be 4991 f83d d634 363e
00000360: 017d 4dbc c981 6dbd 60ef 2fbc 2533 cabd
00000370: 231f 84be 46bd 5c3e f95f 0e3e c327 a73e
00000380: c7ba 893e cd97 b4bc accc 89be 1b65 e43d
00000390: 9d39 fdbd 8b82 e9bc daf1 cabe 5e17 04be
000003a0: 05fd 943d 9b1b b83e 45a7 60be 8acd e23e
000003b0: 23d2 5bbe a783 793d ba20 03bc df53 e5be
000003c0: 9484 6cbe cc96 42bd d33c 31be 5329 1cbe
000003d0: 3b42 483e 7f4e ebbd 80f3 043e 5dec bd3e
000003e0: d2e7 03be e362 e23e 7d28 333e 8c73 9d3d
000003f0: 9b9a 6b3e 613b 013e 419d 0ebe ccd7 77be
-0.18611558 0.031922016 0.0226851 0.13366017 -0.048211917 0.13583973 -0.29684517 0.124570034
-0.16669329 0.1932633 0.24422951 -0.17091379 -0.1848344 -0.24016859 0.17850329 -0.043507755
0.02499695 -0.19985409 0.14540626 0.05371484 0.01619519 0.110365555 0.14105314 0.4512292
-0.2416588 0.03892963 -0.023577603 -0.34075946 0.2777219 -0.0071482295 -0.20457159 -0.11320107
-0.0047666817 -0.027231898 0.1816694 -0.048137516 0.0046848822 -0.102612495 0.27421525 -0.098332204
-0.09321516 -0.20229891 -0.053494643 -0.05366421 -0.06096774 0.2747533 -0.22343901 -0.23032671
-0.26285127 -0.11334887 -0.04243732 -0.15073079 -0.08295251 -0.18483913 0.45293516 0.20132746
-0.052794013 0.48114914 0.128572 0.01979171 -0.058582507 0.18054198 0.2835772 0.39014122
0.122298226 -0.102005914 0.22640556 -0.06606408 0.3100695 -0.027469913 -0.046312626 -0.047258258
0.0015072005 0.18678196 0.27523133 -0.35965535 0.18545726 0.08688474 0.25759318 0.54223174
-0.026229933 -0.32104504 0.20005763 0.25520793 0.030397315 0.27592167 -0.13312373 -0.31000465
-0.10370184 0.34705982 -0.08887245 0.15522926 -0.07805048 0.21021691 -0.2647312 -0.0067411787
0.00019731288 0.23020104 0.07490759 -0.13382849 -0.08225043 0.017677113 -0.1002368 0.13466212
-0.021234471 -0.09254769 0.20469664 0.23594388 -0.026733479 0.029654987 -0.2674746 0.12424373
-0.07789472 -0.027249036 0.16844985 0.12034817 0.08099024 0.018765049 -0.11023317 -0.081477225
-0.06529753 0.046002746 -0.21167532 -0.06979639 -0.0006984881 0.14773095 0.106363125 -0.049593586
0.14534926 0.07520805 0.0398691 -0.48277816 -0.1294486 -0.06768119 -0.10000547 0.22831582
-0.13103186 0.11074836 0.28675893 -0.014156171 0.26252466 -0.18559785 0.08070357 0.2735282
-0.3409636 -0.16289303 0.2650976 0.23058106 -0.16460261 0.10312271 -0.026027044 -0.09539071
-0.08901053 0.24076244 -0.07810549 -0.016942367 0.039055634 0.19214676 -0.3238053 -0.19873323
0.20217952 -0.022569653 0.16821107 0.14057292 0.07595327 -0.071094446 -0.020525869 0.0009670453
0.09692894 -0.026390532 -0.20451766 -0.17411792 -0.07842998 0.09119201 -0.17742333 -0.07146259
0.17231789 -0.0216156 0.104941875 0.3022177 -0.18807922 -0.18060799 -0.14004005 -0.2326392
0.1938287 0.030767642 -0.10802886 0.19212829 0.16016045 -0.12107029 -0.0005966792 -0.2973319
-0.10075112 0.030658687 0.085855976 0.04397747 0.050624102 -0.21326698 -0.60794955 -0.175304
-0.11916018 0.21206719 0.02377531 0.18364945 0.05409512 -0.2119682 0.06434858 -0.080687426
-0.08293295 0.05689232 0.065170296 -0.11500511 0.22848253 -0.13425303 0.12137086 0.17793593
-0.01254201 -0.0579851 -0.010738224 -0.09873036 -0.25805005 0.21556577 0.13903798 0.32647523
0.26900312 -0.02204504 -0.26913965 0.11152097 -0.123645045 -0.02850463 -0.39637643 -0.12899539
0.07274822 0.3595856 -0.21938808 0.4429744 -0.2146688 0.06091657 -0.008003408 -0.4479055
-0.2309745 -0.047507092 -0.17308359 -0.15250139 0.19556515 -0.11489581 0.12983513 0.37094393
-0.12881401 0.4421607 0.17495914 0.076880544 0.23008196 0.12620308 -0.13927175 -0.24203414

critic.0.bias f4 [64]
00000000: 7164 b7bd 85ba c83d edfa cebc 8d71 15bd
00000010: 83a9 003d d053 983c 65f3 83bc 9246 e23d
00000020: ae69 8bbd 8cd5 c73d 875d 36bd b7a1 46bd
00000030: 28b1 b63d a1bd 303d fd1b a1bc 1369 29bd
00000040: d154 c73d 9a71 753c 6038 c7bd 7cb6 47bd
00000050: 8ff2 c1bd 1687 aa3d a313 99bd 7c45 d5bd
00000060: a95f aebb 6d4e 27bd 8d78 b83d aa09 b13d
00000070: ba62 95bd 015f b6bd 8511 cb3d 28c5 77bc
00000080: 248d 86bd 39c8 a7bd 1af1 e73d f975 bd3d
00000090: d9d8 b6bd 0e6e bdbd fe9b bebd e95b ab3d
000000a0: 4f87 b43d 3c42 b03d 03f1 babd b6d5 953c
000000b0: 190f d2bd 9411 a6bb c9da 89bc 749f cbbd
000000c0: b3c2 afbd 79de 6abd edb9 acbd aa2a a83d
000000d0: 0686 acbd 6e5e b7bd 411c a3bd 2f00 02be
000000e0: 8543 debd 0764 9bbd 6563 c8bd 7af5 bdbc
000000f0: 4fa1 c3bd a086 d1bc 871c c4bd 83ab aebd
-0.089547046 0.09801201 -0.025266135 -0.036485244 0.03141166 0.018594652 -0.01610727 0.110486165
-0.06807266 0.09757528 -0.04452279 -0.048494067 0.089205086 0.043149594 -0.019666666 -0.041359972
0.09732974 0.014980698 -0.097275496 -0.048758015 -0.094700925 0.08326547 -0.074744485 -0.10413644
-0.005321462 -0.040846277 0.09007368 0.086444214 -0.07294221 -0.08904839 0.09915451 -0.015122689
-0.06569889 -0.08192486 0.11325283 0.09251017 -0.08928079 -0.09249507 -0.09307097 0.0836714
0.088148706 0.08606383 -0.091280006 0.018290382 -0.10256786 -0.0050680134 -0.016827958 -0.09942523
-0.08582058 -0.057341073 -0.084339 0.082112625 -0.084240004 -0.08953558 -0.079643734 -0.12695383
-0.10852722 -0.07587438 -0.09784583 -0.023188341 -0.095522515 -0.02557689 -0.09575754 -0.08528807

critic.2.weight f4 [64, 64]
00000000: 9bfe 393e f338 18bf fca5 a0bd 2701 ad3d
00000010: b4e9 f1bc 9a8c 7fbd 2406 263e 4072 c5be
00000020: dc5c 89bd 1257 713e 6222 a2bd 9679 00be
00000030: e507 0bbe ac5c 72bd a89c c1bd 55cc 853d
00000040: a35b 5fbd 0740 32be 4f3e cf3d 40c8 823d
00000050: 29a3 8dbd c7c6 5f3c bf02 643e d892 f13d
00000060: 0a53 823e 989c ae3d ae96 363e f985 4f3d
00000070: 798d 653c 0b9b 133e b5ee ea3c 995c ff3c
00000080: 73e4 f0bd 24b3 5a3e a3aa 1e3e 9380 eebd
00000090: cc7e 8fbe 1962 5bbe 0209 74bc 4e3a 0ebf
000000a0: bce8 fa3d 46a9 6abe 552d df3d 294e 5dbd
000000b0: c729 56be f097 203d dcd2 303b 7d57 ab3e
000000c0: 1cb1 733c 54d9 1e3e 857a a7ba ee9d fdbd
000000d0: 33b3 da3d 9a62 583d 37be b63d 91a2 683e
000000e0: 5b0f 403e e209 c73c 53f3 053e f5a9 7bba
000000f0: 6767 9d3e fede d93e dc33 4bbe 3d11 a93d
00000100: e345 8c3e f7e3 c43d 8160 363d 2fd0 2fbd
00000110: 41d0 9abd 95c7 35be 7c63 9d3d c6ac 8abe
00000120: f138 c7bc 6cab aebe 255b 773d efd5 cbbd
00000130: 5527 b93e 74ff ba3e 02ff 2bbb cff1 0c3e
00000140: 3302 0fbe db9a 73be 2f2d e63e ea19 2abe
00000150: d594 ec3d 157d b2bc f053 513d 74be 083e
00000160: d247 8dbc 648c 113e 1e73 eabd b8c3 a8bd
00000170: 771d 793e e557 b03e a700 b8bd e3a7 2f3e
00000180: 4bef f43d c514 ca3d 9b57 e8bd be13 51be
00000190: 00ee 643d f347 2ebd 2db2 2ebd b71c 0a3e
000001a0: d691 6cba 1e7a afbd 50d1 8a3e beb6 95bd
000001b0: a0bf 253e dd90 b83d d197 7f3e 636a 5b3d
000001c0: d3ef be3e 9de1 00be fa25 b03d ce15 09be
000001d0: 1cc9 ae3d 1d97 923c bb43 9b3c be04 e8bc
000001e0: 1856 c23e 9a1f 0cbe b90f 843e 5504 593e
000001f0: fb9c 4e3e ef2a 203e 6ff5 55be a34a 673b
00000200: c3ed 05be 4946 533e 98f2 ff3d 4a62 3b3e
00000210: 886c 9b3e f66d b0bd c048 8e3d 4775 8b3e
00000220: 7f7d 6bbe d9d9 dd3e f66e 8bbe 9635 43be
00000230: 0c97 a239 8a99 1e3e 55f0 863b 956f 1dbe
00000240: e552 85be 795a f83c 0d57 fabb 3222 05bd
00000250: 7d92 3bbe 75c4 1b3b cda7 55be c82f dabc
00000260: be1b c7bd 17ec a83d db19 f13e b0a4 223e
00000270: cba3 043d 3d57 e5be 27dd 60be b8ca 8dbe
00000280: e678 b33e b4b1 243d 36da 29bc 5f20 2b3e
00000290: 7824 0ebe 24ba 2bbe 57e7 98bd 71d9 4e3e
000002a0: f648 4a3e 996b 8bbe 81a8 3c3e 9192 8b3c
000002b0: 90a3 c8bc 2329 b2bd 7733 023f 1718 aa3c
000002c0: 3b1a 853d 76a6 d83c ab26 46bd ba6a 333d
000002d0: ef35 23be 2905 87bc 82e0 1dbd 12c2 2cbe
000002e0: 2f7b b6be e976 aabd 128b 27bc 8f77 4bbe
000002f0: 15e9 babd 2d4f 19be e2e5 0bbe 4e37 33bd
00000300: 4c90 883e d021 e43d b3b9 b3bd 187e a23d
00000310: a95a 29bd c654 dbbd f934 15bf ac1a 37be
00000320: d718 3c3d f310 4cbd ed0e 573e 2ea8 83bc
00000330: 8156 14be 8fb8 ae3e 6e18 c43d 3e11 c73d
00000340: 9c00 4abe 531f 4b3c ef93 b23b 2500 883d
00000350: 28e8 00be def0 423c f158 f83e b1e9 613e
00000360: ea50 6abe 4ede 38bd bd73 9dbe aa1f 17be
00000370: cd31 96bd ec33 c1be 0fad 653e aa5e d23d
00000380: a51b 22bd dcf4 653e 727d d7bd c1a3 61be
00000390: 7961 51bd 90b6 5abe 4e1a 803e 0e5b 0ebe
000003a0: 59de 803b 0812 acbd 7a50 773e 54f8 133e
000003b0: ee2b 96bd 7063 8c3e e632 3cbe 0429 013e
000003c0: e26b 583e 31a1 1e3c 9c59 f3bd 90c6 2abe
000003d0: 8411 353e a943 743d 84b4 6d3d f9e8 36be
000003e0: f290 483e 8b0b 82bd b38d 743e 7cfd 093e
000003f0: f759 b8bd aa56 adbd c843 ddbd 609f a43c
0.1816353 -0.594619 -0.07844159 0.084474854 -0.029530384 -0.062389947 0.1621328 -0.38563728
-0.06707165 0.23568371 -0.07916714 -0.12546381 -0.1357723 -0.05917041 -0.09453708 0.06533114
-0.05453075 -0.17407237 0.10119306 0.06385851 -0.06915886 0.013658232 0.22266673 0.11795586
0.2545398 0.08525962 0.17830917 0.050664876 0.0140107805 0.14414613 0.028678278 0.031172084
-0.11762323 0.21357399 0.1549478 -0.11645617 -0.28026426 -0.2142414 -0.014894726 -0.55557716
0.12251422 -0.22916135 0.10897318 -0.054029617 -0.20914374 0.0392074 0.002698115 0.33465186
0.014873769 0.15512592 -0.0012777603 -0.12383638 0.10678711 0.05282841 0.08922999 0.22718264
0.18755858 0.024296705 0.13081102 -0.00096002157 0.30742952 0.42552942 -0.19844002 0.08255241
0.2739707 0.09613793 0.044525627 -0.04292315 -0.075592525 -0.17751916 0.07684991 -0.2708494
-0.024319144 -0.3411516 0.060389657 -0.09952914 0.3616282 0.3652302 -0.0026244526 0.13764118
-0.13965683 -0.23789541 0.44956347 -0.16611448 0.11551825 -0.02178816 0.05110544 0.13353902
-0.01724616 0.14213711 -0.11447738 -0.082404554 0.24327646 0.34442058 -0.089844994 0.17153887
0.11959704 0.09867243 -0.113448344 -0.20417687 0.055891037 -0.042549085 -0.04265039 0.13487516
-0.0009024417 -0.08568214 0.27112818 -0.07310246 0.1618638 0.090120055 0.24960257 0.053568255
0.37292346 -0.12586065 0.086009935 -0.13387224 0.08534452 0.017894322 0.018953195 -0.028322574
0.3795631 -0.1368393 0.25793245 0.21193059 0.20177071 0.15641378 -0.20894407 0.003529229
-0.1307898 0.2063228 0.12497443 0.18299213 0.3035624 -0.086147234 0.0694747 0.27237913
-0.22997092 0.43330267 -0.27233094 -0.1906341 0.00031011587 0.15488258 0.0041180053 -0.15374596
-0.26039806 0.030316578 -0.007639772 -0.032503314 -0.183176 0.002376822 -0.20864792 -0.026634112
-0.09722088 0.082481556 0.4709004 0.15883136 0.032382768 -0.4479312 -0.21959363 -0.27693725
0.35053176 0.040208533 -0.010366967 0.16711567 -0.13881099 -0.16770226 -0.074659996 0.20200135
0.19754395 -0.27230528 0.18423654 0.017037662 -0.024492055 -0.086992525 0.5085978 0.02076344
0.06499144 0.026446562 -0.04837672 0.043802954 -0.15938543 -0.016481953 -0.038544185 -0.16870907
-0.35640857 -0.083234616 -0.010226028 -0.19869827 -0.09126488 -0.1497161 -0.13661912 -0.043753915
0.2667259 0.11139262 -0.08775654 0.07934207 -0.041346226 -0.107095286 -0.58283955 -0.17881268
0.045922127 -0.04982085 0.21001787 -0.016071405 -0.14486124 0.34125182 0.09574972 0.097200856
-0.19726795 0.012397605 0.005449764 0.066406526 -0.1258856 0.0118982475 0.48505357 0.22061802
-0.22882429 -0.04513388 -0.30752364 -0.14758173 -0.073337175 -0.37734926 0.22429298 0.10271962
-0.039577145 0.22456688 -0.10521974 -0.22035123 -0.051118348 -0.21358705 0.2502007 -0.13901922
0.003932756 -0.08401877 0.24151793 0.14450198 -0.07332598 0.27419615 -0.18378791 0.12613302
0.21134904 0.009681986 -0.11882326 -0.16677308 0.17682463 0.05963484 0.05803348 -0.1786231
0.19586542 -0.06349858 0.23882179 0.13475603 -0.090015344 -0.084637955 -0.10803944 0.020095527

critic.2.bias f4 [64]
00000000: a556 9bbd 5221 81bd 97cb a53d 3c70 f2bd
00000010: 7da7 d1bd 0c4e 8abd a186 983d ed07 c1bd
00000020: ceb4 abbd 3a40 f7bd 9f30 94bd daa4 85bd
00000030: b7e8 b7bd 8f3e bcbd 70b7 9abd 7478 713d
00000040: 2f6d a4bd ecf8 96bd fe33 a2bd b635 8c3d
00000050: 6686 86bd 8829 7e3d ea2a aebd 223a e83c
00000060: 8c6c 90bd 6c3d 9a3d d585 853d fd2d 803d
00000070: 54a2 933d 39de a1bd c735 783d 2c72 9ebd
00000080: 648d 8cbd d4b3 a23d fc49 ab3d 0c40 a9bd
00000090: 8184 883d 110b 823d 94ed 72bd b495 93bd
000000a0: f897 0bbe 8a4f 96bd 5f2c ab3d 0232 91bd
000000b0: d38d d53d 15ca dd3d a823 853d fbbe a7bd
000000c0: 466d ca3d 331f ffba 998d 9e3d ae21 833d
000000d0: 67a1 aa3d 7f7a b13d f64b 98bd 5546 803d
000000e0: 03d3 893d 9016 8abd 7533 a33d 923d 933d
000000f0: 6511 90bd c34a 223d 316f 893d 90d6 773d
-0.075848855 -0.063051835 0.08095472 -0.11837813 -0.10237024 -0.067531675 0.074475534 -0.0942534
-0.08384095 -0.12072797 -0.07235836 -0.065255836 -0.08979934 -0.091916196 -0.07554519 0.058952764
-0.080286376 -0.07371697 -0.07920073 0.06846182 -0.06568603 0.062051326 -0.08504279 0.028348032
-0.07051954 0.075312465 0.06519667 0.062587716 0.07208696 -0.07903714 0.06059816 -0.0773662
-0.068629056 0.07944456 0.08363721 -0.08264169 0.06665898 0.06349767 -0.059308603 -0.07206288
-0.1363219 -0.073393896 0.083580725 -0.07089616 0.104274414 0.1082956 0.065009415 -0.081907235
0.098841235 -0.0019464254 0.07741851 0.06402908 0.08331566 0.086659424 -0.074363634 0.06263415
0.067297004 -0.06742585 0.07968799 0.07189478 -0.07034568 0.03962208 0.06710661 0.060507357

critic.4.weight f4 [1, 64]
00000000: 18a4 1e3e 0fc1 2f3e c425 17be 6bac d33d
00000010: 6648 e73d dfa9 a83e 447a babd cd6a d63d
00000020: 4ef6 f53d 8cc6 b13d 0d78 873e cb73 b93d
00000030: d243 a23d fc0c 323e 9ae8 723e 85bf a5bd
00000040: 3546 193e 63bb 613e ede4 173e 8910 9ebd
00000050: 2017 793e f929 04bd 2561 f13d 844f 7ebd
00000060: e648 7c3d f3a2 96be be9f 42be 2b01 b7be
00000070: 4234 2ebe 5379 663e 2edc 58be 8d03 2e3e
00000080: 9849 a03e 41f0 dbbd fb6a 08be d063 683e
00000090: 2580 6ebe c836 98be f6b5 2a3e 92f4 793e
000000a0: 3824 b93d 5849 973e f100 2bbe 55b2 443e
000000b0: 6009 cbbd 096c d5bd 62ac 8cbe 2ccc 313e
000000c0: d391 d4bd 9531 753d e355 34be 4dde 9fbe
000000d0: 91f0 1dbe 6558 cebd efb8 503e 53b5 b1be
000000e0: a06b 49be c855 203e a8b7 96bd 0e11 56be
000000f0: cd5f 573e 1b20 503d 16f9 b3be 5039 f2be
0.15492284 0.1716349 -0.147605 0.103356205 0.11293106 0.329421 -0.091053516 0.104695894
0.120098695 0.08680448 0.2645878 0.09055289 0.07923092 0.17387766 0.23721543 -0.0809317
0.14968188 0.22044139 0.14833422 -0.077179976 0.24325228 -0.03226659 0.11786107 -0.06208755
0.06159296 -0.29421195 -0.1900625 -0.3574308 -0.17012122 0.22507219 -0.21177742 0.16993542
0.31306148 -0.10739184 -0.1332206 0.22694325 -0.23291071 -0.29729295 0.16670975 0.24409702
0.09040111 0.29548144 -0.16699578 0.19208653 -0.099138975 -0.10420997 -0.27475268 0.17363042
-0.10379376 0.05986174 -0.17610888 -0.3122429 -0.154238 -0.10075454 0.20383047 -0.34708652
-0.19669962 0.15657723 -0.073592484 -0.20904943 0.21032639 0.05081187 -0.35150975 -0.4730935

actor.0.weight f4 [64, 8]
00000000: 3342 aebd 97a1 ef3c ba30 653e cf3c b2bd
00000010: dcab e2be 7a64 62bd 95bf 7c3d a3de 6b3e
00000020: a457 77be 2a88 8c3d 83c0 aabd f8dd d23e
00000030: 960b ff3d 2ef3 e0bd ae62 d8bd 85e6 083e
00000040: ddf9 3e3c a77b 8abe 5877 48bd 4652 c6be
00000050: 7b27 4e3e 54a0 c1bd b087 b0be d604 92be
00000060: 0455 75bd 3ad9 dbbc 6dcb 4ebe 0295 0cbb
00000070: f84a 7c3e 1f55 42be 4d7b 3cbe cd89 88be
00000080: cd58 163e b839 4bbd 4e6c ddbd 1bea 70bd
00000090: 0b7b b13d 5527 603d 1677 4f3e e193 a0be
000000a0: bcd8 f7bd 0990 91be 130d 443d e8a0 5a3e
000000b0: f4a6 43be 83a7 e63d 40d6 233d e702 bb3d
000000c0: 5c48 c0be ba97 213c 1a65 89bd 6fcf 6d3c
000000d0: 370b e5bd 2e3b 833d 7a16 0a3e 6724 b0be
000000e0: b7f8 11be 3bb2 77be 178d 753e 77ba 993e
000000f0: 0de3 f9be 88d0 c7be f12d b53d d3ee 2c3e
00000100: 8b42 49be 8d37 2e3e e66e f5be 1f1f 85be
00000110: 05fd 673e e5ff 703e b9a8 09bf b7e6 8a3d
00000120: 3a97 0fbe 8cf4 db3c da4c 4a3b 2418 a63d
00000130: ac9f fabd 311b 61be 6b2f ffbd c853 183e
00000140: 0076 b7bd c383 923d f507 86bb 08d0 9bbd
00000150: 30f2 66be e0a4 013e 9c45 863e a90c 3e3e
00000160: 0917 52b9 c5a8 adbd 4982 cc3c 7808 973c
00000170: 4603 9fbe 52e3 2bbe ac78 f83d e8a4 1bbe
00000180: a2f0 3cbe 96bd dabd 107e 76be 8bbc 0bbe
00000190: 440e 063e 63c2 863e 4276 b0bc c560 14be
000001a0: e2c9 b7be 10c6 ad3e 123e 4d3d a64b f3bc
000001b0: eaad f73c 915c 92bd 3303 853e 4f0b 133d
000001c0: 5c2c 1ebe cb14 3abe 3e86 cb3e aebe 9ebe
000001d0: a36a 18be d40a 053d 4f39 d43c 4ce1 6d3d
000001e0: f576 54be 8ac8 d73d 740f 833d a577 b0bd
000001f0: 51a8 04be f3ee 5bbb 7187 96bd 27b4 fe3d
00000200: 95b5 a0be b5fd adbd 5b3c 1b3e 4efd ae3e
00000210: 9466 ecbd c6b3 86be 9179 97bb cafc b53d
00000220: 8870 433e 8cbc 0c3e 4ed8 1abe 493e 10be
00000230: 568e 8c3a da0f e7bc 7f4d 343e 59dd 33be
00000240: 55cb 8d3d e811 ab3d 1154 9abe 4a00 913d
00000250: e7ee 253e 0b68 443d 81e6 073d c042 92bb
00000260: 1e25 ff3d efd9 3cbc 08e2 623e a5ae f7bc
00000270: 3a62 c3be 5feb 6fbe 97af 99be 0e2a efbd
00000280: 8b64 febc aa61 44be b309 4dbe 699d 1bbd
00000290: 8567 a8bd d66e 073e 9b8b 863d 5f02 333e
000002a0: b885 a43d bfd7 8f3c 5557 bf3d 6d13 c63d
000002b0: c728 88be 8979 88be 2aae f63c 30cb c73d
000002c0: 49b8 423d ec67 173e f3a9 2ebe e6d6 e53e
000002d0: 7562 963e 7443 593e 7e70 c53d ccfc 1cbd
000002e0: 5791 9f3e 2e8d 593e d0c9 513e c7bb 82be
000002f0: 56e9 a83e 60f4 e73d 5ad7 7ebe 7f0e 1cbd
00000300: 727c a7be 0a41 663c 8218 c0bd 2fe3 dc3d
00000310: ccad abbd d032 52be 68d2 003d cd46 903d
00000320: 1927 eebc e9ac da3d f989 e1bd 947a 90be
00000330: bbeb 3bbd 197d 613e 60f8 2dbe 6a5a 553d
00000340: e9bb 733d 9a98 613c 3526 0c3f 7b55 bf3d
00000350: 12bc ffbd c84e 463d ba95 61be 38d8 8f3e
00000360: c827 0b3e 885c 2cbe ba47 a2bd df38 7cbe
00000370: a12e 9c3e 48a7 b53e f414 af3d 85cf b63d
00000380: 47a7 223d 7956 7fbe e97c 9cbd 3590 c9bd
00000390: c7c6 c53e d599 bdbd 3f4d 26be 79e9 70bd
000003a0: f6a0 e43d fd31 23bd fa2d c93c 60aa 15bf
000003b0: d40c 9dbd 306c 05bf 9d57 a5bd 1349 94bd
000003c0: c773 8dbd 3dc3 5bbd f73a 45bd f435 b93e
000003d0: 7e1b 963e 8fe5 b73d aa5b b1bc ccba 83bd
000003e0: 978a 023e b1d2 10bd fc26 35bd 5b3e 523e
000003f0: bb9e 013e e47d 1fbd baf0 21bd a123 7ebe
-0.0850872 0.029251857 0.22381869 -0.087030046 -0.44271743 -0.055271603 0.061706144 0.23034148
-0.24154526 0.06861909 -0.083375 0.41184974 0.12453382 -0.10983883 -0.10565697 0.13369186
0.011656252 -0.27047464 -0.04894194 -0.38734645 0.20132248 -0.09454408 -0.3447852 -0.28519315
-0.05989553 -0.02683698 -0.20194788 -0.002145112 0.24637973 -0.18977784 -0.1840641 -0.26667634
0.14682312 -0.04961559 -0.10811673 -0.05881701 0.08666047 0.05472501 0.20260271 -0.31362823
-0.12101886 -0.28430203 0.04786403 0.21350443 -0.19106656 0.11262419 0.039999247 0.09131413
-0.37555206 0.009862835 -0.06708737 0.014514788 -0.1118378 0.06407772 0.13485137 -0.34402773
-0.14255033 -0.24189083 0.23979603 0.30025074 -0.48806038 -0.39026284 0.08846653 0.16887979
-0.1965429 0.17013378 -0.4793617 -0.26000306 0.22655113 0.23535116 -0.53773075 0.067822866
-0.14022532 0.026850007 0.003086856 0.08110073 -0.12237486 -0.21983029 -0.12460216 0.1487571
-0.089580536 0.07154038 -0.004090304 -0.07608038 -0.22553325 0.12660551 0.26224983 0.18559517
-0.00020035742 -0.08479456 0.024964469 0.018436655 -0.31057185 -0.16785935 0.12132391 -0.15199625
-0.18451169 -0.10680692 -0.24071527 -0.13646142 0.1309138 0.2632018 -0.021540765 -0.1449004
-0.35896212 0.33940172 0.050108023 -0.029699158 0.030234296 -0.07146562 0.25979003 0.035899457
-0.1544661 -0.18171994 0.39750856 -0.31004852 -0.14884429 0.03248103 0.025906233 0.058076188
-0.20748504 0.10536297 0.06399432 -0.086165704 -0.12954833 -0.0033559173 -0.07350052 0.12436705
-0.31388536 -0.084956564 0.15159743 0.3417763 -0.11543003 -0.2630903 -0.004622646 0.08886106
0.19085896 0.137438 -0.15121576 -0.1408626 0.0010723572 -0.0282058 0.17607687 -0.17564906
0.06923548 0.08353025 -0.30142263 0.07080133 0.16204415 0.047950786 0.03317881 -0.0044635236
0.124582514 -0.011526569 0.22156537 -0.030234644 -0.38160878 -0.2342963 -0.30016777 -0.11677943
-0.031053802 -0.19177881 -0.20023231 -0.037991915 -0.0822287 0.13225874 0.065695964 0.17481373
0.08033317 0.01755893 0.09342829 0.09671674 -0.2659361 -0.26655224 0.030112345 0.09755552
0.04753903 0.14785737 -0.17057018 0.44890517 0.29371992 0.21217138 0.09640597 -0.038327023
0.31165573 0.21245262 0.20487142 -0.25533888 0.3299052 0.11325908 -0.24886838 -0.038099762
-0.32712132 0.014053592 -0.093796745 0.10785519 -0.083827585 -0.20527196 0.03145066 0.07044754
-0.029071378 0.10677511 -0.11012644 -0.2821852 -0.045879107 0.22020377 -0.16989279 0.05208818
0.059505377 0.013769293 0.547458 0.09342476 -0.124870434 0.048414975 -0.22029772 0.2809465
0.13589394 -0.16832173 -0.07923837 -0.2463107 0.30504325 0.35479188 0.08548918 0.089263
0.03971031 -0.2493533 -0.07641012 -0.098419584 0.38628218 -0.09257857 -0.16240405 -0.058816407
0.11163513 -0.039842594 0.024558056 -0.58463097 -0.076684624 -0.52118206 -0.080733515 -0.072405
-0.069068484 -0.05365299 -0.048151936 0.36173975 0.2931785 0.08979332 -0.021650154 -0.06432113
0.1274818 -0.03535718 -0.04422663 0.20531599 0.12658207 -0.038938418 -0.039536215 -0.24818279

actor.0.bias f4 [64]
00000000: 9b73 203b 8009 38bc 4699 573d 795f 92b9
00000010: f164 613b a3be c3bc 77b1 26bc 0e12 293c
00000020: 1b99 9bbc 120b 4e3d 47cb f4bc a832 2e3c
00000030: cd58 913b fee8 073d c99d 2e3d 8638 febc
00000040: bc7a 8cbc 537e 673a 0449 7d3c f4c1 e63b
00000050: ed20 143a 14e2 cfbc 85d8 42bd c74f b43c
00000060: 93f3 6c3c 0a57 1d3d c48a 34bc aa66 103d
00000070: 70e8 313d ae36 cd3c 887a 1abd cc2e febb
00000080: 64df 933c 20eb 5b3c 53ac 723c e637 e4bc
00000090: 7ab7 af3c 668d 333d 2858 2ebc 84d8 04bd
000000a0: 3fb5 1ebd db9b c03c 707f 08bb 8502 e8bc
000000b0: 3b17 e43a 4a3d 06bd 8a2d 32bc 2fd4 d33a
000000c0: 5c46 183d 0225 c2bc f582 8abc 9d03 c3bc
000000d0: 9520 ca3c f4f6 dd3c 2835 813a 0052 aabc
000000e0: bec2 08bd 0aff 0bbc 8fab 00bd 7767 f9bc
000000f0: 4c3b f23c dd51 e8bb 1de9 003d 4b2a 5dbd
0.0024482969 -0.011232734 0.052636407 -0.00027918423 0.003439244 -0.023894614 -0.010174147 0.010319246
-0.018993905 0.050303526 -0.029882086 0.010632195 0.0044356347 0.033181183 0.042630944 -0.031032812
-0.017148368 0.00088307745 0.015459303 0.007042164 0.0005650658 -0.025376357 -0.04756977 0.022010697
0.0144623695 0.038413085 -0.011019412 0.035254158 0.04343456 0.025050487 -0.03771451 -0.0077570435
0.018050857 0.013422757 0.014811593 -0.027858686 0.021449793 0.04383602 -0.010641135 -0.032433048
-0.03874707 0.023511818 -0.0020827912 -0.028321514 0.0017401943 -0.032773294 -0.010875115 0.0016161258
0.037176475 -0.023699287 -0.016908148 -0.023805434 0.02467374 0.027095295 0.0009857761 -0.020791054
-0.033388846 -0.008544693 -0.03141361 -0.030444844 0.02956929 -0.007089837 0.031472314 -0.05399541

actor.2.weight f4 [64, 64]
00000000: 87fd 3b3e 83ff 323d 546a 533e 3338 b8be
00000010: 62d8 043e 6891 e03d 3d35 85be d352 9e3d
00000020: 0713 e53d 889c 8ebe 908b 053e b6f8 b23d
00000030: ba36 423d b9da dd3d 4f21 e7bd 1b41 153e
00000040: d74f 393e a77d 8e3e 5c07 f53d a2b6 933e
00000050: d077 d0bd 4889 473d f8e4 0b3d 2205 c53c
00000060: 8403 b63d df14 50bc 2300 063e da24 633e
00000070: cb9d e9bd 5669 a63e 755f 7dbe d92b e9be
00000080: 8646 b53d bccd 103e 2702 073e 3db1 803e
00000090: 4855 873c 46e9 6d3d 078d 823e d6b8 023d
000000a0: 4c0f fd3e 9944 fcbd 603d 04be 7609 223e
000000b0: 6e35 2b3e 6e54 1f3e 460e 643c 5c11 893d
000000c0: 25d7 e93c b7f9 b8bc 5bbc 8d3c dc70 13bc
000000d0: f4af 34bd 271c 4f3e 37d3 373e 3848 46bd
000000e0: f3f1 1f3e 3971 823e 83e0 ac3c 2cc8 193e
000000f0: cdc5 213e bee4 f4be 5f09 a13e ef62 81be
00000100: 7910 34bc 0bc8 1ebe c460 2b3e cf0a 8f3e
00000110: 2cd6 213e 5705 d6bd e193 003c 6355 b1be
00000120: ddc3 78bd 72de 1c3e 5adb d9bd 3fb3 05be
00000130: bf66 0a3e 39b3 8bbd cdc0 aabe a9e0 8e3e
00000140: 1ec9 91be 62a3 04be 0ce8 aa3e 6937 133e
00000150: 245f 953d bde7 1a3d e0b4 f8bd b728 e83d
00000160: 5982 5ebe a721 4e3e 044f fd3d ca08 8cbc
00000170: a107 5dbd 2857 763e 44b0 38bd 43d9 543d
00000180: 6c35 5abe ec16 4fbe 1c71 8d3b 6e51 943e
00000190: bb55 a3be b269 563e 1481 153e 7a69 42be
000001a0: edc3 2fbd 0739 0bbe 56c4 c43e aade ffbd
000001b0: 9b8d dbbe 9f66 d93c 3720 4a3e 8824 c4bd
000001c0: 5a05 85bd 6d8a 90be 4fef 4e3d ac9b 5e3e
000001d0: a29b 623d 6ffa 1c3c 946a d8bd b583 83bd
000001e0: cf21 1f3e 7228 6a3e 8acc 733c 99cf 09be
000001f0: 2ebf 03be 5335 573e b116 8b3e c590 8f3e
00000200: bf7c b5bd 5914 b03d 84ba 073d d295 833e
00000210: 705a b1bd 0c49 bc3c e40d 5abe 14d0 15bd
00000220: a726 df3e 92da 05bc c6b3 1f3e 7196 96be
00000230: b2b9 b03e 4607 96bd 2a99 873c e067 293b
00000240: ffcd ad3d 4dcf 243e b127 4bbd 3606 e33d
00000250: d355 55bd 8c2f c63d d513 06be 3251 333e
00000260: 1255 b93d 0720 3f3e d135 43be 9990 06bd
00000270: 9556 853c 925c 1f3e ae1e 0cbe f746 2bbe
00000280: eeb2 a93d ee47 4fbe ec1f a23e 97c8 6ebd
00000290: a0e1 c43d 3eaf 563e eb18 b4be d371 a4bb
000002a0: 9b50 e2bc d678 993e 8b82 9b3d bdfa 46be
000002b0: 9ec9 813d f2d9 a3bc 2574 c73d d085 c3bc
000002c0: d015 033e 5853 cfbe 2d29 453d 0ea8 a0be
000002d0: b6ea 133d 8285 babe 6ab5 d6be 247a 06be
000002e0: ff85 733e 1460 aebe e8b4 4b3e df15 c63d
000002f0: cdc7 743e da6f 893d 5430 013e d466 433e
00000300: c14f 53be 422d adbd b00e 93be ed66 08be
00000310: 3fd9 a6bd 187e 3c3e 3302 96be 8314 783e
00000320: 1e8f abbe 5506 91bd dd4d bebd 2217 863e
00000330: 0095 22be 8497 bfbe ebc7 2dbc 5012 bd3e
00000340: 84b8 9e3e 03d4 403e 71f1 5cbe b749 433d
00000350: 1fa7 9abd f029 943e f48b 8ebd 4bc5 3a3e
00000360: ffb0 bfbc 8b36 d2be 50c7 253e 6f94 973d
00000370: adcb fbbe f3d9 7a3c feed 35bd 71c5 9ebd
00000380: 046f b9bd 1b61 48bd 7de3 9bbd c3f6 28bd
00000390: 32cc 0e3d 0139 813d 7f98 82b9 c643 3ebe
000003a0: 8850 9abd 7b11 79bd 8d5d 64be c3e4 6dbe
000003b0: 165b 373c ceaf 4c3e 30cb 623c a24f 563e
000003c0: db1a 82bd 3332 1d3e b30e 333e abb5 45bd
000003d0: 5db6 4bbd ea3f c23d 5d1e fbbd 56d5 4b3d
000003e0: c14e c9bd 3a75 17bd 6a53 a9be 2011 c93d
000003f0: c22f 1bbe cbe4 9c3e 51e4 233d f923 6c3e
0.18358432 0.043700706 0.2064603 -0.35980377 0.12973168 0.10965234 -0.2601718 0.07730641
0.1118527 -0.278538 0.1304152 0.08738844 0.047415473 0.10832734 -0.1128565 0.14575617
0.18096863 0.2783024 0.11964294 0.28850275 -0.101791024 0.048714906 0.03415391 0.0240503
0.08887389 -0.012700289 0.1308599 0.22182027 -0.1140705 0.3250224 -0.24743445 -0.45541266
0.08851342 0.14140981 0.13184415 0.25135222 0.016520157 0.058083795 0.2549822 0.031914555
0.49425733 -0.123177715 -0.12914038 0.15823922 0.167196 0.15559551 0.013919419 0.06692764
0.028544972 -0.02258001 0.017301729 -0.008999076 -0.044113114 0.20225583 0.17951666 -0.048408717
0.1561964 0.25477007 0.02110315 0.15017766 0.15798111 -0.47830766 0.31452462 -0.25270793
-0.0109902555 -0.15505998 0.16736132 0.27937934 0.15804356 -0.10450237 0.007847757 -0.34635457
-0.060733665 0.15319231 -0.10637541 -0.13056658 0.13515757 -0.068212934 -0.3335022 0.27905777
-0.28473753 -0.1295295 0.33380163 0.14376606 0.07293537 0.03781866 -0.12143874 0.11335891
-0.21729411 0.20130025 0.12368587 -0.017094035 -0.053962354 0.24056685 -0.045089975 0.05196501
-0.21309441 -0.20223588 0.004316462 0.28968376 -0.31901345 0.20938757 0.1460002 -0.18985549
-0.04291146 -0.13595973 0.38431042 -0.12493642 -0.42881474 0.026538191 0.19738851 -0.0957728
-0.06495161 -0.2823061 0.05052119 0.21739072 0.055324204 0.009581192 -0.10567203 -0.064216055
0.1554024 0.22866991 0.014880309 -0.13458098 -0.12865898 0.21016435 0.2716575 0.28040138
-0.08861684 0.08597631 0.03313686 0.2570024 -0.08659828 0.02298405 -0.21294361 -0.036575392
0.43584177 -0.008169787 0.15595922 -0.29411653 0.34516674 -0.07325606 0.016552527 0.0025849268
0.08486556 0.16094704 -0.0495984 0.11085169 -0.0520838 0.096770376 -0.13093503 0.17511442
0.09049429 0.18664561 -0.19063498 -0.032852743 0.016276637 0.15562657 -0.13683578 -0.1672629
0.08286081 -0.20242283 0.3166498 -0.058296766 0.09613347 0.20965287 -0.3517526 -0.0050184517
-0.027626326 0.29975003 0.075932585 -0.19431587 0.063372836 -0.020001385 0.0973895 -0.023867518
0.1280129 -0.40493274 0.04813497 -0.31378216 0.03611251 -0.36429983 -0.41935283 -0.1313253
0.23781584 -0.34057677 0.19893229 0.0967214 0.23904343 0.06710787 0.12616092 0.19082195
-0.20635892 -0.08455898 -0.28722143 -0.13320513 -0.08146905 0.18407476 -0.29298553 0.24226575
-0.33507627 -0.07081286 -0.09292195 0.26189524 -0.15877151 -0.37420285 -0.010606746 0.36928034
0.3100015 0.18830876 -0.21576478 0.04767772 -0.07551407 0.28938246 -0.06960288 0.18239324
-0.023399828 -0.41057238 0.16189313 0.07401358 -0.4917883 0.015310752 -0.04441642 -0.07752503
-0.09054378 -0.048920732 -0.07611749 -0.041250955 0.034862705 0.06309701 -0.0002490915 -0.18580541
-0.07534891 -0.060807686 -0.22301312 -0.23231797 0.01119115 0.19988939 0.013842389 0.20928815
-0.063527785 0.1535118 0.17486076 -0.048268955 -0.049734462 0.09484847 -0.12261651 0.049764
-0.09829474 -0.03697703 -0.33071452 0.098177195 -0.15154937 0.30643305 0.04001266 0.23060597

actor.2.bias f4 [64]
00000000: 4541 953b 5cfc 5a3c 559c f03c f249 36bd
00000010: 9812 0a3d ba8c 1f3d 9030 79bc 1a39 03bd
00000020: 7444 9fbc 11e7 bf3c b1da fdbb cc57 9f3b
00000030: 5b05 a8bc 0498 d53c 6600 e73c 8dac bebc
00000040: 00d9 c93c 7557 a63c 68a0 553c af4d e6ba
00000050: 6ed2 4cba a2fd f9bc 3b3a e53c 0c62 dfbb
00000060: 0df0 d03c a2ec b1bc 2ae9 f9bc 2e49 b6bc
00000070: f677 f83c 413d 993c 984e b43c 21f8 653c
00000080: 96e6 f93c a43d 113d 4e11 1e3c c58d 263d
00000090: 80a0 10bd 6a38 f2bc fe2f f4bc 3919 6dbb
000000a0: 4973 9dbb e2fd e63c 54eb 0ebd 055f 903c
000000b0: fe1d 183c 9d37 883c b47b 14bc b389 04bd
000000c0: 2259 08bd 3e93 aebc 6438 1b3d 5814 71bc
000000d0: 14bb ec3c e52b 43bb 4df5 aa3c f8e6 d9bc
000000e0: 1f02 4e39 12ca 5b3b 9100 03bd b152 26bd
000000f0: c030 cebc bf01 973c 735f 7abc 355c 29bd
0.0045549 0.013365831 0.02937142 -0.044504113 0.03370914 0.038952567 -0.015209332 -0.03203688
-0.01944182 0.02342561 -0.0077470173 0.004862761 -0.020510366 0.026073463 0.028198432 -0.023275638
0.024639606 0.020305375 0.013038732 -0.0017570759 -0.0007813339 -0.03051645 0.027981868 -0.006817108
0.02550509 -0.02171928 -0.03050669 -0.022251692 0.03033064 0.018705966 0.022010133 0.014036209
0.03050546 0.035459176 0.00964768 0.040662546 -0.035309315 -0.029567916 -0.02980804 -0.0036178364
-0.004805003 0.028197233 -0.034892395 0.017623434 0.009284494 0.016628081 -0.009062696 -0.032357883
-0.03328813 -0.021310445 0.037895575 -0.014714323 0.0288978 -0.0029780802 0.020868922 -0.026599392
0.00019646481 0.0033537191 -0.031982962 -0.040606204 -0.02516973 0.01843345 -0.015281546 -0.0413477

actor.4.weight f4 [4, 64]
00000000: 821b 84bd b8da 15bc 4a23 95bd 1baa 833d
00000010: 96b8 babd 330e 96bd b54d 553d c4a8 b33d
00000020: b5e9 2e3d d9c6 96bd 5d68 9cbb ba75 c13c
00000030: b8ac 853d 84f6 85bd 64ac afbd 443c 4d3d
00000040: bc10 bbbc b114 9bbd b7de f23c 59e2 c83b
00000050: 567a bd3c 6a6e 8f3d 4466 9fbd fa7d 903b
00000060: 4477 52bd 8854 8b3d b821 843d 82e5 7b3d
00000070: 336c 91bd 671c 86bd 6037 7abd 385d 18bd
00000080: c515 a7bd 44c6 5fbd ce55 69bd 4182 afbd
00000090: 8336 8b3d 75cf 5f3d f42d b93c 1d52 46bc
000000a0: c789 603b adba 98bc 20a8 983d 5143 82bd
000000b0: 5123 50bc 5f50 94bd 1b39 0e3d d762 b93d
000000c0: dbbc 6b3d fd27 bd3c 3918 95bd b354 983d
000000d0: 9fbc 8ebd b498 c33c ccc1 6cbd 1a6e 6b3d
000000e0: 8e4b 8a3d 3c8e 90bd 0d01 593d 2b6b 673d
000000f0: c484 9e3d 86b3 37bc 6815 40bc be85 983d
00000100: f500 943d 5504 e2bd 3109 88bd 7d18 913d
00000110: c054 72bd c2ba ebbc 45d7 8cbd 7bd0 febb
00000120: aad5 67bd 540b 593c 430d adbd 664e 98bd
00000130: 4874 cf3d dec7 d7bd f0cb 8cbd 9fe5 6e3d
00000140: f9a9 873d 79f4 42bd f90f b13d 14cd 9bbd
00000150: 290e cfbd 0ba2 4dbd 2317 cdbc 9a59 b1bd
00000160: de4a 1cbd 77a1 f73d 727b 52bd 6c91 b53d
00000170: 98b8 223d 7892 d13c 4c82 383d d007 9d3d
00000180: 8a92 3abd f20d c0bd 8b36 6d3d 873a 743d
00000190: 37c0 5ebd b6cb 8e3d 8190 ad3d 76c1 81bd
000001a0: e4ee 863d 4a15 883d 73de 3e3d f801 d7bd
000001b0: a963 bbbd f31d aabd 1849 ad3d 216a be3d
000001c0: 9ccf 43bc 2331 cb3d 5bda f0bb 3231 97bd
000001d0: b799 16bd a57a a43d af7e 733d 18ec 5c3d
000001e0: 85e5 acbc a0ae f43c bfb4 c03d 3dc8 f6bb
000001f0: 389d 943c 1531 8bbd 88e9 b6bd 09e7 153d
00000200: ee69 a43d 315d c33c 3085 b83d d86b cfbd
00000210: f577 d03d 19bf 8c3d e057 a6bd 897c e0bd
00000220: fb6c a2bd f371 9d3d 1c3e 183a ff5a 1ebc
00000230: 460e aabd 9395 af3d 0a78 c33d 1efc b2bd
00000240: 95aa 3b3d ab53 ab3d 6013 efbc 5488 83bc
00000250: 56a6 34bd b567 c2bd ca25 9b3d 5e70 3dbc
00000260: 355d dd3c f0b5 bebd ca33 d8bd dd5b c0bd
00000270: dc77 c13d 3e29 a63d 5f4b b13d e6f4 7d3d
00000280: 2dd5 b43d 2e9c c43d 0ecc 7b3d 3dbd f63d
00000290: 1987 9ebd 8013 a6bd 8670 45bd 2d1f 393c
000002a0: 94e1 4cbc 66eb 443d f949 96bd 31a8 a33d
000002b0: c594 083d 95e9 b53d 951f 6cbd e201 dabd
000002c0: fc34 d0bd 6496 62bd 98df d73d 855d c4bd
000002d0: 8e27 753d 5d38 02bd d5a0 b33d c49d a9bd
000002e0: 212a 8fbd d349 a53d 73f4 c3bd ceec a0bd
000002f0: 0633 cabd b4e0 063d 2a2f eeba 3e43 90bd
00000300: cf7c a5bd 58e9 dd3d 53b0 483d 0d09 35bd
00000310: c9e0 46bd c095 b7bc 5b9e a93d 254c a23d
00000320: abb6 a23d 73ce 7cbd a0e1 af3d a712 8e3d
00000330: 26ac bcbd 684a bb3d 4add f73c a5ae dcbc
00000340: 1e53 9cbd 01bf a0bc 911d babd 923d aa3d
00000350: 34cd db3d c478 ab3d 804f 1cbd 81d4 b73d
00000360: a11f 723d 4af8 eabd aefd ba3d a012 92bd
00000370: 9488 b5bd 7cc7 b1bd a50a 76bd 256a a6bd
00000380: 0fa9 19bd 9873 993d 5899 86bd ccc1 d4bd
00000390: ab70 883d 019f 18bd 4f1b 94bd b55f 863d
000003a0: f7bd 77bd 3a0f 97bd 42ee b13b 0944 aa3d
000003b0: 0362 ac3d ca2d 793c 4e53 a3bd d6a6 80bd
000003c0: 3322 c03d 3e59 a2bd aa92 7fbd 0d31 be3d
000003d0: 9f86 fe3c 2e45 a1bd ea6f 9dbd 6292 f1bc
000003e0: 6be6 733d 6335 8dbd 5ebe 69bd 5a8c 383d
000003f0: 155e b23d 4dc6 7f3d 118a c23d 5159 173b
-0.06450559 -0.009146385 -0.072821215 0.064289294 -0.09117238 -0.07326927 0.05207606 0.08772424
0.04270335 -0.07362146 -0.0047731833 0.023615707 0.06527084 -0.0654116 -0.08577803 0.050106302
-0.022835128 -0.07572306 0.029647214 0.0061304984 0.023129623 0.07003482 -0.077831775 0.004409549
-0.05138327 0.068032324 0.06451744 0.061498173 -0.071007155 -0.06548386 -0.061087966 -0.037198275
-0.08158449 -0.05463244 -0.056966595 -0.08569766 0.06797507 0.054641206 0.02260492 -0.012104538
0.003426181 -0.018643701 0.07453942 -0.06360496 -0.012703733 -0.07241892 0.03472243 0.09052055
0.057553153 0.023090357 -0.07280011 0.0743803 -0.0696957 0.023876525 -0.057802007 0.057478048
0.06752692 -0.07058379 0.052979518 0.056498688 0.07740167 -0.011212235 -0.011723854 0.07447384
0.07226745 -0.110359825 -0.06642378 0.07084749 -0.059162855 -0.028775577 -0.06876997 -0.0077763177
-0.05660025 0.01324733 -0.08449795 -0.07436828 0.10129601 -0.105361685 -0.068748355 0.058324452
0.066242166 -0.04759643 0.08645625 -0.07607475 -0.10110123 -0.050203364 -0.025035447 -0.08659668
-0.038157336 0.12091344 -0.051387258 0.08865628 0.039726824 0.025582537 0.045046136 0.07667506
-0.045549907 -0.0937766 0.057913344 0.05962613 -0.05438253 0.069724485 0.084748276 -0.06335728
0.065885335 0.066446856 0.046598863 -0.104984224 -0.09149868 -0.083064936 0.08461207 0.09297586
-0.011951353 0.099214815 -0.0073502488 -0.0738243 -0.036767688 0.08031205 0.059446987 0.053936094
-0.021105537 0.029868424 0.094094746 -0.0075311945 0.018141374 -0.06796471 -0.08931261 0.036597285
0.08028017 0.023848148 0.090097785 -0.101279914 0.1017913 0.068723865 -0.081222296 -0.10961253
-0.079309426 0.0768775 0.0005807595 -0.00966525 -0.08303504 0.08573451 0.0954438 -0.08739494
0.045816977 0.08365568 -0.029184043 -0.016056217 -0.044103943 -0.09492437 0.07575567 -0.011562435
0.027021984 -0.093120456 -0.10556753 -0.093925215 0.094466895 0.08113335 0.08656954 0.06200113
0.088297226 0.096001014 0.0614739 0.12047813 -0.077406116 -0.08109188 -0.048203014 0.011298937
-0.012504954 0.048076056 -0.07338328 0.07991064 0.033345003 0.08882443 -0.057647306 -0.1064489
-0.10166356 -0.055319205 0.10540694 -0.0958815 0.059852175 -0.031792033 0.08770911 -0.082820445
-0.06990457 0.080707215 -0.09568109 -0.07857667 -0.09873013 0.032929137 -0.0018172015 -0.070440754
-0.08080446 0.108355224 0.04899628 -0.044198085 -0.048554216 -0.022410274 0.08282157 0.0792468
0.079449974 -0.061720323 0.085879564 0.069371514 -0.09212522 0.09145051 0.030256886 -0.026938746
-0.07633041 -0.019622328 -0.090876706 0.08312525 0.10732499 0.083726436 -0.038161755 0.08976079
0.059112195 -0.11473139 0.09130417 -0.07132459 -0.08863941 -0.08680627 -0.060068745 -0.08125714
-0.037514742 0.07492751 -0.06572217 -0.10388526 0.06662115 -0.037261013 -0.07231771 0.065612234
-0.0604839 -0.07375951 0.005430014 0.08313758 0.08417132 0.015208671 -0.079748735 -0.062818214
0.09381523 -0.07927178 -0.06239573 0.092866994 0.031070052 -0.07874523 -0.076873615 -0.029488746
0.059545916 -0.06894948 -0.057066314 0.045055725 0.08709351 0.062444974 0.0949899 0.0023094008

actor.4.bias f4 [4]
00000000: f5fc 51bd e83e 6cbc c35c 333d d82e 61bc
-0.05126663 -0.014419295 0.043789636 -0.013744079
