HFDRL_UNIT8/models/Archived/LunarLander-v3__ppo__1__1768735566__u380.pt (torch, 44753 bytes, 11 tensors)

critic.0.weight f4 [64, 8]
-0.11502464 0.17423242 0.021280324 -0.14694355 -0.09928506 0.15147357 -0.38645324 0.065655164
-0.11455787 0.29061842 0.251194 -0.13096805 -0.16008209 -0.18750603 0.12512971 -0.1100106
0.010775904 -0.30911905 0.10784201 0.2360693 0.02745163 0.13023886 0.29752782 0.6201277
-0.1692681 0.20825413 0.005182321 -0.6543134 0.26190904 0.012575967 -0.4036213 -0.27648208
0.044233836 -0.03783601 0.38959402 -0.22918484 0.06971929 -0.17493312 -0.070355035 -0.43898538
0.029738601 -0.34398055 0.00028179056 -0.018582854 -0.02067343 0.2749776 -0.036484133 -0.016180066
-0.32997933 -0.27521974 0.057565104 0.12294178 -0.012153009 -0.2817215 0.49683413 0.23672917
-0.036577627 0.54171306 0.23228092 0.25873432 -0.029414885 0.10760442 0.29390904 0.39520305
0.12832667 0.020502457 0.4193863 -0.36800602 0.4429436 -0.12040571 -0.12979843 -0.0897117
-0.015046473 0.15746905 0.38225323 -0.19015908 0.20531751 0.04199432 0.28604263 0.549414
-0.105367176 -0.46140343 0.12684233 0.54026616 0.011638593 0.2783028 0.17522977 0.021723118
-0.05175963 0.43253735 -0.016274199 -0.09398272 -0.06622803 0.18550651 -0.38525218 -0.110302076
0.04907049 0.37702054 0.103700414 -0.13602635 -0.078420624 0.0047428375 -0.18255624 0.04760611
-0.0529149 -0.25420675 0.18599743 0.50962067 -0.004628836 0.033029724 -0.066645056 0.31870857
-0.09841168 -0.17400582 0.15436786 0.4198454 0.13779104 -0.010154786 0.18002716 0.19224739
-0.032981638 0.21858983 -0.21306463 -0.41648826 -0.03416633 0.170429 -0.111241706 -0.24969848
0.16169383 0.15693179 0.029417558 -0.4249212 -0.12483593 -0.040082384 -0.16190568 0.16787626
-0.0675644 0.073826954 0.50112545 0.27176347 0.39489126 -0.26758537 0.082630664 0.21888499
-0.22195026 -0.07827059 0.227017 0.051922403 -0.23460391 0.11889845 0.004506663 -0.052484248
-0.04455299 0.3452927 -0.018462993 -0.2621576 0.020733302 0.17039767 -0.45015764 -0.29001504
0.15824644 0.09291336 0.14188889 -0.022622349 0.04003956 -0.08136435 -0.06698604 -0.035743177
0.13671692 0.12922795 -0.15368879 -0.41447884 -0.067249365 0.08115962 -0.30743137 -0.1827563
0.112724416 -0.012313033 -0.006905921 0.21593812 -0.20834817 -0.109574124 -0.11422559 -0.21628027
0.18913612 0.20143723 -0.11383917 -0.084220454 0.12664692 -0.11876763 -0.08667048 -0.35261434
-0.067930065 0.1708555 0.06681827 -0.2772761 0.020934733 -0.17443012 -0.7002337 -0.2584688
-0.105728395 0.40133342 0.017088719 -0.13026431 0.023694059 -0.24903484 -0.029824493 -0.18583326
-0.07543699 -0.06720708 0.1403716 0.11009799 0.29346973 -0.15255086 0.14683059 0.1829684
-0.036869187 -0.22051229 -0.0148214605 0.20201765 -0.21343827 0.19596003 0.24036892 0.39348367
0.21957529 0.1247578 -0.3154739 -0.1855184 -0.15447327 0.02680478 -0.4618634 -0.19378072
0.15151778 0.4509271 -0.12764037 0.17560288 -0.18325906 0.048908643 -0.039644197 -0.48998657
-0.23041613 -0.21837465 -0.13196819 0.17985548 0.27529165 -0.112750664 0.22524983 0.4576873
-0.14881696 0.4767877 0.09665499 -0.17246705 0.1628878 0.16944763 -0.25541526 -0.364996
00000000: 0a92 ebbd fc69 323e 1354 ae3c 5f78 16be
00000010: f755 cbbd e31b 1b3e 33dd c5be 3776 863d
00000020: 519d eabd f0cb 943e 809c 803e 7d1c 06be
00000030: 8fec 23be 9501 40be 0122 003e 3d4d e1bd
00000040: 6b8d 303c da44 9ebe 46dc dc3d 27bc 713e
00000050: 3ee2 e03c 565d 053e 9155 983e b0c0 1e3f
00000060: 9e54 2dbe 9240 553e 76d0 a93b 1581 27bf
00000070: f118 863e 6e0b 4e3c 73a7 cebe 0f8f 8dbe
00000080: 8a2e 353d eff9 1abd de78 c73e 6eaf 6abe
00000090: fdc8 8e3d ab21 33be 4d16 90bd b1c2 e0be
000000a0: 5e9e f33c 381e b0be 4abd 9339 123b 98bc
000000b0: 535b a9bc ddc9 8c3e 6370 15bd 0f8c 84bc
000000c0: 0df3 a8be 9ae9 8cbe 63c9 6b3d e6c8 fb3d
000000d0: 6a1d 47bc cd3d 90be 0b61 fe3e 2269 723e
000000e0: 6cd2 15bd b5ad 0a3f 0ddb 6d3e d378 843e
000000f0: 7cf7 f0bc b55f dc3d 3f7b 963e 0e58 ca3e
00000100: 1168 033e c5f4 a73c cdb9 d63e 496b bcbe
00000110: 81c9 e23e 4597 f6bd e1e9 04be c5ba b7bd
00000120: 7b85 76bc 913f 213e b2b6 c33e 10b9 42be
00000130: c13e 523e 3c02 2c3d 2e74 923e 65a6 0c3f
00000140: bfca d7bd 123d ecbe f5e2 013e e24e 0a3f
00000150: ccaf 3e3c b47d 8e3e 6f6f 333e aef4 b13c
00000160: e801 54bd 8975 dd3e 7851 85bc 037a c0bd
00000170: 90a2 87bd 6bf5 3d3e c63f c5be 0ee6 e1bd
00000180: 23fe 483d d608 c13e e260 d43d 7e4a 0bbe
00000190: fe9a a0bd ce69 9b3b 06f0 3abe a0fe 423d
000001a0: 4bbd 58bd 6327 82be 1c76 3e3e 8076 023f
000001b0: 7ead 97bb 2d4a 073d 347d 88bd c52d a33e
000001c0: 108c c9bd 952e 32be 9c12 1e3e faf5 d63e
000001d0: 1819 0d3e 4260 26bc 0a59 383e 80dc 443e
000001e0: c117 07bd 03d6 5f3e 9d2d 5abe f33d d5be
000001f0: fef1 0bbd f184 2e3e b1d2 e3bd f5b0 7fbe
00000200: 1193 253e bab2 203e 17fd f03c 468f d9be
00000210: fba9 ffbd 6d2d 24bd 9aca 25be c1e7 2b3e
00000220: 345f 8abd 9632 973d c249 003f 9524 8b3e
00000230: 302f ca3e f300 89be 443a a93d 6323 603e
00000240: ee46 63be 554c a0bd 2577 683e 96ac 543d
00000250: 023c 70be 0881 f33d a1ac 933b b9f9 56bd
00000260: 327d 36bd 34ca b03e b43f 97bc 8539 86be
00000270: e3d8 a93c ba7c 2e3e 107b e6be da7c 94be
00000280: 5b0b 223e 5c49 be3d 524b 113e 8152 b9bc
00000290: 8600 243d 5aa2 a6bd fa2f 89bd 7067 12bd
000002a0: 85ff 0b3e 5554 043e 9860 1dbe 9236 d4be
000002b0: 09ba 89bd 0437 a63d a567 9dbe 7824 3bbe
000002c0: 0fdc e63d 9bbc 49bc 104b e2bb e21e 5d3e
000002d0: 3959 55be 6668 e0bd 1bef e9bd 9378 5dbe
000002e0: e6ac 413e 9045 4e3e 8324 e9bd c67b acbd
000002f0: bbaf 013e 713c f3bd 4b80 b1bd de89 b4be
00000300: eb1e 8bbd bff4 2e3e 04d8 883d 22f7 8dbe
00000310: 517f ab3c cf9d 32be 8442 33bf 0656 84be
00000320: 2188 d8bd 937b cd3e a4fd 8b3c 0264 05be
00000330: 0b1a c23c fd02 7fbe 7f52 f4bc 134b 3ebe
00000340: b57e 9abd dea3 89bd 93bd 0f3e 0e7b e13d
00000350: aa41 963e 4b36 1cbe c25a 163e 115c 3b3e
00000360: 2504 17bd f9cd 61be b6d5 72bc b7dd 4e3e
00000370: 908f 5abe bfa9 483e 4523 763e b176 c93e
00000380: 58d8 603e 0481 ff3d cc85 a1be 89f8 3dbe
00000390: 3e2e 1ebe b395 db3c 5c79 ecbe 746e 46be
000003a0: 7a27 1b3e ebdf e63e 28b4 02be 3ed1 333e
000003b0: 43a8 3bbe 6e54 483d f461 22bd 85df fabe
000003c0: 35f2 6bbe 9b9d 5fbe ab22 07be 092c 383e
000003d0: 07f3 8c3e d2e9 e6bd e4a7 663e fd55 ea3e
000003e0: 7963 18be 841d f43e 0df3 c53d 349b 30be
000003f0: 0fcc 263e ae83 2d3e cac5 82be c1e0 babe

critic.0.bias f4 [64]
-0.19784798 -0.088499606 0.20733933 -0.18652873 -0.23785202 0.19708903 0.054168213 0.21678089
-0.23999682 0.08473854 0.25212908 -0.23685521 -0.026282843 0.22673783 0.1862155 -0.22823752
0.0006538112 0.090826854 -0.0052285776 -0.21467854 -0.14667885 -0.080683045 -0.12938331 -0.19568036
-0.09886958 -0.20138663 0.17203732 0.20150921 -0.15985303 -0.22036955 0.18251824 -0.23671724
-0.19633362 -0.1706458 0.19285242 0.1565962 0.027946405 -0.1511962 -0.07238597 0.18507434
-0.20211191 0.14404702 0.0086310515 0.12942402 -0.04175582 -0.16552545 -0.111084945 -0.17425603
-0.18892281 -0.20196271 -0.079257384 0.13619144 -0.17972092 0.15953512 -0.011036783 0.08814905
-0.18938048 0.19059391 -0.045213524 -0.11782202 0.19329983 0.22332855 -0.01677737 -0.19664073
00000000: a998 4abe 483f b5bd c350 543e 6301 3fbe
00000010: 7b8f 73be b5d1 493e 7ddf 5d3d cffb 5d3e
00000020: bac1 75be 668b ad3d 1017 813e 2c8a 72be
00000030: 1e4f d7bc f62d 683e 47af 3e3e 19b7 69be
00000040: 8764 2b3a 6e03 ba3d 7d54 abbb b1d4 5bbe
00000050: fb32 16be 273d a5bd 0f7d 04be 6f60 48be
00000060: 227c cabd 4c38 4ebe 8d2a 303e 6e58 4e3e
00000070: 83b0 23be 8ea8 61be 10e6 3a3e 0166 72be
00000080: ae0b 49be c6bd 2ebe 1b7b 453e c15a 203e
00000090: dcef e43c 2dd3 1abe 183f 94bd 2184 3d3e
000000a0: 6df6 4ebe 1081 133e 4169 0d3c bb87 043e
000000b0: 2708 2bbd 817f 29be 8180 e3bd 2c70 32be
000000c0: fb74 41be 50cf 4ebe b251 a2bd c575 0b3e
000000d0: c308 38be 2d5d 233e a0d3 34bc 7d87 b43d
000000e0: f5ec 41be 0d2b 433e d131 39bd ac4c f1bd
000000f0: 64f0 453e 3db0 643e b270 89bc 305c 49be

critic.2.weight f4 [64, 64]
0.39415184 -0.5006607 -0.36670032 0.43588713 0.08621418 -0.18919678 0.058095127 -0.38212228
0.13918772 0.3064257 -0.31424233 0.0782898 -0.052430015 -0.42375672 -0.55826324 0.4575442
0.10734664 -0.19405185 0.004543761 0.33802927 -0.025175177 0.30629247 0.18000081 0.31653398
0.4853983 0.18672779 0.08381031 -0.2490599 0.175136 0.20305741 -0.20844775 0.20978384
0.13743775 0.26286745 0.1654117 -0.09054455 -0.35557702 -0.2435574 -0.109912954 -0.6917151
0.3329719 -0.21951269 -0.03364295 -0.13217854 -0.2601619 0.29742026 0.24809854 0.39784002
0.20595324 0.44441468 -0.0872847 -0.0842151 0.21971683 -0.2668858 -0.051457196 -0.023601165
0.19679709 -0.32428777 0.049877755 0.21864024 -0.051299237 -0.0030202342 -0.25405312 0.13277175
0.45099437 0.21783589 -0.23838449 0.24890475 0.04636131 -0.31223714 -0.0453649 -0.23630549
0.12656769 -0.24392349 -0.16914195 0.08321806 0.48120108 0.03360772 -0.4089313 0.482504
0.052362423 -0.30997008 0.31683517 0.07746254 0.12681359 0.2792866 0.0035768372 0.29432738
0.17263962 0.2648273 -0.19608241 -0.318259 0.40493488 0.43533814 -0.34793508 0.3191757
0.39302635 0.11201907 -0.07012924 -0.13760053 -0.055216752 -0.11386915 -0.18359838 0.0633633
0.21914145 -0.043306172 0.1038337 -0.1552347 0.07331177 0.33253655 0.43626875 0.06634803
0.5552495 0.10128495 -0.019347101 -0.058599696 0.15889998 -0.26991415 -0.14088072 -0.27886665
0.3657494 -0.4703686 0.14512159 0.42597833 -0.12929584 -0.24136749 -0.30901167 0.00694701
-0.3633428 0.07256274 0.45639297 -0.19574948 0.21412548 0.064545244 0.13591509 0.24906075
-0.38144648 0.35599235 -0.029953277 -0.41302916 -0.10113041 0.51938844 0.45301706 -0.551549
-0.41162628 0.024045017 0.055110916 -0.3190029 -0.14596708 -0.24744473 -0.10302551 -0.18757954
-0.3816649 -0.07095097 0.5309546 0.4787992 -0.070473805 -0.5170431 -0.04136816 -0.4807955
0.08398006 -0.029045869 -0.03226819 0.12463102 -0.050629877 -0.123550266 0.005972526 0.32642007
-0.012140802 -0.31823748 0.31018475 0.117689535 0.035436027 -0.39474368 0.17917605 -0.04756199
-0.0782509 -0.29990625 0.082017116 0.047522616 -0.3252152 0.32932633 0.09247704 0.0714968
-0.3155189 0.24668367 0.09466888 -0.4173558 0.2913126 0.29243702 -0.052592818 -0.09209097
0.52536225 0.23300295 -0.42803073 0.50249034 0.11552909 -0.25736994 -0.677878 -0.16467677
0.24226281 0.031566054 -0.0753166 0.1978965 -0.04014871 -0.09594979 -0.45896155 0.5473607
-0.0014063228 -0.026535362 -0.09942385 0.37332013 -0.11788226 0.34510452 0.41163963 0.41854507
0.06304496 0.07112919 -0.41912997 -0.4726537 0.097353965 -0.3048575 -0.037657123 0.3016069
0.27845383 0.30976278 -0.0954448 -0.18595989 -0.1470749 -0.25963938 0.13850234 -0.26529408
0.25899976 -0.07066747 0.07657822 0.062128164 -0.13461779 0.57649875 0.09895745 0.19478008
0.42183197 0.3419305 -0.23504478 -0.15193598 0.34511045 -0.3339619 -0.109894946 -0.47216848
0.18616451 -0.45518 0.1270624 0.4004598 -0.50833267 -0.5980568 -0.18022445 0.092946246
00000000: 45ce c93e 4d2b 00bf 25c0 bbbe 992c df3e
00000010: 0f91 b03d cdbc 41be 28f5 6d3d 88a5 c3be
00000020: 3a87 0e3e d4e3 9c3e 5fe4 a0be 6756 a03d
00000030: dbc0 56bd a4f6 d8be 57ea 0ebf 3c43 ea3e
00000040: 8ed8 db3d 87b5 46be d4e3 943b 2c12 ad3e
00000050: 2c3c cebc 5ed2 9c3e 2252 383e be10 a23e
00000060: 2086 f83e 9235 3f3e bda4 ab3d 8f09 7fbe
00000070: da56 333e 48ee 4f3e 5473 55be 93d1 563e
00000080: 7bbc 0c3e 9096 863e af61 293e 6c6f b9bd
00000090: 310e b6be 1c67 79be 0b1a e1bd 3e14 31bf
000000a0: 4b7b aa3e efc7 60be 31cd 09bd d059 07be
000000b0: f133 85be 7847 983e 8b0d 7e3e b0b1 cb3e
000000c0: 68e5 523e 528a e33e 52c2 b2bd f778 acbd
000000d0: 73fd 603e 41a5 88be c8c4 52bd 3b57 c1bc
000000e0: 2d85 493e 0c09 a6be 9e4c 4c3d 3ae3 5f3e
000000f0: 261f 52bd 1fef 45bb 4013 82be 51f5 073e
00000100: bce8 e63e 5f10 5f3e 101b 74be e3e0 7e3e
00000110: 5be5 3d3d 8cdd 9fbe 8cd0 39bd 11fa 71be
00000120: f69a 013e 14c7 79be 8c33 2dbe 3b6e aa3d
00000130: fd5f f63e 40a8 093d 715f d1be c40a f73e
00000140: fb79 563d 66b4 9ebe 3838 a23e aea4 9e3d
00000150: 6cdb 013e a7fe 8e3e 5f69 6a3b 14b2 963e
00000160: 71c8 303e 7297 873e d4c9 48be d8f2 a2be
00000170: a053 cf3e a4e4 de3e 8c24 b2be ff6a a33e
00000180: c03a c93e 416a e53d eb9f 8fbd 27e7 0cbe
00000190: f62a 62bd 3b34 e9bd 3701 3cbe 9ec4 813d
000001a0: 9e66 603e d061 31bd c3a6 d43d d8f5 1ebe
000001b0: 7b24 963d 3b42 aa3e 9e5e df3e 7ae1 873d
000001c0: d524 0e3f 7c6e cf3d d07d 9ebc 3c06 70bd
000001d0: adb6 223e 3032 8abe 0943 10be 9cc7 8ebe
000001e0: 8143 bb3e 27d4 f0be c19a 143e d519 da3e
000001f0: 2166 04be 0a29 77be c736 9ebe bea3 e33b
00000200: 1108 babe c69b 943d 57ac e93e 8d72 48be
00000210: b643 5b3e 4c30 843d 532d 0b3e c809 7f3e
00000220: f44c c3be a144 b63e 9360 f5bc 8f78 d3be
00000230: 761d cfbd a4f6 043f daf1 e73e 5132 0dbf
00000240: aec0 d2be 0efa c43c fcbb 613d 5954 a3be
00000250: 6578 15be 2762 7dbe 0aff d2bd da14 40be
00000260: 9569 c3be be4e 91bd a4ec 073f 2b25 f53e
00000270: 9254 90bd f05c 04bf a971 29bd d42a f6be
00000280: bdfd ab3d 9af1 edbc a62b 04bd 8c3e ff3d
00000290: 4661 4fbd ec07 fdbd 2eb5 c33b 8820 a73e
000002a0: 37ea 46bc 06f0 a2be 89d0 9e3e 3607 f13d
000002b0: 5e25 113d d81b cabe ed79 373e 5cd0 42bd
000002c0: 0242 a0bd 508d 99be 97f8 a73d 13a7 423d
000002d0: 9b82 a6be 769d a83e 9a64 bd3d ea6c 923d
000002e0: b18b a1be a59a 7c3e c2e1 c13d a9af d5be
000002f0: ed26 953e 4eba 953e 916b 57bd 319a bcbd
00000300: 247e 063f 5398 6e3e d826 dbbe 35a3 003f
00000310: 849a ec3d fec5 83be 6a89 2dbf 07a1 28be
00000320: be13 783e 684b 013d 973f 9abd 61a5 4a3e
00000330: f972 24bd 5381 c4bd 02fd eabe d51f 0c3f
00000340: 5d54 b8ba b060 d9bc bb9e cbbd d123 bf3e
00000350: 416c f1bd 8ab1 b03e 6ec2 d23e 8a4b d63e
00000360: b71d 813d 2eac 913d 3498 d6be aaff f1be
00000370: 8461 c73d 4816 9cbe 5b3e 1abd 386c 9a3e
00000380: 8091 8e3e 3a99 9e3e 9078 c3bd 456c 3ebe
00000390: cd9a 16be 74ef 84be 8fd3 0d3e a0d4 87be
000003a0: 9e9b 843e 1bba 90bd 0bd5 9c3d 1a7a 7e3d
000003b0: 3fd9 09be 6c95 133f 34aa ca3d 6e74 473e
000003c0: 5cfa d73e 8411 af3e 94af 70be 1b95 1bbe
000003d0: 51b2 b03e 0efd aabe 9a10 e1bd 11c0 f1be
000003e0: e9a1 3e3e 5a0d e9be a51c 023e 1109 cd3e
000003f0: 1722 02bf 401a 19bf c28c 38be 9a5a be3d

critic.2.bias f4 [64]
-0.17459719 -0.11244554 0.16942029 -0.22808042 -0.02494888 -0.14844638 0.2061109 -0.036361825
-0.04175392 0.24578929 -0.09679354 -0.16530566 -0.22428879 -0.11823087 -0.018295895 0.2175202
-0.16321863 -0.14492182 -0.137913 0.15916431 -0.007450757 0.20128028 -0.17525499 -0.21366452
0.08308492 0.116408534 0.1905099 0.16445453 0.025461322 -0.023908904 0.18903813 -0.025981829
-0.14494118 0.22317712 -0.0041563213 -0.112276986 0.02461057 0.19062063 -0.19049388 -0.048858516
-0.06330251 0.0145312855 0.1583717 -0.17692348 0.032865215 0.10441412 0.17079127 -0.13682511
0.027262922 0.08987214 0.18224218 -0.013817298 0.16229229 0.15484567 -0.14573942 0.1617993
0.03812688 -0.18369447 0.15828516 0.14663002 -0.07087763 0.2595468 0.16308951 -0.0052564438
00000000: 9bc9 32be d949 e6bd 837c 2d3e ea8d 69be
00000010: 9861 ccbc 5402 18be bc0e 533e 23f0 14bd
00000020: 2906 2bbd 30b0 7b3e b13b c6bd e345 29be
00000030: f6ab 65be 0723 f2bd 46e1 95bc 9ebd 5e3e
00000040: c922 27be 6366 14be 1139 0dbe f8fb 223e
00000050: 7b25 f4bb 6b1c 4e3e 0b76 33be dfca 5abe
00000060: 6d28 aa3d 9967 ee3d 0715 433e c566 283e
00000070: 4394 d03c 9bdc c3bc 3693 413e d8d7 d4bc
00000080: 766b 14be 8b88 643e c031 88bb 7af1 e5bd
00000090: 1b9c c93c 0e32 433e d410 43be de1f 48bd
000000a0: bfa4 81bd a114 6e3c 312c 223e 6e2b 35be
000000b0: ad9d 063d 12d7 d53d e8e3 2e3e e21b 0cbe
000000c0: 7e56 df3c e20e b83d b29d 3a3e f361 62bc
000000d0: f32f 263e dd8f 1e3e b73c 15be b7ae 253e
000000e0: ee2a 1c3d 671a 3cbe 8115 223e 2e26 163e
000000f0: 4a28 91bd 51e3 843e f000 273e 3f3e acbb

critic.4.weight f4 [1, 64]
0.37571913 0.29710874 -0.32528514 0.33366278 0.09878356 0.51983416 -0.36166462 0.07325522
0.12918001 -0.35428828 0.41111282 0.3242615 0.38342023 0.27101228 0.23790698 -0.3569932
0.35179245 0.39961895 0.33539703 -0.26633263 0.19806637 -0.31760195 0.28023285 0.32733443
-0.30418968 -0.467313 -0.47985145 -0.5950916 -0.10772742 0.1682515 -0.4831601 0.13049237
0.53078485 -0.38073477 -0.09923179 0.3598676 -0.20520768 -0.56885 0.42599294 0.2991067
0.12786797 0.2538951 -0.32289144 0.4399927 -0.051011406 -0.17961328 -0.49927238 0.29722062
-0.07438115 -0.14027755 -0.38991955 -0.23969527 -0.34559044 -0.29161108 0.37514275 -0.54432863
-0.15615126 0.41623974 -0.30575398 -0.42887193 0.28757364 -0.3383034 -0.554816 -0.456662
00000000: 425e c03e a31e 983e c68b a6be d9d5 aa3e
00000010: 094f ca3d da13 053f 1b2c b9be d506 963d
00000020: c447 043e 4665 b5be 617d d23e 9a05 a63e
00000030: a84f c43e 1fc2 8a3e e39d 733e d0c7 b6be
00000040: 241e b43e db9a cc3e 29b9 ab3e c05c 88be
00000050: e9d1 4a3e b99c a2be ae7a 8f3e 6198 a73e
00000060: c0be 9bbe a643 efbe 17af f5be ec57 18bf
00000070: 32a0 dcbd 1f4a 2c3e c360 f7be cb9f 053e
00000080: 84e1 073f abef c2be 093a cbbd 9140 b83e
00000090: f621 52be 27a0 11bf bf1b da3e 8324 993e
000000a0: d2ef 023e 8afe 813e 0752 a5be b946 e13e
000000b0: 56f1 50bd 8bec 37be a1a0 ffbe 4d2d 983e
000000c0: 2555 98bd eba4 0fbe 89a3 c7be ad72 75be
000000d0: 3bf1 b0be 0c4e 95be b612 c03e 1f59 0bbf
000000e0: 1ee6 1fbe 601d d53e c98b 9cbe 1a95 dbbe
000000f0: da3c 933e 1a36 adbe 6c08 0ebf 9acf e9be

actor.0.weight f4 [64, 8]
-0.05814076 0.019599115 0.19296001 -0.073966935 -0.7311509 -0.22192004 0.074053004 0.1926052
-0.22977367 0.12276663 -0.07985429 0.6508856 0.22653176 -0.06250654 -0.11628381 0.1298316
0.002732739 -0.29975152 -0.049332235 -0.6108159 0.35112447 -0.00955224 -0.34068167 -0.25809819
-0.07308164 -0.0335207 -0.18547182 -0.12550329 0.5206121 -0.03932145 -0.19002089 -0.22152665
0.1252574 -0.06566131 -0.093986824 -0.22370729 0.33559826 0.20203127 0.18880588 -0.28746843
-0.096508764 -0.23397303 0.04316621 0.42416137 -0.38396692 0.028711746 0.054158565 0.07950406
-0.3171778 0.00455351 -0.102739036 0.06724808 -0.36119086 -0.082391255 0.15769792 -0.3465644
-0.10717907 -0.19048324 0.22623621 0.47580132 -0.74299854 -0.5418344 0.102530174 0.1472383
-0.20863426 0.13841756 -0.45694467 -0.41951767 0.4735863 0.37579942 -0.5435928 0.10831433
-0.12463523 0.034175582 -0.02493278 0.21487282 -0.4288639 -0.40507972 -0.11345169 0.12517266
-0.06235907 0.06535209 -0.013371949 -0.07474443 -0.5348004 -0.03321736 0.25989282 0.14105047
0.024182938 -0.088859536 -0.0010093914 0.011694072 -0.59585947 -0.3277585 0.13204631 -0.1924711
-0.19501106 -0.12080318 -0.222247 -0.3111485 0.38721687 0.4231627 -0.03220654 -0.11124917
-0.29353362 0.33239397 0.059735965 0.054658674 0.031526428 -0.07173987 0.22648202 0.0047850185
-0.12861304 -0.21211746 0.37342945 -0.5332458 -0.34038267 -0.0768941 0.039029785 0.03774734
-0.17236449 0.08597562 0.051217586 -0.18178469 -0.39469996 -0.15745687 -0.074227154 0.08592733
-0.2796574 -0.041604623 0.14105137 0.5606166 -0.32058617 -0.38666403 0.008836578 0.07848948
0.16332056 0.067392424 -0.16888158 -0.36129734 0.035244018 0.00016344851 0.1860386 -0.16038461
0.042277414 0.09565311 -0.2724532 0.15851498 0.42055422 0.19526234 0.0204169 0.034525167
0.14267637 -0.034604896 0.18608889 -0.12854965 -0.6551148 -0.39198855 -0.28521085 -0.15348072
-0.031279016 -0.1606236 -0.17698124 -0.021326017 0.12243188 0.2443074 0.05018608 0.19198555
0.10051989 0.028609557 0.0744889 0.22417292 -0.5469923 -0.43102625 0.044356994 0.061773743
0.02987584 0.18022114 -0.14792663 0.67145854 0.51092964 0.32697913 0.08656855 -0.016310351
0.26832297 0.1573735 0.22750705 -0.45729822 0.5647707 0.23412782 -0.2651432 -0.023730643
-0.28642383 0.051049132 -0.12258946 0.31764898 -0.29515257 -0.3260877 0.038034737 0.05786662
-0.034374457 0.04886677 -0.11318274 -0.49878377 0.072220504 0.28300843 -0.17255259 0.065806665
0.08176343 0.029474437 0.53092057 0.23449165 -0.35546565 -0.08120843 -0.20063214 0.24859475
0.106143385 -0.16800295 -0.06447856 -0.42218474 0.5782854 0.5159413 0.06567766 0.11185629
0.017609835 -0.24880755 -0.057736784 -0.23157653 0.6687647 0.06397932 -0.16899051 -0.016641786
0.11430765 -0.086410984 0.0056836004 -0.80949575 -0.23081411 -0.5936139 -0.071196325 -0.08069647
-0.07951293 -0.011126372 -0.025518466 0.570178 0.50529444 0.20029622 -0.02571414 -0.045173436
0.10929373 0.009632392 -0.028480478 0.4304404 0.3050587 0.058520105 -0.044426356 -0.23591429
00000000: 0125 6ebd 538e a03c 4f97 453e fa7b 97bd
00000010: b52c 3bbf 023f 63be 1aa9 973d 4c3a 453e
00000020: ca49 6bbe 126d fb3d a58a a3bd 70a0 263f
00000030: f1f7 673e 6e03 80bd 3526 eebd 93f2 043e
00000040: c117 333b 0879 99be 9910 4abd 6e5e 1cbf
00000050: 96c6 b33e 0081 1cbc d46d aebe 7225 84be
00000060: d4ab 95bd 004d 09bd 53ec 3dbe ef83 00be
00000070: d646 053f 870f 21bd d694 42be e2d7 62be
00000080: 7a43 003e 7079 86bd 2a7c c0bd 8613 65be
00000090: 89d3 ab3e 49e1 4e3e 5456 413e 102f 93be
000000a0: 63a6 c5bd a096 6fbe 0dcf 303d ae2b d93e
000000b0: 5097 c4be e534 eb3c 5fd5 5d3d 06d3 a23d
000000c0: 2165 a2be 9c35 953b d868 d2bd 5db9 893d
000000d0: 02ee b8be bfbc a8bd 907b 213e e470 b1be
000000e0: b380 dbbd 0a0e 43be 77aa 673e 3b9c f33e
000000f0: 2735 3ebf a9b5 0abf 57fb d13d a3c5 163e
00000100: 38a4 55be 55bd 0d3e a7f4 e9be 05cb d6be
00000110: e779 f23e c868 c03e e628 0bbf e7d3 dd3d
00000120: c140 ffbd b2fb 0b3d d43f ccbc 9f07 5c3e
00000130: 0d94 dbbe 9c66 cfbe 5c59 e8bd 432d 003e
00000140: 396c 7fbd 51d7 853d 0516 5bbc 9c13 99bd
00000150: aee8 08bf ed0e 08bd ac10 853e 896f 103e
00000160: 4c1b c63c fdfb b5bd 8e4d 84ba 7e98 3f3c
00000170: 3f8a 18bf f6cf a7be 2637 073e 2517 45be
00000180: fbb0 47be a867 f7bd b894 63be db4e 9fbe
00000190: 4a41 c63e c8a8 d83e 01eb 03bd 9bd6 e3bd
000001a0: 0a4a 96be 8b2f aa3e b3ad 743d c6e1 5f3d
000001b0: db21 013d 5aec 92bd e7ea 673e a5cb 9c3b
000001c0: 23b3 03be 5235 59be 2532 bf3e cc82 08bf
000001d0: a346 aebe a77a 9dbd b2dd 1f3d f49c 1a3d
000001e0: 5180 30be fc13 b03d 88c9 513d c425 3abe
000001f0: 1d16 cabe 603c 21be 6804 98bd abfa af3d
00000200: 412f 8fbe 9c69 2abd c56f 103e 9284 0f3f
00000210: df23 a4be d4f8 c5be 4bc7 103c 18bf a03d
00000220: 813d 273e 0a05 8a3d 4bef 2cbe f7fb b8be
00000230: 085c 103d 6063 2b39 e780 3e3e dd3b 24be
00000240: 152b 2d3d c7e5 c33d fc7e 8bbe c051 223e
00000250: e252 d73e daf2 473e 5841 a73c 436a 0d3d
00000260: c119 123e ddbd 0dbd 168e 3e3e 85a2 03be
00000270: 9bb5 27bf b9b2 c8be 2807 92be 0d2a 1dbe
00000280: 6d1e 00bd 837a 24be 923a 35be e6b3 aebc
00000290: 91bd fa3d b82b 7a3e eb8f 4d3d dc97 443e
000002a0: 5fdd cd3d 975e ea3c a38d 983d 968d 653e
000002b0: b007 0cbf 79af dcbe aeaf 353d 7706 7d3d
000002c0: 2dbe f43c e48b 383e 147a 17be b5e4 2b3f
000002d0: 49cc 023f cf69 a73e da4a b13d 499d 85bc
000002e0: a161 893e 8526 213e 9cf7 683e fe22 eabe
000002f0: d094 103f 34bf 6f3e d9c0 87be c466 c2bc
00000300: 25a6 92be e518 513d 2f10 fbbd e3a2 a23e
00000310: 3d1e 97be f8f4 a6be 50ca 1b3d 8d05 6d3d
00000320: 3bcc 0cbd 8628 483d 5acc e7bd 9660 ffbe
00000330: 58e8 933d 7be6 903e a0b1 30be a5c5 863d
00000340: 9673 a73d 6074 f13c 69ea 073f 941e 703e
00000350: 98ff b5be 9b50 a6bd 8372 4dbe 9f8f 7e3e
00000360: b461 d93d f708 2cbe 560d 84bd 9928 d8be
00000370: 830a 143f bb14 043f 0282 863d e914 e53d
00000380: 8042 903c 68c7 7ebe 687d 6cbd 6622 6dbe
00000390: 2a34 2b3f 9707 833d d90b 2dbe 5b54 88bc
000003a0: 211a ea3d 3ef8 b0bd 7f3d ba3b 1d3b 4fbf
000003b0: 895a 6cbe 15f7 17bf 61cf 91bd 3144 a5bd
000003c0: add7 a2bd 634b 36bc 1a0c d1bc 2ff7 113f
000003d0: fa5a 013f 741a 4d3e 76a6 d2bc c807 39bd
000003e0: 64d5 df3d 2ed1 1d3c e44f e9bc af62 dc3e
000003f0: a730 9c3e c7b2 6f3d 69f8 35bd 8493 71be

actor.0.bias f4 [64]
-0.0027434886 0.006083736 0.057102803 -0.00080743874 -0.0036139027 -0.0022446204 -0.0064480454 0.042306118
-0.03810548 0.052255817 -0.031761203 0.014150067 0.005715634 -0.010714672 0.04327792 -0.04156942
0.0038474537 -0.032829903 0.0063892542 0.0072604516 0.023575837 -0.018822022 -0.046349704 -0.006121986
0.03163869 0.014776497 -0.0040246826 0.043991387 0.0475482 0.011599499 -0.025852047 -0.0030660946
0.0046342732 0.0019487754 0.01646146 -0.03830397 0.011900861 0.030012485 -0.008409632 0.0058381367
-0.028126648 -0.0024104768 0.018374909 -0.018557958 -0.01747458 -0.013331667 -0.018553846 -0.0031664427
0.022778274 -0.021839425 -0.013013613 -0.029283512 0.014557753 0.016008575 0.0019599113 -0.010448542
-0.051340897 0.0037597886 0.012529774 -0.04044525 0.017357 -0.0075118938 0.026407912 -0.032301236
00000000: 1acc 33bb 145a c73b a1e4 693d 4caa 53ba
00000010: 3ad7 6cbb 7b1a 13bb 204a d3bb 2e49 2d3d
00000020: 7e14 1cbd 320a 563d 0918 02bd afd5 673c
00000030: 374a bb3b 978c 2fbc 3044 313d b244 2abd
00000040: 9025 7c3b a678 06bd f35c d13b 15e9 ed3b
00000050: 1d22 c13c a430 9abc 30d9 3dbd f19a c8bb
00000060: 9297 013d 1f19 723c 7ce1 83bb 5030 343d
00000070: e7c1 423d d30b 3e3c acc7 d3bc 88f0 48bb
00000080: 1adb 973b 0d6e ff3a 2fda 863c a0e4 1cbd
00000090: d4fb 423c bedc f53c 8ec8 09bc d74d bf3b
000000a0: db69 e6bc 17f9 1dbb fa86 963c dc06 98bc
000000b0: da26 8fbc 106d 5abc 3cfe 97bc 1884 4fbb
000000c0: 8199 ba3c 98e8 b2bc 0d37 55bc fae3 efbc
000000d0: a483 6e3c 6a24 833c db71 003b 5d30 2bbc
000000e0: d54a 52bd c966 763b ae49 4d3c eba9 25bd
000000f0: 4430 8e3c 5526 f6bb 6855 d83c 4d4e 04bd

actor.2.weight f4 [64, 64]
0.34074962 -0.09015173 0.27061757 -0.42075697 0.11032496 0.14680178 -0.21305001 0.17402816
0.06537629 -0.2102293 0.23056154 0.24375752 0.03096328 0.06384962 0.016604077 0.22392318
0.19848825 0.29995063 0.0025962626 0.4266553 -0.067067415 0.16689093 -0.15879518 -0.0358571
0.10447959 0.0026020955 0.12539239 0.17409162 -0.14352137 0.50000405 -0.39387378 -0.5651194
0.24947797 0.17037466 0.02886872 0.2809593 0.22730239 0.1074978 0.3571688 0.0850526
0.60800415 -0.14544481 -0.20171547 0.20922114 0.26965043 0.123452626 -0.10123643 -0.08181861
0.020330615 0.091650955 -0.123218514 -0.117343 0.019887013 0.29403338 0.28558695 -0.17893007
-0.0061133853 0.2676513 0.027747987 0.19583806 0.25816384 -0.6184938 0.38130918 -0.24737895
-0.19532453 -0.110219054 0.23343517 0.3923095 0.23991261 -0.16059853 -0.05141054 -0.49073485
0.04503576 0.024102943 -0.23372616 -0.3133165 0.25324187 -0.043046843 -0.36443153 0.20741819
-0.38678288 -0.13381617 0.42388397 -0.03123322 0.07681928 -0.15829436 6.451366e-05 0.23129185
-0.30128065 0.26459515 0.08123525 0.14102158 0.058479715 0.13174716 0.07263241 0.095077604
-0.26493412 -0.27267137 0.015464733 0.23203051 -0.5142875 0.24831091 0.03699808 -0.26050788
-0.24818486 -0.07500948 0.47884753 -0.28752235 -0.52313524 -0.05718953 0.24020843 0.09290098
0.090658925 -0.47322577 0.09562336 0.3846509 0.10567407 -0.023836203 -0.15762328 0.035052564
0.29521048 0.2986885 0.0375402 -0.2661555 -0.028654965 0.40165168 0.3391602 0.24239625
-0.21910824 -0.01650675 0.16834462 0.35057467 0.025990369 -0.0032653722 -0.26710618 -0.13183576
0.5087684 -0.13308011 0.078391135 -0.3994877 0.47296438 -0.10601455 0.0901782 -0.052191425
-0.0294329 0.19256553 -0.030267552 0.0033483517 0.005355154 -0.06960328 -0.18330999 0.25129962
-0.010255062 0.25598863 -0.2599481 0.14174935 0.1450697 0.23492973 -0.12881157 -0.1947965
0.17956355 -0.2742328 0.23924088 -0.13181236 0.09056987 0.2524695 -0.37501863 -0.03054907
-0.194502 0.33708745 0.15657414 -0.361008 0.001754327 -0.1417018 0.054082002 0.10282709
0.28604558 -0.57890576 -0.012991954 -0.19484578 0.1451955 -0.29260823 -0.40287098 -0.10436116
0.25481847 -0.24201694 0.25458547 -0.034688734 0.41616142 0.18737143 0.23858173 0.18229598
-0.07616794 0.02210094 -0.417043 -0.22334138 -0.19695401 0.22374116 -0.23307344 0.34311616
-0.40945134 0.05442579 -0.020325826 0.371439 -0.28386605 -0.3552548 -0.076514564 0.4173946
0.43503168 0.14314058 -0.23950845 0.15307388 -0.11719546 0.46035808 -0.018419536 0.09246053
0.08191356 -0.48697773 0.22995909 -0.10197758 -0.61311877 -0.07266463 -0.040601406 -0.04432748
-0.19736952 0.005874902 0.0036122054 0.020770848 0.03575422 0.018850457 0.017878791 -0.15029117
0.096662045 -0.10633782 -0.2901951 -0.06039818 0.06336555 0.33016446 0.042767543 0.087031245
-0.22608976 0.33091617 0.23158008 -0.16122681 -0.16231422 0.022670293 -0.12959822 0.032314945
-0.119072154 -0.12285588 -0.370057 0.22255012 -0.33418405 0.19380589 -0.06814295 0.2543016
00000000: bc76 ae3e 78a1 b8bd 638e 8a3e 756d d7be
00000010: 0df2 e13d 3553 163e c829 5abe 7034 323e
00000020: 01e4 853d 5a46 57be 5318 6c3e 929b 793e
00000030: b4a6 fd3c 97c3 823d 4605 883c 1e4c 653e
00000040: 8140 4b3e 2193 993e 0f26 2a3b 9072 da3e
00000050: a45a 89bd 75e5 2a3e 349b 22be e5de 12bd
00000060: 65f9 d53d eb87 2a3b dd66 003e 1345 323e
00000070: 44f7 12be 4400 003f d3a9 c9be aaab 10bf
00000080: 2777 7f3e b276 2e3e 187e ec3c e6d9 8f3e
00000090: f5c1 683e ce27 dc3d d4de b63e 0f30 ae3d
000000a0: 29a6 1b3f 7cef 14be 808e 4ebe 113e 563e
000000b0: 9f0f 8a3e bbd4 fc3d 0c55 cfbd 8490 a7bd
000000c0: 648c a63c 7fb3 bb3d fd59 fcbd 8751 f0bd
000000d0: 17ea a23c 8b8b 963e 7438 923e 7239 37be
000000e0: cb52 c8bb 9709 893e bf4f e33c c689 483e
000000f0: 0d2e 843e 9c55 1ebf f53a c33e e850 7dbe
00000100: 2703 48be 87ba e1bd a109 6f3e cadc c83e
00000110: a7ab 753e f173 24be dc93 52bd 9941 fbbe
00000120: 6b77 383d 8973 c53c e955 6fbe 056b a0be
00000130: eba8 813e e351 30bd c596 babe 6f65 543e
00000140: 6808 c6be 1b07 09be 5207 d93e cfdc ffbc
00000150: 6d53 9d3d eb17 22be 824b 8738 c5d7 6c3e
00000160: 7541 9abe 0479 873e ab5e a63d f667 103e
00000170: 6d88 6f3d bae8 063e 4dc0 943d 0cb8 c23d
00000180: 72a5 87be 959b 8bbe cb5f 7d3c 6899 6d3e
00000190: 58a8 03bf 3745 7e3e 4c8b 173d 4a61 85be
000001a0: 2c24 7ebe 929e 99bd 812b f53e 2136 93be
000001b0: 31ec 05bf 923f 6abd 33f9 753e de42 be3d
000001c0: 63ab b93d a64a f2be 2ed6 c33d f6f0 c43e
000001d0: a66b d83d 2444 c3bc ff67 21be 4793 0f3d
000001e0: d425 973e b3ed 983e c1c3 193d 8945 88be
000001f0: d1bd eabc 4aa5 cd3e 68a6 ad3e b936 783e
00000200: e95d 60be 2a39 87bc 8862 2c3e 867e b33e
00000210: c1e9 d43c dbff 55bb 24c2 88be f4ff 06be
00000220: a53e 023f 2746 08be 888b a03d a789 ccbe
00000230: 6328 f23e 281e d9bd 59af b83d adc6 55bd
00000240: 441d f1bc e62f 453e a8f3 f7bc 0570 5b3b
00000250: 4a7a af3b 2a8c 8ebd 9db5 3bbe 58aa 803e
00000260: d904 28bc f110 833e eb17 85be be26 113e
00000270: 278d 143e 6b91 703e 2ee7 03be bc78 47be
00000280: 82df 373e 3e68 8cbe 90fb 743e d2f9 06be
00000290: b27c b93d af43 813e 7102 c0be 0b42 fabc
000002a0: 882b 47be ba96 ac3e f954 203e 0ad6 b8be
000002b0: 72f1 e53a 471a 11be 1785 5d3d 0297 d23d
000002c0: 9174 923e 2b33 14bf 34dc 54bc a785 47be
000002d0: 21ae 143e bfd0 95be 1b45 cebe 4ebb d5bd
000002e0: 9177 823e 4ad3 77be 0759 823e c615 0ebd
000002f0: 1c13 d53e 4cde 3f3e c54e 743e ccab 3a3e
00000300: f0fd 9bbd 080d b53c a986 d5be 9ab3 64be
00000310: 50ae 49be 671c 653e ceaa 6ebe ecac af3e
00000320: 9ba3 d1be 94ed 5e3d 5982 a6bc 412d be3e
00000330: e456 91be f5e3 b5be abb3 9cbd bfb4 d53e
00000340: 79bc de3e 7293 123e b441 75be 66bf 1c3e
00000350: 2c04 f0bd 0eb4 eb3e 91e4 96bc f25b bd3d
00000360: 4cc2 a73d 2555 f9be 657a 6b3e 9fd9 d0bd
00000370: 5af5 1cbf 32d1 94bd a94d 26bd bb90 35bd
00000380: 3c1b 4abe 4082 c03b c0ba 6c3b a027 aa3c
00000390: 0473 123d 466c 9a3c 8b76 923c eee5 19be
000003a0: c0f6 c53d a5c7 d9bd 7494 94be 1564 77bd
000003b0: ccc5 813d 510b a93e 052d 2f3d 703d b23d
000003c0: 1384 67be d86d a93e 5423 6d3e a418 25be
000003d0: b335 26be 0db7 b93c 65b5 04be ad5c 043d
000003e0: 1adc f3bd dd9b fbbd 1c78 bdbe 2ee4 633e
000003f0: 2c1a abbe 0d75 463e 888e 8bbd d233 823e

actor.2.bias f4 [64]
-0.013268535 0.026164895 0.017040184 -0.044072088 0.032566678 0.019016746 -0.0045673214 -0.026175661
-0.010036521 0.012576561 -0.015576525 0.04133482 -0.00568168 0.010958486 0.019800486 -0.020263784
0.030930286 0.013746297 0.045399107 -0.010403803 0.003661173 -0.022263708 0.0038033046 -0.0077253645
-0.035153367 -0.006076655 -0.028460287 -0.013954147 0.02281946 0.007897134 0.018619848 -0.0033612421
0.013734405 0.036091246 -0.015876636 0.030804396 -0.012164163 -0.025699375 -0.02791199 -0.022181172
-0.015762439 0.03247141 -0.007827971 -0.004610171 0.009377916 0.017925275 0.0019482103 -0.014923462
-0.06025298 -0.02909147 0.052964382 -0.0035509807 -0.010107632 0.020110775 0.0065234597 -0.033851597
0.026227355 -0.018197363 -0.0346497 -0.041038692 -0.039625384 0.009330613 -0.03854894 -0.018159786
00000000: 4564 59bc c357 d63c db97 8b3c ef84 34bd
00000010: a364 053d 02c9 9b3c 78a9 95bb 576e d6bc
00000020: 3870 24bc ec0d 4e3c ae34 7fbc b34e 293d
00000030: 632d babb 398b 333c a134 a23c 3c00 a6bc
00000040: 8361 fd3c 2638 613c 6af4 393d b674 2abc
00000050: 4af0 6f3b 6162 b6bc dd40 793b 0e25 fdbb
00000060: fafc 0fbd ad1e c7bb 8c25 e9bc ef9f 64bc
00000070: e0ef ba3c fb62 013c a788 983c 4948 5cbb
00000080: 4506 613c 6ad4 133d b80f 82bc 8059 fc3c
00000090: 334c 47bc 7f87 d2bc b0a7 e4bc 4ab5 b5bc
000000a0: 3b20 81bc be00 053d e440 00bc eb10 97bb
000000b0: d5a5 193c 07d8 923c 175b ff3a 8981 74bc
000000c0: d4cb 76bd 3c51 eebc 2ef1 583d 92b7 68bb
000000d0: 7b9a 25bc 5abf a43c bfc2 d53b f9a7 0abd
000000e0: c0da d63c a312 95bc d8ec 0dbd 3018 28bd
000000f0: 3a4e 22bd 6ddf 183c 7ee5 1dbd d5c3 94bc

actor.4.weight f4 [4, 64]
-0.12965012 -0.013317518 -0.09147566 0.11906566 -0.1569541 -0.056969747 0.112020366 0.13435581
0.11849209 -0.11654636 0.02613918 -0.04250684 0.112778835 -0.12721251 -0.13219078 0.12830748
-0.04871533 -0.13502952 0.00530975 0.011943335 0.072270766 0.13787177 -0.0832889 0.038535904
-0.002227043 0.097731106 0.16630091 0.13618465 -0.11766981 -0.13814192 -0.10787252 -0.0770307
-0.11148364 -0.123284556 -0.07247297 -0.15288126 0.038880143 0.12890878 0.089365326 0.00927101
0.025973944 -0.074910946 0.09229075 -0.12596871 -0.040868234 -0.15270436 0.08013948 0.14995715
0.17320865 0.08263519 -0.13831767 0.15830572 -0.057073027 0.011776772 -0.12044582 0.1315858
0.11208002 -0.12350332 0.1591935 0.112121314 0.18209541 -0.054637637 0.048502196 0.050673056
0.21068834 -0.34708124 -0.24248153 0.2673072 -0.19774383 -0.08603657 -0.15458728 0.00042377313
-0.17066255 -0.006091259 -0.27227315 -0.2895183 0.31938133 -0.35128015 -0.2296435 0.25060946
0.21580309 -0.15637882 0.2963852 -0.29977518 -0.3022365 -0.093506835 -0.08485578 -0.29615876
-0.15396883 0.35320294 -0.111086674 0.30905625 0.061136402 0.04332147 0.083546415 0.22030364
-0.16132776 -0.31005257 0.14412571 0.13579714 -0.1335457 0.26742315 0.3154113 -0.24230948
0.25593796 0.2125397 0.18702233 -0.36275855 -0.31121686 -0.2747874 0.28877348 0.31466526
0.009646039 0.31559327 -0.06653652 -0.19477046 -0.1499931 0.2992959 0.1668651 0.20865647
-0.075884 0.05686075 0.32490945 0.07321757 0.07590256 -0.2549311 -0.29690605 0.08090721
0.21658331 0.066143006 0.21932091 -0.26906714 0.27631932 0.15184589 -0.23653862 -0.2780718
-0.24405992 0.22225767 -0.034816336 0.12771139 -0.22546487 0.2681562 0.24702571 -0.26785088
0.15864244 0.2436085 -0.030412903 -0.03127254 -0.12062374 -0.2673088 0.16816549 -0.051952917
0.020555325 -0.21890484 -0.30702025 -0.29004854 0.25265145 0.23643236 0.24075179 0.1802989
0.22133012 0.27825153 0.14989409 0.2815907 -0.13237703 -0.26615542 -0.24030145 0.007537698
-0.07931261 0.18276872 -0.17895411 0.25685152 0.121624276 0.2688846 -0.19889669 -0.27835575
-0.3141287 -0.21925476 0.3031201 -0.24322233 0.13431765 -0.036214847 0.23386176 -0.2726896
-0.19697766 0.21928348 -0.3146331 -0.2433565 -0.28601176 0.116198786 -0.11201402 -0.1243715
-0.2820265 0.3263552 0.122484505 -0.13037327 -0.16533262 -0.101630785 0.28406575 0.29138777
0.3050902 -0.22870794 0.2760874 0.25151545 -0.22875525 0.2266591 0.026518716 -0.09059394
-0.27767113 -0.14604029 -0.287486 0.30403227 0.3153391 0.28821763 -0.12552513 0.2982227
0.13547844 -0.27608058 0.29828283 -0.1924291 -0.2901617 -0.28033888 -0.21485463 -0.28138903
-0.115631215 0.20951684 -0.24046768 -0.30301523 0.2432132 -0.07621545 -0.20998351 0.23646525
-0.23605658 -0.26592413 0.005847946 0.2269587 0.2768038 0.021514 -0.23401548 -0.16539596
0.28566903 -0.23037489 -0.25891376 0.28288233 0.048247755 -0.29087853 -0.2770119 -0.01644042
0.24854039 -0.2503695 -0.16100408 0.1670574 0.27282175 0.23359407 0.3190845 0.057193853
00000000: 00c3 04be b831 5abc 9757 bbbd b2d8 f33d
00000010: 93b8 20be 1c59 69bd ef6a e53d 9294 093e
00000020: fbab f23d dcaf eebd d521 d63c a71b 2ebd
00000030: 97f8 e63d ff43 02be 055d 07be 0963 033e
00000040: ba89 47bd 2e45 0abe 69fd ad3b faad 433c
00000050: b202 943d 422e 0d3e 5f93 aabd d3d7 1d3d
00000060: 95f3 11bb 3f27 c83d c94a 2a3e fd73 0b3e
00000070: dffc f0bd 1375 0dbe 45ec dcbd 46c2 9dbd
00000080: 8951 e4bd 9d7c fcbd b56c 94bd e88c 1cbe
00000090: c940 1f3d aa00 043e 2b05 b73d 6fe5 173c
000000a0: 4fc7 d43c e96a 99bd ef02 bd3d f1fd 00be
000000b0: 7365 27bd 885e 1cbe 2b20 a43d 5e8e 193e
000000c0: 9c5d 313e a33c a93d 26a3 0dbe e51a 223e
000000d0: 68c5 69bd 5df3 403c 4cac f6bd 6ebe 063e
000000e0: 368a e53d 4fef fcbd 9f03 233e dc9f e53d
000000f0: 3877 3a3e b7cb 5fbd 3daa 463d 8d8e 4f3d
00000100: afbe 573e a2b4 b1be 144d 78be 7ddc 883e
00000110: 5c7d 4abe f133 b0bd 214c 1ebe de2d de39
00000120: 2ac2 2ebe 2f99 c7bb 6367 8bbe be3b 94be
00000130: f385 a33e feda b3be aa27 6bbe e24f 803e
00000140: 7cfb 5c3e c521 20be cdbf 973e 227c 99be
00000150: bebe 9abe 8380 bfbd dec8 adbd 1fa2 97be
00000160: 01aa 1dbe 04d7 b43e 6981 e3bd 9f3c 9e3e
00000170: 2a6a 7a3d db71 313d 621a ab3d 4797 613e
00000180: 1b33 25be 36bf 9ebe b195 133e 680e 0b3e
00000190: 34c0 08be b0eb 883e 977d a13e fa1f 78be
000001a0: 4d0a 833e 02a4 593e c882 3f3e 7dbb b9be
000001b0: d157 9fbe efb0 8cbe 1eda 933e ce1b a13e
000001c0: 6c0a 1e3c 7195 a13e 4d44 88bd e871 47be
000001d0: cb97 19be 503d 993e afde 2a3e 0baa 553e
000001e0: 1269 9bbd d1e6 683d 885a a63e 18f3 953d
000001f0: cd72 9b3d 5486 82be 1204 98be aeb2 a53d
00000200: 04c8 5d3e fc75 873d a995 603e 2bc3 89be
00000210: ba79 8d3e 7d7d 1b3e 2e37 72be 6d5f 8ebe
00000220: d8ea 79be 8497 633e 939b 0ebd c6c6 023e
00000230: 43e0 66be c54b 893e 4ff4 7c3e c023 89be
00000240: 2a73 223e 8274 793e 7b24 f9bc a317 00bd
00000250: 9409 f7bd b3dc 88be 9333 2c3e 95cc 54bd
00000260: a463 a83c 9728 60be c231 9dbe 3e81 94be
00000270: 885b 813e 531b 723e a387 763e 46a0 383e
00000280: 5da4 623e fc76 8e3e d67d 193e a82c 903e
00000290: d88d 07be 8645 88be 9511 76be cbfe f63b
000002a0: a66e a2bd b927 3b3e bf3f 37be 0b82 833e
000002b0: 2616 f93d 3eab 893e 93ab 4bbe a584 8ebe
000002c0: 7ad5 a0be 5284 60be 8f32 9b3e 460f 79be
000002d0: 918a 093e 0556 14bd 7579 6f3e f99d 8bbe
000002e0: 83b4 49be d98b 603e 9717 a1be 7232 79be
000002f0: 2270 92be a1f9 ed3d 9b67 e5bd 7cb6 febd
00000300: c765 90be 0718 a73e 28d9 fa3d 9280 05be
00000310: f44c 29be cd23 d0bd 1171 913e c730 953e
00000320: c834 9c3e 6a32 6abe 545b 8d3e a2c6 803e
00000330: d13e 6abe 5319 683e c73d d93c 5189 b9bd
00000340: e92a 8ebe 968b 15be 5d31 93be 1eaa 9b3e
00000350: 2074 a13e 4391 933e a989 00be a5b0 983e
00000360: dcba 0a3e 6f5a 8dbe 87b8 983e 220c 45be
00000370: 1390 94be 9488 8fbe da02 5cbe 3912 90be
00000380: 0fd0 ecbd 958b 563e 293d 76be d024 9bbe
00000390: e20c 793e d916 9cbd eb05 57be f223 723e
000003a0: d1b8 71be 3527 88be 20a0 bf3b dd67 683e
000003b0: 3ab9 8d3e 213e b03c c1a1 6fbe 8f5d 29be
000003c0: 3643 923e 65e7 6bbe 5890 84be f4d5 903e
000003d0: 709f 453d 08ee 94be 81d4 8dbe 0fae 86bc
000003e0: 5f81 7e3e 6e30 80be 41de 24be 1811 2b3e
000003f0: 4baf 8b3e 4933 6f3e 0b5f a33e 1a44 6a3d

actor.4.bias f4 [4]
0.017968606 -0.053934474 0.059801012 -0.05362513
00000000: e632 933c 65ea 5cbd e8f1 743d 06a6 5bbd
