HFDRL_UNIT8/models/Archived/LunarLander-v3__ppo__1__1768735658__u140.pt (torch, 44753 bytes, 11 tensors)

critic.0.weight f4 [64, 8]
00000000: 9fbc 15be 5553 533d b4b0 093d f5c7 de3c
00000010: 97ec 83bd 69c2 0c3e c709 93be 33ef 0d3e
00000020: 50f7 43be a78e 4f3e ed94 7c3e 90b3 f0bd
00000030: bbb2 2ebe e778 4fbe 9e97 283e f8ad 70bd
00000040: ba54 133d e943 5bbe 6e77 243e 947d 6d3d
00000050: 2d5e 2d3d e1a5 c93d 0229 3d3e 280d 083f
00000060: c23f 4ebe 9c37 ab3d 631b a1bc ba3b edbe
00000070: 74e8 893e 7e8c f93b 7748 84be 8137 1fbe
00000080: 3e22 8d3c e47c d4bd e930 733e c0e6 03bd
00000090: 32f9 aebb e10f c7bd f9df 973c 9104 c5be
000000a0: b706 e2bc 822f 65be 5f4f e3bc af2d febd
000000b0: 5f23 30bd 5d71 8b3e 052d 4dbe 79e6 53be
000000c0: beb9 9dbe f7c3 23be b921 87bc 21e3 aebc
000000d0: 8368 95bd 439a 69be c83c dd3e 19a8 343e
000000e0: e9a7 9ebd d89d ec3e 25b1 0d3e ad16 fb3d
000000f0: c663 aabd 4072 113e f15f 893e 2b54 c03e
00000100: 8176 243e 8140 8bbd ae0c 783e 5306 33be
00000110: 6ddc a23e 405e bcbc cedf 3ebd c2a2 38bd
00000120: d7f0 c0ba 4787 383e b8a9 973e a7a7 84be
00000130: 485b 323e 5ba6 633d e0d1 763e 157c 063f
00000140: 5e6a 59bd 765f d9be b83e 233e 395e a83e
00000150: 2b86 efbb 75fa 773e 4bf2 97bd cd29 77be
00000160: bd95 8abd 14e7 be3e bc3b a4bd 02aa 543d
00000170: 4e16 acbd 2bdf 553e 646e 8abe 75af a4bb
00000180: ee4f ddbc 6153 883e 0f61 883d 0817 abbd
00000190: a932 afbd 4789 9d3c b981 f7bd 7bd8 e93d
000001a0: 0b81 19bd 6c1a 09be 91bd 553e 1e3d a73e
000001b0: 2c84 b4bc 2579 f13c 15d4 74be 93cd 1b3e
000001c0: 92ef ddbd d381 86bd b1a3 323e 6ce0 603e
000001d0: ce40 d13d 1575 123c 5976 87bc 0cab a53b
000001e0: dca5 77bd b1b4 c33d b848 7abe 11fd 4bbe
000001f0: d85b c1bc 430c 253e 3b8c 603d 2d9a b9bd
00000200: 0801 df3d 0b18 973d 7e88 f63c 32f3 ccbe
00000210: f36e ecbd 15f8 5ebd 7459 ecbd dfba 593e
00000220: 4bee b1bd 5d32 1b3e 91ad 9a3e cd1a 5a3d
00000230: ed65 7e3e 87d6 42be d59c 18bd fc51 023e
00000240: 1b64 9cbe 5497 1abe 1d0c 883e 99c2 153e
00000250: 2285 40be 7b99 e63d 82df 45bc 8864 a3bd
00000260: f8fa 57bd 18a9 8a3e be3b 82bd 52b8 fbbd
00000270: e43c 973c 4ca0 3c3e 033f acbe 22d5 4dbe
00000280: 841d 5e3e 5847 05bc 5476 2f3e caf9 483d
00000290: fc1a 973d 86f0 82bd 81ca 543a 3329 d13c
000002a0: b8a1 d93d 76cc 4b3a b3ca 4dbe 5bd6 63be
000002b0: abf2 96bd 4b30 a73d 66a4 42be 716e b0bd
000002c0: b818 453e 9bb0 c23a 1641 d03d db7b 5c3e
000002d0: a9f1 34be d24d 1abe 6c32 00be 875a 61be
000002e0: 622f 5f3e 19ea 893d d34c dcbd 529b 933d
000002f0: 19a8 1a3e 27cc d0bd cdbb 8a3c b700 8fbe
00000300: af79 87bd 83ed 523d 655e a63d cefe babd
00000310: 9b67 403d aad7 4cbe 0630 17bf cfe5 24be
00000320: f9b2 a9bd 3be9 923e dc61 bf3c a0a3 623d
00000330: 3f75 cb3c 4c68 5ebe 5d97 ad3d f392 8fbd
00000340: 3d9b d4bd 9d58 073d 80f1 933d 8492 30bc
00000350: 90f3 723e d912 0ebe b004 dd3d af9f 263e
00000360: 4d9f 61bd fdc1 c8bd 00b6 93bc 0fc3 ff3c
00000370: 852e 79be fbed 483e 9661 f93d 8848 9e3e
00000380: 28eb 8f3e 5edf a83b c6db 8fbe 664b 96bc
00000390: 1915 00be e28c 273a 6374 c0be ca79 c9bd
000003a0: 1efd e13d 3f35 d53e d996 49be 5c23 9a3e
000003b0: 109a 53be 3611 923d 5be4 243c 4e7b dbbe
000003c0: dc77 8dbe 983a b7bd dd65 32be 833a 0dbc
000003d0: cc60 633e 1068 e7bd d99c db3d 0c45 b73e
000003e0: 755f cabd dfb1 ec3e adbc 153e 6014 babc
000003f0: 6587 4d3e 6c31 193e 972b 28be 2120 89be
-0.14622734 0.051593143 0.033615783 0.027194956 -0.0644161 0.13746037 -0.28718397 0.13860779
-0.19137311 0.20269261 0.24666186 -0.11752999 -0.17060368 -0.20260964 0.16464087 -0.05875966
0.035969473 -0.21412624 0.16061184 0.05798109 0.04232614 0.09846092 0.18472674 0.53145075
-0.20141509 0.08360216 -0.01966638 -0.4633463 0.2693516 0.007615625 -0.25836536 -0.15548517
0.017228242 -0.103753835 0.23749126 -0.032202482 -0.005339765 -0.097198255 0.018539416 -0.38480046
-0.027591093 -0.22381404 -0.027747808 -0.12411057 -0.043002483 0.27234927 -0.20036705 -0.20693387
-0.30805773 -0.15992723 -0.016495572 -0.021348538 -0.07295325 -0.22812752 0.43210435 0.17642249
-0.0774687 0.46214175 0.13837107 0.122601844 -0.083198115 0.14203739 0.2683101 0.37564215
0.1606083 -0.067994125 0.24223587 -0.17482881 0.31808797 -0.02299416 -0.046600156 -0.045077093
-0.0014720213 0.18020354 0.29621673 -0.2590916 0.17417634 0.05557857 0.24103498 0.52533084
-0.053079955 -0.42455643 0.15941894 0.32884386 -0.0073096952 0.24216636 -0.074192606 -0.2413704
-0.067668416 0.37285674 -0.08019206 0.051919945 -0.08402692 0.20885913 -0.27037346 -0.005025799
-0.027015653 0.26626113 0.066591375 -0.08354002 -0.085545845 0.019230498 -0.120852895 0.114182435
-0.03747658 -0.13388985 0.20873095 0.32663816 -0.02203568 0.029476712 -0.23909028 0.15215139
-0.1083671 -0.06567731 0.17445256 0.2196061 0.10217439 0.008939047 -0.016535925 0.0050557908
-0.06046091 0.095559485 -0.24441803 -0.19920756 -0.023603365 0.16117959 0.054821234 -0.0906261
0.108888686 0.07377633 0.030094381 -0.40029293 -0.115445994 -0.05443581 -0.11540499 0.21262692
-0.08688029 0.15155931 0.30210546 0.053248215 0.24843569 -0.19027148 -0.03725894 0.12726587
-0.30545124 -0.1509679 0.26571742 0.14625014 -0.18800786 0.11259743 -0.012077214 -0.07978159
-0.052729577 0.27082133 -0.06359051 -0.12291016 0.018461652 0.18420523 -0.33641824 -0.20100835
0.21690947 -0.008134685 0.17134982 0.049066342 0.07378194 -0.063935325 0.00081173336 0.02553234
0.106265485 0.00077743025 -0.20096855 -0.22249739 -0.07370504 0.08163508 -0.19008026 -0.08614815
0.1924771 0.0014853658 0.10168664 0.21531622 -0.17670311 -0.15068749 -0.12519234 -0.2200719
0.21795419 0.06734104 -0.107568406 0.072073594 0.15103187 -0.10195189 0.016935254 -0.27930233
-0.06615006 0.05149604 0.08123473 -0.091306314 0.046973806 -0.20004144 -0.5905765 -0.1610329
-0.082860895 0.28693566 0.023362093 0.055331826 0.02483618 -0.21719474 0.08476136 -0.0701045
-0.10381172 0.033043493 0.07223797 -0.01077712 0.23725724 -0.13874377 0.1079191 0.16271852
-0.05508356 -0.09802625 -0.01803112 0.03122094 -0.24334152 0.19622032 0.12176816 0.30914712
0.28109097 0.0051535806 -0.2809736 -0.0183465 -0.12508048 0.00063915376 -0.37588796 -0.098376825
0.110346064 0.41642186 -0.1968645 0.30105102 -0.20664239 0.07132189 0.01006421 -0.42867512
-0.27630508 -0.08946723 -0.1742167 -0.008619907 0.22204894 -0.11299145 0.10723276 0.35794866
-0.09881488 0.46229455 0.14622755 -0.022714794 0.2007118 0.14960259 -0.16422878 -0.26782325

critic.0.bias f4 [64]
00000000: 2081 f9bd 0466 f23d eefb b83d 4be3 b6bd
00000010: 9bd8 15be 8aef 633a b4f3 c5bc 50c7 073e
00000020: 09ae e0bd 3b7a fd3d 35ce c13c f624 b8bd
00000030: b389 fc3d 71af df3d 891a 8e3d 3180 dcbd
00000040: 3b4d f13d 9d3c 70bc 6285 f8bd 540b b6bd
00000050: e635 f3bd b8ba 293d 9d6b adbd 7f72 00be
00000060: 3a77 92bc 2245 afbc 2920 f43d e3d5 db3d
00000070: da1d b7bd 46bc a1bd d727 e53d c909 87bd
00000080: d6a5 dcbd 2abc efbd f2c3 063e 00e4 f13d
00000090: 1681 f1bd 3ef6 f0bd fe00 ebbd 78a1 d63d
000000a0: 83db 7d3d 2a74 eb3d ccd6 e0bd 8211 0cbc
000000b0: 704d 03be 0328 2dbd 924e 97bd a640 eebd
000000c0: 0579 edbd 9f65 afbd 2fd6 d8bd c0f6 d03d
000000d0: ebbb ddbd 1f57 21bc ce66 b8bd 8d48 bbbd
000000e0: fd9b 00be 2495 b33c f04f 05be 02b1 20bd
000000f0: c9e1 12bd 7e20 ad3d d3e1 06be a01e f0bd
-0.12182832 0.11835864 0.09032427 -0.089300714 -0.1463341 0.0008695057 -0.024164058 0.13259625
-0.109706946 0.12376829 0.023657897 -0.08991425 0.123309515 0.10922135 0.06938655 -0.10766638
0.11782309 -0.014662889 -0.12134816 -0.088888794 -0.11875515 0.041437835 -0.08467791 -0.12543677
-0.017879117 -0.02139527 0.119201966 0.10734155 -0.089412406 -0.078972384 0.111892395 -0.06593663
-0.10773818 -0.11705811 0.13160685 0.11811066 -0.11792199 -0.11765717 -0.114747986 0.104800165
0.06197692 0.11496766 -0.10978469 -0.008549096 -0.12822509 -0.042274486 -0.07388033 -0.116334245
-0.11595348 -0.085643046 -0.10587727 0.10203314 -0.10826858 -0.009847431 -0.090039834 -0.09144697
-0.12559505 0.021921702 -0.13018775 -0.039231308 -0.035859857 0.08453463 -0.13172083 -0.11724591

critic.2.weight f4 [64, 64]
00000000: a4ac 453e 276c 10bf 4ebe 1ebe 82de 523e
00000010: ad6d 953c 9d85 a4bd 0139 223e 77a6 b7be
00000020: 8d86 41bc e656 943e 9c92 15be ea7b 9fbd
00000030: 5216 c2bd f243 30be 3b8d 87be 51f4 3a3e
00000040: c03e a13c 389f f5bd d0e4 4b3d 32b2 0c3e
00000050: 8e67 b2bd 5a2f b53d ef64 2b3e ecc4 d13d
00000060: 87fd 913e 4346 a43d 37c0 473e 9f07 a63c
00000070: 7d89 463c 5042 eb3d 005e 5b3b 6fb3 a63d
00000080: 4c2d 79bd 23c7 543e 75f7 363e c9dd adbd
00000090: 036e a3be 5c26 84be c48c 9dbd 32b2 05bf
000000a0: c9e2 3f3e 1a89 57be c0e0 443d 8dc7 aebd
000000b0: a51d 78be b3a0 d83d f1ae 8e3d 289b 983e
000000c0: a4ae 293d 7bb8 413e 46ac 56bd b3f9 99bd
000000d0: 5311 bb3d ddf7 50bd ff89 e83b a5e1 173e
000000e0: 5606 253e 8490 58bd 2cb7 a03d 191e dfbb
000000f0: cc6d 663e 9cb0 8e3e 5eff 72be fb31 8e3d
00000100: 36bf 933e 3be3 033e 9b99 babc 2001 503d
00000110: 38ad 4a3c 0bc7 3abe d088 dd3d baef 84be
00000120: 7984 79bc 9f5e 9bbe f9bb 1b3b 0c33 a0bd
00000130: 7033 ca3e 5048 873e 7989 0bbe a99f 743e
00000140: caad 8bbd 197e 81be d35a d63e 5d3a f3bd
00000150: d53a c33d b7fa 3b3d 5b3a 0b3c b2aa c53d
00000160: 1462 cfbc c319 103e d20c f1bd f63d 8dbd
00000170: 6068 783e 30bd 9b3e 189f fdbd 8792 3e3e
00000180: cf2b 543e eb4a f23d e298 cfbd 5f6a 38be
00000190: eacf d73c 8129 a7bd 0d75 cbbd 36fc 493e
000001a0: 844c 593d 9473 91bd 19e3 683e fd45 8bbd
000001b0: dfcc 0b3e dfbc 183e e189 9a3e 0046 9b3c
000001c0: 9aa5 cd3e 7d6c c8bd 3211 183d 75e8 e4bd
000001d0: 82ed c33d d8dc a2bd 8939 80bd ffa0 c4bd
000001e0: ea08 b83e 15de 4cbe 9512 583e 5e8d 483e
000001f0: 434b fb3d 6c69 a83c 9084 76be 22aa c63a
00000200: b22e 11be a812 2f3e abe9 613e b625 7f3d
00000210: 4242 813e 1d96 88bd 34ea 9d3d 1d18 7c3e
00000220: 7a2b 8ebe 7245 c23e 2ade 4cbe edd8 70be
00000230: 0cec 36bd 2887 8a3e 0adc 293e 7f89 8abe
00000240: b0fd adbe 573a dbbc 4c69 303d 2ba3 d3bd
00000250: b0af 24be e2e2 8cbd 1e57 19be b840 43bc
00000260: 9b66 11be 0d04 9a3d f623 e73e 49e7 4f3e
00000270: 4ae0 113d e15c d5be b9ff 4dbe 5b43 a6be
00000280: 8d90 903e e1f4 4f3d 9fe0 10bd d27d 073e
00000290: a2e9 c9bd 2f26 fbbd aade 31bc 68db 293e
000002a0: 3923 053e 19ec 97be 2120 7c3e e3eb 4d3d
000002b0: 1e36 533c eda9 2cbe 1dee dd3e c62d 643d
000002c0: 6362 123d 81ef 1ebd d1f1 2d3c 4633 533b
000002d0: 9979 16be 24bc bf3d 1247 3f3d a220 b1bd
000002e0: 41a3 a7be f1d0 1cbc bcd8 383d 15e2 40be
000002f0: 3ef1 ccba a48f 3d3b 7568 cdbd fbee 0fbd
00000300: 5bb9 8f3e 410a 223e 30f2 42be d5fb 603e
00000310: 97b8 3e3d 86ac 08be fd78 17bf 276a 0bbe
00000320: 5195 bf3d 666d b33c 9403 f43d feaf f63c
00000330: 4878 aabd acd2 4b3e 7f78 00be 889c 6a3e
00000340: e033 cabd a64e b63d f194 77bd 416b 153e
00000350: e1f3 1bbe 004b c93d 3a94 d73e ebfb 493e
00000360: 0ebe 32be 9e94 18bd 0913 91be ad42 35be
00000370: 8dde b2bd cd2a c8be eaa8 443e 2dfd 203e
00000380: 3c82 463d c0d2 653e d57d 90bd 25a3 2fbe
00000390: 0a98 e3bd 4376 8dbe a7c3 2b3e 721e c4bd
000003a0: 0370 bc3d e61f 61bd 3724 253e b57b e33d
000003b0: 42b7 ffbd bcc4 b83e 360a f2bd fc2b a23d
000003c0: 104a 793e 6fd3 433d 9a06 44be 8b38 d8bd
000003d0: 71f6 273e 1c21 92bd f856 2abd 9e2c 8fbe
000003e0: 2040 1d3e fa5c 22be 2e18 283e 9f3f 0f3e
000003f0: 3f1a 4abe fda2 87be 2bde 21be cfcb 4d3b
0.19304138 -0.5641503 -0.15502283 0.20592692 0.018240774 -0.08033297 0.15842058 -0.3586919
-0.011811865 0.28972548 -0.14606708 -0.077873066 -0.094769135 -0.17213419 -0.26474938 0.18257262
0.019683242 -0.11993259 0.04977876 0.13739851 -0.08711158 0.08846922 0.16737722 0.10242638
0.2851374 0.08021214 0.19506918 0.020267306 0.012117741 0.114872575 0.0033472776 0.08139693
-0.060834214 0.2077909 0.17867835 -0.08489568 -0.3191987 -0.25810516 -0.076928645 -0.5222503
0.18738855 -0.21048394 0.0480659 -0.08534155 -0.24230058 0.10577526 0.06966961 0.29805875
0.041426316 0.1891803 -0.052410387 -0.075183295 0.09134164 -0.05101763 0.0070965285 0.1483217
0.16115698 -0.052872196 0.07847437 -0.006809008 0.22502822 0.27869117 -0.23730227 0.06943127
0.2885682 0.1287965 -0.022778323 0.050782323 0.0123704 -0.18239991 0.108171105 -0.25964147
-0.015229338 -0.30345628 0.0023763163 -0.078222364 0.3949237 0.26422358 -0.1362666 0.2388903
-0.06820257 -0.25291517 0.41866168 -0.11876366 0.09532706 0.045893397 0.0084978 0.09651698
-0.025315322 0.14072327 -0.117700234 -0.06896584 0.24258566 0.30417776 -0.1238386 0.18610583
0.20719837 0.11830696 -0.10136582 -0.18009327 0.026344258 -0.08162213 -0.09934435 0.19725117
0.053051487 -0.07102123 0.22742881 -0.068004586 0.13652371 0.14915799 0.30183318 0.018954277
0.40165406 -0.097863175 0.037125774 -0.1117715 0.095667854 -0.07952279 -0.06260974 -0.0960102
0.359443 -0.20006593 0.21100838 0.19585177 0.122702144 0.020558082 -0.24074006 0.0015156905
-0.14177969 0.1709696 0.22061794 0.062291823 0.25245863 -0.06669257 0.07710686 0.24618573
-0.27767545 0.37943608 -0.20006624 -0.2352025 -0.044658706 0.2705624 0.16587844 -0.27058026
-0.3398261 -0.026761217 0.04306917 -0.10333856 -0.16082644 -0.06879212 -0.14974639 -0.011917286
-0.14199297 0.07520304 0.45144624 0.20303072 0.03561429 -0.41672423 -0.20117082 -0.32473263
0.28235283 0.050770644 -0.035370465 0.1323159 -0.09859015 -0.12263142 -0.01085631 0.16587603
0.13001718 -0.29672316 0.24621631 0.050273787 0.0128913205 -0.16861697 0.4334573 0.055707715
0.03573836 -0.038802627 0.010616736 0.0032226606 -0.14694823 0.09362057 0.046698637 -0.08648802
-0.3274174 -0.0095713 0.04512857 -0.18836243 -0.0015635861 0.0028924728 -0.10029689 -0.03514002
0.28071102 0.15824224 -0.190377 0.21971066 0.046562757 -0.13347062 -0.5916899 -0.13614713
0.09354652 0.021902751 0.11914745 0.030113216 -0.08323723 0.19904584 -0.12545966 0.22911274
-0.098731756 0.0890172 -0.060444776 0.14591695 -0.15229751 0.09828758 0.42105275 0.19725005
-0.17455313 -0.037251107 -0.28334835 -0.17701216 -0.087338544 -0.39095154 0.1920506 0.15721579
0.048464045 0.22443676 -0.070552506 -0.17152078 -0.111129835 -0.2762929 0.16773854 -0.095761195
0.09201052 -0.05496206 0.16127096 0.111075796 -0.124861255 0.36087596 -0.11818354 0.079185456
0.24344659 0.04780906 -0.19143143 -0.1055766 0.16402604 -0.07135221 -0.041586846 -0.27963728
0.15356493 -0.1585578 0.16415474 0.13989113 -0.19736575 -0.26491538 -0.15807407 0.0031401997

critic.2.bias f4 [64]
00000000: b0a3 c2bd 9cc7 a0bd bbdc cb3d 5355 00be
00000010: d106 11be d6d4 b6bd 7bc2 bb3d 8ee4 0abe
00000020: c58a fcbd 28f6 e83d d2b8 c7bd b594 83bd
00000030: e63c d9bd ac06 e6bd d646 e2bd 4eb3 b93d
00000040: 7d86 c4bd 0ea7 c3bd e4ed c5bd 43bd 7a3d
00000050: 7aa5 e1bd a864 c23d d665 cebd 2a28 d5bb
00000060: aefb a4bc 5091 c63d c32c b63d cdf9 af3d
00000070: 74d6 fb3d 5c7d f2bd 3efc b33d 5963 f6bd
00000080: 71c8 b4bd 1678 ca3d cbf8 f33d f956 d0bd
00000090: 9b5b ec3d e6f8 c13d 3c95 bcbd ec58 dabd
000000a0: c796 26be 0239 d7bd 5254 d73d 5385 bdbd
000000b0: 9f83 0b3e 48a2 023e 5f79 bf3d b920 bfbd
000000c0: 829e 0e3e dfb3 463c 636f c73d f401 d73d
000000d0: 27fe d13d 07ed bb3d 86e1 cabd 133e b03d
000000e0: a0b6 f33d 8c36 bfbd 7ed5 993d 7068 bc3d
000000f0: 073a ddbd 05b0 063d eb49 b83d 3c11 d03d
-0.09503877 -0.078505725 0.0995421 -0.12532549 -0.14162757 -0.08927314 0.091679536 -0.13563749
-0.12331156 0.113750756 -0.097520486 -0.06424848 -0.106073186 -0.11231741 -0.11048667 0.09067403
-0.09595964 -0.095533475 -0.09664515 0.06121565 -0.1101789 0.09491855 -0.100780174 -0.006505032
-0.020139541 0.09695685 0.08895256 0.085925676 0.12296763 -0.11840317 0.08788346 -0.12030668
-0.08827294 0.09886186 0.11912688 -0.10172839 0.1154091 0.09471302 -0.09208152 -0.10661492
-0.16268454 -0.1050892 0.1051413 -0.09253945 0.13624428 0.12757218 0.093493216 -0.09332413
0.13927653 0.012127846 0.09738042 0.104984194 0.10253554 0.09176069 -0.099062964 0.0860559
0.11900067 -0.09336576 0.075114235 0.09199607 -0.108020835 0.03288271 0.08998474 0.10159537

critic.4.weight f4 [1, 64]
00000000: 4ee9 283e dcca 163e beaf 05be a265 e13d
00000010: c47e bb3d 9d19 aa3e 6d2f e9bd 8173 b53d
00000020: 7182 b23d 7e72 eebd 84cb 823e dbfd be3d
00000030: 2ae3 f83d 9f34 073e 9ba2 593e d967 04be
00000040: 6d7a 1b3e 6960 5a3e 0224 0e3e d163 5abd
00000050: be9c 6a3e 79d0 a3bd c102 c03d f0bb 0abd
00000060: 7c65 99bd 5dc5 92be a847 7abe dd85 c7be
00000070: 3425 1abe a799 403e 00dd 83be fdfe 1a3e
00000080: cfde a33e 0fcd 0dbe 0ec1 efbd c9a8 5c3e
00000090: f671 5fbe e42c b2be 1894 4d3e 1361 603e
000000a0: 2aa8 923d a70b 903e a4d3 17be 4002 5e3e
000000b0: 5b09 a4bd fa7d 7ebd d608 9abe c68f 0d3e
000000c0: f945 b6bd 464c ba3b f14b 38be d8f9 9abe
000000d0: 0e25 13be d83a a5bd ab4e 403e 7d67 b0be
000000e0: 62df 32be 0aa2 3f3e 999c 7fbd b524 61be
000000f0: 0de3 3d3e ec0f 953c d6d6 b1be 39f8 edbe
0.16495249 0.14725822 -0.13055322 0.11005713 0.09155038 0.33222666 -0.11385999 0.08859921
0.08716286 -0.116429314 0.25545895 0.09325763 0.12152703 0.13203667 0.21253435 -0.1293024
0.1518342 0.2132584 0.13880923 -0.05331785 0.22911355 -0.079987474 0.09375525 -0.033870637
-0.0749006 -0.286662 -0.24441397 -0.38969317 -0.15053254 0.18808614 -0.25754547 0.15136333
0.32005927 -0.13847755 -0.11706744 0.21548761 -0.21820816 -0.34799874 0.20076025 0.21912031
0.07160981 0.2813389 -0.14826828 0.21680546 -0.08009597 -0.06213186 -0.30084866 0.13824376
-0.08900065 0.005685362 -0.1799772 -0.3026874 -0.14369604 -0.08067864 0.1878001 -0.34453955
-0.17468026 0.18714157 -0.062405203 -0.21986659 0.18543644 0.018196069 -0.3473422 -0.4647844

actor.0.weight f4 [64, 8]
00000000: fb2a 69bd 060c e63c 50db 6a3e 3d99 52bd
00000010: 1934 0fbf 2fb9 22be 48e3 9b3d 8777 6d3e
00000020: 59b9 70be 24c3 ca3d 709a a2bd 347c 0b3f
00000030: 1edb 373e 9ae8 a2bd 0458 adbd e0cf 1c3e
00000040: af53 d93b 6724 90be a5a1 73bd 03e9 03bf
00000050: 974d 8e3e 793d 44bd 5db2 b8be f77b 96be
00000060: f5f5 9cbd d266 babc 25ba 5dbe 0e42 a8bd
00000070: e141 b73e 6523 c9bd a883 46be 1cf1 87be
00000080: ffa1 fa3d 4ca7 53bd ecd1 f4bd 3ee2 20be
00000090: 8b8c 403e ad86 0e3e 3186 3b3e 5851 a5be
000000a0: 1d43 d1bd 7c94 84be d500 8c3d a44d a93e
000000b0: a4bd 90be 1d07 5b3d c4e6 783d e7ca d53d
000000c0: b071 a8be 4b95 15ba ed96 4ebd 9632 44bd
000000d0: 4885 5dbe 95cf 9bbc c85f 133e 98ea adbe
000000e0: 842b e9bd 292d 57be a277 7e3e 6885 ce3e
000000f0: d1fe 17bf 8e61 f7be 4b7c d73d 5030 333e
00000100: eea6 58be 2682 183e 6910 f9be db64 bdbe
00000110: 7c26 a73e f283 a43e 9521 0dbf 5310 893d
00000120: a4e0 f3bd 8151 363d 3f2d 7a3c af28 773e
00000130: 4d1f 83be 6b62 a8be 7e0a c2bd d124 323e
00000140: 50a7 80bd ef36 803d 486b ea3c 2bd9 3dbd
00000150: 518f babe 1fa1 d33c 6c82 873e 40a5 363e
00000160: d1f2 e23c f900 adbd b8cc 0b3d 6bea 24bc
00000170: de54 d9be b4c1 8abe 2ff8 fd3d 8275 25be
00000180: 08bc 4abe a663 e1bd 8e41 7fbe b840 84be
00000190: cadc 733e 413b b93e 5bc3 24bd 9041 1dbe
000001a0: d24a a5be a948 a43e 6ca2 633d 9333 01bc
000001b0: 108f dcba a4c9 b3bd 7b25 783e 9745 a33c
000001c0: 3b30 03be f79e 43be 874d c93e 3d44 dcbe
000001d0: a5cb 76be 1e22 31bd 5465 803c 36ed 1f3d
000001e0: d896 32be 4bfd be3d 9c2b 9d3d c5b7 55be
000001f0: a41d 70be f363 b6bd 07dc c1bd 57a9 c53d
00000200: b228 92be 10bf 7bbd deae 233e 776f ee3e
00000210: d642 56be 1014 aebe c6cb 853c a914 d23d
00000220: ab7f 333e baaa d33d 83dd 26be 0f3d 88be
00000230: a5ea 8c3c 9c6e 89bc db38 1e3e 4fb8 46be
00000240: 3086 2a3d 8f4f b93d 2dbb 9dbe 3098 d23d
00000250: d3e7 873e 1f49 0d3e 147f be3c 8b6e 03bb
00000260: ba62 163e a4f1 a1bc d7ef 653e 1f9c a8bd
00000270: 7fba fbbe 2a4e acbe 87ff 93be f9c4 f4bd
00000280: 4e77 0fbd b5f8 22be 871f 50be 4cb9 403d
00000290: 8592 1abc 5167 423e 14e2 8c3d a496 3f3e
000002a0: 66d0 d33d 64b6 ab3c 2912 d43d dc1c 323e
000002b0: d1fd c1be a219 bdbe 2779 323d 61f2 c93d
000002c0: 99cb df3c 61f0 1f3e 86b2 2fbe 94b8 123f
000002d0: 02ac cc3e 6985 943e b5e6 dd3d a79a 8abc
000002e0: 5766 8c3e 5924 373e 4a7f 373e 52ce bdbe
000002f0: 950f e33e 3ca5 4b3e a59b 89be 0af0 4abd
00000300: 5a07 93be 3898 043d ef1b d5bd ac86 673e
00000310: bd73 13be 8262 87be 302c 3e3d bca0 ae3d
00000320: 3c3d 05bd af22 9d3d 49ae edbd 6162 cdbe
00000330: 70fd a73a efa9 803e 61f4 42be 3495 133d
00000340: ecd1 ad3d 8ede 3c3c 6c97 0e3f 70df 293e
00000350: c740 5cbe 4828 01bd b70c 51be f812 913e
00000360: 66d5 d63d 6d3f 24be bdb1 b9bd 1834 b6be
00000370: 6f22 d63e 5dd0 ea3e eefc 843d d670 a03d
00000380: 6e80 913c 7ed5 77be c51b b5bd 8072 52be
00000390: 442c 023f defe 873b 3785 37be b0e8 83bd
000003a0: 8a54 f33d ed2a 7dbd 7195 c13c 97f3 34bf
000003b0: 5e33 29be f265 14bf 8ecb cbbd df4b c3bd
000003c0: ce74 abbd c540 0abd 88e7 49bd 0083 f23e
000003d0: 2c78 ca3e 915e 243e b32c e4bb 197f 3ebd
000003e0: 259d da3d 194a 79bc 3bce 43bd 7cbb a23e
000003f0: b80f 673e 6ad2 043d cfeb d2bc 18f5 6cbe
-0.056925755 0.028081905 0.22935224 -0.05141567 -0.5593887 -0.15890954 0.0761171 0.23190127
-0.23508205 0.09900501 -0.07939613 0.54486394 0.1795468 -0.079545215 -0.08464053 0.15313673
0.0066322903 -0.28152773 -0.059480328 -0.5152742 0.2779357 -0.047910187 -0.3607358 -0.29391453
-0.076641 -0.022754107 -0.2165304 -0.08215724 0.3579245 -0.09821204 -0.1938616 -0.2655114
0.122379296 -0.05167322 -0.11954102 -0.15711305 0.18803613 0.13918562 0.18312909 -0.32288623
-0.10217879 -0.25894535 0.06836096 0.33067048 -0.28269684 0.05347358 0.06076695 0.10439091
-0.32899237 -0.00057061453 -0.050436903 -0.047899805 -0.21632874 -0.019019881 0.14392006 -0.33968043
-0.11385253 -0.21013321 0.24850324 0.40336156 -0.59373194 -0.48316616 0.10521754 0.17498899
-0.21157429 0.14893398 -0.48645332 -0.3699101 0.3264655 0.32131916 -0.5512937 0.06692567
-0.11908081 0.044511322 0.015269577 0.24136613 -0.25609818 -0.32887587 -0.094746575 0.17396857
-0.06281912 0.06260478 0.028615609 -0.046349686 -0.36437467 0.025833664 0.26466691 0.17836475
0.027703675 -0.08447451 0.034130782 -0.010065655 -0.4244756 -0.2710091 0.12400853 -0.16158107
-0.1979829 -0.110053346 -0.24927351 -0.25830626 0.23814693 0.3617802 -0.040225368 -0.15357041
-0.32283646 0.32086685 0.05557482 -0.007885831 -0.0016827304 -0.08778694 0.24233048 0.019930644
-0.12811367 -0.19103609 0.3931696 -0.43020812 -0.24101122 -0.043245427 0.015673317 0.03904458
-0.17440355 0.093256555 0.076743335 -0.20870884 -0.23448807 -0.089057826 -0.09465795 0.0965144
-0.28546673 -0.06146151 0.15984675 0.46569416 -0.20923933 -0.3399968 0.016332518 0.10257847
0.1752917 0.10335298 -0.16295438 -0.26609084 0.017201731 -0.016776375 0.15451376 -0.19406246
0.041631877 0.09048378 -0.30806866 0.10282934 0.26544055 0.13797425 0.023253955 -0.0020054902
0.14686099 -0.019768544 0.22454773 -0.08232903 -0.49165723 -0.33653384 -0.2890589 -0.11951632
-0.035025887 -0.15915187 -0.20324527 0.047051713 -0.009434347 0.18984725 0.068790585 0.18709809
0.10342483 0.020960994 0.10355026 0.17393821 -0.3788896 -0.3693362 0.04357257 0.09860683
0.027318763 0.15619041 -0.17157945 0.57312894 0.39974982 0.29008034 0.108350195 -0.016919447
0.2742183 0.1788496 0.1791965 -0.37071472 0.44347826 0.1988725 -0.2687656 -0.049545325
-0.28716546 0.03237173 -0.104057185 0.22609967 -0.1439962 -0.26442343 0.04642886 0.085267514
-0.0325291 0.07672631 -0.11605508 -0.4011412 0.0012816619 0.2512965 -0.19038536 0.036030963
0.08487305 0.011527671 0.556998 0.16589141 -0.21509086 -0.031532556 -0.20415007 0.28334785
0.10489921 -0.1603982 -0.09067104 -0.3558662 0.41823146 0.45862094 0.06493555 0.07834022
0.017761435 -0.24202535 -0.08843187 -0.20551491 0.50848794 0.0041502556 -0.17921911 -0.06440866
0.11881359 -0.061808515 0.02363083 -0.7068419 -0.16523501 -0.57968056 -0.09950934 -0.09535956
-0.08371888 -0.033753175 -0.04929307 0.4736557 0.3954481 0.16051699 -0.0069633364 -0.04650793
0.10674504 -0.01521542 -0.0478041 0.31783664 0.2256459 0.03242723 -0.025747208 -0.23140371

actor.0.bias f4 [64]
00000000: ec76 6abb 1fc2 8dbb 9dd6 7d3d 1b62 f03a
00000010: 8f0c eeba 7178 44bc 0ea9 f4bb 9c55 dd3c
00000020: ac45 ccbc 7450 4e3d 96e9 07bd 713f 913c
00000030: 6318 393c 6de7 a93c 256b 3a3d 3179 cebc
00000040: 6267 05bc 0255 03bc 7c89 653c 1ee6 183c
00000050: 63e1 3b3b 0486 b5bc a2c0 5dbd b9fc e53b
00000060: 84e2 be3c bf65 e23c 8c0f e7bb a5db 253d
00000070: 3fad 4e3d b7f9 a63c b5af 09bd bd25 9dbb
00000080: 01d4 7c3c f837 6d3c c28e bc3c c169 fabc
00000090: 0acb 9c3c 8994 363d 621f dabb 23b1 acbb
000000a0: 5fef 05bd f061 9f3c 35b0 303b 02a6 adbc
000000b0: 79a8 a2bb 9ade 92bc 7f99 94bc 71d5 91bb
000000c0: 3490 ed3c 3a51 9fbc 7c28 a5bc 602f fbbc
000000d0: 9067 a13c 16dc cb3c 5780 c739 ff79 a8bc
000000e0: 2e99 3ebd 995e 5dbb 69d3 73bc 3aef 2dbd
000000f0: 3c5b c33c af7f 3cbc f407 193d baa7 3dbd
-0.003577645 -0.0043261196 0.06197225 0.0018339785 -0.0018161702 -0.011991606 -0.007466442 0.02701836
-0.024935566 0.050369695 -0.03318175 0.017730447 0.011297318 0.020740235 0.045512337 -0.025204273
-0.008142324 -0.008015873 0.01400983 0.009332208 0.0028668276 -0.02215863 -0.054138787 0.0070186523
0.02330137 0.027636407 -0.007051414 0.040492672 0.05045819 0.020382745 -0.033614833 -0.0047957585
0.015431405 0.014478676 0.023017291 -0.030568006 0.019139785 0.044575248 -0.006656573 -0.00527014
-0.032698985 0.01945588 0.0026960496 -0.021197323 -0.004963931 -0.01792841 -0.018139599 -0.004450493
0.028999425 -0.019447912 -0.020160906 -0.030662239 0.019702703 0.024885219 0.00038051858 -0.020565985
-0.046532802 -0.0033778308 -0.014881947 -0.042464472 0.023847215 -0.0115050515 0.0373611 -0.046302535

actor.2.weight f4 [64, 64]
00000000: 274e 833e dc35 0cbd c728 7b3e ee58 c4be
00000010: 045e f33d 78b1 eb3d 8d48 68be 7ec7 033e
00000020: e454 bc3d 4e93 7ebe 6cc6 373e 5bd2 293e
00000030: 3cb2 c03c 1bb1 bd3d e97d 2fbd ab1c 513e
00000040: 549c 3b3e 0055 9a3e b9e9 6d3d 593d bd3e
00000050: 8f82 d3bd 809b eb3d 290b 82bd 84f2 45bb
00000060: 73b6 bb3d a4aa 3e3c e732 0d3e 18f5 303e
00000070: 39ed 11be 0ba5 d83e ac7d abbe 9295 03bf
00000080: dcf8 313e 71e2 383e 63d3 c93d 5828 993e
00000090: bec4 f43d e397 cb3d b96d a83e 2e1f 513d
000000a0: 73d2 0e3f b937 eabd 519a 41be d492 4a3e
000000b0: 4dd2 763e 020e fb3d 0055 55bd ccd9 7abc
000000c0: 421b c33c 925a 443d 274f 7bbd a1fd 9ebd
000000d0: c63b 4a3b e29f 7a3e 2886 723e 06e9 02be
000000e0: 17fc a03d 8186 7c3e 14b6 3a3c e8f7 3d3e
000000f0: 80b3 5e3e 2782 0fbf 5d0f b53e 0964 89be
00000100: 0a03 d2bd f24f e5bd 4ecb 443e 495e a93e
00000110: 2571 4a3e bace 0dbe 88e0 2fbc be9e e0be
00000120: 3d2c 743c 25e3 a73d 55b7 27be e47a 65be
00000130: 7f2c 583e 0c96 42bd 406e c1be 5ce9 793e
00000140: f87a b0be 6f93 06be fb26 cd3e e122 413d
00000150: 8720 973d 89a8 6ebd c763 02bd 375e 373e
00000160: 3116 7fbe 197d 733e 60a8 a63d f75c 8d3d
00000170: 976f 403c 71c0 1c3e 0e97 063d 046d ae3d
00000180: c607 89be a8ff 7abe fac5 da3b ab81 713e
00000190: 1538 d6be b56f 533e c277 783d d6de 6bbe
000001a0: 2e83 13be 3270 ccbd e9ba e13e 253c 56be
000001b0: 825f fdbe 05f6 c2bb 9f29 6f3e c308 8fbb
000001c0: 71e1 fc3b b1c8 c3be 6ee7 cc3d 24f4 9b3e
000001d0: b8cc a33d 6d09 44bc ff14 24be 1f7b ebb9
000001e0: 3ec2 763e 9541 8a3e 1d8c fc3c 470a 52be
000001f0: 8fc9 afbd 0299 9b3e 3fba 963e 373d 833e
00000200: 2bdf 19be 0199 d73c a963 d33d 4abe 983e
00000210: e38a 0dbd 509c 2fbc 7924 69be 4e4c dfbd
00000220: 0fa1 fe3e 6cef aabd 67c5 003e d84d b6be
00000230: b5e3 d53e aa8a acbd 6cfa 493d 3a22 0dbb
00000240: 038e 283c 84c4 433e 5cc1 d3bc 7d39 583d
00000250: 414f 19bd 2489 933c beb9 1bbe a279 703e
00000260: a92c 2c3d 3fc2 763e a200 70be b6f6 4e3d
00000270: eaab aa3d 76c6 493e 1d10 12be 7adb 3ebe
00000280: ca08 063e 7516 6abe d085 8e3e 2fe4 bebd
00000290: a3a4 d63d 741d 6c3e c4f7 c0be 1a02 04bd
000002a0: 460e e8bd 5557 ad3e 082a e23d 26a9 8bbe
000002b0: fa6f 1e3d e80b c2bd 2cfd 9a3d ef4a f23c
000002c0: 856d 533e f8aa f8be 755a 623c db1e 84be
000002d0: 1b80 d33d e51a aabe db2c dcbe 817b 08be
000002e0: 486b 883e 6095 95be 927f 653e 5741 f93c
000002f0: 86f5 a63e 8067 f43d f1e3 3c3e c402 273e
00000300: 5f76 13be 25e2 b7bc 86dd b5be e677 32be
00000310: e289 09be d818 693e 0c71 8dbe e472 a33e
00000320: 1c8c ccbe 4301 b73b 4198 84bd 7af2 a73e
00000330: bb33 6dbe fcae bfbe 9f44 1dbd ce3d bc3e
00000340: a9f3 c73e 12ec 173e da4c 7abe fbc9 d93d
00000350: 38ee 9dbd 7b57 be3e 49df 4abd de08 e93d
00000360: 73b1 df3c 3369 f1be 5a3b 533e e42c 2ebc
00000370: 0745 0ebf 97ec 03bd 372a f3bc 1e44 5ebd
00000380: 1ce3 13be 91f2 12bd e22d 1bbd a480 6fbc
00000390: 169f b83c 41a8 213d 752d c03c b228 1abe
000003a0: 190b 6f3c aca8 dbbd b52a 7dbe 7590 1abe
000003b0: 0248 ef3c 6860 8f3e 44e2 d23c cb33 213e
000003c0: 2590 15be 7319 723e 189c 543e 3dc7 d0bd
000003d0: 9297 f7bd 1cc2 823d 5c4f d5bd fd73 703d
000003e0: d630 07be 3cbb 9bbd 36d0 aebe f370 243e
000003f0: abfb 76be 90ac 833e 506f 83bc 6104 8a3e
0.25645563 -0.03423105 0.24527274 -0.38349098 0.118831664 0.11508459 -0.22683926 0.12869069
0.09195879 -0.2486088 0.17946786 0.1658415 0.023522489 0.09262296 -0.042844687 0.20421092
0.18321353 0.30142975 0.058084223 0.36960867 -0.103276365 0.11504269 -0.06349785 -0.0030204365
0.09165659 0.011637364 0.13788949 0.17280996 -0.1425065 0.42313418 -0.33494318 -0.514001
0.17380089 0.1805513 0.09854772 0.29913592 0.11951588 0.099410795 0.32896212 0.051055126
0.5578987 -0.114364095 -0.18906523 0.19782573 0.24103661 0.12258531 -0.052083015 -0.015310716
0.023816708 0.047937937 -0.061354782 -0.077632196 0.0030858382 0.24475053 0.23683989 -0.12784204
0.07860582 0.24660684 0.01139595 0.185516 0.21748161 -0.5605797 0.35363284 -0.26834133
-0.10254486 -0.11196889 0.1921818 0.33079746 0.19769724 -0.13848391 -0.010734685 -0.4387111
0.014903125 0.08197621 -0.1637853 -0.2241016 0.21110724 -0.047506377 -0.37779427 0.24405426
-0.34468818 -0.13142179 0.40068802 0.047152404 0.07379251 -0.058266196 -0.031833436 0.17907034
-0.24910809 0.2377819 0.08137584 0.06902497 0.011745355 0.15307786 0.0328589 0.08516887
-0.26763743 -0.24511588 0.0066764327 0.2358462 -0.41839662 0.20648082 0.060661085 -0.23034224
-0.1440551 -0.09982337 0.44087914 -0.20921381 -0.4948693 -0.005949738 0.23355721 -0.004365058
0.0077173044 -0.38239053 0.10005079 0.30459702 0.079980314 -0.011965138 -0.16023634 -0.00044914425
0.24097535 0.2700316 0.03082853 -0.20511733 -0.08583366 0.30390173 0.2943897 0.2563264
-0.15026538 0.026318075 0.10321743 0.2983268 -0.03455628 -0.01071842 -0.2276782 -0.10903226
0.49732253 -0.08346447 0.12575303 -0.35606265 0.4177529 -0.084248856 0.049311087 -0.0021535293
0.0102877645 0.19117934 -0.025849037 0.0527892 -0.037429098 0.01800973 -0.15207574 0.23483899
0.04203478 0.24097537 -0.23437741 0.05052825 0.08333571 0.19704613 -0.14263959 -0.18638411
0.1308929 -0.22860129 0.27836466 -0.09320866 0.10480621 0.2305811 -0.3768903 -0.032228567
-0.113308474 0.33855692 0.11043173 -0.27277488 0.038681008 -0.09474927 0.0756782 0.029576747
0.20647247 -0.4856794 0.013815512 -0.2580479 0.103271686 -0.33223644 -0.43002972 -0.13328363
0.2664435 -0.29215527 0.22411945 0.030426664 0.32609195 0.119338036 0.18446328 0.16309649
-0.14400624 -0.022446701 -0.3552057 -0.1742855 -0.13431504 0.22763383 -0.2762531 0.31923592
-0.39950645 0.005584867 -0.06474353 0.32802182 -0.23164265 -0.3743819 -0.03839552 0.36765903
0.39053085 0.14836147 -0.24443379 0.10634228 -0.07711452 0.37176117 -0.049529348 0.113786444
0.027306294 -0.47150573 0.2062811 -0.01063082 -0.5557408 -0.03220805 -0.029683216 -0.05426418
-0.14442104 -0.03587586 -0.037885554 -0.014618073 0.022536796 0.0394671 0.023459176 -0.15054587
0.014590048 -0.10725531 -0.24723323 -0.15094168 0.02920914 0.2800324 0.025742657 0.15742414
-0.14605768 0.2364252 0.2076267 -0.10194252 -0.120894566 0.0638468 -0.10415527 0.058704365
-0.13202223 -0.076040715 -0.34143227 0.16058712 -0.24119441 0.25717592 -0.016044289 0.26956466

actor.2.bias f4 [64]
00000000: a339 873b 0ab2 553c 1ee5 e63c 8dd6 53bd
00000010: f7e5 c33c ad53 dc3c e662 8ebc 397c e9bc
00000020: 80d6 97bc 7096 7d3c 96fa 69bc 3551 183c
00000030: 681b 7dbc 8a58 8b3c 0df2 de3c f97c e1bc
00000040: 8f13 f13c 6f36 0d3c 1850 013d 9e6e 3abc
00000050: d506 88bb 3b65 ffbc bd67 473c 98b2 6bbc
00000060: 8aa4 ac3c 0e67 89bc fe5d 16bd 3221 9abc
00000070: 8687 f83c 0ef7 313c 045f e83c 2b28 083c
00000080: 80e1 803c 053b 1a3d a8fa 50b9 da85 373d
00000090: f912 26bd 4cc4 c4bc 675c d2bc b82a 78bc
000000a0: 77d1 88bc a86f 1a3d 0c01 7dbc 1aa2 193a
000000b0: 7a0a 5e3c e82a 753c 373c 34bb 27a6 e0bc
000000c0: 2c3a 41bd ebc9 f4bc f162 3a3d ac5a b2bc
000000d0: 527a 8d3c 7e1e 3b3c 932e ad3c d598 05bd
000000e0: 1d4d 9b3c 0cdc 12bc 49d8 17bd c113 12bd
000000f0: 1d0a f2bc e8c1 593c 226b 07bd a502 06bd
0.004126744 0.013042936 0.028185423 -0.051718283 0.023913367 0.026895368 -0.017381143 -0.028501617
-0.018534899 0.015477762 -0.014280936 0.009296705 -0.015448429 0.017009992 0.027215028 -0.027525412
0.029428272 0.008618935 0.031570524 -0.011378912 -0.004151205 -0.0311762 0.012170729 -0.014385842
0.021074552 -0.016772773 -0.03671073 -0.018814657 0.03033806 0.010862125 0.02836562 0.008310358
0.015732527 0.03765394 -0.00019929803 0.044805385 -0.040545437 -0.024019383 -0.025678826 -0.015146904
-0.016701443 0.03770414 -0.015442144 0.0005860642 0.0135523025 0.014963843 -0.002750171 -0.027422978
-0.047174618 -0.029881438 0.045504514 -0.021771751 0.017270241 0.011420844 0.021140372 -0.032616455
0.018957669 -0.008963596 -0.0370715 -0.03566337 -0.029545838 0.01329086 -0.033061154 -0.032717366

actor.4.weight f4 [4, 64]
00000000: 8bc3 e0bd cc95 b13b e263 e2bd 2e34 e33d
00000010: 86ad 19be e98b ffbd 8dcc d73d 8fd2 0f3e
00000020: 920e b43d 6702 05be ea48 c1bb 3c38 2c3d
00000030: 36d0 ca3d b45b d7bd 499d 08be 25ca d53d
00000040: 6bba 00bd d0be 0abe d181 233d fe60 8b3b
00000050: 54c5 573d 5cb6 013e c0cb 02be 1376 0e3d
00000060: 5d6a ccbd f3c2 c33d b27b f73d 81c7 d93d
00000070: 2d6d 01be 4b37 f7bd 1b64 d1bd bdec 6ebd
00000080: d61a 09be fe9b c2bd d143 c3bd bad7 02be
00000090: 2a2f ef3d df28 c73d fb74 553d 5ef4 afbc
000000a0: 7bb7 f73c 7a48 09bd fdc6 fc3d 8f65 d1bd
000000b0: 15c9 2cbd 99db f0bd d40f 713d f5dc 053e
000000c0: 70ad eb3d ab2f 753d 331c 03be 78f1 f53d
000000d0: 10ed e7bd 5583 2d3d 1e91 dabd e790 ec3d
000000e0: 71f3 eb3d a9f7 fdbd a89c e53d 4433 c43d
000000f0: 7c43 083e 2b47 04bd 4196 4dbc ebe4 023e
00000100: ee51 193e e2cb 53be 605e 13be 1ba0 223e
00000110: 1fd7 0dbe 0945 28bd 5f9a 06be f7b3 da3a
00000120: 677a 0cbe bab5 a33c af83 2cbe 439b 27be
00000130: 23ae 423e e202 51be 7c56 10be 5a4c 1e3e
00000140: 93c4 183e 7ade bdbd 1be5 323e c437 37be
00000150: 8ba2 40be ed4f d7bd f99b 1ebd 1f10 3bbe
00000160: a3cd 87bd b23f 563e 931f cbbd 8ae8 373e
00000170: 9fda a43d e5c3 513d b142 bb3d 2531 1f3e
00000180: ebcb d7bd 6a72 3abe cbb6 f13d ed03 dd3d
00000190: 47a2 bfbd 1751 203e 610a 3a3e 7179 12be
000001a0: 4d38 1f3e c772 123e 2fc9 fc3d e057 53be
000001b0: f2bc 3dbe 6a2e 2fbe 8e71 303e bc63 3d3e
000001c0: ad86 8fbb f976 443e 22c1 28bd fa58 0fbe
000001d0: 7060 9bbd 6321 363e afe9 023e 5ef1 053e
000001e0: c739 72bd 5fae 623d 9178 473e 711a af3c
000001f0: e469 513d c77b 21be dc94 3bbe 2d20 2a3d
00000200: a570 1e3e 6e1b f13c b951 193e 34f3 2dbe
00000210: d722 413e effe f93d c4c9 22be 380d 43be
00000220: eeb7 20be 525e 223e df85 4e3c 796a f5bb
00000230: f833 19be 2d84 223e d3a9 293e ba7e 30be
00000240: 3cb5 9d3d c5f4 283e 9539 4ebd 1788 4fbc
00000250: c864 babd fa9e 37be c67b 063e 6af9 4bbd
00000260: 1378 503d 37c7 1abe 7ba5 47be cba3 31be
00000270: 4426 343e 6853 253e bc7d 293e c276 d33d
00000280: 2040 243e c441 2f3e 8cf9 e53d 7481 423e
00000290: 5755 07be 3107 23be 6847 eabd 87e2 d03c
000002a0: a182 9ebd 3384 ba3d 9977 09be 9b50 193e
000002b0: 1faf c63d abae 303e 55d5 f3bd 8df0 32be
000002c0: e363 47be 3b0f 09be 4324 4f3e 4ef2 2abe
000002d0: e8fe d03d 7f8b 81bd d837 233e 36f3 2fbe
000002e0: a0ea 12be 561a 213e 9114 45be 917c 1abe
000002f0: 16a1 3fbe 4515 aa3d 749a 30bc 7a80 e4bd
00000300: 41df 31be 9998 523e a87f bf3d 7a72 bfbd
00000310: 73c2 c2bd 7095 42bd 5e18 2e3e 0e06 253e
00000320: d06d 3d3e cd31 14be 1710 293e d297 1b3e
00000330: b90d 20be 5396 1f3e e1dd f13c f09d 89bd
00000340: 5ecc 27be 2ca7 b1bd 49f4 31be 78ad 363e
00000350: 8000 4b3e 2f96 363e c071 95bd 6da5 483e
00000360: 9c78 c43d 8014 3ebe 953f 3d3e d93e 05be
00000370: 4c42 37be 49f5 33be 736a 0ebe d01d 2abe
00000380: 46e3 86bd cae7 0b3e 168a 14be 2d51 43be
00000390: 671a 013e 16db 54bd 9ec7 14be 416d 113e
000003a0: cd20 0bbe 07a5 21be a993 72bc e732 213e
000003b0: a93b 2a3e b8e6 c13b 39ce 1abe 9508 ecbd
000003c0: 190b 3f3e dfba 1bbe d239 24be 4ddd 373e
000003d0: 637e 493d 39d7 2ebe e71b 29be 497d f9bc
000003e0: 124d 183e b465 1dbe d4c5 dcbd a356 da3d
000003f0: 5f6d 353e d957 103e 80f1 3f3e 193f 513c
-0.10974797 0.0054194685 -0.110542074 0.11093937 -0.150076 -0.124778576 0.10537062 0.14045165
0.087918416 -0.12989198 -0.0058985846 0.042045817 0.09902994 -0.10515538 -0.1334125 0.10438947
-0.031427782 -0.13549352 0.039918724 0.0042535057 0.05267842 0.12667221 -0.12773037 0.034780573
-0.09981225 0.09558668 0.1208414 0.106337555 -0.12639304 -0.12071093 -0.10224172 -0.05833124
-0.13389143 -0.095024094 -0.09534419 -0.12777606 0.11678918 0.097245924 0.052113514 -0.021478828
0.030238857 -0.033516385 0.123426415 -0.10224449 -0.042183954 -0.11760635 0.058852986 0.1307257
0.1150769 0.059859913 -0.12803726 0.12008947 -0.11324513 0.042361576 -0.1067221 0.115510754
0.11521042 -0.12400753 0.112115204 0.09580091 0.13306993 -0.032294434 -0.01254803 0.12782638
0.1497266 -0.20683244 -0.1439147 0.15881388 -0.13851593 -0.041081462 -0.13144825 0.0016685714
-0.13718568 0.019984115 -0.16847108 -0.16367821 0.1901174 -0.20411256 -0.14095491 0.15458813
0.14918737 -0.0927095 0.1747021 -0.17892367 -0.18812005 -0.105132915 -0.038722966 -0.18267868
-0.06631019 0.20922735 -0.09918132 0.179598 0.08049511 0.05121221 0.0914358 0.15546091
-0.10536941 -0.18207708 0.11802443 0.107917644 -0.09357124 0.15655933 0.18168022 -0.14304139
0.15548821 0.14301597 0.1234306 -0.2063899 -0.18529108 -0.1710755 0.17230818 0.18495077
-0.0043800683 0.1918601 -0.04119981 -0.13998786 -0.07586753 0.17786174 0.12784456 0.13080356
-0.059137132 0.055342074 0.19479586 0.021374913 0.051126376 -0.15769874 -0.18318504 0.04153459
0.15472658 0.029432025 0.14972581 -0.16987306 0.18860947 0.12206828 -0.1589728 -0.19048011
-0.15695164 0.15856293 0.01260516 -0.007489499 -0.14961231 0.15870734 0.16568689 -0.17235842
0.07700583 0.16499622 -0.050347883 -0.012666724 -0.09101254 -0.17931738 0.13133153 -0.049798407
0.05089576 -0.15115057 -0.1949672 -0.17347638 0.17592722 0.16145098 0.1655187 0.10325386
0.16040087 0.17114931 0.11229238 0.18994695 -0.13216148 -0.15920712 -0.11439401 0.025498642
-0.07739759 0.09107246 -0.13424529 0.14972155 0.097013704 0.1725413 -0.11905924 -0.17474575
-0.19471698 -0.13384716 0.20228676 -0.16693994 0.102048695 -0.06325435 0.15939271 -0.17182621
-0.14347315 0.15732703 -0.19246127 -0.15086581 -0.18713793 0.08304838 -0.010779012 -0.111573175
-0.17370321 0.20566024 0.0935052 -0.093480065 -0.095097445 -0.047505796 0.17001483 0.16115591
0.18498921 -0.14472122 0.16510044 0.15194634 -0.15630235 0.15584688 0.029524745 -0.06719577
-0.16386554 -0.08674464 -0.17378344 0.1783961 0.1982441 0.17830728 -0.07297087 0.19594355
0.09593317 -0.18562508 0.18481286 -0.13012256 -0.17896384 -0.17574038 -0.13907795 -0.16612935
-0.06586318 0.1366264 -0.145058 -0.19073935 0.12607728 -0.05196675 -0.14529273 0.14201833
-0.13586731 -0.15785609 -0.014805713 0.15742074 0.16624321 0.0059173964 -0.1511773 -0.115250744
0.18656577 -0.15208004 -0.16037682 0.17955513 0.049192797 -0.17074288 -0.1651455 -0.030455248
0.1487315 -0.15370828 -0.1077992 0.10661056 0.17717503 0.14096011 0.18744469 0.012771391

actor.4.bias f4 [4]
00000000: fe8e 9dbd aecb 673b 2c3e 353d 12b0 01bc
-0.07693289 0.0035369205 0.044248745 -0.007915514
