HFDRL_UNIT8/models/Archived/LunarLander-v3__ppo__1__1768735947__u20.ckpt (torch, 134227 bytes, 33 tensors)

critic.0.weight f4 [64, 8]
-0.19502334 0.05031703 0.014196856 0.09227828 -0.046577025 0.14524956 -0.26181972 0.1602868
-0.15865612 0.16360271 0.2793163 -0.13252778 -0.19353826 -0.24411124 0.1414646 -0.08064718
0.101503804 -0.20189215 0.20438853 -0.05363911 0.049462598 0.12033819 0.17408872 0.51819414
-0.24735524 0.039770976 -0.032136254 -0.35521004 0.29679963 0.0017220418 -0.27691537 -0.16701739
-0.031289592 -0.13755147 0.20276578 0.06361554 -0.022655882 -0.11334793 0.07040683 -0.32415166
-0.069563724 -0.23119485 -0.074339494 -0.061888725 -0.02542674 0.2885784 -0.1511394 -0.17024449
-0.27632695 -0.13456358 -0.04211534 -0.13026512 -0.1178981 -0.23214285 0.39665914 0.1439936
-0.057550933 0.43788952 0.14974278 0.0711148 -0.083401985 0.17143178 0.24947372 0.36089757
0.14541282 -0.06273845 0.2330954 -0.09769566 0.31505072 -0.0189199 -0.027759388 -0.024866464
0.009900081 0.15710014 0.29259846 -0.31422615 0.16847894 0.08138347 0.22715384 0.51215005
0.0028972637 -0.3309031 0.20946723 0.22376218 0.0642626 0.2989767 0.005260563 -0.16670737
-0.10215484 0.35810715 -0.10082372 0.139735 -0.06423679 0.22360638 -0.25681844 0.005279633
-0.002984853 0.21383455 0.08879483 -0.10244994 -0.087352306 0.020070346 -0.13155095 0.10152238
-0.01946323 -0.10023328 0.21177767 0.24579042 -0.028683031 0.026223956 -0.2174388 0.16731562
-0.07422283 -0.025789373 0.15677376 0.06410138 0.085559234 0.018927453 0.039676804 0.052795276
-0.1111998 0.050058816 -0.25069252 -0.08640293 0.014478645 0.17063795 0.048781216 -0.1025069
0.14995033 0.05199333 0.053469945 -0.43700603 -0.13096058 -0.06724836 -0.13223025 0.1976529
-0.11502316 0.12853181 0.30008364 0.015580666 0.2507826 -0.19394997 -0.061921585 0.12009162
-0.34650555 -0.13797006 0.26403436 0.18762232 -0.1673485 0.10989403 0.008194254 -0.060176596
-0.08920942 0.25879517 -0.082736745 -0.03190847 0.045103576 0.2033477 -0.325747 -0.19471402
0.21339059 0.009498105 0.17236267 0.092212595 0.08147447 -0.060529932 0.03421154 0.06258931
0.092750266 -0.056268893 -0.20765401 -0.13804503 -0.08543865 0.083860785 -0.21517435 -0.115732156
0.19707328 0.0097878035 0.11682352 0.2651415 -0.1772918 -0.17662132 -0.10605949 -0.2007928
0.18916923 0.05994756 -0.12500326 0.14579557 0.16161358 -0.12188339 0.0322374 -0.26377693
-0.09918012 0.012788937 0.07271624 0.0074459314 0.066679716 -0.2565005 -0.55164963 -0.12135294
-0.14150663 0.23334345 0.010626409 0.12870479 0.043061342 -0.21507722 0.14485364 0.0027752107
-0.08765879 0.039443173 0.06981825 -0.076347105 0.21997973 -0.14237617 0.09391482 0.15011424
-0.015091038 -0.081775285 -0.0034617137 -0.05614903 -0.26149458 0.2122314 0.10404029 0.29362634
0.27146116 -0.003035234 -0.2830475 0.0753967 -0.1170485 -0.03415279 -0.34530067 -0.07817753
0.060451016 0.41553915 -0.21871917 0.38353506 -0.21636526 0.06659321 0.028448286 -0.42210123
-0.283798 -0.08668447 -0.21494873 -0.09758853 0.20776819 -0.12657167 0.087313265 0.3486244
-0.11124823 0.45712838 0.18415809 0.08083677 0.25347257 0.15424863 -0.15318713 -0.26107973
00000000: 33b4 47be 3b19 4e3d ee99 683c 65fc bc3d
00000010: 8dc7 3ebd 4dbc 143e 3c0d 86be 3922 243e
00000020: c076 22be 7887 273e 8c02 8f3e 5db5 07be
00000030: e52e 46be 4cf8 79be 19dc 103e 592a a5bd
00000040: 3ae1 cf3d d1bc 4ebe 3a4b 513e afb4 5bbd
00000050: 4b99 4a3d de73 f63d 5044 323e 5fa8 043f
00000060: b14a 7dbe e4e6 223d 4ea1 03bd 17de b5be
00000070: 1ff6 973e 22b6 e13a dac7 8dbe 9b06 2bbe
00000080: 8429 00bd 4bda 0cbe d5a1 4f3e dd48 823d
00000090: d498 b9bc f622 e8bd 7531 903d 35f7 a5be
000000a0: 6d77 8ebd 58be 6cbe 4e3f 98bd 087f 7dbd
000000b0: bd4b d0bc 8cc0 933e 49c4 1abe 9254 2ebe
000000c0: ba7a 8dbe 09cb 09be 2281 2cbd 3864 05be
000000d0: 8f74 f1bd dbb6 6dbe e816 cb3e 0f73 133e
000000e0: 87ba 6bbd 0e33 e03e 2c56 193e a3a4 913d
000000f0: a9ce aabd d08b 2f3e 0a76 7f3e 91c7 b83e
00000100: 19e7 143e 047d 80bd 8fb0 6e3e aa14 c8bd
00000110: 544e a13e e8fd 9abc a867 e3bc c1b4 cbbc
00000120: f333 223c dcde 203e 77cf 953e 40e2 a0be
00000130: be85 2c3e 60ac a63d 049b 683e 441c 033f
00000140: 05e0 3d3b 226c a9be 947e 563e ea21 653e
00000150: 1c9c 833d 7913 993e cd60 ac3b 56b5 2abe
00000160: 8f36 d1bd d259 b73e ab7c cebd b116 0f3e
00000170: 948e 83bd 12f9 643e b57d 83be c600 ad3b
00000180: 869d 43bb 72f7 5a3e 10da b53d 46d1 d1bd
00000190: c4e5 b2bd 916a a43c 4bb5 06be f7ea cf3d
000001a0: 5a71 9fbc 1b47 cdbd 3fdc 583e 7cb0 7b3e
000001b0: adf8 eabc 9fd3 d63c 47a8 5ebe c954 2b3e
000001c0: 2402 98bd 3c44 d3bc 4d89 203e 9647 833d
000001d0: ae39 af3d bf0d 9b3c 2584 223d dc3f 583d
000001e0: b9bc e3bd 790a 4d3d c55a 80be 05f4 b0bd
000001f0: d737 6d3c b7bb 2e3e d0ce 473d 23ef d1bd
00000200: 948c 193e f5f6 543d 4d03 5b3d 41bf dfbe
00000210: 881a 06be 82b9 89bd 5e67 07be 8665 4a3e
00000220: 4391 ebbd d89d 033e 90a4 993e 0d46 7f3c
00000230: 9466 803e d29a 46be 7da1 7dbd 98f2 f53d
00000240: 2d69 b1be 0648 0dbe 832f 873e 1120 403e
00000250: 685d 2bbe 1f10 e13d 3141 063c bc7b 76bd
00000260: 6eb3 b6bd cd80 843e e271 a9bd 75b2 02bd
00000270: 87be 383d 613a 503e 50c8 a6be 1d63 47be
00000280: 1083 5a3e f19d 1b3c d77f 303e f5d9 bc3d
00000290: 16dc a63d 3cee 77bd 6621 0c3d d32e 803d
000002a0: daf3 bd3d 367a 66bd 41a3 54be ad5b 0dbe
000002b0: 75fa aebd 34bf ab3d aa56 5cbe fb04 edbd
000002c0: 94cd 493e 065d 203c 2b41 ef3d a0c0 873e
000002d0: fb8b 35be 38dc 34be b835 d9bd a19c 4dbe
000002e0: 94b5 413e 938b 753d db00 00be 6f4b 153e
000002f0: 087e 253e 009e f9bd 5d0b 043d c50d 87be
00000300: f21e cbbd b188 513c 41ec 943d 00fd f33b
00000310: 608f 883d 0954 83be e938 0dbf e487 f8bd
00000320: 1de7 10be 96f1 6e3e 641a 2e3c 30cb 033e
00000330: 1761 303d 343d 5cbe 8354 143e 4fe0 353b
00000340: 7486 b3bd 2a8f 213d dffc 8e3d df5b 9cbd
00000350: 5e42 613e 0fcb 11be 6a56 c03d 8cb7 193e
00000360: 6740 77bc cd79 a7bd ebdd 62bb 86fc 65bd
00000370: 9ee2 85be 3053 593e 1313 d53d 3156 963e
00000380: f5fc 8a3e c7ea 46bb 9aeb 90be 9669 9a3d
00000390: 20b7 efbd cce3 0bbd 40cb b0be 8a1b a0bd
000003a0: 7c9b 773d 8cc1 d43e ebf7 5fbe b55e c43e
000003b0: db8e 5dbe 0562 883d 610c e93c a71d d8be
000003c0: f94d 91be a187 b1bd 851b 5cbe 7fdc c7bd
000003d0: 2fc1 543e 019c 01be 4cd1 b23d e67e b23e
000003e0: 1dd6 e3bd bb0c ea3e f093 3c3e c08d a53d
000003f0: 28c7 813e 5af3 1d3e 16dd 1cbe 3eac 85be

critic.0.bias f4 [64]
-0.07808642 0.081354626 0.06414043 -0.059418753 -0.11412773 0.01937431 -0.0589361 0.08157168
-0.049605116 0.08716615 -0.001996494 -0.05989628 0.08484634 0.057522886 0.047836896 -0.056125592
0.08612204 -0.028213825 -0.082850695 -0.05535863 -0.06778722 0.06774963 -0.052940313 -0.09278692
0.021131929 0.002819287 0.084973104 0.06845639 -0.048684265 -0.03656028 0.05687344 -0.032144576
-0.06900709 -0.06506826 0.097761095 0.08045079 -0.07825952 -0.081552275 -0.08625475 0.075533815
0.009817292 0.07305217 -0.0823788 0.03575182 -0.07973631 -0.02170205 -0.04308911 -0.08515998
-0.07362103 -0.032169547 -0.071114175 0.06848361 -0.06929074 -0.027736096 -0.06835291 -0.09930561
-0.086516246 -0.022515683 -0.09388653 -0.0033244614 0.05243431 0.027465463 -0.08964149 -0.0688906
00000000: c6eb 9fbd 419d a63d 0f5c 833d 1461 73bd
00000010: cdbb e9bd dfb6 9e3c fb66 71bd 0e0f a73d
00000020: bc2e 4bbd 2b84 b23d 9cd7 02bb cd55 75bd
00000030: ebc3 ad3d 1e9d 6b3d 9ff0 433d f3e3 65bd
00000040: c160 b03d ae20 e7bc a0ad a9bd bbbf 62bd
00000050: 07d4 8abd 51c0 8a3d f1d7 58bd 1207 bebd
00000060: de1c ad3c c9c3 383b 6106 ae3d dd32 8c3d
00000070: 2769 47bd 3bc0 15bd 20f4 683d 08aa 03bd
00000080: 9753 8dbd 8242 85bd f836 c83d 62c3 a43d
00000090: 8746 a0bd e104 a7bd 55a6 b0bd 79b1 9a3d
000000a0: b5d8 203c 609c 953d 37b6 a8bd 8070 123d
000000b0: ca4c a3bd 7fc8 b1bc 357e 30bd 5b68 aebd
000000c0: 9fc6 96bd 37c4 03bd 4fa4 91bd 2341 8c3d
000000d0: 4ee8 8dbd cf36 e3bc 9cfc 8bbd bd60 cbbd
000000e0: 6e2f b1bd cf72 b8bc 9547 c0bd 35df 59bb
000000f0: 5cc5 563d 40ff e03c f595 b7bd 8416 8dbd

critic.2.weight f4 [64, 64]
0.16032399 -0.57955706 -0.092963934 0.11995167 -0.005425154 -0.079344116 0.17821166 -0.35005093
-0.06730052 0.27261218 -0.11588209 -0.10294069 -0.103008844 -0.093940176 -0.16598192 0.099155866
-0.020464897 -0.12649536 0.06406466 0.08751957 -0.11080836 0.054396305 0.18591057 0.08070698
0.23767206 0.057343353 0.21209377 0.083992325 -0.02530462 0.09761072 0.051848356 0.06060172
-0.12923527 0.18657517 0.18894352 -0.08179257 -0.31137154 -0.2511213 -0.052512024 -0.5238372
0.16477486 -0.20150067 0.07353805 -0.09011518 -0.2357526 0.04870071 0.031311598 0.29941648
-0.0052133827 0.16022673 -0.030210333 -0.088177666 0.07604194 0.00054134044 0.061483655 0.18458998
0.14509068 -0.0188914 0.098651715 -0.027851686 0.23029079 0.3639346 -0.23455349 0.051418025
0.23916037 0.13714667 0.01062498 -0.02671119 -0.010270841 -0.20412463 0.1094787 -0.23825632
-0.052494768 -0.30710503 0.017647212 -0.09925494 0.4007884 0.32891843 -0.057541355 0.14529496
-0.0940422 -0.20724198 0.42090946 -0.163859 0.08100783 0.006822658 0.030505437 0.07770243
-0.034486733 0.15436797 -0.0747915 -0.037866827 0.18663338 0.3002977 -0.07590923 0.1774208
0.14943554 0.083921626 -0.07682823 -0.1644161 0.020920308 -0.083510704 -0.08547661 0.18829691
0.03997369 -0.046510205 0.238563 -0.08560013 0.12372582 0.12735301 0.27095407 0.011996852
0.35373834 -0.13051401 0.04187831 -0.11046418 0.0658612 -0.037148286 -0.0298299 -0.074052475
0.33381018 -0.17837831 0.22035639 0.18469684 0.13432315 0.09861255 -0.24047512 -0.025048753
-0.104178675 0.18447307 0.16248813 0.15420006 0.26492524 -0.06715614 0.05416192 0.24154256
-0.21605258 0.40217867 -0.2327485 -0.2062932 -0.032476854 0.19210093 0.0824914 -0.18006925
-0.29931113 -0.009089067 0.026340755 -0.04953948 -0.15157373 -0.031845197 -0.18176304 -0.00024904442
-0.08927783 0.09101748 0.44618717 0.13842751 0.060196083 -0.40459174 -0.23662362 -0.29755664
0.34728563 0.06097564 -0.040937275 0.13267715 -0.10800192 -0.13194942 -0.037864666 0.1692361
0.15506163 -0.3001359 0.21746048 0.048172068 0.005587051 -0.11182927 0.49015468 0.05137026
0.07157822 0.028130094 -0.014627756 0.017652432 -0.13473117 0.038271446 -0.005643734 -0.12438668
-0.3196425 -0.04237427 0.02156346 -0.17583878 -0.014820275 -0.0871169 -0.110896446 -0.025481045
0.2391651 0.14584854 -0.108062804 0.11922229 0.028132655 -0.13596737 -0.5598287 -0.12933971
0.060015712 0.0023750784 0.15493616 -0.020999724 -0.09489787 0.28773344 -0.018626474 0.118177265
-0.1388498 0.07831503 -0.04009938 0.07595759 -0.17098767 0.06217004 0.44706503 0.1745787
-0.24387833 -0.095722854 -0.27067626 -0.10942738 -0.120934315 -0.42206153 0.25067887 0.12237647
-0.028826032 0.20550042 -0.061150096 -0.17106354 -0.10125611 -0.26719478 0.1944405 -0.09225436
0.06613354 -0.0479846 0.19360259 0.111955754 -0.1182433 0.27948335 -0.18436638 0.08148503
0.19972621 -0.007192259 -0.16755033 -0.11827201 0.14736834 -0.01783973 0.0014607377 -0.23973565
0.14103724 -0.12376613 0.18702182 0.10955622 -0.20028482 -0.17771369 -0.14818254 -0.009588841
00000000: f92b 243e da5d 14bf e063 bebd 39a9 f53d
00000010: 7ec5 b1bb 2b7f a2bd 1e7d 363e e039 b3be
00000020: dbd4 89bd d393 8b3e 9753 edbd 92d2 d2bd
00000030: 4df6 d2bd b563 c0bd 2af7 29be 3b12 cb3d
00000040: 00a6 a7bc 0088 01be 5534 833d 763d b33d
00000050: 7eef e2bd a9ce 5e3d 575f 3e3e b349 a53d
00000060: 4e60 733e dde0 6a3d 1c2f 593e 2b04 ac3d
00000070: a24b cfbc 21e8 c73d f15e 543d 8239 783d
00000080: 4056 04be 900d 3f3e 697a 413e dd82 a7bd
00000090: 176c 9fbe f992 80be d916 57bd 321a 06bf
000000a0: beba 283e 3156 4ebe 1e9b 963d 4f8e b8bd
000000b0: 2169 71be 657a 473d 9740 003d 1e4d 993e
000000c0: 06d5 aabb 7a12 243e a97b f7bc 7e96 b4bd
000000d0: e0bb 9b3d bee8 0d3a 49d6 7b3d 2805 3d3e
000000e0: a792 143e 23c2 9abc e909 ca3d 3829 e4bc
000000f0: 59d1 6b3e a355 ba3e ca2e 70be b59b 523d
00000100: 75e6 743e 2d70 0c3e 6514 2e3c 6dd1 dabc
00000110: 0847 28bc 0c06 51be 5e36 e03d 77f9 73be
00000120: c104 57bd df3c 9dbe e390 903c 2d46 cbbd
00000130: 2334 cd3e ff67 a83e 7cb0 6bbd 34c8 143e
00000140: 3299 c0bd 3e37 54be 7281 d73e a7ca 27be
00000150: 6fe7 a53d 9a90 df3b 8ae6 f93c 7422 9f3d
00000160: f641 0dbd a312 1e3e 492c 99bd 3f1a 1bbd
00000170: d21c 3f3e 9fc0 993e 4c76 9bbd ccad 353e
00000180: a105 193e 1adf ab3d 1e58 9dbd b25c 28be
00000190: 1161 ab3c a907 abbd 5c0e afbd e8d0 403e
000001a0: 74bb 233d 7c81 3ebd dc49 743e 1f4f afbd
000001b0: f663 fd3d d468 023e 7eba 8a3e 728e 443c
000001c0: 311d b53e 77a5 05be 9788 2b3d 0b3b e2bd
000001d0: 3de2 863d cd28 18bd d65d f4bc d3a8 97bd
000001e0: 2be9 aa3e cea8 36be 1ba5 613e 2b21 3d3e
000001f0: 028c 093e 60f5 c93d 1c3f 76be 0b33 cdbc
00000200: a15b d5bd 82e6 3c3e 4a63 263e 9fe6 1d3e
00000210: 48a4 873e 2989 89bd e4d8 5d3d ef56 773e
00000220: e33c 5dbe 5dea cd3e 9f55 6ebe 863e 53be
00000230: 7306 05bd 1bb6 443e 40f1 a83d 1364 38be
00000240: 4f3f 99be 4fea 14bc 91c8 d73c e9e9 4abd
00000250: 2536 1bbe 1c70 02bd 1720 3abe 2d92 82b9
00000260: 4cd7 b6bd 5f67 ba3d a572 e43e f1bf 0d3e
00000270: 2b90 763d a626 cfbe 764d 72be 5859 98be
00000280: 6ccf b13e 98c1 793d d8ad 27bd 85dc 073e
00000290: 1c30 ddbd c01d 07be fb17 1bbd 3a4c 2d3e
000002a0: 7ac8 1e3e 6aab 99be f6ad 5e3e 1350 453d
000002b0: 9513 b73b bf06 e5bd 8ef5 fa3e 9f69 523d
000002c0: 9a97 923d 1571 e63c 41a9 6fbc d59b 903c
000002d0: f8f6 09be 85c2 1c3d 12ef b8bb 72be febd
000002e0: 2fa8 a3be a490 2dbd daa5 b03c 150f 34be
000002f0: bdd0 72bc 586a b2bd ad1d e3bd a0bd d0bc
00000300: b2e7 743e 5259 153e 0850 ddbd d12a f43d
00000310: 7476 e63c 083b 0bbe ef50 0fbf a171 04be
00000320: 09d3 753d 34a7 1b3b 96a7 1e3e 9d07 acbc
00000330: d159 c2bd cc51 933e 8c96 98bc ec06 f23d
00000340: a42e 0ebe a163 a03d 3f3f 24bd a78f 9b3d
00000350: 6417 2fbe 03a6 7e3d b5e5 e43e c2c4 323e
00000360: 3ebb 79be 580a c4bd 1496 8abe 761b e0bd
00000370: 69ac f7bd 7318 d8be fb58 803e 84a0 fa3d
00000380: 9224 ecbc b46e 523e 8678 7abd 482b 2fbe
00000390: 5d5f cfbd c1cd 88be 691b 473e dbef bcbd
000003a0: 0571 873d 808b 44bd c23f 463e 0f49 e53d
000003b0: 8b29 f2bd 7118 8f3e 8aca 3cbe a0e1 a63d
000003c0: 0785 4c3e 0bad ebbb 5092 2bbe 9838 f2bd
000003d0: bae7 163e a024 92bc 3976 bf3a 437d 75be
000003e0: 116c 103e 1979 fdbd a682 3f3e 035f e03d
000003f0: 7717 4dbe 94fa 35be 2abd 17be 841a 1dbc

critic.2.bias f4 [64]
-0.067670174 -0.038197875 0.078559816 -0.10258054 -0.10576526 -0.06826652 0.062179245 -0.10083453
-0.08640409 0.09815892 -0.069699 -0.02672966 -0.07061768 -0.06888065 -0.07483964 0.05432091
-0.070014715 -0.06743998 -0.059684623 -0.020503854 -0.07303679 0.04824486 -0.06781844 -0.050096743
-0.04901198 0.06836983 0.062214203 0.052221037 0.08043518 -0.07392215 0.061221845 -0.07942682
-0.066943005 0.06913219 0.081755266 -0.06831909 0.07782365 0.054179486 -0.06324354 -0.07412732
-0.09790751 -0.070753686 0.079211265 -0.0682772 0.08571588 0.07866406 0.06190838 -0.063892275
0.10141408 0.039846648 0.0759118 0.0728642 0.06806634 0.051144518 -0.06660106 0.0614078
0.078235835 -0.0648511 0.038023047 0.06776764 -0.073279984 0.04911929 0.06300271 0.06846229
00000000: a996 8abd 6075 1cbd f8e3 a03d bf15 d2bd
00000010: 759b d8bd 51cf 8bbd aaaf 7e3d 5682 cebd
00000020: a1f4 b0bd 8b07 c93d 59be 8ebd 29f8 dabc
00000030: 01a0 90bd 4c11 8dbd 8645 99bd 9a7f 5e3d
00000040: e063 8fbd f91d 8abd dd77 74bd b3f7 a7bc
00000050: 5094 95bd 679c 453d 65e4 8abd 3e32 4dbd
00000060: c9c0 48bd 7b05 8c3d 52d4 7e3d bae5 553d
00000070: 33bb a43d 7f64 97bd c2c3 7a3d 87aa a2bd
00000080: 6a19 89bd 2d95 8d3d 4e6f a73d e1ea 8bbd
00000090: 0162 9f3d 4feb 5d3d d485 81bd 10d0 97bd
000000a0: bc83 c8bd 4fe7 90bd 8439 a23d ebd4 8bbd
000000b0: cf8b af3d 9f1a a13d a493 7d3d f4d9 82bd
000000c0: 2fb2 cf3d 3d36 233d a577 9b3d d339 953d
000000d0: 5e66 8b3d ea7c 513d 2366 88bd bf86 7b3d
000000e0: 1c3a a03d a7d0 84bd 0ebe 1b3d c3c9 8a3d
000000f0: d113 96bd 4f31 493d 9107 813d f535 8c3d

critic.4.weight f4 [1, 64]
0.11088517 0.11684214 -0.09714137 0.06786601 0.064576335 0.2889139 -0.04371989 0.057383858
0.066534184 -0.0664609 0.22590923 0.044959527 0.044217166 0.122451276 0.18259157 -0.033851516
0.09999818 0.17446479 0.10675545 -0.01057253 0.19782981 -0.034360606 0.0558945 0.028784582
-0.012453437 -0.2530418 -0.16009942 -0.31589442 -0.12346749 0.15527557 -0.17950061 0.11922944
0.2699352 -0.0686396 -0.08773455 0.16831605 -0.18778637 -0.26474947 0.12681471 0.18530726
0.017432973 0.252614 -0.12062584 0.15371563 -0.04118569 -0.024158454 -0.2394259 0.11182436
-0.05741726 0.0025954116 -0.13414803 -0.26432854 -0.09217039 -0.03519083 0.14671929 -0.3049731
-0.14998063 0.119079426 -0.026029887 -0.17477669 0.16681784 -0.016652819 -0.31038594 -0.4315581
00000000: c417 e33d ef4a ef3d 0ef2 c6bd 56fd 8a3d
00000010: 9940 843d 86ec 933e a113 33bd 560b 6b3d
00000020: 1343 883d a71c 88bd c054 673e 7b27 383d
00000030: 0f1d 353d bcc7 fa3d 49f9 3a3e e3a7 0abd
00000040: d9cb cc3d e6a6 323e 9aa2 da3d 6838 2dbc
00000050: e693 4a3e b5bd 0cbd a2f1 643d a5cd eb3c
00000060: 8009 4cbc b28e 81be 1af1 23be eabc a1be
00000070: 86dc fcbd 8f00 1f3e 02cf 37be 912e f43d
00000080: f234 8a3e eb92 8cbd 2cae b3bd 0b5b 2c3e
00000090: 124b 40be 3e8d 87be b7db 013e 30c1 3d3e
000000a0: 98cf 8e3c 9f56 813e ae0a f7bd a167 1d3e
000000b0: 53b2 28bd f3e7 c5bc 102c 75be 2c04 e53d
000000c0: 5c2e 6bbd c817 2a3b 1a5e 09be 1256 87be
000000d0: d4c3 bcbd 4224 10bd 953d 163e 6f25 9cbe
000000e0: 8694 19be eadf f33d a13c d5bc a9f8 32be
000000f0: 4cd2 2a3e 7e6b 88bc e8ea 9ebe 2ff5 dcbe

actor.0.weight f4 [64, 8]
-0.08572463 0.03348294 0.21910748 -0.09526085 -0.43693703 -0.056598045 0.056194328 0.23767337
-0.23473443 0.07469835 -0.092144854 0.4223641 0.1339216 -0.12173611 -0.10591118 0.12015503
0.012391154 -0.27432534 -0.04321581 -0.39276427 0.20917717 -0.062336266 -0.33830518 -0.27067903
-0.055286884 -0.03314768 -0.21022475 0.05179403 0.251078 -0.18321493 -0.15877324 -0.25681013
0.15256731 -0.048837066 -0.106491 -0.032810993 0.08929841 0.06308805 0.21863031 -0.3075782
-0.125562 -0.28216624 0.05135024 0.21320169 -0.20260036 0.087774515 0.030630397 0.0761055
-0.36401507 0.011687283 -0.10998316 0.041157283 -0.025500318 0.0936285 0.13407056 -0.3420767
-0.1416152 -0.24263875 0.22550043 0.28896648 -0.4800139 -0.40265867 0.072711326 0.15531164
-0.20045534 0.17527647 -0.47256675 -0.24603815 0.21468744 0.23755574 -0.52615875 0.07190065
-0.15192151 0.030554896 0.027145715 0.08950166 -0.1631293 -0.24466155 -0.12714228 0.15179841
-0.08805562 0.06264928 -0.02067765 -0.15222327 -0.19690366 0.14060317 0.23760895 0.17456932
0.001861573 -0.08110997 0.018016227 0.019504262 -0.30329618 -0.1723648 0.11886565 -0.1426915
-0.1826638 -0.11252822 -0.23492534 -0.14326738 0.12192031 0.26494753 -0.020926002 -0.14637259
-0.35254115 0.33783132 0.055601265 -0.038611345 0.04291074 -0.057369716 0.25708932 0.046377208
-0.15455313 -0.1812411 0.39849463 -0.32319525 -0.14377068 0.035202462 0.024313878 0.07512652
-0.20574039 0.098664075 0.06199051 -0.10018891 -0.12893659 -0.004963425 -0.08387223 0.12640506
-0.31373283 -0.07897418 0.14033467 0.34350324 -0.11575324 -0.2840239 -0.012866393 0.07585198
0.19475281 0.12364067 -0.13908875 -0.14608881 8.539061e-05 -0.019883139 0.18395013 -0.16230062
0.07020995 0.084552705 -0.29488835 0.082321346 0.1522398 0.049848016 0.044618964 -0.004540296
0.12408402 -0.0069566807 0.2151597 -0.01727804 -0.37058702 -0.23089546 -0.30166468 -0.10605959
-0.029780107 -0.18680865 -0.20158285 -0.04284188 -0.08691389 0.1331368 0.057500284 0.15837288
0.08003074 0.01890274 0.08510318 0.090064056 -0.25893 -0.2711709 0.02215554 0.09478131
0.047650978 0.15136872 -0.17631066 0.45149294 0.29684874 0.21681741 0.093764 -0.06210113
0.3091158 0.20893261 0.201535 -0.25490913 0.3447219 0.14074482 -0.24096231 -0.026757972
-0.31805667 0.026356617 -0.11816601 0.147862 -0.049354475 -0.19597799 0.03336005 0.07317629
-0.029956393 0.10251542 -0.10522794 -0.2848672 -0.042146064 0.24454217 -0.16382664 0.06817193
0.06041593 0.0155736515 0.5388134 0.06714106 -0.10943214 0.052690975 -0.24078032 0.27476245
0.13479051 -0.17484885 -0.0718429 -0.2516739 0.3005148 0.36230332 0.09294913 0.08879559
0.043771703 -0.24748904 -0.07829967 -0.08045986 0.39239854 -0.08053854 -0.15389772 -0.05832235
0.11256031 -0.04467235 0.035006188 -0.58670276 -0.08805882 -0.5244672 -0.072664 -0.048999187
-0.06948626 -0.053483985 -0.052723486 0.361635 0.29094 0.080836274 -0.021878622 -0.09025214
0.12145727 -0.036549725 -0.045677662 0.2249768 0.11001934 -0.06083204 -0.03521133 -0.2596228
00000000: 6590 afbd 6825 093d b65d 603e 1f18 c3bd
00000010: 36b6 dfbe 5ad3 67bd 062c 663d a660 733e
00000020: 395e 70be 73fb 983d 71b6 bcbd 1b40 d83e
00000030: be22 093e c850 f9bd f6e7 d8bd d713 f63d
00000040: 4404 4b3c 5f74 8cbe 1003 31bd 6618 c9be
00000050: 8a32 563e 5054 7fbd 5636 adbe 7196 8abe
00000060: 8074 62bd ddc5 07bd 2845 57be fa25 543d
00000070: 4c8d 803e b29c 3bbe 7495 22be 9e7c 83be
00000080: 9b3a 1c3e 6009 48bd f417 dabd d264 06bd
00000090: 16e2 b63d 4f34 813d a0e0 5f3e e47a 9dbe
000000a0: 5393 00be 1878 90be a154 523d 8b51 5a3e
000000b0: 7876 4fbe 20c3 b33d 99ec fa3c 33dd 9b3d
000000c0: 2f60 babe 057c 3f3c da3e e1bd 8a94 283d
000000d0: 0be6 d0bc 4dc0 bf3d cb49 093e ad24 afbe
000000e0: 9303 11be 4b76 78be 96e9 663e 6af3 933e
000000f0: 62c4 f5be 4729 cebe ade9 943d 040a 1f3e
00000100: 2a44 4dbe ad7b 333e 45f4 f1be 6df1 7bbe
00000110: 06d7 5b3e d041 733e 57b2 06bf a640 933d
00000120: 5091 1bbe 434e fa3c b160 de3c a54c b73d
00000130: 5e0b 27be 8f88 7abe 9631 02be 0b71 1b3e
00000140: 8156 b4bd 444e 803d 2d64 a9bc 6be0 1bbe
00000150: 1da1 49be 47fa 0f3e c34f 733e 4dc2 323e
00000160: 0600 f43a fc1c a6bd c496 933c 67c7 9f3c
00000170: a349 9bbe 6680 30be d56f f33d b81d 12be
00000180: 380c 3bbe 3275 e6bd 4590 70be afb4 12be
00000190: 5bb1 f93d 34a7 873e 026d abbc b2e2 15be
000001a0: 4680 b4be 3af8 ac3e 27be 633d ee26 1ebd
000001b0: 2cc3 2f3d 82fc 6abd 36a1 833e 07f6 3d3d
000001c0: 2d43 1ebe 4497 39be 7d07 cc3e d979 a5be
000001d0: 9f38 13be 7530 103d e62d c73c efdb 993d
000001e0: 9cad 52be 6410 ca3d c3e9 7d3d d82f cdbd
000001f0: f407 04be 3aa4 a2bb 34c5 abbd 5470 013e
00000200: 97a1 a0be 37bd a1bd e4b3 0f3e a8df af3e
00000210: 0910 edbd 956b 91be 90cd 52bc 4858 9b3d
00000220: 486d 473e 5237 fd3d 486d 0ebe 4e98 15be
00000230: bc13 b338 f7e1 a2bc 6c5d 3c3e 2232 26be
00000240: 3cca 8f3d f829 ad3d 9bfb 96be 1898 a83d
00000250: c0e4 1b3e 6f2d 4c3d 60c2 363d c3c6 94bb
00000260: c31f fe3d def4 e3bb d352 5c3e ad8a 8dbc
00000270: 95bd bdbe dc6f 6cbe cb73 9abe c535 d9bd
00000280: 69f5 f3bc c44a 3fbe bc6b 4ebe f87a 2fbd
00000290: e9ff b1bd 0355 083e 6b85 6b3d 802c 223e
000002a0: 28e7 a33d ebd9 9a3c 934a ae3d 8173 b83d
000002b0: 7992 84be ead6 8abe 897f b53c b41c c23d
000002c0: ac2d 433d 6700 1b3e c88a 34be 152a e73e
000002d0: 8ffc 973e 6205 5e3e 5707 c03d c15d 7ebd
000002e0: 6d44 9e3e 6ef2 553e 315f 4e3e 7383 82be
000002f0: 647f b03e 691f 103e d3be 76be 8933 dbbc
00000300: 53d8 a2be d5e9 d73c 0501 f2bd 2369 173e
00000310: eb27 4abd 74ae 48be 8ca4 083d 73dd 953d
00000320: 1c67 f5bc 9bf3 d13d bf81 d7bd 1dda 91be
00000330: 5aa1 2cbd 4369 7a3e 2cc2 27be ba9d 8b3d
00000340: b276 773d a128 7f3c adef 093f 4181 893d
00000350: f51d e0bd 7ed2 573d 1e8f 76be aaad 8c3e
00000360: 8606 0a3e 940b 33be 5f22 93bd 67db 80be
00000370: 13dd 993e d27f b93e 1d5c be3d 76da b53d
00000380: f549 333d c46d 7dbe 945b a0bd 24c8 a4bd
00000390: 76e8 c83e 64f1 a4bd 5d97 1dbe 6be3 6ebd
000003a0: 0586 e63d 5bfa 36bd a662 0f3d 2732 16bf
000003b0: 2f58 b4bd 7b43 06bf ddd0 94bd 5fb3 48bd
000003c0: d04e 8ebd 0612 5bbd 95f4 57bd 3928 b93e
000003d0: 16f6 943e 7d8d a53d cc3a b3bc 1dd6 b8bd
000003e0: 97be f83d 2ab5 15bd 8018 3bbd 5160 663e
000003f0: d251 e13d 042b 79bd c139 10bd 48ed 84be

actor.0.bias f4 [64]
0.0031420272 -0.012074636 0.04428489 -0.015222479 0.00084659475 -0.023578104 -0.01476402 0.015158884
-0.02566289 0.047059923 -0.021164257 0.012404836 0.004310583 0.035171635 0.043477945 -0.034746367
-0.016211258 0.0046294383 0.015543688 -0.002412085 0.0010402682 -0.021941809 -0.042353883 0.020669715
0.006091748 0.03712221 -0.008830185 0.034016926 0.033828538 0.02477331 -0.035125814 -0.017718593
0.023200693 0.016797427 0.012920321 -0.03355916 0.024279566 0.03493966 -0.015403936 -0.032294054
-0.03432553 0.017363653 -0.008934882 -0.027465882 0.0064166216 -0.027796702 -0.018380357 0.0068852934
0.03562248 -0.015447675 -0.014130768 -0.018080475 0.020919561 0.03017293 0.0020772666 -0.019312631
-0.037834335 -0.01856399 -0.030652849 -0.03054933 0.027495315 0.0020290276 0.024566002 -0.047634177
00000000: 78ea 4d3b b2d4 45bc 1364 353d b467 79bc
00000010: 03ee 5d3a de26 c1bc cae4 71bc f85c 783c
00000020: fb3a d2bc e8c1 403d aa60 adbc a73d 4b3c
00000030: cb3f 8d3b 2210 103d ee15 323d 3552 0ebd
00000040: 79cd 84bc 8bb2 973b f4aa 7e3c 1214 1ebb
00000050: 9c59 883a 4fbf b3bc 447b 2dbd 8953 a93c
00000060: 499d c73b 750d 183d 7bac 10bc 5555 0b3d
00000070: cb8f 0a3d 66f1 ca3c 16e0 0fbd 9526 91bc
00000080: 610f be3c c29a 893c c1af 533c 5475 09bd
00000090: f1e5 c63c e41c 0f3d ca60 7cbc c546 04bd
000000a0: ed98 0cbd 383e 8e3c 9c63 12bc 2100 e1bc
000000b0: 8642 d23b e9b5 e3bc 6792 96bc 079e e13b
000000c0: e1e8 113d 3f18 7dbc bd84 67bc 811d 94bc
000000d0: 805f ab3c 382d f73c c022 083b 8635 9ebc
000000e0: 2df8 1abd 8213 98bc af1b fbbc 9742 fabc
000000f0: db3d e13c 6ff9 043b a43e c93c 0e1c 43bd

actor.2.weight f4 [64, 64]
0.18838017 0.03473551 0.20764147 -0.37463707 0.1202713 0.114614815 -0.27766693 0.07724063
0.108680375 -0.2681747 0.13843879 0.0902465 0.045404278 0.10588846 -0.10419287 0.15322609
0.18260781 0.27356493 0.11381598 0.28584665 -0.09660519 0.051191576 0.028523622 0.024528649
0.07535437 -0.012851228 0.13872048 0.22448745 -0.12079274 0.33096674 -0.2550848 -0.4634834
0.099342465 0.14053383 0.12794061 0.2468562 0.025555963 0.060753178 0.25584465 0.029995928
0.49752176 -0.12976311 -0.13001679 0.16104734 0.17351516 0.14890552 0.0036960123 0.06379219
0.024906993 -0.024072053 0.011183889 -0.006276614 -0.048685323 0.20651652 0.18905032 -0.05531281
0.14867705 0.25454846 0.013403734 0.14925303 0.16153406 -0.48152363 0.32359725 -0.24946465
-0.00413885 -0.1373832 0.1361515 0.27169764 0.15781498 -0.088267855 0.016388807 -0.31966227
-0.09172718 0.15600498 -0.102063216 -0.12080985 0.11682671 -0.06720173 -0.3402934 0.27092302
-0.2615927 -0.13494614 0.33107287 0.15208492 0.071947515 0.05130993 -0.11078858 0.09602972
-0.2046451 0.18089025 0.13578658 -0.03419171 -0.06313824 0.21944311 -0.035437565 0.058424328
-0.23015663 -0.20356351 0.006561275 0.29711872 -0.33368227 0.20132333 0.15080944 -0.1693334
-0.026738515 -0.16143706 0.38482887 -0.109528355 -0.43540436 0.055643592 0.20241897 -0.09671858
-0.07948393 -0.26402685 0.058657084 0.20633416 0.030072972 0.010770275 -0.10667259 -0.05222656
0.15213132 0.2163127 0.01652485 -0.12542444 -0.1657473 0.20991041 0.25101164 0.30301443
-0.09098486 0.0819653 0.03864484 0.25331736 -0.08316291 0.0214055 -0.20486641 -0.036787886
0.43373775 -0.02319833 0.17111324 -0.30329448 0.35052937 -0.071833365 0.01624943 0.005109268
0.078521796 0.16067737 -0.046721704 0.10457903 -0.044420544 0.09030089 -0.12089197 0.1796069
0.0864712 0.19437286 -0.18674779 -0.025652 0.020594345 0.14525773 -0.13164651 -0.17767034
0.08344518 -0.21067874 0.30446392 -0.06300814 0.08932241 0.19548564 -0.35943356 -0.003949267
-0.035876784 0.30277058 0.081529655 -0.20237012 0.060155734 -0.023260716 0.09949574 -0.010302993
0.13682221 -0.40352607 0.049931243 -0.3057067 0.032880478 -0.3598953 -0.42685288 -0.12488851
0.24252255 -0.33614713 0.20490657 0.082782924 0.24310872 0.079012506 0.12762877 0.19007184
-0.204448 -0.085577235 -0.289786 -0.12770317 -0.08270053 0.18614879 -0.29953 0.24052346
-0.33067277 -0.056462735 -0.108735695 0.27060458 -0.16319555 -0.38111538 -0.006940581 0.36697087
0.31494862 0.18741472 -0.2189825 0.055284273 -0.079280086 0.29526368 -0.08362943 0.17798269
-0.020320607 -0.4160891 0.15682714 0.06521666 -0.4959034 0.032200273 -0.053434703 -0.06771794
-0.08807122 -0.044235047 -0.06485984 -0.034269016 0.04858695 0.078450285 0.007855813 -0.18558474
-0.0674943 -0.061280437 -0.22696322 -0.22526331 0.017616667 0.20224474 0.0072562336 0.1937284
-0.07155845 0.15137729 0.16914594 -0.05768451 -0.044850502 0.09261119 -0.115578674 0.038895864
-0.102734685 -0.039849557 -0.3351334 0.111936316 -0.1548814 0.29187903 0.043925434 0.23097433
00000000: bbe6 403e d246 0e3d f79f 543e 6ed0 bfbe
00000010: cd50 f63d 2cbb ea3d 5c2a 8ebe 5630 9e3d
00000020: d193 de3d 324e 89be e6c2 0d3e 28d3 b83d
00000030: d6f9 393d 0ddc d83d 1263 d5bd 4de7 1c3e
00000040: 8bfd 3a3e b410 8c3e 5a18 e93d 7e5a 923e
00000050: f1d8 c5bd 42ae 513d 5faa e93c 4ef0 c83c
00000060: 6453 9a3d f58d 52bc be0c 0e3e 0ae0 653e
00000070: 2f62 f7bd 7974 a93e 7a9a 82be b24d edbe
00000080: 1074 cb3d 1ae8 0f3e dd02 033e dfc7 7c3e
00000090: bd5a d13c 53d8 783d 12fe 823e 05ba f53c
000000a0: 2cbb fe3e 9fe0 04be 1f23 05be 98e9 243e
000000b0: f5ad 313e b07a 183e cc38 723b 7ba5 823d
000000c0: c009 cc3c c132 c5bc a13c 373c 0eac cdbb
000000d0: 436a 47bd 1179 533e 6896 413e af8f 62bd
000000e0: cc3e 183e 2d54 823e 569b 5b3c c9d5 183e
000000f0: 2f69 253e 448a f6be 8aae a53e a973 7fbe
00000100: 319f 87bb 2eae 0cbe 4c6b 0b3e f41b 8b3e
00000110: 409a 213e c7c5 b4bd d241 863c c6aa a3be
00000120: 76db bbbd c5bf 1f3e 8506 d1bd 286b f7bd
00000130: d842 ef3d 10a1 89bd f03a aebe 6cb6 8a3e
00000140: 7aef 85be 522f 0abe 6282 a93e 26bc 1b3e
00000150: 3859 933d 5c2a 523d 1fe5 e2bd 3bab c43d
00000160: 7c8e 51be 4b3b 393e a30b 0b3e 9b0c 0cbd
00000170: 9f4e 81bd b2b5 603e fb26 11bd 594e 6f3d
00000180: 2eae 6bbe f472 50be f7ff d63b f21f 983e
00000190: 67d8 aabe b427 4e3e ca6d 1a3e bc65 2dbe
000001a0: bb0a dbbc c24f 25be 4a08 c53e 6750 e0bd
000001b0: 52ed debe 89ea 633d eb46 4f3e 6414 c6bd
000001c0: 78c8 a2bd 872e 87be 6942 703d 4349 533e
000001d0: 985b f63c cf75 303c 2977 dabd 84eb 55bd
000001e0: 50c8 1b3e 1481 5d3e 1f5f 873c 446f 00be
000001f0: a9b9 29be c1f2 563e 9984 803e b524 9b3e
00000200: 4556 babd 6cdd a73d 0d4a 1e3d d0b2 813e
00000210: 5151 aabd 965a af3c 80c8 51be e5ae 16bd
00000220: e012 de3e 6d0a bebc 4f38 2f3e 6a49 9bbe
00000230: 9678 b33e 5f1d 93bd 861d 853c a56b a73b
00000240: 09d0 a03d 9c88 243e 425f 3fbd 882d d63d
00000250: 51f2 35bd acef b83d 3696 f7bd dfea 373e
00000260: d017 b13d ae09 473e d03a 3fbe 2524 d2bc
00000270: 79b5 a83c 71be 143e 58ce 06be 37ef 35be
00000280: 4ee5 aa3d 2bbc 57be b2e2 9b3e 690a 81bd
00000290: abee b63d 632d 483e ad07 b8be da68 81bb
000002a0: 89f3 12bd bf04 9b3e 05f9 a63d 1d3a 4fbe
000002b0: dc65 763d 428d bebc 6cc4 cb3d e2cd 28bc
000002c0: 1f1b 0c3e f89a cebe b484 4c3d 9785 9cbe
000002d0: aead 063d 3244 b8be 768c dabe 8cc5 ffbd
000002e0: d557 783e 7a1b acbe 07d3 513e 188a a93d
000002f0: 7ef1 783e 4fd1 a13d 1eb1 023e 31a2 423e
00000300: d15a 51be 1e43 afbd d55e 94be 9fc4 02be
00000310: e55e a9bd ca9d 3e3e ff5b 99be c84b 763e
00000320: f14d a9be 7845 67bd d2b0 debd af8c 8a3e
00000330: bc1c 27be 8e21 c3be d06d e3bb 9be3 bb3e
00000340: f240 a13e a5e9 3f3e f33c 60be c371 623d
00000350: 995d a2bd cd2c 973e e845 abbd 1841 363e
00000360: 6777 a6bc a109 d5be 4b97 203e 5090 853d
00000370: 0de7 fdbe 6fe4 033d 59de 5abd b4af 8abd
00000380: af5e b4bd cf2f 35bd 3cd5 84bd ab5d 0cbd
00000390: 1c03 473d 8baa a03d abb5 003c ed09 3ebe
000003a0: 743a 8abd 3201 7bbd 0c69 68be 6dab 66be
000003b0: d450 903c 3f19 4f3e b3c5 ed3b bd60 463e
000003c0: 3d8d 92bd a602 1b3e 9834 2d3e 9846 6cbd
000003d0: 29b5 37bd f0aa bd3d 83b4 ecbd 4551 1f3d
000003e0: 9066 d2bd 4a39 23bd 9b96 abbe de3e e53d
000003f0: 3b99 1ebe 2b71 953e 28eb 333d 8984 6c3e

actor.2.bias f4 [64]
0.0070049237 -0.011606728 0.023665382 -0.038525067 0.03222523 0.037287112 -0.020929145 -0.029562496
-0.022992143 0.024258573 -0.0066236965 0.004634831 -0.023251673 0.02714824 0.025890727 -0.021979395
0.02266309 0.02319942 0.01216886 0.006622288 -0.0027863896 -0.032875203 0.027760744 -0.018172456
0.027511792 -0.023466703 -0.033469923 -0.024036763 0.03366336 0.023080751 0.024137221 0.020451143
0.026363492 0.0329654 0.013077719 0.035425458 -0.025548935 -0.028381892 -0.029751692 -0.009203798
0.00075545034 0.03487819 -0.033910688 0.019658772 0.004273052 0.013505633 -0.009279511 -0.028584948
-0.034816854 -0.017052932 0.040602338 -0.015256774 0.028312478 -0.0048360634 0.020502942 -0.028108722
-0.00083671557 0.005111615 -0.031420853 -0.038159415 -0.023921037 0.018785054 -0.013584514 -0.040518776
00000000: 8f89 e53b 252a 3ebc e7dd c13c 76cc 1dbd
00000010: 9afe 033d 5fba 183d 9973 abbc 0c2d f2bc
00000020: 055a bcbc eab9 c63c 980b d9bb c8df 973b
00000030: 4b7a bebc fc65 de3c ca18 d43c 220e b4bc
00000040: f2a7 b93c b60c be3c e65f 473c c7ff d83b
00000050: dc9b 36bb 26a8 06bd 806a e33c 67de 94bc
00000060: 6960 e13c 3e3d c0bc c217 09bd bfe8 c4bc
00000070: 97e2 093d d813 bd3c 6cbb c53c 2889 a73c
00000080: 40f8 d73c ba06 073d ee43 563c 491a 113d
00000090: 004c d1bc 2481 e8bc d2b9 f3bc 87cb 16bc
000000a0: 6a09 463a 6fdc 0e3d efe5 0abd 6f0b a13c
000000b0: f504 8c3b bb46 5d3c 1709 18bc fb2a eabc
000000c0: 1e9c 0ebd 97b2 8bbc a34e 263d 8cf7 79bc
000000d0: 92ef e73c d777 9ebb c9f5 a73c 4344 e6bc
000000e0: 0857 5bba 567f a73b 27b3 00bd 0c4d 1cbd
000000f0: 0df6 c3bc 1de3 993c 9591 5ebc 04f7 25bd

actor.4.weight f4 [4, 64]
-0.056262348 0.022311412 -0.060183726 0.051373374 -0.080111414 -0.0625436 0.05406273 0.072333016
0.042018704 -0.06390455 -0.0055709127 0.02162503 0.05626714 -0.059324674 -0.07359992 0.047995847
-0.010583216 -0.06680218 0.02539896 -0.011565582 0.011688305 0.06817199 -0.06629418 0.019469447
-0.04430009 0.05765092 0.06240071 0.049138784 -0.06621565 -0.061768 -0.052129347 -0.0380969
-0.07214397 -0.03681711 -0.050091717 -0.07217034 0.04641173 0.05057087 0.022107923 0.0022770332
-0.005224715 -0.022316167 0.066995315 -0.059825554 -0.0059101507 -0.064812675 0.032143097 0.08098027
0.057909492 0.019300692 -0.063426666 0.06600775 -0.05723092 0.02310947 -0.056338668 0.049048424
0.0555512 -0.05985627 0.041535433 0.050277226 0.07319709 -0.011594755 -0.013948735 0.06843106
0.062917456 -0.08751059 -0.055260655 0.05841126 -0.061255384 -0.029567989 -0.055362787 -0.032993548
-0.05767783 0.004415325 -0.07155541 -0.057216685 0.07927322 -0.08584938 -0.056134816 0.05031917
0.058641464 -0.04086105 0.07224295 -0.06675342 -0.08693686 -0.036997218 -0.019974312 -0.081019096
-0.0315695 0.099599704 -0.043109708 0.06903392 0.02017624 -0.0021090414 0.04116889 0.0632394
-0.039916307 -0.0744821 0.04848148 0.056366507 -0.055317238 0.05708379 0.06875635 -0.052710827
0.054013815 0.056075215 0.040766772 -0.0855503 -0.074858375 -0.06788619 0.06895025 0.07850569
0.011160288 0.08000222 0.0009818296 -0.06416829 -0.03457899 0.06858901 0.05140774 0.044506907
-0.02015848 0.024039669 0.07388857 -0.0010294385 0.03079383 -0.056766294 -0.07656137 0.031621646
0.07327156 -0.008574871 0.07829646 -0.082194716 0.08618974 0.06462847 -0.08137029 -0.09826092
-0.066342026 0.07336613 0.012372007 -0.006517598 -0.07107059 0.0746911 0.0789548 -0.07399752
0.025230955 0.06795703 -0.03247466 0.019397128 -0.018808553 -0.09427568 0.06459786 -0.022534257
0.025358407 -0.08137248 -0.096897036 -0.07717251 0.09090137 0.07442156 0.08320254 0.066281065
0.07925435 0.077199824 0.06165804 0.1093591 -0.04904654 -0.072344914 -0.05294389 5.87548e-05
-0.001067896 0.048482645 -0.06948506 0.07702259 0.017658414 0.07765308 -0.055095397 -0.09384753
-0.0901899 -0.04095731 0.09820808 -0.08525132 0.05546013 -0.030097246 0.08004072 -0.06785658
-0.06159272 0.07227624 -0.0798244 -0.076138504 -0.08664391 0.035157096 0.01119262 -0.057386067
-0.07321986 0.08722522 0.047021504 -0.04678448 -0.021628326 -0.026897488 0.07305344 0.08484121
0.07561437 -0.064290896 0.07203813 0.059792332 -0.07360168 0.07586167 0.036553763 -0.033595577
-0.06722661 -0.005587646 -0.07527399 0.068966955 0.08925173 0.07845291 -0.038342174 0.084156215
0.044460956 -0.09290993 0.08208016 -0.0574816 -0.081077054 -0.070908606 -0.0565599 -0.07217222
-0.031763766 0.06272247 -0.06481614 -0.09143116 0.05970178 -0.030591693 -0.057994433 0.05876967
-0.05506096 -0.065736495 0.0143627925 0.06141141 0.07341243 0.025082726 -0.06437638 -0.058642227
0.07428612 -0.06780241 -0.06811901 0.08148959 0.025791802 -0.0695517 -0.068773106 -0.029553298
0.060540877 -0.06706039 -0.050519362 0.05185621 0.064394675 0.054077145 0.08057381 -0.0018953691
00000000: 5973 66bd 6cc6 b63c 3683 76bd e36c 523d
00000010: 7411 a4bd dc16 80bd e270 5d3d 5523 943d
00000020: ce1b 2c3d 64e0 82bd 348c b6bb fa26 b13c
00000030: 5f78 663d 6efe 72bd 8ebb 96bd 4b97 443d
00000040: 3a65 2dbc 95cf 88bd 7b11 d03c 917d 3dbc
00000050: 4e80 3f3c c29d 8b3d 3ec5 87bd 647e 9f3c
00000060: 0374 35bd 5f23 6c3d e397 7f3d c045 493d
00000070: 129c 87bd 7100 7dbd 9585 55bd 7f0b 1cbd
00000080: 38c0 93bd 8acd 16bd f92c 4dbd 0bce 93bd
00000090: 3a1a 3e3d 6723 4f3d ad1b b53c 473a 153b
000000a0: 1634 abbb 65d0 b6bc d734 893d a40b 75bd
000000b0: f0a9 c1bb 82bc 84bd 7ba8 033d fcd8 a53d
000000c0: 8132 6d3d 7c1c 9e3c d7e5 81bd 122f 873d
000000d0: f86a 6abd 1250 bd3c 60c3 66bd 00e7 483d
000000e0: a889 633d d92b 75bd 0f21 2a3d 7eef 4d3d
000000f0: 5be8 953d edf7 3dbc 3c89 64bc 9525 8c3d
00000100: deda 803d c138 b3bd ff58 62bd a540 6f3d
00000110: ede6 7abd 9138 f2bc 17c4 62bd 3e24 07bd
00000120: 973f 6cbd 6eae 903b a58b 92bd 0b5c 6abd
00000130: ff59 a23d cdd1 afbd 9fed 65bd 791b 4e3d
00000140: 0832 703d eb5d 27bd 1df4 933d 04b6 88bd
00000150: f40b b2bd 658a 17bd 2ba1 a3bc 57ed a5bd
00000160: 054f 01bd eefa cb3d ce93 30bd a861 8d3d
00000170: a448 a53c d837 0abb b6a0 283d a983 813d
00000180: 487f 23bd 128a 98bd 8494 463d 91e0 663d
00000190: 5494 62bd b1d0 693d 21d0 8c3d 4fe7 57bd
000001a0: 973d 5d3d 20af 653d 0ffb 263d ff34 afbd
000001b0: 594f 99bd ea07 8bbd ca35 8d3d 97c7 a03d
000001c0: a4d9 363c 34d8 a33d bcb0 803a aa6a 83bd
000001d0: b3a2 0dbd 6578 8c3d ec90 523d e04c 363d
000001e0: 6623 a5bc d7ee c43c e452 973d 39ee 86ba
000001f0: 5843 fc3c c683 68bd 35cc 9cbd b385 013d
00000200: 660f 963d 9e7d 0cbc e559 a03d b455 a8bd
00000210: 3f84 b03d ee5b 843d 77a5 a6bd 053d c9bd
00000220: 54de 87bd fb40 963d f5b3 4a3c 9391 d5bb
00000230: 758d 91bd a6f7 983d 0eb3 a13d 038c 97bd
00000240: 26b1 ce3c 0e2d 8b3d 2604 05bd bae6 9e3c
00000250: 6514 9abc 9c13 c1bd e24b 843d c399 b8bc
00000260: 6fbc cf3c 9da6 a6bd f471 c6bd 9f0c 9ebd
00000270: 7f2a ba3d 556a 983d 1866 aa3d 5ebe 873d
00000280: 1b50 a23d f11a 9e3d 248d 7c3d aaf7 df3d
00000290: 06e5 48bd 9229 94bd b1db 58bd 7c6f 7638
000002a0: a5f8 8bba bd95 463d 2f4e 8ebd 05be 9d3d
000002b0: 61a8 903c 9408 9f3d b6ab 61bd 2233 c0bd
000002c0: 7bb5 b8bd dac2 27bd 5121 c93d 3e98 aebd
000002d0: 292a 633d 808e f6bc 64ec a33d 64f8 8abd
000002e0: a648 7cbd 9105 943d fa7a a3bd 81ee 9bbd
000002f0: 5d72 b1bd e300 103d 4061 373c a70d 6bbd
00000300: 4bf4 95bd 23a3 b23d 9f99 403d 15a1 3fbd
00000310: e32d b1bc 1f58 dcbc 0b9d 953d 3ac1 ad3d
00000320: b5db 9a3d f2aa 83bd ba88 933d cee8 743d
00000330: 7abc 96bd 5d5d 9b3d 66b9 153d 849b 09bd
00000340: 1bae 89bd 9218 b7bb 4029 9abd 8c3e 8d3d
00000350: 9cc9 b63d ebab a03d af0c 1dbd 185a ac3d
00000360: b11c 363d 9047 bebd a519 a83d d471 6bbd
00000370: ba0b a6bd 8838 91bd 5bab 67bd 07cf 93bd
00000380: b91a 02bd a374 803d 53be 84bd 4340 bbbd
00000390: db89 743d 6e9b fabc 928b 6dbd 77b8 703d
000003a0: 9a87 61bd dba0 86bd eb51 6b3c 888a 7b3d
000003b0: 4259 963d 4a7a cd3c c3d7 83bd d532 70bd
000003c0: 5223 983d fddb 8abd fb81 8bbd 04e4 a63d
000003d0: 5449 d33c 1f71 8ebd ead8 8cbd c219 f2bc
000003e0: b6f9 773d f556 89bd 64ed 4ebd 2d67 543d
000003f0: 5be1 833d ff7f 5d3d e203 a53d 096e f8ba

actor.4.bias f4 [4]
-0.04436776 -0.014444929 0.042388786 -0.018029796
00000000: f8ba 35bd 6caa 6cbc dd9f 2d3d 39b3 93bc

exp_avg f4 [64, 8]
0.0019730176 0.0020795737 7.379124e-05 0.0023258228 -9.223143e-05 -0.00038761646 0.004831949 0.0054143933
6.395972e-05 -0.0018232942 -0.00015969304 0.0005632839 -0.0003324062 -0.0011598999 -0.0027839527 -0.0031487695
-0.0014237154 -0.0009755163 0.0007734323 -0.004540045 0.0025869738 0.00351401 -0.0033783077 -0.003453644
0.0015691846 -1.48804575e-05 -0.0008722082 0.0030991335 -0.00017893029 -0.00096383964 0.0031723448 0.0035606725
0.00035322338 0.0015291531 0.0001337958 0.0002778105 -0.00026449314 -0.00033753194 0.00055990665 0.0006069509
-0.00013878987 0.00020502538 -0.00012241432 -0.00016730734 0.00012263504 0.000129314 -0.00021283611 -0.00024494895
-0.0017705251 0.00014449577 0.0001606549 -0.0027475373 0.0004962372 0.000335936 -0.0022208262 -0.0029635327
-0.00097181526 -0.00014759021 0.0006565736 -0.0008122433 0.0021949026 0.0032804746 -0.00316597 -0.0037505706
0.001456701 -0.00045772333 0.0006140506 0.0013144932 -0.00088864716 -0.00036661958 0.0018699834 0.0025716524
-0.0011435439 -0.0038943475 0.0010573636 -0.0020828436 0.0029356095 0.004270693 -0.0026091223 -0.0027991843
0.0004001249 0.0012025071 0.00051645935 -0.0016889246 0.0008573344 0.00073965744 -0.0008835028 -0.00062660704
0.0024438004 2.1426738e-05 -7.39935e-05 0.0031564562 -0.001164261 -6.884727e-05 0.0047124564 0.005376573
-0.0003481629 -0.002789751 1.0936007e-05 5.4203014e-05 0.000765777 0.0004001326 -0.0026942932 -0.0032147772
-0.0014387246 -0.00085693214 -0.00024204154 -0.0016614584 0.0005535261 3.4891305e-05 -0.001976573 -0.0027819597
-0.001077147 -0.00029777305 2.8675997e-05 -0.0011419745 0.00049190875 0.00081992365 -0.0017091365 -0.0021711313
0.00031695544 0.0010519889 -0.00073562225 0.001332217 -0.00011143771 -0.00037263715 0.0015363676 0.0018802315
-0.0008857266 -0.0043312935 0.00025467496 -0.0019363298 0.00037244678 -1.3084575e-07 -0.0058938037 -0.0064902822
1.1805816e-05 -0.00071389414 -9.23765e-05 0.00052972976 0.00030878073 1.7293258e-05 0.00041541655 0.00049319357
0.0018751835 0.0028090123 -1.0510173e-06 0.0010572395 0.0009867772 -0.0009180533 0.0066756755 0.0069118734
0.004087144 0.0011516939 0.00011668344 0.0042466917 -0.00021595135 0.0010315886 0.0049630683 0.006217607
0.0013683138 0.00026365038 0.0005764169 0.0007432955 -0.00041548963 -0.00036306522 0.0015915376 0.001629931
0.00031741615 2.6849371e-05 4.881435e-05 0.00072938966 0.00015420646 0.0008161083 -0.0017367486 -0.0018987553
0.0029450397 0.0017514554 0.00084368116 0.0022228202 -0.0020477443 -0.0024771756 0.003516249 0.004304225
0.002219607 0.003964662 0.00013733756 0.00281394 -0.0025421488 -0.0028676088 0.005458358 0.006752085
0.0013071191 0.001693768 -0.00042158723 0.0030506982 -0.0015592346 -0.001999339 0.0023633009 0.0026364855
0.00027570516 -0.00067719794 -2.1444053e-05 0.0014056584 -8.727703e-05 7.6982644e-05 0.000927708 0.00084715884
-0.0043797432 -0.0059266426 -0.0005951309 -0.0036274977 0.0015868966 0.0011859697 -0.008475625 -0.009250568
-0.0033955907 -0.0030103615 -0.0001619041 -0.004524206 0.0012331727 0.002172629 -0.005071291 -0.00645925
0.0020824017 0.0021515475 0.00032769053 0.0020047107 -0.001808553 -0.0017240607 0.0023030601 0.0030700439
0.0026734986 -0.002639353 0.00011920606 0.0052044657 -0.0026356839 -0.0017318696 0.005772182 0.0060883225
-0.0028871463 -0.0012946763 -0.0006297271 -0.0033043409 0.0010010507 0.0003883449 -0.002317478 -0.0032017475
0.00238914 -0.0007309032 -0.00026367258 0.0031208596 -0.00068976375 -0.0006090922 0.0035611845 0.00442771
00000000: be4d 013b 7549 083b 5fc0 9a38 d56c 183b
00000010: 5f6c c1b8 0039 cbb9 5355 9e3b 396b b13b
00000020: 1d22 8638 9afb eeba 4673 27b9 58a9 133a
00000030: ce46 aeb9 c807 98ba fa72 36bb 965b 4ebb
00000040: f69b baba cab9 7fba 2ac0 4a3a a8c4 94bb
00000050: 388a 293b 4e4b 663b 9966 5dbb 8856 62bb
00000060: 19ad cd3a 14a7 79b7 e7a4 64ba d51a 4b3b
00000070: 3c9f 3bb9 2faa 7cba 1de7 4f3b 2c5a 693b
00000080: d730 b939 dd6d c83a 894b 0c39 18a7 9139
00000090: abab 8ab9 c5f6 b0b9 b3c6 123a c91b 1f3a
000000a0: 1f88 11b9 15fc 5639 585c 00b9 396f 2fb9
000000b0: 9897 0039 7698 0739 c22c 5fb9 7e6c 80b9
000000c0: f710 e8ba ca83 1739 7975 2839 0710 34bb
000000d0: ea15 023a 9120 b039 488b 11bb d437 42bb
000000e0: 6bc1 7eba 72c2 1ab9 e91d 2c3a baec 54ba
000000f0: 5bd8 0f3b 3bfd 563b 2a7c 4fbb 22cc 75bb
00000100: c6ee be3a 96fa efb9 3df8 203a 134b ac3a
00000110: 1af4 68ba d936 c0b9 3b1a f53a 2b89 283b
00000120: f7e2 95ba 4f38 7fbb 3c97 8a3a 5180 08bb
00000130: 5b63 403b 2bf1 8b3b cffd 2abb 8572 37bb
00000140: dbc7 d139 719d 9d3a 0063 073a e85e ddba
00000150: bdbe 603a 92e5 413a df9a 67ba e342 24ba
00000160: 2b28 203b 92bd b337 f52c 9bb8 8cdc 4e3b
00000170: 1e9a 98ba 1962 90b8 f36a 9a3b f72d b03b
00000180: a289 b6b9 41d4 36bb cb79 3737 0b58 6338
00000190: 6dbe 483a e3c8 d139 bd92 30bb 03af 52bb
000001a0: 9693 bcba bea3 60ba 88cc 7db9 4bc5 d9ba
000001b0: 821a 113a 4158 1238 6489 01bb 8a51 36bb
000001c0: 0e2f 8dba 6c1e 9cb9 3c8d f037 4eae 95ba
000001d0: 70f3 003a 25f0 563a 1b05 e0ba 8a49 0ebb
000001e0: 0a2d a639 e4e2 893a c6d6 40ba c99d ae3a
000001f0: aab3 e9b8 835e c3b9 f15f c93a 1a72 f63a
00000200: 1b30 68ba 86ed 8dbb e585 8539 72cc fdba
00000210: f644 c339 9b7e 0cb4 cf20 c1bb 6fac d4bb
00000220: 9811 4637 a024 3bba 41ba c1b8 90dd 0a3a
00000230: d9e3 a139 fd10 9137 44cc d939 a949 013a
00000240: b8c8 f53a 6817 383b ae10 8db5 1293 8a3a
00000250: c056 813a 84a9 70ba a0bf da3b ff7c e23b
00000260: 73ed 853b 6ff4 963a f2b3 f438 d527 8b3b
00000270: 0071 62b9 5f36 873a 3ca1 a23b 11bd cb3b
00000280: fe58 b33a 8e3a 8a39 af1a 173a b7d9 423a
00000290: 13d6 d9b9 ca59 beb9 249b d03a 69a3 d53a
000002a0: e06a a639 963a e137 02be 4c38 8334 3f3a
000002b0: 7bb2 2139 1af0 553a 9da3 e3ba a8df f8ba
000002c0: 9101 413b 1791 e53a 7c2a 5d3a bcac 113b
000002d0: 7333 06bb 1c58 22bb de70 663b 750a 8d3b
000002e0: d376 113b ffe9 813b 4502 1039 146a 383b
000002f0: 2e9a 26bb 7eee 3bbb 07dc b23b 9840 dd3b
00000300: a453 ab3a 6c01 de3a 7b08 ddb9 39ee 473b
00000310: 3b5f ccba 5807 03bb 9ce1 1a3b e3c8 2c3b
00000320: 858c 9039 fc85 31ba c1e2 b3b7 123e b83a
00000330: 8008 b7b8 be71 a138 6e31 733a de13 5e3a
00000340: f383 8fbb 4834 c2bb 8f02 1cba 50bb 6dbb
00000350: 6aff cf3a 8a72 9b3a 59dd 0abc b28f 17bc
00000360: 8f88 5ebb 7c49 45bb cdc4 29b9 ca3f 94bb
00000370: 69a2 a13a ab62 0e3b 122d a6bb 1ea8 d3bb
00000380: e778 083b fa00 0d3b e1cd ab39 7761 033b
00000390: f80c edba e1f9 e1ba f0ee 163b ca32 493b
000003a0: dd35 2f3b fff8 2cbb 44fe f938 398a aa3b
000003b0: 70bb 2cbb e7ff e2ba 9224 bd3b 8d80 c73b
000003c0: 4736 3dbb 21b2 a9ba 4514 25ba a48d 58bb
000003d0: b035 833a c59a cb39 d4e0 17bb 69d4 51bb
000003e0: 1e93 1c3b 159a 3fba 893d 8ab9 5687 4c3b
000003f0: 43d1 34ba 7cab 1fba c362 693b 5316 913b
