HFDRL_UNIT8/models/Archived/LunarLander-v3__ppo__1__1768735658__u120.ckpt (torch, 134281 bytes, 33 tensors)

critic.0.weight f4 [64, 8]
00000000: c77b 19be 682c 543d d116 e23c e9b0 533d
00000010: 72c1 86bd b98f 0d3e 7efd 92be b413 0e3e
00000020: e2ef 46be d492 443e 0f65 7f3e 2c7b f9bd
00000030: 3bfd 2cbe bcf2 4fbe 288b 283e 26ed 70bd
00000040: e710 193d 9472 58be ee06 303e 226e fe3c
00000050: e873 3e3d c669 c63d 4ee8 3c3e 00f9 073f
00000060: d733 4fbe 842e 973d 535c bebc 771f ddbe
00000070: 2054 893e 2f57 123c 7e06 84be 468e 1ebe
00000080: e53b 363c b0ed d2bd 6c27 643e 5bfd d1bb
00000090: ea96 2abc 4b79 c3bd f295 983c eff6 c4be
000000a0: e19a 12bd 8e43 58be 1352 2fbd 8daa f0bd
000000b0: 8a2b 4cbd f085 8c3e d545 4dbe a004 54be
000000c0: a6c6 9dbe f681 1dbe ca80 c2bc 8abb 31bd
000000d0: ff2e a0bd c51f 68be 3c1e dd3e 2b60 343e
000000e0: 158c a6bd 98da e63e 8bd6 0a3e ee27 d63d
000000f0: ab25 abbd b71e 113e aa4f 893e 843d c03e
00000100: 1765 253e d735 8abd d6bc 673e ad03 14be
00000110: 4672 9e3e a969 a1bc ccb3 3dbd 7c50 37bd
00000120: 8a8e 0dbc 5762 2f3e 3f0d 923e fed1 8bbe
00000130: 0def 2d3e dd6e 663d a3bb 763e e974 063f
00000140: a334 3dbd 64b8 d3be 79ef 393e be56 953e
00000150: f481 9a3a 5af6 763e e5f1 98bd b0de 77be
00000160: 9f4d 8bbd ecb3 be3e 9af7 b1bd d60b 9c3d
00000170: fc34 b2bd a7c5 573e 5258 8abe d003 9dbb
00000180: 112e eebc 29dc 7e3e 74ab 8f3d 6810 b5bd
00000190: 7d2b abbd b916 993c 3298 f7bd e6ba e93d
000001a0: 01c3 20bd 1560 00be b53f 5a3e 798a 963e
000001b0: 47a6 abbc 46bb ec3c c850 75be d13a 1b3e
000001c0: 353b dfbd 1578 7cbd 96ed 363e 5b34 3b3e
000001d0: 8ec6 cf3d 9935 0a3c 5daa 8cbc b89a 8a3b
000001e0: 128a 6fbd 2d08 ac3d 1723 77be 7675 23be
000001f0: 6369 9fbc 5168 253e 0ba4 633d b09a b7bd
00000200: bcb5 e03d ac92 843d 3c70 093d da9e d0be
00000210: e035 e9bd 944c 61bd ec70 ecbd 31ae 593e
00000220: bc1a d1bd 4127 063e a43d 9a3e 6bdb 6f3d
00000230: ae4e 7d3e 2380 43be 8dd0 18bd af49 023e
00000240: 9cb1 9ebe 5b02 15be bf79 893e 0bcf 223e
00000250: 601f 3ebe f039 e53d 3c20 45bc 9e41 a3bd
00000260: a617 5bbd 3f3f 8a3e 25c3 93bd 5c30 c8bd
00000270: 9de8 7e3c 0a64 3e3e 4d1d acbe 6183 4dbe
00000280: 4e97 603e 2b3d feba 44d6 283e f572 8f3d
00000290: 4808 923d 6967 80bd 7706 693a cffe d13c
000002a0: c4f2 d93d 3676 57bc e773 52be bc5a 49be
000002b0: 370a 9bbd 4b11 a93d 3b89 42be 9a2f b0bd
000002c0: 8ead 493e 7300 873b 5bc9 d43d 88fb 683e
000002d0: 6a0c 34be f40a 1abe 1d1e 00be 6f3e 61be
000002e0: dd6a 623e 6373 813d 5e2c e3bd c9b4 c33d
000002f0: 353e 193e 4308 cfbd e5f7 8b3c 94e8 8ebe
00000300: 820e 87bd fdd9 3c3d 2643 a23d cb1f 88bd
00000310: 5898 3a3d deb8 4bbe 6126 17bf 389c 24be
00000320: da27 afbd d485 8a3e 72b9 a83c c5d1 ab3d
00000330: 996b c53c a32d 5ebe 36f5 ad3d 761b 8fbd
00000340: f825 dbbd a121 0e3d 2548 8d3d c5df 00bd
00000350: 571d 713e 9023 0ebe aec8 dc3d 3777 263e
00000360: 7262 5dbd a88d bcbd d964 47bc 0999 953b
00000370: 8a45 77be a5f0 473e 16f5 f83d e727 9e3e
00000380: 09de 923e cd48 5c3b 38ff 90be 1ad2 d13b
00000390: adb8 00be 33a3 da3a 705a c0be e7ec c8bd
000003a0: a9b0 d93d 3df7 d43e 57a8 54be 7ffa a43e
000003b0: a5b3 57be 8ee9 943d e984 273c 1361 dbbe
000003c0: 109b 8ebe 61d5 b1bd c5a5 33be 30c2 10bd
000003d0: 89b2 613e dd35 e8bd b321 db3d 2622 b73e
000003e0: e0f6 bebd 43dd ee3e 2f91 223e 1761 1b3b
000003f0: 4d7c 543e 1afe 183e b9ed 27be 96fb 88be
-0.14988624 0.05180016 0.02759877 0.051682387 -0.065798655 0.13824357 -0.28709024 0.13874704
-0.19427446 0.19196635 0.24940895 -0.12181696 -0.16893475 -0.2030744 0.16459334 -0.058819912
0.037369635 -0.21137458 0.17190143 0.031058375 0.046497256 0.096881434 0.18447992 0.5311432
-0.20234619 0.07381919 -0.023237383 -0.43188068 0.26821995 0.008931919 -0.25786203 -0.1548396
0.011122678 -0.102992415 0.22280663 -0.006408376 -0.010411957 -0.09544619 0.018626187 -0.38469645
-0.035792235 -0.2111952 -0.04280288 -0.1175128 -0.04984621 0.27445936 -0.2004617 -0.2070489
-0.3081562 -0.15381607 -0.023743052 -0.04339174 -0.07821464 -0.22668369 0.4318713 0.1761481
-0.08132187 0.4508865 0.13558404 0.10456835 -0.08356794 0.14171873 0.2681859 0.37546933
0.16151844 -0.067485504 0.22630629 -0.14454527 0.3094656 -0.019703703 -0.046314046 -0.04475449
-0.008639941 0.17127357 0.2852573 -0.2730865 0.16985722 0.05625807 0.24095015 0.5252214
-0.046192776 -0.41351616 0.18157758 0.29167742 0.0011787997 0.24117413 -0.07468013 -0.24206042
-0.068019144 0.37246644 -0.086898044 0.07619445 -0.08701512 0.21071492 -0.27020508 -0.0047917143
-0.0290747 0.24888672 0.07015124 -0.0884102 -0.08357904 0.018687593 -0.12089576 0.11412601
-0.03924847 -0.12536652 0.21313365 0.2940252 -0.02095331 0.028897893 -0.23956597 0.15159155
-0.10899965 -0.061637957 0.1786407 0.18281691 0.10145293 0.00843563 -0.01717108 0.0042298697
-0.058481283 0.08399997 -0.2413448 -0.15962777 -0.019459432 0.16153075 0.055576365 -0.08965051
0.10972163 0.06473288 0.0335543 -0.40746194 -0.11387229 -0.05500467 -0.11544976 0.21257855
-0.10210177 0.13100912 0.30125153 0.058558863 0.24737045 -0.19091849 -0.037308265 0.1272342
-0.3099488 -0.1455168 0.26850697 0.15899293 -0.18566656 0.11192691 -0.012031611 -0.079715
-0.05348935 0.27001378 -0.07214955 -0.09774849 0.015558389 0.1859285 -0.33616105 -0.20069648
0.21932718 -0.0019396892 0.16487986 0.07004348 0.07130486 -0.06269724 0.0008889208 0.025634198
0.10642007 -0.013150742 -0.20552026 -0.19663519 -0.07570308 0.082552515 -0.18997662 -0.08602829
0.19695112 0.0041199266 0.10389968 0.22752202 -0.1758286 -0.15043241 -0.12511487 -0.21996473
0.22111078 0.063208364 -0.11092447 0.095559664 0.14965136 -0.10108998 0.017085979 -0.27911818
-0.06594564 0.046106327 0.07922964 -0.06646689 0.045555443 -0.1989474 -0.59042937 -0.16075218
-0.08552523 0.27055228 0.02059624 0.0838962 0.024099158 -0.21697097 0.08494036 -0.0698766
-0.10700601 0.03470004 0.06898526 -0.031463403 0.23546349 -0.13880754 0.10780464 0.16256414
-0.054048963 -0.09206706 -0.01217004 0.0045653624 -0.24147621 0.19525392 0.121561214 0.30889818
0.28685024 0.0033612729 -0.28319716 0.00640322 -0.12570448 0.0016680717 -0.37568998 -0.098108105
0.106293984 0.41594878 -0.20767342 0.32222363 -0.21064623 0.072711095 0.010224559 -0.428475
-0.27852678 -0.08683277 -0.17543705 -0.03534144 0.22040762 -0.113383986 0.10699787 0.3576824
-0.093244314 0.46653184 0.15875696 0.0023708993 0.20750542 0.14940682 -0.16399278 -0.26754445

critic.0.bias f4 [64]
00000000: e8d2 c8bd 45ac d83d 9e38 873d 30a1 80bd
00000010: 3498 fbbd 9862 883c d55d 30bd ef53 e03d
00000020: 06d1 a6bd 70d7 d63d cf97 e3bb 6da2 87bd
00000030: d8d3 db3d 25bf a33d 2796 1f3d c4ea 9bbd
00000040: 16bd d33d 6dc0 d5bc dbe7 d4bd 4c1c 84bd
00000050: 3fb9 bfbd d5bb 823d 4d70 8ebd 3108 d6bd
00000060: 8077 623b 315c 4fbb 8f71 ca3d ba04 ad3d
00000070: da54 89bd 0fbb 6fbd 0ed3 b43d 4bb4 25bd
00000080: 7b21 aabd cbe0 bcbd f429 e23d 67d3 c83d
00000090: 49aa cebd a9a7 cabd e6ba c9bd 6237 b03d
000000a0: 435c 803d e211 c03d 77be c6bd 4d38 593c
000000b0: 5f3d e3bd d852 89bc ab50 43bd 0a7d c7bd
000000c0: 4694 bdbd bd14 70bd cd64 b5bd e593 ad3d
000000d0: f6f9 b2bd 7daa 21bd 7ff8 9fbd 4433 e5bd
000000e0: 3111 d5bd 5d94 e5bb 479f e6bd e9f9 aebc
000000f0: 1b3c 51bd f0b1 503d 5e98 e7bd 5826 bebd
-0.09805852 0.10579733 0.06602596 -0.06280744 -0.1228489 0.016648576 -0.043058235 0.10953509
-0.08145337 0.1049031 -0.006945587 -0.06622777 0.10733765 0.07995442 0.038961556 -0.07613137
0.103388 -0.026092732 -0.103957854 -0.0645071 -0.09361505 0.06383482 -0.069550134 -0.10450781
0.003455609 -0.0031640644 0.09884941 0.08448167 -0.06705637 -0.058528002 0.08829318 -0.040455144
-0.08307167 -0.09222563 0.11043158 0.09805947 -0.10091073 -0.0989526 -0.09850101 0.086043134
0.062675975 0.09378411 -0.09704297 0.013258052 -0.1109569 -0.016763136 -0.047684353 -0.09740646
-0.092567965 -0.058613528 -0.08857117 0.08475474 -0.087390825 -0.03946923 -0.07811069 -0.11191419
-0.104036696 -0.0070062117 -0.112608485 -0.0213594 -0.05108271 0.050950944 -0.113083586 -0.09284657

critic.2.weight f4 [64, 64]
00000000: e681 2b3e 974e 10bf e2b8 08be 5619 343e
00000010: fda7 cc3b db3b 9fbd 4e01 223e f0b8 b4be
00000020: 1541 11bd d916 933e 736d 09be 06ab b9bd
00000030: fbe3 bebd 4fd0 12be da27 6ebe 8bd2 163e
00000040: aef4 443c 343d 04be 85f4 4a3d 429c f03d
00000050: bec4 cebd ed7f a13d a221 2f3e 0e08 ab3d
00000060: 5249 8a3e 8aca 953d 5ae7 543e 7bcc 503d
00000070: 89b0 51bb 3d42 e63d 6bd4 ca3c 7a02 943d
00000080: 42db b4bd 898d 453e b6ea 3d3e eaf6 a2bd
00000090: 6b9b a4be ca17 86be aeba 98bd 6521 04bf
000000a0: 07f0 383e ade8 51be ff5b 5a3d 85c4 adbd
000000b0: 8e90 7abe f6de b03d c8d4 423d 7bfa 943e
000000c0: d6e2 b53c 7dc2 233e 7da2 47bd 6a25 92bd
000000d0: af69 9b3d 8950 febc d8df 8a3c e030 223e
000000e0: 18b1 1c3e d276 1abd ea77 a63d 0a9e 8dbc
000000f0: 62fc 723e 8dbf a03e 6027 76be 8bd3 6b3d
00000100: 59aa 863e 0ce3 073e e7f1 ccba 9f70 c73c
00000110: 55fc 8239 95bc 3cbe bf70 d63d 50b7 80be
00000120: 9252 03bd 8c47 9abe 6897 393c 267f b5bd
00000130: c07d cc3e f5ba 943e 7321 d8bd 434d 533e
00000140: 985f 96bd 6f90 7dbe 0c29 d53e 5da4 0bbe
00000150: ed3e ae3d 8303 0d3d 8257 2f3c 7d97 a63d
00000160: 87e3 19bd f4bb 0d3e 56f4 cdbd 2502 37bd
00000170: c3b1 643e 170a 9b3e d075 d3bd 2ca3 393e
00000180: c0e9 393e 8b7f c93d 5241 bdbd 9fd9 30be
00000190: 2315 af3c 3fe1 b0bd 4104 cabd 7859 4a3e
000001a0: 9429 463d 4288 80bd eecf 6b3e 19d0 90bd
000001b0: d7ec 053e c5e5 073e 07b9 913e c07b 373c
000001c0: e373 c43e c32e edbd 92a4 193d ff55 d2bd
000001d0: db0c 9a3d 9523 80bd ec31 6abd 26bb b6bd
000001e0: 682b b33e 6549 41be ffcd 583e 3bb2 3e3e
000001f0: ae73 063e d025 543d 0488 7abe 758b 47bc
00000200: a4aa efbd e94a 323e e108 493e 8e32 bd3d
00000210: b807 863e b48a 93bd f881 9e3d d14a 793e
00000220: ebdc 83be da96 c43e 7e23 5bbe 85de 60be
00000230: 0201 31bd 68dc 773e 8bef 093e fd4a 71be
00000240: 0b79 a9be 43a7 5bbc 585d 2d3d a50e a7bd
00000250: 531b 1bbe 2611 72bd db69 20be 577f a93b
00000260: 43f4 fabd 5083 b03d 8e12 e23e ff7b 2f3e
00000270: 5626 433d ebb6 d2be 5d15 62be 2923 a0be
00000280: 807f 9e3e 69a3 833d c642 22bd b2a3 043e
00000290: 0a5d cabd 3009 f8bd 3d66 6cbc 2a4c 243e
000002a0: c124 0e3e f7f8 98be 6e7b 753e 2666 3f3d
000002b0: 3247 533c 4c23 16be 38b4 eb3e 9d1e 7b3d
000002c0: de93 543d 31bb 1bbc 8127 863b 77c5 8f38
000002d0: d296 06be 92f7 933d 0101 143d 806f c8bd
000002e0: e958 a5be 8c71 c9bc 077a 233d 2a84 36be
000002f0: fc61 8fbc ff5a 03bd dcbf cebd ad38 d4bc
00000300: 428d 823e b494 1f3e bde8 28be 1bc3 3f3e
00000310: f60b 113d 09e1 01be c395 16bf 0c0f 08be
00000320: 13f5 8e3d f5cf 843c b341 0a3e dfd1 603c
00000330: 855b adbd 0244 6c3e 0a37 bbbd 6886 443e
00000340: 6719 e0bd d35a 983d 8118 6cbd 4265 fa3d
00000350: 8e5d 2abe 62c0 b03d 0d6d da3e df68 363e
00000360: 5ec5 47be 98cd 45bd ee28 8bbe f157 13be
00000370: 9bc7 d0bd c401 cbbe b126 5f3e 83bc 133e
00000380: 1fef 953c 83e9 573e bb24 87bd 67ac 2cbe
00000390: a951 e2bd 5a44 8ebe ccf1 303e c1df b2bd
000003a0: d672 a73d 1460 54bd e030 2e3e 20c0 eb3d
000003b0: 3e61 febd 0dc8 ac3e b7d5 11be 124a 963d
000003c0: 265f 653e e475 8a3c b746 3dbe c7ff d6bd
000003d0: 9942 193e 4a9f 46bd 6a62 f4bc 9a3b 88be
000003e0: 56b3 163e 3ec9 0fbe 0ff1 2d3e 9ce5 fe3d
000003f0: bb7e 3abe 9e7b 69be 2ba2 22be f20c d9bb
0.16748771 -0.5636992 -0.13351777 0.1758779 0.0062456117 -0.077750884 0.1582081 -0.35297346
-0.035462458 0.2872837 -0.13420658 -0.09065823 -0.093208276 -0.14337276 -0.2325739 0.14728753
0.012021227 -0.12913972 0.0495496 0.11748554 -0.10096119 0.07885728 0.17102674 0.08351146
0.27009064 0.07314022 0.20791379 0.050976258 -0.0031996092 0.11243103 0.024759492 0.07227035
-0.088308826 0.19292273 0.18546566 -0.07957251 -0.32149825 -0.26190025 -0.07457481 -0.51613456
0.18060313 -0.20498915 0.05331039 -0.08484749 -0.24469206 0.086362764 0.047566205 0.2909735
0.02220289 0.1599216 -0.048738945 -0.071360424 0.07588517 -0.031044262 0.01695244 0.15838957
0.15301931 -0.037710972 0.081283405 -0.017287273 0.23729089 0.31396142 -0.24038458 0.05757479
0.2630184 0.13270205 -0.0015636057 0.024345694 0.00024983534 -0.18431313 0.10470723 -0.25139856
-0.032061167 -0.3013271 0.011327602 -0.08862142 0.3993969 0.29048887 -0.10553255 0.20634942
-0.07342452 -0.24762128 0.4163288 -0.13636918 0.08508096 0.034427177 0.010702016 0.08134363
-0.037570503 0.1384123 -0.10056369 -0.04467978 0.22333436 0.30281135 -0.10325205 0.18128651
0.18155575 0.0983878 -0.092409745 -0.17270516 0.021372383 -0.08636712 -0.098640926 0.19760692
0.048379496 -0.06275989 0.23028538 -0.070709415 0.13078628 0.13271244 0.28461477 0.011198938
0.38369665 -0.11581185 0.037510462 -0.10270309 0.07521983 -0.06256787 -0.057176515 -0.089224145
0.34994054 -0.18875654 0.21172331 0.18622677 0.13130066 0.051793873 -0.24465948 -0.012179245
-0.11702469 0.17411388 0.19632293 0.09238158 0.26177764 -0.0720419 0.07739633 0.24344946
-0.25754485 0.3839634 -0.21400258 -0.21959884 -0.04321385 0.24205172 0.13470285 -0.23563762
-0.3310016 -0.0134065775 0.042325348 -0.0815709 -0.15147142 -0.059098385 -0.1566538 0.005172651
-0.122536205 0.08618796 0.4415478 0.17137145 0.047643982 -0.4115518 -0.22078462 -0.31276825
0.3095665 0.064276524 -0.03961446 0.1295307 -0.09881027 -0.121111274 -0.014428672 0.1604468
0.13881208 -0.29877445 0.23972866 0.046728276 0.012895392 -0.14661902 0.46035933 0.061308492
0.05189883 -0.009505079 0.0040940647 6.855552e-05 -0.13143471 0.07224955 0.03613377 -0.09786892
-0.32294396 -0.024590276 0.039911296 -0.17823854 -0.017502777 -0.032069203 -0.10095188 -0.025905931
0.25498396 0.1558407 -0.16495033 0.1872677 0.035411797 -0.126835 -0.5882227 -0.1328699
0.06980338 0.016212443 0.13501625 0.013721912 -0.084647216 0.23072818 -0.09141357 0.19191897
-0.10942345 0.07439198 -0.057640556 0.12226345 -0.16637251 0.08630444 0.42661324 0.17813443
-0.19508883 -0.048291773 -0.27179664 -0.14389016 -0.10194322 -0.39649785 0.21792103 0.1442738
0.018302498 0.21085171 -0.06598803 -0.16862641 -0.11050732 -0.27786523 0.17279738 -0.08734084
0.081762 -0.05184944 0.17010832 0.11511254 -0.12420891 0.33746377 -0.14241682 0.073383465
0.22399577 0.016901918 -0.18484007 -0.104980044 0.14966811 -0.048491754 -0.029832084 -0.26607972
0.14716849 -0.14041612 0.16986488 0.12446138 -0.18212406 -0.22801062 -0.15882175 -0.0066238577

critic.2.bias f4 [64]
00000000: 9762 9cbd 917d 79bd dc1d a93d e48a dbbd
00000010: 5c2f f9bd 2461 96bd a331 923d defe eebd
00000020: e120 d4bd feb0 bc3d 388e a6bd 938f 3bbd
00000030: 8fbf aabd edb7 c1bd f174 bcbd 27f1 873d
00000040: 8ad4 a1bd 6449 a2bd ec4f a2bd 86c0 2c3d
00000050: b23e c0bd c66f 8c3d c9fb a8bd adab e5bc
00000060: 2ec2 34bd 144b a53d 79e7 8e3d 4b14 873d
00000070: f19a d83d 6ded ccbd af49 8c3d 3b6f d2bd
00000080: b1b5 94bd f63c 9f3d 7583 cd3d 5618 afbd
00000090: 0e7a cb3d 3284 973d 4a2e 90bd 727c b5bd
000000a0: 302a 12be 2e99 b4bd 632d b43d f455 96bd
000000b0: 24de ee3d a84b de3d 40f3 933d d466 9abd
000000c0: a4bd f73d 4c87 a13c f24f a43d 8b5f b93d
000000d0: d056 ad3d 4f0b 973d 95eb a8bd 2b24 8b3d
000000e0: 3432 cf3d a9ab 94bd e0ce 6f3d ab83 963d
000000f0: 1b96 b6bd 27f9 443d 86a2 923d f002 b33d
-0.07635992 -0.060910765 0.08257648 -0.10719851 -0.12167236 -0.07342747 0.07138374 -0.11669706
-0.10357834 0.09213446 -0.08132595 -0.04579122 -0.08337318 -0.09458909 -0.09201992 0.06637793
-0.07901867 -0.079241544 -0.079254 0.042175792 -0.09386958 0.068572566 -0.08251149 -0.028035963
-0.044130497 0.08070961 0.06977744 0.065956675 0.10576428 -0.10006223 0.068499915 -0.10275122
-0.072612174 0.07775299 0.10034839 -0.085495636 0.099353895 0.07398261 -0.07040079 -0.08861627
-0.14273906 -0.08818279 0.08797719 -0.07340613 0.11663464 0.10854274 0.07224131 -0.07539144
0.12096718 0.019717835 0.08023061 0.090514265 0.08463824 0.07375204 -0.08248059 0.06794008
0.10116997 -0.07259304 0.0585469 0.073493324 -0.08915349 0.048089173 0.07159905 0.08740795

critic.4.weight f4 [1, 64]
00000000: 08d6 143e e6e0 0a3e e28b eebd 756d b93d
00000010: fb3c a33d 7dca 9f3e bc72 b4bd c864 993d
00000020: 0bf1 9e3d ff67 bcbd 364d 763e 4090 993d
00000030: 54e9 be3d 50fa ff3d 6b00 4e3e b1ea d1bd
00000040: 484c 083e 2c65 483e 05f8 fe3d 18db 26bd
00000050: b222 5c3e cd34 57bd ab6e a43d b411 83bc
00000060: 41a9 82bd b19f 8abe 203a 5bbe 13fd babe
00000070: 9339 0cbe 2373 343e fe88 6abe d0f3 0c3e
00000080: 95e6 983e 4f19 e5bd 6e43 d4bd 805e 4d3e
00000090: 5a28 51be bd14 a4be 32c1 353e 9e09 543e
000000a0: 2640 683d c3f5 883e 9dcd 09be 125e 453e
000000b0: 5b52 87bd f75c 59bd 16b1 90be 09a9 023e
000000c0: 9c8b 99bd 9386 0f3c ac42 24be 451e 93be
000000d0: ffc8 ffbd 79af 8abd 8456 2e3e 1855 a6be
000000e0: ac14 26be d755 263e 0f8b 22bd 4b7c 4dbe
000000f0: 6cce 333e 64bb 713c 0e4a a8be 4356 e6be
0.14534771 0.13562354 -0.11647774 0.090540804 0.079706155 0.31209174 -0.08810946 0.074899256
0.07760819 -0.09199523 0.24052891 0.07498217 0.093218476 0.12498915 0.20117347 -0.10249842
0.13310349 0.19569844 0.1244965 -0.040736288 0.2149761 -0.05254059 0.08028921 -0.015999652
-0.06379939 -0.2707496 -0.21408892 -0.36521205 -0.13693838 0.17622046 -0.22903821 0.13764882
0.2986342 -0.11186468 -0.10364424 0.2005558 -0.20425549 -0.32047072 0.1774948 0.20706794
0.0567018 0.2675 -0.13457341 0.19274166 -0.06607505 -0.053067174 -0.28260106 0.12759794
-0.074973315 0.008760112 -0.16041058 -0.2873403 -0.12489509 -0.0677175 0.1702519 -0.32486796
-0.16218823 0.16243683 -0.039683398 -0.20066945 0.17559212 0.01475415 -0.32869 -0.44987687

actor.0.weight f4 [64, 8]
00000000: 0014 68bd 8d39 e73c fd64 693e 6ddb 5abd
00000010: 3680 09bf 1bd3 0dbe a7e7 9b3d 43a1 6c3e
00000020: 4043 73be f319 cf3d 77ce abbd 1b43 043f
00000030: edbf 2d3e 654c b0bd 2a75 adbd 48c8 1d3e
00000040: 776e f13b 957f 91be 8b81 61bd 5235 fabe
00000050: 4c4d 8a3e 0399 68bd eaa9 b8be 6ab1 96be
00000060: 5524 9ebd 6b30 c2bc 6861 5abe 84af 7bbd
00000070: 7dd0 ac3e e672 f0bd cf79 46be 26af 87be
00000080: 7306 fc3d 304e 58bd 5231 ecbd 225d 08be
00000090: ea15 2c3e 2db8 f53d b98c 3b3e 6127 a5be
000000a0: 44f9 d3bd 056c 85be babb 803d cb03 9c3e
000000b0: ba9d 89be 563e 893d 96b9 783d 7c28 d63d
000000c0: 6a80 aabe 9fc2 b538 a334 4fbd 5fa7 0abd
000000d0: 0089 47be 2674 c1b9 cb67 133e d963 aebe
000000e0: 7ee6 eabd 7cb9 58be 054e 7a3e 3332 c23e
000000f0: 6bf6 12bf 30a1 edbe ee6f d73d e1d4 323e
00000100: c5c2 59be e574 193e 3421 f7be c5b3 b0be
00000110: 361c 9d3e 9e1d 9b3e 1b1e 0dbf 43c6 893d
00000120: 8c92 f5bd 8ad4 3c3d 0026 433c c22d 5c3e
00000130: d575 70be ced2 9dbe 310a c2bd 9db9 313e
00000140: 1435 82bd 6bb7 803d 5131 d93c b53d 59bd
00000150: c838 afbe ed9d 3b3d 1383 873e ba02 363e
00000160: 3e20 e93c beb2 aebd fe95 063d 828d b2bb
00000170: e0f5 cdbe e676 80be f6fa fd3d 9388 26be
00000180: 9773 4bbe 0a00 e4bd 6d7f 7bbe a570 6fbe
00000190: 6e3a 5f3e 4b2f af3e 4892 24bd 4ddb 1cbe
000001a0: c90d a9be 9695 a93e 1fa8 573d f370 b3bc
000001b0: 0a99 ba3b 824e a8bd 1226 783e 24b9 9d3c
000001c0: 7387 02be d20a 46be 3ed4 ca3e 45d5 cebe
000001d0: f2e5 62be 86fa ddbc 2ed9 803c f80f 1b3d
000001e0: 7369 33be 1e8d be3d 9e5d 9d3d ec1e 3ebe
000001f0: ec34 5abe 3509 90bd 18d2 c1bd 5d22 c33d
00000200: b479 93be 4bd1 79bd 80dc 1e3e c76d e03e
00000210: c7b6 46be d425 a6be ad8d 853c f455 d23d
00000220: 7414 373e 6c92 d23d b2c8 20be 0edd 73be
00000230: ee5b 983c f860 91bc 8d43 1e3e c182 47be
00000240: 160f 293d 9e3d ba3d 1233 9dbe 8953 bd3d
00000250: dea1 793e 9aba f23d 5565 be3c 2e75 97ba
00000260: 7224 183e f3bf a2bc 009d 653e 7745 8fbd
00000270: 7057 f0be 7707 a2be f5f9 93be 9508 f7bd
00000280: c357 18bd 5840 25be 8685 51be 9708 f33c
00000290: 460e e3bc 4a25 333e 1cc1 8c3d 057b 403e
000002a0: 9a12 d53d ccbf ac3c d6f8 cd3d e904 203e
000002b0: 90e1 b6be e5a8 b2be e26d 323d 40b5 c83d
000002c0: 44a5 d63c 5b08 223e df49 32be 9408 0c3f
000002d0: b912 c23e 8dd4 8b3e f7c5 dd3d 037f 80bc
000002e0: accb 8d3e 650b 383e 39d0 3b3e 4766 b0be
000002f0: d25b da3e 9b9e 393e cc96 89be 898c 4abd
00000300: cfd3 94be b5fe 073d ce05 dfbd 2d62 4b3e
00000310: 2606 01be 9f29 7dbe 8622 3e3d 7912 af3d
00000320: be78 01bd d8b6 9c3d 2ea9 e3bd 967c bfbe
00000330: 7feb a7bb 6821 7a3e 1ce6 42be 3761 113d
00000340: c519 af3d 38a2 423c 68bc 0d3f 6e2c 153e
00000350: 1b77 48be df6b 56bc 4315 51be 16cf 903e
00000360: d453 d83d 4b3a 26be 09b2 b2bd ee6b aabe
00000370: 2f6f cb3e 8d9e e03e 41fa 843d d39f a13d
00000380: 6665 923c 26fe 79be 831e afbd b823 3bbe
00000390: 7f23 fa3e 5acc 71bc 937f 37be 29f6 82bd
000003a0: 5aa5 f73d c534 82bd dca8 e13c f103 2ebf
000003b0: 65dc 17be ee04 11bf 20a8 cbbd 7d76 c5bd
000003c0: 24e5 aebd e2e3 07bd 13c7 52bd 5f5a e53e
000003d0: af1d c03e 345c 133e 0e7a e5bb a007 3abd
000003e0: 7697 d93d 55ef 65bc 52f7 4cbd 5133 943e
000003f0: 812a 523e d6ae 823c 606f d3bc c8d3 6bbe
-0.0566597 0.028225685 0.2279243 -0.053431917 -0.5371126 -0.13850062 0.076125436 0.23108391
-0.23756123 0.10112371 -0.083889894 0.51664895 0.16967745 -0.08608321 -0.08469613 0.15408432
0.0073679048 -0.2841765 -0.055055182 -0.48868805 0.27012098 -0.05678655 -0.36067134 -0.2943223
-0.077217735 -0.023704728 -0.2132622 -0.06144668 0.33752814 -0.11740665 -0.19382404 -0.26500815
0.123059176 -0.05280894 -0.115328446 -0.13316777 0.16805235 0.11998019 0.183154 -0.32256606
-0.10350278 -0.26058975 0.06285806 0.30471644 -0.26878148 0.06701343 0.060723864 0.104569405
-0.33301097 8.6670036e-05 -0.050587308 -0.033851024 -0.19485855 -0.00036898366 0.14395063 -0.34060553
-0.11469744 -0.21164507 0.24443825 0.37928924 -0.57407254 -0.4641204 0.10519396 0.1746402
-0.21265705 0.14985998 -0.4826752 -0.34512153 0.30685586 0.30296034 -0.5512406 0.067272685
-0.11990842 0.04610113 0.011910915 0.2150183 -0.2348245 -0.30824894 -0.094746 0.17355962
-0.0635778 0.06284984 0.026512774 -0.053037364 -0.34223008 0.045804907 0.2646719 0.17774478
0.028457757 -0.08530186 0.032857887 -0.005448998 -0.4022665 -0.25090712 0.124013826 -0.16263036
-0.19868313 -0.1113282 -0.24560328 -0.23382814 0.21799633 0.3421577 -0.040178567 -0.15318032
-0.3301833 0.33121938 0.052650567 -0.021904444 0.005694513 -0.08218099 0.24233273 0.019253321
-0.12746982 -0.19340065 0.39615053 -0.40397087 -0.2215803 -0.027096998 0.01572856 0.037857026
-0.17520694 0.0930426 0.07683872 -0.18566483 -0.2130925 -0.07033006 -0.094639 0.09528039
-0.2880379 -0.060990613 0.15513802 0.43833753 -0.19405662 -0.32450736 0.016302908 0.102703005
0.17878896 0.10281834 -0.15701559 -0.23814794 0.018598523 -0.017746434 0.15455456 -0.19483472
0.041274153 0.09093784 -0.30703026 0.09244449 0.24378154 0.11851998 0.023241678 -0.0011555308
0.14857653 -0.01986692 0.22423172 -0.06995671 -0.4694171 -0.3164632 -0.2890164 -0.12062184
-0.03719307 -0.16137826 -0.20461091 0.029667182 -0.027716767 0.17494693 0.0687277 0.18796928
0.104039386 0.02108755 0.10057227 0.15626873 -0.35718966 -0.3489448 0.043561824 0.09800196
0.026201852 0.158235 -0.17410992 0.5470059 0.3790491 0.273106 0.108287744 -0.015685564
0.27694452 0.17973097 0.1834115 -0.3445303 0.42648178 0.1812691 -0.2687286 -0.04945043
-0.29067847 0.033201892 -0.10889779 0.1986167 -0.12600002 -0.24722908 0.046419643 0.08548445
-0.03160929 0.07652062 -0.11116253 -0.3739974 -0.005124509 0.24426806 -0.19033092 0.035493102
0.08549837 0.011879496 0.5536561 0.1456773 -0.19576685 -0.013087242 -0.20418267 0.28282994
0.10562864 -0.16233175 -0.08725364 -0.3328547 0.39733264 0.43870965 0.06493045 0.07891812
0.017870616 -0.24413356 -0.085507415 -0.18275344 0.48855206 -0.014758194 -0.1791976 -0.063946076
0.12092085 -0.06357721 0.027546339 -0.67974764 -0.14830168 -0.5664815 -0.09944177 -0.096417405
-0.08539799 -0.03317631 -0.051459383 0.4479551 0.37522647 0.14390641 -0.0070030754 -0.045417428
0.10624592 -0.014034112 -0.05004055 0.289454 0.20524026 0.015952509 -0.025809944 -0.23030007

actor.0.bias f4 [64]
00000000: d935 a3bb 4926 f7bb fb19 853d 7dc1 923b
00000010: b8ab af3a 6999 9cbc cff1 cdbb ff0d ae3c
00000020: 4383 a1bc 5cc5 423d 74a7 0fbd 0c7a 813c
00000030: 4028 683c dd5c e23c 61b9 3e3d a8f4 c4bc
00000040: df1f 59bc 5f01 33bb 6541 753c c18c 133c
00000050: 7a21 a9ba 2ac3 cdbc 2365 63bd b306 563c
00000060: 1f5c 973c 10fb 073d 6f68 24bc d74a 2d3d
00000070: c403 563d 9e07 be3c cdfc 14bd 781a f2bb
00000080: c019 973c a47f 843c 3814 a53c fe01 ecbc
00000090: 2f58 ab3c 8105 483d 1850 e4bb 3eff 6fbc
000000a0: d692 16bd b7eb d73c 645a 58b9 4c80 cbbc
000000b0: 20d9 e1ba d8e8 c1bc 03b9 9ebc ae3b 9ebb
000000c0: efb7 073d 0f29 b1bc ffed afbc d503 fcbc
000000d0: f102 c63c 1d08 e63c ddf3 0639 5b6b c5bc
000000e0: 5ba3 36bd fe47 29bb d4f1 aabc 7669 35bd
000000f0: 05ad e33c 47fc 46bc 518f 293d 7023 5cbd
-0.0049807844 -0.0075424057 0.06499096 0.004478632 0.0013402617 -0.01911612 -0.0062849293 0.021246908
-0.01971591 0.047551498 -0.035071805 0.015805267 0.014169753 0.027632171 0.04656351 -0.024042442
-0.013252228 -0.002731405 0.014969205 0.009005726 -0.0012903654 -0.025117476 -0.055516373 0.013063121
0.018476544 0.033198416 -0.0100346645 0.0423077 0.052249685 0.023196992 -0.036373902 -0.007388409
0.018444896 0.016174145 0.020151243 -0.028809544 0.020916073 0.048833374 -0.0069675557 -0.014648257
-0.036761127 0.026357515 -0.00020633038 -0.02484145 -0.0017230846 -0.023670599 -0.01937533 -0.0048288917
0.033134397 -0.021626024 -0.02147579 -0.030763546 0.024171324 0.02808004 0.00012870082 -0.024099043
-0.04458938 -0.0025830264 -0.020867266 -0.04429003 0.027792463 -0.012145109 0.041396443 -0.053744733

actor.2.weight f4 [64, 64]
00000000: 7ba1 743e 5aad a9bc d27a 773e 05e8 c0be
00000010: 4e75 fe3d 5119 ed3d d1e5 70be 0661 fa3d
00000020: 2f6a bd3d 49ae 82be 27c6 293e be2e 1c3e
00000030: 1aee e13c 1dbc bb3d a639 62bd e4f5 423e
00000040: 2f15 3b3e ae6f 973e bd5f 8c3d 470b b53e
00000050: e98d cfbd 6990 d03d 9968 37bd ba5a 553a
00000060: 8f95 b23d abc9 cd3b 376d 0d3e cc5c 3a3e
00000070: dde7 0bbe f485 ce3e 9216 a2be 015d febe
00000080: d7e8 1e3e 03ba 313e 773e dd3d fecc 943e
00000090: 5a8e ca3d 4f89 bb3d 4316 a23e 2b34 553d
000000a0: c223 0c3f 538d efbd 12ec 36be 422e 423e
000000b0: cd24 683e 06de 063e 6bb0 2bbd 5871 003b
000000c0: d3a3 b43c f173 073d 7aad 3abd 49be 84bd
000000d0: 4b45 16bc 3cd0 733e 202d 693e aa7a e3bd
000000e0: c115 b93d c1cb 7c3e 79a9 6d3c d991 353e
000000f0: 7ce6 533e 863d 0bbf 2497 b23e 0d34 88be
00000100: 73ca adbd 3484 ebbd 62bf 3f3e dace a23e
00000110: 9bab 3e3e a79f 08be a500 b9bb 89dc d8be
00000120: c26e 0b3b 15ca c43d 0d6d 1bbe 97c8 54be
00000130: 0ad8 493e 090c 46bd c4e5 bdbe baad 803e
00000140: 9ede a9be 7aba 08be 245f c73e a0c8 843d
00000150: 2da2 933d d695 23bd c577 3dbd 28a4 2c3e
00000160: 3716 75be 0ce2 6b3e 1da3 bb3d 4496 5b3d
00000170: 0c44 1c3b 4da1 2a3e 5c3b a73c 1fff 9d3d
00000180: 0fca 83be 1720 75be c440 ca3b 43b3 793e
00000190: 5d3f cebe 26c0 543e 3b25 983d 1425 67be
000001a0: c8e3 00be 99b6 d7bd f10b de3e b4a9 44be
000001b0: 8cbd f8be ecda 563b 4687 693e 2076 acbc
000001c0: c74d 04bc 9f26 babe 4cac bc3d c0d7 933e
000001d0: 37b0 933d d991 2cbc 3ee2 1abe 0b09 2dbc
000001e0: 1ea4 693e b774 873e 1bf0 eb3c 4600 46be
000001f0: 893f c4bd 9d31 933e 9062 943e 8702 853e
00000200: 11e8 0cbe 7b68 223d 84b9 bc3d d4df 923e
00000210: 1995 42bd b59e bbbb 47b9 66be f257 c1bd
00000220: 36b3 f73e 28d4 8bbd 959b 053e 6166 b0be
00000230: 0068 ce3e acc2 a7bd 5db4 373d 49d7 2bbb
00000240: f8d2 d73c b2b0 3b3e 62c9 f5bc b3df 853d
00000250: 026b 24bd 9388 0e3d c02f 16be 09ba 663e
00000260: 6642 5b3d 5e99 6b3e 6f85 63be 4f54 0f3d
00000270: 74f4 973d 4caa 3d3e 1d77 0ebe a0e8 38be
00000280: 24e6 f33d 9922 67be 8420 933e 5da6 b3bd
00000290: 181d c93d b01b 6a3e 443e bfbe 8469 ebbc
000002a0: 970f c5bd d602 aa3e 716d dc3d 73af 82be
000002b0: aedf 243d 754f 9fbd 87a6 a03d 34d6 a23c
000002c0: b893 413e 6281 efbe 2592 a63c 2331 8abe
000002d0: 3a44 b03d bd80 aebe 6b2c dbbe 95e4 05be
000002e0: ef93 863e 9e66 99be 49bb 623e 626d 263d
000002f0: 706e 9d3e 8b8f e33d bb4d 333e 5c47 2a3e
00000300: f3b6 1fbe 2abb 10bd 9b4b b1be 461f 27be
00000310: 92e7 f9bd a349 613e 9bc7 8ebe f23d 9b3e
00000320: 5529 c5be 9390 0cbc d8c8 8bbd 5173 a13e
00000330: d143 5fbe 3d85 bfbe 7378 12bd d679 bd3e
00000340: d115 bf3e 7f44 223e 703e 74be fbde bf3d
00000350: f6e4 9dbd e47d b53e f1c5 5dbd 0f61 003e
00000360: 353a 853c b0f6 eabe e9e5 463e 7d35 7c3b
00000370: 4f90 0cbf f7eb 9fbc a5a6 12bd bff4 7bbd
00000380: 08d4 06be efab 12bd 6357 3cbd db58 8ebc
00000390: b6fe f53c e84e 2b3d 74dd a53c 8669 20be
000003a0: 0a4e 55bb 7caf c9bd 1d10 7dbe cdb1 2cbe
000003b0: d2fc f63c ad14 863e 4985 d03c b831 2a3e
000003c0: fff7 02be e9f4 5f3e 1cfe 4e3e 0f2f babd
000003d0: ef0e d3bd e891 923d c917 debd 0898 5d3d
000003e0: 66a2 01be 3a19 92bd 2f02 afbe 3ceb 1b3e
000003f0: ab75 64be 401e 873e 6358 04bc 92f4 863e
0.23889725 -0.020712543 0.24167946 -0.37677017 0.12424718 0.11577094 -0.23525168 0.12225537
0.092487685 -0.25523594 0.16579495 0.15252206 0.027579356 0.09166739 -0.05523076 0.19039112
0.182698 0.29577392 0.06854198 0.35360166 -0.10134489 0.10183794 -0.044777486 0.00081388245
0.08719932 0.006280144 0.13811193 0.18199462 -0.13662668 0.40336573 -0.31657845 -0.4968033
0.15518509 0.17356114 0.1080293 0.29062647 0.09890433 0.09157049 0.3165761 0.052051704
0.5474206 -0.11696877 -0.17863491 0.18962958 0.22670288 0.13170633 -0.041916292 0.0019598808
0.022050774 0.033069555 -0.045575596 -0.064816065 -0.009171794 0.23809904 0.2277112 -0.11107381
0.09037352 0.24687101 0.014505737 0.17731418 0.20693392 -0.5439075 0.34880936 -0.26602212
-0.0848588 -0.11499825 0.1872535 0.3179844 0.1862015 -0.13342153 -0.005645829 -0.42355755
0.0021275734 0.096088566 -0.15178318 -0.20779644 0.19711319 -0.04835132 -0.3708936 0.25132543
-0.33177656 -0.13352385 0.38939774 0.06483579 0.07208667 -0.039937817 -0.0462568 0.16859496
-0.23934256 0.23035449 0.09161971 0.0536101 0.002384427 0.16663094 0.020414047 0.07714676
-0.25740096 -0.23938023 0.0061722714 0.24384789 -0.40282717 0.20776424 0.07428976 -0.22572738
-0.12586892 -0.105328746 0.43368486 -0.19205362 -0.48582113 0.0032784296 0.22805509 -0.02105242
-0.008075184 -0.3635759 0.092125505 0.28875542 0.07211345 -0.01053282 -0.15125367 -0.010561238
0.22816512 0.26456234 0.028801015 -0.19336042 -0.09582431 0.2874879 0.28981447 0.2597849
-0.13760401 0.03965042 0.09215072 0.28686392 -0.04750547 -0.0057257065 -0.22531615 -0.09440602
0.48378915 -0.06827575 0.13047631 -0.3445311 0.4031372 -0.081914276 0.044849742 -0.002622085
0.026345715 0.18329123 -0.030003253 0.06536808 -0.040141113 0.034798216 -0.14666653 0.22531904
0.05353012 0.23007724 -0.2221887 0.034992512 0.074196726 0.18521994 -0.13912626 -0.1805749
0.1190913 -0.22571792 0.28735745 -0.08771966 0.09820002 0.22862124 -0.37352192 -0.028736837
-0.09622114 0.3320529 0.10763062 -0.25524482 0.04025238 -0.07778827 0.078442626 0.01987753
0.18904006 -0.467784 0.020333359 -0.26990613 0.08606763 -0.34082595 -0.42807326 -0.13075478
0.2628474 -0.29961103 0.22141756 0.04063166 0.3074832 0.11111363 0.1751012 0.16628784
-0.15597133 -0.035334744 -0.34627995 -0.16320524 -0.12202372 0.22000746 -0.27886662 0.30320698
-0.38508096 -0.008579391 -0.06825417 0.31533292 -0.21803214 -0.3740634 -0.0357594 0.37007016
0.37321332 0.15846442 -0.23851943 0.09368702 -0.077096865 0.3544761 -0.05414385 0.12537025
0.016263107 -0.45891333 0.19423641 0.003848403 -0.549077 -0.019521696 -0.035803456 -0.061512705
-0.13166821 -0.0358085 -0.045981776 -0.017376354 0.030028682 0.041823298 0.020247199 -0.15665254
-0.0032547736 -0.09847924 -0.24713178 -0.168647 0.030149851 0.2618765 0.02545418 0.16620529
-0.12789916 0.2187077 0.20214123 -0.09091007 -0.10305583 0.07156736 -0.108443804 0.054100066
-0.12659606 -0.07133718 -0.34181353 0.15226454 -0.22310512 0.26390266 -0.008077714 0.26358467

actor.2.bias f4 [64]
00000000: 3d13 d03b 75bc 5b3c 5056 0c3d 0c7f 60bd
00000010: 2355 e03c 3c0d 153d f85b a5bc 5e91 01bd
00000020: b904 a3bc 272b a63c 872a 49bc 497d cb3b
00000030: 41b3 9ebc adf1 a83c e172 063d b370 f9bc
00000040: 7e3f ea3c cbd7 643c 1a13 dd3c 4c40 1fbc
00000050: ab3a 5ebb 81ae 0bbd 8808 b93c 150a 5dbc
00000060: 0afd fe3c 97cc aabc e684 18bd 6260 afbc
00000070: f509 0b3d 0040 5f3c 380b f93c b4b6 203c
00000080: 4495 bc3c 8cbe 233d 293d 9b3b 602f 3d3d
00000090: 5605 3fbd 5534 d6bc 8bd9 e2bc e706 42bc
000000a0: cab4 8ebc 7de0 143d 59d0 c3bc d184 9e3b
000000b0: 2fd2 7a3c 534d 893c df0f aebb cb03 04bd
000000c0: 0f45 35bd 6126 febc dd73 3c3d ba9b bcbc
000000d0: e8f2 e73c e2c4 f63b 3abb c53c 80b3 0fbd
000000e0: 6555 693c 64e8 8fbb 75cf 1dbd 111a 1abd
000000f0: 4f2b efbc d1f5 6f3c d4f7 f2bc dacf 33bd
0.0063499496 0.013411631 0.034262 -0.05480866 0.027384346 0.036389574 -0.020185456 -0.031632774
-0.019899713 0.020284249 -0.012278206 0.0062100035 -0.019372584 0.020623052 0.0328244 -0.030449247
0.028594729 0.013967465 0.026986647 -0.009719919 -0.003390948 -0.034101967 0.022587076 -0.013491173
0.031126518 -0.02084951 -0.037236117 -0.021408264 0.033945043 0.013626099 0.030400857 0.009809185
0.023020394 0.03997664 0.0047375155 0.04618776 -0.046635948 -0.026148 -0.027691623 -0.011842466
-0.017420191 0.0363469 -0.023903059 0.0048376103 0.015308901 0.016760504 -0.0053119506 -0.03223018
-0.044255313 -0.03102416 0.046008933 -0.023023475 0.028314069 0.0075307945 0.024137128 -0.035083294
0.014241551 -0.004391717 -0.038527925 -0.037622515 -0.029195456 0.01464601 -0.02965919 -0.043899395

actor.4.weight f4 [4, 64]
00000000: da68 ccbd c04f 813b fd9a d4bd 8e5e d03d
00000010: d4c0 0dbe 8be6 f7bd bef6 c63d 04f4 053e
00000020: 2128 a03d 2966 f6bd 3def eabb 246c 373d
00000030: c5c3 bc3d 3c18 c5bd b4ce febd cdb6 c03d
00000040: 5f3a dbbc 8edc fdbd ac20 253d 2d6d 553b
00000050: f639 3d3d 3610 f03d 73da fabd 3ae9 e83c
00000060: 2be9 cebd 6c2b bb3d c172 dc3d 4637 c23d
00000070: 13f7 efbd 152c debd 2879 bfbd d928 55bd
00000080: 88a1 01be 4726 b0bd e881 b7bd d64d f1bd
00000090: 5ee2 e83d 84c5 ac3d 22c8 343d 6ed1 acbc
000000a0: 0105 cf3c 0ea5 d7bc dd5c f33d fb17 c3bd
000000b0: c8d0 20bd 52ff d8bd bc8c 563d 9859 fb3d
000000c0: a526 c93d ba6c 5d3d 4a77 ebbd 2d15 e03d
000000d0: 8d6c e2bd c815 293d 8a38 cabd 5879 cf3d
000000e0: 82f1 d63d 1a62 e8bd 4332 cc3d 42f2 b03d
000000f0: 2d4c f13d 1024 e5bc 53f9 84bc 48c5 013e
00000100: b878 0a3e 34ab 3fbe b0ea fcbd 4c9f 0c3e
00000110: 4472 f3bd f207 07bd 3073 f5bd 6082 02ba
00000120: 079c fdbd c7d9 c03c 6876 18be f61d 16be
00000130: 7d85 2b3e e79b 38be 60c1 f7bd c7dd 073e
00000140: e670 053e 5d64 9ebd be68 1d3e 8447 21be
00000150: 5a8c 2dbe e570 c7bd 0f60 febc e11d 28be
00000160: 53d6 6bbd a099 3f3e 88d2 b9bd 946e 213e
00000170: 2edb 9b3d 482d 483d 85f3 a83d f4e8 0d3e
00000180: 50ce b7bd 5f8c 24be 3c48 de3d fe1e c63d
00000190: c6fc b7bd f541 093e 693e 233e c731 fdbd
000001a0: 8d28 0a3e a4bd 003e 85f3 dc3d 4af9 3bbe
000001b0: e3b1 28be 3467 18be 0bcc 1a3e c10d 263e
000001c0: aa0a c2bb dcf5 2e3e 59d1 06bd c489 01be
000001d0: 01e4 84bd 85dd 1f3e 9f9d eb3d 2e90 e13d
000001e0: c2a0 60bd 60f6 5c3d a2f6 2f3e bc37 693c
000001f0: 025f 253d 7d11 0dbe be39 26be f425 0e3d
00000200: 07a4 0a3e 664e eb3c 96fa 073e 915d 1abe
00000210: 69c3 2a3e f183 df3d 8461 0fbe 65aa 2ebe
00000220: 6f1d 0cbe 85fd 0d3e 1a95 313c c8e5 cfbb
00000230: 156a 07be 20d7 0e3e 92bb 153e 2230 1bbe
00000240: a99b 893d 2b4e 133e 0f22 35bd 9f28 55bc
00000250: 733c a4bd 7121 23be 53cc ee3d 54b3 2abd
00000260: 8f10 3d3d 134a 0cbe 6486 31be 67f5 1cbe
00000270: bcf1 1f3e d4af 0f3e 12b5 153e 5e96 b63d
00000280: bbc9 113e 407d 1c3e 9697 c63d dec1 2e3e
00000290: 0c77 f4bd 88b6 0cbe b92b c8bd 48bd b53c
000002a0: 69b1 84bd a6ea 9e3d c68e f5bd 6de3 073e
000002b0: db98 b03d ea60 1a3e 20b3 d1bd 1e88 1fbe
000002c0: ff5e 31be d2ed f2bd 17f7 383e 5956 17be
000002d0: 354f bb3d c268 61bd 4700 103e 5dcc 18be
000002e0: 70cf fcbd cc6a 0c3e dfb1 2fbe 4ba7 06be
000002f0: 2179 28be be93 923d c4e0 00bc f159 d1bd
00000300: 4aed 1bbe 0745 3d3e bbaa af3d 4e55 aabd
00000310: fa34 a6bd 2ea6 20bd bbcd 173e fe6f 103e
00000320: b8ed 263e 99ef ffbd 4ef6 153e e63c 063e
00000330: 589b 10be 8e42 103e 600c 043d cac8 76bd
00000340: 247c 13be fb28 92bd 9865 1fbe d70e 223e
00000350: c530 363e dea5 1f3e 4c49 7dbd 4f2d 333e
00000360: 1e5f c13d 435f 2cbe 2b81 273e 9999 eebd
00000370: 46e1 20be db1f 1dbe 8e5d f5bd 08c7 14be
00000380: 2d4d 67bd 242a f93d 00cd febd 4780 2dbe
00000390: 907c df3d c462 41bd e474 03be b8d4 fe3d
000003a0: ffd7 f0bd 14f7 0dbe 59b2 8cbc a4df 123e
000003b0: f007 173e 5f4b c63b 49f8 09be 73f1 d7bd
000003c0: d3ff 2a3e 7940 09be 3a92 0fbe 3273 223e
000003d0: a89f 503d 27fd 1bbe 2354 13be 0cfd 02bd
000003e0: 9edd 023e 3601 08be c458 c4bd 4ddb b63d
000003f0: ef01 203e 7fa4 fd3d 1ec2 2b3e aef7 f03b
-0.09980936 0.0039462745 -0.10381124 0.10174285 -0.1384309 -0.121045195 0.09715031 0.13081366
0.07820154 -0.12031204 -0.0071696327 0.044780865 0.092170276 -0.09623763 -0.12441769 0.094098665
-0.026761232 -0.12395583 0.04031436 0.0032566295 0.046197854 0.11721842 -0.12248697 0.028431524
-0.10103067 0.091391414 0.10764075 0.09483199 -0.117170475 -0.10848252 -0.093492806 -0.05204091
-0.12659276 -0.08601051 -0.089603245 -0.11782424 0.11371301 0.084361106 0.044136174 -0.021095958
0.02527094 -0.026323821 0.11882947 -0.09526058 -0.03926161 -0.105955735 0.05238031 0.12272948
0.09821824 0.054058768 -0.11497362 0.10941539 -0.11055861 0.041280538 -0.09874065 0.10130566
0.10495283 -0.113468364 0.09970524 0.08639957 0.117821075 -0.027971298 -0.016232168 0.12672913
0.13522613 -0.18717653 -0.123494506 0.13732642 -0.11887029 -0.03296656 -0.11984861 -0.0004978534
-0.123832755 0.023541344 -0.14888918 -0.14659867 0.1675014 -0.18028222 -0.1209743 0.13268195
0.13031349 -0.077339865 0.15371987 -0.15749937 -0.16948071 -0.0973833 -0.031051664 -0.16417648
-0.057577442 0.18710947 -0.09073359 0.15764838 0.076101646 0.04887131 0.08249573 0.13858396
-0.08974898 -0.16069172 0.10853621 0.0967388 -0.089837596 0.13404067 0.15941776 -0.1236301
0.13492031 0.12572342 0.10788635 -0.18356815 -0.16474108 -0.14883119 0.15116899 0.16216184
-0.0059216814 0.17085975 -0.032914493 -0.1265021 -0.06488801 0.15611847 0.11504673 0.11013828
-0.05484081 0.0539459 0.17183927 0.0142344795 0.04037381 -0.13776202 -0.16232964 0.034704164
0.13539134 0.028723907 0.13279185 -0.15074755 0.16676106 0.10913838 -0.14002043 -0.17057188
-0.13683103 0.13866241 0.010838771 -0.0063445307 -0.13224061 0.13949251 0.14622334 -0.1515508
0.06719143 0.14385287 -0.044221934 -0.013010173 -0.08019342 -0.15930726 0.116600655 -0.041674927
0.04615837 -0.13700132 -0.17336422 -0.15327989 0.15619558 0.14031917 0.14619854 0.08915399
0.1423711 0.15282154 0.096968815 0.17066142 -0.11936769 -0.13741505 -0.097739644 0.022184983
-0.06479151 0.077595994 -0.119901225 0.1327035 0.08622905 0.15076032 -0.102392435 -0.15579268
-0.17321394 -0.11861767 0.18063007 -0.14779033 0.09145967 -0.055031545 0.14062606 -0.14921708
-0.12344253 0.13712615 -0.17157696 -0.13149755 -0.16452457 0.07157086 -0.007866088 -0.10222233
-0.15227237 0.18483363 0.08577486 -0.08317052 -0.08115573 -0.03922098 0.14824574 0.14105222
0.1630162 -0.124968715 0.14644739 0.13109168 -0.14121759 0.14087889 0.032238364 -0.06025008
-0.14402825 -0.07136723 -0.15566099 0.15825973 0.17792042 0.15590617 -0.06183748 0.17497753
0.0944197 -0.16833214 0.16357867 -0.1165039 -0.15710935 -0.15344183 -0.11980735 -0.1452905
-0.056470085 0.12166241 -0.124414444 -0.16943465 0.1091243 -0.04721333 -0.12837559 0.12442917
-0.11759948 -0.13863784 -0.017174887 0.14343125 0.14749122 0.0060514654 -0.1347362 -0.105441
0.16699152 -0.134035 -0.14020625 0.15864256 0.05093351 -0.15233289 -0.14387564 -0.031979606
0.12779853 -0.13281712 -0.09587243 0.08928547 0.15625738 0.12384891 0.16773269 0.0073537445

actor.4.bias f4 [4]
00000000: 32b8 a3bd a432 733b d3a2 343d 9dd8 bdbb
-0.07994117 0.0037109042 0.044100594 -0.0057936446

exp_avg f4 [64, 8]
00000000: b952 af3b 25d0 79bc 5020 36b9 a26b 503c
00000010: b31a 12b9 7b4d 1a3a 1222 c039 43d7 ce38
00000020: 04ac 96ba 186e 35ba 0fe2 fb38 46a9 beba
00000030: 6ebe 0839 49b3 bdb8 43dd 9eb8 35e1 bcb7
00000040: 3c5d 1cbc c30b 033d 2541 9e39 bb18 bdbc
00000050: 1670 cc39 4805 90ba e207 38ba 550c fab8
00000060: 48b4 203c 4d18 28bd 3ea3 5e3a 3d04 c93c
00000070: 877c 9f38 722a 8d3a 8a6e 203a 42a3 1839
00000080: 902a 253b d0dd eabb 1c21 c1b9 3612 ca3b
00000090: 26c3 96b9 bb72 9839 f859 0b39 d173 4637
000000a0: 805d 543a e86f 8439 9777 9eb9 48c6 fc3a
000000b0: c8c7 93b9 9edf e638 2902 03b7 9033 cab7
000000c0: b71e d7bb 0d52 d03c 4a37 d3ba 1177 80bc
000000d0: 0b98 5bba 6ae6 0dba f1ac 13ba 8e14 1fb9
000000e0: ab47 eabb 2e86 d63b 9c99 73ba 34c6 47bc
000000f0: dfa3 feb8 bc7c 09ba 76ce c7b9 6ae7 a0b8
00000100: 0b35 bd3b c763 72bc 778d aab9 96b8 513c
00000110: 1967 ecb9 b619 433a ca2b 053a 6231 1339
00000120: 1441 cebb bc0c 8c3b f431 fbba 0906 17bc
00000130: 95a2 51ba 4e7c 8db9 d417 96b9 0db1 26b8
00000140: 168c ddba 0f6a 553c d346 e439 c29a d3bb
00000150: 1e2a 9539 9b0b abb9 da72 5ab9 16b1 77b8
00000160: bb18 f63b b85f b3bc eaa1 9b39 e6f5 8c3c
00000170: b303 2fb9 eb31 683a 8d83 103a 702a 1039
00000180: 8c0f fdba 5342 a4bb 4507 9d39 17a8 07bb
00000190: 68bb 8c39 4a3f 22b9 ab0e d1b8 b200 83b7
000001a0: 14f6 efbb c6c1 da3c 7c68 f6b9 9d87 8bbc
000001b0: e428 94b8 943d 4bba 3709 0dba 6b73 14b9
000001c0: 7c57 0abc 1e30 cc3c 9ea8 19ba aa59 98bc
000001d0: 152e 97b9 e5f6 55ba ccd6 3aba c326 4bb9
000001e0: 0144 f93b 677e edbc 9ac9 8d3a 29c7 8f3c
000001f0: e606 bd39 4567 423a da47 0b3a 6ca8 0939
00000200: d7fd 3bbb aefb 3d3a 9e7e 6339 0d2a acbb
00000210: 9756 6839 5424 acb9 5faa 7ab9 0297 5cb8
00000220: fd94 56ba 7ab0 26bb 453d 6a38 f237 96b9
00000230: 20a0 65b6 908a 4cb8 4a51 20b8 f677 7cb5
00000240: e032 863b 4235 e8bb 40a0 2d3a 25dd 083c
00000250: 9622 083a bd5e 3d39 a962 8239 dcb4 6a38
00000260: baf4 363c bef8 06bd a9ca fdb8 1a24 d43c
00000270: 646e 79b9 38af b13a 2c6c 6c3a 9766 6039
00000280: b7bb 2a3b 1c6e 7abb daab 77b8 6fe6 a33b
00000290: f378 d6b8 f296 9139 73dd 3739 e111 2d38
000002a0: 5d43 343b 70d3 6bbc cd4a 73b8 fe98 fb3b
000002b0: 1836 54b9 f382 dd39 fb78 5939 5132 2b38
000002c0: 2c65 8d3b 6802 e9bb 98c1 3e3a 7e7b fc3b
000002d0: 4eb1 9439 80b3 ac39 f3fc 9539 398d 8838
000002e0: f679 073c 7b8e d3bc 7807 aa39 ae72 943c
000002f0: 6baa 1bb9 a8e6 6b3a 836c 1c3a c5cb 1b39
00000300: 2ea6 033c ab75 f0bc d62a 473a bbd0 9d3c
00000310: 3e57 cbb8 4439 4b3a 2f8a ab39 09ef 9e38
00000320: 4b5d 023b f37b 85bc 3fb6 aa39 7ba3 e03b
00000330: bcd6 a138 716d 9a39 7e79 7039 22a5 9838
00000340: b807 37bc 5d87 f03c 979a cdba 1a13 b8bc
00000350: 4e2c 1aba b3ed 75ba a3b2 3cba 26e0 24b9
00000360: 68bc 31bc 70c5 283d c7da b0b9 af05 dcbc
00000370: 5a8c 0239 485f 9dba ea0f 59ba 06f3 56b9
00000380: cbcd f03b fcb0 9ebc 0588 e839 40f7 743c
00000390: ec98 1d38 c2e6 343a afe5 f639 75d2 0439
000003a0: 6164 033c d46d dabc 92e7 d9b9 6d8b a93c
000003b0: b87d d9b9 28d6 843a 5000 483a b81f 3d39
000003c0: b0d1 0abc d0ba c23c 513c 8fba 2b68 94bc
000003d0: 8d56 02ba 72c5 4fba afe5 36ba 1998 1fb9
000003e0: 6ec3 073c 2c1c 82bc ae46 093b 4079 793c
000003f0: 68ae 723a 708c 293a db47 203a af4f 2139
0.0053504375 -0.015247379 -0.0001736891 0.012720974 -0.00013933591 0.0005886179 0.00036646478 9.862941e-05
-0.0011495356 -0.00069210073 0.000120107194 -0.0014546297 0.00013040911 -9.045617e-05 -7.57524e-05 -2.2516217e-05
-0.009543713 0.03199364 0.00030184645 -0.023083081 0.00038993423 -0.0010987902 -0.00070202176 -0.00011923226
0.009808607 -0.0410388 0.0008492953 0.024538154 7.604906e-05 0.0010770096 0.0006119987 0.00014556668
0.0025202371 -0.0071675554 -0.00036836497 0.0061667217 -0.00028755626 0.0002907718 0.00013289589 1.1828685e-05
0.0008101091 0.0002526038 -0.0003022521 0.0019285167 -0.00028186874 0.000110089066 -7.808711e-06 -2.4104287e-05
-0.006564941 0.02542975 -0.00161145 -0.015681775 -0.0008376843 -0.00054130575 -0.0005633375 -0.00015171079
-0.007149657 0.006546757 -0.0009292604 -0.012193251 -0.00012142187 -0.0005244722 -0.00038110063 -7.672499e-05
0.0057741455 -0.014794297 -0.00032530326 0.012800356 -0.00045090241 0.0007442491 0.00050800724 0.00014037409
-0.006294379 0.004273979 -0.0019164667 -0.0092177475 -0.0007996944 -0.0002698623 -0.00028627983 -3.9742376e-05
-0.0016902711 0.013025775 0.00043540317 -0.0064576576 0.00028450874 -0.00032624308 -0.00020832886 -5.9054313e-05
0.0075102723 -0.021896228 0.0002968454 0.017207097 -0.00016690679 0.0008857536 0.00055127667 0.0001374872
-0.0019307001 -0.0050127893 0.0002995079 -0.0020699555 0.0002684251 -0.00015473101 -9.968629e-05 -1.561674e-05
-0.007323036 0.026703727 -0.00046998623 -0.017032439 -7.0648064e-05 -0.00077530113 -0.0005380096 -0.00014157376
-0.008443709 0.024925288 -0.0005861613 -0.018597443 -0.00028835298 -0.00081620953 -0.0007127344 -0.00019374028
0.0076069837 -0.028990937 0.0010817528 0.017551022 0.0003605403 0.0007415901 0.0005313136 0.0001312808
-0.0028685236 0.0007247281 0.00021695576 -0.0052540363 0.00022157501 -0.00032833463 -0.00023905326 -5.2592724e-05
-0.0008185653 -0.0025434778 5.584701e-05 -0.00028651912 -3.4216864e-06 -4.8766437e-05 -3.822268e-05 -9.405188e-07
0.0040954202 -0.007086427 0.00066233054 0.008353506 0.0005193142 0.00018059737 0.0002486904 5.5958386e-05
0.011166746 -0.032952063 -0.000121017285 0.02589612 -0.00023787614 0.0013556248 0.00090188044 0.00021400522
0.0026051828 -0.0038212603 -5.904944e-05 0.005001835 -0.00010226844 0.00027769018 0.00017534736 4.1263065e-05
0.0027505972 -0.014393672 -5.800538e-05 0.00767815 -0.00020238047 0.0004224997 0.00020739801 4.0816438e-05
0.004315039 -0.0071108826 0.00072767725 0.007705151 0.00028360862 0.00032940134 0.00028607956 6.51129e-05
0.008268824 -0.025824776 0.0003243049 0.01812109 -0.00014845438 0.0008998909 0.0005967097 0.00014857862
0.008035226 -0.029352983 0.00075976306 0.01926457 -9.6960444e-05 0.00077523687 0.00032718616 7.578551e-05
0.0019892033 -0.016294455 0.0003256071 0.006855426 7.717076e-05 0.0002945471 0.00022933443 7.278683e-05
-0.011171274 0.029361421 -0.001568633 -0.022470046 -0.00058812357 -0.0009381428 -0.000719825 -0.0001572376
-0.010848142 0.041203916 -0.00033732338 -0.026858179 0.00012450051 -0.0012006545 -0.00082802644 -0.00020499164
0.007348751 -0.019371502 0.0004435183 0.014951527 3.7574137e-05 0.00069008407 0.00047091904 0.00012666902
0.008019538 -0.026663698 -0.00041562 0.020696366 -0.00041483133 0.0010134624 0.0007629441 0.00018036261
-0.008472845 0.02377072 -0.001092801 -0.018116077 -0.00049720035 -0.0007925845 -0.00069769745 -0.00015220082
0.00828634 -0.015882574 0.002094667 0.015226662 0.0009257556 0.0006467765 0.0006114223 0.00015383841
