HFDRL_UNIT8/models/Archived/LunarLander-v3__ppo__1__1768735947__u260.pt (torch, 44753 bytes, 11 tensors)

critic.0.weight f4 [64, 8]
-0.1526005 0.25018263 0.035590857 0.18956958 -0.063787535 0.1119816 -0.47684896 0.10839142
-0.14368804 0.3853641 0.2168892 0.21271946 -0.36708516 -0.5697402 -0.13146389 -0.027138015
0.027318137 -0.29773077 0.12985022 0.104773425 0.007341291 0.17802346 0.5060041 0.87030464
-0.19626983 0.21948145 -0.05502308 -0.5810653 0.2690836 -0.056060623 -0.60009205 -0.55075806
0.27442607 -0.25794184 0.95497286 0.057687655 0.49025968 0.09235484 0.23095568 -0.52580833
0.24167867 -0.36342064 0.098327346 -0.57628083 0.16462405 0.70449024 0.23152748 -0.16898817
-0.6668282 -0.3909152 -0.16840518 0.18952277 -0.0612439 -0.27577567 0.61339605 0.23973542
-0.15899938 0.7144803 0.10737542 0.52113634 -0.1271931 -0.11343641 0.07425442 0.56022537
0.0076844613 -0.052577 0.63430935 -0.22706383 0.6152322 -0.26235732 0.062721536 -0.28458712
-0.16757075 0.38473547 0.24693947 0.15243566 0.12713519 0.04574949 0.28571373 0.67159307
-0.07508371 -0.48777288 0.104088396 0.25081283 0.15165901 0.7079627 0.37567055 -0.11761535
-0.07727812 0.41376683 0.008193556 0.18519324 -0.057523206 -0.05228837 -0.5710126 -0.019556835
-0.08300099 0.47407973 0.08551694 0.21440102 -0.2726209 -0.38554427 -0.39164335 0.1486508
-0.09731266 -0.25479573 0.17537092 0.3376206 -0.0058122138 0.017857954 0.1059807 0.4908558
-0.11498469 -0.16475338 0.17439523 0.31217638 0.1402923 -0.12139176 0.30795577 0.4369201
-0.035322156 0.22723064 -0.2172797 -0.28901863 0.00032483766 0.117008604 -0.37396878 -0.48892945
0.127394 0.1986558 0.021493495 -0.17764854 -0.24190761 -0.2485222 -0.27733842 0.21441339
0.0046178373 0.20015764 0.9275242 -0.17689323 0.62698287 -0.80564946 -0.16022015 0.10110901
-0.56866926 -0.17398743 -0.08131459 -0.30226478 -0.18379378 0.09963643 0.029234601 -0.13291861
-0.10528097 0.33517838 -0.051990945 -0.07041021 0.061610445 0.14114715 -0.5622753 -0.45221803
0.21033907 -0.16589542 0.19476585 0.116859585 0.080780044 0.013130528 0.27932638 0.11233768
0.16370757 0.101689264 -0.18445292 -0.28717634 -0.09996124 0.1986489 -0.23267567 -0.3391303
0.39324257 -0.17247652 0.24479024 -0.050382994 -0.10502133 0.2003571 0.030185884 -0.2555817
0.1973733 0.23422521 -0.11073435 0.1358967 0.17455551 0.033566117 0.04288305 -0.5709971
-0.075518034 0.1518319 0.007050122 -0.18754904 0.0030608631 -0.25503397 -0.836888 -0.43008155
-0.3308903 0.4968143 -0.16474992 0.5037551 -0.19588044 -0.7388609 -0.26622477 -0.03782266
-0.046628784 -0.08312088 0.17069298 -0.099633835 0.23765068 -0.42427263 -0.014091218 0.24523738
-0.011584203 -0.24055038 0.026016923 0.0078937 -0.2494679 0.14015007 0.2614417 0.5731493
0.25539416 0.16944483 -0.28084895 -0.071181536 -0.098711416 0.09216824 -0.51363647 -0.44286293
0.19991615 0.44796437 0.02616309 0.4380108 -0.1691749 0.011133936 0.009816084 -0.4249519
-0.28944433 -0.27569246 -0.14439721 0.04564836 0.31207243 -0.3157361 0.16966341 0.68164074
-0.35281065 0.46016043 -0.0049862326 -0.0061392104 0.15746693 -0.1372345 -0.47056296 -0.2848185
00000000: 4e43 1cbe f017 803e b8c7 113d 871e 423e
00000010: 0aa3 82bd 9c56 e53d 8c25 f4be 52fc dd3d
00000020: f522 13be 714e c53e 3418 5e3e 21d3 593e
00000030: 96f2 bbbe 7eda 11bf 789e 06be 8b50 debc
00000040: 49ca df3c 2b70 98be 75f7 043e 7393 d63d
00000050: 368f f03b c84b 363e 7c89 013f 49cc 5e3f
00000060: f5fa 48be bfbf 603e e25f 61bd b2c0 14bf
00000070: 53c5 893e d39f 65bd a29f 19bf 7bfe 0cbf
00000080: 9381 8c3e f410 84be 1a79 743f e449 6c3d
00000090: 5103 fb3e 8924 bd3d a57f 6c3e 609b 06bf
000000a0: 9d7a 773e 4512 babe d95f c93d 2487 13bf
000000b0: 3593 283e 7959 343f 8a15 6d3e 3c0b 2dbe
000000c0: 41b5 2abf 0926 c8be 6872 2cbe 4212 423e
000000d0: e2da 7abd 7832 8dbe 8607 1d3f 347d 753e
000000e0: bcd0 22be 2ee8 363f a5e7 db3d 3169 053f
000000f0: e83e 02be 5951 e8bd b412 983d ee6a 0f3f
00000100: efcd fb3b fb5a 57bd 1962 223f 6c83 68be
00000110: dc7f 1d3f b353 86be 2674 803d 67b5 91be
00000120: ab97 2bbe 0cfc c43e b3dd 7c3e 1818 1c3e
00000130: ba2f 023e d163 3b3d 1249 923e 86ed 2b3f
00000140: 7dc5 99bd 5ebd f9be 4c2c d53d 8a6a 803e
00000150: 804c 1b3e 0b3d 353f e457 c03e 51e0 f0bd
00000160: fe43 9ebd 3fd9 d33e 443e 063c 4ca3 3d3e
00000170: 749d 6bbd 542c 56bd e22d 12bf a835 a0bc
00000180: 6cfc a9bd 94ba f23e 8123 af3d f18b 5b3e
00000190: f794 8bbe 0f66 c5be 7a85 c8be ea37 183e
000001a0: dc4b c7bd 9674 82be 6f94 333e 9bdc ac3e
000001b0: 6274 bebb d84a 923c 690c d93d 7451 fb3e
000001c0: 187d ebbd 1cb5 28be aa94 323e 95d5 9f3e
000001d0: c9a8 0f3e 3e9c f8bd 61ac 9d3e feb3 df3e
000001e0: f7ad 10bd 26af 683e 927e 5ebe 40fa 93be
000001f0: f94e aa39 35a2 ef3d d678 bfbe f654 fabe
00000200: 9373 023e 6d6c 4b3e 2013 b03c 80e9 35be
00000210: a1b6 77be 9b7c 7ebe 4dff 8dbe 2f8f 5b3e
00000220: 3a51 973b 20f6 4c3e 3a72 6d3f 8023 35be
00000230: f381 203f 0b3f 4ebf c010 24be 3e12 cf3d
00000240: 4f94 11bf c329 32be 4488 a6bd 73c2 9abe
00000250: 7034 3cbe 2f0e cc3d 677d ef3c d11b 08be
00000260: 8d9d d7bd 809c ab3e 75f4 54bd 3a33 90bd
00000270: 3c5b 7c3d e188 103e 46f1 0fbf 1f89 e7be
00000280: 2063 573e 7de0 29be b370 473e 1454 ef3d
00000290: 0270 a53d 6d21 573c de03 8f3e 4c11 e63d
000002a0: f5a2 273e 7642 d03d 3ae1 3cbe c708 93be
000002b0: 7bb8 ccbd 9e6a 4b3e 8842 6ebe 7da2 adbe
000002c0: 1757 c93e af9d 30be 4baa 7a3e 665e 4ebd
000002d0: 6c15 d7bd 692a 4d3e 6348 f73c 9bdb 82be
000002e0: 3a1c 4a3e bcd8 6f3e b1c8 e2bd 8128 0b3e
000002f0: aebe 323e a07c 093d 23a6 2f3d de2c 12bf
00000300: 33a9 9abd d279 1b3e b604 e73b db0c 40be
00000310: c398 483b d093 82be 4b3e 56bf a633 dcbe
00000320: 746a a9be 725e fe3e 34b4 28be 18f6 003f
00000330: e294 48be fd25 3dbf 9d4e 88be efeb 1abd
00000340: d3fd 3ebd 483b aabd 24ca 2e3e d30c ccbd
00000350: b35a 733e 433a d9be dade 66bc 821f 7b3e
00000360: abcb 3dbc d752 76be 7121 d53c 9454 013c
00000370: 8374 7fbe 8083 0f3e b0db 853e eab9 123f
00000380: 06c3 823e f282 2d3e 6fcb 8fbe a0c7 91bd
00000390: 3629 cabd b4c2 bc3d ae7d 03bf eebe e2be
000003a0: d2b6 4c3e 965b e53e fa53 d63c f442 e03e
000003b0: 2f3c 2dbe 1d6b 363c a4d3 203c 4c93 d9be
000003c0: 0c32 94be 9027 8dbe dddc 13be c6f9 3a3d
000003d0: f5c7 9f3e 29a8 a1be 3fbc 2d3e 0280 2e3f
000003e0: 99a3 b4be 269a eb3e 8d63 a3bb 6e2b c9bb
000003f0: 033f 213e 3387 0cbe a1ed f0be bbd3 91be

critic.0.bias f4 [64]
-0.27032763 -0.23786159 0.2624069 -0.1968488 -0.3929001 0.36515892 -0.16891056 0.3129011
-0.36708927 -0.03675659 0.34364533 -0.29136392 -0.09699434 0.29403156 0.27408555 -0.30374828
-0.1285264 0.43934938 0.28472447 -0.26328966 0.22457962 -0.15183426 0.13978261 -0.22459024
-0.10801268 -0.26663968 0.25404748 0.23939177 -0.15479818 -0.25993583 0.15569909 -0.2537911
-0.27026173 0.18744527 0.35181093 0.28230682 0.19309275 -0.23669851 0.017563947 0.2013412
-0.40456468 0.16328461 0.015242094 -0.22834595 -0.008144643 -0.12688924 0.27856335 -0.23866597
-0.25602317 -0.27622378 -0.2267118 0.40310404 -0.27029857 0.2794574 0.15616146 0.14793503
-0.32079673 0.28871045 -0.07306349 -0.11141075 0.24274077 0.27416307 0.152722 -0.37496608
00000000: 6268 8abe fd91 73be 325a 863e bb92 49be
00000010: 342a c9be 1cf6 ba3e e4f6 2cbe 9334 a03e
00000020: 20f3 bbbe 148e 16bd 48f2 af3e a72d 95be
00000030: f8a4 c6bd 4e8b 963e f154 8c3e e584 9bbe
00000040: 6d9c 03be 67f2 e03e 68c7 913e e7cd 86be
00000050: 33f8 653e 717a 1bbe 2c23 0f3e fcfa 65be
00000060: c135 ddbd ff84 88be 8312 823e 1e23 753e
00000070: 6a83 1ebe 4f16 85be 956f 1f3e e8f0 81be
00000080: bf5f 8abe a7f1 3f3e 9020 b43e 858a 903e
00000090: 1bba 453e 1861 72be 44e2 8f3c 632c 4e3e
000000a0: 1a23 cfbe 1534 273e fab9 793c 85d3 69be
000000b0: 1c71 05bc 41ef 01be db9f 8e3e da64 74be
000000c0: 7815 83be 346d 8dbe 2327 68be a763 ce3e
000000d0: 9364 8abe 0a15 8f3e cae8 1f3e 487c 173e
000000e0: 783f a4be dbd1 933e 50a2 95bd 522b e4bd
000000f0: 0991 783e 1a5f 8c3e 2863 1c3e 8efb bfbe

critic.2.weight f4 [64, 64]
0.60598844 -0.3572187 -0.4366568 0.3872203 0.16041608 -0.40851244 0.023851933 -0.4680759
0.2789331 0.29601702 -0.38695553 0.1665335 -0.019082095 -0.5109515 -0.6625571 0.595841
0.097545326 -0.32998252 -0.07869267 0.41305357 -0.39044657 0.2956335 0.06996014 0.4703939
0.40944847 0.16202542 -0.05885029 -0.40526548 0.25165442 0.2598635 -0.2768059 0.2686805
0.24955846 -0.10671603 0.10204097 -0.13785811 -0.4527205 -0.17811942 -0.1415161 -0.8651082
0.49383402 -0.24508177 -0.08014404 -0.06978223 -0.23721486 0.29274213 0.36772874 0.6007338
0.29524982 0.57258695 -0.08226876 0.0039408086 0.34192726 -0.28107697 -0.07734009 0.035250973
0.24811882 -0.44115457 0.09981365 0.22361872 -0.14684653 -0.080960274 -0.32208073 0.2235707
0.611457 0.3092826 -0.29848355 0.2074121 0.086130306 -0.47793296 -0.12433563 -0.2963456
0.24129745 -0.23488075 -0.21676242 0.15396674 0.51331544 -0.02758315 -0.5027423 0.60467064
0.031072328 -0.37021068 0.25307557 0.14727452 -0.12474372 0.27729815 -0.08828 0.40423343
0.1218617 0.25890607 -0.30912527 -0.4557531 0.46544817 0.45879558 -0.4338112 0.3831208
0.4983092 -0.25833252 -0.11085144 -0.15575963 -0.12953158 -0.08334841 -0.21905974 -0.08552263
0.3430088 -0.05916199 0.03908442 -0.1140425 0.081252374 0.3433969 0.5820166 0.20727737
0.6094507 0.2118177 -0.04717757 0.09996872 0.22492197 -0.2847117 -0.14866874 -0.2400789
0.38136402 -0.565143 0.16742125 0.4319726 -0.20287557 -0.29143825 -0.36667258 0.058175057
-0.60102797 -0.12790677 0.5666591 -0.20848307 0.14104949 0.3408138 0.11745087 0.33572307
-0.5080982 0.3582198 0.07015426 -0.5288501 -0.14320639 0.6172434 0.5481049 -0.7122454
-0.38491473 0.17318933 0.081566654 -0.42321065 0.25104398 -0.15679578 0.068706356 -0.32464805
-0.3578185 -0.10747513 0.6636743 0.67588174 -0.068707995 -0.566736 -0.033059362 -0.58109176
-0.05633988 0.29442942 0.030240566 0.17240599 0.06143349 -0.19615214 -0.0038426162 0.5288371
-0.16608584 -0.30847767 0.3185023 0.06376422 0.003209253 -0.45408475 0.010946195 -0.2916978
-0.14626782 -0.44331968 0.10779153 0.018787066 -0.49642423 0.35769773 0.100696474 -0.017056076
-0.35943 0.35584664 0.054015994 -0.45834616 0.41969588 0.39855123 0.019162426 -0.18966697
0.84774095 0.4612543 -0.5346131 0.48956555 0.14719437 -0.5491115 -0.6904291 -0.20594446
0.36626077 0.08198815 -0.18179373 0.33158937 0.054959327 -0.18556371 -0.54082423 0.70380086
0.03857224 -0.22474544 -0.21030615 0.49905 -0.6231041 0.38003552 0.16861807 0.6548313
-0.008409332 0.08312858 -0.6200735 -0.69349426 0.25455752 -0.19762331 -0.16826305 0.40269405
0.35491806 -0.15147184 -0.12297567 -0.20312832 -0.32980648 -0.22347735 0.045796 -0.48778036
0.4626808 -0.059291642 0.009446231 0.10311783 -0.15348612 0.6009071 0.19240464 0.4520834
0.5064559 0.5889429 -0.25275457 -0.121487714 0.5774383 -0.31665733 -0.18114918 -0.4166939
0.20597504 -0.5532473 0.13538995 0.45814794 -0.6525145 -0.6491081 -0.31091148 0.18946047
00000000: 0f22 1b3f 5fe5 b6be 7b91 dfbe bd41 c63e
00000010: 1d44 243e 8b28 d1be 2165 c33c a5a7 efbe
00000020: 52d0 8e3e 8b8f 973e 091f c6be c287 2a3e
00000030: 0e52 9cbc b8cd 02bf 589d 29bf 0989 183f
00000040: d8c5 c73d 78f3 a8be 9f29 a1bd c27b d33e
00000050: 9de8 c7be 465d 973e 4347 8f3d 78d7 f03e
00000060: 3ba3 d13e fee9 253e 000d 71bd f57e cfbe
00000070: d9d8 803e d40c 853e 81b9 8dbe 7e90 893e
00000080: 418c 7f3e ef8d dabd dbfa d03d ad2a 0dbe
00000090: fbca e7be f064 36be 99e9 10be bb77 5dbf
000000a0: d0d7 fc3e b7f6 7abe 8f22 a4bd fce9 8ebd
000000b0: 74e8 72be 4ce2 953e f146 bc3e b1c9 193f
000000c0: fc2a 973e 0f95 123f 867c a8bd e621 813b
000000d0: 1711 af3e 52e9 8fbe 7b64 9ebd 5363 103d
000000e0: dc12 7e3e 03df e1be 196b cc3d 4efc 643e
000000f0: f05e 16be 80ce a5bd c4e7 a4be b8ef 643e
00000100: 7288 1c3f 4a5a 9e3e d6d2 98be d663 543e
00000110: 1665 b03d a1b3 f4be aea3 febd 9cba 97be
00000120: ae16 773e 9484 70be f8f6 5dbe 75a9 1d3e
00000130: a468 033f 0ff6 e1bc b8b3 00bf b2cb 1a3f
00000140: 658b fe3c 418c bdbe 1f93 813e 22cf 163e
00000150: a379 ffbd 06fa 8d3e 25cc b4bd aff7 ce3e
00000160: a192 f93d 568f 843e ab45 9ebe 7858 e9be
00000170: 394f ee3e 41e7 ea3e 801c debe 6928 c43e
00000180: 6222 ff3e 2944 84be 1406 e3bd 747f 1fbe
00000190: eda3 04be 92b2 aabd 3251 60be 7d26 afbd
000001a0: d99e af3e d853 72bd fc16 203d 1d8f e9bd
000001b0: a567 a63d b8d1 af3e 0aff 143f 8540 543e
000001c0: f604 1c3f bde6 583e 453d 41bd 66bc cc3d
000001d0: f251 663e bbc5 91be 9e3c 18be 3ed7 75be
000001e0: 2542 c33e 36ad 10bf 7a70 2b3e 832b dd3e
000001f0: 9dbe 4fbe 6537 95be 82bc bbbe f848 6e3d
00000200: f8dc 19bf fef9 02be 9210 113f 967c 55be
00000210: 476f 103e 257f ae3e 158a f03d e5e3 ab3e
00000220: b912 02bf 9668 b73e 09ad 8f3d b862 07bf
00000230: b2a4 12be aa03 1e3f 9a50 0c3f b755 36bf
00000240: 8b13 c5be 8b58 313e 6b0c a73d 11af d8be
00000250: d688 803e 138f 20be ebb5 8c3d 4538 a6be
00000260: fd33 b7be ec1b dcbd 8fe6 293f 9606 2d3f
00000270: c7b6 8cbd 9c15 11bf 4169 07bd 6ec2 14bf
00000280: a5c4 66bd 74bf 963e 10bb f73c 328b 303e
00000290: afa1 7b3d 1bdc 48be 67d4 7bbb de61 073f
000002a0: 6812 2abe c9f0 9dbe bc12 a33e d196 823d
000002b0: 5552 523b cc7d e8be ab57 333c 6a59 95be
000002c0: 3bc7 15be ccfa e2be cec1 dc3d 55e7 993c
000002d0: 512b febe 2824 b73e f439 ce3d 2fb9 8bbc
000002e0: 3507 b8be 8831 b63e e03f 5d3d 59ac eabe
000002f0: 61e2 d63e e80e cc3e 85fa 9c3c 0f38 42be
00000300: 8d05 593f 8629 ec3e 67dc 08bf 56a8 fa3e
00000310: 1fba 163e 9292 0cbf f6bf 30bf 1be3 52be
00000320: 8886 bb3e 67e9 a73d 2328 3abe 15c6 a93e
00000330: 081d 613d 6a04 3ebe 7573 0abf 4b2c 343f
00000340: edfd 1d3d ab23 66be 7f5a 57be 7b83 ff3e
00000350: c083 1fbf 0494 c23e 37aa 2c3e 06a3 273f
00000360: 4bc7 09bc 513f aa3d 23bd 1ebf d788 31bf
00000370: 5d55 823e c45d 4abe 264d 2cbe ea2d ce3e
00000380: d2b7 b53e 6f1b 1bbe abda fbbd df00 50be
00000390: 65dc a8be 3fd7 64be 9694 3b3d 59be f9be
000003a0: 7fe4 ec3e cbdb 72bd 5dc4 1a3c 712f d33d
000003b0: 772b 1dbe 0cd5 193f b905 453e 7a77 e73e
000003c0: 18a7 013f f6c4 163f 0c69 81be 8dce f8bd
000003d0: ffd2 133f e920 a2be 2c7f 39be e758 d5be
000003e0: 1feb 523e 9da1 0dbf aaa3 0a3e 5e92 ea3e
000003f0: 310b 27bf f32b 26bf ca2f 9fbe ed01 423e

critic.2.bias f4 [64]
-0.25947437 -0.17359065 0.26065555 -0.30035007 -0.22214131 -0.16548853 0.31308243 -0.0043003843
0.09925531 0.3351058 -0.028903957 -0.2609971 -0.29436982 -0.14245026 0.19502123 0.3193107
-0.24785092 -0.08185058 -0.09781974 0.2698751 -0.04743663 0.30468944 -0.13390128 -0.30980155
0.19126788 0.032773893 0.2615065 0.08641892 0.050778724 0.07188184 0.23590302 -0.07013712
-0.20458575 0.32592675 0.039000902 -0.07200341 0.06959037 0.17422006 -0.15771183 -0.05099855
-0.3386671 0.21785505 0.25127614 -0.13943017 0.3685573 0.21897477 0.09194006 0.16753748
0.09370272 0.4239395 0.26861677 -0.15778431 0.07615864 0.2971426 -0.028225366 0.12906335
0.090310395 -0.25293872 0.2531556 0.09156806 -0.02085813 0.39084876 0.2620181 0.049148586
00000000: d3d9 84be bfc1 31be a574 853e 7cc7 99be
00000010: 0379 63be d375 29be 574c a03e 3dea 8cbb
00000020: 5e46 cb3d fd92 ab3e fec7 ecbc 69a1 85be
00000030: a4b7 96be 7bde 11be a5b3 473e b17c a33e
00000040: a2cc 7dbe 47a1 a7bd b755 c8bd 122d 8a3e
00000050: e94c 42bd 4100 9c3e 6b1d 09be 4f9e 9ebe
00000060: badb 433e eb3d 063d 2ee4 853e 67fc b03d
00000070: 5afd 4f3d c936 933d 9090 713e 0da4 8fbd
00000080: ed7e 51be dfdf a63e 69bf 1f3d 8676 93bd
00000090: 6585 8e3d be66 323e 367f 21be dbe3 50bd
000000a0: c665 adbe 6515 5f3e 44a7 803e c8c6 0ebe
000000b0: 8bb3 bc3e ec3a 603e 124b bc3d f28e 2b3e
000000c0: 36e7 bf3d 990e d93e 2388 893e 3692 21be
000000d0: 10f9 9b3d 1323 983e e238 e7bc 2f29 043e
000000e0: a8f4 b83d 2f81 81be 9c9d 813e 0988 bb3d
000000f0: abde aabc 541d c83e 3d27 863e 0750 493d

critic.4.weight f4 [1, 64]
0.41688976 0.3459223 -0.3435248 0.41608343 0.3018206 0.5426633 -0.4682829 0.37921414
0.3521802 -0.4385956 0.5366687 0.405085 0.46034157 0.31628352 0.6253722 -0.407781
0.4048644 0.5196986 0.39771998 -0.37488276 0.5698437 -0.31561503 0.29363215 0.40602258
-0.39405146 -0.6088825 -0.54330426 -0.72872895 -0.48596513 0.2695301 -0.50961536 0.45270675
0.5715542 -0.46427673 -0.2565422 0.47183505 -0.58768576 -0.58267266 0.46027222 0.38426694
0.38496712 0.515973 -0.37311876 0.45359707 0.6553358 0.7396779 -0.550643 0.7165476
0.5096583 -0.33778086 -0.45209357 -0.5854512 -0.4620087 -0.40964848 0.5574677 -0.51146454
-0.52163744 0.48434538 -0.344221 -0.4944626 0.42152748 -0.4657541 -0.59157664 -0.861527
00000000: 9372 d53e ba1c b13e 7ce2 afbe e308 d53e
00000010: 3b88 9a3e fbeb 0a3f c7c2 efbe 5b28 c23e
00000020: f750 b43e 9a8f e0be 1f63 093f 4d67 cf3e
00000030: e4b1 eb3e eaef a13e 6418 203f acc8 d0be
00000040: 634a cf3e f80a 053f f4a1 cb3e a2f0 bfbe
00000050: 47e1 113f 4b98 a1be f456 963e 31e2 cf3e
00000060: 1dc1 c9be b9df 1bbf fd15 0bbf fb8d 3abf
00000070: 6cd0 f8be d9ff 893e 2776 02bf 2ec9 e73e
00000080: 6051 123f aeb5 edbe 8059 83be 5d94 f13e
00000090: 9372 16bf 092a 15bf cda8 eb3e a3be c43e
000000a0: 691a c53e ce16 043f 6c09 bfbe e03d e83e
000000b0: 16c4 273f 885b 3d3f f1f6 0cbf aa6f 373f
000000c0: f778 023f 9df1 acbe cf78 e7be 21e0 15bf
000000d0: 688c ecbe 72bd d1be 34b6 0e3f 57ef 02bf
000000e0: 088a 05bf 1efc f73e bc3d b0be 342a fdbe
000000f0: 73d2 d73e 5277 eebe 9171 17bf 098d 5cbf

actor.0.weight f4 [64, 8]
-0.057023596 0.019876683 0.18737045 -0.12498571 -0.8265049 -0.1851838 0.096430354 0.18054089
-0.22733656 0.12169057 -0.06988113 0.7137732 0.21913552 -0.10256521 -0.2034948 0.19890766
0.0075437115 -0.30095837 -0.0416058 -0.6649066 0.3945895 -0.0047305897 -0.24234508 -0.26413098
-0.075661205 -0.013152776 -0.20005926 0.020288596 0.6180906 -0.08436322 -0.20535325 -0.19711104
0.12856463 -0.050409593 -0.085301265 -0.16373666 0.45620653 0.17504703 0.22006193 -0.27604532
-0.10062659 -0.25106344 0.042348016 0.4692027 -0.4906981 0.024207126 0.0011087222 0.065173626
-0.2737963 0.06177787 -0.13654639 0.13846858 0.14145632 0.101669654 0.085940614 -0.27939913
-0.11034777 -0.19745754 0.21808523 0.49401152 -0.83842415 -0.5062437 0.08034743 0.13383697
-0.20679455 0.14297968 -0.45563233 -0.4423463 0.5668294 0.330895 -0.5457462 0.10547429
-0.12869677 0.039474018 -0.01334497 0.26032582 -0.56870496 -0.40160185 -0.1232669 0.13074656
-0.04809052 0.03786146 -0.042046398 -0.30103377 -0.54693264 0.037094276 0.29450375 0.107900195
0.024612395 -0.086930886 0.0035315217 0.032734312 -0.687316 -0.28566474 0.16583766 -0.19395152
-0.18776883 -0.12561914 -0.21154828 -0.37260896 0.4735458 0.412174 0.021834936 -0.12941845
-0.25216445 0.33479252 0.08351233 0.006712437 -0.023220109 -0.078244574 0.16101453 0.043173652
-0.1253494 -0.20641437 0.3757744 -0.577329 -0.3761972 -0.03698538 0.109146185 -0.0007363448
-0.16576193 0.079956375 0.047863163 -0.25151905 -0.47018123 -0.12404587 -0.041318 0.06954079
-0.28423563 -0.039653733 0.12500967 0.61996394 -0.38925436 -0.3897802 -0.07819419 0.078107074
0.16379967 0.062149443 -0.16991709 -0.41455898 0.0314245 0.010808624 0.2661416 -0.2341192
0.040637888 0.095749535 -0.27546197 0.18448842 0.48808777 0.14715503 -0.024560649 0.046596427
0.1369625 -0.026560389 0.17857353 -0.07452937 -0.7495826 -0.37024748 -0.2592418 -0.15210398
-0.024592074 -0.15620407 -0.15983059 -0.111204095 0.18281439 0.212608 0.0853188 0.17165072
0.09479973 0.023304896 0.069993176 0.24658297 -0.65318036 -0.39549905 0.04086692 0.06513594
0.02549021 0.1750065 -0.15333039 0.70811737 0.5624011 0.2908134 0.0137758395 0.006752321
0.27067843 0.16888268 0.23121686 -0.50381225 0.6839062 0.22718078 -0.22538571 -0.0038327891
-0.29038617 0.062270116 -0.13595691 0.4286988 -0.29034117 -0.29555088 -0.0498716 0.06978643
-0.029485917 0.05524737 -0.11101877 -0.56191236 0.08814591 0.30647877 -0.07215675 0.03889922
0.07596059 0.016806828 0.5295461 0.18102649 -0.4337771 -0.019151425 -0.20726223 0.24419221
0.105750695 -0.16682945 -0.0556228 -0.4623808 0.6811364 0.4873147 0.09973937 0.10145018
0.017897103 -0.24455297 -0.053823452 -0.25104785 0.7804107 0.016354917 -0.16023208 -0.021008959
0.11440935 -0.08605686 0.009844051 -0.8614851 -0.27269718 -0.56747955 0.009878586 -0.12166177
-0.083996624 -0.014694272 -0.031202873 0.6084277 0.558906 0.15291975 -0.09290324 -0.021167763
0.09781191 0.010951847 -0.027281165 0.47942644 0.30018958 -0.013560699 -0.12142592 -0.18549362
00000000: 9391 69bd 6dd4 a23c 0ade 3f3e 82f8 ffbd
00000010: d395 53bf d2a0 3dbe 477d c53d b6df 383e
00000020: eaca 68be e838 f93d d61d 8fbd d7b9 363f
00000030: 1065 603e b50d d2bd f160 50be 73ae 4b3e
00000040: 3d31 f73b 3717 9abe d86a 2abd 5237 2abf
00000050: a307 ca3e 1003 9bbb 4f29 78be 2d3c 87be
00000060: 43f4 9abd be7e 57bc 56dc 4cbe 4534 a63c
00000070: 303b 1e3f a0c6 acbd 1f48 52be 7ad7 49be
00000080: 72a6 033e 4a7a 4ebd 6eb2 aebd 95aa 27be
00000090: e793 e93e 873f 333e ea57 613e d055 8dbe
000000a0: 5015 cebd 638b 80be 1d75 2d3d 563b f03e
000000b0: c83c fbbe 064e c63c 8b52 913a c079 853d
000000c0: 072f 8cbe cb0a 7d3d d1d2 0bbe b5ca 0d3e
000000d0: edd9 103e 2e38 d03d a201 b03d 670d 8fbe
000000e0: 03fe e1bd 4f32 4abe bc51 5f3e 14ef fc3e
000000f0: f7a2 56bf 3099 01bf 328d a43d 8f0c 093e
00000100: f3c1 53be 4469 123e a448 e9be 377b e2be
00000110: bb1b 113f 126b a93e 06b6 0bbf e802 d83d
00000120: 16c9 03be 82af 213d dca4 5abc 6d49 853e
00000130: a696 11bf c29e cdbe 5b73 fcbd 6de2 053e
00000140: 91fa 44bd 9e14 1b3d d838 2cbd 1921 9abe
00000150: c703 0cbf 2bf0 173d 32c9 963e c7fa dc3d
00000160: ef9f c93c d208 b2bd 1a71 673b 6a14 063d
00000170: f1f3 2fbf a642 92be 59d1 293e 3a9b 46be
00000180: 7946 40be 4ea2 00be 1da0 58be 9ac6 bebe
00000190: 9874 f23e 7808 d33e 2edf b23c 4586 04be
000001a0: b31b 81be ed69 ab3e 8308 ab3d 01f4 db3b
000001b0: 1938 bebc b13e a0bd fee0 243e dbd6 303d
000001c0: 985b 00be 4a5e 53be 8165 c03e d5cb 13bf
000001d0: eb9c c0be fb7d 17bd 0988 df3d 4307 41ba
000001e0: 7fbd 29be 2bc0 a33d 2a0c 443d 1bc7 80be
000001f0: 98bb f0be c30b febd 103d 29bd 676b 8e3d
00000200: 5587 91be f46b 22bd 8902 003e f5b5 1e3f
00000210: 594c c7be 4591 c7be 4724 a0bd 9af6 9f3d
00000220: 1abb 273e 6a90 7e3d bffe 2dbe 1341 d4be
00000230: fab6 003d a816 313c b643 883e f2bc 6fbe
00000240: ea73 263d 5518 c43d 5a09 8dbe 88ea 3c3e
00000250: a4e6 f93e cfaf 163e 6a33 c9bc e5db 3e3d
00000260: e63f 0c3e 2c95 d9bc fbdb 363e dba2 98bd
00000270: a5e4 3fbf 1491 bdbe 57bb 84be 25c1 1bbe
00000280: 5175 c9bc f6f3 1fbe a1aa 23be f9be e3bd
00000290: b233 3b3e e9b5 593e 9fbb ae3d 35c5 2f3e
000002a0: 5c26 c23d e9e9 be3c 9558 8f3d 3f80 7c3e
000002b0: d436 27bf da7e cabe 1264 273d fe65 853d
000002c0: d8d0 d03c e734 333e a402 1dbe 2e47 353f
000002d0: 85f9 0f3f 7ee5 943e 0fb4 613c 9342 dd3b
000002e0: 5d96 8a3e 95ef 2c3e 1dc4 6c3e d7f9 00bf
000002f0: 7a14 2f3f 14a2 683e 83cb 66be 882f 7bbb
00000300: 7fad 94be f30e 7f3d 4a38 0bbe 697e db3e
00000310: 99a7 94be 7252 97be 2a46 4cbd 30ec 8e3d
00000320: 738c f1bc 114b 623d cf5d e3bd 7dd9 0fbf
00000330: d885 b43d c9ea 9c3e ebc6 93bd ca54 1f3d
00000340: 3a91 9b3d 79ae 893c 5590 073f 025f 393e
00000350: 0818 debe 73e3 9cbc 8d3c 54be 860d 7a3e
00000360: d293 d83d 57d5 2abe bcd4 63bd 2dbd ecbe
00000370: f55e 2e3f 5081 f93e 2844 cc3d 1dc5 cf3d
00000380: f29c 923c 186c 7abe fb75 5cbd 5889 80be
00000390: ffc8 473f bffa 853c e113 24be fb1a acbc
000003a0: 734f ea3d 943e b0bd f148 213c 4a8a 5cbf
000003b0: f79e 8bbe 5746 11bf cbd9 213c ce29 f9bd
000003c0: 6c06 acbd 3ec0 70bc 2b9d ffbc ebc1 1b3f
000003d0: 7714 0f3f ff96 1c3e 0e44 bebd 0468 adbc
000003e0: 9c51 c83d 606f 333c c07c dfbc 6277 f53e
000003f0: 73b2 993e b22d 5ebc 27ae f8bd 0af2 3dbe

actor.0.bias f4 [64]
0.0027905812 0.010066304 0.03713879 -0.004039788 -0.0067766276 -0.0039881035 0.024591343 0.05079753
-0.048312154 0.059359625 -0.023452228 0.013556502 -0.00050719397 0.0069456236 0.039739408 -0.034575194
0.01204275 -0.035445366 0.004295731 -0.004907252 0.020873582 -0.013799101 -0.043159585 -0.009197931
0.028573137 0.015543223 0.0050916416 0.03742822 0.034640275 0.0040057893 -0.026020663 -0.0040048813
0.0013687188 0.011935818 0.016517997 -0.045069665 0.011629756 0.0075756325 -0.013832314 0.002898983
-0.018859161 -0.011305852 0.009725404 -0.01016648 -0.02269751 -0.006607614 -0.0031530678 0.004969422
0.017584587 -0.014758749 -0.00955716 -0.02504157 0.0053717857 0.009011434 -0.0095863985 -0.0016725248
-0.054786135 -0.014374934 0.007378389 -0.024394555 0.007615509 0.006460817 0.0135458475 -0.033860385
00000000: 2fe2 363b 24ed 243c d81e 183d 3360 84bb
00000010: 790e debb a3ae 82bb c973 c93c 1211 503d
00000020: f7e2 45bd 1423 733d e31e c0bc 171c 5e3c
00000030: 36f5 04ba 1d98 e33b cac5 223d b89e 0dbd
00000040: f44e 453c 292f 11bd 34c3 8c3b 03cd a0bb
00000050: 13ff aa3c a015 62bc 1bc8 30bd ebb2 16bc
00000060: 3612 ea3c 01a9 7e3c c9d7 a63b 554e 193d
00000070: f6e2 0d3d ff42 833b 4929 d5bc 613b 83bb
00000080: 9566 b33a 738e 433c c050 873c f89a 38bd
00000090: bb8a 3e3c 033d f83b eea0 62bc ddfc 3d3b
000000a0: 877e 9abc 2e3c 39bc 4d57 1f3c 4f91 26bc
000000b0: 21f0 b9bc af84 d8bb b3a3 4ebb 88d6 a23b
000000c0: 8d0d 903c aece 71bc a295 1cbc fb23 cdbc
000000d0: ce05 b03b b2a4 133c 4510 1dbc 9f38 dbba
000000e0: 6d67 60bd d884 6bbc 6ac6 f13b 17d7 c7bc
000000f0: 858b f93b 43b5 d33b 67ef 5d3c 30b1 0abd

actor.2.weight f4 [64, 64]
0.3617365 -0.13333516 0.27293992 -0.46170023 0.09509011 0.16956791 -0.28508022 0.19290842
0.039726514 -0.20661949 0.26235086 0.30717447 0.038760524 0.05218139 0.052708168 0.24791616
0.20619735 0.31762367 -0.03851543 0.43905023 -0.06522964 0.20016108 -0.20221229 -0.06086526
0.07519297 -0.011754202 0.12852776 0.1607788 -0.16589673 0.54153854 -0.42556578 -0.5608679
0.2807623 0.18157883 -0.007460931 0.30113608 0.29912066 0.10559276 0.3680295 0.10464098
0.6448306 -0.17010324 -0.20956525 0.21442516 0.28861725 0.13082923 -0.13316783 -0.092678435
0.004792105 0.11745143 -0.16236506 -0.14324577 0.016208693 0.31876466 0.303967 -0.1953935
-0.06127616 0.25853482 0.027227627 0.20999973 0.2608403 -0.63669014 0.39832088 -0.23737039
-0.2228793 -0.037134893 0.1764591 0.3946076 0.22428721 -0.16439216 0.026013402 -0.49002507
0.029064573 0.01779871 -0.24367885 -0.38254586 0.21817309 -0.024570026 -0.42116407 0.1776616
-0.3534057 -0.17051221 0.45710567 -0.054282542 0.06619089 -0.17097735 0.07171274 0.23815346
-0.2693974 0.22825034 0.12800202 0.13526376 0.075527824 0.06422525 0.14045928 0.11955546
-0.3286591 -0.28893298 0.06610711 0.21990536 -0.6166901 0.2356712 0.025721096 -0.27195314
-0.265986 -0.092407115 0.50589776 -0.259416 -0.5705129 -0.014213492 0.286354 0.13499735
0.06317092 -0.47969455 0.15986164 0.42348024 0.046280887 -0.06061167 -0.17490622 0.098198876
0.36768866 0.2823032 0.033034958 -0.27240258 -0.103558555 0.45372745 0.28217375 0.27116567
-0.21213692 -0.043497488 0.16866487 0.31755826 0.03576264 -0.02131761 -0.2185618 -0.15434541
0.50262517 -0.16729984 0.15473758 -0.42531916 0.4907335 -0.09751826 0.08727176 -0.045568895
-0.056098927 0.2122607 -0.01950425 -0.019596888 0.014285902 -0.08119866 -0.16447815 0.26304194
-0.02471073 0.25967792 -0.2689384 0.16295551 0.15467998 0.23407418 -0.12896116 -0.2124348
0.1813904 -0.27561098 0.20547837 -0.13886997 0.09103368 0.24522208 -0.38343856 -0.044311937
-0.22085279 0.34087685 0.15811554 -0.3750155 -0.008981189 -0.17994684 0.042345814 0.14697936
0.3118715 -0.5860891 -0.015288099 -0.18080725 0.16809328 -0.26603425 -0.4167841 -0.08529001
0.27463326 -0.24174637 0.25285587 -0.036506817 0.44701707 0.22357486 0.22540747 0.17663707
-0.07987001 0.04343231 -0.41111332 -0.18816982 -0.20589444 0.24287292 -0.28199738 0.37129143
-0.40480638 0.09049519 -0.0923602 0.40514207 -0.3015175 -0.36570168 -0.06701255 0.41404817
0.4648585 0.12259389 -0.25469294 0.18162586 -0.123311736 0.47498453 -0.05118349 0.07638308
0.09819195 -0.48977178 0.23523766 -0.12367823 -0.62018293 -0.05750584 -0.049150273 -0.032629117
-0.19184871 0.0067902743 0.03272522 0.029201781 0.05124793 0.030428642 0.03263955 -0.13546987
0.12798242 -0.109811224 -0.29268092 -0.046200182 0.077806674 0.3677546 0.047238898 0.0355054
-0.25206664 0.33850554 0.22743985 -0.1799806 -0.17999502 -0.0012919081 -0.11014349 0.006063737
-0.1462774 -0.11815715 -0.36743364 0.2264283 -0.36186114 0.1500971 -0.050123 0.2602868
00000000: 8735 b93e 0389 08be c8be 8b3e f963 ecbe
00000010: 9bbe c23d 36a3 2d3e 09f6 91be c989 453e
00000020: 45b8 223d 0f94 53be da52 863e f945 9d3e
00000030: 5bc3 1e3d 27bc 553d 85e4 573d bcdd 7d3e
00000040: 6625 533e 929f a23e 5bc2 1dbd 31cb e03e
00000050: 1e97 85bd 07f7 4c3e bd10 4fbe da4d 79bd
00000060: c6fe 993d b294 40bc c89c 033e 33a3 243e
00000070: d5e0 29be 45a2 0a3f c2e3 d9be 0a95 0fbf
00000080: 14c0 8f3e cdef 393e d37a f4bb 822e 9a3e
00000090: 5826 993e 0441 d83d 5d6e bc3e 034e d63d
000000a0: 9e13 253f 8b2f 2ebe 4698 56be 4592 5b3e
000000b0: a4c5 933e 19f8 053e 265d 08be 31ce bdbd
000000c0: 1707 9d3b 608a f03d 0743 26be 05af 12be
000000d0: 18c8 843c 1f35 a33e 90a1 9b3e 3c15 48be
000000e0: b6fc 7abd ad5e 843e 790c df3c 2b0a 573e
000000f0: dc8c 853e 20fe 22bf b7f0 cb3e 3911 73be
00000100: 793a 64be c21a 18bd b2b1 343e 020a ca3e
00000110: 8cab 653e 6b56 28be 0f1a d53c 91e4 fabe
00000120: d418 ee3c 9ace 913c f386 79be 0ddd c3be
00000130: c468 5f3e 1447 c9bc d1a2 d7be ecec 353e
00000140: 98f1 b4be c19a 2ebe c109 ea3e 5f57 5ebd
00000150: 178f 873d b014 2fbe 21de 923d 80de 733e
00000160: 75ee 89be 75ba 693e f612 033e 9582 0a3e
00000170: 55ae 9a3d 8788 833d 8fd4 0f3e 7ed9 f43d
00000180: 0146 a8be 06ef 93be 2a63 873d df2e 613e
00000190: 67df 1dbf cb53 713e 0cb5 d23c 713d 8bbe
000001a0: 512f 88be f13f bdbd 8482 013f 2dd2 84be
000001b0: 220d 12bf b5df 68bc fe9c 923e bf3c 0a3e
000001c0: c15f 813d 869a f5be c5b2 233e 67d2 d83e
000001d0: 0791 3d3d f143 78bd 9e1a 33be 7e1c c93d
000001e0: b041 bc3e 0c8a 903e aa4f 073d 5a78 8bbe
000001f0: 8216 d4bd f74e e83e 1479 903e 3ad6 8a3e
00000200: 6c3a 59be 6c2a 32bd 7cb6 2c3e ff96 a23e
00000210: d97b 123d 45a2 aebc aace 5fbe b90c 1ebe
00000220: 0bac 003f a650 2bbe 8773 1e3e 6fc3 d9be
00000230: 6c41 fb3e a7b7 c7bd 89bb b23d 73a6 3abd
00000240: fdc7 65bd de5a 593e 60c7 9fbc a789 a0bc
00000250: 6a0f 6a3c 7c4b a6bd f66c 28be 6fad 863e
00000260: 286e cabc 81f4 843e 4bb2 89be cfdd 263e
00000270: 6e64 1e3e 24b1 6f3e 650e 04be 8288 59be
00000280: 68be 393e e21c 8dbe ec68 523e ee33 0ebe
00000290: de6f ba3d 7f1b 7b3e 0f52 c4be 6f80 35bd
000002a0: 3c27 62be 6987 ae3e 0ae9 213e 0802 c0be
000002b0: d625 13bc fc43 38be ce72 2d3d c281 163e
000002c0: 9fad 9f3e ef09 16bf ef7a 7abc 8925 39be
000002d0: a520 2c3e a435 88be ba64 d5be 87ac aebd
000002e0: bb9c 8c3e 5c8c 77be 5376 813e 2c88 15bd
000002f0: 6cdf e43e cff0 643e 37d1 663e 59e0 343e
00000300: e392 a3bd 14e6 313d 727d d2be 97af 40be
00000310: fed5 52be aeb3 783e f661 90be e919 be3e
00000320: c842 cfbe 8b55 b93d 5827 bdbd c86e cf3e
00000330: 8060 9abe 403d bbbe e03d 89bd 1ffe d33e
00000340: ef01 ee3e 8112 fb3d 1d67 82be 21fc 393e
00000350: dd8a fcbd 2c31 f33e c7a5 51bd bb6e 9c3d
00000360: dc18 c93d 5ec3 fabe 24e2 703e 034b fdbd
00000370: 4fc4 1ebf 3e8b 6bbd cc51 49bd 1ca6 05bd
00000380: fd73 44be f380 de3b e10a 063d 9338 ef3c
00000390: 59e9 513d 7d45 f93c 0cb1 053d 9db8 0abe
000003a0: d30d 033e b5e4 e0bd 46da 95be 673c 3dbd
000003b0: 1b59 9f3d 554a bc3e 937d 413d 1c6e 113d
000003c0: e10e 81be 9950 ad3e fee5 683e d64c 38be
000003d0: 9d50 38be 3e55 a9ba e992 e1bd 50b2 c63b
000003e0: bec9 15be 60fc f1bd 4320 bcbe d2dc 673e
000003f0: dd45 b9be 0eb3 193e c64d 4dbd 5044 853e

actor.2.bias f4 [64]
-0.039701365 0.013377768 0.00062255096 -0.026474373 0.037991144 0.055471726 -0.009519717 -0.013594312
-0.0062714233 0.028594706 -0.013396749 0.019380473 0.008842507 0.0019650746 0.0094280355 -0.0011697045
0.015272061 0.025186013 0.05470632 -0.0036738212 0.017141275 -0.029476188 0.03490594 -0.004486893
-0.009346544 0.010829738 -0.025352182 0.0024666782 0.04012394 0.028149242 -0.0010699859 -0.018049821
0.034757055 0.016884362 -0.008930758 0.006053401 0.0072461474 -0.022697218 -0.024331521 -0.031645626
-0.0018655554 0.022807276 -0.029755285 -0.011923302 0.0025973031 -0.003780358 0.019897578 0.0018369732
-0.06329056 -0.012582934 0.06040886 0.024518251 0.0012897095 0.03093978 -0.0007999915 -0.026185667
0.029502401 -0.012465708 -0.017763723 -0.056022152 -0.048224412 -0.01140454 -0.041502938 -0.047455493
00000000: e69d 22bd 6d2e 5b3c b032 233a c9e0 d8bc
00000010: 9a9c 1b3d 5236 633d 96f8 1bbc adba 5ebc
00000020: 8380 cdbb 723f ea3c 0a7e 5bbc ccc3 9e3c
00000030: 2ae0 103c 7bc8 003b 0c78 1a3c c550 99ba
00000040: ab37 7a3c e652 ce3c bc13 603d 7ec4 70bb
00000050: dc6b 8c3c 0c78 f1bc 88f9 0e3d c906 93bb
00000060: 3f22 19bc 376f 313c 61af cfbc fea7 213b
00000070: 0059 243d 3d99 e63c c53e 8cba 38dd 93bc
00000080: 6a5d 0e3d 1351 8a3c 5052 12bc 9c5b c63b
00000090: 1771 ed3b 84ef b9bc e652 c7bc d89e 01bd
000000a0: a785 f4ba 53d6 ba3c 5bc1 f3bc f459 43bc
000000b0: 8437 2a3b e2bf 77bb 3f00 a33c 98c6 f03a
000000c0: 7b9e 81bd a728 4ebc 486f 773d 80da c83c
000000d0: 780b a93a 6c75 fd3c 85b6 51ba 5383 d6bc
000000e0: 05af f13c f83c 4cbc 3a85 91bc 7c77 65bd
000000f0: f686 45bd 1cda 3abc fcfe 29bd b160 42bd

actor.4.weight f4 [4, 64]
-0.19978374 0.02905483 -0.11198694 0.11951141 -0.13913581 -0.014702814 0.13247363 0.16747893
0.13243118 -0.1288208 0.00023129868 -0.0017175858 0.12487075 -0.1261417 -0.12715253 0.14160705
-0.050207052 -0.12610902 0.06128227 -0.019140204 0.07367324 0.15655504 -0.05287083 0.067550816
0.040825214 0.115981944 0.18430546 0.14007096 -0.10754656 -0.1318929 -0.15418036 -0.12434704
-0.08903732 -0.13125734 -0.089354895 -0.16941932 0.07001079 0.10678055 0.06386562 0.021758618
0.029786024 -0.10022545 0.057453908 -0.13343331 -0.044119872 -0.1663393 0.13054425 0.16864358
0.19690986 0.07494743 -0.1455798 0.20377454 -0.024297604 0.050763104 -0.15906498 0.145677
0.15737492 -0.15744647 0.1531202 0.07943501 0.19225113 -0.06809359 -0.0026961905 0.0014438683
0.29479608 -0.37716097 -0.24134378 0.27984717 -0.2878292 -0.12431676 -0.17179464 -0.1273303
-0.22891924 -0.008225028 -0.3276775 -0.29974407 0.34416723 -0.39931896 -0.25111195 0.23846191
0.2961936 -0.1835788 0.3380675 -0.3783502 -0.3769062 -0.096159965 -0.11326846 -0.36842716
-0.17742966 0.3903588 -0.13249958 0.33045024 0.0410186 -0.012721386 0.12468232 0.25755048
-0.19464926 -0.33667204 0.16824017 0.18278536 -0.18952565 0.2773148 0.35863703 -0.27537575
0.27165294 0.24886075 0.20328017 -0.39941698 -0.3496428 -0.28102532 0.29671806 0.3263714
0.042920075 0.3370413 -0.030336978 -0.25830647 -0.16134477 0.343444 0.21241625 0.20555834
-0.120016925 0.09528723 0.3567396 0.09774723 0.102791496 -0.27995962 -0.387754 0.11693066
0.21555275 -0.022383213 0.22839472 -0.2639278 0.32511213 0.1901463 -0.2936963 -0.30046985
-0.28844938 0.27108267 0.034391653 0.005106724 -0.24427977 0.26358303 0.27135697 -0.26849303
0.07684888 0.28672224 -0.09586261 0.08535399 -0.062251337 -0.31623298 0.21025664 -0.060801342
0.065148875 -0.23206565 -0.3587738 -0.2971056 0.28042942 0.28814438 0.2485175 0.19049998
0.26566896 0.29473016 0.18258086 0.26871824 -0.10540441 -0.27405992 -0.22563551 -0.03650726
-0.043814536 0.19187729 -0.20810732 0.27113646 0.112100884 0.28347433 -0.2236496 -0.29091433
-0.34254768 -0.18942145 0.33381873 -0.23211429 0.13965762 -0.09401946 0.27688092 -0.29966334
-0.2247704 0.2561762 -0.32668075 -0.28020898 -0.33849046 0.1364095 0.0187053 -0.16020352
-0.28867102 0.3953722 0.12195984 -0.14420594 -0.10841708 -0.1442911 0.3442219 0.35897467
0.3762383 -0.28582597 0.28780878 0.3178889 -0.2203616 0.2304596 0.038409054 -0.088727266
-0.27941027 -0.14646444 -0.30711746 0.2941944 0.33931723 0.35180432 -0.16661009 0.35964027
0.063900076 -0.2936492 0.36405715 -0.18436342 -0.33604273 -0.32861322 -0.20592572 -0.28668067
-0.13648577 0.21443138 -0.2939571 -0.31115636 0.23957409 -0.048945624 -0.21069585 0.2748282
-0.26722667 -0.28373605 0.046571586 0.20958559 0.3016149 0.07827218 -0.24154267 -0.16304627
0.3061085 -0.25457573 -0.30610088 0.2859363 0.02014982 -0.3028608 -0.3214134 -0.007615203
0.27697587 -0.30040592 -0.17876022 0.22136384 0.29642797 0.2457081 0.34022567 0.09927302
00000000: 1c94 4cbe 6504 ee3c 6959 e5bd 66c2 f43d
00000010: 9e79 0ebe 12e4 70bc 2ba7 073e 997f 2b3e
00000020: 0a9c 073e 9ae9 03be c488 7239 9e20 e1ba
00000030: 3cbc ff3d 4a2b 01be 4634 02be 7001 113e
00000040: e9a5 4dbd b922 01be 1e03 7b3d ebcb 9cbc
00000050: ffe1 963d f74f 203e 158f 58bd 1558 8a3d
00000060: 5738 273d f187 ed3d 92ba 3c3e c36e 0f3e
00000070: 5f41 dcbd ef0e 07be 75e1 1dbe a9a9 febd
00000080: 3359 b6bd 5368 06be b3ff b6bd 427c 2dbe
00000090: d161 8f3d c3af da3d facb 823d 213f b23c
000000a0: d201 f43c 0043 cdbd ca54 6b3d bea2 08be
000000b0: 0ab7 34bd d954 2abe 64ad 053e e7b0 2c3e
000000c0: bda2 493e 0a7e 993d df12 15be 46aa 503e
000000d0: c50b c7bc f9ec 4f3d eee1 22be 5a2c 153e
000000e0: e426 213e a639 21be 8bcb 1c3e d3ae a23d
000000f0: 7bdd 443e a774 8bbd 92b2 30bb 2e40 bd3a
00000100: 83ef 963e 3e1b c1be d322 77be 2148 8f3e
00000110: 595e 93be c999 febd efea 2fbe e062 02be
00000120: ce69 6abe 45c2 06bc 58c5 a7be 0e78 99be
00000130: b036 b03e 8973 ccbe bf91 80be 5c2f 743e
00000140: b0a6 973e 15fc 3bbe 2f17 ad3e 1eb7 c1be
00000150: d9f9 c0be 84ef c4bd 4bf9 e7bd 7ca2 bcbe
00000160: 1fb0 35be 1cdd c73e f8ad 07be c630 a93e
00000170: 1f03 283d 5c6d 50bc 7259 ff3d a8dd 833e
00000180: 2352 47be 4760 acbe 2747 2c3e 162c 3b3e
00000190: 0313 42be 35fc 8d3e 469f b73e 0dfe 8cbe
000001a0: 1816 8b3e 5ad5 7e3e ad28 503e 6280 ccbe
000001b0: 6204 b3be 8de2 8fbe 6eeb 973e 271a a73e
000001c0: f6cc 2f3d ad90 ac3e 4185 f8bc bf40 84be
000001d0: 9037 25be e4d7 af3e a583 593e e37d 523e
000001e0: 6fcb f5bd f425 c33d 93a6 b63e b32f c83d
000001f0: 5984 d23d de56 8fbe b187 c6be 5879 ef3d
00000200: dcb9 5c3e 005d b7bc 4ee0 693e 8b21 87be
00000210: 1975 a63e b6b5 423e 5d5f 96be 2fd7 99be
00000220: a3af 93be 59cb 8a3e 43de 0c3d 4e56 a73b
00000230: 7a24 7abe 5bf4 863e 4def 8a3e eb77 89be
00000240: f262 9d3d 42cd 923e 9e53 c4bd 13ce ae3d
00000250: 42fb 7ebd 4ae9 a1be 844d 573e d40a 79bd
00000260: c66c 853d 9ea2 6dbe 33b1 b7be 3a1e 98be
00000270: 7294 8f3e a987 933e 5f7b 7e3e 6d12 433e
00000280: c305 883e dfe6 963e 7af6 3a3e 7095 893e
00000290: 44de d7bd 9551 8cbe ff0c 67be a388 15bd
000002a0: df76 33bd 7b7b 443e 161a 55be 66d2 8a3e
000002b0: 2695 e53d 8c23 913e 6704 65be b9f2 94be
000002c0: 6962 afbe b2f7 41be 4aea aa3e 5eaf 6dbe
000002d0: 6802 0f3e 468d c0bd 56c3 8d3e 796d 99be
000002e0: 362a 66be 8729 833e b342 a7be 8d77 8fbe
000002f0: 9f4e adbe efae 0b3e db3b 993c 640c 24be
00000300: b0cc 93be 3a6e ca3e 15c6 f93d b9aa 13be
00000310: c609 debd 0cc1 13be da3d b03e 87cb b73e
00000320: 4ea2 c03e c857 92be ac5b 933e 55c2 a23e
00000330: 79a6 61be 9afd 6b3e d052 1d3d a4b6 b5bd
00000340: dd0e 8fbe c6fa 15be 803e 9dbe a6a0 963e
00000350: fdba ad3e b21f b43e d69b 2abe c522 b83e
00000360: 0bde 823d 3059 96be b365 ba3e c4c9 3cbe
00000370: cb0d acbe fe3f a8be 31de 52be cfc7 92be
00000380: edc2 0bbe e693 5b3e 8c81 96be e34f 9fbe
00000390: e952 753e 357b 48bd a7c0 57be 48b6 8c3e
000003a0: efd1 88be da45 91be d9c1 3e3d 9b9d 563e
000003b0: 456d 9a3e 2a4d a03d f656 77be 9af5 26be
000003c0: 41ba 9c3e c057 82be 41b9 9cbe 3e66 923e
000003d0: 3c11 a53c 9210 9bbe 4c90 a4be f488 f9bb
000003e0: c8cf 8d3e cece 99be eb0c 37be 34ad 623e
000003f0: 68c5 973e e79a 7b3e 0f32 ae3e a74f cb3d

actor.4.bias f4 [4]
0.1288581 -0.10413599 0.06974771 -0.11289584
00000000: 61f3 033e 4045 d5bd e3d7 8e3d ef35 e7bd
