HFDRL_UNIT8/models/Archived/LunarLander-v3__ppo__1__1768735566__u280.pt (torch, 44753 bytes, 11 tensors)

critic.0.weight f4 [64, 8]
-0.118776366 0.15021476 0.015704557 -0.1802151 -0.095679946 0.15587875 -0.37010404 0.058917254
-0.11198219 0.26377517 0.2723958 -0.1592994 -0.15965931 -0.18491413 0.11393496 -0.12209982
0.01067413 -0.2927591 0.114590295 0.27320263 0.026578173 0.12605694 0.29483533 0.63431287
-0.17029262 0.18897414 0.0012066212 -0.6878027 0.26418632 0.014851454 -0.40296295 -0.28853378
0.05344875 -0.051091682 0.37525386 -0.26042658 0.06853505 -0.17276034 -0.044032022 -0.4093293
0.025728086 -0.3228474 0.0023915935 0.013195186 -0.019125901 0.26564637 -0.032933947 -0.009572596
-0.31929523 -0.2531431 0.0603019 0.15310271 -0.016061751 -0.27501887 0.51810247 0.25426567
-0.041514926 0.5118531 0.21194188 0.2718824 -0.041953713 0.11859212 0.274485 0.37283844
0.14431824 0.009952112 0.40341607 -0.40141663 0.4416544 -0.10309563 -0.11438891 -0.104217045
-0.0076572034 0.15059996 0.3921472 -0.181628 0.2038588 0.04797945 0.25384736 0.5169886
-0.10606346 -0.4490075 0.12976974 0.5802979 0.0064429417 0.2611177 0.18365908 0.038621422
-0.051013272 0.41994157 -0.02353762 -0.1261747 -0.06625488 0.19708462 -0.38841835 -0.1209287
0.04804586 0.34748685 0.116138525 -0.13115118 -0.07662403 0.017391527 -0.18949707 0.035840563
-0.053676933 -0.23529813 0.19070905 0.5448862 -0.0057626883 0.03352941 -0.07018391 0.31116512
-0.10096521 -0.15516773 0.1553429 0.4539638 0.13382702 -0.0075098607 0.15229681 0.15723799
-0.035170883 0.20098966 -0.21996032 -0.4526901 -0.0350372 0.17246674 -0.10772313 -0.24710445
0.15786222 0.1395431 0.029469276 -0.46696067 -0.119882785 -0.02961694 -0.16123238 0.15337364
-0.06467985 0.080581196 0.49936086 0.30533415 0.39022553 -0.263927 0.056677118 0.19517888
-0.23196442 -0.08336594 0.21956493 0.08321627 -0.22614354 0.11866362 0.010492734 -0.051406454
-0.04287091 0.33153817 -0.02323494 -0.29973304 0.024217961 0.17498708 -0.44188124 -0.29544327
0.16077648 0.06045343 0.14464429 -0.043806873 0.04639936 -0.06872385 -0.07632185 -0.051120266
0.13668714 0.110214844 -0.15771206 -0.45080397 -0.06560014 0.08413987 -0.30723098 -0.19698994
0.11557369 -0.012812984 0.007676981 0.18717194 -0.20758142 -0.13540715 -0.10920623 -0.19469409
0.1950519 0.1797405 -0.11416267 -0.1200075 0.13248238 -0.11568088 -0.055943985 -0.32751602
-0.06605858 0.1518269 0.06711012 -0.31370437 0.026502881 -0.17435509 -0.6892952 -0.25646588
-0.10045679 0.38478646 0.020027306 -0.16088966 0.02586333 -0.23655161 -0.040781856 -0.20146535
-0.07855969 -0.049426243 0.13772732 0.14334029 0.28478172 -0.14718129 0.12783957 0.16213207
-0.04088951 -0.20108452 -0.016457377 0.23845236 -0.22044854 0.19337218 0.21966127 0.39690706
0.22630899 0.10278115 -0.31415594 -0.21790898 -0.14996932 0.020863965 -0.4375822 -0.15979508
0.14936149 0.44541845 -0.1383024 0.14794435 -0.18613203 0.047388367 -0.062279508 -0.50345844
-0.2379488 -0.19568779 -0.13764085 0.21436349 0.2649815 -0.11219755 0.20794936 0.4458848
-0.14298324 0.47036558 0.10080506 -0.20922329 0.16587289 0.16156861 -0.2776663 -0.3777683
00000000: 0641 f3bd e6d1 193e d8a6 803c 4f8a 38be
00000010: d9f3 c3bd ae9e 1f3e 477e bdbe 3853 713d
00000020: eb56 e5bd 8a0d 873e 7677 8b3e 621f 23be
00000030: bb7d 23be 215a 3dbe bb56 e93d 780f fabd
00000040: 8ce2 2e3c 85e4 95be 51ae ea3d 37e1 8b3e
00000050: 78ba d93c 1215 013e a8f4 963e 5462 223f
00000060: 3061 2ebe 7082 413e 7d27 9e3a d613 30bf
00000070: 6e43 873e 8353 733c 2951 cebe b3ba 93be
00000080: 14ed 5a3d 8345 51bd 4621 c03e a256 85be
00000090: 1b5c 8c3d 16e8 30be ec5a 34bd 9c93 d1be
000000a0: b5c3 d23c 414c a5be 48bc 1c3b 9f30 583c
000000b0: ecad 9cbc cd02 883e bfe5 06bd 61d6 1cbc
000000c0: aa7a a3be f99b 81be 20ff 763d f5c6 1c3e
000000d0: ef93 83bc 46cf 8cbe 5da2 043f 1c2f 823e
000000e0: 8e0b 2abd ce08 033f 4b07 593e 2c34 8b3e
000000f0: a8d7 2bbd 6de0 f23d 4c89 8c3e aee4 be3e
00000100: 29c8 133e 2f0e 233c 8d8c ce3e 7b86 cdbe
00000110: 8720 e23e cd23 d3bd bc44 eabd bf6f d5bd
00000120: 47e9 fabb e036 1a3e 85c7 c83e b1fc 39be
00000130: 5cc0 503e 1a86 443d 48f8 813e 5d59 043f
00000140: cd37 d9bd 50e4 e5be 5ce2 043e 678e 143f
00000150: 501f d33b 38b1 853e 2011 3c3e 7f31 1e3d
00000160: 4bf3 50bd 9502 d73e f8d1 c0bc f133 01be
00000170: a3b0 87bd 8dd0 493e c5de c6be 77a9 f7bd
00000180: bccb 443d cce9 b13e 09da ed3d 7f4c 06be
00000190: 0fed 9cbd ad78 8e3c 850b 42be 8ecd 123d
000001a0: 58dc 5bbd fef1 70be 3c49 433e a97d 0b3f
000001b0: efd4 bcbb 2256 093d 95bc 8fbd 0951 9f3e
000001c0: d9c6 cebd 4ae4 1ebe 3612 1f3e f16d e83e
000001d0: f309 093e 4715 f6bb b2f3 1b3e ff02 213e
000001e0: 580f 10bd 3cd0 4d3e 473d 61be ffc6 e7be
000001f0: 2b83 0fbd 1f9b 303e f29d dcbd f308 7dbe
00000200: a2a6 213e 63e4 0e3e 8d69 f13c 7815 efbe
00000210: 1b85 f5bd 3a9f f2bc 1a1a 25be fb0d 1d3e
00000220: df76 84bd c107 a53d 3aac ff3e c254 9c3e
00000230: a4cb c73e 7121 87be 4426 683d f9dc 473e
00000240: 1588 6dbe c3bb aabd a1d5 603e 4b6d aa3d
00000250: 2c92 67be e905 f33d b7e9 2b3c 938f 52bd
00000260: 6899 2fbd 5fbf a93e 3357 bebc 9c76 99be
00000270: bf64 c63c d02f 333e 423e e2be 5744 97be
00000280: 97a2 243e 049e 773d a21d 143e d66e 33bd
00000290: 410d 3e3d 17bf 8cbd a14e 9cbd 7c63 51bd
000002a0: b7f7 0b3e 52b8 e13d 457f 21be c7cf e6be
000002b0: 5e59 86bd 8651 ac3d 614d 9dbe bbb7 49be
000002c0: e6b1 ec3d 8ded 51bc 2f8f fb3b 00aa 3f3e
000002d0: 3990 54be 2ca8 0abe 84a7 dfbd e35d 47be
000002e0: afbb 473e e50d 383e 1ece e9bd 7ec6 f5bd
000002f0: 76a9 073e 19ea ecbd 8525 65bd 2eb0 a7be
00000300: b949 87bd 8378 1b3e 0871 893d dc9d a0be
00000310: 921c d93c 248a 32be a675 30bf 7f4f 83be
00000320: 4abc cdbd bb02 c53e 4e10 a43c 42c0 24be
00000330: 56df d33c 963a 72be e00a 27bd ef4c 4ebe
00000340: e7e3 a0bd 2c73 4abd 6408 0d3e ccc7 123e
00000350: e9ce 913e b1b6 16be 60e8 023e f305 263e
00000360: c27b 27bd 1ae9 4dbe 9fd1 86bc db2c 743e
00000370: 43bd 61be 5b03 463e e2ee 603e 6737 cb3e
00000380: 8bbd 673e ec7e d23d 0cd9 a0be 8823 5fbe
00000390: 8f91 19be e8ea aa3c c60a e0be 52a1 23be
000003a0: 38f2 183e e30d e43e 259f 0dbe b97e 173e
000003b0: 6599 3ebe 4e1a 423d cc18 7fbd a7e2 00bf
000003c0: daa8 73be 6162 48be b9f1 0cbe 1a82 5b3e
000003d0: a8ab 873e d4c7 e5bd adf0 543e 034b e43e
000003e0: 336a 12be c2d3 f03e e272 ce3d a13e 56be
000003f0: 95da 293e 3e72 253e 472a 8ebe d96a c1be

critic.0.bias f4 [64]
-0.18327077 -0.04247893 0.18482098 -0.17055859 -0.21598656 0.15322405 0.033877674 0.1985677
-0.21782118 0.10394378 0.21681874 -0.20539978 0.01524101 0.20587745 0.17064121 -0.2073119
0.028982725 0.07303722 -0.04765575 -0.1908712 -0.124569304 -0.061577383 -0.09680026 -0.18273692
-0.08031595 -0.16029562 0.16255179 0.18240619 -0.14972898 -0.18318823 0.17012747 -0.20230809
-0.17897533 -0.15207593 0.17931572 0.15304747 -0.016992802 -0.14366287 -0.089592114 0.16598119
-0.1657856 0.14393961 -0.023474727 0.07985651 -0.07616655 -0.14113802 -0.12545207 -0.15597633
-0.17552865 -0.18016693 -0.097610205 0.12066638 -0.16381964 0.13535449 -0.026954258 0.06536795
-0.1738723 0.17105742 -0.08300617 -0.09874625 0.16925909 0.20378193 -0.056812637 -0.1789886
00000000: 55ab 3bbe 63fe 2dbd b641 3d3e e9a6 2ebe
00000010: 952b 5dbe c4e6 1c3e 51c3 0a3d 5555 4b3e
00000020: 840c 5fbe 7ae0 d43d bb05 5e3e 5254 52be
00000030: 6eb5 793c 8ad1 523e 92bc 2e3e 9249 54be
00000040: 2e6d ed3c 8a94 953d ad32 43bd bd73 43be
00000050: 311e ffbd 9138 7cbd 373f c6bd 631f 3bbe
00000060: b07c a4bd 8924 24be fa73 263e b0c8 3a3e
00000070: 8e52 19be b295 3bbe e535 2e3e da29 4fbe
00000080: 4f45 37be cbb9 1bbe 8a9e 373e 7ab8 1c3e
00000090: 7d34 8bbc 5c1c 13be 127c b7bd f9f6 293e
000000a0: b3c3 29be e864 133e 124e c0bc cf8b a33d
000000b0: 35fd 9bbd 7c86 10be 8276 00be 42b8 1fbe
000000c0: c8bd 33be ae7d 38be dce7 c7bd ef1f f73d
000000d0: 56c0 27be 5e9a 0a3e 2dcf dcbc a2df 853d
000000e0: 950b 32be ad29 2f3e 24ff a9bd 793b cabd
000000f0: 4152 2d3e 36ac 503e 5eb4 68bd ca48 37be

critic.2.weight f4 [64, 64]
0.36014822 -0.51795924 -0.33463144 0.42369965 0.07248221 -0.15665893 0.078472756 -0.37673286
0.12500352 0.31083915 -0.29243857 0.04777301 -0.06359057 -0.39683637 -0.532159 0.4293014
0.106656924 -0.19876902 0.009736651 0.30824527 -0.048677072 0.29816598 0.15795334 0.28236264
0.4637234 0.15997356 0.107092544 -0.21199383 0.15172969 0.17183658 -0.17997724 0.18407503
0.11163488 0.24501994 0.16450791 -0.091560766 -0.34171852 -0.2521246 -0.11321408 -0.65189475
0.31471723 -0.22122042 -0.023816267 -0.107433096 -0.253994 0.2756834 0.23067786 0.36845037
0.18729839 0.41240704 -0.08853792 -0.07926446 0.19720255 -0.26141268 -0.07295666 -0.02078633
0.19519842 -0.29725215 0.04935085 0.18611556 -0.032615628 0.021229686 -0.24868949 0.12568145
0.42012703 0.20347278 -0.20961891 0.24401782 0.026000265 -0.2823655 -0.021637924 -0.2296581
0.10303903 -0.24325264 -0.14963622 0.055313524 0.47076303 0.057265993 -0.384512 0.45969892
0.04910321 -0.32200065 0.32509738 0.050360244 0.09659012 0.27095526 -0.022654703 0.25899342
0.15593126 0.24209797 -0.17373404 -0.28190368 0.38116387 0.40503022 -0.31612456 0.29649708
0.3631636 0.09775345 -0.06993888 -0.1371546 -0.04204345 -0.12513469 -0.1846588 0.10486889
0.2020907 -0.042571656 0.11447459 -0.13265625 0.08001818 0.3165472 0.42847258 0.03680968
0.5308598 0.07251695 -0.024545155 -0.06373236 0.14495458 -0.27083626 -0.15159217 -0.2751554
0.35750923 -0.4412786 0.14191534 0.3939576 -0.114480026 -0.220245 -0.30723435 0.0018550054
-0.32536057 0.09670272 0.42247054 -0.17044738 0.22248456 0.030031301 0.13239586 0.24505532
-0.3787157 0.35147262 -0.050015755 -0.38028046 -0.091243654 0.4929852 0.43282878 -0.5201908
-0.42109278 0.032091547 0.0660728 -0.28679052 -0.13936505 -0.2554488 -0.09541199 -0.16411085
-0.35218877 -0.03938749 0.5149376 0.44236365 -0.06826448 -0.4897497 -0.054003622 -0.45035917
0.11081047 -0.0033412029 -0.032333154 0.12552251 -0.0640905 -0.11510803 0.017211214 0.2880399
0.0007114523 -0.3109463 0.31150043 0.09139324 0.032492153 -0.3654799 0.2128378 -0.016487349
-0.07530539 -0.26435068 0.07402268 0.030988995 -0.29237342 0.313368 0.11700845 0.07594391
-0.3242189 0.22375698 0.092365995 -0.3866423 0.26514894 0.2646131 -0.06271346 -0.083842926
0.48220095 0.2156828 -0.391264 0.48167485 0.098444246 -0.22142127 -0.66227645 -0.15421903
0.22719274 0.04428714 -0.051242165 0.16355288 -0.04768162 -0.06203275 -0.42508796 0.5100659
0.0045826347 -0.018809373 -0.100250535 0.3391529 -0.14167793 0.3369539 0.3852935 0.3794735
0.038236566 0.041148856 -0.38634154 -0.4297705 0.06736244 -0.33839735 -0.0072006914 0.2725295
0.24685922 0.28065032 -0.08928151 -0.18046343 -0.13576211 -0.27430704 0.12630343 -0.22137171
0.23995654 -0.06637475 0.08067248 0.08791452 -0.1343883 0.55120784 0.07568355 0.15753894
0.3997227 0.30009124 -0.24066861 -0.13288206 0.31027073 -0.3214397 -0.14041485 -0.4722838
0.18153255 -0.42264414 0.12343337 0.36453268 -0.4838128 -0.5643825 -0.17705612 0.0756385
00000000: 5965 b83e fa98 04bf d054 abbe 29ef d83e
00000010: 8e71 943d 336b 20be 53b6 a03d 21e3 c0be
00000020: ec00 003e 4f26 9f3e 82ba 95be a2ad 433d
00000030: c63b 82bd 232e cbbe 923b 08bf 65cd db3e
00000040: f26e da3d 1b8a 4bbe 7986 1f3c 53d2 9d3e
00000050: 9c61 47bd 36a9 983e 85be 213e d691 903e
00000060: 276d ed3e 1cd0 233e 5653 db3d e914 59be
00000070: 075f 1b3e eef5 2f3e f44b 38be 2a7e 3c3e
00000080: d4a0 e43d 82e6 7a3e c374 283e 3684 bbbd
00000090: bbf5 aebe 7a16 81be c9dc e7bd 93e2 26bf
000000a0: 9e22 a13e 9b87 62be 551a c3bc e205 dcbd
000000b0: 800b 82be 6026 8d3e d136 6c3e 87a5 bc3e
000000c0: 26cb 3f3e 0427 d33e 5e53 b5bd 6855 a2bd
000000d0: 77ef 493e e2d7 85be 4d6a 95bd 1848 aabc
000000e0: 18e2 473e 6f31 98be 1e24 4a3d 1495 3e3e
000000f0: f797 05bd e1e9 ad3c 75a8 7ebe a3b2 003e
00000100: e41a d73e 2b5b 503e 57a6 56be cfdf 793e
00000110: 82fe d43c 3692 90be 0442 b1bc 7e2b 6bbe
00000120: 2106 d33d 3817 79be 3d3a 19be 6f90 623d
00000130: da07 f13e bf8f 6a3d c2de c4be a85d eb3e
00000140: 7320 493d 45dd a4be 2a73 a63e 8b46 4e3d
00000150: 0ad1 c53d a6ba 8a3e 5b96 b9bc c99a 843e
00000160: 72ac 1f3e 88e8 773e 56e7 31be ae55 90be
00000170: e927 c33e 1f60 cf3e 14db a1be 77ce 973e
00000180: 94f0 b93e f632 c83d 1e3c 8fbd 4172 0cbe
00000190: c135 2cbd 4f23 00be 3217 3dbe 80c5 d63d
000001a0: ddf0 4e3e 9e5f 2ebd a771 ea3d 0ad7 07be
000001b0: 92e0 a33d 7912 a23e c260 db3e bfc5 163d
000001c0: 6ee6 073f c483 943d ec12 c9bc 1d86 82bd
000001d0: f96e 143e 0dab 8abe fa3a 1bbe 2be1 8cbe
000001e0: 730b b73e 45ef e1be 4152 113e d0b4 c93e
000001f0: 8174 eabd e887 61be d24d 9dbe a723 f33a
00000200: a995 a6be 130c c63d 0f4e d83e c289 2ebe
00000210: fed2 633e 3404 f63c c892 073e c8ef 7a3e
00000220: 06e7 c1be 38f4 b33e 52dd 4cbd 1fb4 c2be
00000230: f4dd babd 8e68 fc3e bc9b dd3e 392b 05bf
00000240: 7999 d7be 6d72 033d 2d51 873d 35d6 92be
00000250: b6b5 0ebe 2fca 82be 5d67 c3bd ad0c 28be
00000260: 1652 b4be c754 21bd f3d2 033f 7d7d e23e
00000270: 3fce 8bbd 79c0 fabe e732 5dbd 7a95 e6be
00000280: 9af0 e23d 15f8 5abb c56f 04bd f988 003e
00000290: e141 83bd c2bd ebbd 88fe 8c3c f779 933e
000002a0: c180 3a3a 5a34 9fbe fc7c 9f3e 612c bb3d
000002b0: 7e16 053d 2e20 bbbe 27f2 593e 7a10 87bc
000002c0: b639 9abd f958 87be 3499 973d a2dc fd3c
000002d0: f8b1 95be c571 a03e 20a2 ef3d 7b88 9b3d
000002e0: 0500 a6be 8d20 653e 622a bd3d fbf5 c5be
000002f0: 9ac1 873e 5e7b 873e ea6f 80bd d7b5 abbd
00000300: 0be3 f63e f4db 5c3e c153 c8be 169e f63e
00000310: 239d c93d 42bc 62be f38a 29bf 98eb 1dbe
00000320: 37a5 683e 6f66 353d 4ee3 51bd 687a 273e
00000330: cd4d 43bd 0e16 7ebd 21a5 d9be ae93 023f
00000340: ed29 963b 1d16 9abc 2750 cdbd 73a5 ad3e
00000350: 0514 11be 3985 ac3e 3145 c53e 5a4a c23e
00000360: f29d 1c3d b48b 283d 8fce c5be e10a dcbe
00000370: 52f5 893d 6b42 adbe c7f3 ebbb fd88 8b3e
00000380: aac8 7c3e 66b1 8f3e 39d9 b6bd 68cb 38be
00000390: 3905 0bbe f971 8cbe b055 013e 44af 62be
000003a0: 2bb7 753e 7cef 87bd 9d37 a53d 870c b43d
000003b0: 169d 09be f51b 0d3f faff 9a3d e351 213e
000003c0: 74a8 cc3e 8fa5 993e d571 76be 3c12 08be
000003d0: cedb 9e3e bf93 a4be e9c8 0fbe 2fcf f1be
000003e0: abe3 393e d064 d8be a2ca fc3d 07a4 ba3e
000003f0: 50b6 f7be 5f7b 10bf 334e 35be 5ce8 9a3d

critic.2.bias f4 [64]
-0.1567314 -0.09338654 0.1531199 -0.20160684 -0.06619634 -0.13460188 0.17908636 -0.06607841
-0.07070277 0.21502203 -0.094674625 -0.13938223 -0.1971259 -0.11701239 -0.054498624 0.1898466
-0.14631964 -0.1349166 -0.13154535 0.13319147 -0.037339713 0.18451393 -0.15806083 -0.18813688
0.0717089 0.11527203 0.16421539 0.1495867 0.058449075 -0.0622483 0.16260917 -0.056035016
-0.12859586 0.19315068 0.034420498 -0.11491881 0.053469483 0.16548172 -0.17254284 -0.07106868
-0.0795513 -0.024320543 0.14197244 -0.15936832 0.06470975 0.10973873 0.15453999 -0.14101823
0.056863733 0.10174908 0.16004331 0.022020139 0.15302959 0.14162837 -0.1329914 0.1432607
0.06450266 -0.1612245 0.13940734 0.14250214 -0.08008354 0.2301965 0.14484838 0.025655275
00000000: 327e 20be 7141 bfbd 77cb 1c3e 0672 4ebe
00000010: f291 87bd 13d5 09be 6a62 373e 1e54 87bd
00000020: 9dcc 90bd bc2e 5c3e c5e4 c1bd 37ba 0ebe
00000030: 5fdb 49be 31a4 efbd f339 5fbd 2667 423e
00000040: d1d4 15be 9427 0abe d3b3 06be 5863 083e
00000050: 87f1 18bd 38f1 3c3e b3da 21be f4a6 40be
00000060: 1edc 923d be13 ec3d 1428 283e 422d 193e
00000070: 4c68 6f3d 13f8 7ebd 0583 263e f984 65bd
00000080: a2ae 03be 4bc9 453e 82fc 0c3d 8e5a ebbd
00000090: d102 5b3d 0a74 293e 12af 30be 758c 91bd
000000a0: cbeb a2bd e03b c7bc 3961 113e 7331 23be
000000b0: 8c86 843d b3be e03d bb3f 1e3e 1567 10be
000000c0: f2e9 683d d261 d03d 65e2 233e 9463 b43c
000000d0: cab3 1c3e 0707 113e e62e 08be efb2 123e
000000e0: f819 843d 0918 25be ccc0 0e3e 15ec 113e
000000f0: d702 a4bd a2b8 6b3e 2253 143e 032b d23c

critic.4.weight f4 [1, 64]
0.36407694 0.28562042 -0.3145395 0.32067958 0.08958103 0.50972944 -0.34820265 0.074272946
0.12214493 -0.33855382 0.40341738 0.31203508 0.370445 0.26213288 0.22808972 -0.34416425
0.3417846 0.39031717 0.32592 -0.2545036 0.20317727 -0.30862042 0.2697357 0.3154008
-0.29530153 -0.45836946 -0.46671265 -0.58308977 -0.12205169 0.1698192 -0.47068503 0.13505694
0.51916176 -0.3639431 -0.097029306 0.35066625 -0.20798998 -0.5557654 0.41600215 0.29178524
0.1216929 0.25303638 -0.31212604 0.4301097 -0.060817964 -0.17012535 -0.48782766 0.2892602
-0.07403269 -0.13440332 -0.37739387 -0.25944003 -0.33594158 -0.28115338 0.36468527 -0.5332488
-0.15889332 0.40414497 -0.29483932 -0.41995165 0.27770603 -0.3244912 -0.5433104 -0.4585359
00000000: 4b68 ba3e d73c 923e 520b a1be 1d30 a43e
00000010: 4276 b73d a17d 023f 9e47 b2be 6a1c 983d
00000020: 1f27 fa3d ed56 adbe b98c ce3e 10c3 9f3e
00000030: f8aa bd3e 4836 863e 5a90 693e 4c36 b0be
00000040: 64fe ae3e a7d7 c73e fcde a63e 4c4e 82be
00000050: b40d 503e 7f03 9ebe cc1a 8a3e 377c a13e
00000060: c331 97be 67af eabe f6f4 eebe 5f45 15bf
00000070: 3df6 f9bd 16e5 2d3e a1fd f0be 5e4c 0a3e
00000080: c9e7 043f c056 babe 4db7 c6bd 878a b33e
00000090: 53fb 54be a446 0ebf 3cfe d43e e064 953e
000000a0: 213a f93d fc8d 813e fcce 9fbe 5737 dc3e
000000b0: 421c 79bd 5735 2ebe 8cc4 f9be ea19 943e
000000c0: 739e 97bd 06a1 09be c539 c1be 53d5 84be
000000d0: 8900 acbe 56f3 8fbe 07b8 ba3e fe82 08bf
000000e0: eeb4 22be 17ec ce3e 2ef5 96be e703 d7be
000000f0: 7c2f 8e3e b623 a6be 6416 0bbf 38c5 eabe

actor.0.weight f4 [64, 8]
-0.057894938 0.019926196 0.2058005 -0.07402848 -0.7113819 -0.21984826 0.0727902 0.18823253
-0.23215008 0.11666256 -0.08478081 0.65190154 0.2201106 -0.06615551 -0.10826385 0.1385961
0.004820507 -0.29388267 -0.050411366 -0.6115711 0.3465946 -0.0067874943 -0.34647363 -0.25997627
-0.07256154 -0.031640876 -0.19632399 -0.12566961 0.5028793 -0.039837196 -0.1905083 -0.21866165
0.12650627 -0.06150747 -0.1022347 -0.22484471 0.3208443 0.20195839 0.1876678 -0.28466374
-0.098459065 -0.23775779 0.04910572 0.42348784 -0.372721 0.02773562 0.05571988 0.0775204
-0.31736854 0.0028639722 -0.090056695 0.067729875 -0.3432936 -0.08102218 0.15702288 -0.34996822
-0.10832487 -0.193088 0.23605524 0.47614282 -0.72612226 -0.54143155 0.10279657 0.14400719
-0.20768976 0.14064915 -0.46634617 -0.41938692 0.45709172 0.37592894 -0.54377407 0.11098052
-0.12528402 0.03205607 -0.014022513 0.21479285 -0.41142693 -0.4040564 -0.11396284 0.121253125
-0.06246302 0.065064885 -0.00052462786 -0.07463244 -0.51531905 -0.031448394 0.25887755 0.13701148
0.024681605 -0.087853685 0.011686466 0.011227615 -0.5758063 -0.3257365 0.12956427 -0.19741517
-0.19392984 -0.11694444 -0.23111285 -0.31202045 0.37169233 0.4233323 -0.032882553 -0.10840258
-0.29651368 0.32481796 0.05526187 0.05525129 0.028237985 -0.07473176 0.23380081 0.011168475
-0.1265456 -0.206647 0.3820976 -0.5339057 -0.32790104 -0.07319126 0.03339197 0.03084345
-0.17174762 0.087134875 0.063616894 -0.18164945 -0.37609816 -0.15515907 -0.07663571 0.081011266
-0.28152382 -0.046526242 0.14641428 0.56122065 -0.30994818 -0.38776278 0.011173229 0.07692372
0.1658908 0.07375651 -0.16618325 -0.36290833 0.037435517 0.0030236682 0.1771896 -0.16855574
0.041385215 0.09394704 -0.28489587 0.15833224 0.40204754 0.19256449 0.023182558 0.03958743
0.14344454 -0.03309293 0.19893822 -0.12914185 -0.6354603 -0.38967764 -0.2878835 -0.15828106
-0.03002483 -0.15674697 -0.18345965 -0.02137659 0.11097045 0.2450533 0.050776705 0.19544642
0.1001354 0.02686077 0.085493915 0.22445694 -0.5284439 -0.4300105 0.043467958 0.05786483
0.027828496 0.1753034 -0.15734527 0.67207474 0.49668097 0.3234029 0.091661505 -0.009686857
0.26967692 0.16105978 0.21799438 -0.45712942 0.5495484 0.23428814 -0.2656039 -0.020983754
-0.2877111 0.046393275 -0.11578029 0.31844878 -0.28248867 -0.32634163 0.039638888 0.055710707
-0.032334782 0.054342113 -0.11401175 -0.4992217 0.06830524 0.28546408 -0.17810856 0.06387925
0.0810146 0.026306754 0.5396435 0.23535416 -0.33985966 -0.08129202 -0.20046763 0.24555597
0.10736013 -0.16503122 -0.073723204 -0.4224436 0.5617773 0.5159021 0.06578671 0.11519421
0.018725645 -0.24558985 -0.06743296 -0.23211782 0.6522553 0.063650936 -0.16898559 -0.013459876
0.11669717 -0.080743566 0.013099572 -0.8104873 -0.21994078 -0.5900217 -0.07806466 -0.088187255
-0.08160075 -0.015247534 -0.03576439 0.5704506 0.48995948 0.19686945 -0.02157588 -0.039206702
0.107330985 0.004348135 -0.037230715 0.43132052 0.29236794 0.05507854 -0.03971461 -0.22916874
00000000: 3e23 6dbd 433c a33c 5ebd 523e 3e9c 97bd
00000010: 201d 36bf e71f 61be 0713 953d 07c0 403e
00000020: c0b8 6dbe c8ec ee3d 90a1 adbd 05e3 263f
00000030: ac64 613e 8a7c 87bd 70b9 ddbd 23ec 0d3e
00000040: 58f5 9d3b ca77 96be 267c 4ebd ec8f 1cbf
00000050: d974 b13e a169 debb fe64 b1be 9c1b 85be
00000060: 259b 94bd dd99 01bd 2809 49be 89af 00be
00000070: b3bc 003f 542c 23bd 9c14 43be d7e8 5fbe
00000080: dc8a 013e 42ef 7bbd 6d60 d1bd b13d 66be
00000090: b445 a43e 2ece 4e3e fd2b 403e 72bf 91be
000000a0: e8a4 c9bd c776 73be 1423 493d 66d3 d83e
000000b0: 49d5 bebe d035 e33c 873a 643d 04c3 9e3d
000000c0: 217e a2be 7bb1 3b3b a56f b8bd f6b5 8a3d
000000d0: 2ec4 afbe f5ee a5bd 9bca 203e 092f b3be
000000e0: 6ed9 ddbd dcb8 45be 77b8 713e fec8 f33e
000000f0: 26e3 39bf 429b 0abf 0287 d23d 9f76 133e
00000100: a0ac 54be 5506 103e edc4 eebe e2b9 d6be
00000110: ed07 ea3e c279 c03e c734 0bbf c149 e33d
00000120: 744a 00be 3a4d 033d afbe 65bc a8f2 5b3e
00000130: 8da6 d2be 7be0 cebe 5965 e9bd 8f53 f83d
00000140: 39d9 7fbd bd40 853d 2e87 09ba e5d8 98bd
00000150: f3eb 03bf 08d0 00bd 998b 843e bd4c 0c3e
00000160: 1431 ca3c a2ec b3bd 9778 3f3c 08f4 373c
00000170: 0b68 13bf efc6 a6be 7fac 043e 3427 4abe
00000180: 8b95 46be 9180 efbd d9a8 6cbe 25c1 9fbe
00000190: 754e be3e 03bf d83e dbaf 06bd 2c02 debd
000001a0: a4d0 97be 8a4e a63e 455a 623d 2d4f 623d
000001b0: 5953 e73c f70c 99bd 7b69 6f3e fbfb 363c
000001c0: 2b95 01be 459b 53be 4ca2 c33e 0bae 08bf
000001d0: a5e2 a7be 4de5 95bd 05c6 083d 67ab fc3c
000001e0: 9cde 2fbe c573 b23d 9349 823d 5002 3abe
000001f0: f08f c0be 05e2 1ebe 2ff3 9cbd 3ce9 a53d
00000200: e423 90be 4d92 3ebd a0ed 153e 28ac 0f3f
00000210: 87b1 9ebe d888 c6be eb0f 373c 2f8a 9d3d
00000220: 47df 293e a70d 973d f12b 2abe 1fcf b9be
00000230: fc55 193d bc28 463b 3171 353e e099 2cbe
00000240: 8b83 293d 4e67 c03d dfdd 91be d921 223e
00000250: 2dd9 cd3e a02f 453e 59e9 bd3c 6e26 223d
00000260: 20e3 123e 748c 07bd 76b6 4b3e c33d 04be
00000270: 87ad 22bf d483 c7be 7765 93be 6e14 22be
00000280: a2f6 f5bc 4782 20be d9dc 3bbe f51d afbc
00000290: 7a44 e33d 41ef 7a3e 3cfb 4f3d 1b23 483e
000002a0: ca13 cd3d 1e0b dc3c 6f17 af3d 0ad8 653e
000002b0: 1948 07bf 562a dcbe 750b 323d ac03 6d3d
000002c0: 96f8 e33c bc82 333e 1e1f 21be 170d 2c3f
000002d0: f84c fe3e 1195 a53e 07b9 bb3d a0b5 1ebc
000002e0: 1813 8a3e dbec 243e eb39 5f3e de0c eabe
000002f0: 34af 0c3f 3be9 6f3e 3cfd 87be 1fe6 abbc
00000300: df4e 93be e006 3e3d 371e edbd b80b a33e
00000310: 5ba2 90be 4016 a7be 635c 223d e930 643d
00000320: 7a71 04bd d695 5e3d fe7e e9bd fd99 ffbe
00000330: 9ee3 8b3d 5928 923e 1762 36be 20d3 823d
00000340: fcea a53d 4381 d73c 1426 0a3f ae00 713e
00000350: 1602 aebe 6e7c a6bd 6347 4dbe 0673 7b3e
00000360: a1df db3d f2fd 28be 31fc 96bd 874a d8be
00000370: a3d0 0f3f 2912 043f 2fbb 863d f1ea eb3d
00000380: 8666 993c e87b 7bbe 4b1a 8abd 4bb0 6dbe
00000390: 34fa 263f 6c5b 823d 8f0a 2dbe d086 5cbc
000003a0: edfe ee3d e25c a5bd 969f 563c 187c 4fbf
000003b0: 2838 61be aa0b 17bf 5de0 9fbd 859b b4bd
000003c0: 4b1e a7bd cbd0 79bc ae7d 12bd 0d09 123f
000003d0: f8db fa3e 2598 493e e6bf b0bc 3597 20bd
000003e0: 59d0 db3d cd7a 8e3b 3c7f 18bd 0bd6 dc3e
000003f0: 40b1 953e 099a 613d c9ab 22bd 36ab 6abe

actor.0.bias f4 [64]
-0.0027000436 0.009080377 0.053645503 -0.0024309084 -0.0051796557 0.0011213062 -0.006239859 0.044245236
-0.040180594 0.053691216 -0.03175275 0.014301523 0.0039227447 -0.0076982547 0.04038016 -0.042391594
0.0062718834 -0.03529192 0.00800754 0.006916224 0.020973329 -0.017594254 -0.04339957 -0.008489652
0.03336756 0.011476498 -0.0024882243 0.041848093 0.04580642 0.00865887 -0.023102278 -0.00053782144
0.0017214782 0.001899164 0.020242438 -0.038889095 0.009321898 0.027809776 -0.009361336 0.009179392
-0.026064787 -0.0054273633 0.019356117 -0.016096676 -0.018508589 -0.009649712 -0.016671402 -0.002454403
0.019983582 -0.020244721 -0.010278712 -0.02904771 0.011054934 0.012832052 0.000104712286 -0.00827555
-0.049842063 0.0022639434 0.011337038 -0.03844927 0.014286419 -0.006807636 0.02304746 -0.028209412
00000000: 37f3 30bb ddc5 143c 63bb 5b3d e04f 1fbb
00000010: 1aba a9bb cbf8 923a bb77 ccbb 7e3a 353d
00000020: 6894 24bd 52eb 5b3d 2c0f 02bd ef50 6a3c
00000030: 5e8a 803b a441 fcbb ab65 253d cfa2 2dbd
00000040: 5f84 cd3b 438e 10bd 0f32 033c 7ea1 e23b
00000050: 42d0 ab3c d321 90bc bfc3 31bd 2e18 0bbc
00000060: 6cac 083d ec07 3c3c 7a11 23bb e868 2b3d
00000070: 839f 3b3d efdd 0d3c fd40 bdbc 96fc 0cba
00000080: 39a3 e13a 5fed f83a 78d3 a53c 2c4a 1fbd
00000090: e0ba 183c 54d1 e33c 4a60 19bc 2965 163c
000000a0: d285 d5bc 06d8 b1bb b890 9e3c 2ddd 83bc
000000b0: 539f 97bc d319 1ebc 7792 88bc 0dda 20bb
000000c0: 9cb4 a33c 42d8 a5bc 0b68 28bc 77f5 edbc
000000d0: c11f 353c 873d 523c fb98 db38 2c96 07bc
000000e0: 3127 4cbd ab5e 143b fcbe 393c fb7c 1dbd
000000f0: 9611 6a3c 9712 dfbb 07ce bc3c 6d17 e7bc

actor.2.weight f4 [64, 64]
0.3336584 -0.0899911 0.2690362 -0.41721216 0.112700716 0.13956559 -0.21587913 0.16506699
0.06700243 -0.21478604 0.22364391 0.23436968 0.028055308 0.06688195 0.011849372 0.22288314
0.19442503 0.30239412 0.0052794944 0.42847317 -0.07655172 0.16321205 -0.14947967 -0.027490135
0.10054101 0.0049533877 0.13030903 0.17271268 -0.14536369 0.4987344 -0.39139372 -0.5595876
0.24743742 0.17432433 0.031310756 0.2915042 0.21674486 0.110132985 0.3584721 0.079979405
0.6009892 -0.13974659 -0.20222145 0.20826253 0.2698187 0.12218411 -0.096396685 -0.08269624
0.020291863 0.08995462 -0.12098218 -0.12008176 0.01606067 0.29035512 0.28066978 -0.18060191
0.0042962255 0.26225576 0.02306484 0.19560434 0.25567374 -0.6185952 0.384955 -0.25526536
-0.19047983 -0.11000131 0.23003247 0.38970917 0.2374025 -0.15945706 -0.050144903 -0.48911804
0.047524814 0.02771025 -0.22731847 -0.30794242 0.25233 -0.04349773 -0.3687987 0.20994323
-0.38665447 -0.13154829 0.4263289 -0.02968654 0.07891453 -0.15246342 -0.00033020688 0.22756776
-0.29890245 0.26592252 0.07724355 0.13693331 0.053406198 0.13279666 0.06848495 0.09248543
-0.26532403 -0.26962227 0.018073117 0.22721963 -0.5048027 0.2423156 0.03699564 -0.258774
-0.23990789 -0.07425052 0.47450504 -0.2836026 -0.52124393 -0.056909133 0.24105796 0.08863312
0.086508654 -0.4693314 0.09966254 0.38338473 0.11012397 -0.02219518 -0.15906611 0.03462664
0.2920741 0.29832906 0.03597689 -0.2608602 -0.029185174 0.39542887 0.3316783 0.2452637
-0.21664855 -0.016337354 0.16165191 0.3483667 0.024334202 -0.006416322 -0.26733932 -0.13612461
0.51200676 -0.13263145 0.08256104 -0.4000614 0.47013786 -0.104226254 0.0835774 -0.0494656
-0.031467102 0.19625233 -0.027240481 0.005892349 0.0013555743 -0.06540519 -0.17839229 0.25289136
-0.010389617 0.25857005 -0.25985858 0.13611966 0.13748372 0.2349662 -0.1315712 -0.19500011
0.17856757 -0.26918924 0.24274233 -0.1292969 0.094387084 0.2483367 -0.37421024 -0.032163855
-0.19032438 0.34105787 0.15183595 -0.35675487 0.004420897 -0.14213882 0.057466924 0.09704572
0.28195605 -0.57381487 -0.008744093 -0.19719738 0.14593783 -0.29339814 -0.406827 -0.10618436
0.25829622 -0.24555446 0.24990012 -0.028556576 0.41303727 0.18110105 0.23189238 0.18034373
-0.07891174 0.021383682 -0.40963945 -0.22130518 -0.19475335 0.22765644 -0.23306128 0.3480796
-0.41336736 0.05345759 -0.024689779 0.3729492 -0.28101137 -0.35790348 -0.06950469 0.41417554
0.43705982 0.13944115 -0.2431268 0.15078938 -0.112430476 0.45653418 -0.024011437 0.09056599
0.08164624 -0.49040723 0.22995389 -0.095785156 -0.60485584 -0.072553195 -0.03749043 -0.043726675
-0.19611914 0.00019887606 -0.0006226433 0.01742858 0.0320699 0.022614723 0.017456058 -0.14767416
0.09320742 -0.1112493 -0.28476763 -0.064630285 0.060026485 0.3309198 0.039314505 0.09320836
-0.22239141 0.32572582 0.22726433 -0.15898024 -0.16354094 0.024147553 -0.1252159 0.03477652
-0.123591304 -0.119121335 -0.36453277 0.21596551 -0.33044016 0.20012003 -0.061101135 0.25723147
00000000: 46d5 aa3e 414d b8bd 1dbf 893e d59c d5be
00000010: a2cf e63d 48ea 0e3e 6b0f 5dbe 5207 293e
00000020: 9238 893d dff0 5bbe e902 653e 9bfe 6f3e
00000030: 3fd4 e53c 67f9 883d de23 423c 7a3b 643e
00000040: 5b17 473e 67d3 9a3e 9cff ac3b d660 db3e
00000050: 26c7 9cbd 0f21 273e 3311 19be fe32 e1bc
00000060: 72e8 cd3d 0750 a23b bb6f 053e 98db 303e
00000070: 38da 14be 1e5a ff3e c264 c8be 2241 0fbf
00000080: 3c60 7d3e 1482 323e b53f 003d 0a40 953e
00000090: 5df2 5d3e 678d e13d a889 b73e 3ecc a33d
000000a0: 6eda 193f bb19 0fbe 2413 4fbe c642 553e
000000b0: ad25 8a3e aa3b fa3d a06b c5bd a55c a9bd
000000c0: 1f3b a63c 213a b83d 81c5 f7bd 6ded f5bd
000000d0: ab91 833c 6da9 943e f3b3 8f3e b5ef 38be
000000e0: 5ac7 8c3b 6346 863e 7af2 bc3c 814c 483e
000000f0: abe7 823e 415c 1ebf d218 c53e 24b2 82be
00000100: 250d 43be 5e48 e1bd a28d 6b3e f687 c73e
00000110: a419 733e b648 23be be64 4dbd ae6d fabe
00000120: 61a9 423d 9b00 e33c 2cc6 68be a1aa 9dbe
00000130: 6631 813e ad2a 32bd 2fd3 bcbe 5cfb 563e
00000140: 93f7 c5be 98b4 06be c847 da3e 3031 f3bc
00000150: f19d a13d 5f1f 1cbe 9e1f adb9 8607 693e
00000160: be09 99be ff26 883e de31 9e3d 3f38 0c3e
00000170: 75c0 5a3d d9fb 073e d641 8c3d 0069 bd3d
00000180: 8dd8 87be ee0b 8abe 130e 943c 43ac 683e
00000190: c03a 01bf 9521 783e bd88 173d 077e 84be
000001a0: 6aaa 75be a810 98bd 53f2 f23e 5c34 91be
000001b0: 3e70 05bf 8d19 69bd e6d7 763e 4885 b53d
000001c0: 732b b13d 354c f0be e01b cc3d 014b c43e
000001d0: ad88 e13d abd2 b5bc 3ae2 22be aad4 0d3d
000001e0: bd8a 953e 96be 983e 815c 133d 788f 85be
000001f0: bf15 efbc a775 ca3e bdd1 a93e 6826 7b3e
00000200: 1ed9 5dbe ead5 85bc 1488 253e 1f5d b23e
00000210: 8558 c73c 0340 d2bb b3e0 88be 4064 0bbe
00000220: e012 033f 8ad0 07be c315 a93d d9d4 ccbe
00000230: e9b5 f03e 9374 d5bd a12a ab3d 719c 4abd
00000240: a6e3 00bd 5ff6 483e 6e27 dfbc 9b14 c13b
00000250: 87ad b13a 28f3 85bd 78ac 36be fa7a 813e
00000260: 3639 2abc 4b63 843e 2f0c 85be f462 0b3e
00000270: 88c8 0c3e fb9a 703e 9aba 06be 1cae 47be
00000280: 6bda 363e 2cd3 89be 7291 783e 6866 04be
00000290: 044e c13d fa4b 7e3e 7c98 bfbe 3fbe 03bd
000002a0: 65e4 42be 239f ae3e e27a 1b3e 93a8 b6be
000002b0: 2cdd 903b d78c 11be 7062 6b3d e8bf c63d
000002c0: 8b5c 903e 88e5 12bf 6243 0fbc 1cee 49be
000002d0: ba70 153e 4838 96be a14b d0be 3077 d9bd
000002e0: 673f 843e a172 7bbe d1e5 7f3e 7bef e9bc
000002f0: 9f79 d33e 8e72 393e 3275 6d3e 07ac 383e
00000300: 7a9c a1bd d52c af3c 43bc d1be d39d 62be
00000310: 6c6d 47be c51e 693e 9ea7 6ebe 7d37 b23e
00000320: e3a4 d3be 59f6 5a3d 3842 cabc 33f3 be3e
00000330: b9e0 8fbe 203f b7be 7a58 8ebd d10e d43e
00000340: 4ec6 df3e a9c9 0e3e 3bf6 78be 8868 1a3e
00000350: f341 e6bd d9be e93e a2b3 c4bc a97a b93d
00000360: 2536 a73d a816 fbbe 0879 6b3e 022b c4bd
00000370: d5d7 1abf c596 94bd 918f 19bd be1a 33bd
00000380: 75d3 48be 6389 5039 e238 23ba 62c6 8e3c
00000390: ba5b 033d 8342 b93c 0200 8f3c e537 17be
000003a0: 88e3 be3d acd6 e3bd 10cd 91be e25c 84bd
000003b0: 55de 753d 526e a93e 3f08 213d 06e4 be3d
000003c0: 93ba 63be 89c5 a63e fbb7 683e b7cb 22be
000003d0: 4777 27be 17d1 c53c 9938 00be d371 0e3d
000003e0: 701d fdbd e3f5 f3bd 0aa4 babe 1026 5d3e
000003f0: 742f a9be 44ec 4c3e 2f45 7abd d8b3 833e

actor.2.bias f4 [64]
-0.013585336 0.024909884 0.014197012 -0.04194279 0.027064402 0.011856273 -0.0025733758 -0.022041848
-0.0087674875 0.008045142 -0.01581393 0.04026454 -0.005078472 0.00948202 0.016177824 -0.018159823
0.029216208 0.008129034 0.045940023 -0.010172067 0.00344356 -0.019569477 -0.0023323281 -0.00824661
-0.03549741 -0.005132243 -0.026774492 -0.012483591 0.01921842 0.0045185587 0.01606407 -0.0043960237
0.007593831 0.034424316 -0.017916871 0.029938685 -0.008985123 -0.022981806 -0.026143102 -0.023039268
-0.014594393 0.031645123 -0.003556047 -0.0063735666 0.0078656245 0.014408339 0.0031822799 -0.013031847
-0.05695573 -0.02727369 0.048217133 -0.0037365989 -0.013593102 0.020680081 0.0052925595 -0.030261928
0.02938417 -0.021501742 -0.03326687 -0.036744133 -0.035280727 0.009611137 -0.03827178 -0.011688787
00000000: 0795 5ebc d00f cc3c 969a 683c 34cc 2bbd
00000010: 2ab6 dd3c d040 423c 15a6 28bb 1b91 b4bc
00000020: 82a5 0fbc c5cf 033c 378c 81bc 6eec 243d
00000030: 5069 a6bb 795a 1b3c 5b87 843c e9c3 94bc
00000040: d456 ef3c a42f 053c 9b2b 3c3d bea8 26bc
00000050: 5aad 613b 2b50 a0bc f9d9 18bb ca1c 07bc
00000060: bb65 11bd 602c a8bb 2e56 dbbc fa87 4cbc
00000070: f36f 9d3c 6b10 943b cc98 833c 850c 90bb
00000080: acd5 f83b 8300 0d3d 67c6 92bc f941 f53c
00000090: 5636 13bc 5744 bcbc 0f2a d6bc d9bc bcbc
000000a0: 521d 6fbc 519e 013d 920c 69bb 5ad9 d0bb
000000b0: d2de 003c f410 6c3c cc8d 503b 8783 55bc
000000c0: 694a 69bd 136d dfbc 547f 453d bae1 74bb
000000d0: 9ab5 5ebc 4669 a93c 356d ad3b dde7 f7bc
000000e0: 12b7 f03c 6c24 b0bc d742 08bd 0481 16bd
000000f0: 8682 10bd 0878 1d3c dfc2 1cbd 5382 3fbc

actor.4.weight f4 [4, 64]
-0.12814736 -0.017483009 -0.09665586 0.121627234 -0.16174784 -0.07033415 0.112450905 0.14056855
0.11835104 -0.122131 0.021915799 -0.03999637 0.115415 -0.12972668 -0.13653627 0.12840709
-0.050848495 -0.1402253 0.010256913 0.011721631 0.06838656 0.13981874 -0.09241717 0.033244204
-0.017325541 0.10161721 0.16539943 0.13764483 -0.12356125 -0.13805182 -0.11072081 -0.07530557
-0.11965789 -0.12393499 -0.072615616 -0.15384659 0.047552545 0.130063 0.089711465 0.00400694
0.027740506 -0.07186595 0.09964442 -0.12801032 -0.041974988 -0.15477791 0.08136422 0.15176527
0.17278776 0.084772274 -0.14418316 0.15579507 -0.067566454 0.013143634 -0.12061613 0.13444091
0.114682466 -0.1264985 0.15826127 0.11235059 0.1823634 -0.051584765 0.04404072 0.06466033
0.20503063 -0.33461744 -0.23304299 0.25751176 -0.18883882 -0.07850286 -0.1545325 -0.0058854283
-0.16915374 -0.00218778 -0.26300713 -0.27941853 0.31108087 -0.33991736 -0.22150196 0.24376334
0.21309565 -0.15028396 0.2865263 -0.29063472 -0.29461417 -0.09680703 -0.0780945 -0.2860076
-0.14229982 0.3423764 -0.112536915 0.29598105 0.065423 0.04370168 0.087505564 0.21448141
-0.15085123 -0.29737604 0.14041336 0.13926193 -0.13713385 0.25899357 0.3032388 -0.23124607
0.24527901 0.20638399 0.17642252 -0.34858587 -0.29785433 -0.26858792 0.27981013 0.30460668
0.007528995 0.30524454 -0.058822636 -0.19263549 -0.14207734 0.28850967 0.16583028 0.2016805
-0.0749474 0.057857305 0.3137917 0.06699885 0.0726078 -0.24640398 -0.28681767 0.07334613
0.21289605 0.06792107 0.21477231 -0.26141155 0.26981327 0.15201272 -0.22988068 -0.2713036
-0.2400971 0.21967979 -0.030500943 0.11901314 -0.22465152 0.2632586 0.2408585 -0.26132396
0.15278098 0.23750868 -0.034827523 -0.029532352 -0.11593177 -0.25994805 0.16693956 -0.048820037
0.02301811 -0.21826616 -0.29732564 -0.2812268 0.24741594 0.2302059 0.23644485 0.1735639
0.21798947 0.27089712 0.14817521 0.27275175 -0.13177298 -0.25856048 -0.23178142 0.0075335815
-0.07664841 0.17528719 -0.1776475 0.25044867 0.120326385 0.2658736 -0.19803275 -0.2712025
-0.3024168 -0.2158038 0.29681313 -0.23623565 0.13359712 -0.038117908 0.22802705 -0.26395524
-0.1954085 0.21622847 -0.305696 -0.23601563 -0.27787545 0.11376472 -0.1056658 -0.12563308
-0.2759251 0.3143177 0.12296239 -0.13070638 -0.16277213 -0.09621923 0.27791736 0.2843287
0.29978335 -0.22398883 0.26604563 0.24691415 -0.2237318 0.22305344 0.028707776 -0.090625875
-0.26826116 -0.14036034 -0.27599204 0.29485866 0.30706248 0.28268862 -0.121771194 0.28867775
0.13609666 -0.26921847 0.29215753 -0.18931118 -0.28295398 -0.27441192 -0.21166189 -0.27104792
-0.11389064 0.20292282 -0.23421903 -0.29745 0.23695154 -0.07739047 -0.20699355 0.23020649
-0.2278215 -0.25626242 0.0076693143 0.22101425 0.26352522 0.020426713 -0.22635125 -0.16301993
0.27775344 -0.22510856 -0.2536739 0.27792016 0.05112168 -0.2788073 -0.27147815 -0.021501815
0.24347475 -0.24537002 -0.15721522 0.16506304 0.26911798 0.22468866 0.30839556 0.052210044
00000000: 1039 03be 8738 8fbc 82f3 c5bd b317 f93d
00000010: 3aa1 25be 5a0b 90bd a94c e63d 34f1 0f3e
00000020: 0862 f23d d11f fabd c388 b33c 3cd3 23bd
00000030: b35e ec3d 12d7 04be 2ad0 0bbe 267d 033e
00000040: 8346 50bd 3997 0fbe 9c0c 283c 150c 403c
00000050: 410e 8c3d a52c 0f3e 3745 bdbd 132b 083d
00000060: 4bee 8dbc af1c d03d 785e 293e c4f2 0c3e
00000070: ae0d fdbd 755d 0dbe 98c1 e2bd cf39 9abd
00000080: 320f f5bd a1d1 fdbd 7fb7 94bd f689 1dbe
00000090: 75c6 423d 3c2f 053e a5ba b73d a64c 833b
000000a0: 0f40 e33c 752e 93bd 6012 cc3d 2315 03be
000000b0: f7ed 2bbd 1a7e 1ebe 49a2 a63d 5b68 1b3e
000000c0: 46ef 303e 169d ad3d c0a4 13be be88 1f3e
000000d0: 4860 8abd 6658 573c 9705 f7bd e1aa 093e
000000e0: a4de ea3d d388 01be 3e0f 223e 1118 e63d
000000f0: 79bd 3a3e 8c4a 53bd 0b64 343d a36c 843d
00000100: 8df3 513e fa52 abbe d2a2 6ebe 95d8 833e
00000110: f75e 41be 1cc6 a0bd c53d 1ebe 8dda c0bb
00000120: a336 2dbe dc60 0fbb dfa8 86be f20f 8fbe
00000130: fe45 9f3e a609 aebe 69d1 62be 199d 793e
00000140: bf35 5a3e 0ae4 19be 93b3 923e 13ce 94be
00000150: abd7 96be c442 c6bd 02f0 9fbd 976f 92be
00000160: 0bb7 11be f64b af3e c179 e6bd d48a 973e
00000170: 7efc 853d 8800 333d 1e36 b33d 04a1 5b3e
00000180: bf78 1abe ac41 98be 85c8 0f3e ae9a 0e3e
00000190: d16c 0cbe ce9a 843e 1e42 9b3e c5cb 6cbe
000001a0: 6c2a 7b3e 5356 533e 1ba8 343e d979 b2be
000001b0: 5d80 98be 5b84 89be 4643 8f3e 68f5 9b3e
000001c0: cab5 f63b 0349 9c3e 01f0 70bd 3d42 45be
000001d0: b97c 11be 8ab7 933e 6acf 293e 5585 4e3e
000001e0: 067e 99bd c8fb 6c3d 4ea9 a03e b136 893d
000001f0: 66b3 943d 5351 7cbe c4d9 92be 7f36 963d
00000200: 6c01 5a3e 341a 8b3d 46ed 5b3e bcd7 85be
00000210: f724 8a3e 39a9 1b3e d765 6bbe 4ee8 8abe
00000220: 04dc 75be bdf3 603e 1ddd f9bc 29bd f33d
00000230: 0c0b 66be d5c9 863e 9ca3 763e 41cc 85be
00000240: 9e72 1c3e 7a35 733e 4ea7 0ebd d5ed f1bc
00000250: a36d edbd e917 85be 34f2 2a3e 85f7 47bd
00000260: 7a90 bc3c 2a81 5fbe 113b 98be f6fc 8fbe
00000270: 9b5a 7d3e 18bb 6b3e 991e 723e bcba 313e
00000280: a238 5f3e 07b3 8a3e 3ebb 173e 1ea6 8b3e
00000290: 7fef 06be 0a62 84be 1c58 6dbe 43dc f63b
000002a0: d7f9 9cbd 7c7e 333e 3ae9 35be cf3a 803e
000002b0: ae6d f63d 9620 883e 19c9 4abe 0edb 8abe
000002c0: 60d6 9abe acfb 5cbe e4f7 973e c2e7 71be
000002d0: afcd 083e 8621 1cbd ec7f 693e 2425 87be
000002e0: 2a19 48be ff6a 5d3e 3084 9cbe 15ae 71be
000002f0: b145 8ebe 7afd e83d 5067 d8bd f5a5 00be
00000300: 0e46 8dbe 40ee a03e b5d3 fb3d e5d7 05be
00000310: bdad 26be 960e c5bd 2f4b 8e3e 8893 913e
00000320: 347d 993e 545d 65be 2237 883e 10d7 7c3e
00000330: f319 65be 1f68 643e 922c eb3c 0f9a b9bd
00000340: 8759 89be 9fba 0fbe d44e 8dbe b7f7 963e
00000350: 4b37 9d3e 90bc 903e 2d63 f9bd 92cd 933e
00000360: ec5c 0b3e 01d7 89be ac95 953e cada 41be
00000370: 58df 90be b87f 8cbe e5bd 58be cbc6 8abe
00000380: 7f3f e9bd 00cb 4f3e 1dd7 6fbe 5e4b 98be
00000390: 6da3 723e e57e 9ebd 1ef6 53be 40bb 6b3e
000003a0: 0a4a 69be d434 83be df4e fb3b 8f51 623e
000003b0: c7ec 863e ec55 a73c 9fc8 67be b2ee 26be
000003c0: b335 8e3e dc82 66be 8ce1 81be 8d4b 8e3e
000003d0: f764 513d d5bf 8ebe 2fff 8abe 9324 b0bc
000003e0: 7251 793e 4742 7bbe 07fd 20be 4906 293e
000003f0: d5c9 893e c914 663e 06e6 9d3e 33da 553d

actor.4.bias f4 [4]
0.004915699 -0.044649564 0.054991372 -0.044105332
00000000: df13 a13b 76e2 36bd a23e 613d cba7 34bd
