HFDRL_UNIT8/models/Archived/LunarLander-v3__ppo__1__1768735566__u80.pt (torch, 44735 bytes, 11 tensors)

critic.0.weight f4 [64, 8]
00000000: 50b5 2abe 595c 303d f77c 9b3c 119e 443d
00000010: c106 90bd 01db 083e cf3e 92be 7712 103e
00000020: de76 2dbe ba7b 453e ea94 863e 222a f4bd
00000030: 3d20 20be 9383 54be 2dce 293e 3d58 75bd
00000040: a29e 353d 1c15 57be 37a7 3a3e 2b1b 4e3d
00000050: f14e 283d 17fc e23d 14d2 3b3e 5524 083f
00000060: 704b 55be 96cf 893d 7330 c4bc d710 e4be
00000070: 499c 903e 79ae 373b c460 88be 17cd 24be
00000080: 317f a3bb 9e97 08be c7bb 573e 35c3 c9bb
00000090: 6ac7 ccbc 7dbf c7bd 2ae2 173d b2bb b5be
000000a0: 35ab 3cbd 7419 71be 642d 69bd e536 f0bd
000000b0: a32a 41bd 4972 923e c3de 00be 2980 15be
000000c0: 6e7a 9dbe a171 1fbe ef1d a8bc 9551 e7bc
000000d0: 698d cfbd afd9 65be a5a7 d93e 9869 2b3e
000000e0: e62d 98bd 7ff8 e53e 76a9 113e 6282 f33d
000000f0: 657c a1bd 89b5 103e 7e7e 883e 8c15 c03e
00000100: efaa 1d3e c443 81bd 43b5 623e eace 14be
00000110: 418b a53e 167a 93bc 7409 cfbc d36d e6bc
00000120: 9368 9e3a a5de 333e e4ca 973e 21e6 86be
00000130: b5a4 2f3e 52ca 6d3d 8178 743e c542 063f
00000140: c762 9fbd cbc3 cdbe 801a 373e eff4 9c3e
00000150: eae5 83bc 3043 883e 50d1 1fbc b7a4 21be
00000160: 77f6 9fbd 576e bb3e bbfe bbbd c228 9a3d
00000170: d60b a9bd 8c7c 513e 1ad0 8bbe 44a8 dcbb
00000180: 3530 5cbc 9135 803e 28c2 a33d 4dc3 abbd
00000190: 593b 94bd 0ee5 9a3c 1283 fabd 06df e83d
000001a0: 8118 26bd 3dd6 eebd 463f 583e 543c 983e
000001b0: 2dca ccbc 37cc 033d 0b58 6abe 190d 263e
000001c0: 2a65 c6bd 1505 24bd d4e7 2a3e 8ca6 3a3e
000001d0: 3d53 c63d 6893 563c ea92 e13c 9426 363d
000001e0: d0a3 87bd ca4e 983d 55d1 78be a783 2fbe
000001f0: 6dd3 eebb 0642 213e fd04 5f3d 4c7f bebd
00000200: 9228 043e cfa2 8b3d 0a0c 3c3d e0ed cebe
00000210: 38a6 ddbd 0f81 5fbd da3c eabd d825 5c3e
00000220: 48ff c6bd c268 013e 3573 a33e ede3 cf3d
00000230: ae43 863e 5ba7 4dbe 8b0b 053c bd89 3c3e
00000240: e4e8 a9be d30a 1cbe 18fa 833e e52f 1f3e
00000250: 2862 4cbe 817c e23d 7b46 1abc 4c91 a1bd
00000260: 8802 7ebd 2002 873e 8f23 95bd 6cae cebd
00000270: 9389 c33c 5108 3a3e f71a adbe e338 4fbe
00000280: 4470 4e3e 4c21 3dbc 8211 203e d0db c53d
00000290: 1f96 883d fff9 89bd 9318 803b e9bc f73c
000002a0: 7448 f03d d7b3 cebc 8cfc 45be 4839 55be
000002b0: a1fe 7ebd de47 a83d 749c 43be eb4f b1bd
000002c0: 166d 423e 05f3 d73a 8346 c63d cd3c 663e
000002d0: fb3a 34be 85d6 1cbe 0753 01be a033 61be
000002e0: 0419 543e 19f2 803d 20d3 f2bd 74c5 ae3d
000002f0: 0b7f 173e 53ee dcbd 1198 8a3c 5481 8fbe
00000300: 0b02 9fbd 988d 283d db11 8a3d 9d0d c6bd
00000310: 5170 4f3d d0b2 5abe 081f 16bf 88b1 17be
00000320: 4326 b3bd 85a8 8c3e e790 903c ccab b53d
00000330: 92cd 623d 9970 78be 77c9 ae3d 59af 90bd
00000340: ce73 b9bd 826f 2b3d 2d8a a23d 3713 bcbc
00000350: f18b 743e 3aea 0cbe bd3d dd3d aca2 273e
00000360: 5d39 28bd 558b b8bd 908f b6bb 4402 993c
00000370: 981b 79be afb9 513e 7fc4 f43d fb99 9d3e
00000380: 4ede 8d3e 8573 c0bb 04b1 94be 47fa 23bb
00000390: 7044 f6bd d91a 6fbb 9112 c1be 514b c3bd
000003a0: ac10 cb3d 4722 d53e 06f7 5bbe ba70 a03e
000003b0: c470 4bbe 2c75 813d d012 4e3c b49c dbbe
000003c0: a0c5 8abe 20d2 aabd ea59 29be 2899 91bc
000003d0: 5582 5b3e 8ed6 d4bd 5911 d43d bd48 b73e
000003e0: 48fe d2bd e9d1 ec3e 7497 203e f7f6 7abb
000003f0: c7fe 673e f960 113e 0567 25be 5612 89be
-0.16670728 0.04305682 0.018980486 0.048002306 -0.07032538 0.13364793 -0.28563544 0.14069544
-0.16939875 0.19285479 0.26285487 -0.11922099 -0.15637298 -0.20753317 0.16582556 -0.059898604
0.044340737 -0.21004146 0.1822785 0.05031888 0.04109091 0.110832386 0.18341857 0.5318044
-0.20829558 0.06729047 -0.023948884 -0.44544098 0.28244236 0.0028027578 -0.26636326 -0.1609386
-0.0049895276 -0.13339087 0.21067725 -0.0061573037 -0.024997432 -0.0975332 0.03708092 -0.35494763
-0.046061713 -0.23544866 -0.056928053 -0.1172922 -0.047159802 0.28602818 -0.12584977 -0.1459967
-0.3075747 -0.1557069 -0.020522086 -0.028237144 -0.10134394 -0.22446321 0.42510715 0.167395
-0.074306294 0.4491615 0.142248 0.11890103 -0.078850545 0.1413175 0.26659006 0.3751644
0.15397237 -0.063117534 0.22139458 -0.14532056 0.32332805 -0.018002551 -0.025273062 -0.02812854
0.0012085609 0.17565401 0.2964698 -0.2634745 0.17152674 0.058054276 0.23874094 0.5244563
-0.07782512 -0.4018844 0.17881203 0.3065562 -0.016100843 0.2661376 -0.009754494 -0.1578549
-0.07810681 0.3660762 -0.09179445 0.07527305 -0.08254211 0.20457667 -0.27307206 -0.006733926
-0.013439228 0.25040868 0.07996017 -0.0838686 -0.07237882 0.01890805 -0.12232031 0.11370663
-0.040550712 -0.116619565 0.21117887 0.29733527 -0.024998749 0.032177176 -0.22885148 0.16215934
-0.09687264 -0.04004391 0.16689998 0.18227595 0.09683845 0.013096668 0.027535874 0.044470385
-0.06623042 0.07436903 -0.24298604 -0.17140065 -0.0072883875 0.15747842 0.054448117 -0.09301624
0.12906101 0.06818163 0.04590992 -0.4041586 -0.10822719 -0.05456644 -0.11437388 0.21498811
-0.0971666 0.12637618 0.31923833 0.10150895 0.2622351 -0.20083372 0.008120428 0.18411918
-0.33185494 -0.15238504 0.25776744 0.15545614 -0.19959319 0.110589035 -0.009416218 -0.07889041
-0.062014133 0.2636881 -0.07282173 -0.10091862 0.023869311 0.18167235 -0.33809635 -0.20236544
0.20160013 -0.011543583 0.15631679 0.096610665 0.06669258 -0.06737136 0.0039091795 0.030241447
0.11732569 -0.025232239 -0.1933462 -0.20822632 -0.06225455 0.082168326 -0.19102651 -0.08657821
0.18986925 0.0016475624 0.09681418 0.22484131 -0.17600624 -0.15316208 -0.12629329 -0.2199235
0.20712668 0.062961765 -0.11856675 0.08533755 0.14794557 -0.10787644 0.016918214 -0.28028357
-0.077640615 0.04115066 0.06741687 -0.09670565 0.050644223 -0.21357274 -0.586411 -0.14813817
-0.08747532 0.2747232 0.01764722 0.08870658 0.05537183 -0.24261703 0.0853452 -0.07064695
-0.09055291 0.04185439 0.07936511 -0.022958381 0.23881508 -0.13761225 0.10802791 0.16370648
-0.04107033 -0.090109505 -0.005571313 0.018677838 -0.24326932 0.20480989 0.11951541 0.3078154
0.27708668 -0.005873146 -0.29041302 -0.0025021003 -0.12024772 -0.0036484508 -0.37709478 -0.0953585
0.09915289 0.41627714 -0.2148095 0.31336004 -0.19867235 0.06321177 0.012577727 -0.42892992
-0.271039 -0.083408594 -0.16538206 -0.017773226 0.21436436 -0.103924856 0.10354871 0.35797682
-0.103024065 0.462539 0.15682775 -0.0038294175 0.22655784 0.14197148 -0.1615258 -0.26771802

critic.0.bias f4 [64]
00000000: 25ad c1bd f184 c83d 107c 803d 8400 88bd
00000010: 12f0 f2bd ebca 6a3c b8aa 7cbd 5a29 cf3d
00000020: 2759 a6bd f7bd cd3d e8e9 043c bfc8 84bd
00000030: 6742 d93d 3ecf ac3d 0937 6b3d fd95 a0bd
00000040: 6e2b ca3d 449e 9fbc 19e8 cfbd 634f 84bd
00000050: f811 a3bd 1530 653d 4d8a 7abd e481 cebd
00000060: 267a 943c 24bb 793c 0dfd c93d dc33 a03d
00000070: cb29 96bd acfc 4abd 57d8 983d aa9b 0bbd
00000080: adef a7bd 1fcd acbd 180a dc3d 8b17 c73d
00000090: a453 c8bd db6f c5bd f4fa c4bd a66c a53d
000000a0: 6cef 053d 72a4 b83d 2198 c3bd c7c9 043c
000000b0: 62e8 d8bd 6a9c 73bc 80eb 55bd c1cb bdbd
000000c0: 7feb afbd 5c05 65bd 6c0f adbd b455 a43d
000000d0: 944a abbd 32cc 44bc 0ef2 90bd 059f b0bd
000000e0: ee8c ccbd 03c5 cc3c f1c8 e4bd f21e d2bb
000000f0: 05a4 d23c a157 a13d 2cc0 e6bd aba6 b9bd
-0.09456853 0.097909816 0.06273663 -0.06640723 -0.11862196 0.014330606 -0.061686248 0.10115309
-0.08122473 0.100459985 0.008112408 -0.06483602 0.10608368 0.08437966 0.057425532 -0.07841108
0.09871565 -0.019484647 -0.10151691 -0.06460454 -0.07962412 0.055954058 -0.06116705 -0.100833684
0.018124651 0.015242372 0.09862719 0.078223914 -0.0733219 -0.049557373 0.074631386 -0.034084
-0.082000114 -0.08437561 0.10744113 0.09721287 -0.09781578 -0.09640475 -0.09618178 0.08077364
0.032699034 0.090157405 -0.09550501 0.008104748 -0.105911985 -0.014868835 -0.052226543 -0.092673786
-0.08589839 -0.055913314 -0.08450207 0.08024159 -0.08363834 -0.012011575 -0.07077418 -0.086240806
-0.09987818 0.024996286 -0.11171139 -0.0064123804 0.025712976 0.07878042 -0.112671226 -0.090649925

critic.2.weight f4 [64, 64]
00000000: 552d 1e3e e823 0fbf c135 00be 0b9f 3f3e
00000010: 28f8 81bb 745e a3bd d967 2b3e 581b b5be
00000020: de59 2abd e53e 953e 95fc 11be b517 c5bd
00000030: a99b b7bd fff4 1abe 441f 83be 39be 1d3e
00000040: 9077 ac3c 60ad 17be 4d59 2f3d 116b ea3d
00000050: 1e41 eebd de76 c33d a111 263e f655 9d3d
00000060: 0c73 8a3e fb15 7f3d 8c7a 573e f537 623d
00000070: 117b 8ebb 2665 b53d 6404 093d 9683 8a3d
00000080: e535 b7bd 902c 383e 6aeb 3f3e 2582 a1bd
00000090: 56f7 a4be ea92 88be 2075 a7bd fe3e 02bf
000000a0: 3639 413e 44f6 50be 1ca7 453d e7ad a8bd
000000b0: 5e98 7cbe 37e7 b33d 8958 453d 8627 933e
000000c0: 9bca d13c c58b 223e 42f4 59bd 8792 8cbd
000000d0: f732 8c3d 8e0e 3abd f569 1a3c 374f 153e
000000e0: 539b 1a3e 64fa 41bd deaa 9e3d 5e56 a2bc
000000f0: 6bb6 4f3e 40ef 933e ad20 79be de50 6e3d
00000100: 9070 813e 136f 073e 11df c93b 07f9 ef3c
00000110: 5fc4 97bb 6ff7 32be 431a e33d 7dfc 82be
00000120: a91f cdbc fc7d 99be a051 613c 7d05 d8bd
00000130: dba8 cb3e 136f 933e 3c3a f3bd 398e 553e
00000140: e5cb 8cbd a665 8dbe 267f d53e 4ca8 16be
00000150: 3b45 903d 226a 523d 5f4e f439 4471 883d
00000160: 6c15 17bd 1310 fa3d 4020 c6bd c0f6 e1bc
00000170: b8ae 623e 0c2e 8f3e c191 b1bd 6541 2a3e
00000180: ef8f 383e 678e c43d 4c21 c8bd 1399 34be
00000190: 2d1c cf3c bc98 b4bd 6591 d2bd aebf 533e
000001a0: 7071 4c3d de2d 89bd 1f8e 6c3e 7fe0 68bd
000001b0: 238a 0a3e b2c8 023e 53c2 913e fc59 cf3b
000001c0: ab93 c33e b4f6 f7bd 192a 153d 678d d5bd
000001d0: 473d 943d 4500 96bd d0ce 84bd 95ec c7bd
000001e0: 04e9 b33e 73f4 47be 0472 583e 669b 363e
000001f0: cd7d d23d c213 023d 52ea 7bbe cc3b 2ebc
00000200: a8f1 cdbd 44e1 2c3e 4a2f 493e 156b a73d
00000210: f842 8a3e 79b8 90bd 6502 953d fd3e 793e
00000220: f1eb 82be 5891 c23e d14d 52be c627 5cbe
00000230: 4c98 43bd bdc8 803e 1294 2a3e 84bb 75be
00000240: 56cc aebe 1b01 bf3b d79b 4f3d e7cd a3bd
00000250: 6aa0 0dbe 4433 9bbd 7d9c 19be 24b1 073c
00000260: 23f6 02be 1cb0 b63d 7c50 e03e 3636 313e
00000270: e22e 1c3d 047d ccbe af6f 68be a389 9ebe
00000280: cf7a 9e3e bc2e 9b3d 0c71 27bd d6eb 023e
00000290: a65c c6bd b3a1 ecbd 1324 d6bb 9680 203e
000002a0: 0e90 043e 236a 99be d039 7c3e aa2b 3b3d
000002b0: 1803 863c 860f 1dbe ed7b ec3e 9b32 853d
000002c0: def6 383d 8919 3cbb 8000 1a3c 5eff 40bb
000002d0: a8b1 febd 88db b23d d983 383d 4365 abbd
000002e0: 24ee a4be 90af 68bc 7402 353d d9b1 37be
000002f0: 6799 8c3c 94fe f7bb c712 cbbd 1156 e6bc
00000300: 6f56 793e 823a 283e 333d 1dbe a3e4 573e
00000310: 02b2 d03c 0101 06be b92a 13bf e165 07be
00000320: ec09 863d fef3 c33c 8cec f43d 1eba 83ba
00000330: fd82 a1bd 83b6 5a3e b79c 02be 852f 513e
00000340: fec5 c0bd 0910 4d3d 2646 8abd 2f74 f43d
00000350: 3ff5 40be ddd1 e03d 1e2e d33e ddc2 2d3e
00000360: 4548 42be 2f67 95bd e994 88be d385 12be
00000370: 79ee cbbd d77d dcbe c5ee 653e 8961 0c3e
00000380: 5d02 cc3c f37b 4c3e 2ce2 80bd 6b87 2bbe
00000390: 64fd e5bd 37ec 91be 5a3d 253e 558d 9abd
000003a0: e940 c13d 3793 4bbd 1d20 253e 1dc0 f53d
000003b0: a641 03be 551f ad3e 05b2 11be 24c7 8b3d
000003c0: 9d91 6f3e 6019 113c f4b4 45be 3893 d2bd
000003d0: a0eb 123e 11c8 8fbd b456 33bd 291d 91be
000003e0: 496b 133e 25ce 19be 91f6 253e 7ae3 fc3d
000003f0: f1ec 63be 4137 89be f2ef 26be 6ce3 10bb
0.1544698 -0.55914164 -0.12520505 0.18713014 -0.00396635 -0.07977 0.16738833 -0.35372424
-0.04158961 0.29149547 -0.14256509 -0.096236624 -0.08965237 -0.15132521 -0.2560979 0.15404595
0.021053106 -0.14812231 0.042809773 0.114462025 -0.11633514 0.095441565 0.16217662 0.076824114
0.270409 0.06227682 0.21042842 0.055229146 -0.0043481668 0.08857183 0.033451453 0.06763379
-0.089458264 0.17985749 0.18742147 -0.07886151 -0.32219952 -0.26674587 -0.08176637 -0.5087737
0.1886948 -0.20406443 0.04825507 -0.08236294 -0.24667498 0.08784335 0.048180137 0.2874109
0.025609305 0.1587363 -0.053211458 -0.068638854 0.06845658 -0.045424037 0.009424676 0.14581
0.15098314 -0.04735793 0.07747434 -0.019816574 0.2028443 0.2889347 -0.24328871 0.05818259
0.2528119 0.13225965 0.006160625 0.02929355 -0.0046315636 -0.17477201 0.110889934 -0.25583258
-0.02503951 -0.2997893 0.013752371 -0.10547922 0.39777264 0.2879568 -0.11876342 0.20855035
-0.06874827 -0.27616614 0.4169857 -0.14712638 0.07044455 0.051370747 0.00046597698 0.06662229
-0.036885664 0.12210097 -0.0967412 -0.02758348 0.22136962 0.27964818 -0.086703785 0.16626509
0.18023656 0.095974736 -0.09771976 -0.17636518 0.02528199 -0.08818194 -0.10281638 0.20678589
0.04991287 -0.066982016 0.2310109 -0.05685472 0.13529257 0.12771872 0.2846857 0.0063278656
0.381986 -0.12107602 0.0364171 -0.10427361 0.0723825 -0.0732427 -0.06484759 -0.09761921
0.35138714 -0.19526844 0.21137244 0.17832717 0.10277901 0.031757124 -0.24601105 -0.010634374
-0.10055858 0.16882807 0.19646946 0.08174721 0.27004218 -0.07066435 0.07275847 0.24340434
-0.25570634 0.38001513 -0.20537497 -0.21499547 -0.047752663 0.2515315 0.16658047 -0.23997313
-0.3414027 0.005828989 0.05068573 -0.07998257 -0.13830724 -0.075781375 -0.15001102 0.00828198
-0.12789206 0.08920309 0.43811405 0.17305836 0.03813065 -0.3993913 -0.22698854 -0.30964383
0.3095307 0.07577273 -0.040879294 0.12785277 -0.0968564 -0.11554279 -0.006535062 0.15674052
0.12945578 -0.29963788 0.24631429 0.04569594 0.016358897 -0.15337953 0.46188298 0.06503793
0.045157306 -0.0028701744 0.009399533 -0.0029449086 -0.12436229 0.087332785 0.045047615 -0.083689235
-0.32212937 -0.014202014 0.044191793 -0.17938937 0.017162992 -0.00756819 -0.09915691 -0.028117212
0.24349378 0.16428569 -0.15355377 0.21083312 0.025475506 -0.1308632 -0.57487065 -0.13222457
0.06544861 0.023920055 0.1195918 -0.0010049974 -0.07886312 0.21358685 -0.12755094 0.20428284
-0.09412764 0.05006412 -0.06751661 0.11936223 -0.18843554 0.10977528 0.41246122 0.16968866
-0.18972881 -0.07295071 -0.2667611 -0.14308862 -0.099575944 -0.43064758 0.22454365 0.13709082
0.02490347 0.19969158 -0.06293139 -0.16750877 -0.11229971 -0.2850053 0.16136685 -0.07546488
0.09436209 -0.049700942 0.16125531 0.11999533 -0.12818012 0.33812967 -0.14228065 0.068250924
0.23395391 0.0088561475 -0.1930731 -0.10281986 0.14347696 -0.070205815 -0.04378386 -0.2834256
0.14396395 -0.15020044 0.16207339 0.12348075 -0.22258355 -0.26799968 -0.1630247 -0.002210821

critic.2.bias f4 [64]
00000000: 24ce 97bd 290c 6bbd ce32 a83d e660 d5bd
00000010: fa3e f5bd b0b5 98bd 83de 943d 0b08 f5bd
00000020: 7a9d d4bd a298 c43d a320 a0bd e620 0fbd
00000030: 3a67 9bbd 7d6f b7bd 50dd bbbd 2e50 883d
00000040: c763 a0bd f592 9ebd 73ec 92bd 620e b13c
00000050: a9c1 c0bd 23f0 873d e309 a3bd a5fa 5abd
00000060: 65ee 26bd 5b86 9d3d a098 923d 8a36 883d
00000070: bdf1 da3d 7907 cabd 1cd6 8f3d 9b08 d1bd
00000080: 2e87 92bd 9a36 a03d a8a9 ca3d 0d59 afbd
00000090: d611 d23d 8345 993d 4478 94bd 993f b4bd
000000a0: 8ac3 09be a073 b5bd 7bf9 b23d f86d 98bd
000000b0: 6e8e e53d 2464 cd3d c32e 953d a21f 95bd
000000c0: 139f f63d 09bd 213d f788 a53d bbd5 b73d
000000d0: 24dd ab3d dfbc 823d 2d96 a0bd 0891 8d3d
000000e0: c35b d33d c22d 96bd e48d 563d fef5 963d
000000f0: 2f61 b9bd 826e 9c3d 5963 923d c541 b33d
-0.07412365 -0.057384644 0.08212815 -0.104188725 -0.119749025 -0.07456529 0.07269003 -0.11964425
-0.10381599 0.09599425 -0.07818725 -0.034943484 -0.07588048 -0.089568116 -0.091730714 0.06655918
-0.07831531 -0.077428736 -0.07174005 0.021613304 -0.09411938 0.06637599 -0.0796087 -0.05346169
-0.040754694 0.07691642 0.07158017 0.066510275 0.10690639 -0.098647065 0.0702326 -0.102067195
-0.0715469 0.078229144 0.098956406 -0.08561907 0.10257308 0.074839614 -0.07249501 -0.08801193
-0.13453498 -0.08859944 0.08738991 -0.0744285 0.11208807 0.10028866 0.0728431 -0.07281424
0.1204206 0.03948692 0.080827646 0.08976313 0.083917886 0.063836806 -0.07841144 0.06912428
0.103202365 -0.07332946 0.05238141 0.07371138 -0.090517394 0.07638265 0.07147855 0.08752779

critic.4.weight f4 [1, 64]
00000000: b92c 0c3e 1dc1 043e a7f3 e9bd fd44 b83d
00000010: bc71 9e3d 8b9b 9c3e 870f bdbd 0972 8c3d
00000020: 40aa 953d 13fa bfbd 52d4 773e 7567 a13d
00000030: ddea ca3d f998 f23d 44c9 493e ee45 b6bd
00000040: 625f 063e 1ab8 463e 646f fc3d 920d 20bd
00000050: 1c32 583e 3ec9 68bd fc44 923d 0cad 7c3d
00000060: 42a5 55bd 531c 8bbe 5093 60be 4231 b4be
00000070: cc57 08be 1d3b 2e3e 9b4e 67be 43dc 073e
00000080: cffb 993e 2cad e6bd 1b7f cbbd aece 413e
00000090: 9495 4cbe 6723 9fbe 4284 353e 88e6 4a3e
000000a0: 0f7e 443d dd49 863e 7dc6 04be 3097 443e
000000b0: c913 71bd 73b3 1ebd 2964 89be b265 e33d
000000c0: 4a9a 92bd 5784 a43a 42a1 23be 62d3 90be
000000d0: 935c e6bd 8f78 7fbd ece2 283e 9554 a5be
000000e0: cb22 22be 24b5 243e 5137 3abd 306f 48be
000000f0: 21e8 2f3e dae2 0ebd 248e a5be 5c87 e4be
0.13688935 0.12964292 -0.11423426 0.089975335 0.07736537 0.3058742 -0.09231477 0.06857688
0.07307863 -0.0937387 0.24202088 0.07881061 0.09908078 0.118455835 0.19705683 -0.08900057
0.13122323 0.19406167 0.123259336 -0.03907544 0.21112865 -0.056832545 0.07142064 0.061688468
-0.052159555 -0.27170047 -0.21931195 -0.3519383 -0.13314742 0.17014737 -0.2258858 0.13267617
0.30074927 -0.11263499 -0.09936353 0.18926498 -0.19978935 -0.31081697 0.17726234 0.19814503
0.04797178 0.26228228 -0.12966342 0.19198298 -0.05885676 -0.038745355 -0.2683423 0.11103381
-0.071583346 0.0012551647 -0.15979484 -0.28286272 -0.11248126 -0.062370833 0.16492814 -0.32291093
-0.15833585 0.16084725 -0.04546291 -0.19573665 0.17178394 -0.03488431 -0.32335007 -0.4463452

actor.0.weight f4 [64, 8]
00000000: b8af 68bd dd4e c43c 71ee 723e 8136 95bd
00000010: f09e 0ebf 3144 0ebe fcf4 953d 8f60 523e
00000020: c9d3 71be adcf bc3d 0d5b b3bd 7a80 093f
00000030: 3322 3f3e e58d abbd 3c6c b6bd 345f 1a3e
00000040: c7f8 a03b 9b4a 8cbe 4f6a 80bd 37ad 01bf
00000050: 2436 933e a553 2bbd b0e2 b5be e04b 90be
00000060: 62e7 9cbd 1bd3 cebc c46a 65be 682a 71bd
00000070: 5bac b63e 7af7 edbd 8fc1 46be 7a26 75be
00000080: 7231 023e 8519 3ebd a208 00be b4e2 0ebe
00000090: 2a81 3e3e 2c99 013e 33bd 393e 6f3d 9cbe
000000a0: d72e d4bd f4b6 86be 9e63 893d fc77 a43e
000000b0: e33b 8fbe 5718 9e3d 61c7 723d 20e3 c03d
000000c0: 2465 a9be ea95 9e39 d696 60bd 6690 173d
000000d0: 6a65 48be f64e 0abb d6b4 223e cedd a9be
000000e0: 9d4e e3bd 4f53 57be f724 863e fd25 c93e
000000f0: b3b4 17bf 2556 f0be 5a69 d83d 7813 263e
00000100: 1dbc 5abe 96dc 1e3e d9e9 fbbe 07b1 abbe
00000110: f0b2 a53e 9d42 9d3e b6db 0bbf 3c4c bc3d
00000120: 7a7c 00be 1cdb d93c 1cbc a03c 7edc 0c3e
00000130: cdb9 84be 89f0 a3be 985b e3bd 9c86 0f3e
00000140: c8b3 85bd 9e62 883d 3106 fa3c d693 90bd
00000150: 9185 b8be b1f8 453d e7f9 843e a500 1e3e
00000160: 1ea2 e43c b5cb acbd 08a7 283d 4358 123c
00000170: e1bc d8be 4d31 7dbe e2c0 013e a34a 3bbe
00000180: ad74 4bbe 792c d5bd a263 84be bfd2 69be
00000190: c0a5 703e 5ac7 b13e 5b62 15bd 3875 04be
000001a0: 4a6a a7be ca4e a33e d981 413d 5489 37bc
000001b0: 98e6 013d bd4a 98bd b891 7b3e a692 b73c
000001c0: 459b 02be 8015 3fbe 8162 cc3e 8753 dbbe
000001d0: 993e 6ebe f55b a8bc d756 a63c efd3 043d
000001e0: 4bcf 33be 35fd c63d e477 b13d 1090 fabd
000001f0: cd03 70be 5b9b a4bd d494 a5bd 7dc7 be3d
00000200: e6a0 93be 251f 8dbd c6ef 2a3e e4ba e93e
00000210: 480d 59be 3f92 a9be c180 833c b29f c33d
00000220: dbc4 333e 7738 d03d 0d18 28be 9a09 80be
00000230: 9c1a db3c 6b04 aebb 3b2f 233e 0964 42be
00000240: 33b1 293d d301 b13d 871b a0be 5721 ea3d
00000250: c418 853e 04c2 f23d 4fd1 db3c 3e94 d83c
00000260: a47b 183e 0672 c3bc 46d3 6a3e 034a c1bd
00000270: 1905 f9be 2fab 9fbe c784 95be f394 13be
00000280: 52a1 14bd 7bdc 24be b4bf 54be 7180 81bc
00000290: 3f2c 75bc fa22 3a3e 6306 5d3d 157e 3e3e
000002a0: d708 d63d d8a5 a33c 550f e83d 4513 283e
000002b0: 8bf5 c0be 99ea b2be 6534 393d 48c4 9d3d
000002c0: f9d9 db3c 2166 1e3e 9bb8 31be b470 113f
000002d0: 0943 c83e cac8 883e 4852 d43d dcd7 5abc
000002e0: a934 8e3e d703 3a3e f801 3d3e e4c2 b6be
000002f0: a461 dc3e 82c4 293e ad6c 89be aee2 1ebd
00000300: a93f 97be 9873 dd3c 956a bfbd 6d4b 5a3e
00000310: 6385 25be 3ece 84be 5f2d 3c3d 66d9 9c3d
00000320: 213e 05bd 1b24 a53d 0cca fdbd aabd c8be
00000330: 550d 833c 828f 823e ffea 3fbe 6558 2f3d
00000340: e9ac ae3d eed0 793c f70c 103f 92d8 253e
00000350: d2b7 55be 92c1 3abc 350b 4abe f951 873e
00000360: 222b de3d 2ec8 21be 19b7 cebd bdda aebe
00000370: becd d63e 1c04 e13e b83a 823d def6 c43d
00000380: b61d 953c 621e 75be eb0a cabd a593 26be
00000390: 4807 033f a97f 3fbc 342f 30be 488c 04bd
000003a0: 3ab2 f73d 14b9 64bd bd9d c03c d459 33bf
000003b0: e280 19be c967 0dbf ffce c3bd 1179 bcbd
000003c0: 71b7 aebd ad42 19bd cbdd 53bd 2740 ef3e
000003d0: ba7d c43e fe72 103e 7118 40bc 45d0 35bd
000003e0: 6f3a e03d d652 a9bc 8ea4 43bd e971 a23e
000003f0: 4d9f 513e 1eb4 0f3c 819d e0bc 41cf 6abe
-0.056808203 0.023963386 0.2372377 -0.072857864 -0.5571127 -0.138932 0.07322118 0.20544647
-0.23615946 0.092192985 -0.08757601 0.53711665 0.1866539 -0.083766736 -0.08907363 0.1507538
0.004912469 -0.2740067 -0.06270277 -0.5065493 0.28752244 -0.041827817 -0.3552451 -0.28182888
-0.0766132 -0.025247147 -0.22404009 -0.058878332 0.35678372 -0.11619468 -0.19409774 -0.23940459
0.12714174 -0.046411056 -0.12503293 -0.13953668 0.1860396 0.12656087 0.1813858 -0.3051562
-0.103604965 -0.26311457 0.067084536 0.3212279 -0.27975377 0.07719486 0.059272174 0.09418321
-0.33084977 0.00030247803 -0.05483135 0.037002943 -0.19569936 -0.0021104193 0.15889296 -0.33177036
-0.11098979 -0.21027873 0.26200077 0.39286795 -0.592601 -0.46940723 0.10566969 0.16218364
-0.21360822 0.15513834 -0.4920185 -0.335335 0.3236308 0.30714884 -0.5463213 0.09194228
-0.12547484 0.026593737 0.019620948 0.13755986 -0.25923005 -0.3201945 -0.111014545 0.14016193
-0.06528431 0.06659435 0.03052053 -0.070594475 -0.36039403 0.048332874 0.2597191 0.15429933
0.027909335 -0.084372915 0.04117492 0.008932176 -0.42331603 -0.24725838 0.12671235 -0.1829019
-0.19868727 -0.10408873 -0.25857264 -0.228343 0.23500729 0.34722406 -0.036470752 -0.1293534
-0.3269828 0.3189605 0.047242973 -0.011202175 0.031714052 -0.0743613 0.24567306 0.022408795
-0.12754543 -0.18660545 0.39918903 -0.42837164 -0.23266067 -0.020551661 0.02030508 0.032428678
-0.17559545 0.09716264 0.086654454 -0.12234509 -0.2343895 -0.08037444 -0.08085027 0.09315393
-0.28833693 -0.06890706 0.16693029 0.456504 -0.21196473 -0.3311939 0.016052606 0.09551944
0.17555563 0.1016702 -0.16415425 -0.25007325 0.026746087 -0.0053105853 0.15935986 -0.18983473
0.041428756 0.08642926 -0.31271002 0.1143214 0.25995457 0.11853412 0.026833205 0.026437875
0.14890915 -0.023858082 0.22932157 -0.09437945 -0.48636702 -0.3118529 -0.29202864 -0.14412288
-0.03628666 -0.16099732 -0.20776254 -0.015808316 -0.014964162 0.18177405 0.05396117 0.18602784
0.10450905 0.019976541 0.11331049 0.164136 -0.37687334 -0.3494461 0.045215983 0.07703453
0.026837336 0.15468647 -0.17355578 0.56812596 0.39113644 0.2671569 0.103672564 -0.013357129
0.27774552 0.18165527 0.18457782 -0.35695565 0.43043244 0.16578868 -0.26840726 -0.038790397
-0.29540756 0.027032658 -0.09346501 0.21317835 -0.16164164 -0.259386 0.045941707 0.07658653
-0.032529954 0.08063527 -0.12392053 -0.39207202 0.015997568 0.25500113 -0.18741988 0.04280891
0.08529074 0.015247567 0.5626978 0.16195896 -0.20870903 -0.01139869 -0.19730838 0.26429728
0.10848071 -0.15799019 -0.10093517 -0.3415126 0.41953844 0.43948448 0.06358856 0.09617399
0.018202644 -0.23937371 -0.09865364 -0.1626726 0.51182985 -0.011688151 -0.17205507 -0.032360345
0.12094541 -0.055840567 0.023512715 -0.7005894 -0.14990571 -0.5523649 -0.09560966 -0.09202779
-0.085310824 -0.037417103 -0.05172519 0.46728632 0.38377172 0.14106366 -0.011724577 -0.044388074
0.10948645 -0.020669382 -0.047764353 0.31727532 0.20470925 0.008770971 -0.027418854 -0.22930624

actor.0.bias f4 [64]
00000000: 7302 25bb a36e c8ba c547 743d edcc 963a
00000010: 4a5f 7d3b eb4b 82bc 1c54 0dbc 0890 ff3c
00000020: 3620 f2bc f7b7 543d abee 0bbd 5e6d 5e3c
00000030: 46ad 2d3c 34fb 6d3c 3d8b 3b3d e06a 21bd
00000040: d87f 00bc 26a0 94bc 496a 153c b803 2a3c
00000050: 9179 0a3c 4f57 bbbc 3dd6 4cbd 08b2 ca3b
00000060: 31e9 a93c ef0f da3c 3286 18bc 6d02 313d
00000070: 55fe 3e3d dc18 a33c 7055 09bd fb1e 55bc
00000080: 0f93 643c 3116 0a3c 6bb1 543c 975a 01bd
00000090: e4b9 8e3c ab38 393d c878 b3bb 4e3f 40bc
000000a0: 147a 0abd a41b 4c3c 9878 1e3c ea9c bebc
000000b0: 3c4f 6bbb 8c9e c0bc e4ee cebc 0e2b f5bb
000000c0: 0c2d f73c da1b b2bc 653a 80bc fac6 04bd
000000d0: b32d b13c 80b8 c23c e94c a13b ff34 b6bc
000000e0: f261 4cbd 104c bd3b 18aa 79bc 020d 23bd
000000f0: 2cee d23c 6a3a 3dbc 1a36 103d fb77 44bd
-0.0025178462 -0.0015291761 0.059638757 0.0011505164 0.0038661533 -0.015905341 -0.00862601 0.03119661
-0.029556375 0.051933255 -0.03416316 0.01357588 0.010600394 0.0145252235 0.045787085 -0.039408565
-0.00784298 -0.018142771 0.009119579 0.010376863 0.008451835 -0.02286878 -0.050009 0.0061857738
0.020741077 0.026618926 -0.009309338 0.043215204 0.04662927 0.019909315 -0.033528745 -0.013007875
0.013951077 0.008428142 0.012981753 -0.031580534 0.017422624 0.04522006 -0.0054770447 -0.011733843
-0.03380783 0.012457762 0.0096723065 -0.023268182 -0.0035905382 -0.023513101 -0.025260396 -0.007481939
0.030172847 -0.021741796 -0.015652845 -0.03241632 0.021628236 0.023769617 0.0049224985 -0.022242067
-0.049898095 0.0057768896 -0.015238307 -0.039807327 0.025748335 -0.0115495715 0.035207845 -0.047965985

actor.2.weight f4 [64, 64]
00000000: d77a 783e 4a24 efbc 99f5 733e d4c5 c3be
00000010: 2c3d 013e 3705 ea3d b12c 7abe 9f56 ee3d
00000020: d8ce b63d f994 7abe 6ae1 2c3e 8044 203e
00000030: a0fe d63c cc1d b53d cf7e 5abd 03d6 3e3e
00000040: 78d7 353e 60d7 983e 4052 813d b1ec b53e
00000050: 8e6b c9bd 90ce d13d f834 4bbd 60fa 183c
00000060: cb03 af3d 889f ca3b e1e6 0c3e 5fed 3d3e
00000070: c8a6 14be c76a d13e 15fe a5be 593c febe
00000080: 9cc2 233e cdf1 313e 6202 c43d 4ff8 943e
00000090: 889f e23d fc93 b63d 41da a13e 8702 5e3d
000000a0: 2390 0b3f 1d3d f8bd 1598 3bbe 81e5 3e3e
000000b0: a1ba 6f3e 4efc 053e 8377 34bd 2aba 2cbb
000000c0: f15a b73c fecc 043d 3eeb 4bbd ee81 8dbd
000000d0: 05f7 5fbc 3cf4 793e c473 6a3e a352 f6bd
000000e0: cfa5 a83d ad3a 793e 3e42 1f3c e629 3c3e
000000f0: 6d8b 533e e1a6 0cbf 187a b53e 6bae 8bbe
00000100: cf7a c1bd 397f f8bd 8c08 533e 63d9 a63e
00000110: 0710 423e 03ed 0ebe 3af9 8ebc 959e ddbe
00000120: 792c 2e3c 91cf b83d b655 22be 602f 62be
00000130: 6e71 513e 1e5e 4fbd 2fdd b9be b9ce 7a3e
00000140: 861d b0be 8b3e 05be 04ba c83e ddb9 693d
00000150: 3632 993d c236 52bd e63a 4dbd 6ebb 383e
00000160: c601 82be d419 773e 5bd1 ba3d 7d04 883d
00000170: a51e 3a3c fa04 3a3e b349 873c c773 8b3d
00000180: b5f8 77be 2666 79be 67f1 5f3c 31c3 773e
00000190: 3df7 d0be bb35 5c3e efd4 a03d e572 6fbe
000001a0: 7543 0dbe efba c0bd d7b7 e03e 23db 4ebe
000001b0: cf66 f9be 6821 8abc 1f44 693e 1bec 42bc
000001c0: 98a6 ae3b a97b c0be 5b86 b83d 1f7d 9a3e
000001d0: 8f93 b73d a74c 11bc f1ba 10be 3d0c 12bc
000001e0: 08cd 703e 7257 8d3e ace8 ee3c 036c 4fbe
000001f0: f97a 8fbd 6f21 983e 9699 983e 880f 853e
00000200: da30 12be fde4 1a3d 7d7c ca3d 3581 943e
00000210: 5f93 2dbd ea1d f1bb cf40 72be 4d28 d4bd
00000220: c536 fb3e 0fd5 87bd 6171 073e 50e9 b6be
00000230: 1373 d23e 2c4a a0bd a0ff 383d 5363 8fbc
00000240: cb8e 8c3c 0895 3e3e 185b d3bc 2137 663d
00000250: 32dd ebbc 8bff ba3c ba4e 14be 06e9 663e
00000260: e0fb 3c3d f1c9 733e 0365 6cbe 3288 473d
00000270: bc08 9e3d bcb4 423e 3504 0fbe e968 41be
00000280: f140 003e f7d2 6fbe 6615 923e ae51 c5bd
00000290: 3582 c83d 2f8d 653e 0e76 bfbe 62d7 13bd
000002a0: 6a74 debd ca6c ad3e b848 e83d d23a 89be
000002b0: 8b04 123d 5ace b6bd c6f3 9f3d f475 f93c
000002c0: 5c3b 4f3e 043c f5be 2b67 ce3c 5a8d 82be
000002d0: 5684 ca3d c8d0 abbe b04f d9be e7c5 f9bd
000002e0: 2cad 863e 4746 93be 5b60 623e 49f0 173d
000002f0: 3016 a53e 3e5c f93d 853f 323e 3e88 303e
00000300: fef3 1bbe cab1 0bbd 95d7 b3be 1ece 28be
00000310: ac34 02be 55f1 633e 39f2 88be 9eb3 9f3e
00000320: 1d50 c8be cb38 3bbc 0e3d 93bd b5b1 a73e
00000330: 342e 67be 072a c2be 73fd 0dbd 1d2c c53e
00000340: dd1b c43e 4e1e 1f3e 8868 77be ae5d d13d
00000350: 2345 b4bd 45a9 bb3e 8eac 69bd 70fd fe3d
00000360: b56a c43c cdc9 eebe 4d07 503e 2a2b 23bc
00000370: 36d0 0cbf 91fa b6bc d475 14bd 9261 58bd
00000380: 662d 0cbe 1bd0 e6bc ad4b 32bd 8067 1abc
00000390: c4fb fe3c 60af 413d 5b9a a63c c979 18be
000003a0: 7647 183c e6c2 d5bd 5300 81be c502 1fbe
000003b0: 8b71 0a3d b8ec 8b3e d220 ce3c 90f0 203e
000003c0: 2337 10be c89c 6b3e 84ce 483e 6692 d6bd
000003d0: 92f5 ecbd 4d00 883d e28e e6bd e9f9 3c3d
000003e0: d992 00be 20f2 abbd 803c afbe e430 1e3e
000003f0: 7128 74be 6472 823e a946 c8bb 24b3 843e
0.2426561 -0.029192109 0.23824157 -0.38236868 0.12620991 0.11426776 -0.24431111 0.116376154
0.08926171 -0.24470891 0.16882864 0.1565113 0.026244462 0.08843574 -0.05334359 0.18636326
0.17757976 0.29851818 0.06314516 0.35532144 -0.098349676 0.10244477 -0.04961106 0.009337038
0.08545645 0.0061835684 0.13759948 0.18547581 -0.14516747 0.40901777 -0.32420412 -0.49655417
0.15992206 0.17377396 0.09570767 0.29095694 0.110655844 0.089149445 0.31611827 0.05420163
0.5451681 -0.121210314 -0.18319733 0.18642236 0.23411037 0.13084528 -0.044059288 -0.002635608
0.022382231 0.03242206 -0.04978489 -0.06909548 -0.013669734 0.24409574 0.22895724 -0.120274805
0.082347505 0.2433879 0.009720383 0.18375358 0.20658655 -0.54942137 0.35444713 -0.27281508
-0.09447252 -0.12133641 0.20608729 0.32587728 0.18951426 -0.139576 -0.017452825 -0.4328505
0.01063072 0.09023965 -0.15853009 -0.22088385 0.20453426 -0.050626867 -0.36301562 0.24492921
-0.34397525 -0.1301214 0.3920442 0.05706202 0.0748028 -0.051321752 -0.050104998 0.18040249
-0.25391978 0.24130946 0.09121963 0.06641481 0.011359845 0.18165961 0.016514635 0.06809192
-0.24215968 -0.24355373 0.013668395 0.24195553 -0.40813628 0.21504872 0.07853114 -0.23383673
-0.13795264 -0.09410655 0.4389026 -0.20200782 -0.4871125 -0.016861632 0.22779892 -0.011897112
0.005329918 -0.37594345 0.09010001 0.30173585 0.089636914 -0.008868373 -0.14133812 -0.008914051
0.23515713 0.27605778 0.029163681 -0.20256047 -0.07005877 0.29713008 0.29804677 0.25988412
-0.14276448 0.037816036 0.098870255 0.29004827 -0.042376872 -0.0073583024 -0.23657535 -0.10359249
0.49065223 -0.066324346 0.13226844 -0.35724878 0.4110342 -0.07826647 0.045165658 -0.017503416
0.017157933 0.18611538 -0.025800273 0.05620492 -0.028791998 0.02282693 -0.14483157 0.22549829
0.046138644 0.23807503 -0.23085408 0.04871387 0.0771651 0.19014257 -0.13966449 -0.18887676
0.12524773 -0.2342032 0.2853195 -0.0963472 0.0979046 0.22417139 -0.37394756 -0.036094077
-0.10862048 0.33872062 0.11341995 -0.2680269 0.035648864 -0.08926077 0.07810168 0.030451752
0.20237488 -0.4789735 0.025195679 -0.25498468 0.09888522 -0.33557725 -0.4244361 -0.1219595
0.26303995 -0.28764555 0.22107069 0.03709439 0.3224349 0.12175797 0.17407043 0.17239472
-0.15229794 -0.0341051 -0.35125414 -0.16484877 -0.12715405 0.2226003 -0.267473 0.31191725
-0.39123622 -0.011427115 -0.0718938 0.32752767 -0.22576219 -0.3792269 -0.034665536 0.38510218
0.38302508 0.15538904 -0.2416097 0.10222946 -0.08802249 0.3665258 -0.057049327 0.12450683
0.023976663 -0.46638337 0.20315285 -0.009959022 -0.55005205 -0.022336276 -0.036245182 -0.052827425
-0.13689193 -0.028175404 -0.0435292 -0.00942409 0.03112591 0.04728639 0.020337274 -0.14890207
0.009294381 -0.104375646 -0.2519556 -0.155284 0.03379969 0.2732904 0.025162134 0.15716767
-0.14083533 0.23009026 0.1961003 -0.10477142 -0.11570276 0.06640682 -0.112577215 0.04613677
-0.12556018 -0.08395791 -0.34225845 0.15448338 -0.23843552 0.25477898 -0.006111939 0.25917923

actor.2.bias f4 [64]
00000000: b31f 043b 1cc5 a13c fdfb 023d ba0c 59bd
00000010: 577c f23c 1841 0d3d d156 8dbc 611e f0bc
00000020: 78d2 a0bc d710 a23c e961 95bc 463e fe3c
00000030: 8517 a6bc e87c aa3c 0139 013d 5493 debc
00000040: abe3 063d 14ea 633c 79ec 1f3d e167 40bc
00000050: 1a92 55bb 1b20 05bd b4cc a83c 5b29 4abc
00000060: 360b 1e3c ca03 91bc f153 0ebd e204 bcbc
00000070: 4d07 043d 97a3 403c c8a0 d83c 1440 ef3b
00000080: b9e9 b33c 277a 2b3d 441f 283a 96d0 2d3d
00000090: d292 e8bc 0934 e7bc 9cf1 01bd 505f 9dbc
000000a0: c119 3cbc 6927 103d 9abb d7bc 6fb5 bc3b
000000b0: 7ac8 0b3c 9681 813c b08c 3dbb 80fc efbc
000000c0: 3e0d 3bbd a27e eebc 4d10 413d abef 9cbc
000000d0: e3d2 aa3c e03f 733c 92a1 ac3c e764 11bd
000000e0: 61b8 893c 0f0b 08bc e5f7 27bd 1ebc 17bd
000000f0: 2840 e8bc 7ee4 803c fdb8 1abd 9cfa 33bd
0.0020160496 0.01974731 0.031978596 -0.052990653 0.029600305 0.034485906 -0.017253311 -0.02931136
-0.01963161 0.01978342 -0.018235164 0.031035554 -0.020274887 0.020811513 0.031548504 -0.02716986
0.032931965 0.013910789 0.039043877 -0.011743517 -0.0032588304 -0.03250132 0.020605423 -0.0123389615
0.009646228 -0.017702002 -0.03474802 -0.022951547 0.032233525 0.011757753 0.026443854 0.00730134
0.021962034 0.04186454 0.00064133503 0.04243525 -0.028390322 -0.028223054 -0.031724557 -0.019210488
-0.01148075 0.035193834 -0.026334573 0.0057589333 0.008531684 0.015808862 -0.0028922968 -0.029295206
-0.045666926 -0.029113118 0.047134686 -0.019157251 0.020852512 0.014846772 0.021073136 -0.03549662
0.016811552 -0.008303418 -0.041007895 -0.037044637 -0.028350905 0.015733954 -0.037774075 -0.04394017

actor.4.weight f4 [4, 64]
00000000: c90c c7bd 8453 b1bc 05c6 d1bd 8116 c53d
00000010: df2f 19be f92f 02be 2a57 d13d 8700 0e3e
00000020: 730c c13d 14f8 ffbd 1a5d 643a 0e37 0f3c
00000030: dc2b e03d 0043 debd d77d 07be f8ea b93d
00000040: 0d19 23bd 92b6 04be 3119 0b3d 3fb7 493c
00000050: dc77 1e3d fccc 003e 5022 04be 38bc 983b
00000060: 71e3 b6bd 83fa d43d 40d4 ec3d cc1d cc3d
00000070: c679 01be b1ba e3bd 3898 c3bd d57d 6abd
00000080: 46db 0dbe 114e bcbd eded b2bd b8d3 f2bd
00000090: ff38 c13d f2e8 ba3d 6930 673d ce9c 20bc
000000a0: 0e0a ec3b eb75 1dbd 319e 053e a405 e0bd
000000b0: 8f8d 09bd 7a19 f1bd d645 743d db2c 073e
000000c0: 23b9 ce3d e28d 803d 896f 00be aecb dd3d
000000d0: 134a e9bd c594 ba3c 8ab5 cfbd c932 d13d
000000e0: ebdd d63d acc1 e9bd f409 dd3d fb19 b83d
000000f0: 33cf 003e 5806 b7bc 64f1 3e3c fbd1 083e
00000100: 02b3 ff3d 3362 4bbe 8a25 f5bd e2f4 093e
00000110: 630b cebd d6b9 09bd 6a38 dbbd b7ec 9bbc
00000120: 5994 eabd 194a a03c a943 12be ba23 20be
00000130: 7941 333e 0d0f 45be 1d56 f3bd 3022 083e
00000140: e527 f63d 725a a8bd b9de 1c3e 512d 24be
00000150: dcda 32be 1c4d a2bd 6916 16bd f4ba 23be
00000160: 1fbf 8fbd 19f2 4a3e d9a4 a6bd 7711 223e
00000170: 5685 803d 8c27 083d 8a9e 923d 3b72 003e
00000180: 211d 97bd d641 23be 570b c73d 9b9d c63d
00000190: 8a23 e0bd 5460 0c3e fa6b 253e 9d0d edbd
000001a0: 5442 003e c876 e93d 3557 bf3d dfd2 49be
000001b0: 8940 25be 9fb2 1dbe cb24 1a3e 458e 2c3e
000001c0: 9b21 8e3b a19f 303e 41b0 61bc 5a49 f5bd
000001d0: 5e5d 99bd 5207 1f3e 13b5 d63d 8631 d83d
000001e0: ec4e 55bd 8e2d 4e3d 6cc4 323e d49c 663c
000001f0: b1b8 203d d58c 06be 95c7 23be 9512 063d
00000200: 494e 063e 2060 1c3d cea2 0d3e d461 22be
00000210: 81b8 2c3e c728 e63d 5800 12be 53e3 31be
00000220: 137c 13be 5e61 0d3e fd98 9ebc 7863 443d
00000230: 8f59 0fbe 2d3d 203e 5a87 1b3e bd7b 23be
00000240: 861b b13d e6d8 163e 0f83 abbc 8f4a d2bc
00000250: 475f a3bd 64ee 27be a525 f33d 5594 1ebd
00000260: 1d96 b03c fa9f 10be ddeb 33be 8b58 23be
00000270: be29 223e 7b53 113e 0fcf 103e 0bee d23d
00000280: 5e5b 133e fe06 203e c1f8 c83d c746 2d3e
00000290: 6c76 bdbd 6dd6 12be 4f2b fcbd 6462 b23b
000002a0: cba9 fcbc 42c9 c03d 5b8c fdbd 8678 173e
000002b0: 0417 7a3d 7405 213e 0897 debd 02ef 2abe
000002c0: cbd8 34be 0508 f4bd 63dc 393e ee0f 15be
000002d0: 3c3a cb3d 82b3 b9bc 10e8 0e3e f250 21be
000002e0: d605 f9bd 80d7 093e 075c 3bbe 3318 0bbe
000002f0: 4fed 2abe 0cc7 763d fe75 67bd fdd5 d1bd
00000300: 96cc 1abe eb97 473e 78c3 b93d 4261 b4bd
00000310: 3738 bbbd ff85 3fbd 2c52 173e 6130 243e
00000320: fdd0 2c3e 944d fbbd 7d31 1b3e f06c 063e
00000330: bf8d 1cbe 7629 1a3e d4fa 303d 64d4 80bd
00000340: 1fac 12be 500b 88bd 08fe 27be 6108 2b3e
00000350: 354a 403e ca1f 1f3e 600d 88bd 9d05 323e
00000360: 4c07 f03d 39a0 39be 5f3f 283e e2b5 fcbd
00000370: 414a 21be 4a03 20be 514b e4bd 7376 13be
00000380: 475f 84bd da41 013e 9e65 fcbd e3ef 31be
00000390: eefd fe3d ee5e 6bbd f44e 01be d7ed fd3d
000003a0: 2f20 f4bd ba20 0cbe a97a b8bb eadf 173e
000003b0: e82b 1c3e 3b00 8f3c c3d7 0dbe f10b efbd
000003c0: 42ae 2a3e 5796 0ebe e480 0fbe 8707 243e
000003d0: 6af0 6f3d cba6 24be 9588 12be 93e1 15bd
000003e0: b00e 063e 6b92 08be 09e8 cbbd 7872 b23d
000003f0: fd28 243e d404 fe3d 6b17 363e b437 4c3c
-0.097192355 -0.021646269 -0.10242847 0.09623433 -0.14959668 -0.12713613 0.10221703 0.13867389
0.094262026 -0.12498489 0.0008711383 0.008741153 0.109458655 -0.10852623 -0.13231598 0.0907802
-0.039818812 -0.1296027 0.03395957 0.012311756 0.038688526 0.12578195 -0.12903714 0.0046611093
-0.089301 0.10399344 0.11563921 0.09966621 -0.12644109 -0.11119593 -0.09550518 -0.05724891
-0.13853177 -0.091945775 -0.08736787 -0.118567884 0.09434699 0.09126462 0.056442652 -0.00980301
0.007203347 -0.038442533 0.13048626 -0.10938576 -0.033582266 -0.117724374 0.059636913 0.13200705
0.10093906 0.06277062 -0.12542547 0.108298644 -0.11391082 0.022776017 -0.10142048 0.102147646
0.10491546 -0.11413893 0.10792914 0.089893304 0.1257904 -0.022341892 0.011654232 0.13361351
0.12485315 -0.19861679 -0.11970051 0.13472322 -0.100607656 -0.033624493 -0.107041195 -0.019033773
-0.11454076 0.019566583 -0.14283623 -0.15638629 0.17505445 -0.19244023 -0.11881659 0.13294291
0.12019328 -0.08220376 0.15319337 -0.16032912 -0.174663 -0.07924864 -0.036642466 -0.15989286
-0.07018875 0.19818915 -0.08136911 0.15826975 0.06275432 0.03324084 0.07159145 0.12543575
-0.07378603 -0.15943083 0.0971896 0.096980296 -0.109442785 0.13708621 0.16154471 -0.11574862
0.12525302 0.11399609 0.09342805 -0.19709347 -0.161379 -0.1540017 0.15053098 0.16851147
0.004337502 0.17248394 -0.013774932 -0.11976881 -0.074885115 0.15530136 0.10483756 0.10556321
-0.05207722 0.050336413 0.17457741 0.014075477 0.039238635 -0.1313966 -0.15994103 0.032732565
0.13115801 0.03817761 0.13831636 -0.15857631 0.16867258 0.112382464 -0.14257944 -0.17371874
-0.144028 0.13806674 -0.01936006 0.047946423 -0.13999008 0.15648337 0.15188351 -0.15965171
0.08647828 0.14731178 -0.020936517 -0.025670318 -0.07977157 -0.16399533 0.118724145 -0.03871568
0.021555955 -0.14123526 -0.17570443 -0.15951745 0.15836236 0.14192002 0.14141487 0.10299309
0.14390323 0.15627667 0.09813071 0.1692153 -0.09251103 -0.1433961 -0.12312948 0.005443858
-0.030842682 0.09413387 -0.12380286 0.1479207 0.061057106 0.15724736 -0.10868651 -0.16692737
-0.17660825 -0.11915592 0.18150477 -0.14556858 0.09923217 -0.022668604 0.13955712 -0.15753534
-0.12159316 0.13461113 -0.18296824 -0.1358345 -0.16692089 0.06024842 -0.05650901 -0.10245893
-0.15117106 0.19491546 0.09070486 -0.08807613 -0.091415815 -0.046758648 0.1477744 0.1603408
0.16876598 -0.12270656 0.15155597 0.13127494 -0.15288447 0.15054879 0.04320796 -0.0629051
-0.14323471 -0.06642783 -0.16405499 0.16702415 0.18778308 0.1553947 -0.06643176 0.17384954
0.11720142 -0.18127526 0.16430424 -0.12339379 -0.15750982 -0.15626255 -0.11147178 -0.14400654
-0.06463485 0.12622777 -0.123240694 -0.17376666 0.12450777 -0.05746358 -0.12627774 0.1239888
-0.11920201 -0.13684359 -0.0056298566 0.1483151 0.15251124 0.017456165 -0.13851838 -0.116721995
0.16668037 -0.13924538 -0.14014012 0.16018496 0.058578886 -0.16079251 -0.14309914 -0.036592077
0.1309154 -0.13337104 -0.099563666 0.087132394 0.16031261 0.12403265 0.17782371 0.012464453

actor.4.bias f4 [4]
00000000: 0bd7 a4bd 957b dfbb 5207 3f3d cdfd 99bb
-0.08048829 -0.006820152 0.04663784 -0.004699445
