HFDRL_UNIT8/models/Archived/LunarLander-v3__ppo__1__1768735947__u60.ckpt (torch, 134227 bytes, 33 tensors)

critic.0.weight f4 [64, 8]
00000000: 9ea4 1cbe 716a 993d d672 d53c be54 43bd
00000010: cc9f 65bd 34ae 0f3e daff 91be 76cf 103e
00000020: 6c4b 26be 4829 5b3e 27be 833e 7cf2 16be
00000030: 5b27 53be 7e11 62be 91bb 243e 95fb 7fbd
00000040: 2a88 423d 1ed7 6bbe 1593 013e f78d 513e
00000050: 596b 1c3d 78b0 083e b27c 3a3e ce53 093f
00000060: 6ba8 4abe 36d8 f63d 0f2c e93b c20d 1cbf
00000070: e8ba 8e3e 83ed cbbb 342a 9abe 03b7 34be
00000080: 0a63 7c3d cff0 3ebe a71e ab3e cf72 e2bd
00000090: dff7 e53c db54 12be b850 a83d 3990 aabe
000000a0: ccd7 993c a5e0 73be fad9 aabb 8eb0 0fbe
000000b0: b014 89bc 731d 853e f150 01be ab63 1abe
000000c0: d401 8abe 6b8a 3cbe b478 8e3c e803 8b3d
000000d0: 9d3c 59bd 8261 74be 67dd d93e 88a2 233e
000000e0: 647f 8cbd 5d1a ed3e dde4 073e 136a 623e
000000f0: 97c5 b5bd 35af 283e 9207 853e fab2 bf3e
00000100: 0075 333e 6672 eebc 06e0 b33e 5595 a7be
00000110: c850 be3e 67b0 2fbd ff42 17bd 7943 0bbd
00000120: a73c 813c 41f3 273e e35c 9b3e 9528 63be
00000130: 6a7d 333e 0e05 9c3d 3bb9 6a3e b8db 053f
00000140: aecc a3bd 34f8 d2be b5ac f03d fdaf 003f
00000150: 04d0 973c 1b73 913e 8db7 8d3d 4fd6 f9bd
00000160: 75e2 92bd 8ca5 c13e 8bfa 41bd 4178 60bc
00000170: 54cb 64bd a2eb 553e 677d 90be 2880 2cbc
00000180: d02a 2cbb eb28 933e 2028 a83d 6d17 b7bd
00000190: 3b54 bfbd 1c1f c03c 4b4a 00be 28f1 e03d
000001a0: e4a0 39bd 3307 2dbe c9cf 3d3e 0e4c e53e
000001b0: 8768 a4bc a2e8 fe3c aeac 56be 014b 323e
000001c0: bb13 c1bd 38a3 9cbd ef6b 033e 891c c23e
000001d0: 025d f73d f06e be3c d120 2b3d 0a82 5c3d
000001e0: 5d0d 6bbd 4ae4 133e bded 3cbe c02f c3be
000001f0: a905 6438 9ae6 1c3e a78e 213d aeb7 d8bd
00000200: 2b33 063e 1074 a83d 99db eb3c b5c7 dcbe
00000210: 1ce9 0fbe 3eb3 55bd 38aa ebbd 0a03 5f3e
00000220: 5ce8 8bbd 8b9c 0b3e 1882 bb3e 4003 0f3e
00000230: 8f6e 903e f97d 35be c61e 98bd e32d d83d
00000240: 58cd a1be dba1 03be f8ea 853e cdf9 fe3d
00000250: cc79 3fbe 1293 d83d 92e7 3dbc ea20 a2bd
00000260: 65c5 7bbd 36af 8d3e e543 26bd 0f8e 55be
00000270: c1e5 253d a1eb 3b3e 818e b1be e593 50be
00000280: b338 243e 5da6 81bd d768 143e 893d 943e
00000290: caa1 a93d 96ae 64bd eeb8 6e3c 33e2 203d
000002a0: bd78 073e 22c9 df3b 6efc 2abe 6a1e b7be
000002b0: 3a95 b8bd 304d 8d3d bef6 4dbe 4b17 bdbd
000002c0: 8f1e 123e 8dd2 e6bc 37e2 ae3d 3835 723e
000002d0: cf17 3fbe c75d 2cbe 2231 f7bd 5595 5fbe
000002e0: 3b5c 503e 8eba cc3d ba8f dabd 17f5 b0bc
000002f0: 8ed6 293e 1a6a fbbd 969f 933c 2c27 90be
00000300: 45b1 94bd 9a62 913d 8592 b03d 9a4c 86be
00000310: da26 4f3d 2320 79be bbd0 12bf a96d febd
00000320: ab2b c9bd bee0 b23e 164e d53b cfc4 1f3e
00000330: 9f1c 3b3d 2c77 59be 1a54 af3d 6407 69bd
00000340: 6fb2 adbd 8d29 203c a612 aa3d a4d1 933d
00000350: cb3d 733e ad4c 0abe 28b5 e43d 66d4 283e
00000360: 3f7d 32bd e54b 04be 262e dcbc 1665 243e
00000370: 5d2a 81be 4762 5d3e 89b8 f13d 99d8 9d3e
00000380: 0243 873e d481 123d 8458 83be ebc3 2cbe
00000390: bcfe eebd 6c70 06bd e27e b9be 4823 b4bd
000003a0: 7842 e83d ae6b da3e a455 22be c141 6a3e
000003b0: 55f2 4abe e519 4a3d 93e4 1f3c 37d5 e1be
000003c0: 6336 89be 3006 f9bd 48d2 39be 1542 133e
000003d0: 7e95 7e3e f7df e9bd 51fd c83d 7af3 ba3e
000003e0: 06b3 19be 5df2 e33e 8a0e 063e 7948 ebbd
000003f0: dec9 483e 4572 173e 5fd9 2dbe cd71 8ebe
-0.15297171 0.07491005 0.026055735 -0.04768824 -0.056060597 0.14031297 -0.28515512 0.1414164
-0.16239709 0.21402466 0.25731012 -0.14740938 -0.20620482 -0.22076985 0.16087176 -0.062495787
0.047493137 -0.2303128 0.12653764 0.20464312 0.038188312 0.13348567 0.1821163 0.536435
-0.19790809 0.12052958 0.007115848 -0.6095849 0.27876973 -0.006223382 -0.30110323 -0.17647938
0.06161789 -0.18646549 0.33421823 -0.11057054 0.028072296 -0.14290182 0.08218521 -0.33313158
0.018779658 -0.23816164 -0.005213973 -0.14032194 -0.016733497 0.2599903 -0.12628533 -0.15077083
-0.2695452 -0.18412177 0.01739154 0.067878544 -0.05303632 -0.23865321 0.4255173 0.1597997
-0.06860235 0.46309176 0.13270898 0.22110777 -0.08875578 0.16473086 0.25982338 0.37441236
0.175251 -0.029107284 0.35131854 -0.3273112 0.37171006 -0.04289284 -0.036929127 -0.033999894
0.015775992 0.16401388 0.30344304 -0.2218345 0.1752831 0.076181516 0.22922222 0.5228839
-0.07998024 -0.4120499 0.11751691 0.50268537 0.018531807 0.2840813 0.06919775 -0.12199079
-0.071720995 0.37821615 -0.047358077 -0.013700546 -0.05585797 0.20890668 -0.28220674 -0.010528602
-0.0026270635 0.28742155 0.08210778 -0.08940015 -0.093422376 0.023452334 -0.1252834 0.10983497
-0.045319453 -0.16897278 0.18536295 0.44784588 -0.020069374 0.031116787 -0.2096431 0.17411424
-0.094275914 -0.07648319 0.12834142 0.37912396 0.12078287 0.023246258 0.041779343 0.053834952
-0.05738579 0.14442554 -0.18450065 -0.38122368 5.4364707e-05 0.15322343 0.039442685 -0.10581909
0.13105457 0.08225262 0.028791236 -0.43121114 -0.14053768 -0.05217289 -0.11507076 0.21778503
-0.068314284 0.13633935 0.3662269 0.13966084 0.2820935 -0.17723836 -0.074277446 0.10555627
-0.31601977 -0.12854712 0.2615583 0.124499895 -0.18698806 0.105749264 -0.011590855 -0.07916434
-0.061467547 0.27672738 -0.040592093 -0.20854972 0.040502314 0.18351604 -0.34679034 -0.20368917
0.16037254 -0.063305594 0.14493118 0.28953198 0.08282812 -0.05583056 0.014570458 0.03927822
0.13229652 0.006829397 -0.16697857 -0.35765392 -0.09012838 0.06899488 -0.20113656 -0.092329584
0.1426947 -0.02817657 0.08539241 0.23653114 -0.18661426 -0.16832648 -0.12069918 -0.2183431
0.20347683 0.0999652 -0.10671945 -0.021601243 0.16585752 -0.12276097 0.018020432 -0.28154886
-0.07260374 0.07098885 0.086216964 -0.26230317 0.05057416 -0.24328665 -0.5734975 -0.1242326
-0.09822782 0.3493709 0.0065095527 0.1560242 0.045681592 -0.21236867 0.08560963 -0.056891814
-0.08481299 0.0097755315 0.08304338 0.0721772 0.23754041 -0.13505812 0.11167365 0.16487274
-0.043576475 -0.12919576 -0.026877474 0.16054186 -0.25227633 0.21619521 0.118027754 0.30829313
0.2641831 0.035768345 -0.2565347 -0.16871612 -0.116696805 -0.032822058 -0.36229616 -0.08795792
0.11340803 0.42660278 -0.15852982 0.22876646 -0.19819005 0.0493411 0.009759086 -0.44107983
-0.26799306 -0.12159383 -0.18146622 0.14380677 0.24861714 -0.11419671 0.09813941 0.36513883
-0.15009698 0.44520846 0.13091484 -0.114884324 0.19608256 0.14789684 -0.16977452 -0.27821198

critic.0.bias f4 [64]
00000000: 33b0 0abe 698b c53c 25c1 053e ca3c 0abe
00000010: 77a3 2abe 5da0 e53c 2843 0abd bd01 143e
00000020: 4aff 26be d01c ba3d a43e 213e 191c f8bd
00000030: 3c8f bb3d e98c 2a3e db59 233e 1f85 2cbe
00000040: fd50 3f3d 7518 8d3d 3bfe b5bd 0069 05be
00000050: 348b 4a3d dda6 b5bc df51 30bd a9fe 0ebe
00000060: bafe 74bc 0a4a 8d3d f2ba 0b3e 731e 053e
00000070: 7587 c1bd 67cd 90bd 09ba f03d 127a dbbd
00000080: 41ae 12be c8c2 eb3c 70dc 133e 6d74 0a3e
00000090: a4cd c2bd eb17 fbbd 8666 b4bd e9ef dc3d
000000a0: 413c 4ebe 7397 f63d 4656 6fbd bbec 1cbd
000000b0: 4578 cebd eca3 b2bd 34f1 ebbd 8419 f2bd
000000c0: 4cc6 11be 227f ecbd a25a b4bd ee0d 8f3d
000000d0: 5ed5 00be de36 0b3e cee2 e5bc c9c0 243d
000000e0: 9a32 11be adbe 2b3e 1206 01be ecd8 b8bc
000000f0: ff88 0c3e f561 2f3e 08f4 babd 382b 1fbe
-0.13543777 0.024114328 0.1306196 -0.13499752 -0.1666392 0.028030569 -0.03375545 0.14453788
-0.16308323 0.09087527 0.15746552 -0.12114734 0.09158179 0.16655315 0.15952246 -0.16847657
0.046708096 0.068894304 -0.08886381 -0.13028336 0.04944916 -0.022174293 -0.04304683 -0.13964333
-0.01495331 0.068988875 0.13645533 0.12999897 -0.094496645 -0.070704274 0.117542334 -0.107166424
-0.14324285 0.028779402 0.14439559 0.13520975 -0.09511879 -0.12260421 -0.08808617 0.10787947
-0.20140173 0.120406054 -0.058431886 -0.0383117 -0.10081533 -0.08722672 -0.11520615 -0.11821273
-0.142358 -0.11547686 -0.08806349 0.06985079 -0.12581393 0.13595149 -0.02806225 0.040222917
-0.14179459 0.16771956 -0.12599972 -0.022564374 0.13724135 0.17127211 -0.091285765 -0.1554383

critic.2.weight f4 [64, 64]
00000000: f31a 6a3e 1bcd 08bf 2c72 42be df63 a03e
00000010: b627 833c 8b23 a6bd f098 273e d34e c1be
00000020: 20c1 9b3d a808 9e3e f705 5dbe 1f24 66bd
00000030: 6e7d a2bd dca9 90be 6be1 d2be b6c0 a33e
00000040: 5f60 973d 207b 1fbe 1163 d83c a7d5 403e
00000050: 98be 63be 57b6 4b3e 7159 fd3d adfd 0d3e
00000060: 82ff a13e 8500 cc3c b3f9 273e 4b72 26bd
00000070: b4b3 713d b81f a83d c577 2abd 3fd0 d53d
00000080: 805c 8f3c c89e e23d ead5 233e 1069 c3bd
00000090: 5383 a5be eea0 86be a808 dbbd 7ff7 06bf
000000a0: ff09 983e a2cf 60be 1fbf 673c d862 83bd
000000b0: 241e 7cbe 447b 223e 16ad 0e3e fdef a43e
000000c0: f19b f13d 99a3 713e 4f9d 9cbd 6b30 65bd
000000d0: 1bf4 fb3d 516d 56be f4ff 4dbd f31d c43c
000000e0: 886b 3d3e 1dfc 66be af1a 8b3d b15b b43c
000000f0: 2b8f 8f3b 5296 b23d c6d6 82be 751b c83d
00000100: a20d 953e b950 403e 6791 a8bd 75a9 133e
00000110: 2dcc ddbc e3b6 5ebe f8f7 a13d 6fa8 6fbe
00000120: 82c5 313d 1f28 7ebe d71c a1bd 36c5 28bd
00000130: 005b e43e 481b 2d3e 4fc1 88be 4066 b33e
00000140: 6ee8 b13a 33da 72be ab7b b93e 1cb9 7abd
00000150: c35c 9fbc 9698 1e3e 94d2 43bd f67b cf3d
00000160: 446e 2e3d 38db 123e 4496 dabd 7d4b 06be
00000170: c557 823e 06f9 973e 925e 2ebe 49f0 693e
00000180: 60b4 923e 774b d6bc ffa2 a5bd 8a87 19be
00000190: e104 83bc eee1 fabd 8a73 21be 3d7e 533e
000001a0: 6aac 2d3e c11d 35bd b2b5 273e 69eb a4bd
000001b0: 9ba2 c33d a2c2 6b3e cb00 bb3e 33cd 933a
000001c0: 00b3 e13e 509f a1bd e50a 4abc c5f2 65bd
000001d0: 3a8e b13d 0f10 5ebe a7c4 03be 8b3e 67be
000001e0: 4a1e ae3e 3fc2 b8be 7444 2c3e 51e1 713e
000001f0: fa4d 7ebd 4e2b 10be 9bda 96be 6650 97bc
00000200: 2564 23be 347c 033e 51f3 883e a6fb 33bd
00000210: 56a9 853e af1d 5bbd 7781 943d 4db4 813e
00000220: ef93 b1be 3a5f b33e 9301 03be ef9e 84be
00000230: 3577 8abd 3050 c43e 83b7 a53e 5c4b ccbe
00000240: 7d15 cdbe bbf2 783b 74ab 923d e862 1ebe
00000250: db67 02bd 3285 33be df4a d2bd 034d 4abd
00000260: 4141 34be 80c2 d43d 71af f23e 0dbe 8c3e
00000270: 77e0 1ebc 23ad cabe d8c1 1abe 8b1c b4be
00000280: 5ae0 493e 5ce8 123e 9fcf d3bc a487 063e
00000290: 387c adbd 49e4 ddbd 7122 e03c 819c 2b3e
000002a0: 57b2 a13c c707 99be d807 933e 69a0 1d3d
000002b0: b42d d53c eca6 6dbe d16e bd3e 9da9 343d
000002c0: e487 01bd b2ae 6dbd be98 3a3d 04b2 c5bc
000002d0: 73f7 2ebe 8a08 823e 73a8 ee3d 2fcb 283d
000002e0: 5723 afbe f6f5 273e dae3 833d f8d5 63be
000002f0: 4909 5d3e 5d78 453e 5e95 98bd f7c4 60bd
00000300: db2d a03e 1d4f 613e d4f8 7bbe 68be c63e
00000310: 974b ae3c 2b8b 24be 1680 16bf 8c60 0bbe
00000320: 6112 593e 588b 983d 21d4 ff3b 055a 473d
00000330: 3c5c 33bd 5931 033d 10f1 97be 428d ca3e
00000340: ffc5 ce3b f041 823d bc3a eabd a009 5e3e
00000350: a407 aabe 7367 8a3e 4fca a83e 4881 723e
00000360: 8cac febd 2606 dabd ba14 9cbe 835c 8fbe
00000370: 4c33 a4bc 4ceb dbbe 3161 003e 0ee1 413e
00000380: d604 1f3e b64b ae3d c995 8ebd 8f62 27be
00000390: ea14 0bbe 320d 9cbe b5a1 c93d c4bf a7bd
000003a0: fab5 803e 709b 33bd 5439 b83d ad89 f23d
000003b0: a51f 1dbe 5ae2 de3e bc87 26bd 0fa3 b83d
000003c0: 49d2 aa3e efec d53d 3cc1 7fbe 8d65 86bd
000003d0: 18f6 423e e878 95be 482c 20be 6253 eabe
000003e0: 26b6 233e a3a0 bebe a577 fb3d bc22 3b3e
000003f0: 58b4 f6be 6067 05bf ff65 4bbe 6881 b93c
0.22861843 -0.53437966 -0.18988866 0.31326196 0.016010147 -0.08112248 0.16366935 -0.3775545
0.07605195 0.3086598 -0.21584307 -0.05618679 -0.0793408 -0.28254592 -0.41187605 0.31982964
0.07391428 -0.15574312 0.026414426 0.18831502 -0.22240674 0.19893776 0.12370575 0.13866301
0.3164025 0.024902591 0.16403846 -0.040636342 0.05900927 0.08209175 -0.041618127 0.104401104
0.017500162 0.11065441 0.1599957 -0.095415235 -0.32326755 -0.26294655 -0.106950104 -0.527214
0.29695126 -0.21954206 0.014144688 -0.06415337 -0.24620873 0.15867335 0.13933215 0.32214347
0.117973216 0.23597564 -0.07647192 -0.055954378 0.12302419 -0.20940138 -0.050292924 0.023940062
0.18498051 -0.22557111 0.06792199 0.022016378 0.0043810806 0.087200776 -0.25554484 0.09770862
0.29111964 0.18780793 -0.08230858 0.14420111 -0.027074898 -0.21749453 0.079086244 -0.23404096
0.04340125 -0.24819992 -0.07866829 -0.0412037 0.44600677 0.16904938 -0.26709983 0.35038948
0.0013573298 -0.23716049 0.36227164 -0.06121169 -0.019453412 0.15487894 -0.047808245 0.101310655
0.042585626 0.14341438 -0.10673192 -0.13114734 0.25457588 0.29682177 -0.17028263 0.22845568
0.2865324 -0.026159031 -0.0808773 -0.1499311 -0.015993537 -0.12250124 -0.15766731 0.20653625
0.16960302 -0.04421783 0.16377905 -0.080527134 0.09552499 0.23023465 0.36524042 0.0011276364
0.4408188 -0.078917146 -0.012331699 -0.056139726 0.08669706 -0.21685813 -0.12867986 -0.22582452
0.34007484 -0.36085698 0.16822988 0.23621108 -0.062086083 -0.1407902 -0.29463658 -0.018470954
-0.15956171 0.12840348 0.26748136 -0.043941163 0.26105756 -0.053495105 0.07251256 0.2533287
-0.34683177 0.3503359 -0.1279357 -0.25902507 -0.06761018 0.38342428 0.3236657 -0.39901245
-0.40055457 0.0037986476 0.07161608 -0.15467417 -0.031837326 -0.17531279 -0.10268187 -0.04938985
-0.17603017 0.103886604 0.47399476 0.27488747 -0.009697071 -0.39585218 -0.15113008 -0.35178027
0.1971449 0.1434645 -0.025855837 0.1313768 -0.084709585 -0.108345576 0.027360173 0.1675892
0.01973836 -0.29888746 0.28716922 0.038483057 0.02602277 -0.23208207 0.3699861 0.04410707
-0.031623736 -0.05802793 0.045555823 -0.024132736 -0.17086582 0.2539714 0.11653223 0.041209396
-0.3420665 0.1640242 0.064399436 -0.22249591 0.21585573 0.19284196 -0.074503645 -0.05487534
0.31284985 0.22002836 -0.24606639 0.38817143 0.021276278 -0.16068713 -0.58789194 -0.13611048
0.21198417 0.07448453 0.00780727 0.048669834 -0.043789133 0.032029483 -0.29676104 0.39560896
0.006310224 0.06360233 -0.11436984 0.21683359 -0.33208954 0.2703205 0.3296685 0.2368213
-0.124352545 -0.10645704 -0.30484563 -0.28000268 -0.020043992 -0.42952955 0.12537076 0.18933508
0.15529189 0.085105345 -0.06962163 -0.16346191 -0.13582197 -0.30478817 0.09845296 -0.08190873
0.25138837 -0.04384941 0.089953095 0.11842666 -0.15344103 0.43532068 -0.04065679 0.09015476
0.3336356 0.10445582 -0.24976057 -0.06562338 0.1903919 -0.29193807 -0.15641892 -0.4576674
0.15987453 -0.3723193 0.1227868 0.18274969 -0.48184466 -0.5211086 -0.19863127 0.022644714

critic.2.bias f4 [64]
00000000: a731 f8bd 0a72 8bbd 2bac f33d bf6c 17be
00000010: 06d6 00be c44e cebd 8dba 0b3e b199 10be
00000020: d0ad e4bd ec38 203e 6d95 afbd 4892 9fbd
00000030: ea83 15be 26c4 cdbd 228e d0bd 7791 123e
00000040: 8886 eebd 68f1 d5bd 36d4 ccbd 8bea 5c3d
00000050: 18b7 ecbd da20 0a3e 46e4 f3bd cd3e 12be
00000060: af70 283d c00d bf3d 59b0 ec3d d0cd e13d
00000070: 04fc 043e 4895 e8bd 6ebe ea3d 4e53 fcbd
00000080: 2d97 c2bd 2e69 0a3e ec30 d93d 9a97 cfbd
00000090: 5335 ff3d 8049 e83d 95d0 00be 16b9 cabd
000000a0: ab25 27be 7dc2 d6bd d17e e83d 1e1c f1bd
000000b0: 3b55 053e c2c5 753d 8645 f83d 040d ccbd
000000c0: a061 073e af33 323e c26f f43d 3335 d73d
000000d0: dc76 023e 7240 eb3d 572e ddbd 7195 dc3d
000000e0: 7aea 023e d51c f1bd 645d b63d 78e9 e53d
000000f0: 36ff cbbd 97a0 2d3e 4344 df3d d626 cd3d
-0.121188454 -0.068088606 0.11898073 -0.14787577 -0.12581643 -0.10073617 0.13645382 -0.14121129
-0.111659646 0.15646714 -0.085734226 -0.07791573 -0.14601102 -0.10047178 -0.1018336 0.14313303
-0.116467535 -0.10446435 -0.100014135 0.053934615 -0.1155836 0.13489094 -0.11908774 -0.14281769
0.04112309 0.093287945 0.11557073 0.11025584 0.12986761 -0.11356598 0.11462103 -0.123205766
-0.09501491 0.13516685 0.10605034 -0.101363376 0.12461343 0.11342144 -0.12579568 -0.098985836
-0.16322963 -0.104863144 0.11352313 -0.11772941 0.13020794 0.06000305 0.121226355 -0.0996342
0.13220835 0.17402528 0.119353786 0.10508194 0.12740654 0.11486901 -0.10799854 0.10770691
0.12784758 -0.117730774 0.089045316 0.11226171 -0.09960787 0.16955791 0.10901692 0.10017173

critic.4.weight f4 [1, 64]
00000000: f164 7d3e a26c 433e c6fc 4bbe 62cc 723e
00000010: b550 193e e07a d23e 7108 83be e720 a93d
00000020: 63a6 ba3d 1120 68be ada7 a43e dfbb 563e
00000030: a890 873e 595c 393e 2340 6c3e c63a 53be
00000040: b9e5 803e 1deb 983e 43d9 6b3e a980 2bbe
00000050: 11d0 653e 6fed 27be 6472 0d3e 77b5 593e
00000060: dc56 4cbe ac1e bebe 0441 b5be 80ea debe
00000070: ad8b 13be 4597 253e a95c b4be ae7a 153e
00000080: b7e2 d43e 9e3c 7bbe 66f7 01be 5d9e 863e
00000090: 5ce1 5bbe fb7c ddbe 498f 953e f315 833e
000000a0: ea76 2d3e 49eb 903e 8344 5dbe 7494 a43e
000000b0: 25e2 8bbd f80f 183c 5467 b2be ac43 f33d
000000c0: 007c b6bd 222a 0bbe 7fd8 8fbe 1ee5 99be
000000d0: 6682 6ebe e1df 43be 1b78 833e ac2b cdbe
000000e0: 46d7 2bbe 4437 963e 0646 1ebe fc59 a2be
000000f0: 91e8 523e 73c9 76be 06a1 d9be d8f3 eebe
0.24745537 0.19084409 -0.19920644 0.23710778 0.14972194 0.4110937 -0.25592378 0.08258229
0.09113767 -0.22668482 0.32159176 0.20970105 0.2647755 0.18101634 0.23071341 -0.20627889
0.25175264 0.29866877 0.23032098 -0.16748299 0.22442652 -0.16399167 0.13813168 0.2126063
-0.19955009 -0.37132776 -0.35401165 -0.43538284 -0.14408751 0.16170986 -0.35226944 0.1459758
0.4157922 -0.24534842 -0.12692031 0.26292697 -0.21472687 -0.43259415 0.2921088 0.25602683
0.16939893 0.28304508 -0.21608166 0.3214451 -0.06830243 0.009281151 -0.34844458 0.11878142
-0.0891037 -0.13590291 -0.2809486 -0.30057615 -0.2329193 -0.19128372 0.2567757 -0.40072381
-0.16781339 0.2933904 -0.154564 -0.31709278 0.2059653 -0.24100284 -0.42505664 -0.46670413

actor.0.weight f4 [64, 8]
00000000: 0851 6fbd 651c cb3c f7de 763e 812a ffbd
00000010: 974a 29bf 4f24 59be 62dc 963d e906 653e
00000020: f162 6abe 5a12 c63d fcb5 7bbd 2420 2b3f
00000030: efef 5a3e f07b bbbd a88a c8bd 64fa 123e
00000040: 2105 ea3b a6b2 8cbe ff8d a2bd f373 1fbf
00000050: 8940 9d3e e5af ad3a 81d4 b1be bcfd 8fbe
00000060: f55b 99bd b41e 8abc c6f2 7dbe 0d96 cd3c
00000070: 9f6a eb3e d60a 40bd a9c0 33be 4236 76be
00000080: d501 043e bceb 33bd eaa5 11be 66fd 0abe
00000090: 3b5e 923e 5acf 4a3e 55f7 493e 1f93 9dbe
000000a0: 4c7f d5bd 01ee 85be cac1 c93d 88ad d73e
000000b0: 3add b2be a552 513c 44ec 4f3d 3d41 bb3d
000000c0: 340f 93be 432d 853c d70e 00be 51d2 023e
000000d0: 1b20 a43d 8a4b 073e 70d6 1a3e db16 9ebe
000000e0: 1f0e e7bd fd0c 55be de0c 8e3e c6a2 ef3e
000000f0: c0f5 2bbf 2a1f 08bf 74a9 ca3d d426 2f3e
00000100: 3440 53be 2678 1d3e 511e 03bf 1d3e d5be
00000110: dcba cf3e 3939 b93e 02d9 0cbf 5254 8b3d
00000120: 8f6f 02be c36c 093d 1dba 553d c006 6a3e
00000130: 2498 c7be d186 d5be d361 c8bd 61ce 273e
00000140: f6aa 59bd 8103 403d ee97 ebb9 2412 8dbe
00000150: 0569 d2be 9ce5 6a3c 74ea 7f3e 440b 1e3e
00000160: 0a45 c83c 9deb a4bd 46f6 5d3d 4f34 d83c
00000170: f462 05bf d831 a2be 714e 0c3e 4bea 1fbe
00000180: 3d2a 42be 02d0 e3bd 7dad 8bbe 9ef7 abbe
00000190: 6859 9f3e 3ba7 d43e b806 1dbd deae 1fbe
000001a0: 975f 90be 41f3 913e b569 ab3d 1b18 b7bc
000001b0: 3256 f73b 0693 9abd c252 783e d132 f33c
000001c0: 4754 04be 0924 3fbe 3cff c73e 2fb3 08bf
000001d0: e5c6 a0be 02a6 6fbd 5e2d c63c e8ec 463d
000001e0: 2515 2cbe 9fff b53d 5944 b93d 63c5 6fbe
000001f0: 87cf a7be ba89 13be d225 a1bd 3b77 d93d
00000200: b099 92be 1264 6ebd a304 383e d4ce 123f
00000210: 0957 84be c218 c5be 497d bf3b fa5e c73d
00000220: 158e 2c3e 6a7e bb3d 3d22 38be e10c c0be
00000230: 6576 2a3c f347 d53b 9c87 2c3e b661 41be
00000240: 6964 333d ced2 bc3d 33b8 a2be 195a 273e
00000250: 6d79 b43e 83d8 343e 633c a93c 5294 d83b
00000260: 9d8f 0d3e 4413 94bc a6bc 6e3e 3e67 a5bd
00000270: 21e2 14bf f747 c7be 2eaa 91be e895 f0bd
00000280: 81ca d4bc 00ae 1abe 6534 5bbe 32f8 85bd
00000290: 683e 513d 58c1 713e 3de4 413d e3ad 243e
000002a0: ae4a c73d 8211 a83c 7556 023e 9918 643e
000002b0: 9351 f2be 7798 d7be 7c7f 453d 9b1e cc3d
000002c0: e406 e73c 0938 203e 06e8 2ebe 3b9e 2b3f
000002d0: 8fdf f53e 5c93 a03e 7612 b93d 0071 1dbd
000002e0: de63 8b3e b76e 383e 4701 1e3e 2daa ebbe
000002f0: a168 043f d8f4 773e 5792 86be 8f3a 2abd
00000300: 0457 95be 3f2b 303d 136d b2bd 2d1e c33e
00000310: 748b 29be 0fc5 93be 496a 353d e0b3 bd3d
00000320: 1e11 00bd 3916 9a3d 5eef 11be 3cc8 02bf
00000330: 2a9d 583c 2478 953e 2f57 33be 3597 443d
00000340: 3a05 a03d 3ed7 573c 9e06 143f 4eeb 1f3e
00000350: 487d 92be 2839 82bd 4d3f 5abe 8771 8c3e
00000360: a0e2 da3d 5b36 24be 22e2 ecbd 0e87 d9be
00000370: dd10 023f 1c1b 013f 2b9e 863d 3cc9 993d
00000380: 9ca0 9f3c c6bc 70be 4b59 ecbd b4a2 65be
00000390: 3ffa 1b3f 4149 303d c5a9 36be 1e29 6cbd
000003a0: aa08 ea3d 0419 83bd 82fb 8e3c e1c0 51bf
000003b0: e5c9 64be e59f 15bf b8d3 a4bd 4fc6 99bd
000003c0: bf8f abbd db5d f2bc 9e79 55bd 14a6 113f
000003d0: bb67 f03e 6455 363e 00ec b8bc c603 8cbd
000003e0: db8a d13d 6b1f 3cbc 7148 09bd f9b4 df3e
000003f0: 7e96 7e3e f7cb 353c ae29 0dbd 14dc 74be
-0.058426887 0.024793813 0.24108492 -0.12459279 -0.6612944 -0.21205257 0.073662534 0.22365917
-0.22889306 0.09671469 -0.06145285 0.6684592 0.2138059 -0.091544986 -0.097920716 0.14353329
0.0071417247 -0.27480048 -0.0793724 -0.622863 0.307133 0.0013251273 -0.3473244 -0.2812327
-0.074882425 -0.016860344 -0.24799642 0.025095964 0.45979783 -0.046885334 -0.17553963 -0.24044135
0.12891324 -0.043925986 -0.14223447 -0.13573226 0.28587517 0.19805661 0.19723256 -0.30776307
-0.104246706 -0.26158145 0.098514155 0.4212458 -0.34934407 0.012776052 0.05076243 0.091433026
-0.28722537 0.016256934 -0.12505661 0.12775542 0.08013936 0.1321241 0.15120864 -0.30876812
-0.1128199 -0.20805736 0.27744192 0.46803874 -0.6717186 -0.5317255 0.09895602 0.17104656
-0.2062996 0.15377864 -0.51218134 -0.4164895 0.4057225 0.3617647 -0.5501863 0.06803192
-0.12737869 0.03355099 0.052179445 0.22854137 -0.38983262 -0.4170442 -0.097842835 0.16387321
-0.053141557 0.04687834 -0.0004493589 -0.27552903 -0.4109575 0.01433697 0.2499178 0.15433985
0.024446983 -0.08052752 0.054189943 0.02639213 -0.52104115 -0.31678653 0.13701798 -0.1561672
-0.18961425 -0.11123659 -0.272808 -0.33587354 0.311229 0.41533837 -0.038336486 -0.1559405
-0.2819793 0.285059 0.083697714 -0.022350362 0.007548117 -0.07547574 0.2425032 0.029687317
-0.12922774 -0.1866609 0.39061916 -0.5339841 -0.31401744 -0.058507927 0.024191555 0.048565775
-0.16804941 0.088866465 0.090462394 -0.23415141 -0.32775518 -0.14408007 -0.07868542 0.106184445
-0.2863288 -0.058200903 0.17970519 0.57346845 -0.25847653 -0.3849545 0.0058437926 0.09734912
0.16851075 0.09154971 -0.17981811 -0.37509826 0.010404204 0.006508821 0.16848606 -0.1888493
0.04379693 0.09219895 -0.31781158 0.16342963 0.3524889 0.17660718 0.020658677 0.006609478
0.13824315 -0.018075593 0.23314151 -0.080763325 -0.58157545 -0.38922092 -0.2845015 -0.11747342
-0.025975468 -0.15105438 -0.21406706 -0.0654148 0.051084906 0.23608911 0.047336806 0.16081958
0.09731041 0.02051616 0.12728293 0.22275008 -0.4732786 -0.4210851 0.04821728 0.09966775
0.028201528 0.15646376 -0.17080697 0.67038316 0.48022124 0.31362426 0.09036724 -0.038437843
0.2722463 0.18010984 0.15430175 -0.4602827 0.5172215 0.24214494 -0.26283523 -0.041559752
-0.2916795 0.043009993 -0.087122105 0.3810896 -0.16557103 -0.2886128 0.044290815 0.09262824
-0.031266324 0.0752377 -0.14251468 -0.51086783 0.013221065 0.29193223 -0.17513727 0.047995765
0.07813497 0.013173876 0.578226 0.15617105 -0.28611207 -0.06358558 -0.2131321 0.27430364
0.106877565 -0.1603636 -0.11566569 -0.4248585 0.5080698 0.5043199 0.06573137 0.075090855
0.019485764 -0.23509511 -0.11540469 -0.22425348 0.6092872 0.04303861 -0.178382 -0.0576564
0.11427434 -0.06401256 0.017453913 -0.81934935 -0.22342642 -0.58447105 -0.08048195 -0.075085275
-0.08377027 -0.02958577 -0.052117936 0.5689404 0.4695414 0.17806011 -0.022573471 -0.06836657
0.10231563 -0.0114821 -0.03351635 0.4369276 0.24862096 0.011095992 -0.034463577 -0.23912078

actor.0.bias f4 [64]
00000000: dc66 45b9 51bc e13b 1109 2a3d 83c5 abba
00000010: 0194 c039 c610 28b8 c390 f4bb d605 403d
00000020: e0a3 29bd 7bda 633d 929d fdbc 4535 713c
00000030: 8575 a93b 6daa f7bb 9f65 1a3d 57aa 23bd
00000040: a800 c23b 8e23 bcbc 268d 523c c2e2 81bb
00000050: 10dc 6e3c fc60 7ebc 23b9 20bd ce08 c6bb
00000060: 9b5d ae3c 6396 7a3c 3f3e 8abb bf18 183d
00000070: c2af 213d 33bd 9c3b ebf6 aebc baa5 57bb
00000080: c850 803b 1072 b93b 739a c63c 64af 45bd
00000090: 83e9 173c b893 aa3c ea42 5dbc c8ba f63b
000000a0: 9188 97bc 552a c9bb 7622 5a3c 3501 4abc
000000b0: 9726 9abc 1198 86bb d4fc 40bc 771d fa3b
000000c0: 42af 9b3c 6642 6fbc fd4d 03bc a213 a6bc
000000d0: c93e 783b 178b 463c ad50 6ebb 7544 81bb
000000e0: 4ece 4ebd cc68 2ebb e087 ac3b 1f35 e4bc
000000f0: 0f33 2d3c 0973 053c e33a 743c b168 e6bc
-0.00018825702 0.006888904 0.041512553 -0.0013105128 0.00036731365 -4.0069943e-05 -0.007463546 0.046880566
-0.04141605 0.05562828 -0.030958924 0.014722173 0.00517148 -0.007558158 0.03769457 -0.03995737
0.0059204884 -0.022966173 0.012851035 -0.003963799 0.014578834 -0.015526053 -0.03923906 -0.00604353
0.021284869 0.015294644 -0.004218846 0.037132975 0.039474256 0.0047832965 -0.021357974 -0.0032905177
0.00391588 0.0056593493 0.024243569 -0.04826297 0.009271982 0.02082239 -0.013504723 0.0075295903
-0.018497737 -0.0061390796 0.01331388 -0.012329389 -0.01881723 -0.004107483 -0.011779029 0.007632907
0.019004468 -0.014603233 -0.008014199 -0.020273034 0.003787922 0.012118123 -0.0036364004 -0.0039449283
-0.050489716 -0.0026612757 0.005265221 -0.027857361 0.010571255 0.008145102 0.014906618 -0.028126093

actor.2.weight f4 [64, 64]
00000000: ad17 a03e d1e6 b0bd 2d49 7e3e 091c dbbe
00000010: bbb6 a33d c000 063e 6f45 93be a2a0 183e
00000020: cbd3 9a3d 27f1 4fbe 2062 563e 3162 5a3e
00000030: d171 a33c 1df0 af3d a610 d03b 7008 793e
00000040: a9fc 433e 6ddc 9c3e 1594 543c 9583 cf3e
00000050: e229 bcbd 2ea5 203e 7fc9 08be e49b 86bc
00000060: b64b 9b3d 3a9c 4d3c 49fe 1e3e 69e4 233e
00000070: 17a3 29be 24e0 fc3e 4d22 cbbe b1d1 09bf
00000080: 5372 733e 2a3a 463e 5c80 8e3d bb50 9e3e
00000090: 3533 513e 0a56 dd3d ec7a b53e 4f1c 643d
000000a0: ab53 173f 53a8 02be c8d4 57be 3a8a 5a3e
000000b0: f12d 923e 3644 f33d 2270 b9bd d7d2 4ebd
000000c0: bb5a 223c b739 b93d 36bb ecbd aad9 d5bd
000000d0: 5b36 063c ff0c 873e 1f99 8c3e d078 2ebe
000000e0: 1845 bc3c 135c 783e c0fc 08bb db2b 453e
000000f0: 054f 6f3e 37b0 18bf 54e0 c03e 0d98 88be
00000100: 010c 30be c48f 79bd 42c9 2f3e 2f9f bb3e
00000110: 9c37 653e 7db5 16be 8e1e 1b3d 6572 edbe
00000120: 8cea 993c 0ce4 313d 9fdf 41be abea 91be
00000130: 331f 5f3e 7f1a 18bd e3ce d8be 21e2 463e
00000140: fad8 b0be 8c3a 13be c2b0 e13e 0f5d 89bb
00000150: f7e8 8c3d a24e ecbd 6579 203d 7e6f 4b3e
00000160: 58d3 81be 5342 683e 1133 b33d a346 c33d
00000170: 71a7 1e3d da8c b83d ecb3 c83d 0ce9 e03d
00000180: ef0a a5be 7538 87be b067 293d 7f88 643e
00000190: edf3 02bf 778d 513e 592d fb3c 6c4d 70be
000001a0: e4a8 49be d770 d3bd d388 ef3e 0e69 74be
000001b0: c535 0bbf 5362 2c3c 005b 8a3e 5c9d 563d
000001c0: 5174 f23c 189d e2be 87e4 1e3e 580a b33e
000001d0: e94c 7d3d dd88 d2bc c572 3abe c82f 523d
000001e0: 1fff 9a3e 3e3c 8a3e b38f 083d 89c8 65be
000001f0: 7239 e1bd 2394 ba3e 48cf 863e 8db1 8c3e
00000200: f7ef 30be 1afc a0bc c117 143e 741c 9b3e
00000210: caf3 c5bb b025 d3bc 22ab 58be 4156 18be
00000220: d0e8 053f 26cb febd 8b94 2c3e 204d c9be
00000230: 35dc ed3e 56d0 adbd 4413 6e3d 493c 8dbc
00000240: 836a 40bd 26b4 5a3e 71bc 80bc 90ad e93c
00000250: 72ec 05bc 799a 13bd 93e8 23be 41d4 833e
00000260: af6f 9cb7 963e 8b3e b5e2 85be 5e0d d53d
00000270: ece1 e73d 16a6 5d3e 22b4 16be 75aa 57be
00000280: 791f 223e 22ba 7abe 46cd 823e 7ac8 f5bd
00000290: 4caf f93d 3073 5f3e 4971 c6be f096 21bd
000002a0: ca39 30be d071 b83e 414a f23d c76c abbe
000002b0: 0f6f de3c 3bf1 12be 9ef9 803d 5a03 783d
000002c0: a57a 853e eabf 09bf 6631 1c3c 9196 6abe
000002d0: 8d2d 1d3e b636 94be c824 ddbe 5497 01be
000002e0: 85d6 893e 4d46 89be 08b9 6c3e df7e 05bc
000002f0: b46c cf3e 33d4 113e b358 4c3e 2924 273e
00000300: adfb fabd efe8 903c bd19 c6be 8780 32be
00000310: 2824 25be 2069 7d3e aa89 95be 2617 bb3e
00000320: 35e7 dabe 622a 383d 2e9b e0bd 898a be3e
00000330: fd3b 8ebe eaba c2be 2b74 22bd fb31 c43e
00000340: e851 e83e 728d fa3d 898a 84be 14b8 0a3e
00000350: 6c16 d1bd 69ba dc3e 3061 58bd 8ab0 ac3d
00000360: 1781 903d 384f 01bf bbfd 6c3e e7aa 83bd
00000370: 4607 14bf a8c9 21bd 201e f2bc fd5a f8bc
00000380: 6728 2cbe 5b44 c5bc 2924 90bc 19a4 353c
00000390: a7a6 873c e0a4 643d 8170 233d 17b8 0dbe
000003a0: a257 a53d 8fd9 05be b0a2 80be a88e adbd
000003b0: 6500 223d 32dc a93e b60a f23c c779 fb3d
000003c0: f6a1 50be 2aff 943e 9391 513e 885e 08be
000003d0: 8032 2ebe 480a c03c a74b c4bd 9b6c 4c3d
000003e0: d79c 0fbe 5388 c0bd 91b6 b0be 1a45 4a3e
000003f0: 0497 a3be eefd 6b3e 2f39 c6bc 26aa 8c3e
0.31268063 -0.08637775 0.24832602 -0.42794827 0.079938374 0.13086224 -0.2876391 0.14905027
0.075599276 -0.20306836 0.20935869 0.2132652 0.019951733 0.0859072 0.006349641 0.24319625
0.19139351 0.30636922 0.012974759 0.40530077 -0.09187676 0.15688011 -0.13358115 -0.016431756
0.075828 0.012549454 0.1552669 0.160051 -0.1656612 0.49389756 -0.39674607 -0.5383559
0.2377408 0.19358125 0.06958076 0.30920967 0.2042969 0.10807426 0.35445344 0.05569106
0.5911204 -0.12759523 -0.21077263 0.21341792 0.28550676 0.118782446 -0.09054591 -0.05049404
0.009909327 0.09044211 -0.11559145 -0.10441907 0.00819167 0.26377103 0.27460572 -0.17038274
0.022982165 0.24253874 -0.0020902604 0.19255011 0.23369987 -0.5964388 0.3767115 -0.26678506
-0.17192079 -0.06092812 0.17166618 0.36644885 0.22384495 -0.1471767 0.037870936 -0.4637634
0.018788598 0.043430373 -0.18932961 -0.2849935 0.21789245 -0.037134644 -0.42345342 0.19422199
-0.3454054 -0.14377803 0.44080168 -0.0041920017 0.06880372 -0.115384355 0.03917827 0.1986675
-0.25356555 0.2268155 0.087499745 0.09534957 0.038733903 0.0901124 0.097999424 0.1098195
-0.32234904 -0.2641026 0.04135865 0.22317694 -0.5115345 0.20464121 0.030661272 -0.23467034
-0.19693333 -0.10324257 0.46784076 -0.238682 -0.5437892 0.010521489 0.27022552 0.052396163
0.02959648 -0.44260478 0.15516864 0.3496883 0.061840925 -0.025700027 -0.18207844 0.0513151
0.30272767 0.26999086 0.033340167 -0.2243978 -0.10997285 0.36441144 0.26330018 0.2747921
-0.1727904 -0.019651461 0.14462186 0.30295146 -0.006041025 -0.025774807 -0.21159032 -0.14876653
0.5230837 -0.12441091 0.1685354 -0.39316654 0.46457067 -0.084870026 0.058123842 -0.01724066
-0.046976577 0.21357784 -0.015714856 0.028525144 -0.008174049 -0.03603599 -0.16006689 0.25747874
-1.8648656e-05 0.27196187 -0.26149526 0.1040294 0.11322388 0.21645388 -0.14717153 -0.21061118
0.15832318 -0.24485067 0.25547236 -0.120011285 0.12191638 0.21821284 -0.38758305 -0.039450586
-0.17209545 0.36024332 0.11830569 -0.33481428 0.027152566 -0.14349835 0.06297611 0.06055007
0.26070133 -0.5380846 0.009533262 -0.22908999 0.15349407 -0.2894799 -0.43192124 -0.12655383
0.26921478 -0.26811448 0.23117459 -0.008147924 0.4051262 0.14241104 0.19955711 0.16322388
-0.122550346 0.017689196 -0.38691512 -0.17431842 -0.16127074 0.24747133 -0.29206592 0.36541098
-0.42754522 0.044962294 -0.10967098 0.3721507 -0.27780142 -0.3803323 -0.039661568 0.38319382
0.4537499 0.1223401 -0.25886944 0.13546783 -0.10209355 0.4311097 -0.05282706 0.0843211
0.07055872 -0.50511503 0.23143665 -0.064290814 -0.578236 -0.039498955 -0.02955538 -0.030316824
-0.16812287 -0.024080446 -0.017595368 0.011086487 0.016558958 0.0558213 0.039902214 -0.13839756
0.08073355 -0.13071273 -0.2512412 -0.08474475 0.039551158 0.33175808 0.029546123 0.122790866
-0.20374283 0.29100925 0.20465688 -0.13317311 -0.17011452 0.023442402 -0.09584742 0.04990826
-0.14024673 -0.09401002 -0.34514287 0.19752923 -0.31951153 0.23046085 -0.02419719 0.27473563

actor.2.bias f4 [64]
00000000: 43d4 0ebc 7cfd 153c 4a46 583c 02f6 25bd
00000010: 9a7a aa3c 92f4 4f3c 819c 05bc e619 69bc
00000020: d781 61bc e76a 143c 1a5b 6ebc b765 ce3c
00000030: 7f8f f4bb 7d9d 3f3c ab30 4a3c 66c9 88bc
00000040: 9733 cd3c a0f5 d23b d100 323d 140a 6dbb
00000050: e5b5 753b c0e7 bcbc c1b5 ec39 9595 85bc
00000060: 2453 2cbc 3f49 88bb 1cc6 00bd 25d5 4cbc
00000070: f491 bb3c 74e1 043c c075 713c 9dc1 c939
00000080: 8a38 d63b 75ae f73c 8640 5dbc e23e d43c
00000090: e4c1 64bb b809 aabc 98e7 cebc 0383 d1bc
000000a0: 59e3 39bc e25b 0d3d cda7 22bc 6bbb 8bbb
000000b0: f062 ca3b b27f a93b 1e45 223b 4b9d 5ebc
000000c0: 91d2 56bd 4deb a4bc db82 363d cbf4 d9bb
000000d0: 2bcb 99bb 6ace b83c bb9e f93b 7217 ddbc
000000e0: 70c3 e23c 1ad6 85bc 7bd4 05bd 056b 05bd
000000f0: fb4c f6bc 8504 023c c7dd 1dbd 3a64 5ebc
-0.008717599 0.009154674 0.013200352 -0.040517814 0.020810414 0.012692587 -0.008154989 -0.014227366
-0.013763866 0.009058691 -0.0145480875 0.025194986 -0.007463395 0.011695263 0.012340705 -0.016697597
0.025049014 0.006437972 0.04345781 -0.0036169337 0.003749245 -0.023059726 0.00045148845 -0.016306678
-0.010517869 -0.0041591222 -0.03143893 -0.0125019895 0.022896744 0.008110393 0.014737546 0.0003848196
0.0065375017 0.030234555 -0.013504153 0.025908891 -0.0034905607 -0.020756587 -0.025256917 -0.025575167
-0.011345708 0.034511454 -0.009927702 -0.0042642853 0.006176345 0.005172693 0.0024760435 -0.013587306
-0.052446906 -0.020131731 0.044558387 -0.006651496 -0.004693409 0.022559363 0.007617799 -0.026988719
0.027681082 -0.016337443 -0.03267334 -0.032572765 -0.030066004 0.007935648 -0.03854158 -0.013573701

actor.4.weight f4 [4, 64]
00000000: cb2a f9bd 4249 c53c f24c ecbd 1600 f53d
00000010: f8f8 27be 2032 cdbd 3e12 f63d 0913 1f3e
00000020: cc2e d53d 6329 0abe 6e80 15bb f917 d53c
00000030: ec5c dd3d 323a f0bd 942d 0ebe c04a f43d
00000040: d719 21bd 661a 13be c899 2e3d 81a9 9ebc
00000050: 92e1 1d3d bf97 193e e770 e5bd c8ba 1f3d
00000060: eea2 91bd cbab dc3d 7449 1f3e 7a49 003e
00000070: d0be 0bbe 4e27 09be 3e06 f6bd 5ddb babd
00000080: e62b 0abe a787 dbbd 92fe a4bd 182a 14be
00000090: 8e79 ab3d 0929 dc3d 4a53 803d 4580 d03b
000000a0: eddc 173c 19e6 86bd f8e5 eb3d 3108 01be
000000b0: e289 f4bc 7aa7 0bbe dca9 a53d 1234 1a3e
000000c0: 01ad 2a3e 7329 823d 1d01 1fbe 73cb 0c3e
000000d0: 0f11 c0bd e936 143d c820 f6bd d423 093e
000000e0: a699 ee3d 1fd2 03be 99eb 023e ec8e c93d
000000f0: a22c 2c3e 22ed 25bd dff1 6dbc e634 c73d
00000100: 3181 313e 0aec 83be 88b9 3abe f55a 523e
00000110: 4a0d 5dbe dd93 a0bd aa81 f7bd 4688 b0bd
00000120: 2cc3 25be be3f 33bc 970c 5abe 43d1 46be
00000130: 83c0 833e 8ea1 93be 633e 41be c285 4a3e
00000140: 03ea 3d3e 009b 14be 8e8d 6d3e 46bd 7cbe
00000150: e02a 82be d1b5 94bd 5961 93bd ed38 80be
00000160: 657c bbbd a245 933e 5645 babd db3f 693e
00000170: 21a5 163d ce2c 93bc 71de ad3d 0b7a 273e
00000180: f597 09be 1db1 6dbe 5555 f43d cd59 093e
00000190: 72bd 08be 5738 4c3e 92c4 743e c06f 2bbe
000001a0: 783a 393e ddb3 203e db24 053e 03f2 91be
000001b0: 1133 6fbe 3409 6dbe a15f 603e 71cc 813e
000001c0: 5aa0 713d 8435 7a3e f54e a3bc e65b 26be
000001d0: f3bc d4bd ef0d 733e 8b3a 073e 3494 253e
000001e0: 2b04 86bd a4f9 583d deb1 853e 4583 3f3d
000001f0: 4155 d73d 9784 46be b3ce 7cbe 87bf 973d
00000200: 5adb 483e ffc0 fabc 9e83 3d3e f581 51be
00000210: 9fcc 783e 538d 1e3e 5e53 64be 08ec 80be
00000220: 9577 64be ef05 5c3e 7cab 7e3c cfdf 8fbc
00000230: 90c2 42be fb96 4c3e 2451 4f3e 52f8 58be
00000240: 604b a13d 06cd 573e 161c 96bd d256 533d
00000250: e287 77bd 673e 7abe 4f04 263e 27a7 8bbd
00000260: d98d 583d f74b 3dbe 343e 88be a4f1 61be
00000270: 93eb 6c3e 8433 5c3e b972 5c3e e9c0 333e
00000280: 3d60 4f3e 3217 593e 4a14 183e 1033 6f3e
00000290: 7aed e7bd d61e 4ebe 86e6 20be d04b c5bc
000002a0: be4b c7bc 0032 1e3e b06f 27be 47b9 513e
000002b0: 0fe5 883d 86ac 5d3e c4c3 2ebe 27f0 62be
000002c0: 9de6 85be 7c3d 0cbe 9c0d 893e 8ab1 52be
000002d0: f81b f83d 147f 8bbd dfbe 593e 74c2 64be
000002e0: e8f8 3cbe d44b 503e 7833 76be 0e3d 49be
000002f0: 30e9 7cbe c4f8 cc3d 61ae cc3b dcf9 04be
00000300: e718 71be c527 973e 484d e33d c021 05be
00000310: 66d1 64bd df6a a0bd 5f50 6f3e 9007 8b3e
00000320: a2fd 8a3e 89d2 54be 6af2 583e 519e 5f3e
00000330: 599c 3bbe 2f57 433e 7564 843d 4547 b3bd
00000340: acd0 55be e2d7 97bd 996e 62be 73a4 633e
00000350: e5f4 853e f882 803e 8cc6 ccbd 2652 913e
00000360: 9702 b63d eaa4 73be 6217 803e 364d 1bbe
00000370: f13e 78be fd2f 6abe dcb7 2dbe 3a15 61be
00000380: 1e15 a1bd 8aff 2f3e 2611 5ebe 9074 80be
00000390: 0992 413e 7e91 7bbd bc10 2dbe 6837 3e3e
000003a0: cbd1 3cbe fc53 4fbe a70c 883c c391 2e3e
000003b0: aae8 643e ecd7 983d f327 34be 50e1 14be
000003c0: edb9 603e 5ab0 52be 436c 66be b5ab 713e
000003d0: d8c4 2d3d 65ff 64be f030 63be 973b 20bd
000003e0: 6781 5e3e bf67 65be cb60 19be 994a 193e
000003f0: 5817 533e 75df 333e cf41 7e3e 5117 ed3c
-0.12166365 0.024082784 -0.11538114 0.11962907 -0.16403568 -0.10019326 0.12015198 0.15534605
0.104093164 -0.1349235 -0.0022812146 0.026012408 0.10808739 -0.1172985 -0.13884574 0.1192832
-0.039331283 -0.14365539 0.042627126 -0.019367935 0.0385452 0.14999293 -0.11203175 0.038996488
-0.071111545 0.107749544 0.15555364 0.12528029 -0.13647008 -0.133939 -0.12012909 -0.091238715
-0.13493308 -0.10719233 -0.08056368 -0.14469182 0.08372794 0.10750014 0.06265886 0.006362947
0.009268981 -0.065868564 0.115184724 -0.12600781 -0.029850904 -0.13638106 0.08089039 0.15058926
0.16667558 0.06355562 -0.15527768 0.13749485 -0.09378254 0.03618518 -0.12017971 0.13392574
0.116504 -0.12873124 0.12785186 0.09841713 0.16813901 -0.04050935 -0.014522999 0.097268865
0.17334439 -0.2576602 -0.18234837 0.2054251 -0.215871 -0.07840703 -0.12085278 -0.08619742
-0.16187733 -0.01094049 -0.21293865 -0.19415765 0.25732812 -0.28834194 -0.18871455 0.19777587
0.185463 -0.14512253 0.2319853 -0.24681577 -0.25423336 -0.07261241 -0.07196302 -0.2504343
-0.09154586 0.28764063 -0.09095256 0.22778265 0.036778573 -0.0179657 0.08489693 0.1635515
-0.13436873 -0.23212095 0.11930338 0.13413163 -0.13353518 0.19943367 0.2390311 -0.16741848
0.1808871 0.15693612 0.1300234 -0.28504953 -0.23359324 -0.23148042 0.2191148 0.2535129
0.058990814 0.24434477 -0.01993511 -0.16245994 -0.10387602 0.23735784 0.13205926 0.16169816
-0.06543764 0.05297245 0.26112264 0.046756048 0.10514308 -0.19386517 -0.24688224 0.07409578
0.19614926 -0.030609606 0.18507239 -0.20459731 0.24296807 0.15483598 -0.22297427 -0.25180078
-0.22311242 0.21486638 0.015543815 -0.017562775 -0.19019532 0.1997947 0.20245796 -0.21188477
0.07875705 0.21074304 -0.07329576 0.05159647 -0.060432322 -0.24437867 0.16212581 -0.06818991
0.05286965 -0.1848601 -0.26609957 -0.22064835 0.2313674 0.21504027 0.21528138 0.17554058
0.20251556 0.21200255 0.1485149 0.23359323 -0.11324592 -0.2012895 -0.15712938 -0.024084002
-0.024328109 0.15448761 -0.16351199 0.20480834 0.066843145 0.21647844 -0.17066866 -0.22161923
-0.26152506 -0.1369533 0.26768196 -0.20575538 0.121147096 -0.068113476 0.21264218 -0.22339803
-0.18454325 0.20341426 -0.24043071 -0.19652197 -0.24698329 0.10008386 0.0062463735 -0.12985939
-0.23544656 0.2952253 0.110987246 -0.13001156 -0.05586376 -0.07832884 0.23370503 0.27154207
0.2714663 -0.20783438 0.21186224 0.21837737 -0.1832136 0.19076227 0.06464473 -0.08753828
-0.20880383 -0.07414223 -0.22112502 0.22230701 0.26163402 0.2509992 -0.09998807 0.28382987
0.08887213 -0.23793378 0.2501784 -0.15166172 -0.2424276 -0.22869869 -0.16964668 -0.21980754
-0.07865356 0.17187324 -0.21686229 -0.2508893 0.18903364 -0.06141805 -0.16900915 0.18575823
-0.18439405 -0.20246881 0.016607596 0.17047791 0.2235438 0.07463059 -0.17593364 -0.14539075
0.21945925 -0.20575085 -0.22502236 0.23600657 0.042424053 -0.2236305 -0.22186637 -0.03911933
0.2172905 -0.22402857 -0.1497833 0.14969863 0.20614374 0.17565711 0.24829791 0.028941782

actor.4.bias f4 [4]
00000000: 3f1e efbc f65d c9bc f126 553d e082 ffbc
-0.029189227 -0.024580937 0.05203909 -0.031190336

exp_avg f4 [64, 8]
00000000: edae b63b 5de4 f23a 1197 ab3a c057 bb3b
00000010: d50d 9c3a 839b 13ba e130 28b9 a771 19b9
00000020: e2be cc3a 0a92 db3a 3cdf e639 63ae 983a
00000030: 837d f339 b3d5 58b9 6c96 8438 8264 8138
00000040: f0ab 3abc 0dd8 20bc 07f1 02bb 8677 37bc
00000050: 1d80 e3ba 41f6 3c3a fb87 3b39 05d8 0f39
00000060: 885c 863c 3c75 e63b fdb3 873b 93eb 863c
00000070: af5e 5f3b 74cd c0ba 3c56 a3b9 93df 8bb9
00000080: 40e0 6d3a 62fa b83a 0d42 a0ba 6fae 103b
00000090: 2471 01ba 9f5a 1139 4fb5 dab8 63cb bbb8
000000a0: 6b28 96ba 2688 bbba 43bd 3dba a671 06ba
000000b0: d387 b2b9 e69f d838 4b25 3e38 6e79 4738
000000c0: 8f05 8cbb 036e 37bb 376c fbba 743f 6dbb
000000d0: 95f1 baba 3927 213a a427 6b37 5a48 9c36
000000e0: dade b6bb b1cd fdbb de2d 00ba 9196 b8bb
000000f0: 32ea 17ba 2863 b639 f38a 0339 ba23 da38
00000100: 043c 193c 2e63 8d3c 88b9 2fbb 091e 313c
00000110: 3298 19ba 0cd5 b037 17ec ceb9 02f0 b7b9
00000120: 443b 9cb9 f3dd b03a 62c7 29b9 dcf8 22ba
00000130: 38d7 f5b7 8c56 ea37 3ddc 2438 0fa6 0238
00000140: 452d 0fbc fbe7 45bc a50f 17bb eabd f3bb
00000150: fc5e ccba f608 173a 3f02 5e39 da8c 4b39
00000160: ce32 c93b a1b8 073c 2f14 cf38 230f cc3b
00000170: 79b6 283a 24ac dab9 5fab 12b9 e865 04b9
00000180: b05e 4f3a 4c20 e13a e04c 0f39 c426 1a3a
00000190: 2ecd 6e39 f5e5 e7b8 8ad4 8638 227b 7d38
000001a0: c421 72bc 765b fabb 8162 80bb 767f 61bc
000001b0: fcc4 3bbb 4caf a53a 6602 ed39 6fe8 cf39
000001c0: 8248 a0bc ca83 07bc a25e aebb 4b0b 90bc
000001d0: 75be 7cbb ebbb df3a a4a3 173a ac16 063a
000001e0: 6bba 863c 86d3 1a3c 176b 863b fd25 833c
000001f0: 95f9 4c3b bca7 bcba 936f 02ba 5e86 e3b9
00000200: 72ca 7b3b d571 503b 7f00 ce3a 56d0 483b
00000210: 63b7 883a 3a98 dbb9 93c9 61b8 98d7 4bb8
00000220: 20c1 34bb 1fe1 88ba 083c c4ba 8b15 0bbb
00000230: 844a 4fba eaca a039 4ef7 7e38 1abf 4b38
00000240: 16b2 ceb9 255d a4ba 760e 90b9 a1fa b539
00000250: 833d 55b8 7f17 dcb7 78ab 11b8 3340 f3b7
00000260: 4780 563c d4c2 433c 1de3 143b da3d 453c
00000270: 87b8 0c3b 5ff6 80ba e5a7 8bb9 478f 6eb9
00000280: 85f8 edbb 0578 aebb a4d1 e5ba d762 eebb
00000290: a065 b4ba 4bfc 233a 744d 4e39 c858 3239
000002a0: 521c 3b3c d31e c53b c403 3a3b 62e9 2a3c
000002b0: ee55 0a3b 03f0 73ba b026 89b9 03f6 6db9
000002c0: 5a50 90ba eac2 3bba 0fbb 75b9 84ca d5ba
000002d0: 7a2a 51b9 8b7a ab38 15b4 7136 6124 5d36
000002e0: 2c0f 0c3c 7ce2 4e3b d70f 023b 1dfd 033c
000002f0: c365 c33a fa98 2eba af65 97b9 b189 85b9
00000300: f451 323c 2e94 a93b ff10 353b 8957 223c
00000310: 511a 133b 183b 73ba eeee 21b9 79db 18b9
00000320: 1a16 02b8 e002 7b3a 1e95 7b39 f9c2 e9b9
00000330: e4c0 2239 7dac 6ab8 8362 0a38 2c14 d837
00000340: 2922 2dbc 92b1 53bb a27a 4ebb 9111 16bc
00000350: 6a1a 13bb 9143 7a3a f68c ab39 df99 9539
00000360: 7722 76bc 7c23 07bc e82d 63bb 17c5 59bc
00000370: cfef 35bb e43b 9c3a 4936 c439 0ad2 a939
00000380: 14d1 1c3c af27 3d3b a1c3 173b e236 023c
00000390: 5ceb d33a 5d5e 35ba 45e0 93b9 b4c0 87b9
000003a0: ad4b 453b 45fe d23b 14d5 1539 0aa5 753b
000003b0: 6044 ce39 7306 75b9 de4a 65b8 0ea9 1bb8
000003c0: 1d75 33bc 5f68 afbb dc9a 43bb e639 16bc
000003d0: cc8c 19bb 1efa 863a d592 7f39 8391 5239
000003e0: 28df 233c 8ab5 413c 3442 123b a49a e33b
000003f0: c5ea e53a 5394 46ba b3f1 28b9 0b42 0cb9
0.005575052 0.0018531192 0.0013091286 0.0057172477 0.0011905978 -0.0005630778 -0.00016039937 -0.00014633556
0.0015620852 0.0016751897 0.0004403534 0.0011648651 0.00046442085 -0.00020678974 6.322269e-05 6.1699204e-05
-0.011393532 -0.0098171355 -0.001998009 -0.01119793 -0.0017356906 0.00072083256 0.00017884366 0.00013718016
0.016401544 0.0070330184 0.0041413293 0.016469752 0.0034083535 -0.0014709667 -0.00031154032 -0.00026678722
0.00090742484 0.0014112706 -0.0012226716 0.0022076627 -0.0004937819 0.00013862037 -0.000104288214 -8.9547386e-05
-0.0011456137 -0.0014307543 -0.000723798 -0.0005128629 -0.00034052003 0.00010329466 4.533426e-05 4.7558387e-05
-0.0042731236 -0.0027989156 -0.0019182031 -0.003620115 -0.0014262671 0.0006147507 1.4016321e-05 4.657585e-06
-0.005580765 -0.0077454676 -0.0004889647 -0.0056331833 -0.00057950907 0.00034787622 0.00012544896 0.00010401705
0.009352688 0.017259207 -0.0026813466 0.010810384 -0.00058591657 2.1080043e-05 -0.00039467282 -0.000350833
-0.00029798795 0.001349388 -0.00016191372 -0.00062168925 -2.9306495e-05 2.7935275e-05 3.930576e-05 3.114907e-05
-0.00873882 -0.012079234 -0.0023050096 -0.007438411 -0.0015592272 0.0005761528 0.00021172407 0.0001941206
0.0061400896 0.008283765 9.874289e-05 0.0062273904 0.0006435882 -0.00041708455 -0.00013987486 -0.00012626464
0.0007910533 0.0017175763 0.00013666181 0.00058804103 0.00022773884 -0.00011057771 6.4292064e-05 6.0434577e-05
-0.014778558 -0.0076402975 -0.0039179926 -0.013763299 -0.0028651347 0.0012640744 0.0004520595 0.00039655293
-0.019565824 -0.008271167 -0.0053213397 -0.01758351 -0.003856567 0.0017069554 0.0005784577 0.00051150727
0.016446313 0.009449845 0.0041021216 0.016009325 0.0031276692 -0.001439325 -0.00049757323 -0.00043396925
0.0038420227 0.003180613 0.00157167 0.0030641756 0.001043063 -0.00041884353 -5.383191e-05 -4.859976e-05
-0.0027580932 -0.0010443068 -0.0014971504 -0.0021222557 -0.0007907527 0.0003066876 6.078864e-05 4.857695e-05
-0.00039424066 -0.0012539966 -0.00027476595 0.00034709743 -5.0840445e-05 -2.6236985e-05 -3.4730387e-05 -2.8997752e-05
0.013092107 0.011948306 0.0022718378 0.012038672 0.0021472292 -0.0009839049 -0.00026637237 -0.00022750824
-0.007262292 -0.005324366 -0.0017533791 -0.007274966 -0.0013763197 0.0006255551 0.00019674544 0.00017008476
0.011420326 0.0060156374 0.0028383592 0.010431619 0.0021108347 -0.0009305479 -0.000261595 -0.00022693728
-0.0011010275 -0.00071625283 -0.00023434706 -0.0016310965 -0.00019947617 8.176741e-05 3.601662e-06 3.2952742e-06
0.008548539 0.00315681 0.0019845867 0.008055952 0.0014907647 -0.00066603685 -0.00028876725 -0.00025470325
0.010883797 0.005175135 0.0027628539 0.009908565 0.0022446106 -0.000927852 -0.00015443165 -0.0001457761
-3.1015e-05 0.00095753185 0.00023992776 -0.0004458649 0.00015521381 -5.595059e-05 3.299351e-05 2.57586e-05
-0.010567226 -0.0032301885 -0.00315062 -0.009159462 -0.0022446164 0.00095468113 0.00032720686 0.00028534138
-0.0150228655 -0.008248206 -0.0034664813 -0.013291619 -0.0027761345 0.0011919704 0.0003742448 0.00032390683
0.0095713325 0.0028862765 0.0023157375 0.007947655 0.0016168165 -0.0006918663 -0.0002820512 -0.00025892782
0.003010492 0.0064390027 0.00014289125 0.0037482404 0.00039342325 -0.00023367423 -5.466758e-05 -3.7112324e-05
-0.010953215 -0.005353018 -0.0029846942 -0.0091690775 -0.0023429869 0.0010297929 0.00024373394 0.00020081368
0.010001935 0.011823067 0.0022317292 0.006945925 0.001754128 -0.00075752026 -0.00016111768 -0.00013376043
