HFDRL_UNIT8/models/Archived/LunarLander-v3__ppo__1__1768735566__u100.pt (torch, 44753 bytes, 11 tensors)

critic.0.weight f4 [64, 8]
000000 18 a3 21 be 9e 39 2c 3d 13 82 e2 3c cb b2 83 3c
       -0.15784872 0.042047136 0.027649915 0.016076466
000010 d4 af 8e bd 51 d6 0a 3e 10 40 92 be 49 da 0f 3e
       -0.0696713 0.13558318 -0.285645 0.14048113
000020 91 f4 2a be e8 1f 58 3e 08 d3 86 3e a5 6d f0 bd
       -0.16694857 0.21105921 0.2633288 -0.11739663
000030 5c 24 20 be cb b1 54 be 55 c0 29 3e 0f 53 75 bd
       -0.1563887 -0.20770948 0.16577275 -0.059893664
000040 08 95 1a 3d 6c a0 5b be db 74 1e 3e d5 b5 ba 3d
       0.037739784 -0.21447915 0.15474264 0.09116713
000050 87 95 0d 3d 54 ce de 3d 9f df 3b 3e 8c 43 08 3f
       0.03456643 0.10879198 0.18347023 0.5322807
000060 79 c2 4d be 9d 99 a9 3d 7f 28 2a bb f1 ab fd be
       -0.20093717 0.082812525 -0.002596408 -0.49545243
000070 c8 bb 92 3e 62 88 c6 3b 42 6b 88 be cb e1 25 be
       0.2865889 0.0060587386 -0.2664433 -0.16199414
000080 ee 86 2e 3c 2c 9c 0b be ea 13 6e 3e a7 b5 42 bd
       0.010652287 -0.13633794 0.23249784 -0.04753652
000090 b5 25 9a bc 1d 97 c5 bd 60 ba 17 3d ec e0 b5 be
       -0.018816808 -0.09647963 0.037042975 -0.35523164
0000a0 02 e8 00 bd 01 8e 83 be e5 1c 3e bd 6c 11 fb bd
       -0.03147126 -0.25694278 -0.046414275 -0.12259182
0000b0 f9 d2 2c bd 3a d3 91 3e b4 d5 00 be 07 af 15 be
       -0.042193387 0.28481466 -0.12581521 -0.14617549
0000c0 f6 77 9e be b7 b3 28 be 4f b1 9e bc 05 f1 0a 3b
       -0.30950898 -0.16474806 -0.019371657 0.0021200788
0000d0 e2 8c c7 bd 94 92 6a be 38 a3 d9 3e 5e a7 2b 3e
       -0.09743668 -0.22907478 0.4250734 0.16763064
0000e0 f8 31 91 bd ac f9 ec 3e d5 74 11 3e 5e 87 13 3e
       -0.07089609 0.46284235 0.14204724 0.14407107
0000f0 cf 6b a1 bd 0b 6a 0f 3e 8d 79 88 3e 3c 39 c0 3e
       -0.07881891 0.14005296 0.26655236 0.37543666
000100 d0 53 24 3e bd 20 75 bd ff 7b 86 3e 8f 6b 4c be
       0.16047597 -0.059845675 0.26266477 -0.19962905
000110 27 8f af 3e b6 e1 9d bc bb 27 cf bc 72 13 eb bc
       0.34288904 -0.019272666 -0.0252875 -0.028695796
000120 58 77 21 3c 79 9b 3e 3e 4a 20 9f 3e 9f ae 7d be
       0.009855114 0.18613996 0.31079322 -0.24773644
000130 ad a2 35 3e 80 09 66 3d 93 75 74 3e 4c 4a 06 3f
       0.17737837 0.056161404 0.23872976 0.5245712
000140 17 43 b9 bd cf 70 d3 be 29 78 0a 3e 4f ef ba 3e
       -0.090459995 -0.41297004 0.135224 0.36510703
000150 d2 8e fb bc 86 70 86 3e 93 45 1e bc 74 0b 20 be
       -0.03070775 0.26257724 -0.0096601425 -0.15629369
000160 ce 1f 98 bd 00 b7 bc 3e 2b 1e 99 bd e6 43 33 3d
       -0.07427941 0.36858368 -0.07476457 0.043765925
000170 41 13 9f bd 35 ff 51 3e 2d d3 8b be 60 b1 e6 bb
       -0.07767344 0.2050751 -0.27309552 -0.0070401877
000180 d3 f6 50 bc 3a 02 8b 3e fa c9 9e 3d a8 55 9f bd
       -0.01275416 0.27150136 0.07753368 -0.077800095
000190 cd ed 96 bd b9 a0 9b 3c db 9b fa bd 88 f2 e8 3d
       -0.07369576 0.018997537 -0.12236758 0.11374384
0001a0 9b af 32 bd 39 69 05 be de f1 46 3e 68 13 b1 3e
       -0.0436245 -0.1302842 0.19428203 0.34585118
0001b0 1f 56 e4 bc 51 60 f8 3c 1b 49 6a be 52 c2 26 3e
       -0.027873097 0.030319365 -0.2287945 0.16285065
0001c0 fd bf cd bd a8 bf 47 bd cd 4e 13 3e 3c 70 7a 3e
       -0.100463845 -0.048766762 0.14385529 0.24456877
0001d0 ab 65 c2 3d ca 65 fe 3b 11 10 e2 3c c5 ff 39 3d
       0.09492048 0.007763599 0.027595552 0.045409936
0001e0 66 73 80 bd b8 3c bc 3d 50 c6 68 be d4 d6 72 be
       -0.062720105 0.09191269 -0.227319 -0.23714763
0001f0 72 23 12 bc c9 47 2a 3e e3 2a 5e 3d 9a 01 c1 bd
       -0.008919584 0.16628946 0.05424012 -0.094241336
000200 e3 93 03 3e f2 32 a6 3d d1 4f 38 3d 73 3a cd be
       0.12849383 0.08115186 0.044997994 -0.40083656
000210 ad 10 df bd 59 b6 5e bd 78 50 ea bd 91 25 5c 3e
       -0.108918525 -0.05437312 -0.114411294 0.21498705
000220 ec 93 b1 bd 4e a4 09 3e bd 8e ad 3e 70 dd 02 3e
       -0.08670792 0.13441584 0.33897963 0.12779784
000230 82 e0 8b 3e db 82 53 be 97 00 05 3c b2 d2 3c 3e
       0.27319723 -0.20655386 0.008117816 0.18439749
000240 87 1c a6 be 5e 95 24 be 07 56 81 3e 8f fa 11 3e
       -0.3244364 -0.16072604 0.25260946 0.14255737
000250 b2 51 50 be 2c ff e5 3d 5a 05 1a bc a5 c7 a1 bd
       -0.20343664 0.11230311 -0.00940069 -0.07899407
000260 cf 46 69 bd 97 70 88 3e e5 83 53 bd a9 e9 0b be
       -0.056952294 0.266484 -0.051639456 -0.13663353
000270 d6 df ec 3c 5d 0b 3b 3e 3e 21 ad be a1 a4 4f be
       0.028915327 0.18266053 -0.33814424 -0.20277645
000280 ab ef 49 3e 05 f5 ed bc b8 66 1f 3e cb 04 b8 3d
       0.19720332 -0.029047498 0.15566528 0.08985289
000290 86 3a 87 3d 54 9a 89 bd 2d 14 80 3b 46 6f f7 3c
       0.06602959 -0.06718889 0.003908655 0.030204426
0002a0 bf ae f9 3d d3 2c af bb 69 67 31 be 71 d0 7c be
       0.12191533 -0.0053459196 -0.17324604 -0.24688889
0002b0 83 5d 67 bd 57 b9 a9 3d 91 b1 43 be fa fa b1 bd
       -0.056485664 0.08287304 -0.19110705 -0.08690448
0002c0 a4 4a 3d 3e c3 cc d9 ba 8d 9d c1 3d ce 8a 59 3e
       0.18485504 -0.001661681 0.094538786 0.21244356
0002d0 2d 73 35 be 00 14 1c be ee 4d 01 be 1f 49 61 be
       -0.17719717 -0.15242004 -0.12627384 -0.2200055
0002e0 58 6b 54 3e 1d 5a 91 3d 43 9e db bd eb 05 53 3d
       0.20744073 0.07097266 -0.107235454 0.051519316
0002f0 28 fe 19 3e f6 13 da bd a6 bb 8a 3c f9 99 8f be
       0.15038359 -0.106483385 0.01693518 -0.2804716
000300 bb c2 97 bd d2 2e 52 3d c3 15 a8 3d b8 33 09 be
       -0.07410189 0.051314183 0.08207276 -0.13398635
000310 4a 0d 5c 3d 9e 47 57 be cc 1d 16 bf 82 4b 18 be
       0.05372361 -0.21023414 -0.58639216 -0.14872554
000320 9d 38 a1 bd 93 03 9b 3e 64 a7 07 3d 3a e8 62 3d
       -0.07872126 0.30276164 0.03311862 0.05539725
000330 c7 9e 75 3d 13 18 76 be 06 b4 ae 3d fc fd 90 bd
       0.059965875 -0.24032621 0.085304305 -0.07079694
000340 33 bf b6 bd 0b 8a 1d 3d 9d 65 a5 3d 7d 20 a2 3b
       -0.08923187 0.038461726 0.08076022 0.0049477206
000350 f4 38 77 3e 4c 35 0f be 3d 41 dd 3d a1 d8 27 3e
       0.2414282 -0.13985175 0.10803459 0.16391231
000360 83 f4 3f bd 8c e3 cd bd 63 5e c7 bc 90 cd 73 3d
       -0.046864044 -0.10053167 -0.024337 0.05952221
000370 03 54 7d be 29 ef 4e 3e 9b ca f4 3d 46 c5 9d 3e
       -0.24739079 0.2020842 0.119527064 0.3081457
000380 f3 40 8b 3e dd f2 1a bb bb 9c 8f be e6 49 1a bd
       0.2719799 -0.0023643293 -0.28049263 -0.03766813
000390 bc f6 f2 bd 98 37 f1 ba 07 0e c1 be 23 e8 c3 bd
       -0.11863467 -0.0018403409 -0.37706015 -0.09565761
0003a0 23 0f dc 3d 15 ac d5 3e 4d 60 46 be e2 71 92 3e
       0.107450746 0.4173285 -0.19372673 0.2860251
0003b0 56 5d 45 be aa 4b 82 3d 51 41 4e 3c c1 b1 db be
       -0.19273886 0.06362088 0.012588815 -0.42909053
0003c0 dd fd 8a be b2 7e b6 bd 6a 0d 30 be 90 4c ba 3c
       -0.27146807 -0.08910884 -0.17192617 0.022741586
0003d0 a8 b8 5c 3e f8 72 dc bd 83 34 d4 3d 55 67 b7 3e
       0.21554816 -0.10764116 0.10361578 0.35821024
0003e0 5f 0b e0 bd 33 a5 ea 3e 5e 86 1a 3e 76 80 21 bd
       -0.10939669 0.45829162 0.1509032 -0.03942915
0003f0 92 41 63 3e 88 16 15 3e 92 69 25 be 6f 3f 89 be
       0.22192982 0.14559376 -0.16153553 -0.26806208

critic.0.bias f4 [64]
000000 35 03 01 be 10 ca e7 3d e7 17 c3 3d 0b ca cd bd
       -0.1259888 0.11317837 0.095260434 -0.10048302
000010 6c e9 1c be ac bc ea bb 5b 26 1c bd 93 9c 08 3e
       -0.15323418 -0.0071636047 -0.038122516 0.13340978
000020 f5 21 fe bd 9e 64 fd 3d d8 0b 54 3d 11 e7 c0 bd
       -0.124088205 0.12372707 0.051769108 -0.094190724
000030 aa 4c 02 3e bf 2a f9 3d 09 4f c8 3d 62 fa f3 bd
       0.12724558 0.12166356 0.097807 -0.11912991
000040 97 a9 e8 3d fa 5e 36 3c 37 b3 fb bd 10 64 c6 bd
       0.11360472 0.011131043 -0.12290042 -0.09687054
000050 4e 44 d6 bd 73 c7 e0 3c 1c 41 a1 bd d6 02 03 be
       -0.10462247 0.027438855 -0.07873747 -0.1279405
000060 4a bd 1b bc fd db eb 3b d5 0c 00 3e 87 59 de 3d
       -0.009505579 0.0071978555 0.12504895 0.1085692
000070 91 ad d1 bd c4 20 99 bd e1 cc d8 3d 76 8e 8b bd
       -0.10238183 -0.07476953 0.105859526 -0.06814282
000080 ff 81 ec bd d0 e7 e8 bd 7e 04 0b 3e ae 2a ff 3d
       -0.11548232 -0.1137234 0.13575932 0.124593124
000090 24 4c f6 bd fb fd f7 bd e7 c0 eb bd 83 ab d6 3d
       -0.120262414 -0.1210899 -0.115114026 0.10481932
0000a0 62 99 e9 3b e4 71 f2 3d 69 4c e2 bd 7b 3d bf bc
       0.0071288804 0.11838129 -0.1104973 -0.023344746
0000b0 e7 ae 05 be 26 82 43 bd 66 a3 b1 bd 85 c2 ee bd
       -0.13055001 -0.04773154 -0.08673744 -0.116581954
0000c0 d7 7a f0 bd e2 14 bc bd fc 30 d7 bd 28 cc cd 3d
       -0.1174218 -0.091836706 -0.1050739 0.10048705
0000d0 96 b2 e2 bd 8d 3e ee 3c fb 86 a5 bd f7 0d 4a bd
       -0.11069219 0.02908256 -0.08082386 -0.049329724
0000e0 8e 0c 05 be 47 ee 95 3d a5 a6 0b be 73 ec ef bc
       -0.1299307 0.073208384 -0.13637789 -0.029287552
0000f0 a9 35 8c 3d ad 18 f8 3d 1b 35 10 be 11 dc 00 be
       0.06846172 0.121140815 -0.14082758 -0.12583949

critic.2.weight f4 [64, 64]
000000 e3 8b 3f 3e 0a 40 0f bf c5 b0 1c be 36 80 6e 3e
       0.18705706 -0.5595709 -0.15301807 0.23291096
000010 0e 84 38 3c 8f c1 a8 bd eb ec 2b 3e 58 41 b9 be
       0.011261953 -0.08240043 0.16789596 -0.36182666
000020 9f 7e 9c bb 3a d6 96 3e 54 70 24 be a4 ba a4 bd
       -0.0047758366 0.29460317 -0.16058475 -0.080434114
000030 5a ac bd bd 64 a0 48 be 51 9d a0 be 5e a4 57 3e
       -0.09261389 -0.19592434 -0.31370023 0.21058795
000040 21 b6 ff 3c c6 ec 17 be 71 88 32 3d 3a aa 11 3e
       0.031214776 -0.14836416 0.043587152 0.14225093
000050 7d 72 d2 bd 37 0a e4 3d 1f 92 21 3e 87 af d6 3d
       -0.10275743 0.11134761 0.15778397 0.10482698
000060 c8 05 93 3e b5 fe 85 3d 7e f0 45 3e 6c ee 21 3c
       0.28715348 0.06542722 0.19330022 0.009883504
000070 6b 6f 82 3c 05 54 b7 3d e4 b1 02 3b 8e a6 a1 3d
       0.015922269 0.08951572 0.0019942457 0.07893096
000080 c5 a4 50 bd c1 2b 46 3e f5 d3 35 3e 84 b2 b1 bd
       -0.050938386 0.19352628 0.17756636 -0.08676627
000090 c8 22 a3 be 03 8c 85 be d0 d5 ac bd 81 db 04 bf
       -0.31862473 -0.26083383 -0.08439219 -0.51897436
0000a0 c5 30 4e 3e 93 61 59 be 09 8a 2d 3d 50 05 a5 bd
       0.20135792 -0.21228628 0.04236797 -0.08057654
0000b0 69 94 78 be 90 35 ea 3d 92 0c a4 3d 26 44 98 3e
       -0.24275364 0.114359975 0.0801021 0.29739493
0000c0 37 dc 5d 3d 5d 1b 4b 3e 46 2c 6b bd e6 81 92 bd
       0.05416509 0.19834657 -0.05741527 -0.071536824
0000d0 84 77 b2 3d bf 83 a2 bd 8c 25 b9 bb 7f e3 00 3e
       0.08714202 -0.07935285 -0.005650228 0.12586783
0000e0 18 22 27 3e 6c ce ab bd 6b 93 9a 3d 17 d8 ce bb
       0.163216 -0.08388981 0.07547649 -0.006312381
0000f0 f1 a3 24 3e d4 7d 6e 3e 0e 7b 73 be 11 af 98 3d
       0.16078164 0.23290187 -0.2377741 0.07455266
000100 5e f1 91 3e d5 2e 02 3e fd 58 a2 bc 1f 22 85 3d
       0.2850446 0.12713178 -0.019817824 0.06500649
000110 ed e4 1a 3c db f4 2e be a6 5b ed 3d fb 5f 88 be
       0.009453994 -0.17085592 0.11589746 -0.26635727
000120 10 ef 20 bb 41 5d 9b be 5c ce c8 3a bf 01 c0 bd
       -0.0024556555 -0.30344585 0.0015320289 -0.09375333
000130 21 7c c8 3e 3e be 80 3e b1 30 2d be fc a8 83 3e
       0.39157203 0.25145143 -0.16913106 0.25714862
000140 e8 82 80 bd 4d c4 98 be 9c 11 d7 3e 66 d7 ff bd
       -0.062749684 -0.29837266 0.42005622 -0.12492256
000150 d0 3f 9e 3d ef 59 8f 3d f3 c3 29 bb 25 f1 b0 3d
       0.07727015 0.06999575 -0.0025904148 0.08639745
000160 30 06 d8 bc f6 e7 f3 3d 83 1a f5 bd db e8 72 bd
       -0.026370138 0.119094774 -0.11967947 -0.0593041
000170 04 5f 7d 3e 07 55 8f 3e b5 9e ea bd b9 93 2e 3e
       0.24743277 0.27994558 -0.11456052 0.17048539
000180 35 f4 5a 3e 92 9a ec 3d 8f e0 df bd 6b 61 3e be
       0.2138222 0.115529194 -0.10931503 -0.1859185
000190 83 48 02 3d 13 7e a8 bd 5e d5 d3 bd 36 b6 53 3e
       0.031807434 -0.08227172 -0.10343431 0.20674977
0001a0 94 30 71 3d 3d 98 9f bd d1 13 6a 3e a7 fd 51 bd
       0.05888422 -0.07792709 0.22859122 -0.051267292
0001b0 36 96 12 3e 40 7c 16 3e 5b e8 9c 3e 6c 25 81 3c
       0.14315113 0.14695835 0.30646023 0.015764914
0001c0 c7 22 d0 3e fe 24 cf bd 66 5f 16 3d 0c e3 eb bd
       0.40651533 -0.101144776 0.036712073 -0.11517915
0001d0 a7 9a c7 3d d2 84 ca bd 3c ce 92 bd 47 32 e3 bd
       0.097462945 -0.09888615 -0.07168242 -0.11093574
0001e0 41 4f ba 3e 1b 9e 62 be e3 b5 58 3e 39 52 40 3e
       0.3638859 -0.22130625 0.21163134 0.18781365
0001f0 ee e0 94 3d 54 db 6b bc 35 86 76 be 20 21 f0 3b
       0.072694644 -0.014395554 -0.24074633 0.0073281676
000200 7c e9 06 be 67 cf 27 3e fe fd 6a 3e a0 57 14 3d
       -0.13175005 0.16387711 0.22948453 0.03621638
000210 a8 c4 84 3e 62 46 81 bd ac c9 96 3d 3c b2 7c 3e
       0.25931287 -0.063122526 0.073626846 0.24677366
000220 c0 01 93 be 94 30 bf 3e 06 76 3c be 33 3e 71 be
       -0.28712273 0.3734175 -0.18404397 -0.23558883
000230 b3 f8 4a bd ff 4f 97 3e f2 6c 63 3e 9a 1c 97 be
       -0.049553584 0.2955322 0.22209528 -0.2951401
000240 7d 24 b5 be a9 34 a8 b9 77 55 55 3d 97 b2 e3 bd
       -0.353794 -0.00032082692 0.05208346 -0.11118048
000250 9e b4 14 be 1c 25 bb bd f3 da 10 be cb 80 91 bc
       -0.14522025 -0.091379374 -0.14146022 -0.017761609
000260 bd 8c 19 be 90 4f a3 3d 2e e6 e6 3e 8d c2 62 3e
       -0.14995094 0.0797416 0.45097488 0.22144528
000270 77 25 b6 3c 5a 2c cf be 52 02 49 be d7 ad a6 be
       0.022234662 -0.40463525 -0.19629791 -0.32554504
000280 71 f8 8a 3e 5f 46 84 3d dd 0f 10 bd c8 b9 06 3e
       0.2714267 0.06458735 -0.03517138 0.13156807
000290 e8 12 c5 bd ef ea f0 bd a3 fd d1 ba 8a 55 2a 3e
       -0.09622747 -0.1176356 -0.0016021024 0.16634193
0002a0 f3 9d e8 3d a8 d7 97 be b8 67 82 3e 52 48 48 3d
       0.113582514 -0.2965672 0.25469756 0.048897095
0002b0 cd b1 86 3c 33 e6 3c be 0a 5b d8 3e e0 d5 6b 3d
       0.016442204 -0.18447189 0.42256957 0.057577014
0002c0 ec 3b ab 3c 5e ba 28 bd ef 31 93 3c 81 f8 f5 ba
       0.020902596 -0.04119336 0.017968146 -0.0018766077
0002d0 3c f3 11 be f8 65 fb 3d 55 8c 7c 3d b0 e9 7d bd
       -0.14252943 0.12275308 0.06165727 -0.06199044
0002e0 ed 62 a8 be a5 b6 ae 3c 78 89 4d 3d dc e6 46 be
       -0.32887974 0.021327326 0.05017993 -0.19424003
0002f0 4c f7 7d 3d 8b 3a 43 3d 89 cd ca bd 3b 78 24 bd
       0.06200342 0.047663253 -0.09902484 -0.040153723
000300 46 86 8d 3e 96 f0 2e 3e 40 c9 45 be 67 1c 88 3e
       0.27641505 0.17083964 -0.19315052 0.2658417
000310 71 61 18 3d 6c 08 12 be df eb 14 bf 27 01 0a be
       0.037202302 -0.14261025 -0.5817241 -0.13477002
000320 dc 2c d3 3d 97 00 0d 3d 2c 4f bb 3d cb a5 c4 3c
       0.103112906 0.03442439 0.0914596 0.024004837
000330 9a 87 99 bd 69 e6 22 3e 41 f6 41 be b9 15 89 3e
       -0.07496567 0.15908207 -0.18941595 0.26774386
000340 f4 c5 9b bd 98 f9 76 3d 08 fd 96 bd 15 59 22 3e
       -0.07606116 0.060296625 -0.07372481 0.15854295
000350 08 cb 34 be d8 47 08 3e 2d 4f ce 3e aa 16 4d 3e
       -0.17655575 0.13308656 0.4029478 0.20028177
000360 79 c7 25 be 9d c9 79 bd 63 c3 8f be 04 e3 4b be
       -0.16189374 -0.06098329 -0.28078756 -0.19910818
000370 bd 3a a4 bd 09 91 d8 be b4 e4 37 3e 03 51 21 3e
       -0.08019016 -0.42298153 0.17958337 0.1575356
000380 fd c1 8d 3d 20 25 55 3e 45 a5 8a bd 5c e6 2d be
       0.06921766 0.20814943 -0.06769804 -0.16982406
000390 83 43 ec bd e3 9c 91 be dc de 1b 3e 59 ee b8 bd
       -0.11536314 -0.28440008 0.15221733 -0.09029836
0003a0 8f f3 ed 3d 9d a8 56 bd 3e 9b 16 3e 45 66 e9 3d
       0.11618721 -0.052406896 0.14707658 0.113964595
0003b0 42 2c 06 be df 8d c0 3e 31 d1 d2 bd 55 54 9a 3d
       -0.1310282 0.3760824 -0.10293806 0.07535616
0003c0 a9 fc 86 3e a3 fc 64 3d 98 4f 51 be 9b 29 ca bd
       0.2636464 0.055904996 -0.20440519 -0.09871217
0003d0 da 7d 23 3e 85 77 e8 bd 38 48 84 bd e1 3d a0 be
       0.15965977 -0.113509215 -0.06459087 -0.3129721
0003e0 c8 97 1b 3e 03 22 47 be e6 fa 1c 3e 83 ea 16 3e
       0.15194619 -0.19446568 0.15330085 0.14737897
0003f0 9a 1c 8c be cf c1 a8 be 61 5c 27 be ef bf 1a 3c
       -0.2736557 -0.32960364 -0.16343834 0.009445175

critic.2.bias f4 [64]
000000 54 e3 c9 bd b5 d9 a1 bd c0 5a d4 3d c3 f0 02 be
       -0.098578125 -0.079028524 0.10368872 -0.12787156
000010 e6 13 15 be e3 5f be bd 17 7c cc 3d f4 96 14 be
       -0.14558372 -0.09295633 0.09984606 -0.14510709
000020 ae a1 03 be 06 8b fd 3d d8 6c c5 bd 05 1b 77 bd
       -0.12854645 0.12380032 -0.09639901 -0.060328502
000030 fa 98 dd bd 52 ce e2 bd 37 0d eb bd 64 47 cb 3d
       -0.108201936 -0.11074509 -0.1147713 0.09925726
000040 65 e0 cb bd 4a 58 c7 bd 5c 0c bf bd 0b e0 47 3d
       -0.09954909 -0.09733637 -0.09328529 0.04879765
000050 87 94 ea bd 93 e7 c9 3d 6e 8f d2 bd 9f 55 bc bd
       -0.114541106 0.098586224 -0.10281263 -0.091960184
000060 23 f9 17 bc 5b 38 c5 3d 1c e9 c2 3d e4 11 bd 3d
       -0.009275707 0.096298896 0.09517118 0.09231928
000070 0a d7 03 3e 65 d8 f7 bd 62 b5 c0 3d e1 f1 fe bd
       0.12875 -0.12101821 0.09409596 -0.124484785
000080 87 ba b7 bd c4 99 d9 3d 3c cb fa 3d ae 68 d8 bd
       -0.08971124 0.106250316 0.12245795 -0.10566841
000090 59 17 fc 3d 15 44 cd 3d 79 f3 cd bd 14 27 e1 bd
       0.12309141 0.10022751 -0.10056204 -0.10993782
0000a0 e4 02 25 be c9 e4 de bd 8e 59 dd 3d fe 63 c9 bd
       -0.16114384 -0.10883481 0.10808097 -0.09833525
0000b0 33 08 0e 3e 60 cc fb 3d 5f dd cd 3d 2f 20 c2 bd
       0.13870315 0.12294841 0.10051989 -0.09478795
0000c0 54 a9 13 3e 7e 23 35 3d 24 eb d0 3d ab c0 db 3d
       0.14420062 0.0442233 0.102010995 0.10730108
0000d0 4f 38 da 3d 88 aa b3 3d d3 e0 c9 bd 9f f4 bb 3d
       0.10655271 0.08772761 -0.09857335 0.09177517
0000e0 92 c1 00 3e 50 be cb bd 53 13 99 3d e2 01 c7 3d
       0.12573841 -0.099484086 0.07474389 0.09717156
0000f0 cb 16 e8 bd 2a 6d f2 3d d1 c1 c2 3d b1 81 d5 3d
       -0.113324724 0.11837228 0.09509624 0.10425127

critic.4.weight f4 [1, 64]
000000 c1 64 2a 3e f8 b4 14 3e cb 1e 0c be 44 08 ff 3d
       0.16639997 0.14522159 -0.13683622 0.124527484
000010 82 b7 be 3d ba 89 ab 3e 98 2a 0d be 8b fb af 3d
       0.09312345 0.33503515 -0.1378578 0.085929
000020 e1 10 b2 3d 54 53 08 be 07 e9 86 3e 49 7b e6 3d
       0.08694626 -0.13313037 0.2634966 0.112539835
000030 e8 a5 19 3e 92 7a 06 3e 48 35 59 3e 42 c6 06 be
       0.15004694 0.13132694 0.21211731 -0.13161567
000040 66 76 25 3e 03 56 62 3e e0 b3 18 3e 6d cf 83 bd
       0.16158447 0.22103123 0.14912367 -0.06436048
000050 84 82 6a 3e 62 59 b8 bd 1f d3 bc 3d 56 55 c9 3d
       0.2290135 -0.090014234 0.09219956 0.0983073
000060 d8 f5 9d bd 72 a7 97 be 9e e1 88 be 88 40 c6 be
       -0.077129066 -0.29619938 -0.26734632 -0.38721108
000070 52 37 1a be 96 70 3e 3e e7 3b 8a be dd c7 19 3e
       -0.15060166 0.18597636 -0.26998827 0.15017648
000080 80 45 ab 3e dc 60 20 be a7 d8 ef bd 28 20 56 3e
       0.33451462 -0.15661949 -0.11711245 0.20910704
000090 42 7e 5e be 4c 1a b6 be 20 5e 5c 3e 8f 86 5b 3e
       -0.21727851 -0.35566938 0.21520281 0.21438049
0000a0 1e 6b 8c 3d db a9 8f 3e df 8b 19 be 7c f3 6b 3e
       0.068563685 0.28059277 -0.14994763 0.230421
0000b0 01 d5 9c bd 07 6f 4f bd 4f 23 98 be 40 c3 fd 3d
       -0.07657815 -0.050642993 -0.29714438 0.123907566
0000c0 0d 38 b8 bd df 81 0b bc f5 a3 42 be 48 c2 9a be
       -0.08995066 -0.00851485 -0.19007857 -0.3022635
0000d0 04 cf 11 be 11 74 ae bd 58 ae 44 3e 81 cd b3 be
       -0.14239126 -0.08518232 0.19207132 -0.35117725
0000e0 9a d3 32 be d5 15 4d 3e 29 c1 a7 bd 11 eb 68 be
       -0.17463532 0.2002786 -0.08191139 -0.2274592
0000f0 48 ca 3e 3e 2c 29 b8 bd e0 22 b5 be bb 2a ee be
       0.18631852 -0.08992228 -0.3537817 -0.46516976

actor.0.weight f4 [64, 8]
000000 10 dd 6b bd 5f 21 bd 3c 96 7a 72 3e ce 6c 92 bd
       -0.05758387 0.023087202 0.23679575 -0.07149659
000010 90 63 17 bf 25 af 2e be 37 47 98 3d 44 21 51 3e
       -0.59136295 -0.17059 0.07435458 0.20422846
000020 cd 89 6e be 44 cb bc 3d 9f 0b ac bd 45 98 14 3f
       -0.23294754 0.09218457 -0.08400654 0.58044845
000030 4b 2c 48 3e ba c8 8f bd 49 2e b7 bd 3e 13 1a 3e
       0.19548146 -0.070207074 -0.08944375 0.15046403
000040 31 5d 79 3b 46 6e 8b be 23 bc 86 bd a6 c1 0b bf
       0.0038049931 -0.2723257 -0.06578853 -0.5459236
000050 9f ea 9b 3e 8f 44 01 bd f7 f4 b5 be 77 cb 8f be
       0.3045244 -0.031559523 -0.35538456 -0.2808492
000060 39 28 9a bd 0e ad c6 bc ab 7e 67 be d4 9b b0 bd
       -0.07527203 -0.02425244 -0.22606914 -0.08623472
000070 58 84 c7 3e 6c db b3 bd 0e b6 47 be 82 bc 73 be
       0.38968158 -0.08782086 -0.19503042 -0.23802379
000080 2e 82 01 3e 64 e5 3b bd 16 09 03 be 64 bf 32 be
       0.12647316 -0.04587306 -0.12796435 -0.17455822
000090 c4 df 5f 3e 74 23 1e 3e 05 d3 38 3e f9 a1 9b be
       0.21862704 0.15443212 0.18049248 -0.30397013
0000a0 c9 c6 cf bd ad d1 84 be 62 7a 90 3d dc 89 b7 3e
       -0.10145337 -0.2594122 0.07054593 0.35847366
0000b0 1c 8a 9b be e4 01 78 3d af 1c 74 3d 2a 26 bf 3d
       -0.30378807 0.060548678 0.059597667 0.09333451
0000c0 9f 71 a6 be 08 69 8c ba ea 58 62 bd cd 5b 4a 3d
       -0.3250856 -0.0010712454 -0.055260576 0.049403954
0000d0 fe dc 6a be 45 6e 02 bd e4 a2 23 3e c5 73 aa be
       -0.22935864 -0.031843442 0.15980107 -0.3329145
0000e0 70 9b e0 bd a2 ba 54 be c9 6d 87 3e 04 4b da 3e
       -0.10967147 -0.2077432 0.26450947 0.42635357
0000f0 5d cc 1f bf 11 f6 fd be c6 e3 d9 3d 59 d0 24 3e
       -0.6242121 -0.49601796 0.106391475 0.16095103
000100 12 e5 58 be bf 49 1d 3e 89 de fc be 38 d3 bc be
       -0.21181133 0.15360163 -0.4938853 -0.36879897
000110 d4 dd b5 3e 11 ea aa 3e 73 07 0c bf a0 47 bf 3d
       0.35520804 0.33381703 -0.54698867 0.09339833
000120 79 03 00 be 2c e2 cc 3c f6 c8 9e 3c 32 d8 2c 3e
       -0.12501325 0.02501019 0.019382935 0.16879347
000130 15 fc 97 be 66 a4 b4 be a6 f9 e0 bd dd ef 0d 3e
       -0.2968451 -0.35281676 -0.10985117 0.13861032
000140 9d 17 84 bd d4 81 87 3d 6b 87 f8 3c fe 10 8a bd
       -0.064498164 0.066165596 0.03033801 -0.06741522
000150 9d 1f ca be 4a 8a 91 3c 1a 8b 85 3e 7b d1 1c 3e
       -0.39477244 0.017766137 0.2608269 0.15314285
000160 1c d4 d9 3c 33 ad ac bd 95 50 2a 3d b8 a8 0c 3c
       0.0265904 -0.08431473 0.041580755 0.008585148
000170 1f e9 e9 be 63 9c 8e be e5 ba 02 3e 31 a0 3c be
       -0.4568567 -0.2785369 0.12766607 -0.18420483
000180 f2 c8 49 be 30 3b d3 bd 3c 71 85 be 6b a9 86 be
       -0.19705561 -0.103140235 -0.26062953 -0.2630113
000190 e7 4a 89 3e 8b 5c c0 3e ae 0b 19 bd 11 e2 02 be
       0.26814958 0.37570605 -0.037364654 -0.1278155
0001a0 4b be a1 be 17 1f 9e 3e 4e 03 56 3d 12 c3 38 3c
       -0.31590495 0.30883095 0.052249245 0.011276977
0001b0 2b f0 f2 3c 8f 68 96 bd 3a 7d 7b 3e b1 bb b4 3c
       0.029655537 -0.07344162 0.24559489 0.022062154
0001c0 53 78 03 be 98 54 3e be 67 ac ca 3e 05 7f ef be
       -0.12838869 -0.18586957 0.39584658 -0.46776596
0001d0 c2 2f 83 be c1 e3 3d bd 7e f6 ab 3c 56 53 03 3d
       -0.25622374 -0.04635978 0.02099156 0.032061897
0001e0 bc df 32 be dc 48 c5 3d 30 75 b2 3d 00 06 13 be
       -0.1746816 0.096330374 0.08713758 -0.14357758
0001f0 5b 64 88 be 31 a0 e3 bd 57 da a3 bd 12 b3 bc 3d
       -0.26639065 -0.111145385 -0.080006294 0.092138425
000200 0f b2 91 be e8 a8 8a bd af a8 2d 3e 18 83 fe 3e
       -0.2845616 -0.067704976 0.16958879 0.49709392
000210 0a 2b 74 be bd a2 b3 be df 22 86 3c d6 93 c1 3d
       -0.23844543 -0.35085097 0.01637405 0.094520256
000220 b6 c4 2e 3e 7e 87 cc 3d f5 89 2d be f2 25 96 be
       0.17067227 0.099867806 -0.16947158 -0.29325825
000230 4f b7 00 3d 2a 4f d5 bb f8 3a 23 3e e5 f9 41 be
       0.031424817 -0.006509681 0.15940464 -0.18942983
000240 10 33 2d 3d 6b e6 b1 3d ca c7 9f be 93 82 05 3e
       0.042285025 0.08686527 -0.31207114 0.13038091
000250 ba 60 95 3e 29 7c 18 3e 3f e9 d3 3c 79 aa e1 3c
       0.2917536 0.14891113 0.025868056 0.027547108
000260 08 c6 15 3e 77 60 cc bc 57 97 69 3e 9e fd e0 bd
       0.14626324 -0.024948342 0.22811638 -0.10985874
000270 a1 e9 04 bf 60 d1 af be 57 00 95 be 7b cf 14 be
       -0.5191899 -0.34339428 -0.29101822 -0.14532273
000280 c8 c1 0a bd 66 37 20 be 59 be 55 be b3 13 86 bc
       -0.03387621 -0.15646133 -0.20873393 -0.016366815
000290 65 78 49 3c eb b1 53 3e 64 3a 5a 3d be 7a 3f 3e
       0.012296771 0.20673339 0.053278342 0.18699166
0002a0 1e 59 d3 3d c4 48 a2 3c 68 cd eb 3d 05 fd 41 3e
       0.10319732 0.019810088 0.115137875 0.18944176
0002b0 8f ad d2 be 6e a8 c2 be 5a 44 3d 3d 2e c3 9a 3d
       -0.4114804 -0.38019127 0.046207763 0.07556759
0002c0 ca f5 e8 3c 35 40 1e 3e f5 09 2f be 9f 7b 1b 3f
       0.028437514 0.1545418 -0.17093642 0.60735506
0002d0 09 67 d5 3e 5d cb 96 3e 4a de d2 3d fe 04 54 bc
       0.41680172 0.2945203 0.102963045 -0.012940643
0002e0 54 24 8c 3e 6f 86 37 3e ea dd 3b 3e ef 27 ca be
       0.27371466 0.17922376 0.18346372 -0.39483592
0002f0 4b 49 eb 3e 66 b4 41 3e 13 b3 89 be ad 6d 1a bd
       0.45954356 0.18916473 -0.26894435 -0.03770225
000300 b2 cd 94 be e0 86 df 3c dd 68 ba bd af 95 82 3e
       -0.29063183 0.027285993 -0.09102032 0.25504825
000310 0d 09 47 be 54 80 91 be 38 14 3f 3d 35 4e 9a 3d
       -0.19437046 -0.2841822 0.04665014 0.07534448
000320 ff c5 09 bd 4e 2f a1 3d 2e 57 02 be ae 68 dd be
       -0.03363609 0.07870351 -0.12728569 -0.43243927
000330 87 94 01 3d 3b d7 86 3e a5 f7 3f be 94 42 32 3d
       0.031635787 0.26336083 -0.18746813 0.043520525
000340 e3 4d ac 3d cb 0a 77 3c f3 b9 10 3f 5b 81 44 3e
       0.08413293 0.015078257 0.56533736 0.1918997
000350 42 23 74 be 32 e8 1b bd 1e 3b 49 be 17 b0 86 3e
       -0.23841575 -0.038063236 -0.19651458 0.2630622
000360 be 9d dc 3d ab c9 1f be 04 b4 d2 bd 24 b6 bf be
       0.107722744 -0.15604274 -0.102882415 -0.3744365
000370 07 06 e8 3e f8 e8 ef 3e c2 76 80 3d d6 0f c8 3d
       0.45317098 0.4685743 0.06272651 0.097686455
000380 79 67 96 3c 8f bc 72 be 1e c5 cb bd 77 61 44 be
       0.018359886 -0.23704742 -0.099497065 -0.19177805
000390 a9 4e 0b 3f 7a ff 84 3c 0f 1e 31 be 5b d1 fd bc
       0.544169 0.016235102 -0.17296623 -0.030983618
0003a0 30 ef f1 3d 0c 00 67 bd 8c 40 a2 3c a6 da 3d bf
       0.118131995 -0.05639653 0.019806169 -0.74161756
0003b0 16 a7 2b be d9 d7 12 bf 0a dd c2 bd 25 a0 bc bd
       -0.16762957 -0.5736061 -0.09514816 -0.09210233
0003c0 ef 98 a9 bd 9e 58 12 bd 94 95 4a bd 8e 7a 01 3f
       -0.08281123 -0.035729043 -0.049459055 0.5057763
0003d0 e3 66 d1 3e fc 8d 2b 3e 42 33 4b bc 70 59 34 bd
       0.4089881 0.16753381 -0.0124023575 -0.044030607
0003e0 56 44 e1 3d b6 91 9f bc ac 6e 3a bd 4b 1a b8 3e
       0.10999362 -0.01947866 -0.0455157 0.3595756
0003f0 ae 56 68 3e 63 26 06 3d 36 13 e6 bc f5 c5 6a be
       0.22689316 0.032751452 -0.028085332 -0.22927077

actor.0.bias f4 [64]
000000 a2 72 38 bb c6 fa 44 3b 72 d9 68 3d 94 b4 03 b9
       -0.0028144498 0.00300567 0.056847997 -0.00012560404
000010 d9 96 a8 3a ca 27 01 bc 7a e4 11 bc 2f b0 16 3d
       0.0012862339 -0.007883022 -0.008904571 0.036789116
000020 5c 57 0b bd 8d 05 57 3d 55 e1 09 bd 87 d4 68 3c
       -0.03401886 0.052495528 -0.03366216 0.014210827
000030 8e c2 0f 3c f7 e1 d6 3b f2 18 31 3d b3 68 27 bd
       0.008774413 0.006557699 0.04323668 -0.040871333
000040 fd f2 19 bb 3a f7 ca bc 5b ec 22 3c 87 6b 11 3c
       -0.002349078 -0.02477609 0.009944047 0.008875734
000050 10 30 54 3c 58 8c ab bc 05 ee 3f bd d2 db 89 b9
       0.012950912 -0.020940945 -0.046857852 -0.00026294455
000060 f6 3a cf 3c 68 fd a3 3c c4 74 e6 bb 38 8e 2e 3d
       0.02529667 0.020018294 -0.0070329625 0.0426161
000070 76 24 3f 3d cc 3d 79 3c 43 83 e9 bc 2a 53 01 bc
       0.04666563 0.015212487 -0.028504973 -0.007893363
000080 01 bc 11 3c 74 05 ab 3b 31 d7 8e 3c e6 61 10 bd
       0.008894921 0.005219156 0.017436596 -0.035249613
000090 bb 0e 63 3c 59 92 1f 3d 80 7c f4 bb b7 d5 b0 ba
       0.0138584925 0.038957927 -0.0074611306 -0.0013491426
0000a0 dd cd f8 bc fd 69 a1 3b 55 c1 6d 3c 0d 60 a5 bc
       -0.0303716 0.004925965 0.014511426 -0.020187402
0000b0 a5 c5 19 bc 09 dc 89 bc a8 0e b8 bc 37 41 aa bb
       -0.009385501 -0.016828554 -0.022467926 -0.0051957625
0000c0 89 3b d4 3c df 5a aa bc 93 e8 52 bc e6 4c fa bc
       0.025907295 -0.020795284 -0.012872833 -0.030554246
0000d0 22 64 89 3c 90 1c 9e 3c 92 f2 3c 3b d2 db 86 bc
       0.01677138 0.019300729 0.0028831107 -0.01646224
0000e0 01 be 4b bd 5f 7a c1 3b f1 c6 9d bb eb 51 23 bd
       -0.04974175 0.0059044803 -0.0048149754 -0.039873045
0000f0 f2 4e ae 3c c3 8e 14 bc db ba f4 3c 2f 69 1d bd
       0.021277878 -0.00906724 0.029874256 -0.03843039

actor.2.weight f4 [64, 64]
000000 ee f2 87 3e 59 2b 47 bd 36 be 7a 3e 01 0a c7 be
       0.26552528 -0.048625324 0.24486622 -0.3887482
000010 2f 1d f5 3d 4b 2c eb 3d 9c f7 71 be 1f ed 00 3e
       0.11968457 0.114830576 -0.23629612 0.12590455
000020 8b 60 b0 3d b9 70 6e be 35 7c 3c 3e f1 d3 32 3e
       0.08612164 -0.23285188 0.18406756 0.17463662
000030 06 d1 b0 3c 84 09 b3 3d fc 55 12 bd 6f 20 50 3e
       0.021584045 0.08742049 -0.035726532 0.20324872
000040 5b 4e 38 3e 2b e7 9b 3e 26 55 40 3d 6e 11 c1 3e
       0.1799864 0.30449805 0.046956204 0.3770861
000050 ce 35 cb bd dc 02 f7 3d 37 0d 9c bd 0c 37 82 3b
       -0.09922372 0.12061092 -0.07619708 0.0039738473
000060 d8 1b bb 3d ce 59 27 3c 32 23 0c 3e c8 97 32 3e
       0.0913617 0.010214282 0.13685301 0.17440712
000070 54 00 1a be 97 59 e0 3e 3f 1b b2 be e8 41 04 bf
       -0.15039188 0.43818352 -0.34786412 -0.51663065
000080 3e f5 3e 3e 30 ee 38 3e 3c 69 a3 3d c9 16 9a 3e
       0.1864824 0.18059611 0.07979056 0.3009551
000090 78 fb 0e 3e 13 2f d2 3d 3e d6 aa 3e 12 d2 5e 3d
       0.13963115 0.10262885 0.3336658 0.054399557
0000a0 43 40 0f 3f 42 cf f5 bd e1 fe 47 be 8a 13 4a 3e
       0.5595743 -0.12002422 -0.19530822 0.19734016
0000b0 ab a2 80 3e 45 25 f8 3d 2d b9 71 bd 89 f7 d1 bc
       0.25124106 0.121164836 -0.059014488 -0.02563073
0000c0 a8 d5 c4 3c 0b 4a 53 3d b8 30 92 bd a8 c4 ae bd
       0.02402766 0.051584285 -0.071381986 -0.08533603
0000d0 5b 5b a5 3a 55 cf 81 3e 6f 5c 79 3e 22 16 11 be
       0.0012615727 0.25353494 0.24351667 -0.14168599
0000e0 06 65 85 3d 1f 9e 7a 3e 3a 29 f6 3b 9c 39 47 3e
       0.06513409 0.24474381 0.007512239 0.1945557
0000f0 5f f9 62 3e 32 09 12 bf 3e f4 b9 3e dc 7e 8c be
       0.2216544 -0.5704528 0.36319155 -0.27440536
000100 62 3b f5 bd 47 27 f3 bd 2f ba 5a 3e aa db af 3e
       -0.11974217 -0.11872726 0.21360086 0.34347278
000110 32 af 53 3e f5 23 16 be 43 66 d6 bc c2 5c e8 be
       0.206723 -0.14662154 -0.026171809 -0.4538327
000120 68 f3 e5 3c 93 93 8d 3d 9e ac 32 be fc 63 7a be
       0.028070167 0.06912913 -0.1744866 -0.24452204
000130 56 d6 65 3e f1 2a 46 bd b3 1d bd be c9 f3 6f 3e
       0.22445044 -0.048380796 -0.3693672 0.2343284
000140 75 8d b9 be 3b 20 01 be 5a 3d d0 3e 2e 86 02 3d
       -0.36240736 -0.12609951 0.40671808 0.031866245
000150 c8 b5 9e 3d 53 7a a2 bd d2 07 05 bd 9a ee 47 3e
       0.07749516 -0.07933488 -0.03247816 0.19524613
000160 40 6b 8a be 8c a5 81 3e b6 d7 9f 3d a0 43 b6 3d
       -0.2703495 0.25321615 0.078048155 0.08899617
000170 f2 80 bd 3c 78 da 28 3e 3f f9 f9 3c d7 12 98 3d
       0.023132775 0.16489589 0.030514358 0.074254684
000180 07 d5 80 be 63 66 80 be eb 31 70 3c fc 96 6e 3e
       -0.25162527 -0.25078115 0.014660339 0.23299783
000190 02 6c dc be 9f 9a 5c 3e 7b 46 76 3d 5d 75 76 be
       -0.43051153 0.21543358 0.06012581 -0.24068208
0001a0 ca b1 29 be 8f 6e ae bd cb 3d e5 3e 37 f3 69 be
       -0.16571727 -0.08517181 0.44773707 -0.22846685
0001b0 cc 64 fe be b5 71 f8 bc c9 ee 6f 3e 09 cb 45 3c
       -0.49686277 -0.030327657 0.23430933 0.012072333
0001c0 2e f3 f3 3c f4 a5 ce be b9 ef c7 3d 15 09 a6 3e
       0.029779043 -0.40360987 0.0976252 0.32428804
0001d0 5f 14 d0 3d 4f 8d 17 bc 48 60 1b be da 93 0a 3b
       0.101601355 -0.009249999 -0.15173447 0.0021145255
0001e0 30 21 81 3e ca 55 91 3e 5f 3e fd 3c 2f 1f 61 be
       0.25220633 0.28385764 0.03091353 -0.21984552
0001f0 99 ba 5a bd 2e 27 a4 3e cb 7d 9c 3e f9 68 82 3e
       -0.05340061 0.32061142 0.30564722 0.25470713
000200 13 75 25 be a2 b9 97 3c cc 74 ec 3d 5e ff 9c 3e
       -0.16157942 0.018521134 0.11545715 0.3066358
000210 25 ae b4 bc 46 1e 55 bc db df 7a be 6d f2 fa bd
       -0.022055695 -0.013007706 -0.24499457 -0.1225327
000220 7b d1 01 3f b6 18 b3 bd 23 46 fd 3d 85 5d bf be
       0.50710267 -0.087449476 0.12366893 -0.37376037
000230 84 1a dd 3e 2c 57 a7 bd 57 b7 57 3d 5b f7 b6 bc
       0.43184292 -0.081709236 0.05266508 -0.022334745
000240 4b be 88 bb 5e 44 49 3e eb e8 ac bc 95 50 21 3d
       -0.0041730753 0.19654986 -0.021107158 0.03938349
000250 a5 0e bd bc 34 8a 2a bb 0f 4d 1c be 05 2e 74 3e
       -0.023078272 -0.0026022317 -0.1526377 0.2384568
000260 b5 c7 dd 3c 94 e9 80 3e 25 ed 7c be 0f 6a 94 3d
       0.027072767 0.25178206 -0.24699838 0.072467916
000270 12 ff b9 3d f1 7b 53 3e f1 53 12 be 08 17 48 be
       0.09081854 0.20652749 -0.14289834 -0.19540036
000280 df f5 11 3e ad f1 75 be 47 57 8b 3e ab b8 d4 bd
       0.14253949 -0.24017973 0.27215025 -0.10386785
000290 58 b6 d5 3d 41 39 6b 3e a1 38 c1 be 78 8b 24 bd
       0.1043517 0.2297106 -0.37738517 -0.04017207
0002a0 3c 31 09 be 16 be b1 3e 20 f8 f3 3d 30 b7 96 be
       -0.13397688 0.34715337 0.119125605 -0.29436636
0002b0 39 cf 01 3d 6c 3d e3 bd 18 b1 96 3d 76 6e 37 3d
       0.031691764 -0.110957 0.07357997 0.044783078
0002c0 68 94 69 3e 0c 6b 01 bf 6f c6 84 3c 0f ec 73 be
       0.22810519 -0.50553966 0.016207902 -0.23820518
0002d0 7c ad f7 3d 35 01 a5 be c2 72 d9 be 82 cc fc bd
       0.120936364 -0.32227483 -0.42470366 -0.12343694
0002e0 7f 7b 88 3e 74 61 8d be 4d a7 66 3e 56 05 b2 3c
       0.2665672 -0.27613413 0.22524758 0.02173106
0002f0 2e 39 b3 3e 4d 2f 0a 3e 32 61 41 3e c7 38 2d 3e
       0.35004562 0.13494606 0.18884733 0.1691619
000300 7d 27 09 be c9 1d 77 bc 44 0d bb be e1 62 39 be
       -0.1339397 -0.015082785 -0.36533558 -0.18104126
000310 ee da 16 be a5 17 6d 3e 4e 21 84 be b3 6e aa 3e
       -0.14731953 0.23153551 -0.2580666 0.33287582
000320 79 76 d1 be af 21 0b 3c 51 97 84 bd 52 06 b1 3e
       -0.409107 0.0084919175 -0.06474174 0.34575135
000330 8b 09 7b be 3a fa c1 be 4c 72 23 bd ec 9d c6 3e
       -0.24515359 -0.3788622 -0.039903924 0.3879236
000340 a4 10 d0 3e 02 a3 11 3e c8 76 7e be ce 92 f4 3d
       0.40637696 0.14222339 -0.24849999 0.11942063
000350 6b 99 b9 bd c7 3b c9 3e 02 be 4d bd 4f c1 de 3d
       -0.09062465 0.3930342 -0.050230034 0.108767144
000360 08 65 2f 3d f0 f2 f6 be 0f c9 60 3e fa e3 05 bd
       0.04282096 -0.48232222 0.21951698 -0.03268812
000370 2e 8f 0f bf a5 e4 25 bd 61 ff f3 bc 8f 76 35 bd
       -0.5607785 -0.040501256 -0.02978486 -0.04430252
000380 26 8f 1f be 52 c6 d2 bc 42 97 fd bc 6a 5a a4 bb
       -0.1558195 -0.025729332 -0.030955914 -0.005015661
000390 33 b5 be 3c 8c b6 28 3d de 13 bf 3c 49 fb 10 be
       0.023279762 0.041189715 0.023324903 -0.14158358
0003a0 be bc 13 3d 24 bd ec bd 75 4c 82 be 4d 65 03 be
       0.03606867 -0.11559513 -0.25448957 -0.12831612
0003b0 28 a4 0e 3d 76 26 98 3e 60 4a da 3c 2f 6b 13 3e
       0.03482452 0.29716843 0.026646793 0.14396356
0003c0 2f 0d 2c be fd 95 83 3e a1 4b 50 3e 3a cb f6 bd
       -0.16801904 0.2570037 0.2034135 -0.12050481
0003d0 1e ab 0e be b6 ae 5c 3d 6d 47 e0 bd 8e 1f 4d 3d
       -0.13932464 0.053877555 -0.109511234 0.05007892
0003e0 6a 71 06 be de c9 bc bd 51 81 af be 01 81 2b 3e
       -0.13129202 -0.092181906 -0.34278348 0.1674843
0003f0 25 32 88 be 18 3c 79 3e 95 47 9c bc a9 13 88 3e
       -0.26600757 0.2433933 -0.019077102 0.265775

actor.2.bias f4 [64]
000000 d7 9f 1c bb db f0 a9 3c f0 d7 d0 3c c1 cb 4d bd
       -0.0023898983 0.020744732 0.025493592 -0.050243143
000010 9d 96 cd 3c 7d 74 b1 3c 7a c4 43 bc fe 08 c9 bc
       0.025096232 0.021661991 -0.011948699 -0.02454042
000020 05 59 82 bc 92 89 50 3c c6 92 95 bc 22 8c 0f 3d
       -0.015911588 0.012728112 -0.018258464 0.03504575
000030 13 c7 83 bc 02 82 8d 3c 7b d5 cc 3c e1 fe cc bc
       -0.016086137 0.017273907 0.02500414 -0.02502388
000040 29 15 02 3d 7d 8d f2 3b 88 f2 2d 3d 63 b3 3c bc
       0.03175846 0.0074021206 0.042467624 -0.0115173785
000050 fa 03 2d bb c5 c8 df bc b0 8c e4 3b 31 fa 48 bc
       -0.0026400075 -0.027317414 0.006974779 -0.0122666815
000060 db 91 28 bb 2f 4c 63 bc fe 7b 06 bd f9 57 a8 bc
       -0.0025721702 -0.013873144 -0.032833092 -0.020549761
000070 f7 a2 d5 3c 98 5f ef 3b a9 37 b8 3c c8 c7 5f 3b
       0.026078684 0.007305097 0.022487478 0.0034146179
000080 0b 66 46 3c ef 95 24 3d 7b fb ed bb 62 41 21 3d
       0.01210929 0.04018205 -0.007262645 0.039368995
000090 d8 f2 a5 bc 73 14 d7 bc 93 f1 f7 bc fc 9e a9 bc
       -0.020257398 -0.026254868 -0.030266559 -0.020705692
0000a0 14 b2 57 bc 28 33 0e 3d 5c a1 7f bc a3 f9 e1 3a
       -0.013165016 0.034716755 -0.015602436 0.0017240535
0000b0 12 6d 08 3c 93 d0 6e 3c 6d 59 8a ba 6e 23 c6 bc
       0.008326786 0.014576095 -0.0010555215 -0.024186816
0000c0 33 b3 4b bd ba 74 ed bc e3 5b 3a 3d c4 9d 84 bc
       -0.049731445 -0.028986324 0.045497786 -0.01618851
0000d0 a8 4d 00 3c 2c a1 8c 3c 27 04 81 3c 4a 25 07 bd
       0.007831015 0.017166696 0.01574905 -0.032994546
0000e0 ea 07 c2 3c e0 30 77 bc 04 b4 22 bd a5 55 0c bd
       0.023685414 -0.015087336 -0.039722458 -0.034261364
0000f0 91 ac ec bc fb d7 80 3c 5c a9 1e bd fc ea f2 bc
       -0.02889088 0.015727988 -0.038735732 -0.029653065

actor.4.weight f4 [4, 64]
000000 74 36 e0 bd a8 95 cd bc 6b 0e e1 bd fe 07 db 3d
       -0.10947886 -0.025095776 -0.10989078 0.10694884
000010 05 26 29 be ef 65 06 be 24 05 e9 3d 75 6c 1b 3e
       -0.1651841 -0.13124822 0.113779336 0.15178092
000020 60 3a de 3d 93 05 0d be 2a 5e 3f 3b 89 6b da 3a
       0.10850978 -0.13771658 0.0029200413 0.0016664128
000030 ad 44 f4 3d e8 ac f6 bd e3 7f 12 be fc eb d3 3d
       0.11927161 -0.12044698 -0.14306597 0.10347745
000040 43 0e 41 bd bf 07 13 be 96 0e 0a 3d 95 bb 6e 3c
       -0.04713274 -0.14358424 0.033705316 0.01457109
000050 67 4a 38 3d 00 b7 0e 3e 3c 2e 0b be 7d 1f fd 3b
       0.04499283 0.13936996 -0.13591856 0.007724701
000060 a8 5d ae bd 2c 11 e4 3d 4d dc 08 3e ca 3c e9 3d
       -0.08513957 0.11136088 0.13365288 0.11388548
000070 7c 97 0d be 5b 71 01 be 2f 4a dd bd 7d df 85 bd
       -0.13827318 -0.12640898 -0.10805165 -0.06536768
000080 19 4c 18 be c9 05 d6 bd 89 2a c1 bd 11 bf 06 be
       -0.14872779 -0.10450322 -0.09431941 -0.13158824
000090 74 40 c8 3d 6a 03 d9 3d ec b1 8a 3d 37 17 fc bb
       0.097779185 0.10596354 0.06772217 -0.007693197
0000a0 b1 a1 2b 3c 93 52 46 bd b6 19 0d 3e 7e d1 f7 bd
       0.010475562 -0.048418593 0.13779339 -0.12100504
0000b0 cf 2b 1d bd 0e 64 08 be 66 2b 8e 3d 62 41 12 3e
       -0.038371857 -0.13319418 0.06941871 0.14282754
0000c0 85 b7 f8 3d 8c 30 93 3d f3 e9 11 be 67 8f f9 3d
       0.121443786 0.07186994 -0.14249401 0.12185555
0000d0 dc 97 ee bd 25 88 b6 3c b7 cf e6 bd e9 31 f0 3d
       -0.116500586 0.022281716 -0.11270087 0.117282696
0000e0 39 e7 f0 3d 37 80 02 be a4 db fd 3d 71 bf d3 3d
       0.11762852 -0.12744223 0.12395409 0.10339249
0000f0 4f e5 14 3e 0d 36 e4 bc 1b e8 9c 3c b1 57 09 3e
       0.145406 -0.027857805 0.019153645 0.13412358
000100 45 e5 12 3e 6f 7f 6a be ba b0 16 be ee cf 28 3e
       0.14345272 -0.22900175 -0.14715853 0.16485569
000110 56 65 fe bd 27 4a 30 bd 2d ce f4 bd 81 84 9a bc
       -0.12421672 -0.043039467 -0.119533874 -0.01886201
000120 8a c4 04 be 5c bb 74 3c 21 14 2d be 3a dc 3d be
       -0.12965599 0.014937248 -0.1690221 -0.18541041
000130 40 69 55 3e 33 86 69 be 3d 34 15 be 8f 9f 28 3e
       0.20840931 -0.22805099 -0.14570709 0.16467117
000140 1d 03 13 3e 17 98 d2 bd d5 14 3b 3e 62 cf 43 be
       0.14356656 -0.10282915 0.18269666 -0.19122079
000150 5b 20 4f be bb a4 af bd cd 08 3d bd 74 16 41 be
       -0.20227186 -0.08576342 -0.04615097 -0.18856221
000160 04 67 ad bd f2 06 6d 3e 3f 2d b7 bd e9 3c 42 3e
       -0.08466914 0.2314718 -0.08944177 0.18968548
000170 6a cc 86 3d 3c 18 0c 3d 76 54 a3 3d 98 89 15 3e
       0.06581958 0.0342028 0.07975094 0.14603269
000180 7a 8d bb bd cc e4 42 be bc 28 de 3d f3 d2 e2 3d
       -0.09157844 -0.19032592 0.10847613 0.110753916
000190 e7 25 f7 bd 66 c0 2c 3e ec db 46 3e af b2 0f be
       -0.12067776 0.16870269 0.19419831 -0.14033006
0001a0 13 c5 1b 3e 42 e8 09 3e 4c a0 e5 3d 51 41 6d be
       0.15211897 0.13467506 0.11212215 -0.23169447
0001b0 22 8b 43 be 03 60 3e be 6e bb 38 3e a2 75 4e 3e
       -0.19096044 -0.18591313 0.18040249 0.20162061
0001c0 1a 7b 1b 3c 7c 5d 50 3e 9e 1a b8 bc 21 4a 0c be
       0.009489799 0.20348161 -0.02247363 -0.13700153
0001d0 bc 93 ba bd 89 53 3e 3e 0d 3a f5 3d 54 ec 07 3e
       -0.09110209 0.18586554 0.11973963 0.13273746
0001e0 14 1f 6d bd 67 3d 55 3d c7 5b 56 3e 7f 9d d0 3c
       -0.057890967 0.05206051 0.20933448 0.025465725
0001f0 25 86 5a 3d 7d 7e 22 be 4f d2 40 be d5 b9 26 3d
       0.053350586 -0.15868564 -0.18830226 0.040704567
000200 0c 24 1f 3e ce af 3b 3d 6f 36 26 3e fa f3 3e be
       0.15541095 0.045821957 0.16231702 -0.18647757
000210 e4 ac 4b 3e dc 84 03 3e 55 d7 2a be 3e 38 4e be
       0.19890171 0.1284365 -0.16683705 -0.20138642
000220 d8 38 30 be de d2 27 3e f0 4d ae bc ee 66 84 3d
       -0.17209184 0.16389033 -0.021277398 0.06464945
000230 98 6c 29 be 75 59 3e 3e 8d df 36 3e 4c b4 42 be
       -0.16545331 0.18588813 0.17858715 -0.1901409
000240 7c ac d1 3d d3 99 34 3e 57 f1 dd bc b4 ec da bc
       0.10237977 0.17636804 -0.027092619 -0.026724197
000250 8c 52 bb bd 10 20 43 be b6 3b 0d 3e ff 55 36 bd
       -0.09146604 -0.190552 0.13792309 -0.044515606
000260 07 27 d3 3c 55 0e 27 be 44 8a 52 be e3 d7 42 be
       0.025775446 -0.16314061 -0.20560557 -0.19027667
000270 1a f7 3b 3e 32 a2 2d 3e 81 53 2b 3e 76 af fa 3d
       0.1835598 0.16956404 0.16731073 0.12240498
000280 11 c8 2b 3e bc c5 3d 3e 06 e9 ee 3d 1a 08 48 3e
       0.16775538 0.18532461 0.116655394 0.1953434
000290 62 51 da bd 35 fb 31 be 90 d4 1b be 23 da 0b 3c
       -0.10660054 -0.17380984 -0.15217805 0.008535895
0002a0 75 5c 2e bd 81 f8 e9 3d a1 f7 12 be 93 5e 33 3e
       -0.042568643 0.114243515 -0.14352275 0.17516546
0002b0 4e 55 9b 3d 42 08 40 3e f1 ca 09 be d7 46 47 be
       0.0758463 0.1875315 -0.13456322 -0.19460617
0002c0 b4 ed 53 be 87 0e 13 be ce 98 59 3e 47 6f 2e be
       -0.20696145 -0.1436101 0.21249697 -0.17034636
0002d0 db af e9 3d bd 11 f1 bc 77 84 27 3e 70 93 42 be
       0.11410495 -0.029427404 0.16359125 -0.19001555
0002e0 89 db 16 be 34 39 24 3e c5 2c 5d be ca 2d 28 be
       -0.14732184 0.16037446 -0.2159911 -0.16423717
0002f0 bc 7d 4a be 59 eb 9d 3d c7 fa 8b bd 73 9c e8 bd
       -0.19774526 0.07710905 -0.06834941 -0.11357965
000300 02 91 38 be 0f d0 64 3e 3e 62 cf 3d ef 61 cf bd
       -0.18024066 0.22344993 0.1012616 -0.10126101
000310 fa ab e1 bd df 50 67 bd a0 1a 34 3e 5c d9 42 3e
       -0.1101913 -0.05647361 0.17588282 0.19028229
000320 9f c3 4c 3e 70 6c 17 be 4f 0a 35 3e 81 59 20 3e
       0.19996499 -0.1478746 0.17679714 0.15659143
000330 6e c3 30 be 4f f1 2d 3e c5 d4 2a 3d 17 25 95 bd
       -0.1726205 0.16986583 0.04170682 -0.07282465
000340 bf d0 2d be 81 c2 af bd 47 d6 41 be 0f 73 48 3e
       -0.16974162 -0.085820206 -0.18929397 0.19575141
000350 5f ae 5d 3e e5 9c 3d 3e 98 b2 a3 bd 0b f0 4f 3e
       0.21648549 0.18516882 -0.079930484 0.20306413
000360 bb 8e fe 3d ec ac 51 be 5f f5 45 3e f0 7e 0f be
       0.124295674 -0.2047612 0.19331883 -0.14013267
000370 af 98 3e be b4 c3 3e be 92 00 0a be 28 74 2f be
       -0.18612932 -0.18629342 -0.1347678 -0.17134154
000380 69 45 9c bd dc 04 14 3e e6 b6 19 be 7f d5 50 be
       -0.076304264 0.14454979 -0.15011176 -0.20393942
000390 17 b3 19 3e 20 f5 82 bd 12 03 15 be b1 d5 15 3e
       0.15009724 -0.0639441 -0.14551952 0.14632298
0003a0 b8 ee 12 be 5b f7 25 be b0 66 23 bb a5 b1 2a 3e
       -0.14348876 -0.1620764 -0.0024933033 0.16669329
0003b0 99 68 36 3e eb 8b a7 3c 17 27 23 be f5 a9 05 be
       0.17813338 0.02045246 -0.1593288 -0.13053115
0003c0 3f 90 46 3e 3b c0 26 be 10 c8 2c be c1 38 41 3e
       0.19390963 -0.16284268 -0.16873193 0.18869306
0003d0 5b b8 70 3d 2a e8 3f be b1 11 2f be 90 7f 0b bd
       0.058769565 -0.18740907 -0.17096592 -0.0340572
0003e0 e7 e3 23 3e 69 ef 24 be 77 fe e7 bd 52 80 e0 3d
       0.16004907 -0.16106953 -0.11327832 0.10961975
0003f0 9d 68 41 3e c4 d9 15 3e 0a 75 53 3e 62 9b 96 3c
       0.18887563 0.14633852 0.20650116 0.01838464

actor.4.bias f4 [4]
000000 34 17 98 bd 42 60 16 bc a5 42 40 3d f7 8d e0 bb
       -0.07426301 -0.009178223 0.046938557 -0.006852861
