HFDRL_UNIT8/models/Archived/LunarLander-v3__ppo__1__1768735566__u200.pt (torch, 44753 bytes, 11 tensors)

critic.0.weight f4 [64, 8]
000000 88 e1 04 be df 44 e8 3d 72 1a 49 3c 04 3b 19 be
       -0.12976658 0.11341261 0.012274371 -0.14963919
000010 30 ee c4 bd c9 20 1c 3e 51 b8 9a be 9a 7b fa 3d
       -0.09615743 0.15246882 -0.30218747 0.122306064
000020 8d 43 c9 bd c7 5e 6e 3e a7 86 92 3e 5d 73 04 be
       -0.098273374 0.23278342 0.28618357 -0.12934633
000030 35 49 18 be 8f 00 53 be 84 79 2c 3e f7 c0 69 bd
       -0.14871676 -0.20605682 0.1684323 -0.05706879
000040 ea 5d 69 3c 16 59 88 be 67 45 fd 3d 9a 0f 81 3e
       0.014243582 -0.26630467 0.12366753 0.25207216
000050 46 94 06 3d 9a 04 ee 3d 75 6f 5b 3e 33 05 0f 3f
       0.03285625 0.116219714 0.21429236 0.5586731
000060 3e fc 34 be e2 85 23 3e e2 c9 df ba 71 d1 29 bf
       -0.17674348 0.15969041 -0.0017073716 -0.6633521
000070 88 8e 86 3e d7 4a 8f 3c 84 56 a0 be 8e e0 52 be
       0.26280618 0.017491741 -0.31316006 -0.20593473
000080 29 7d 5f 3d 5f 05 9a bd 44 b5 ae 3e 78 95 6c be
       0.05456272 -0.07520556 0.3412267 -0.23103893
000090 c0 6b 2e 3d ec 2e 13 be 8c 40 fa 3b d9 3f c4 be
       0.042583227 -0.14373368 0.007637089 -0.38329962
0000a0 4f 1a 99 3b a9 a8 98 be 22 e9 97 3a d2 a5 d8 bc
       0.0046723257 -0.29816177 0.0011589865 -0.026446257
0000b0 30 47 c4 bc 6b fa 90 3e 5f 8e e0 bd 56 72 f6 bd
       -0.023959726 0.28316054 -0.10964655 -0.120335266
0000c0 a7 16 a1 be 38 e3 63 be 9c 32 51 3d ac 93 00 3e
       -0.31462595 -0.22254646 0.051073655 0.12556332
0000d0 44 1f 0b bd 54 49 87 be c8 d9 e0 3e 70 81 35 3e
       -0.033965364 -0.26423132 0.43916154 0.17725158
0000e0 92 b4 44 bd 1a 73 fd 3e d4 03 41 3e e3 39 80 3e
       -0.048023768 0.49501878 0.18849117 0.25044164
0000f0 ec e0 43 bd 04 19 02 3e dc 4a 8e 3e ad 70 c5 3e
       -0.047821924 0.12704855 0.27791488 0.38562527
000100 18 00 2b 3e 64 d4 1a bc 66 48 c2 3e 0d 12 c3 be
       0.16699255 -0.009450052 0.3794586 -0.3809971
000110 8c fd d8 3e 1b 16 a1 bd 21 5b 8e bd b2 09 8a bd
       0.4238094 -0.078655444 -0.06950975 -0.067401305
000120 a0 99 ab 3c e2 9e 26 3e 5c 59 c7 3e dc 49 44 be
       0.020947278 0.16271546 0.38935363 -0.191688
000130 6a a0 54 3e 6d bd 37 3d 3f fa 7a 3e 0c 82 07 3f
       0.20764318 0.044858385 0.24509524 0.5293281
000140 96 78 e6 bd f7 40 db be e0 ff 02 3e 7a 87 0e 3f
       -0.11253469 -0.42823002 0.12792921 0.5567547
000150 4e 75 d0 bb da c9 82 3e f5 1c 63 3d 84 f2 bb bd
       -0.00636164 0.25544626 0.055447537 -0.091771156
000160 d7 ad 59 bd 3f d7 ca 3e 1f 10 0c bd a4 7f c8 bd
       -0.053144302 0.39617345 -0.03419506 -0.097899705
000170 4f 0d 8f bd ac 5f 4f 3e 4c f3 94 be dd 3b cd bc
       -0.0698496 0.2025134 -0.2909187 -0.02505296
000180 f8 51 52 3d 5f b1 96 3e 52 84 d0 3d 6d 83 9c bd
       0.051347703 0.29432198 0.10181488 -0.07642255
000190 9e ab 8b bd 43 42 8e 3c dc a2 f7 bd 60 9c ec 3d
       -0.06819843 0.01736558 -0.1209161 0.11553264
0001a0 84 ee 5d bd ea 90 52 be 51 d9 46 3e ce 63 05 3f
       -0.054182544 -0.20563093 0.19418837 0.52105415
0001b0 5c 2a a5 bb a8 47 d0 3c a8 51 3a be b4 ef 50 3e
       -0.00504045 0.025424793 -0.18195212 0.2040394
0001c0 1c 47 d3 bd 89 93 00 be a5 56 1f 3e 40 95 dc 3e
       -0.103162974 -0.1255628 0.15560396 0.4308262
0001d0 fe 30 0a 3e 18 d5 3a bc d2 fa 9d 3d 84 6b bd 3d
       0.13495252 -0.011403345 0.07713856 0.092490226
0001e0 8f f6 2c bd 39 c4 31 3e b6 b5 6a be c3 d4 dc be
       -0.042227324 0.17360009 -0.2292088 -0.43131074
0001f0 e7 e0 2b bd fa ab 3c 3e 36 c0 e1 bb 08 11 1a be
       -0.04196253 0.18424979 -0.0068893684 -0.1504556
000200 af 7f 1c 3e f9 a1 fa 3d b8 3a 0d 3d f1 12 ed be
       0.15283082 0.12237925 0.034479827 -0.46303514
000210 1e 0e ef bd 49 ba 49 bd de 75 f1 bd ca bc 56 3e
       -0.116726145 -0.04924992 -0.117900595 0.20970455
000220 f2 1d 6c bd c6 f9 cf 3d 0f 29 f7 3e 5f b6 8f 3e
       -0.057645746 0.101550624 0.48273513 0.28068826
000230 38 fd c1 3e 9a 6f 89 be 2b 5e 16 3d 97 8c 55 3e
       0.37888503 -0.26842958 0.0367109 0.20854412
000240 78 c3 90 be 20 2b 04 be f0 68 56 3e 66 7a d4 3d
       -0.2827413 -0.12907076 0.20938468 0.10374908
000250 e5 02 65 be 28 e3 f5 3d da 94 54 bc 32 be a7 bd
       -0.22364385 0.12006217 -0.012974942 -0.08190574
000260 ae d0 2d bd 2b 45 9e 3e 3b 78 e7 bc 48 cf 90 be
       -0.04243534 0.30912146 -0.028255573 -0.28283143
000270 94 18 c2 3c d4 b9 39 3e ad ee b9 be b5 3a 65 be
       0.02369336 0.18137294 -0.36314908 -0.22385676
000280 ab 9a 30 3e a2 5a 68 3b 1d 4c 1f 3e be 0c 86 3b
       0.17246501 0.0035454412 0.15556379 0.0040908745
000290 b2 83 81 3d 95 ee 8b bd c8 ab d8 ba 95 3b c1 3c
       0.06323947 -0.06832615 -0.0016530687 0.023587981
0002a0 3b d4 0a 3e 7c e0 a9 3d 24 74 26 be d3 06 db be
       0.13557522 0.0829477 -0.16255242 -0.42778644
0002b0 b0 af 8e bd 54 fa af 3d f0 26 67 be d7 15 f8 bd
       -0.069671035 0.08592668 -0.22573447 -0.121135406
0002c0 c1 0e fe 3d 21 3d 61 ba 3e c7 23 3d 7f d2 38 3e
       0.12405158 -0.0008592178 0.039984934 0.18049048
0002d0 d2 ff 4b be 1a 63 13 be 1b e3 03 be 59 ef 62 be
       -0.19921806 -0.14393273 -0.12879603 -0.22161616
0002e0 ac 06 51 3e 92 4d 18 3e cc 35 e7 bd 19 94 cc bd
       0.20412701 0.1487334 -0.11289558 -0.09989185
0002f0 c3 b5 07 3e d0 1e d4 bd 58 78 1a bb c4 25 97 be
       0.1325293 -0.103574395 -0.0023570266 -0.29521
000300 9b 7e 85 bd 53 09 fc 3d e5 45 8f 3d 34 bb 94 be
       -0.06518289 0.12306466 0.06995753 -0.29049075
000310 78 2d e2 3c 33 42 3f be 21 12 1c bf 18 be 37 be
       0.027609572 -0.18677597 -0.6096516 -0.17943609
000320 2f 0b a9 bd d7 ba b8 3e ee 9c d3 3c ef 7e f8 bd
       -0.08254086 0.36080047 0.025831666 -0.12133586
000330 ab 1a 23 3d c6 a2 6f be 00 e7 78 3d 94 80 c3 bd
       0.039820354 -0.23401937 0.060767174 -0.09546009
000340 f0 d6 a2 bd 3f 3f ad bc d0 80 06 3e 3e 96 00 3e
       -0.07951152 -0.021148322 0.13135076 0.12557313
000350 fe e4 8e 3e be fd 1b be 89 e7 f7 3d f8 ca 33 3e
       0.27909082 -0.15233514 0.12104709 0.17557895
000360 cd 94 41 bd 41 21 30 be 1e 35 9d bc 67 b3 5e 3e
       -0.047261048 -0.17200185 -0.019190367 0.21748124
000370 b5 6d 64 be 95 95 44 3e 94 53 14 3e 66 fb a8 3e
       -0.22307475 0.19197686 0.14485008 0.33004302
000380 a3 48 75 3e 28 51 8d 3d c1 7a 9d be 18 17 43 be
       0.2395349 0.06900245 -0.30757716 -0.19051778
000390 d0 e8 18 be 7b 00 4d 3c ea 40 cb be d5 8a ef bd
       -0.14932561 0.012512322 -0.39697963 -0.11696402
0003a0 85 f5 15 3e 73 59 dc 3e 2a 3b 1a be b7 a7 30 3e
       0.1464444 0.43036994 -0.15061632 0.17251478
0003b0 74 11 3e be 8a 38 5a 3d 06 b2 ae 3a f2 d9 de be
       -0.18561345 0.053276576 0.0013328202 -0.43525654
0003c0 85 06 82 be 65 72 27 be b1 26 15 be 55 d5 42 3e
       -0.253956 -0.16352232 -0.14565541 0.19026692
0003d0 4f 9d 82 3e cd 57 f7 bd 03 20 06 3e 7c be c1 3e
       0.25510642 -0.120772935 0.13098149 0.3784064
0003e0 e5 68 08 be 6b 02 ea 3e 76 fb da 3d eb 7c 41 be
       -0.13321264 0.4570497 0.106924936 -0.18895309
0003f0 3c 6f 33 3e 52 e9 26 3e 40 35 3f be 25 8b 93 be
       0.17522901 0.16299942 -0.18672657 -0.28817096

critic.0.bias f4 [64]
000000 f0 3d 36 be 35 93 13 3d 0a 97 2b 3e e7 92 23 be
       -0.17797065 0.03602906 0.16756836 -0.15974008
000010 d4 44 54 be 8f a3 b8 3d 60 2d 8e 3c 4f 45 3c 3e
       -0.20729381 0.09015571 0.01735562 0.18385814
000020 9d 4b 4d be 07 e0 fa 3d 33 87 34 3e 5d c9 34 be
       -0.20048375 0.12249761 0.176297 -0.17654939
000030 f9 90 bc 3d 44 2c 43 3e b8 c8 24 3e c2 9c 43 be
       0.09207339 0.19059855 0.16092193 -0.19102767
000040 ec e6 86 3d 0a 00 85 3d a2 78 d4 bd 8d 1a 2e be
       0.065870136 0.06494148 -0.103745714 -0.17002316
000050 2c b1 04 be 73 01 3b bd 20 54 c7 bd 62 6e 33 be
       -0.1295821 -0.04565568 -0.097328424 -0.17522576
000060 aa c4 89 bd ea 5b e1 bd 26 ce 24 3e f3 1a 2d 3e
       -0.06726964 -0.11003859 0.16094264 0.16904812
000070 d5 27 17 be 50 34 16 be 6e 3a 27 3e 4a f2 28 be
       -0.14761288 -0.14668393 0.16330883 -0.16498676
000080 c6 53 2b be 9f 57 1c be b8 16 32 3e b0 9c 21 3e
       -0.16731176 -0.152678 0.17391479 0.15782428
000090 eb 18 b6 bd 02 36 17 be 15 83 ee bd ca 46 1d 3e
       -0.088914715 -0.14766696 -0.11646096 0.15359035
0000a0 66 af f9 bd 74 e5 17 3e 96 3d 8c bd 4c ee cf 3a
       -0.12191658 0.14833623 -0.06847684 0.0015863865
0000b0 d0 39 f6 bd 5b e3 f9 bd ae 4f 0a be 5d a4 18 be
       -0.120227456 -0.12201568 -0.13506958 -0.1490645
0000c0 cc fa 2a be dd 29 29 be 76 d7 e5 bd ff 13 fe 3d
       -0.16697234 -0.16519876 -0.112227365 0.12406158
0000d0 db c2 1d be 19 ae e9 3d 33 3b 35 bd 4a 28 2e 3d
       -0.15406363 0.114101596 -0.04424591 0.04251889
0000e0 48 90 2c be 4e d6 21 3e b3 19 0a be 98 3e b0 bd
       -0.16851914 0.15804407 -0.13486366 -0.08605689
0000f0 01 56 19 3e 9d 06 43 3e a4 85 16 be 9b 98 31 be
       0.14974214 0.19045492 -0.14699417 -0.1734337

critic.2.weight f4 [64, 64]
000000 ac 8e 99 3e 29 10 0a bf 36 1b 90 be 88 d2 c0 3e
       0.29991663 -0.5393091 -0.2814576 0.37660623
000010 b7 06 75 3d 0d 64 f5 bd b6 39 e6 3d ce 92 c2 be
       0.059820857 -0.11981974 0.11241476 -0.38002628
000020 7c 81 cb 3d ac 87 9c 3e 28 af 82 be d5 1e 9d 3b
       0.099368066 0.3057226 -0.2552426 0.004794935
000030 20 af a6 bd 1c 51 b0 be cf b1 f3 be 3f b2 be 3e
       -0.08138871 -0.34436882 -0.47596595 0.37245366
000040 d7 80 b5 3d 79 6d 4b be 81 ed b9 3c 95 53 85 3e
       0.08862465 -0.19865979 0.022696259 0.2604033
000050 8d d6 8c bd 30 7e 83 3e c3 c6 18 3e e8 c9 61 3e
       -0.0687686 0.2568221 0.14919572 0.22049677
000060 75 52 d4 3e 08 51 fd 3d f5 ba 06 3e 79 ee 14 be
       0.4146916 0.12368971 0.13157256 -0.14544095
000070 05 05 de 3d 0e cd 08 3e 10 15 00 be cc 5c 16 3e
       0.10840801 0.13359472 -0.12508035 0.14683837
000080 e2 6f 85 3d 69 b8 6d 3e e3 f4 22 3e bf 84 c9 bd
       0.065154806 0.23214878 0.1591373 -0.098397724
000090 94 af a6 be 25 d2 80 be 6c e7 d8 bd 9a 77 16 bf
       -0.3255583 -0.25160328 -0.10591015 -0.5877625
0000a0 a2 26 90 3e 6a 8b 68 be 40 ad 00 bb 0f cf ad bd
       0.28154474 -0.22709432 -0.0019634515 -0.08486759
0000b0 f6 9b 77 be 49 c9 6e 3e 37 1c 45 3e 64 ee ad 3e
       -0.24180588 0.23318972 0.19249044 0.3397094
0000c0 91 eb 1a 3e a0 7b b1 3e 5c 39 a2 bd 4a 76 a7 bd
       0.15128924 0.3466463 -0.07921097 -0.08176859
0000d0 51 fe 25 3e 8f 2f 63 be c0 52 8f bd 36 95 2c 3c
       0.16210295 -0.22186111 -0.06998205 0.010533622
0000e0 dd e4 47 3e ed 1e 76 be 30 d8 74 3d db ad 01 3e
       0.19520898 -0.24035235 0.059776485 0.12663977
0000f0 cf 04 3f 3c 5c 7c 9b 3d a4 88 71 be 2c ff f5 3d
       0.011658861 0.07592079 -0.2358728 0.12011561
000100 b9 fd ba 3e 8f fb 39 3e d4 f3 23 be 2f ed 4c 3e
       0.365217 0.18162368 -0.16010982 0.20012353
000110 99 00 9a 3b c1 ed 7c be df 09 a7 3c e0 e3 70 be
       0.0046997783 -0.24700071 0.02039045 -0.23524427
000120 db b7 66 3d 00 87 83 be 17 a1 e6 bd 61 bc 72 3c
       0.056327682 -0.25688934 -0.11261194 0.014815421
000130 90 5b e6 3e c1 8b dd 3d 96 4d a7 be 6f 6f d1 3e
       0.44991732 0.108176716 -0.3267638 0.4090533
000140 b8 3e d0 3c c0 2f ac be 1a bf b0 3e 10 aa 99 3b
       0.025420532 -0.3363018 0.345208 0.0046894625
000150 61 75 76 3d 83 88 69 3e 7e 2f 17 bd 27 4a 41 3e
       0.060170535 0.22805981 -0.036910526 0.18875943
000160 ed 07 e0 3d 97 8b 55 3e 7b 57 1c be 01 c4 57 be
       0.10939012 0.2085403 -0.15267746 -0.21070863
000170 87 81 ab 3e 6a 56 bb 3e 88 6c 7f be 28 87 85 3e
       0.3349726 0.36589366 -0.24943745 0.2607968
000180 6f d6 99 3e 01 16 c2 3d 59 5c 9f bd 7a 8e 15 be
       0.30046412 0.09476853 -0.07781286 -0.14605132
000190 af 27 ba bc 16 8d ff bd 52 5f 2e be bb 13 38 3e
       -0.022724 -0.12478082 -0.1702855 0.17976277
0001a0 94 e4 2b 3e eb d0 48 bd c0 03 10 3e 60 8d df bd
       0.16786414 -0.049027365 0.1406393 -0.10915637
0001b0 0a 49 c7 3d 0b 73 8e 3e 2e 1d d0 3e 85 c8 21 3c
       0.09730728 0.27822146 0.40647262 0.009874468
0001c0 b1 64 f5 3e 86 6b 05 3c e3 3b 82 bc 7d 19 ac bd
       0.47928384 0.008143311 -0.015897697 -0.08403299
0001d0 36 91 06 3e c2 ca 6f be 1b ee 06 be 81 12 76 be
       0.13141331 -0.2341719 -0.13176768 -0.24030496
0001e0 26 63 b3 3e ca 64 bf be 9e 80 1c 3e 54 c6 a9 3e
       0.35036582 -0.37381583 0.15283439 0.33159125
0001f0 4e 44 93 bd 21 d9 27 be d9 1e 97 be 03 76 05 3b
       -0.071907625 -0.16391422 -0.29515722 0.002036453
000200 94 d7 81 be 9d 35 fb 3d 62 4b bc 3e f1 4d e8 bd
       -0.25359786 0.12266085 0.36776263 -0.11342991
000210 6a f6 69 3e 7b 5c 0e bc 43 a5 f0 3d b3 d1 7e 3e
       0.22847906 -0.008689041 0.11750271 0.24884681
000220 e0 3b bd be a3 fc b4 3e e1 90 ac bd dc 7b ab be
       -0.36959743 0.35348997 -0.08426071 -0.33492935
000230 a5 3c 9b bd 1c c8 e2 3e bf a5 c3 3e c7 9e eb be
       -0.075799264 0.44293296 0.38212392 -0.46019575
000240 76 8e d3 be 0e 91 0a 3d 87 3b 8d 3d 94 c9 72 be
       -0.41319627 0.03382974 0.068961196 -0.23709708
000250 9f 37 11 be 57 74 6a be a6 75 d2 bd 80 8b f2 bd
       -0.14181374 -0.22895943 -0.10276346 -0.11843014
000260 84 44 97 be df 0a ca 3a 1f 16 ff 3e 56 57 c1 3e
       -0.2954446 0.0015414617 0.49821565 0.37761945
000270 ce 2f 46 bd 9c 47 ea be a3 e1 af bd c2 5b d1 be
       -0.048385434 -0.4575776 -0.08587959 -0.40890318
000280 43 bb 21 3e 72 b2 bd 3c 47 0b eb bc f7 c0 05 3e
       0.15794091 0.023156378 -0.0286919 0.13061891
000290 bf 3d 9f bd 57 af ea bd a4 65 af 3c e3 c9 68 3e
       -0.07775449 -0.11459225 0.02141077 0.22733264
0002a0 2b a3 e6 3c ce 11 9a be 1c dc 99 3e f7 26 8d 3d
       0.028153976 -0.3009171 0.30050743 0.068921976
0002b0 30 13 cb 3c 7a 09 a2 be f7 00 8d 3e 46 31 9e 3c
       0.024789423 -0.31647855 0.275398 0.019310605
0002c0 a9 4f 6a bd 39 ea 45 be 73 45 71 3d 13 0f 83 3c
       -0.057204876 -0.1932763 0.058904123 0.015998399
0002d0 20 f3 6f be 89 0b 8a 3e 2f 76 ff 3d 47 14 56 3d
       -0.23432589 0.26961926 0.124737136 0.05226543
0002e0 1b b2 ab be bd 17 31 3e dc 77 a5 3d 90 11 a9 be
       -0.3353432 0.17294212 0.08079502 -0.33021212
0002f0 20 f9 5d 3e 1f f0 53 3e e2 c3 a0 bd 03 ab 9a bd
       0.21677065 0.20697068 -0.07849862 -0.07552149
000300 c8 12 d3 3e 3e 6a 4c 3e 54 29 af be 0a be dc 3e
       0.41225266 0.19962403 -0.34211218 0.43113738
000310 48 f2 ab 3d 04 8b 42 be de f1 23 bf d4 4f 1a be
       0.08395821 -0.18998343 -0.64040935 -0.15069515
000320 9e 43 52 3e 37 32 43 3d 63 bb 9a bc 45 29 00 3e
       0.20533606 0.04765531 -0.018888181 0.12515743
000330 61 c1 6b bd 15 49 11 bc de cc bb be 52 51 e6 3e
       -0.057557467 -0.008867522 -0.3667974 0.44983917
000340 b6 fb cc bb 28 8d 5e bb 32 d7 c6 bd 63 11 97 3e
       -0.006255592 -0.0033958647 -0.09709014 0.29505453
000350 5a af 1f be 01 c9 99 3e 6e 87 c1 3e 26 3b a4 3e
       -0.15594235 0.30036166 0.37798637 0.32076377
000360 3b 89 d7 bb 8f b7 1e 3c 36 00 b5 be 9d 44 bb be
       -0.0065776384 0.0096873185 -0.35351723 -0.36575785
000370 e5 2b b5 3c 89 eb bc be 7a 7b 2a 3d 3b ae 75 3e
       0.022115657 -0.3689845 0.041621663 0.23992245
000380 f5 42 4b 3e 3d d1 82 3e 68 0f b1 bd 53 f0 37 be
       0.19849761 0.2555026 -0.08645517 -0.1796277
000390 49 dd 01 be b5 0b 8f be c1 b9 ff 3d 2b 8d 27 be
       -0.1268207 -0.2793862 0.124866016 -0.16362445
0003a0 bb 56 59 3e 88 b2 85 bd 29 ff bf 3d c7 0c d4 3d
       0.21224491 -0.06528193 0.0937484 0.103539996
0003b0 47 a8 06 be b7 38 03 3f c3 55 06 3d 3e 1e fd 3d
       -0.1315013 0.51258415 0.032796632 0.12359284
0003c0 62 35 bb 3e 34 13 69 3e 1c b8 71 be 3a 08 f5 bd
       0.36564165 0.22761232 -0.23605388 -0.1196446
0003d0 03 9f 84 3e c2 ff 8e be 64 17 11 be 9e 52 e4 be
       0.25902566 -0.27929503 -0.14169079 -0.44594282
0003e0 03 4e 37 3e 24 ff ba be 01 9f 03 3e 57 f7 9e 3e
       0.17900853 -0.36522782 0.12853624 0.3104808
0003f0 2a fa e0 be 90 41 01 bf 6b ec 2d be 88 22 77 3d
       -0.4394086 -0.50490665 -0.16984718 0.060335666

critic.2.bias f4 [64]
000000 7c de 14 be b0 a4 ab bd ce 69 11 3e 3c 19 3b be
       -0.14537996 -0.08381021 0.14200518 -0.18271345
000010 ed f4 05 be fc d9 fc bd 02 51 24 3e 03 8b 02 be
       -0.13081713 -0.12346265 0.16046527 -0.12748341
000020 bf cd dc bd d5 3c 42 3e ed 25 b5 bd 5c af f4 bd
       -0.107814305 0.18968518 -0.088451244 -0.1194751
000030 c0 32 32 be f8 28 ec bd d8 68 d2 bd 98 d0 2b 3e
       -0.17402172 -0.11531252 -0.102739036 0.16778791
000040 e5 27 0b be 98 8d 01 be 7a 01 ff bd cf 12 e7 3d
       -0.13589437 -0.1265167 -0.124514535 0.11282884
000050 67 3e cb bd 7a 95 2b 3e b1 d4 15 be fe 34 2b be
       -0.09924012 0.1675624 -0.14631917 -0.16719434
000060 bd ea 6d 3d b0 66 e6 3d 39 32 15 3e 83 ea 0c 3e
       0.058085192 0.11250055 0.1456994 0.13761334
000070 60 05 f9 3d 0b 67 e7 bd 8b 93 12 3e 95 3c e4 bd
       0.12159228 -0.11298951 0.14314096 -0.111443676
000080 7c 3e f3 bd 6a b8 2d 3e c7 c4 de 3d 62 ee e4 bd
       -0.11877152 0.1696488 0.10877376 -0.111782804
000090 63 1c e0 3d e2 ce 16 3e ec a5 1e be 51 de b6 bd
       0.10942914 0.14727357 -0.15492982 -0.08929122
0000a0 65 09 ea bd 85 5b ca bd 89 16 08 3e a8 b4 12 be
       -0.11427573 -0.09880737 0.13289846 -0.14326727
0000b0 42 0c f9 3d 7f 32 e9 3d 55 d7 14 3e 27 09 09 be
       0.12160541 0.113865845 0.14535268 -0.13382398
0000c0 4a 3a f4 3d 2e e8 ae 3d a9 36 15 3e 3e 9f bd 3d
       0.1192518 0.085403785 0.14571632 0.09258889
0000d0 e7 c5 13 3e 7a 19 07 3e 3a bd fd bd 09 8e 07 3e
       0.14430963 0.13193312 -0.12389608 0.13237776
0000e0 f6 8a ed 3d 97 dc 14 be 6c 08 fe 3d 39 f8 09 3e
       0.1159877 -0.14537273 0.1240395 0.13473596
0000f0 e0 98 bd bd 58 c6 53 3e 63 a7 09 3e 9e 47 ae 3d
       -0.09257674 0.20681131 0.13442759 0.08509754

critic.4.weight f4 [1, 64]
000000 40 66 a1 3e ac ae 74 3e c9 62 89 be c8 41 8b 3e
       0.31523323 0.23894757 -0.2683318 0.27198625
000010 03 30 cf 3d 2d e6 ed 3e 15 ee 98 be 5d 02 bc 3d
       0.101165794 0.46464673 -0.29869142 0.09180138
000020 e5 97 d8 3d 88 9c 93 be 2b f2 b8 3e 5b fa 86 3e
       0.105758466 -0.2883036 0.3612226 0.2636288
000030 7c 4e a4 3e c8 b3 5f 3e 4f a5 65 3e 54 b1 96 be
       0.3209113 0.21845925 0.22426341 -0.29432166
000040 02 10 98 3e 4c d9 b0 3e 0b af 8f 3e 5d 35 53 be
       0.29699713 0.34540784 0.28063235 -0.20625825
000050 a6 b8 70 3e 3e 76 85 be 57 4b 63 3e f4 33 88 3e
       0.23507938 -0.26066774 0.22196709 0.26602137
000060 d7 88 7d be a6 39 d4 be 91 79 d6 be 01 2b 09 bf
       -0.24759232 -0.41450232 -0.41889623 -0.53581244
000070 a7 84 1d be fb 2a 48 3e 65 8c d8 be 6f 10 20 3e
       -0.15382634 0.19547646 -0.42294613 0.15631269
000080 8b f2 f1 3e fc 45 a0 be 92 0e fc bd f7 c7 9d 3e
       0.47255358 -0.31303394 -0.123074666 0.30816624
000090 7a 53 63 be 03 20 02 bf 20 3b bd 3e 38 55 84 3e
       -0.22199813 -0.50830096 0.3695917 0.25846267
0000a0 f1 e6 c3 3d ef 44 92 3e 45 15 88 be ed 6a c4 3e
       0.09565533 0.28568217 -0.26578727 0.38362828
0000b0 17 e5 ab bd 71 17 00 be a8 65 e1 be 89 d5 7c 3e
       -0.08393305 -0.12508942 -0.4402287 0.24690832
0000c0 f2 c1 c7 bd 1a 63 d0 bd 78 aa a8 be 09 49 9d be
       -0.09753789 -0.10175152 -0.32942557 -0.30719784
0000d0 0e 0e 94 be 06 02 6e be 86 1c a3 3e 8e 00 f9 be
       -0.28916973 -0.2324296 0.318577 -0.48633236
0000e0 2f de 37 be 9d 27 b6 3e 98 69 7b be c0 ac bf be
       -0.1795585 0.35577098 -0.24552 -0.37436485
0000f0 82 1b 72 3e 88 dc 8b be 46 d2 fd be 23 10 f1 be
       0.23643306 -0.2731669 -0.49574488 -0.47082624

actor.0.weight f4 [64, 8]
000000 ce f1 6c bd a9 c8 bb 3c b1 cc 62 3e 24 7c 92 bd
       -0.05784779 0.02292283 0.22148396 -0.07152584
000010 73 a5 2e bf 15 b3 61 be 37 55 84 3d 47 71 43 3e
       -0.68221205 -0.2204097 0.06461566 0.1908618
000020 6e 79 6c be ce 40 cc 3d e2 69 b4 bd c9 e6 28 3f
       -0.23093197 0.09973298 -0.08809258 0.6597715
000030 48 24 5b 3e ee 67 81 bd 61 55 b2 bd 9e 14 1e 3e
       0.21400559 -0.06318651 -0.08707691 0.15437552
000040 51 8c 68 3b ff 62 8e be 6b 61 5e bd b2 b0 1e bf
       0.0035484026 -0.27809903 -0.054292124 -0.61988366
000050 be b7 ac 3e 66 71 1a bc 4d a1 b4 be d7 a8 8d be
       0.33733934 -0.00942645 -0.35279313 -0.27667877
000060 5f 67 96 bd c7 b8 e1 bc 1e 5a 57 be 74 3f 06 be
       -0.07343935 -0.027553929 -0.2103047 -0.13110143
000070 8a c9 f3 3e 76 d5 23 bd e1 71 3e be 7b 9b 66 be
       0.476147 -0.039998494 -0.18598129 -0.22520249
000080 6f a1 00 3e 94 0b 56 bd 6d 6b e8 bd 49 67 6e be
       0.12561582 -0.052257136 -0.11348615 -0.23281588
000090 ff 69 98 3e e2 63 4d 3e 37 69 42 3e 47 ac 95 be
       0.2976837 0.20057634 0.18985449 -0.29233
0000a0 08 3c c9 bd 09 84 7e be 8c a1 6a 3d 20 ab db 3e
       -0.09825903 -0.24855055 0.05728297 0.42903996
0000b0 28 74 b6 be 73 a7 f1 3c c9 4b 63 3d 5d e6 b1 3d
       -0.35635495 0.029498791 0.055492196 0.086865164
0000c0 1b 81 a2 be 0c d1 7e 3a ab f5 97 bd 5c ed 94 3d
       -0.31739125 0.00097204815 -0.07419904 0.07271835
0000d0 7e 02 a2 be c3 4e a5 bd 68 ab 1b 3e d4 85 b0 be
       -0.31642526 -0.08071663 0.15202105 -0.34477103
0000e0 70 05 dd bd ef 65 4c be 3c 82 7e 3e d4 07 f7 3e
       -0.10792053 -0.1996076 0.24854368 0.4824816
0000f0 15 9a 33 bf 02 5f 0a bf 3a 87 c9 3d a2 90 19 3e
       -0.70156986 -0.5405122 0.098402455 0.1499658
000100 4e 6e 55 be 08 16 16 3e 0a a4 f4 be 3b b0 d9 be
       -0.20842859 0.14656842 -0.47781402 -0.42517266
000110 84 d5 dd 3e b9 9d c0 3e 73 ff 09 bf ce e8 d4 3d
       0.43326962 0.37620333 -0.5390541 0.103959665
000120 13 d2 fe bd 29 18 e0 3c 7a 4e 0b b9 d9 76 61 3e
       -0.12442412 0.02735527 -0.00013285308 0.22017993
000130 a8 23 c5 be be 89 ce be d4 e8 f5 bd 21 27 00 3e
       -0.38503766 -0.40339464 -0.12007299 0.12514926
000140 70 b3 80 bd 63 7f 89 3d 88 1e 79 3c 39 de 91 bd
       -0.06284225 0.0671375 0.015205033 -0.07122464
000150 37 0e f9 be 5c 7e 02 bd c2 d6 80 3e 15 fc 0f 3e
       -0.48643658 -0.031858787 0.25163847 0.14061005
000160 c0 31 cd 3c d3 42 ac bd 21 de de 3c a9 ef 51 3c
       0.025048137 -0.08411183 0.027205529 0.012813487
000170 22 df 0b bf c2 36 a7 be 80 db f2 3d 8a 77 49 be
       -0.5463735 -0.32658964 0.118582726 -0.19674507
000180 46 e6 47 be 53 42 de bd 0b 57 79 be 44 97 a3 be
       -0.19521436 -0.10852494 -0.2434961 -0.31951344
000190 e4 e4 b1 3e d0 13 d8 3e e5 7a e9 bc 15 bc ea bd
       0.34744942 0.42202616 -0.028500983 -0.11461655
0001a0 d5 b7 98 be c3 e6 9a 3e 1e f7 51 3d d0 ea 7d 3d
       -0.29827753 0.30254182 0.05126106 0.061991513
0001b0 cc b2 d5 3c 5b 73 95 bd d5 8b 7c 3e a2 ed c5 3c
       0.026086234 -0.07297393 0.24662717 0.024161164
0001c0 8e 03 03 be 70 87 43 be 6c 2d c8 3e 25 11 0a bf
       -0.12794325 -0.19094634 0.39097154 -0.5393241
0001d0 09 7a 9f be 28 24 9b bd 57 6b 82 3c 8b 8b c7 3c
       -0.31147793 -0.07575256 0.015920324 0.024358531
0001e0 f9 10 30 be bc 71 bf 3d 51 84 9f 3d b6 2d 39 be
       -0.17193975 0.09347865 0.07788909 -0.18083844
0001f0 40 f4 b2 be 07 eb 1f be 6d ec b3 bd 86 49 a6 3d
       -0.34951973 -0.15617 -0.08785329 0.08119492
000200 7d aa 8f be e5 72 71 bd fa 08 1e 3e ea ce 11 3f
       -0.2805976 -0.058947463 0.15433112 0.5695635
000210 7e 53 96 be cd 81 c5 be 56 2d 3b 3c f0 d3 b1 3d
       -0.29360574 -0.38575593 0.011424383 0.08683002
000220 49 31 29 3e b9 b1 b7 3d 08 44 29 be 19 04 be be
       0.16522707 0.08969445 -0.16529858 -0.371125
000230 9f a6 18 3d 3b 77 4e 3a be f2 23 3e 28 6a 41 be
       0.037268277 0.0007876043 0.16010568 -0.18888152
000240 1f ab 2b 3d 5a 81 b2 3d f5 46 99 be b1 37 21 3e
       0.04191124 0.08716078 -0.29936948 0.15743901
000250 9f 2b c0 3e aa 9e 46 3e 93 47 0b 3d ab 64 20 3d
       0.3753328 0.19396463 0.034003805 0.039158504
000260 ce 02 13 3e 64 50 dd bc 96 48 5b 3e 68 cf 03 be
       0.14356539 -0.027015872 0.21414408 -0.12872088
000270 db 6e 1b bf 11 27 c8 be d3 7a 99 be 92 bb 21 be
       -0.6071603 -0.39092305 -0.2997652 -0.15794209
000280 8f 04 ff bc 0f 0d 1c be ff 08 48 be a7 e0 ce bc
       -0.031130103 -0.15239356 -0.19534682 -0.025253607
000290 fb 88 b6 3d d3 20 7a 3e c7 71 71 3d 74 1f 47 3e
       0.08912846 0.24426584 0.058946397 0.19445592
0002a0 2a 2b cf 3d 06 b6 c0 3c 53 26 cc 3d 56 2c 6b 3e
       0.10115655 0.023524296 0.09968247 0.22966132
0002b0 20 10 00 bf 04 0e dc be 7c 5e 14 3d 42 cf 7c 3d
       -0.50024605 -0.42979443 0.03622292 0.061721094
0002c0 6d c4 ed 3c dc 36 24 3e 41 d9 2a be e6 54 2d 3f
       0.029024327 0.16036552 -0.16684438 0.6770767
0002d0 74 b4 f4 3e 03 f3 a6 3e 3b cc dd 3d 6f dc 8f bb
       0.47793925 0.32607278 0.108299695 -0.0043902914
0002e0 32 b4 89 3e 15 91 2e 3e 68 b8 51 3e 6d 5a ed be
       0.2689529 0.17047532 0.20480502 -0.46358052
0002f0 9d 04 07 3f b5 9f 6d 3e 41 9c 86 be e9 3c ea bc
       0.52741414 0.23205455 -0.26291087 -0.028593497
000300 1c be 92 be f5 9a 0e 3d a0 67 da bd ea 20 a7 3e
       -0.28660667 0.034815747 -0.10664296 0.326423
000310 f8 c1 86 be 75 5f a6 be 75 1b 21 3d 49 a8 84 3d
       -0.2631986 -0.32494703 0.039332826 0.0647741
000320 29 a6 09 bd 31 f0 8c 3d a4 91 ef bd bf cd 01 bf
       -0.03360573 0.068817504 -0.116977006 -0.5070457
000330 09 56 78 3d 24 f6 90 3e 7e 1b 3e be 45 90 42 3d
       0.060628925 0.2831279 -0.18565175 0.047500867
000340 2a 32 a8 3d 08 9a a3 3c 27 2a 0d 3f bd 9a 77 3e
       0.08212693 0.019970909 0.55142444 0.24180122
000350 c5 b7 a1 be 56 48 a5 bd 9e 6f 51 be 19 0e 81 3e
       -0.31585518 -0.080704376 -0.20452735 0.25206068
000360 e5 6f da 3d fd 32 22 be fd 15 b1 bd 57 85 db be
       0.106658734 -0.15839763 -0.08646772 -0.42875168
000370 68 36 09 3f ae e0 03 3f 0a 39 93 3d 16 a1 e1 3d
       0.5359864 0.5151471 0.07188614 0.11017053
000380 23 73 94 3c 7c dd 74 be 5a 47 a6 bd 6c 59 74 be
       0.018121308 -0.23912615 -0.08119078 -0.23862237
000390 2b 50 20 3f d2 34 80 3d e4 19 28 be 28 2b 9e bc
       0.62622327 0.06260075 -0.16416126 -0.019307688
0003a0 1b f9 ec 3d e3 f6 83 bd da e0 9f 3c 3d 36 51 bf
       0.115709506 -0.06443574 0.019516397 -0.81723386
0003b0 ab 6d 54 be 9d c1 17 bf 28 33 ca bd e5 85 c9 bd
       -0.2074496 -0.59279805 -0.098730385 -0.098399915
0003c0 44 9d a5 bd 07 75 ea bc 78 b6 3b bd 19 fb 12 3f
       -0.08086637 -0.028620256 -0.045828313 0.57414395
0003d0 8e d3 f0 3e da 16 4c 3e de 6c e6 bb a3 42 12 bd
       0.47036403 0.19930592 -0.007032021 -0.03570808
0003e0 92 d2 de 3d 0f 40 34 bc 56 89 38 bd a2 85 df 3e
       0.10880007 -0.011001601 -0.04505285 0.4365664
0003f0 3b dc 8d 3e 9f 96 6c 3d fb c3 c2 bc a6 c6 63 be
       0.27707085 0.05776083 -0.023775091 -0.22243747

actor.0.bias f4 [64]
000000 0a 3f 47 bb 77 86 54 3c e4 a3 48 3d 86 44 89 bb
       -0.0030402564 0.012971512 0.048984423 -0.004189077
000010 27 99 d9 bb 98 5b ba 3b e8 4e d1 bb 21 79 3e 3d
       -0.0066405716 0.0056871884 -0.00638758 0.046502236
000020 e8 df 2e bd c2 14 63 3d fc 8b 04 bd 75 42 6b 3c
       -0.042694002 0.055439718 -0.032360062 0.014359106
000030 5c 8c 14 3b 85 e6 a7 ba 29 2b 15 3d 4d 1b 35 bd
       0.0022666669 -0.0012809789 0.036418114 -0.04421549
000040 88 8d 15 3c 46 e3 1b bd 8d 8e 2c 3c ab f3 cc 3b
       0.009127982 -0.03805854 0.010532034 0.0062546334
000050 b6 00 95 3c 9a d0 86 bc a4 d4 21 bd 9b 14 3e bc
       0.018188816 -0.01645689 -0.03950943 -0.011601592
000060 93 c3 11 3d 2c 6e f0 3b 76 eb 80 ba e5 67 21 3d
       0.035586905 0.0073373523 -0.0009835798 0.039405722
000070 86 fb 33 3d 9e 0f a2 3b e1 55 9f bc 9d 2c 37 3b
       0.043941043 0.0049457094 -0.01945013 0.0027950176
000080 da 84 fa ba b7 ba 83 3a 79 fb d1 3c 05 1e 26 bd
       -0.0019113079 0.0010050152 0.025632607 -0.040555973
000090 65 cf c3 3b 05 9c cd 3c b1 ef 34 bc 99 80 6e 3c
       0.005975651 0.02509881 -0.011043475 0.014557027
0000a0 05 78 c1 bc 14 65 19 bc 51 1e ad 3c 22 c0 57 bc
       -0.0236168 -0.009362478 0.02113262 -0.013168367
0000b0 2f 6b a5 bc 50 36 a6 bb e7 41 62 bc e4 a8 9c ba
       -0.02019271 -0.0050723925 -0.013809658 -0.0011952189
0000c0 d5 c3 86 3c e7 f9 97 bc f3 27 d6 bb e3 a8 e7 bc
       0.016450802 -0.01855178 -0.006535524 -0.028278774
0000d0 e0 6c dc 3b 51 5f 0f 3c 8f ef 1d bb 7c d6 b1 bb
       0.006726846 0.008750753 -0.0024099087 -0.00542718
0000e0 36 89 43 bd 4e 19 2c 3a 5c 3b 32 3c de 08 15 bd
       -0.047738276 0.000656505 0.01087841 -0.03638541
0000f0 10 c7 2c 3c 42 58 b6 bb 48 d4 98 3c 67 0e b4 bc
       0.010545507 -0.0055647204 0.018655911 -0.021979524

actor.2.weight f4 [64, 64]
000000 69 7c a6 3e 3a 09 a9 bd 12 60 84 3e bd 21 d2 be
       0.32516792 -0.08253713 0.25854546 -0.41041365
000010 84 d4 df 3d e1 5a ff 3d 1a 33 60 be a9 57 17 3e
       0.10929206 0.12468506 -0.21894494 0.14779533
000020 fc 6c a0 3d cf 2c 5e be cc ae 5f 3e 90 e4 5c 3e
       0.07833287 -0.2169678 0.21844023 0.21571565
000030 73 74 ad 3c ee b0 a0 3d 71 6c b1 ba 30 13 6b 3e
       0.021173691 0.07846247 -0.0013536346 0.22956538
000040 15 58 40 3e 9b 16 9e 3e c3 e6 5d 3c 0a c4 da 3e
       0.187836 0.30876622 0.013543787 0.4272769
000050 fd fc c0 bd 96 ff 20 3e b5 92 06 be 52 c7 45 bc
       -0.09423254 0.15722498 -0.13141902 -0.012071447
000060 5e 3d c9 3d 8c f4 5b 3c 8c 1f 0c 3e 05 0e 25 3e
       0.09826158 0.013425004 0.13683909 0.1611863
000070 bb 38 1f be 4f ce fc 3e e4 82 c7 be 07 31 0e bf
       -0.15548985 0.4937615 -0.3896705 -0.5554356
000080 96 25 77 3e 62 92 3d 3e ea 6d 2d 3d a5 1e 9f 3e
       0.24135432 0.18512872 0.04234115 0.31078067
000090 1d 36 4d 3e 66 79 ed 3d 67 cd b6 3e b8 af 85 3d
       0.20040174 0.115954205 0.35703585 0.06527656
0000a0 ec db 16 3f d9 dd ff bd 28 a6 57 be d1 a8 57 3e
       0.58929324 -0.12493486 -0.21059477 0.21060492
0000b0 0e b6 8d 3e 7d 92 f0 3d b2 eb af bd 46 f4 ae bd
       0.2767796 0.117466904 -0.08589877 -0.08542685
0000c0 6a b6 ad 3c 9a bd b9 3d 3d ce e7 bd e8 77 f6 bd
       0.021205146 0.09069367 -0.11318634 -0.12034589
0000d0 84 2c 7e 3c 3e 9a 8d 3e 05 93 8a 3e da 52 3e be
       0.015513543 0.2765674 0.27065292 -0.18586293
0000e0 47 cd da 3c 70 e5 80 3e 5e f8 28 3c f1 12 50 3e
       0.026709212 0.25175047 0.010313122 0.20319726
0000f0 a2 93 7b 3e 23 5f 1e bf 54 9e c3 3e 5d 74 8a be
       0.24568036 -0.6186392 0.38206732 -0.27041903
000100 e7 cd 3a be 89 8b e8 bd 7b 59 69 3e ff ed c5 3e
       -0.18242608 -0.11354739 0.2278804 0.3865814
000110 af e3 73 3e 83 32 22 be 30 d5 37 bd d9 b9 f9 be
       0.23817323 -0.15839581 -0.044881046 -0.48774603
000120 67 da 48 3d 51 0d fc 3c 5f b3 5d be 60 76 97 be
       0.04903641 0.030768069 -0.21650456 -0.295825
000130 1a 27 81 3e d0 fd 35 bd ee 62 be be 0b 0b 5b 3e
       0.25225145 -0.044431508 -0.37184852 0.21390931
000140 ec 9f c6 be 0b ab ff bd 16 45 da 3e 02 e4 bf bc
       -0.38793886 -0.12483796 0.42630833 -0.023424152
000150 8d 75 a3 3d 17 5c 13 be 39 0f 8f bb 9a 94 63 3e
       0.079814054 -0.14390598 -0.0043658284 0.22224656
000160 39 ab 97 be 68 05 89 3e 1a 2f 8c 3d f0 1d 06 3e
       -0.2962282 0.26761937 0.068449214 0.13097358
000170 e4 71 41 3d ed a9 0d 3e 48 8f 76 3d 94 1c b6 3d
       0.047227755 0.13834353 0.060195237 0.088921696
000180 81 19 87 be d7 bf 87 be 25 fc 67 3c c8 0a 67 3e
       -0.26386645 -0.2651355 0.014159237 0.22562706
000190 99 ab f8 be 41 3d 71 3e 73 1e 1a 3d d9 92 82 be
       -0.4856842 0.23558523 0.037626695 -0.2550266
0001a0 f2 d9 6a be 99 3e 97 bd 38 6c ef 3e 44 8d 8f be
       -0.22934702 -0.073849864 0.46762252 -0.28037465
0001b0 c4 37 04 bf 69 32 67 bd 58 f1 75 3e 1a f9 9a 3d
       -0.5164759 -0.05644456 0.24017847 0.075670436
0001c0 38 b1 a8 3d de a0 ed be 1c 8d cf 3d ef a4 bf 3e
       0.08236927 -0.46411794 0.10134336 0.37430522
0001d0 e0 8f ee 3d 94 fe 87 bc 45 90 25 be 0c a2 e3 3c
       0.11648536 -0.016600884 -0.16168316 0.02778723
0001e0 c5 87 91 3e db b4 97 3e 73 3d 0f 3d 50 f0 80 be
       0.28423896 0.2963017 0.034970712 -0.25183344
0001f0 9a e6 ea bc 53 48 c3 3e 49 95 a6 3e 02 1a 7c 3e
       -0.028674413 0.38141116 0.3253577 0.24619296
000200 93 7d 54 be e9 8b 54 bc 50 ad 17 3e 25 e8 b0 3e
       -0.20751028 -0.01297281 0.14812207 0.34552112
000210 26 e8 9e 3c 80 38 7b bc e3 27 86 be ca a5 15 be
       0.019397806 -0.015333295 -0.26202306 -0.14614025
000220 a4 7c 05 3f d4 d9 03 be af 16 c5 3d 7a 5b cd be
       0.5214331 -0.12876064 0.09623467 -0.40108854
000230 36 2c ee 3e e0 3f c1 bd 13 02 94 3d 88 dc 1a bd
       0.46518105 -0.09436011 0.07226958 -0.03780797
000240 da 8f 0e bd ea 55 53 3e 86 72 b4 bc a2 c7 16 3c
       -0.034805156 0.20638242 -0.022027265 0.00920287
000250 4b 20 1c bc 29 f7 70 bd a8 a0 2d be c6 31 83 3e
       -0.009529184 -0.05882946 -0.16955817 0.25623912
000260 e5 e9 d3 bb 21 5c 88 3e 43 e7 86 be 45 6d f6 3d
       -0.0064670914 0.2663279 -0.26348314 0.1203256
000270 9c 62 f8 3d 5a 1e 71 3e 76 f0 0e be d4 ac 4c be
       0.12128183 0.23546734 -0.13958916 -0.19987804
000280 b4 10 34 3e 9d b1 83 be cf 91 79 3e 78 d5 ef bd
       0.17584497 -0.25721446 0.24372028 -0.11710638
000290 be 3e d4 3d 78 8b 7b 3e 78 a4 c0 be ab c0 25 bd
       0.103635296 0.24564922 -0.3762548 -0.040466946
0002a0 a2 18 3f be bb f6 b3 3e 55 dd 0c 3e 3d 12 b3 be
       -0.1866174 0.35149178 0.13756306 -0.34974852
0002b0 b8 0d 88 3c 6c 2e 14 be b0 cd 7f 3d d0 6a a8 3d
       0.016608104 -0.14470834 0.06245202 0.08223498
0002c0 4a 07 8f 3e 32 4f 10 bf 7a 5e 69 bb 2b 4b 51 be
       0.2793525 -0.5637084 -0.003560929 -0.2043883
0002d0 0d 50 1a 3e a1 0b 99 be 27 18 d5 be 62 73 f0 bd
       0.150696 -0.29891685 -0.4161999 -0.117407575
0002e0 83 aa 88 3e 09 31 82 be 59 55 74 3e 63 5e 44 bc
       0.2669259 -0.25428036 0.23860683 -0.011985394
0002f0 f5 55 ce 3e e7 4f 2c 3e 22 16 62 3e 77 ae 2e 3e
       0.40299955 0.16827355 0.22078755 0.1705874
000300 c4 3d b6 bd 7d c6 85 3c 42 06 ca be 07 00 60 be
       -0.088984996 0.016329998 -0.394579 -0.2187501
000310 14 d9 40 be 0b 72 73 3e f9 02 75 be 17 e2 b7 3e
       -0.18832809 0.23773973 -0.23926915 0.3591468
000320 e4 33 d9 be 6a 87 45 3d 2a 5a 21 bd 75 36 c0 3e
       -0.42422402 0.048224844 -0.039392628 0.37541547
000330 11 43 8d be 39 2d bd be 03 b4 69 bd 45 67 cd 3e
       -0.2759023 -0.36948565 -0.05705644 0.4011785
000340 65 63 e1 3e e1 29 04 3e 7a 99 7f be c2 1b 18 3e
       0.44021145 0.129066 -0.2496089 0.14854339
000350 2f 73 cd bd 52 a2 e6 3e 33 5a 0d bd a8 f7 b1 3d
       -0.10031735 0.45045716 -0.03450985 0.08689815
000360 79 74 9c 3d 66 ac ff be 9c dd 6f 3e f7 aa a0 bd
       0.07639403 -0.49936217 0.23424381 -0.07845109
000370 9f 5b 16 bf 61 c5 93 bd 27 52 ed bc 64 fa 1a bd
       -0.5873355 -0.072153814 -0.028969837 -0.037836447
000380 9c ba 44 be a4 e5 52 bc 3d 8e 45 bb 8c 58 82 3b
       -0.19211811 -0.012872133 -0.0030144595 0.0039778408
000390 d4 78 bc 3c e5 99 ca 3c 47 09 aa 3c a1 06 0d be
       0.023006834 0.024731586 0.020756377 -0.1377206
0003a0 94 5e b9 3d df 0a fc bd 05 da 89 be fd 7f 93 bd
       0.090512425 -0.12306761 -0.26924148 -0.07202146
0003b0 c6 87 3e 3d 73 f9 aa 3e 5a 7d 0b 3d bc 8c de 3d
       0.046516202 0.3339344 0.03405509 0.10866687
0003c0 c3 e2 61 be 8c 56 a1 3e 95 cb 62 3e 10 c4 1b be
       -0.22059159 0.31511343 0.22147973 -0.1521151
0003d0 11 54 2d be 83 d6 00 3d 51 27 eb bd 23 d7 40 3d
       -0.169266 0.031454574 -0.114821084 0.04708017
0003e0 7e 5b 09 be f2 fe e0 bd 84 2c b4 be ac e3 4a 3e
       -0.13413808 -0.10986127 -0.35190213 0.19813412
0003f0 c8 19 a3 be 4c 27 5a 3e 0c bf 47 bd bd 65 89 3e
       -0.31855607 0.21304053 -0.04876618 0.26835433

actor.2.bias f4 [64]
000000 e3 7a 61 bc dd cd b9 3c d7 0c 3a 3c 8e 0c 25 bd
       -0.013762209 0.022681171 0.0113556 -0.040295176
000010 f4 77 a2 3c 7d 4b 28 3b a6 db 63 b9 05 95 8b bc
       0.019832589 0.002567976 -0.00021730232 -0.017038831
000020 06 bb ea bb a2 54 1a 3b 0b 9c 85 bc c7 2e 20 3d
       -0.007163408 0.002354898 -0.016309759 0.03910711
000030 ac 57 a1 bb 74 e2 06 3c 14 2a 4b 3c 58 1c 84 bc
       -0.0049237814 0.008232702 0.012400169 -0.016126797
000040 24 cf e0 3c dd 68 ea 39 5d 4a 40 3d dd a5 23 bc
       0.027442522 0.00044710087 0.04694592 -0.009988275
000050 56 7e 46 3b 18 8a 85 bc 51 b3 3a bc d4 db 17 bc
       0.0030287704 -0.0163012 -0.011395291 -0.00926872
000060 7d 0a 08 bd bb 94 8e bb 43 71 cb bc 38 03 3d bc
       -0.033213127 -0.004351226 -0.02483428 -0.011536412
000070 54 99 76 3c 7a 21 af b9 be 53 58 3c a9 d8 b5 bb
       0.015051205 -0.00033403543 0.013203559 -0.0055495095
000080 8a ed 12 ba 55 bd 07 3d 06 fd a8 bc 88 76 ef 3c
       -0.0005604854 0.033139545 -0.020628463 0.029231325
000090 de 0b c2 bb fb 22 a5 bc 5f 25 c9 bc 1d 9d c1 bc
       -0.005921825 -0.020158282 -0.024553953 -0.023634488
0000a0 79 75 55 bc 27 54 f9 3c 3a 3a 19 3b 81 6d 01 bc
       -0.013028496 0.030435635 0.0023380653 -0.007899643
0000b0 12 f6 ca 3b 4b a6 2e 3c 6d da 9b 3b 06 bc 40 bc
       0.0061938846 0.0106597645 0.004756263 -0.011763578
0000c0 8f 77 57 bd 19 07 d0 bc d8 f9 2d 3d 80 5f 8f bb
       -0.052604254 -0.02539401 0.042474598 -0.004375398
0000d0 74 07 92 bc 8c ee ae 3c af 5d 80 3b 25 46 d4 bc
       -0.01782582 0.021353982 0.003917418 -0.025912354
0000e0 be b6 09 3d 3b f9 d2 bc 74 04 04 bd a0 96 f9 bc
       0.033621542 -0.025753608 -0.03223081 -0.030467331
0000f0 6a f0 ee bc 0b 18 2b 3c cc 7d 1a bd 88 2f 58 bb
       -0.029167373 0.010442744 -0.037717625 -0.0032987315

actor.4.weight f4 [4, 64]
000000 b5 e0 06 be 22 18 c0 bc 0a 0a e1 bd 32 af 04 3e
       -0.13171656 -0.023449007 -0.10988243 0.12957457
000010 b7 19 35 be ff 1a c5 bd 3d 59 fb 3d 91 b8 20 3e
       -0.1768559 -0.0962429 0.1227288 0.15695406
000020 76 8d fe 3d 98 a5 0c be 45 d3 9d 3c 70 7a ef bc
       0.12429325 -0.13735044 0.01926578 -0.029233187
000030 f6 ed fb 3d 32 ef 09 be e1 c3 19 be 8b cc 07 3e
       0.12301247 -0.13470152 -0.15016128 0.1326162
000040 57 ff 6f bd 5c 3b 1e be f3 ec 88 3c 0a 37 99 3c
       -0.05859312 -0.15452331 0.016714549 0.018703002
000050 3e 31 8c 3d 88 6f 1a 3e 43 87 e9 bd 6d 51 d6 3c
       0.0684533 0.15081608 -0.11402752 0.026161874
000060 db e0 1b bd f2 38 e3 3d f3 7a 2d 3e f7 3f 10 3e
       -0.038056236 0.11094846 0.16941433 0.140869
000070 d6 27 0f be 50 3e 14 be 40 c1 f6 bd 37 26 9e bd
       -0.1398004 -0.14476895 -0.12048578 -0.07722133
000080 07 4f 0f be 40 87 03 be ce 03 a7 bd 9e 83 24 be
       -0.1399499 -0.12844563 -0.081550226 -0.16065833
000090 8e 2e 92 3d 42 f5 07 3e 08 8d b5 3d c4 46 38 3b
       0.07137786 0.13277152 0.0886479 0.0028118351
0000a0 61 1b e3 3c 11 95 92 bd 64 9b f1 3d 60 a0 08 be
       0.027723016 -0.071573384 0.117972165 -0.13342428
0000b0 c7 18 44 bd 75 09 27 be 7b ea ab 3d 11 37 24 3e
       -0.047875192 -0.16312201 0.08394333 0.16036631
0000c0 54 30 31 3e d9 71 ba 3d e5 c0 21 be bd fb 20 3e
       0.17303592 0.09103746 -0.1579624 0.1572103
0000d0 3a ab b0 bd 87 7b 73 3c 29 b2 04 be 56 f4 10 3e
       -0.08626409 0.014860994 -0.12958588 0.14155707
0000e0 21 6c 00 3e 04 f5 0c be bb 84 23 3e a8 f7 ec 3d
       0.12541248 -0.13765341 0.15968601 0.11570674
0000f0 89 14 41 3e 45 63 40 bd aa dd 2f 3d 79 6c bc 3d
       0.1885549 -0.04696967 0.042936005 0.09200377
000100 bc dd 44 3e 2d f2 9e be 4d 8d 5e be bb 07 75 3e
       0.1922521 -0.3104414 -0.2173359 0.2392873
000110 9e b5 36 be 50 90 93 bd 7c 43 18 be 6d 83 4c bc
       -0.17842719 -0.0720526 -0.14869493 -0.012482506
000120 df e3 26 be 6b 26 15 39 22 86 79 be bf 9d 85 be
       -0.16297863 0.00014224059 -0.24367574 -0.26096913
000130 c0 46 96 3e b3 3f a3 be a0 77 56 be 48 4e 6d 3e
       0.29350853 -0.31884536 -0.20944071 0.23174393
000140 4f 78 52 3e 1e 28 15 be e6 25 88 3e 9a ee 8b be
       0.20553707 -0.14566085 0.26591414 -0.27330476
000150 59 65 8d be df a4 c6 bd e3 a1 97 bd d0 0a 87 be
       -0.27616385 -0.096994154 -0.07403924 -0.26375437
000160 13 4e 04 be b7 d9 a3 3e fe b8 e2 bd fc 26 8c 3e
       -0.12920408 0.3200204 -0.11070441 0.27373493
000170 6a b8 8c 3d 50 da 19 3d 53 59 bb 3d 85 4a 4d 3e
       0.06871112 0.037561715 0.091478966 0.20047958
000180 18 61 0e be 9d e0 8c be 0f 3b 04 3e 90 81 10 3e
       -0.13904226 -0.27515116 0.12913154 0.14111924
000190 4f c2 0d be 3b ce 7a 3e bb 90 90 3e 62 df 58 be
       -0.13843654 0.24492733 0.2823542 -0.21178964
0001a0 7a 82 66 3e d8 49 45 3e 98 14 28 3e 15 1a a6 be
       0.2251071 0.1926645 0.16414106 -0.32441774
0001b0 43 54 8c be c6 94 83 be 5c d4 85 3e 18 54 92 3e
       -0.27408037 -0.25699443 0.2613858 0.28579783
0001c0 b2 39 d7 3b 74 53 91 3e eb 24 42 bd 4a dc 3b be
       0.006568157 0.28383982 -0.04739849 -0.18345752
0001d0 46 f8 08 be c7 1d 8a 3e cf 27 22 3e 07 ac 44 3e
       -0.13375959 0.26975843 0.15835498 0.19206248
0001e0 b9 02 8b bd 3a 14 5e 3d 52 e8 96 3e 57 2f 79 3d
       -0.06787629 0.05421851 0.2947412 0.060836162
0001f0 6f ec 94 3d 2b b4 6c be 74 9a 88 be 09 4b 89 3d
       0.07271659 -0.23115604 -0.26680338 0.06703765
000200 77 72 59 3e 06 62 79 3d 56 b8 56 3e 77 74 7c be
       0.21235071 0.060884498 0.20968756 -0.24653803
000210 72 33 87 3e e9 25 21 3e 50 79 66 be 96 74 86 be
       0.26406437 0.15737118 -0.22507215 -0.26260823
000220 6a bc 6d be df bf 60 3e 54 00 fa bc 50 39 c8 3d
       -0.23216406 0.21948193 -0.030517735 0.097765565
000230 3f cb 5c be 3f 1c 7d 3e 81 ec 6f 3e fe 39 80 be
       -0.21561907 0.24717806 0.23430063 -0.25044245
000240 ae 3f 14 3e fc c9 70 3e 56 80 14 bd 43 65 09 bd
       0.14477417 0.23514551 -0.036255203 -0.033543836
000250 6e 6e ee bd 45 e3 81 be 71 2b 32 3e 85 7d 55 bd
       -0.116421565 -0.25368705 0.17399384 -0.052121658
000260 05 de f8 3c 46 3c 54 be 7c 8c 8f be cc 36 85 be
       0.030379305 -0.20726117 -0.2803687 -0.2601837
000270 ab 65 77 3e 8b 04 6b 3e 90 8e 6b 3e 91 87 2e 3e
       0.24159877 0.22950952 0.23003602 0.17043902
000280 4d 57 5f 3e 37 9d 80 3e 47 df 1f 3e e8 ab 85 3e
       0.21810646 0.25119945 0.15612517 0.26107717
000290 c7 20 0d be c5 48 77 be 60 28 5b be cb 7a c3 3b
       -0.13782035 -0.24148853 -0.2140212 0.005965566
0002a0 49 aa 83 bd b6 d8 28 3e bb eb 39 be d3 1d 71 3e
       -0.06428964 0.16488919 -0.1815633 0.23546533
0002b0 2b aa de 3d 34 20 83 3e 91 31 41 be 81 e4 83 be
       0.10872301 0.25610507 -0.18866564 -0.25760272
0002c0 fe 10 90 be 6a b0 49 be 2d 0f 91 3e 8c b4 6c be
       -0.28137964 -0.19696203 0.2833189 -0.23115748
0002d0 2b 82 0e 3e a2 18 22 bd 53 2f 65 3e 15 84 81 be
       0.13916843 -0.039574273 0.22381334 -0.25296083
0002e0 ae 59 4e be 7d ea 5e 3e 19 93 93 be 77 aa 68 be
       -0.20151398 0.21769138 -0.28823164 -0.22721277
0002f0 3c 71 8a be 88 81 dd 3d 6f c2 cc bd 07 98 07 be
       -0.27039516 0.10815722 -0.09998023 -0.13241588
000300 29 8f 85 be 5c 66 99 3e a0 63 ff 3d 20 0e 0b be
       -0.26085785 0.29960907 0.12470174 -0.13579607
000310 3e 0b 1b be f2 9b b5 bd b3 32 84 3e ff 92 87 3e
       -0.15141007 -0.08867635 0.2581993 0.26479337
000320 24 63 8f 3e 2d 1e 59 be 97 54 7f 3e 53 b6 72 3e
       0.28005326 -0.21202917 0.24934612 0.23702364
000330 43 84 62 be af 77 62 3e 8e 87 18 3d 76 73 c2 bd
       -0.22120766 0.22115968 0.03723865 -0.09494679
000340 91 33 7e be 43 6e 03 be 51 41 84 be 3e d9 8d 3e
       -0.24824359 -0.1283503 -0.25831082 0.27704805
000350 8d f1 94 3e 56 02 88 3e 15 f0 ee bd 32 da 8c 3e
       0.2909054 0.26564282 -0.11666886 0.2751022
000360 fd aa 06 3e f6 4f 87 be 17 58 8a 3e 63 4b 41 be
       0.13151164 -0.26428193 0.27020332 -0.18876414
000370 c7 52 87 be 05 89 85 be 9c a1 4c be 00 90 81 be
       -0.26430342 -0.260811 -0.19983524 -0.25305176
000380 51 fc db bd 78 0f 4d 3e ef d1 65 be d6 d8 8f be
       -0.10741485 0.20025432 -0.22443365 -0.2809512
000390 0f 33 65 3e 25 ea ab bd 64 bf 4e be a0 a0 5a 3e
       0.22382759 -0.08394269 -0.20190197 0.21350336
0003a0 32 6e 5d be 99 f1 70 be d9 09 15 3c 0a 7c 5c 3e
       -0.21624067 -0.23529662 0.009096586 0.21531692
0003b0 19 b3 80 3e 24 3f de 3c ea ff 5d be 58 66 29 be
       0.2513664 0.027129717 -0.21679655 -0.16542947
0003c0 04 a4 83 3e 7e 82 66 be 63 cf 71 be 2f 2f 87 3e
       0.25711071 -0.22510716 -0.23614268 0.26403186
0003d0 13 dc 4f 3d 12 f0 84 be 4d 3a 81 be 41 fd 00 bd
       0.05074699 -0.2596441 -0.25239792 -0.03149152
0003e0 be eb 6e 3e 3a 7c 6e be 54 aa 20 be bc 32 21 3e
       0.23332116 -0.23289576 -0.15689975 0.1574201
0003f0 f5 45 82 3e 48 52 57 3e aa d0 92 3e 00 3d 36 3d
       0.25443998 0.21027482 0.28674823 0.044491768

actor.4.bias f4 [4]
000000 77 2b 87 bc 95 89 00 bd 54 a2 47 3d 10 70 f9 bc
       -0.016500218 -0.03138121 0.048738793 -0.030448943
