HFDRL_UNIT8/models/Archived/LunarLander-v3__ppo__1__1768732728__u100.pt (torch, 44753 bytes, 11 tensors)

critic.0.weight f4 [64, 8]
-0.17352988 0.04895955 0.029539144 0.11517876 -0.05141728 0.1405968 -0.2899191 0.13087265
-0.17843695 0.19826986 0.2423466 -0.16714521 -0.19209762 -0.24070607 0.1683127 -0.054069415
0.020310707 -0.21159112 0.13793178 0.047423616 0.03196588 0.099896714 0.15308823 0.48608044
-0.23536438 0.05771732 -0.02161097 -0.35988498 0.2711925 -0.006151644 -0.19873457 -0.105388284
0.00017794702 -0.08191032 0.2195777 0.06631588 -0.006225975 -0.091295294 0.010289328 -0.3780551
-0.071760274 -0.19392863 -0.048757244 -0.06981151 -0.056328908 0.2791212 -0.1936843 -0.20049825
-0.27382496 -0.13483147 -0.048174497 -0.12141254 -0.08679281 -0.20183778 0.44756272 0.19776627
-0.05960803 0.46831313 0.12424479 0.031162957 -0.059707377 0.1719228 0.2743756 0.38561696
0.12439883 -0.08361252 0.2271977 -0.07794859 0.31533346 -0.021859655 -0.035473544 -0.041069288
0.0023418285 0.17345284 0.27121675 -0.34299046 0.19324678 0.08130707 0.2471415 0.5320399
-0.021745732 -0.30498612 0.2014685 0.2388533 0.030517953 0.27570313 -0.12029482 -0.29796842
-0.09459116 0.36925346 -0.08094541 0.12844923 -0.082113005 0.21465373 -0.25664636 0.00395123
-0.008149058 0.22346555 0.07177811 -0.12614198 -0.08419288 0.015436795 -0.10804856 0.12951756
-0.020277744 -0.099939026 0.20690532 0.238781 -0.026935328 0.031139059 -0.26721013 0.12533344
-0.06348886 -0.010326919 0.1765574 0.09856376 0.082846135 0.027588982 -0.10305195 -0.07601031
-0.0663636 0.041135777 -0.2145658 -0.068663135 -0.007233844 0.14364746 0.109062746 -0.039382674
0.13199788 0.06252538 0.03486841 -0.4658924 -0.13178685 -0.07017559 -0.109278195 0.22051689
-0.13254227 0.10060553 0.28444886 0.00016686799 0.26504317 -0.19560222 0.077117525 0.2697499
-0.33342907 -0.1507623 0.2719015 0.21809971 -0.17144652 0.10442046 -0.01814297 -0.08944506
-0.08202721 0.26093227 -0.07586012 -0.03928462 0.03529026 0.19594634 -0.31658065 -0.19039191
0.20785932 -0.005675252 0.17299552 0.12394989 0.075696975 -0.06239067 -0.01578995 0.004922722
0.08892762 -0.03155073 -0.20989873 -0.17181939 -0.079306185 0.08852582 -0.18232399 -0.07513593
0.16925941 -0.007034407 0.10890659 0.28690213 -0.19170211 -0.17250939 -0.12964924 -0.22470282
0.20696855 0.04687862 -0.10486893 0.1721818 0.16392341 -0.11268998 0.009563957 -0.2932905
-0.0891407 0.04521692 0.09562144 0.018557452 0.051569223 -0.18985093 -0.60846215 -0.17913903
-0.10447685 0.23179542 0.036305025 0.16445746 0.05137871 -0.1897976 0.053584125 -0.10053535
-0.08698878 0.04317851 0.059223436 -0.09921304 0.23280835 -0.13650613 0.11250758 0.1701942
-0.025294956 -0.07645845 -0.018462176 -0.074955024 -0.25975505 0.20415215 0.12885112 0.32182154
0.27037337 -0.009219631 -0.27084368 0.09054527 -0.12011598 -0.0151741 -0.38519 -0.11627034
0.08334118 0.3784517 -0.2084579 0.4172477 -0.21925141 0.06747013 0.0068177963 -0.43641597
-0.23556589 -0.067308895 -0.17931072 -0.12765542 0.1942764 -0.12253606 0.11762145 0.36153552
-0.11960983 0.46636927 0.18828872 0.0406586 0.21995626 0.14761087 -0.12227873 -0.22887515
00000000: d1b1 31be cf89 483d 13fc f13c d7e2 eb3d
00000010: ed9a 52bd 9cf8 0f3e 4770 94be 7b03 063e
00000020: 2db8 36be 4107 4b3e b529 783e 1d28 2bbe
00000030: 3db5 44be a77b 76be 2a5a 2c3e e477 5dbd
00000040: a462 a63c 58ab 58be fd3d 0d3e 443f 423d
00000050: a8ee 023d a696 cc3d 29c3 1c3e 89df f83e
00000060: 5c03 71be ff68 6c3d 7d09 b1bc d842 b8be
00000070: bed9 8a3e bb93 c9bb 1381 4bbe d0d5 d7bd
00000080: 4a97 3a39 99c0 a7bd fad8 603e 9fd0 873d
00000090: 4403 ccbb 07f9 babd 9294 283c 7090 c1be
000000a0: 0df7 92bd 3a95 46be adb5 47bd 56f9 8ebd
000000b0: 24b9 66bd f9e8 8e3e 2d55 46be 6a4f 4dbe
000000c0: c932 8cbe 4311 0abe 9f52 45bd 23a7 f8bd
000000d0: 6ec0 b1bd 90ae 4ebe f126 e53e 3e83 4a3e
000000e0: 8d27 74bd bdc6 ef3e 0d74 fe3d 7549 ff3c
000000f0: b98f 74bd 880c 303e f57a 8c3e 966f c53e
00000100: d0c4 fe3d 0a3d abbd 84a6 683e 83a3 9fbd
00000110: 6373 a13e 0513 b3bc b54c 11bd 4538 28bd
00000120: 5d79 193b 9f9d 313e ecdc 8a3e 729c afbe
00000130: 7ce2 453e 5284 a63d a912 7d3e c433 083f
00000140: 1b24 b2bc 2427 9cbe c24d 4e3e f695 743e
00000150: c900 fa3c f628 8d3e 215d f6bd 518f 98be
00000160: 03b9 c1bd ca0e bd3e b5c6 a5bd 3288 033e
00000170: dd2a a8bd 30ce 5b3e 2767 83be 5279 813b
00000180: a083 05bc 27d4 643e 6700 933d 5d2b 01be
00000190: 516d acbd 9cea 7c3c 9048 ddbd 40a0 043e
000001a0: 831d a6bc d5ac ccbd fdde 533e 0283 743e
000001b0: 7aa7 dcbc 5717 ff3c c4cf 88be 6957 003e
000001c0: 7306 82bd 3d32 29bc 77cb 343e ccdb c93d
000001d0: 3cab a93d 4a02 e23c e70c d3bd 4bab 9bbd
000001e0: a4e9 87bd fd7d 283d 23b7 5bbe 429f 8cbd
000001f0: e209 edbb 5218 133e 4a5c df3d ba4f 21bd
00000200: 742a 073e 4e0d 803d 2ed2 0e3d 7389 eebe
00000210: 22f3 06be 38b8 8fbd 3fcd dfbd 2ecf 613e
00000220: 29b9 07be 460a ce3d 48a3 913e 49f9 2e39
00000230: bdb3 873e f34b 48be cbef 9d3d a91c 8a3e
00000240: 37b7 aabe 6f61 1abe ac36 8b3e 8855 5f3e
00000250: ad8f 2fbe 65da d53d 91a0 94bc f92e b7bd
00000260: e2fd a7bd ea98 853e 8d5c 9bbd e9e8 20bd
00000270: 858c 103d 28a6 483e dc16 a2be 19f6 42be
00000280: 13d9 543e 77f7 b9bb bd25 313e 71d9 fd3d
00000290: 0407 9b3d 5c8d 7fbd ed59 81bc c94e a13b
000002a0: af1f b63d 573b 01bd b1ef 56be 6cf1 2fbe
000002b0: 486b a2bd 064d b53d 24b3 3abe dee0 99bd
000002c0: 5752 2d3e e280 e6bb 6b0a df3d d6e4 923e
000002d0: 8f4d 44be 4da6 30be c5c2 04be 7f18 66be
000002e0: 90ef 533e cc03 403d 86c5 d6bd 6d50 303e
000002f0: 8adb 273e 01ca e6bd 25b2 1c3c 2c2a 96be
00000300: 668f b6bd 6135 393d 2cd5 c33d cc05 983c
00000310: 403a 533d 4868 42be 2dc4 1bbf 3970 37be
00000320: f5f7 d5bd c75b 6d3e 94b4 143d 8967 283e
00000330: 7b72 523d 4d5a 42be 077b 5b3d 7ae5 cdbd
00000340: 2c27 b2bd f3db 303d 4694 723d 3530 cbbd
00000350: 5065 6e3e 43c8 0bbe 606a e63d 6347 2e3e
00000360: 5e37 cfbc 3f96 9cbd fd3d 97bc 0582 99bd
00000370: 9dfe 84be 430d 513e 8cf1 033e cbc5 a43e
00000380: 616e 8a3e ef0d 17bc 06ac 8abe cc6f b93d
00000390: 5eff f5bd ca9c 78bc a037 c5be 251f eebd
000003a0: c8ae aa3d 6cc4 c13e fd75 55be 7ea1 d53e
000003b0: 7183 60be c82d 8a3d d267 df3b ea71 dfbe
000003c0: 2f38 71be 3fd9 89bd 3b9d 37be 1ab8 02be
000003d0: 65f0 463e 30f4 fabd 84e3 f03d 2f1b b93e
000003e0: 00f6 f4bd f4c7 ee3e c2ce 403e a289 263d
000003f0: 373c 613e 4e27 173e 456d fabd 3f5e 6abe

critic.0.bias f4 [64]
-0.06853306 0.08630258 -0.014755953 -0.012245421 -0.101274304 0.042255245 -0.040647253 0.09193116
-0.048413943 0.07834861 -0.01768821 -0.01777765 0.07618831 0.040733017 0.0015915092 -0.050539505
0.07791576 0.0032279138 -0.079277106 -0.022683231 -0.07387071 0.07668642 -0.05488015 -0.083279364
0.01261833 -0.021940393 0.070244886 0.06336045 -0.056250665 -0.064479925 0.07644637 0.023292111
-0.04264982 -0.06598987 0.09248756 0.074997105 -0.075321116 -0.07431308 -0.07389711 0.062729746
0.069117256 0.06758677 -0.071277566 0.025309095 -0.08850114 0.022864947 0.015670167 -0.07942835
-0.06820248 -0.037059903 -0.06561686 0.06602613 -0.06631093 -0.06949254 -0.059599437 -0.110078424
-0.089270554 -0.0642309 -0.078337535 -0.0044590887 -0.074399784 -0.0017889272 -0.08158491 -0.07123288
00000000: 105b 8cbd 68bf b03d f4c2 71bc 05a1 48bc
00000010: e768 cfbd d613 2d3d bc7d 26bd 6746 bc3d
00000020: b34d 46bd 3c75 a03d dde6 90bc 6fa2 91bc
00000030: 9e08 9c3d aad7 263d 309a d03a 8302 4fbd
00000040: 4c92 9f3d 688b 533b 095c a2bd 2fd2 b9bc
00000050: 8749 97bd c50d 9d3d 02ca 60bd 5f8e aabd
00000060: 1dbd 4e3c 57bc b3bc 8ddc 8f3d 20c3 813d
00000070: 1967 66bd 0d0e 84bd ea8f 9c3d 19cf be3c
00000080: 94b1 2ebd b225 87bd 1e6a bd3d 1598 993d
00000090: f541 9abd 7531 98bd 5e57 97bd 7478 803d
000000a0: 598d 8d3d ef6a 8a3d f9f9 91bd 0555 cf3c
000000b0: 1640 b5bd 454f bb3c b95e 803c 55ab a2bd
000000c0: bead 8bbd 20cc 17bd 2262 86bd b538 873d
000000d0: 06ce 87bd 1b52 8ebd 8a1e 74bd cc70 e1bd
000000e0: 7bd3 b6bd 7d8b 83bd 6e6f a0bd 8c1d 92bb
000000f0: ea5e 98bd 707a eaba fd15 a7bd 8be2 91bd

critic.2.weight f4 [64, 64]
0.15907978 -0.5760831 -0.09868398 0.097156905 -0.0013655901 -0.07710578 0.15405454 -0.36682796
-0.082063355 0.25583583 -0.09684468 -0.11238184 -0.11568476 -0.07283082 -0.11270069 0.06535392
-0.03313003 -0.15696798 0.08350724 0.074645035 -0.0874712 0.03262216 0.20494755 0.09183795
0.24863452 0.09528354 0.19772647 0.0730185 -0.010685285 0.13627313 0.04522991 0.04676034
-0.12896416 0.19685692 0.17608637 -0.096019804 -0.30127847 -0.23522604 -0.03553136 -0.53819084
0.14097966 -0.21105254 0.09171897 -0.06935336 -0.22926465 0.05290989 0.012739824 0.31391513
-0.005024604 0.1502646 -0.020161588 -0.10304004 0.08948211 0.030927856 0.06350122 0.20614786
0.16875206 0.0027061042 0.11201781 -0.015946314 0.28490114 0.40730438 -0.21745546 0.06352603
0.25759116 0.11157081 0.03316852 -0.037386116 -0.030903712 -0.17728975 0.080203585 -0.25509584
-0.04470036 -0.32498398 0.05053343 -0.093393326 0.37833452 0.3585718 -0.017656177 0.13810642
-0.122917406 -0.24125503 0.4386574 -0.1613695 0.092545144 0.0002294872 0.035047736 0.10810798
-0.022108926 0.13877462 -0.1010291 -0.053014856 0.22494934 0.34273568 -0.07634502 0.17712803
0.11336012 0.09418535 -0.09944159 -0.18764341 0.037964042 -0.062288582 -0.059932686 0.15228046
0.012753175 -0.073328055 0.26140547 -0.07398853 0.14864928 0.09407631 0.2584168 0.032623004
0.3513538 -0.13545233 0.07156231 -0.117605396 0.07612083 -0.0019607872 -0.002813926 -0.04614591
0.36222318 -0.15287891 0.24249487 0.20165637 0.1790031 0.14009179 -0.2302972 -0.013985052
-0.11170074 0.18899511 0.15093784 0.16672151 0.2727967 -0.07976379 0.07924503 0.2568181
-0.2145501 0.41584706 -0.2576006 -0.20368972 -0.01868233 0.16836926 0.018552331 -0.15587667
-0.27970615 0.017037392 0.0080550155 -0.045016356 -0.16399157 -0.017852364 -0.19140011 -0.0025983849
-0.09690938 0.07377158 0.4523595 0.14115396 0.052011415 -0.44795012 -0.23624694 -0.2923934
0.3590417 0.054909974 -0.02753969 0.14869328 -0.119528465 -0.14858098 -0.056098714 0.19008788
0.1812753 -0.2879832 0.2001315 0.028521825 -0.0067603495 -0.105260976 0.4940502 0.037991364
0.082850255 0.027344612 -0.030825952 0.025437737 -0.14576663 0.00498133 -0.016268272 -0.14813243
-0.34160748 -0.06534772 0.005891816 -0.18625775 -0.069378905 -0.13235961 -0.11863054 -0.026737317
0.2451334 0.13201761 -0.1109269 0.09654512 0.018246729 -0.1183273 -0.5887417 -0.15860862
0.027958917 -0.029599357 0.18978523 -0.0037766728 -0.12282813 0.32353154 0.07447396 0.09697852
-0.17449208 0.028755708 -0.014163413 0.078118354 -0.14768244 0.033632994 0.46391577 0.19574259
-0.232549 -0.040265936 -0.2854977 -0.12515403 -0.09569589 -0.38634515 0.24500781 0.11784946
-0.051632673 0.20821527 -0.08244483 -0.19786592 -0.07356971 -0.23619404 0.22790901 -0.11865999
0.024202194 -0.06420234 0.22198184 0.12857063 -0.09500664 0.28954867 -0.17428248 0.10475623
0.18856171 0.003583286 -0.14004311 -0.14698106 0.15985693 0.035285737 0.03401322 -0.20134015
0.17588733 -0.085305616 0.21830393 0.11893656 -0.114214055 -0.10491664 -0.12963575 -0.00031191047
00000000: cfe5 223e 2f7a 13bf d41a cabd 33fa c63d
00000010: 9afd b2ba a3e9 9dbd 79c0 1d3e e0d0 bbbe
00000020: d510 a8bd eafc 823e 8156 c6bd 7328 e6bd
00000030: 22ec ecbd 5328 95bd 9fcf e6bd 47d8 853d
00000040: 5bb3 07bd 37bc 20be d805 ab3d 7fdf 983d
00000050: 1a24 b3bd d09e 053d c5dd 513e 8915 bc3d
00000060: 0c9a 7e3e 0424 c33d cf78 4a3e b98a 953d
00000070: 5511 2fbc 2f8b 0b3e 0043 393d c587 3f3d
00000080: 2e0f 04be dc94 493e fc4f 343e 08a6 c4bd
00000090: 2c41 9abe 18df 70be 5589 11bd e0c6 09bf
000000a0: f95c 103e 281e 58be 28d7 bb3d 2209 8ebd
000000b0: 5ac4 6abe 0ab8 583d b2ba 503c 7cb9 a03e
000000c0: 6fa5 a4bb f7de 193e ea29 a5bc a806 d3bd
000000d0: 6642 b73d 6a5c fd3c ed0c 823d 6d18 533e
000000e0: 57cd 2c3e e558 313b 9869 e53d d8a1 82bc
000000f0: 90de 913e 338a d03e a5ac 5ebe ef19 823d
00000100: fde2 833e 3d7f e43d b7db 073d 2f22 19bd
00000110: c829 fdbc 728b 35be c741 a43d ec9b 82be
00000120: ba17 37bd 4d64 a6be 24fc 4e3d 0045 bfbd
00000130: 10b5 c13e b996 b73e b0a3 90bc c56b 0d3e
00000140: 1fbc fbbd 8f0b 77be b497 e03e 0c3e 25be
00000150: 4f88 bd3d 80a2 7039 378e 0f3d b767 dd3d
00000160: c71d b5bc ef1a 0e3e 58e8 cebd 1b26 59bd
00000170: 1f59 663e 0d7b af3e c75a 9cbd 0d61 353e
00000180: 5a29 e83d 40e4 c03d 08a8 cbbd 9825 40be
00000190: 2f80 1b3d 5022 7fbd fa7b 75bd 69ef 1b3e
000001a0: b1f2 503c 052d 96bd f0d6 853e 4c87 97bd
000001b0: 8437 183e 15ab c03d 354f 843e b39f 053d
000001c0: a5e4 b33e 04b4 0abe 438f 923d 19db f0bd
000001d0: 3de5 9b3d 8d80 00bb d869 38bb 7e03 3dbd
000001e0: 5175 b93e 4a8c 1cbe 9350 783e 027f 4e3e
000001f0: 974c 373e 3974 0f3e 07d3 6bbe 8f21 65bc
00000200: 5cc3 e4bd ef87 413e 738f 1a3e 0bb9 2a3e
00000210: 02ac 8b3e 335b a3bd 384b a23d a97d 833e
00000220: 05b3 5bbe e8e9 d43e 3ae4 83be 0a94 50be
00000230: b00b 99bc fe68 2c3e 0ffb 973c 229e 1fbe
00000240: a535 8fbe 0092 8b3c 2ff9 033c 1263 38bd
00000250: 68ed 27be 1f3f 92bc 64fe 43be aa49 2abb
00000260: 6d78 c6bd 8e15 973d aa9b e73e aa8a 103e
00000270: ec09 553d b859 e5be b8ea 71be 96b4 95be
00000280: 50d4 b73e 48e9 603d ea9a e1bc 0d43 183e
00000290: 57cb f4bd 9d25 18be c4c7 65bd 66a6 423e
000002a0: 3ba0 393e 8972 93be 46ef 4c3e 9aa6 e93c
000002b0: ec85 ddbb 1193 d7bd 26f4 fc3e d59c 1b3d
000002c0: 65ad a93d cf01 e03c b586 fcbc cd62 d03c
000002d0: d943 15be 6d3a a33b 0a45 85bc 07b0 17be
000002e0: 2de7 aebe 07d5 85bd 2310 c13b 5aba 3ebe
000002f0: 8716 8ebd 4789 07be 92f4 f2bd 3808 dbbc
00000300: 4004 7b3e a02f 073e a42d e3bd 73b9 c53d
00000310: 2a7a 953c 9555 f2bd c7b7 16bf 4c6a 22be
00000320: 190a e53c 5a7a f2bc 0f57 423e 0e82 77bb
00000330: 518d fbbd eda5 a53e ce85 983d ad9c c63d
00000340: 0dae 32be 1791 eb3c a90d 68bc 84fc 9f3d
00000350: 113a 17be c0c2 093d 5e86 ed3e bf70 483e
00000360: 5321 6ebe e5ed 24bd c12c 92be 6128 00be
00000370: 35fc c3bd 08cf c5be 54e3 7a3e 0f5b f13d
00000380: c87c 53bd 6236 553e d6d8 a8bd 5d9d 4abe
00000390: b7ab 96bd dadc 71be fb60 693e 0204 f3bd
000003a0: ae43 c63c 847c 83bd 354f 633e 05a8 033e
000003b0: d792 c2bd b93f 943e 1b77 32be 6f8a d63d
000003c0: 5216 413e 90d5 6a3b 7667 0fbe 3482 16be
000003d0: 89b1 233e c787 103d 7251 0b3d 1d2c 4ebe
000003e0: cf1b 343e b6b4 aebd 118b 5f3e 0395 f33d
000003f0: 0fe9 e9bd 89de d6bd 3cbf 04be ea87 a3b9

critic.2.bias f4 [64]
-0.055729266 -0.044279587 0.06322791 -0.09550641 -0.0852257 -0.049390502 0.054653864 -0.071849026
-0.06882371 -0.10649237 -0.057710152 -0.04020265 -0.05554887 -0.07607199 -0.06344062 0.03337774
-0.06380615 -0.057579413 -0.064080596 0.047616657 -0.054658048 0.04875223 -0.06541995 0.0032358926
-0.05217059 0.06085866 0.04699836 0.043145753 0.05894109 -0.0682172 0.0411439 -0.064008705
-0.05229857 0.055554572 0.0642037 -0.065456636 0.050997913 0.04534372 -0.03902552 -0.058247853
-0.11873675 -0.05376827 0.061378628 -0.05058673 0.087648176 0.09058972 0.04271612 -0.061801612
0.08241915 0.017700683 0.057545308 0.054130822 0.06656109 0.06749062 -0.058210593 0.04333754
0.05199902 -0.045410067 0.06729954 0.050380476 -0.052515868 0.069640435 0.048613984 0.04780562
00000000: 5f44 64bd 835e 35bd a27d 813d dd98 c3bd
00000010: d08a aebd b24d 4abd bbdc 5f3d 9525 93bd
00000020: 72f3 8cbd ac18 dabd 7b61 6cbd 89ab 24bd
00000030: 3687 63bd a2cb 9bbd 28ed 81bd 19b7 083d
00000040: ccac 82bd 64d8 6bbd b03c 83bd af09 433d
00000050: 1ee1 5fbd 6bb0 473d e5fa 85bd 4511 543b
00000060: d4b0 55bd ee46 793d 5a81 403d 9ab9 303d
00000070: 366c 713d 76b5 8bbd 8286 283d ff16 83bd
00000080: 0637 56bd 318d 633d 3b7d 833d 210e 86bd
00000090: 30e3 503d 56ba 393d 39d9 1fbd 4d95 6ebd
000000a0: 412c f3bd 1e3c 5cbd 2868 7b3d 0834 4fbd
000000b0: e380 b33d 1a87 b93d 19f7 2e3d b023 7dbd
000000c0: 5fcb a83d 0601 913c a1b4 6b3d 48b8 5d3d
000000d0: 2e51 883d 8638 8a3d 3b6e 6ebd b482 313d
000000e0: edfc 543d e8ff 39bd 57d4 893d c25b 4e3d
000000f0: e11a 57bd a59f 8e3d 751f 473d d3cf 433d

critic.4.weight f4 [1, 64]
0.1386196 0.15977192 -0.13268647 0.08740064 0.098382644 0.31604257 -0.07766077 0.08992027
0.10497415 0.07109392 0.24831088 0.0755113 0.06296527 0.15582146 0.21986152 -0.08048465
0.13192941 0.20378786 0.12830217 -0.06411219 0.22809403 -0.020606266 0.10230088 -0.042341772
0.035052963 -0.277827 -0.17924136 -0.3463353 -0.15393177 0.20747472 -0.20276488 0.15546803
0.29923338 -0.09414211 -0.11907278 0.21126638 -0.21818039 -0.2967389 0.16620414 0.22669584
0.07330745 0.2833105 -0.15164922 0.18121172 -0.08491044 -0.086504325 -0.27174303 0.15877365
-0.08947015 0.04621701 -0.1627913 -0.29652658 -0.13328533 -0.08105224 0.18910058 -0.33579826
-0.18299925 0.14884976 -0.06687909 -0.1994574 0.19575721 0.05073478 -0.33856136 -0.4583762
00000000: 4cf2 0d3e 409b 233e f6de 07be 1bff b23d
00000010: d77c c93d 55d0 a13e 9c0c 9fbd 1e28 b83d
00000020: b0fc d63d b099 913d 3545 7e3e aba5 9a3d
00000030: eff3 803d a98f 1f3e 6123 613e 23d5 a4bd
00000040: 8118 073e c4ad 503e a561 033e 404d 83bd
00000050: 7b91 693e 79ce a8bc 2083 d13d 916e 2dbd
00000060: b293 0f3d 573f 8ebe 0c8b 37be dc52 b1be
00000070: 4aa0 1dbe 4174 543e 99a1 4fbe 0333 1f3e
00000080: 1e35 993e 94cd c0bd 6edc f3bd 3756 583e
00000090: ae6a 5fbe 29ee 97be 6b31 2a3e f422 683e
000000a0: 3722 963d 130e 913e ef49 1bbe 918f 393e
000000b0: 86e5 adbd 2e29 b1bd e721 8bbe 8f95 223e
000000c0: 203c b7bd 0c4e 3d3d c3b2 26be 55d2 97be
000000d0: f37b 08be b8fe a5bd 95a3 413e c0ed abbe
000000e0: 2864 3bbe 126c 183e e8f7 88bd 903e 4cbe
000000f0: 9474 483e 46cf 4f3d ea57 adbe 49b0 eabe

actor.0.weight f4 [64, 8]
-0.05620037 0.029720426 0.21436329 -0.0663596 -0.47660014 -0.073888175 0.067473635 0.2333393
-0.2394387 0.091739364 -0.060625713 0.44052744 0.10334603 -0.12615575 -0.08248721 0.15586302
-0.0020751061 -0.28408253 -0.045539647 -0.4189574 0.20203058 -0.09052933 -0.35913694 -0.29792273
-0.08279547 -0.030209128 -0.19913839 -0.022260422 0.2747279 -0.17571782 -0.19152023 -0.26748246
0.123214155 -0.052414898 -0.10579073 -0.09542546 0.11431359 0.0738648 0.18691875 -0.32530752
-0.10350247 -0.26598763 0.061601155 0.23767371 -0.22938532 0.09172536 0.058286294 0.1049317
-0.35825267 0.008376682 -0.062335253 -0.019474933 -0.15335442 0.045038756 0.13045746 -0.34917924
-0.11435689 -0.22642715 0.23981273 0.32619113 -0.5205077 -0.40908304 0.10340555 0.18160914
-0.21999085 0.15876412 -0.47669762 -0.2832482 0.25792375 0.25424096 -0.54822344 0.0659919
-0.11686199 0.039063334 -0.020423872 0.15771468 -0.119324625 -0.22149038 -0.09638632 0.18140817
-0.067804 0.08111183 0.013336447 -0.06270394 -0.27851918 0.09875884 0.26640746 0.18495105
0.027320608 -0.08575764 0.018675314 0.020265168 -0.34377268 -0.18786114 0.12124541 -0.15506898
-0.20773116 -0.11431225 -0.23780091 -0.17488755 0.15954761 0.28060898 -0.03359567 -0.15338588
-0.3488838 0.34097108 0.059262168 -0.023508262 0.0035286434 -0.081341155 0.26096746 0.035567287
-0.13282387 -0.18999928 0.38803148 -0.33357635 -0.17527342 0.020410547 0.015050944 0.044982452
-0.18624881 0.105378985 0.060213573 -0.12428841 -0.15731779 -0.019797625 -0.09258788 0.10752038
-0.28929818 -0.06825753 0.15012492 0.36925936 -0.13856113 -0.28146446 0.017278276 0.10819852
0.18408208 0.11778743 -0.1417106 -0.15450932 -0.033570167 -0.031999305 0.16299431 -0.19099417
0.043422904 0.083007514 -0.29305494 0.09013558 0.19167899 0.06395996 0.039702844 0.0057242136
0.15108417 -0.018940747 0.2111466 -0.042938508 -0.41491663 -0.25231415 -0.30082273 -0.118743874
-0.04339304 -0.17994739 -0.19753675 -0.027964126 -0.06186324 0.14051619 0.063788764 0.17848437
0.10600878 0.024378827 0.0874888 0.11248322 -0.2994256 -0.28761977 0.03755702 0.100178815
0.028499492 0.15705957 -0.16291305 0.47753105 0.32490322 0.22080512 0.10898161 -0.02263636
0.28724757 0.18832321 0.19177327 -0.28047106 0.38033393 0.14199363 -0.26539972 -0.05088259
-0.30461103 0.016552813 -0.088521756 0.13509575 -0.12344145 -0.22992596 0.04292211 0.081903815
-0.038776834 0.08807486 -0.1125812 -0.30909672 -0.0389551 0.22881575 -0.19157565 0.030768631
0.081861146 0.0145563865 0.54306066 0.10120469 -0.15233627 0.03171933 -0.21329372 0.2791477
0.107291885 -0.17031555 -0.07517217 -0.2738912 0.33794525 0.37410074 0.070556864 0.07790075
0.014173014 -0.25367084 -0.06935787 -0.09974753 0.42201963 -0.07618192 -0.16023403 -0.05112546
0.11880304 -0.05722543 0.017963096 -0.61409503 -0.101745285 -0.519316 -0.09928906 -0.09621714
-0.08573684 -0.03779437 -0.040033754 0.387582 0.3228823 0.09681168 -0.0047773723 -0.047789175
0.11231623 -0.02303057 -0.033853438 0.2215299 0.14077531 -0.036540892 -0.024195658 -0.23516761
00000000: 5c32 66bd 4078 f33c 0d82 5b3e 8be7 87bd
00000010: ef04 f4be af52 97bd 9e2f 8a3d 7ff0 6e3e
00000020: 6b2f 75be d9e1 bb3d ab52 78bd d08c e13e
00000030: 15a7 d33d f92e 01be 0eef a8bd 8e9a 1f3e
00000040: 81fe 07bb 4473 91be c887 3abd 9681 d6be
00000050: 1be1 4e3e 7167 b9bd cce0 b7be 5489 98be
00000060: ac90 a9bd 2279 f7bc efea 4bbe 7d5b b6bc
00000070: 23a9 8c3e 5fef 33be e11d 44be 76f3 88be
00000080: b457 fc3d 01b1 56bd cfa8 d8bd 6c6e c3bd
00000090: 3e1d ea3d 6e46 973d a167 3f3e b58e a6be
000000a0: 1af9 d3bd 882f 88be 7e51 7c3d bd60 733e
000000b0: fce3 6abe 81da bb3d 9cbd 6e3d 6ee6 d63d
000000c0: e56c b7be 5a3e 093c 4053 7fbd e589 9fbc
000000d0: f108 1dbe 8f7a 383d a496 053e 9fc7 b2be
000000e0: f233 eabd 85dc 67be 7891 753e 8602 a73e
000000f0: fe3f 05bf 5573 d1be 4ac6 d33d bff7 393e
00000100: 4845 61be 1093 223e b611 f4be e805 91be
00000110: 950e 843e df2b 823e 5f58 0cbf c326 873d
00000120: 5755 efbd e000 203d f74f a7bc f57f 213e
00000130: 7860 f4bd 60ce 62be 3166 c5bd 10c3 393e
00000140: d3dc 8abd f61d a63d 1d81 5a3c ec6a 80bd
00000150: 119a 8ebe 1342 ca3d 8f66 883e cf63 3d3e
00000160: 78cf df3c b4a1 afbd f9fc 983c 2303 a63c
00000170: f902 b0be ac5e 40be 834f f83d 67ca 1ebe
00000180: 7ab7 54be 8a1c eabd 1582 73be b915 33be
00000190: 7360 233e fbab 8f3e 9d9b 09bd 3011 1dbe
000001a0: e6a0 b2be c393 ae3e e3bc 723d 6694 c0bc
000001b0: d040 673b 3196 a6bd 879d 853e 01af 113d
000001c0: fb02 08be 2c8f 42be 10ac c63e 85ca aabe
000001d0: e07a 33be 0534 a73c 3c98 763c 853f 383d
000001e0: 02b8 3ebe f0d0 d73d 82a2 763d ec8a febd
000001f0: ea17 21be a12e a2bc b79e bdbd a533 dc3d
00000200: e41e 94be 9bca 8bbd 59ba 193e 900f bd3e
00000210: f8e2 0dbe 1c1c 90be 2c8b 8d3c 3097 dd3d
00000220: 0380 3c3e 893a f13d 951c 11be b137 1ebe
00000230: df80 09bd b411 03bd fbe7 263e fa93 43be
00000240: 37dc 313d d8ff a93d 4c0b 96be 0199 b83d
00000250: 7f47 443e 71fd 823d 739f 223d 2f92 bb3b
00000260: cfb5 1a3e a029 9bbc d036 583e 4ae0 2fbd
00000270: f46f d4be 522f 81be 7005 9abe fd2f f3bd
00000280: e6bc 31bd 2144 38be 1347 4abe 0615 e5bc
00000290: 4f64 7dbd 7ae3 0f3e afa3 823d 9bc4 363e
000002a0: 221b d93d 1bb6 c73c 542d b33d 9a5d e63d
000002b0: 504e 99be e642 93be 64d5 193d 8d2a cd3d
000002c0: c477 e93c 39d4 203e aed2 26be f37e f43e
000002d0: b759 a63e bd1a 623e c031 df3d e36f b9bc
000002e0: 1d12 933e cdd7 403e 3660 443e e799 8fbe
000002f0: 21bb c23e c766 113e 79e2 87be 436a 50bd
00000300: faf5 9bbe c499 873c e54a b5bd 8a56 0a3e
00000310: dfce fcbd b671 6bbe 18cf 2f3d 30bd a73d
00000320: 75d4 1ebd 9860 b43d f990 e6bd ed41 9ebe
00000330: 628f 1fbd ad4e 6a3e 682c 44be 7f0e fc3c
00000340: d1a6 a73d e97d 6e3c 0606 0b3f 6844 cf3d
00000350: 0afe 1bbe 21ec 013d ab69 5abe 73ec 8e3e
00000360: d9bb db3d 3367 2ebe def3 99bd 783b 8cbe
00000370: 2907 ad3e 228a bf3e 1e80 903d 6e8a 9f3d
00000380: ee35 683c 25e1 81be 800b 8ebd 6f48 ccbd
00000390: f512 d83e 4405 9cbd 6414 24be ee68 51bd
000003a0: 024f f33d 3665 6abd 5827 933c 5535 1dbf
000003b0: d55f d0bd e5f1 04bf 1058 cbbd 7e0d c5bd
000003c0: cc96 afbd 45ce 1abd 6ffa 23bd 2671 c63e
000003d0: d450 a53e 3445 c63d 818b 9cbb 95be 43bd
000003e0: 0d06 e63d 9baa bcbc e7a9 0abd bcd8 623e
000003f0: 6727 103e e7ab 15bd f935 c6bc c7cf 70be

actor.0.bias f4 [64]
-0.0046711913 -0.010529434 0.06993831 0.0072813174 0.013729512 -0.02623747 0.004765474 0.012481629
-0.01464421 0.041136544 -0.03252097 0.010459388 0.01648195 0.030790428 0.046392057 -0.021245332
-0.018734321 -0.0038080749 0.008704242 0.011312373 -0.0042524133 -0.025823442 -0.05714336 0.022200128
0.0029156993 0.043285746 -0.012174325 0.03967786 0.04393452 0.029720157 -0.04282799 -0.007219212
0.017565414 0.012273198 0.011512883 -0.015024733 0.02447655 0.056728132 -0.0027224892 -0.028094193
-0.046119932 0.034453314 0.006518304 -0.030255636 0.000558468 -0.03940465 -0.016262222 -0.009243324
0.040582504 -0.026868077 -0.023903273 -0.034786593 0.029819023 0.03336684 0.0040120105 -0.03310061
-0.037458815 -0.0015309079 -0.03441965 -0.03990115 0.037203487 -0.014303068 0.05116341 -0.06851402
00000000: cb10 99bb a683 2cbc d13b 8f3d 1e98 ee3b
00000010: bff1 603c f6ef d6bc b127 9c3b bf7f 4c3c
00000020: 45ee 6fbc cb7e 283d b534 05bd da5d 2b3c
00000030: 2805 873c 353c fc3c 9905 3e3d b10a aebc
00000040: b878 99bc e590 79bb 3d9c 0e3c 8857 393c
00000050: d457 8bbb af8b d3bc 280f 6abd 0bdd b53c
00000060: 5115 3f3b 654c 313d d276 47bc 4085 223d
00000070: aff4 333d b077 f33c 676c 2fbd 248f ecbb
00000080: 58e5 8f3c 8615 493c 88a0 3c3c 4c2a 76bc
00000090: 0c83 c83c c25b 683d ca6b 32bb cb25 e6bc
000000a0: 41e8 3cbd eb1e 0d3d 7f97 d53b abda f7bc
000000b0: 2766 123a c566 21bd 5a38 85bc 5071 17bc
000000c0: d739 263d 711a dcbc ccd0 c3bc 637c 0ebd
000000d0: 0647 f43c abab 083d 2f77 833b 8194 07bd
000000e0: 6a6e 19bd bfa8 c8ba 9efb 0cbd 636f 23bd
000000f0: af62 183d 6a57 6abc b990 513d 1451 8cbd

actor.2.weight f4 [64, 64]
0.19153644 0.025783183 0.22959857 -0.35622624 0.13825539 0.11051841 -0.2506959 0.08059884
0.116274536 -0.29127234 0.13306701 0.10142615 0.053332686 0.096384495 -0.10002393 0.15133871
0.16914864 0.29017693 0.10886699 0.3053339 -0.098190166 0.05483836 0.011645552 0.021397863
0.08658813 -0.00071291806 0.12722144 0.22114006 -0.11306047 0.34781197 -0.2671207 -0.45669085
0.104410306 0.14822546 0.13066004 0.25929293 0.043909885 0.060175855 0.27123836 0.044246126
0.4988802 -0.11160534 -0.1459748 0.15449114 0.18350354 0.14755307 0.0016625427 0.050430976
0.030016067 -0.01657823 0.0029023888 -0.0252524 -0.028632484 0.21618773 0.18772568 -0.06754187
0.1375212 0.25739777 0.026855826 0.14546074 0.18017407 -0.49780145 0.32736093 -0.26285344
-0.04276873 -0.16325948 0.19749416 0.30147585 0.16874875 -0.12371096 0.019358924 -0.38435832
-0.02119459 0.1364891 -0.12317407 -0.161059 0.172174 -0.065763555 -0.33460936 0.28405774
-0.30705944 -0.14053403 0.34896842 0.11212795 0.07674926 0.0024837488 -0.106534705 0.13736668
-0.22707833 0.22481294 0.102591336 0.014757245 -0.024866367 0.23764892 -0.028714608 0.047661595
-0.21306075 -0.22024298 -0.002863678 0.2732997 -0.3377351 0.2232371 0.11520596 -0.21130493
-0.08110744 -0.10937218 0.40515384 -0.15660968 -0.44519004 0.006777351 0.19253133 -0.07329569
-0.035172738 -0.32256895 0.049956672 0.245889 0.079885654 0.0008197776 -0.114355884 -0.060722973
0.1841198 0.26081952 0.028344505 -0.16016245 -0.09535315 0.23749413 0.29528278 0.25660902
-0.10048881 0.07466646 0.047873974 0.26385048 -0.07896715 0.016665589 -0.21253346 -0.050846916
0.45021158 -0.01637174 0.14566204 -0.30577078 0.36205095 -0.07629023 0.027914034 0.004019625
0.07432465 0.15345336 -0.04836018 0.09904042 -0.045801677 0.081410185 -0.13661364 0.18724123
0.08214196 0.19782431 -0.1981335 -0.01545839 0.030331807 0.15992379 -0.13653837 -0.17240371
0.0877838 -0.21546505 0.31109092 -0.06495779 0.09208401 0.22003701 -0.35972968 -0.011458486
-0.04477054 0.30839816 0.09055224 -0.20892435 0.058602784 -0.032123163 0.08930242 -0.015629712
0.14241949 -0.42235452 0.037547685 -0.30289963 0.04785679 -0.36000323 -0.4161925 -0.13432522
0.24272184 -0.324451 0.2050001 0.08028455 0.2552882 0.07886983 0.14307904 0.18410073
-0.194713 -0.0707676 -0.30316678 -0.1398727 -0.09083282 0.19134869 -0.29442057 0.25677466
-0.34942457 -0.060980756 -0.082856655 0.27276462 -0.17616028 -0.37050238 -0.023369178 0.3666782
0.32160535 0.1940692 -0.2152793 0.05742178 -0.08050233 0.3045472 -0.060874104 0.16910145
-0.013284508 -0.42246997 0.16898853 0.05691965 -0.50514 0.008432851 -0.04192097 -0.07250895
-0.09682811 -0.036569916 -0.06933769 -0.038265392 0.035775494 0.051410627 0.0057190596 -0.18002142
-0.05822046 -0.07049517 -0.2371578 -0.21759129 0.013126761 0.21223219 0.022932496 0.2035937
-0.077996746 0.17093153 0.18787204 -0.05633486 -0.06150273 0.089118525 -0.12582147 0.056809813
-0.10189 -0.052567024 -0.33567312 0.11492969 -0.16852589 0.2971444 0.020783821 0.23976022
00000000: 2122 443e 4137 d33c e31b 6b3e 4963 b6be
00000010: d292 0d3e 7a57 e23d 375b 80be 0111 a53d
00000020: 5821 ee3d a621 95be b842 083e 83b8 cf3d
00000030: 6073 5a3d 3c65 c53d 59d9 ccbd 89f8 1a3e
00000040: 4d35 2d3e 1292 943e a8f5 de3d ba54 9c3e
00000050: ed17 c9bd 309e 603d fccc 3e3c 924a af3c
00000060: 1e55 b13d 1fe3 3aba 5646 023e 8a72 623e
00000070: 3f8c e7bd 6914 b23e 0bc4 88be 62d3 e9be
00000080: 12d5 d53d 6ac8 173e bfcb 053e 0bc2 843e
00000090: dada 333d f57a 763d c1df 8a3e 6d3b 353d
000000a0: 3a6d ff3e 5791 e4bd 6b7a 15be ed32 1e3e
000000b0: 5ae8 3b3e 2718 173e ade9 d93a b690 4e3d
000000c0: 41e4 f53c 11cf 87bc 0136 3e3b 1fde cebc
000000d0: ac8e eabc 5160 5d3e 293b 403e 6453 8abd
000000e0: 5cd2 0c3e a4c9 833e c000 dc3c a9f3 143e
000000f0: 8d7f 383e d5df febe da9b a73e ba94 86be
00000100: 442e 2fbd 7e2d 27be e93b 4a3e 0b5b 9a3e
00000110: 79cc 2c3e 2c5c fdbd 9b96 9e3c 9dca c4be
00000120: 47a0 adbc ccc3 0b3e b042 fcbd a7ec 24be
00000130: 624e 303e 0baf 86bd eb51 abbe 0470 913e
00000140: e536 9dbe 27e8 0fbe fdab b23e 57a3 e53d
00000150: b72e 9d3d 64c6 223b de2e dabd daa9 0c3e
00000160: 3987 68be 5d35 663e 681b d23d 5fc8 713c
00000170: 8db4 cbbc 3d5a 733e e63a ebbc ce38 433d
00000180: 992c 5abe 6087 61be 8bac 3bbb f0ed 8b3e
00000190: 9deb acbe 4498 643e 1af1 eb3d 5260 58be
000001a0: a81b a6bd 86fe dfbd 5370 cf3e 4a5e 20be
000001b0: f3ef e3be 8a14 de3b ef26 453e 0d1c 96bd
000001c0: 4a11 10bd c227 a5be 5e9f 4c3d 53ca 7b3e
000001d0: 179b a33d 58e6 563a 6b33 eabd a7b8 78bd
000001e0: e789 3c3e 238a 853e bc32 e83c a001 24be
000001f0: 8348 c3bd a931 733e 4e2f 973e 4262 833e
00000200: 14cd cdbd bbea 983d 8017 443d 6917 873e
00000210: 87b9 a1bd 4686 883c 5fa2 59be db44 50bd
00000220: 2282 e63e 071e 86bc 6e28 153e fd8d 9cbe
00000230: be5e b93e 0d3e 9cbd f9ab e43c 0fb7 833b
00000240: 8637 983d e122 1d3e 5315 46bd b4d5 ca3d
00000250: 8a9a 3bbd 62ba a63d 72e4 0bbe 2abc 3f3e
00000260: 0b3a a83d 7592 4a3e 82e3 4abe 3045 7dbc
00000270: 697a f83c 10c3 233e b7d0 0bbe 998a 30be
00000280: fec7 b33d dfa2 5cbe 4f47 9f3e 9708 85bd
00000290: 8b96 bc3d 6251 613e 7d2e b8be 60bc 3bbc
000002a0: 5061 37bd 5de6 9d3e 7473 b93d 44f0 55be
000002b0: 7909 703d 9493 03bd 30e4 b63d e209 80bc
000002c0: 6ad6 113e da3e d8be 9acb 193d a915 9bbe
000002d0: 7b05 443d 5852 b8be 2f17 d5be 8d8c 09be
000002e0: 138c 783e 711e a6be 8ceb 513e 3a6c a43d
000002f0: 23b5 823e 8186 a13d 5083 123e e784 3c3e
00000300: d862 47be 9aee 90bd ad38 9bbe ca3a 0fbe
00000310: 8f06 babd e9f0 433e 4bbe 96be f877 833e
00000320: c7e7 b2be f5c6 79bd c0b0 a9bd cea7 8b3e
00000330: 5c63 34be 7db2 bdbe b870 bfbc 3fbd bb3e
00000340: 75a9 a43e 14ba 463e 2d72 5cbe 1a33 6b3d
00000350: 68de a4bd 9ced 9b3e 2057 79bd ee28 2d3e
00000360: 44a7 59bc fc4d d8be 540b 2d3e 9424 693d
00000370: db50 01bf f129 0a3c 53b5 2bbd 937f 94bd
00000380: d14d c6bd 56ca 15bd eb00 8ebd 2cbc 1cbd
00000390: 5389 123d f393 523d f366 bb3b 8957 38be
000003a0: 9478 6ebd c65f 90bd 7fd9 72be 40d0 5ebe
000003b0: a011 573c 6553 593e eedc bb3c de7a 503e
000003c0: c2bc 9fbd ad08 2f3e 8761 403e 62bf 66bd
000003d0: 49ea 7bbd c683 b63d 58d7 00be 68b1 683d
000003e0: b4ab d0bd 8550 57bd 59dd abbe 4260 eb3d
000003f0: 0d92 2cbe 5023 983e d542 aa3c b483 753e

actor.2.bias f4 [64]
0.010285177 0.026206682 0.04117047 -0.05729869 0.03837424 0.046756066 -0.023922466 -0.03536849
-0.018892046 0.028089471 -0.009448134 -0.00085507205 -0.022048937 0.024667269 0.03978799 -0.0269014
0.02780926 0.023422576 0.022149326 -0.008079309 3.188441e-05 -0.03891338 0.03704705 -0.00073328055
0.016725492 -0.021341648 -0.036403283 -0.024570826 0.03838786 0.018397737 0.03042554 0.013667062
0.037090752 0.0423714 0.012336498 0.051305465 -0.046489123 -0.029602528 -0.030731192 -0.0042355857
-0.014856083 0.029397186 -0.033969548 0.010354919 0.019269181 0.020117275 -0.00599734 -0.04119194
-0.03846515 -0.030762631 0.0439182 -0.022964468 0.03422849 0.0029786846 0.029563118 -0.033967473
0.0060777487 0.0041015716 -0.040446017 -0.04596011 -0.028769339 0.015792724 -0.021659575 -0.054442897
00000000: 2983 283c 65af d63c 5ea2 283d 08b2 6abd
00000010: 4f2e 1d3d 4a83 3f3d 0cf9 c3bc 8dde 10bd
00000020: 7ec3 9abc e41b e63c 59cc 1abc ea26 60ba
00000030: f99f b4bc 0313 ca3c bbf8 223d 5360 dcbc
00000040: 3fd0 e33c b4e0 bf3c 8172 b53c 145f 04bc
00000050: a0bb 0538 a363 1fbd a6be 173d a039 40ba
00000060: e603 893c aed4 aebc 9c1b 15bd c248 c9bc
00000070: 973c 1d3d dab6 963c fb3e f93c d0eb 5f3c
00000080: 79ec 173d a28d 2d3d 061f 4a3c ae25 523d
00000090: 616b 3ebd 0081 f2bc fbbf fbbc abca 8abb
000000a0: ee66 73bc 5ed2 f03c a723 0bbd aea7 293c
000000b0: 67da 9d3c fccc a43c 5685 c4bb e1b8 28bd
000000c0: a28d 1dbd ea01 fcbc 92e3 333d fb1f bcbc
000000d0: 2c33 0c3d 0936 433b 5a2e f23c 7a21 0bbd
000000e0: da27 c73b 7a66 863b b9aa 25bd ab40 3cbd
000000f0: adad ebbc be5f 813c 6c6f b1bc 84ff 5ebd

actor.4.weight f4 [4, 64]
-0.071267545 -0.028666522 -0.07942471 0.07470887 -0.10780613 -0.09367911 0.07064001 0.09317512
0.045628224 -0.08825407 -0.0071317633 0.025673054 0.0765498 -0.07524219 -0.10115422 0.0618329
-0.0146360295 -0.09267919 0.029801685 0.0011543962 0.020134863 0.09036129 -0.092869416 -0.010466933
-0.056462657 0.06954002 0.082776405 0.07100597 -0.08865454 -0.07913636 -0.06571475 -0.03319453
-0.097717494 -0.06650831 -0.06377894 -0.091601625 0.07799776 0.070970885 0.03381411 -0.019257357
0.018034475 -0.012609385 0.087815456 -0.06717359 -0.033087343 -0.088913344 0.03877375 0.10059845
0.07428038 0.044454183 -0.07940588 0.08297915 -0.08407643 0.030690672 -0.06865586 0.07444667
0.07079497 -0.08117684 0.078327484 0.0625375 0.09520067 -0.021528114 -0.013040659 0.09931415
0.084295906 -0.15142736 -0.080828056 0.087698825 -0.06542169 -0.029742096 -0.07739706 -0.022549173
-0.07778558 0.023194399 -0.09691316 -0.09076499 0.12249691 -0.13079353 -0.084324926 0.078600205
0.07777887 -0.05271088 0.10194257 -0.092983775 -0.11686319 -0.051563013 -0.026363695 -0.13322708
-0.045026276 0.14444745 -0.060781904 0.10702028 0.049671005 0.04818527 0.04703567 0.09011958
-0.072878525 -0.11176514 0.072289094 0.057776902 -0.06197043 0.083779834 0.10126872 -0.07597556
0.08139195 0.079506 0.083111316 -0.13410613 -0.1123484 -0.104376525 0.09894446 0.11742103
-0.025286043 0.1182814 -0.024925476 -0.079989664 -0.04495984 0.099629566 0.06742868 0.06364777
-0.039941307 0.04435084 0.117519304 -0.007912346 0.020942427 -0.08395944 -0.107400075 0.025047697
0.10703755 0.063605845 0.111432254 -0.12524146 0.12758383 0.08946344 -0.108510636 -0.13582537
-0.09196724 0.10464236 -0.00834801 -0.01803588 -0.10354207 0.101125546 0.12073823 -0.11297974
0.05267774 0.10993906 -0.021545308 -0.029388323 -0.05764495 -0.12548193 0.09473833 0.012238247
0.002396622 -0.10593233 -0.13402925 -0.113520496 0.12747553 0.10277416 0.11311551 0.07068531
0.11259354 0.11989754 0.073684365 0.14238063 -0.09807677 -0.099606186 -0.053767566 0.022521067
-0.044466253 0.04739811 -0.090873405 0.09132498 0.076520756 0.117129005 -0.06282955 -0.13211353
-0.1310002 -0.09270499 0.13429938 -0.12152776 0.07459402 -0.035853673 0.1103038 -0.10962588
-0.08952008 0.10420348 -0.13228124 -0.08801592 -0.12730028 0.04683931 -0.015345921 -0.089207515
-0.10272003 0.13887134 0.053088613 -0.04607132 -0.06882799 -0.025130862 0.10315316 0.113126405
0.10771876 -0.08333476 0.10140115 0.09100234 -0.10557333 0.112031356 0.023568854 -0.030006064
-0.09448244 -0.045341913 -0.10751106 0.10593072 0.12799765 0.10728724 -0.046631306 0.12815374
0.093097754 -0.12940459 0.11754433 -0.08320107 -0.118117206 -0.1084419 -0.075606175 -0.09747599
-0.03353264 0.08450464 -0.07828039 -0.12544456 0.09132621 -0.045698334 -0.08981937 0.07861149
-0.069873415 -0.08925195 -0.020984976 0.11035715 0.096216224 0.009852743 -0.09308514 -0.069466576
0.12771714 -0.0867947 -0.089098714 0.11193956 0.040670656 -0.09809135 -0.09656471 -0.026334018
0.08167875 -0.088547006 -0.060975473 0.046945013 0.113930926 0.077685125 0.11704936 0.019769939
00000000: b8f4 91bd 0ed6 eabc 6ca9 a2bd f700 993d
00000010: 76c9 dcbd d5da bfbd b6ab 903d 99d2 be3d
00000020: a9e4 3a3d 8dbe b4bd 91b1 e9bb 4c50 d23c
00000030: 24c6 9c3d 9418 9abd f229 cfbd 7f44 7d3d
00000040: f5cb 6fbc 96ce bdbd aa22 f43c 1c4f 973a
00000050: def1 a43c 570f b93d 5232 bebd 807d 2bbc
00000060: 6345 67bd ff6a 8e3d ad86 a93d 946b 913d
00000070: 8390 b5bd 3e12 a2bd 7495 86bd fdf6 07bd
00000080: 1c20 c8bd 8235 88bd 889e 82bd a299 bbbd
00000090: 4abd 9f3d 2f59 913d aa80 0a3d 9bc1 9dbc
000000a0: 09bd 933c 9897 4ebc 97d8 b33d 4f92 89bd
000000b0: 9886 07bd 3318 b6bd 39d1 1e3d 8f06 ce3d
000000c0: 5020 983d 9715 363d 8d9f a2bd f9f0 a93d
000000d0: 4330 acbd 016b fb3c 729b 8cbd 7f77 983d
000000e0: f4fc 903d 0b40 a6bd 296a a03d a913 803d
000000f0: 92f8 c23d ba5b b0bc 7da8 55bc 3865 cb3d
00000100: 55a3 ac3d c60f 1bbe 2e89 a5bd 719b b33d
00000110: cffb 85bd b2a5 f3bc 5a82 9ebd 0bb9 b8bc
00000120: 0c4e 9fbd 2e02 be3c 687a c6bd ffe2 b9bd
00000130: a9df fa3d bdee 05be 8cb2 acbd 25f9 a03d
00000140: 874a 9f3d 5de7 57bd 44c7 d03d 476e bebd
00000150: f855 efbd bd33 53bd adf8 d7bc ae6c 08be
00000160: 796d 38bd 08ea 133e 72f6 78bd 732d db3d
00000170: d373 4b3d eb5d 453d 7aa8 403d 9d90 b83d
00000180: 5641 95bd 1fe5 e4bd 4e0c 943d 79a7 6c3d
00000190: b5d4 7dbd c394 ab3d fa65 cf3d 1399 9bbd
000001a0: d3b0 a63d 0bd4 a23d 4436 aa3d 1e53 09be
000001b0: eb16 e6bd 5cc3 d5bd 65a3 ca3d 707a f03d
000001c0: ad24 cfbc 853d f23d 8330 ccbc 9fd1 a3bd
000001d0: cf27 38bd 960a cc3d 0c18 8a3d c359 823d
000001e0: 7f99 23bd 3aa9 353d f6ad f03d c9a2 01bc
000001f0: 748f ab3c edf2 abbd 92f4 dbbd d430 cd3c
00000200: 8136 db3d c843 823d 9836 e43d 4c3f 00be
00000210: 56a5 023e 9c38 b73d d33a debd ce15 0bbe
00000220: 5259 bcbd bc4e d63d 17c6 08bc fbbf 93bc
00000230: dd0d d4bd e91a cf3d 9b45 f73d ec61 e7bd
00000240: 9dc4 573d bb27 e13d c97f b0bc c8bf f0bc
00000250: 1c1d 6cbd 567e 00be 2b06 c23d ee82 483c
00000260: a510 1d3b 0df3 d8bd f73e 09be 6f7d e8bd
00000270: f288 023e 427b d23d 1ba9 e73d 76c3 903d
00000280: 7197 e63d d78c f53d d4e7 963d 3acc 113e
00000290: 79dc c8bd 54fe cbbd 613b 5cbd 1a7e b83c
000002a0: 3f22 36bd 8524 423d d61b babd 9708 bb3d
000002b0: eab6 9c3d 55e1 ef3d c7ac 80bd c548 07be
000002c0: eb24 06be 1ddc bdbd c785 093e 8ce3 f8bd
000002d0: c0c4 983d 4ddb 12bd f5e6 e13d 8983 e0bd
000002e0: 4e56 b7bd a268 d53d bc74 07be b141 b4bd
000002f0: 015b 02be 94da 3f3d 756d 7bbc 6eb2 b6bd
00000300: e15e d2bd 4a34 0e3e 7273 593d 48b5 3cbd
00000310: b0f5 8cbd 3ddf cdbc f741 d33d d1ae e73d
00000320: a79b dc3d 6aab aabd 68ab cf3d 6f5f ba3d
00000330: d436 d8bd b270 e53d 7813 c13c 47cf f5bc
00000340: 0280 c1bd 71b8 39bd c22e dcbd 35f2 d83d
00000350: d111 033e 6ab9 db3d 7800 3fbd bc3a 033e
00000360: 09aa be3d a382 04be 15bb f03d 5365 aabd
00000370: 6fe7 f1bd c916 debd 69d7 9abd 7ea1 c7bd
00000380: 8659 09bd c510 ad3d 7851 a0bd 8a74 00be
00000390: 3c09 bb3d 2d2e 3bbd 38f3 b7bd 10ff a03d
000003a0: cb19 8fbd bac9 b6bd afe8 abbc ee02 e23d
000003b0: 030d c53d 666d 213c 6ca3 bebd 7e44 8ebd
000003c0: 48c8 023e 6bc1 b1bd 6379 b6bd 9140 e53d
000003d0: 4696 263d 1ee4 c8bd b8c3 c5bd 70ba d7bc
000003e0: 3047 a73d 2258 b5bd 6bc1 79bd 6a49 403d
000003f0: 9e54 e93d 6119 9f3d 93b7 ef3d 91f4 a13c

actor.4.bias f4 [4]
-0.06659527 -0.004301605 0.04805117 -0.0089170085
00000000: 1a63 88bd 7af4 8cbb 4ed1 443d a518 12bc
