HFDRL_UNIT8/models/Archived/LunarLander-v3__ppo__1__1768735566.pt (torch, 44645 bytes, 11 tensors)

critic.0.weight f4 [64, 8]
-0.11501654 0.17423236 0.021286057 -0.14693168 -0.099279724 0.1514755 -0.3864611 0.065660484
-0.11455044 0.29061887 0.25119257 -0.1309557 -0.16008049 -0.18750963 0.12513003 -0.11000504
0.010768605 -0.309117 0.10783598 0.23605743 0.027445534 0.13023655 0.29753032 0.62012076
-0.16926071 0.20825343 0.005187702 -0.65430164 0.2619145 0.012578384 -0.40362418 -0.27647638
0.044238847 -0.037838835 0.38960198 -0.22917338 0.06972606 -0.17493059 -0.07035914 -0.43899113
0.029730918 -0.34397903 0.00027787912 -0.018595414 -0.020677319 0.2749812 -0.036483325 -0.016185105
-0.3299898 -0.2752195 0.057559386 0.122929916 -0.012158258 -0.28172356 0.49683225 0.23672272
-0.036582593 0.5417244 0.23227853 0.2587248 -0.029416952 0.107598715 0.2939117 0.39521018
0.12832984 0.020499552 0.41939408 -0.36799487 0.44294977 -0.12040675 -0.12980345 -0.08970502
-0.015050772 0.15747695 0.3822458 -0.19016641 0.2053162 0.041988805 0.28604713 0.54942167
-0.10537532 -0.46140024 0.12683727 0.5402541 0.011634243 0.2783058 0.17522977 0.021716893
-0.05175215 0.4325338 -0.01626823 -0.09397071 -0.0662224 0.18550564 -0.38525322 -0.11029589
0.0490778 0.37702098 0.103699826 -0.13601696 -0.078420535 0.0047378205 -0.18255667 0.04761176
-0.052922145 -0.2542054 0.18599193 0.5096088 -0.00463464 0.033027068 -0.06664318 0.31870764
-0.098418266 -0.17400469 0.15436286 0.4198337 0.13778593 -0.010158504 0.18003237 0.19225511
-0.032973897 0.21858837 -0.21305868 -0.4164763 -0.034160104 0.17043133 -0.11124421 -0.24969542
0.16170259 0.15693069 0.029422227 -0.4249094 -0.1248303 -0.040083468 -0.16190858 0.16788319
-0.06757125 0.07383144 0.50112116 0.27175185 0.39488718 -0.26758966 0.0826341 0.21889201
-0.22195527 -0.07827009 0.22701567 0.05191214 -0.23460901 0.118902 0.004505238 -0.052488353
-0.044546016 0.34528995 -0.01845725 -0.26214573 0.020738833 0.17039964 -0.45016137 -0.29000902
0.15825403 0.092915155 0.14189212 -0.02261027 0.040042687 -0.08136732 -0.06698673 -0.0357374
0.13672432 0.12922697 -0.15368335 -0.41446713 -0.06724352 0.08116171 -0.30743477 -0.18274963
0.112731725 -0.012315441 -0.006903078 0.21594977 -0.20834143 -0.109566495 -0.11422276 -0.21628623
0.18914202 0.20143689 -0.11383452 -0.084208764 0.12665163 -0.118764885 -0.08667637 -0.3526206
-0.06792312 0.1708545 0.06682293 -0.27726433 0.020939704 -0.17442688 -0.700238 -0.25846598
-0.105721064 0.40133134 0.017091937 -0.13025199 0.023697538 -0.2490386 -0.0298242 -0.1858274
-0.07544306 -0.06720562 0.14036712 0.11008641 0.29346588 -0.15255563 0.14683257 0.18297508
-0.036875788 -0.22051129 -0.014825928 0.20200585 -0.2134432 0.1959574 0.24037573 0.3934777
0.21958096 0.12475741 -0.3154694 -0.18550676 -0.1544686 0.026809 -0.4618673 -0.19378895
0.15152611 0.4509212 -0.12763342 0.17561485 -0.18325244 0.048908982 -0.03964214 -0.489981
-0.23042195 -0.21837494 -0.13197158 0.17984383 0.27528793 -0.112753786 0.2252553 0.45768744
-0.14881037 0.47678298 0.096659064 -0.17245503 0.16289347 0.16945037 -0.25541294 -0.36499023
00000000: cb8d ebbd f869 323e 1960 ae3c 4275 16be
00000010: 2b53 cbbd 651c 1b3e 3bde c5be 0179 863d
00000020: 6c99 eabd ffcb 943e 509c 803e 4019 06be
00000030: 24ec 23be 8602 40be 1622 003e 534a e1bd
00000040: ce6e 303c 9544 9ebe 1cd9 dc3d 0ab9 713e
00000050: 75d5 e03c bb5c 053e e555 983e 3cc0 1e3f
00000060: ae52 2dbe 6340 553e 99fd a93b 5080 27bf
00000070: a819 863e 9115 4e3c d4a7 cebe 508e 8dbe
00000080: cb33 353d e5fc 1abd e979 c73e 6dac 6abe
00000090: 89cc 8e3d 0121 33be 7418 90bd 72c3 e0be
000000a0: 418e f33c 051e b0be 4eb0 9139 6955 98bc
000000b0: 7b63 a9bc 56ca 8c3e 8a6f 15bd a096 84bc
000000c0: 6cf4 a8be 92e9 8cbe 64c3 6b3d aec2 fb3d
000000d0: 6e33 47bc 123e 90be cc60 fe3e 7167 723e
000000e0: a1d7 15bd 73ae 0a3f 6cda 6d3e 9477 843e
000000f0: d2fb f0bc b75c dc3d 987b 963e fd58 ca3e
00000100: e668 033e adee a73c d2ba d63e d369 bcbe
00000110: 50ca e23e d097 f6bd 32eb 04be 44b7 b7bd
00000120: 8397 76bc a341 213e b9b5 c33e fcba 42be
00000130: 693e 523e 74fc 2b3d c574 923e e6a6 0c3f
00000140: 04cf d7bd a73c ecbe a1e1 013e 184e 0a3f
00000150: 8d9d 3e3c 197e 8e3e 6f6f 333e a0e7 b13c
00000160: 10fa 53bd 1275 dd3e f344 85bc b773 c0bd
00000170: 9c9f 87bd 31f5 3d3e e93f c5be d0e2 e1bd
00000180: ce05 493d e508 c13e 9360 d43d 0848 0bbe
00000190: f29a a0bd b83f 9b3b 23f0 3abe 8d04 433d
000001a0: e4c4 58bd 3627 82be ab74 3e3e b975 023f
000001b0: 2ede 97bb 6447 073d 387c 88bd a62d a33e
000001c0: 848f c9bd 492e 32be 4c11 1e3e 71f4 d63e
000001d0: c117 0d3e db6f 26bc 685a 383e 86de 443e
000001e0: a30f 07bd a1d5 5f3e 0e2c 5abe 623c d5be
000001f0: 77eb 0bbd 8d85 2e3e 01d4 e3bd 28b0 7fbe
00000200: 5d95 253e 70b2 203e e206 f13c ba8d d9be
00000210: 07a7 ffbd 902e 24bd 5dcb 25be 92e9 2b3e
00000220: cc62 8abd f034 973d 7a49 003f 0f23 8b3e
00000230: a72e ca3e 8301 89be 113c a93d 3a25 603e
00000240: 3e48 63be 124c a0bd cc76 683e d3a1 543d
00000250: 583d 70be e482 f33d ada0 933b 07fe 56bd
00000260: e275 36bd d8c9 b03e a933 97bc f737 86be
00000270: 7ce4 a93c 3e7d 2e3e 8d7b e6be 107c 94be
00000280: 580d 223e 4d4a be3d 2b4c 113e 2c39 b9bc
00000290: cd03 243d e9a3 a6bd 5730 89bd 6161 12bd
000002a0: 7601 0c3e 1354 043e 2b5f 1dbe 0935 d4be
000002b0: f8b6 89bd 1c38 a63d 1768 9dbe b822 3bbe
000002c0: e4df e63d b4c6 49bc 3733 e2bb f021 5d3e
000002d0: 7557 55be 6664 e0bd 9fed e9bd 237a 5dbe
000002e0: 72ae 413e 7945 4e3e 1322 e9bd a575 acbd
000002f0: f7b0 013e 013b f3bd 6183 b1bd b08a b4be
00000300: 471b 8bbd 7bf4 2e3e 76da 883d 97f5 8dbe
00000310: be89 ab3c f69c 32be cc42 33bf a755 84be
00000320: 4984 d8bd 4d7b cd3e 6404 8c3c c760 05be
00000330: 5721 c23c fa03 7fbe e151 f4bc 8a49 3ebe
00000340: e481 9abd 1aa3 89bd 66bc 0f3e fc74 e13d
00000350: 2941 963e 8b37 1cbe 475b 163e d25d 3b3e
00000360: 110b 17bd b6cd 61be 73e8 72bc 9fda 4e3e
00000370: db90 5abe 0fa9 483e 0e25 763e e975 c93e
00000380: d5d9 603e d080 ff3d 3585 a1be 7cf5 3dbe
00000390: 042d 1ebe 8c9e db3c df79 ecbe 9c70 46be
000003a0: a929 1b3e 25df e63e 56b2 02be 61d4 333e
000003b0: 87a6 3bbe c954 483d cc5f 22bd cade fabe
000003c0: bbf3 6bbe ae9d 5fbe 8f23 07be fb28 383e
000003d0: 8af2 8c3e 75eb e6bd 53a9 663e 0256 ea3e
000003e0: bf61 18be e61c f43e 30f5 c53d 0d98 30be
000003f0: 8ccd 263e 6684 2d3e 7cc5 82be 00e0 babe

critic.0.bias f4 [64]
-0.19785771 -0.08851084 0.20734993 -0.18653814 -0.23786254 0.19710144 0.054178752 0.21678993
-0.24000688 0.084737666 0.25214118 -0.236867 -0.0262931 0.22674836 0.18622494 -0.228248
0.0006423479 0.090836234 -0.005218911 -0.21468925 -0.14669101 -0.08069316 -0.1293962 -0.19568938
-0.09887945 -0.2013989 0.1720456 0.20151934 -0.15986153 -0.22038198 0.18252699 -0.23672907
-0.19634326 -0.17065702 0.19286092 0.15660194 0.027955523 -0.15120482 -0.072379544 0.18508436
-0.20212416 0.14405192 0.008643396 0.12943554 -0.04174884 -0.1655364 -0.11108478 -0.17426655
-0.18893163 -0.20197356 -0.0792524 0.13620223 -0.17973076 0.15954606 -0.011028725 0.0881596
-0.18938905 0.19060425 -0.04520669 -0.1178322 0.19331077 0.223339 -0.016768465 -0.19665089
00000000: 369b 4abe 2c45 b5bd 8a53 543e db03 3fbe
00000010: 3d92 73be f6d4 493e 8aea 5d3d 2efe 5d3e
00000020: 5dc4 75be f18a ad3d a618 813e 438d 72be
00000030: a164 d7bc b930 683e c0b1 3e3e d8b9 69be
00000040: 3d63 283a 5908 ba3d 6603 abbb 80d7 5bbe
00000050: 2b36 16be 7542 a5bd 7080 04be cc62 48be
00000060: 4f81 cabd 833b 4ebe b92c 303e 165b 4e3e
00000070: beb2 23be d0ab 61be 5be8 3a3e 1b69 72be
00000080: 350e 49be b7c0 2ebe 557d 453e 425c 203e
00000090: fb02 e53c 70d5 1abe ba3b 94bd c186 3d3e
000000a0: a3f9 4ebe 5982 133e 089d 0d3c c08a 043e
000000b0: d500 2bbd 6082 29be 6b80 e3bd ee72 32be
000000c0: 4b77 41be 28d2 4ebe 154f a2bd 9978 0b3e
000000d0: 570b 38be 0b60 233e d3b1 34bc 058d b43d
000000e0: 34ef 41be c32d 433e a62a 39bd 0252 f1bd
000000f0: 42f3 453e fbb2 643e 055e 89bc da5e 49be

critic.2.weight f4 [64, 64]
0.39415634 -0.5006621 -0.36670563 0.43588206 0.08622538 -0.18920283 0.05808769 -0.3821303
0.13919933 0.30642012 -0.31424648 0.078294404 -0.052431285 -0.423763 -0.5582722 0.45754832
0.107345834 -0.19405344 0.0045384597 0.33803356 -0.0251622 0.30629548 0.18001455 0.3165466
0.48539677 0.18672992 0.08379913 -0.24907032 0.17514715 0.20306578 -0.20845908 0.20978582
0.13744755 0.2628725 0.1654062 -0.09055042 -0.35557732 -0.24354842 -0.10990942 -0.6917273
0.33297575 -0.21951953 -0.033644885 -0.13218248 -0.26015967 0.2974187 0.24809416 0.39785004
0.20596486 0.44441998 -0.08727558 -0.08421588 0.21971807 -0.26687893 -0.05145176 -0.02359947
0.1968063 -0.32429802 0.04988503 0.21864876 -0.05129722 -0.003024392 -0.25404721 0.13277844
0.45099792 0.21783349 -0.23838876 0.24889721 0.04637311 -0.31224248 -0.045373 -0.23631373
0.12658006 -0.24392837 -0.16914532 0.08322199 0.4811995 0.033602394 -0.40893957 0.48250648
0.052362166 -0.30997038 0.31682912 0.07746612 0.12682678 0.27928972 0.0035907386 0.29433984
0.17263612 0.2648281 -0.19609335 -0.318269 0.40494585 0.43534634 -0.3479466 0.31917673
0.39303628 0.11202344 -0.07013503 -0.13760677 -0.055216756 -0.11385982 -0.18359524 0.06335144
0.21914494 -0.043313596 0.10383157 -0.15523803 0.07331399 0.33253285 0.4362621 0.06635789
0.55526143 0.10128939 -0.019337075 -0.058598626 0.15889949 -0.26990518 -0.1408767 -0.278865
0.36575967 -0.47037858 0.14512952 0.4259865 -0.1292922 -0.24137045 -0.3090048 0.0069531975
-0.36334872 0.072561145 0.4563988 -0.19574991 0.21411516 0.06455177 0.1359177 0.24906816
-0.3814561 0.35599756 -0.029949864 -0.4130345 -0.101128764 0.51939446 0.4530246 -0.55155385
-0.41162264 0.024045326 0.055110898 -0.3190081 -0.1459774 -0.24744321 -0.1030376 -0.18759081
-0.38166702 -0.07095498 0.5309647 0.47880945 -0.07048058 -0.51705056 -0.041360095 -0.48079944
0.08397031 -0.029052282 -0.032262675 0.12463671 -0.05062969 -0.12355895 0.0059673497 0.32643202
-0.012142502 -0.31823245 0.31018308 0.11769401 0.035433 -0.3947456 0.17917506 -0.047571786
-0.07825965 -0.29991257 0.082010955 0.04752597 -0.3252194 0.32932428 0.09247129 0.071492985
-0.31552547 0.24669313 0.09466264 -0.4173637 0.29131413 0.29244223 -0.052597012 -0.09209766
0.5253679 0.23300256 -0.42803672 0.5024873 0.11554049 -0.25737652 -0.677885 -0.16468492
0.24227443 0.03155945 -0.07532136 0.19790183 -0.04015 -0.09595694 -0.4589713 0.5473661
-0.0014083195 -0.02653851 -0.0994284 0.37332526 -0.1178689 0.34510738 0.41165394 0.41855812
0.063044794 0.071132526 -0.41914174 -0.47266427 0.09736619 -0.30484897 -0.037668828 0.30161
0.2784642 0.30976918 -0.095451 -0.18596642 -0.14707531 -0.25962982 0.1385071 -0.2653063
0.259004 -0.070674784 0.07657713 0.062123485 -0.13461506 0.5764988 0.09895446 0.19479056
0.42184433 0.34193695 -0.23503552 -0.151939 0.34511375 -0.3339568 -0.109888315 -0.47216615
0.18617378 -0.45519075 0.12706946 0.40046844 -0.5083325 -0.5980625 -0.18021902 0.092954256
00000000: dcce c93e 642b 00bf d7c0 bbbe ef2b df3e
00000010: ef96 b03d 63be 41be 5ced 6d3d 95a6 c3be
00000020: 458a 0e3e 19e3 9c3e eae4 a0be d158 a03d
00000030: 30c2 56bd 77f7 d8be edea 0ebf c643 ea3e
00000040: 22d8 db3d f2b5 46be 5cb7 943b bc12 ad3e
00000050: f520 cebc c3d2 9c3e bc55 383e 6512 a23e
00000060: ed85 f83e 2136 3f3e e19e ab3d 4a0c 7fbe
00000070: c659 333e 7af0 4f3e 4c76 55be 18d2 563e
00000080: 0dbf 0c3e 3997 863e 3e60 293e 8072 b9bd
00000090: 3b0e b6be c264 79be 3118 e1bd 0a15 31bf
000000a0: cc7b aa3e bac9 60be 38cf 09bd d85a 07be
000000b0: a633 85be 4447 983e 650c 7e3e 00b3 cb3e
000000c0: 74e8 523e 048b e33e 8abd b2bd 6079 acbd
000000d0: c6fd 603e 5ba4 88be 15bf 52bd ad53 c1bc
000000e0: 9787 493e 640a a6be 3f54 4c3d 76e5 5f3e
000000f0: 091d 52bd e134 46bb 7a12 82be 12f7 073e
00000100: 33e9 e63e be0f 5f3e 2f1c 74be e9de 7e3e
00000110: bbf1 3d3d 3fde 9fbe 0ad9 39bd 3afc 71be
00000120: 349e 013e 5cc8 79be 6e34 2dbe 4a70 aa3d
00000130: c85f f63e aaa2 093d 8760 d1be 170b f73e
00000140: b679 563d 70b4 9ebe 6d37 a23e 8fa6 9e3d
00000150: e1de 013e 10ff 8e3e 9952 6b3b b6b3 963e
00000160: 86c7 303e 8c97 873e b2cc 48be 28f4 a2be
00000170: 1055 cf3e b7e5 de3e 0f26 b2be 226b a33e
00000180: 0d3c c93e 8c6c e53d f4a2 8fbd cae8 0cbe
00000190: f72a 62bd 562f e9bd 6400 3cbe 66be 813d
000001a0: 8867 603e 9969 31bd a5a5 d43d b8f6 1ebe
000001b0: a525 963d bf41 aa3e bf5d df3e a5e6 873d
000001c0: 9d25 0e3f d070 cf3d c968 9ebc 1d05 70bd
000001d0: 8cb6 223e 0331 8abe fb41 10be 65c7 8ebe
000001e0: da44 bb3e 76d5 f0be d59c 143e e71a da3e
000001f0: 2d65 04be d129 77be e135 9ebe a6d7 e33b
00000200: d808 babe f09a 943d 1aad e93e aa72 48be
00000210: 0141 5b3e b833 843d 022e 0b3e b90b 7f3e
00000220: 374e c3be 5045 b63e 6b59 f5bc 4279 d3be
00000230: 991c cfbd 09f7 043f d7f2 e73e a232 0dbf
00000240: 34c0 d2be b4fa c43c f7bb 613d 0855 a3be
00000250: 197b 15be c161 7dbe 6105 d3bd ce17 40be
00000260: dc69 c3be d850 91bd 4ded 073f 8326 f53e
00000270: 1f58 90bd 6d5d 04bf 3469 29bd 582b f6be
00000280: a0f8 ab3d 0dff edbc de25 04bd 8841 ff3d
00000290: 1461 4fbd 7a0c fdbd c289 c33b 1922 a73e
000002a0: 58f1 46bc 5def a2be 51d0 9e3e 8f09 f13d
000002b0: 3222 113d 181c cabe ab79 373e a2da 42bd
000002c0: 9846 a0bd 248e 99be 5cf5 a73d 97aa 423d
000002d0: 2883 a6be 319d a83e 9661 bd3d ea6a 923d
000002e0: 8e8c a1be 209d 7c3e 7cde c13d b2b0 d5be
000002f0: 2027 953e fdba 953e f76f 57bd b39d bcbd
00000300: 837e 063f 3998 6e3e a127 dbbe 02a3 003f
00000310: 7ea0 ec3d dbc6 83be df89 2dbf 2aa3 28be
00000320: ca16 783e 7b44 013d 1642 9abd c7a6 4a3e
00000330: 5474 24bd 1285 c4bd 49fe eabe 2f20 0c3f
00000340: 5c97 b8ba 4a67 d9bc 1ea1 cbbd 7d24 bf3e
00000350: 4065 f1bd eab1 b03e 4ec4 d23e 404d d63e
00000360: a11d 813d eead 913d bf99 d6be 0d01 f2be
00000370: ed67 c73d 2a15 9cbe a14a 1abd a06c 9a3e
00000380: dc92 8e3e 119a 9e3e d07b c3bd fb6d 3ebe
00000390: e99a 16be 33ee 84be ced4 0d3e 3ad6 87be
000003a0: 2c9c 843e f1bd 90bd 78d4 9c3d 3275 7e3d
000003b0: 88d8 09be 6d95 133f a3a8 ca3d 2d77 473e
000003c0: fbfb d73e 5c12 af3e 27ad 70be e695 1bbe
000003d0: c0b2 b03e 63fc aabe 200d e1bd c3bf f1be
000003e0: 57a4 3e3e c30e e9be 7f1e 023e 330a cd3e
000003f0: 1422 02bf a01a 19bf 568b 38be cd5e be3d

critic.2.bias f4 [64]
-0.17460735 -0.112455815 0.1694299 -0.22809133 -0.024943015 -0.14845553 0.20612155 -0.03635739
-0.0417515 0.2457999 -0.096799396 -0.16531628 -0.22429985 -0.1182369 -0.018291345 0.21753134
-0.16322826 -0.14492986 -0.13792066 0.159175 -0.0074468497 0.2012904 -0.17526482 -0.21367532
0.08309314 0.11641458 0.19052094 0.16446377 0.025455942 -0.023904707 0.18904884 -0.025976595
-0.1449511 0.22318754 -0.0041605933 -0.11228132 0.024605894 0.19063121 -0.1905037 -0.048857324
-0.063304074 0.014535518 0.15838169 -0.17693317 0.03285988 0.104418404 0.17080124 -0.13682845
0.027258826 0.08987312 0.18225259 -0.013823052 0.16230041 0.15485491 -0.14574866 0.16180956
0.03812268 -0.18370494 0.15829563 0.14663668 -0.07088071 0.25955805 0.16309959 -0.0052615046
00000000: 45cc 32be 3c4f e6bd 087f 2d3e c690 69be
00000010: 4b55 ccbc ba04 18be 8711 533e 7deb 14bd
00000020: 9f03 2bbd f8b2 7b3e c33e c6bd ac48 29be
00000030: dcae 65be 3026 f2bd bbd7 95bc 89c0 5e3e
00000040: 4f25 27be 7e68 14be 133b 0dbe c5fe 223e
00000050: b404 f4bb 121f 4e3e 9f78 33be b4cd 5abe
00000060: bc2c aa3d c46a ee3d ec17 433e 3169 283e
00000070: fb88 d03c ced3 c3bc 0596 413e decc d4bc
00000080: 106e 14be 468b 643e 9655 88bb c0f3 e5bd
00000090: 4d92 c93c d434 433e 6713 43be 9e1e 48bd
000000a0: 91a5 81bd 6226 6e3c cf2e 223e f82d 35be
000000b0: 1598 063d 51d9 d53d 85e6 2e3e c21c 0cbe
000000c0: e74d df3c 660f b83d 6ca0 3a3e 157a 62bc
000000d0: 1432 263e 4992 1e3e 233f 15be 68b1 253e
000000e0: 8726 1c3d 261d 3cbe 4018 223e ed27 163e
000000f0: e829 91bd cbe4 843e 9403 273e b368 acbb

critic.4.weight f4 [1, 64]
0.37571788 0.2971073 -0.32528412 0.33366215 0.098781936 0.51983243 -0.36166432 0.07326316
0.12917739 -0.35428852 0.41111043 0.3242607 0.38341942 0.27101 0.23790504 -0.35699236
0.35179132 0.3996168 0.3353951 -0.26633185 0.19807297 -0.31759995 0.2802314 0.32733357
-0.30418792 -0.46731076 -0.4798507 -0.59509045 -0.10773175 0.16824803 -0.4831594 0.13049859
0.5307838 -0.3807353 -0.099229425 0.35986525 -0.20521475 -0.56884944 0.42599115 0.29910374
0.12786528 0.25389242 -0.32289004 0.4399911 -0.051016625 -0.17961113 -0.49927086 0.2972177
-0.07438913 -0.14027457 -0.38991877 -0.23969784 -0.3455884 -0.2916096 0.37514114 -0.5443275
-0.15615746 0.4162389 -0.30575266 -0.42886963 0.28757158 -0.33830282 -0.55481493 -0.45666915
00000000: 185e c03e 731e 983e a48b a6be c4d5 aa3e
00000010: 2f4e ca3d bd13 053f 112c b9be ff0a 963d
00000020: 1447 043e 4e65 b5be 117d d23e 8005 a63e
00000030: 8d4f c43e d3c1 8a3e 619d 733e b4c7 b6be
00000040: fe1d b43e 939a cc3e e8b8 ab3e a65c 88be
00000050: a4d3 4a3e 769c a2be 7d7a 8f3e 4498 a73e
00000060: 85be 9bbe 5b43 efbe feae f5be d957 18bf
00000070: 77a2 dcbd 3649 2c3e ab60 f7be 6ca1 053e
00000080: 72e1 073f bdef c2be cc38 cbbd 4240 b83e
00000090: d123 52be 1ea0 11bf 831b da3e 2024 993e
000000a0: 1eef 023e 30fe 813e d851 a5be 8346 e13e
000000b0: cff6 50bd fbeb 37be 6ea0 ffbe eb2c 983e
000000c0: 5459 98bd 23a4 0fbe 6fa3 c7be 5a73 75be
000000d0: f6f0 b0be da4d 95be 8012 c03e 0c59 0bbf
000000e0: bee7 1fbe 441d d53e 9d8b 9cbe cd94 dbbe
000000f0: 953c 933e 0736 adbe 5a08 0ebf 8ad0 e9be

actor.0.weight f4 [64, 8]
-0.05814006 0.01960137 0.19295967 -0.07396991 -0.7311554 -0.22192104 0.07405214 0.19260843
-0.22977115 0.12276791 -0.07985203 0.6508847 0.22653481 -0.06250275 -0.11628112 0.12982762
0.0027297698 -0.29975396 -0.049334668 -0.6108135 0.3511234 -0.009555575 -0.34068447 -0.25809944
-0.073083356 -0.033523444 -0.18547256 -0.12550023 0.52061534 -0.039321553 -0.19002035 -0.22152944
0.125255 -0.065664336 -0.09398831 -0.22370423 0.33560053 0.20203003 0.18880583 -0.2874711
-0.09650625 -0.23397055 0.043167897 0.42415887 -0.3839684 0.028713588 0.05415974 0.07950653
-0.31717655 0.0045561343 -0.10273924 0.067245364 -0.36119458 -0.0823915 0.15769751 -0.34656152
-0.10717711 -0.19048044 0.22623718 0.47579813 -0.74300194 -0.54183364 0.10253031 0.14724119
-0.2086364 0.13841484 -0.456946 -0.41951442 0.47358882 0.37579873 -0.54359365 0.108311206
-0.12463344 0.034178272 -0.024932234 0.2148696 -0.42886737 -0.4050792 -0.113451526 0.12517576
-0.062358096 0.06535444 -0.013372108 -0.07474742 -0.53480464 -0.033218153 0.25989187 0.14105345
0.024183415 -0.08885745 -0.00100975 0.011691229 -0.59586424 -0.3277596 0.13204603 -0.19246762
-0.19501333 -0.120806135 -0.22224812 -0.31114525 0.3872194 0.42316136 -0.03220743 -0.111252174
-0.29353073 0.33239588 0.059738763 0.054657787 0.031528644 -0.07173655 0.22648482 0.0047822604
-0.12861513 -0.21211767 0.37342718 -0.53324604 -0.3403869 -0.076897725 0.039027486 0.037751198
-0.17236419 0.08597762 0.05121704 -0.18178731 -0.39470455 -0.15745835 -0.07422767 0.085930884
-0.2796547 -0.041602015 0.1410529 0.5606137 -0.32058734 -0.38666156 0.0088381395 0.07849188
0.16331767 0.06739044 -0.16888413 -0.3612964 0.035241727 0.00016019518 0.1860371 -0.1603813
0.042277623 0.09565138 -0.27245212 0.15851748 0.420559 0.1952643 0.020417936 0.034521706
0.1426766 -0.034603078 0.18608823 -0.12855239 -0.6551195 -0.39198986 -0.2852116 -0.15347742
-0.031281434 -0.16062628 -0.17698307 -0.02132362 0.1224335 0.24430567 0.050184973 0.1919829
0.10052148 0.028612299 0.07448957 0.22416961 -0.546996 -0.43102604 0.044357225 0.061776977
0.029877638 0.18022113 -0.14792459 0.67145926 0.5109343 0.32698262 0.08657056 -0.016314203
0.2683209 0.15737109 0.22750662 -0.45729545 0.56477374 0.23412642 -0.26514384 -0.023733238
-0.2864213 0.051051922 -0.12258807 0.3176459 -0.29515427 -0.32608593 0.03803522 0.057868984
-0.03437742 0.048864506 -0.11318502 -0.49878144 0.07221958 0.28300503 -0.17255552 0.06580541
0.08176556 0.02947749 0.5309221 0.23448892 -0.35546824 -0.08120762 -0.20063207 0.24859758
0.10614116 -0.16800585 -0.06447983 -0.4221815 0.5782883 0.51594037 0.06567698 0.11185326
0.01760766 -0.2488105 -0.05773802 -0.23157342 0.6687675 0.06397854 -0.16899061 -0.016644618
0.11430535 -0.08641164 0.005681308 -0.80949575 -0.23081817 -0.5936175 -0.071198635 -0.08069246
-0.07951144 -0.011126831 -0.025516605 0.5701791 0.50529915 0.20029932 -0.025712246 -0.0451771
0.10929562 0.009632503 -0.028478486 0.43044066 0.30506286 0.05852351 -0.04442383 -0.23591794
00000000: 4624 6ebd 0d93 a03c 3897 453e 897d 97bd
00000010: 002d 3bbf 453f 63be a6a8 973d 253b 453e
00000020: 2149 6bbe be6d fb3d 7689 a3bd 61a0 263f
00000030: bef8 673e 7101 80bd cc24 eebd 88f1 043e
00000040: f0e5 323b 5a79 99be 2613 4abd 465e 1cbf
00000050: 72c6 b33e fd8e 1cbc 326e aebe 9c25 84be
00000060: baac 95bd e14f 09bd 85ec 3dbe 2283 00be
00000070: 0c47 053f a30f 21bd b294 42be 9dd8 62be
00000080: d942 003e 067b 86bd f17c c0bd b912 65be
00000090: d5d3 ab3e f6e0 4e3e 5156 413e 692f 93be
000000a0: 12a5 c5bd fa95 6fbe d2d0 303d 5a2b d93e
000000b0: 8297 c4be c238 eb3c 9bd6 5d3d 52d4 a23d
000000c0: f764 a2be a04b 953b f368 d2bd f0b7 893d
000000d0: 7fee b8be e0bc a8bd 757b 213e 8370 b1be
000000e0: ac7f dbbd 4e0d 43be b8aa 673e d09b f33e
000000f0: 6035 3ebf 9cb5 0abf 69fb d13d 65c6 163e
00000100: c8a4 55be 9fbc 0d3e d3f4 e9be 98ca d6be
00000110: 3c7a f23e b168 c03e f428 0bbf 44d2 dd3d
00000120: d13f ffbd 84fe 0b3d af3e ccbc c706 5c3e
00000130: 8194 dbbe 8a66 cfbe 4659 e8bd 132e 003e
00000140: 346b 7fbd 8cd8 853d b016 5bbc 2d15 99bd
00000150: f5e8 08bf c20f 08bd 8c10 853e 5170 103e
00000160: 4c1c c63c e5fa b5bd 9659 84ba 928c 3f3c
00000170: 8f8a 18bf 1bd0 a7be 1337 073e 3b16 45be
00000180: 93b1 47be 3569 f7bd 0395 63be 6e4e 9fbe
00000190: 9f41 c63e 9ba8 d83e f0eb 03bd 2ed8 e3bd
000001a0: a949 96be cb2f aa3e a2b0 743d d8e0 5f3d
000001b0: 2e24 013d 9dea 92bd a3eb 673e 82b4 9c3b
000001c0: afb3 03be 6035 59be d931 bf3e d082 08bf
000001d0: 3147 aebe 8e7c 9dbd 49db 1f3d 00a1 1a3d
000001e0: 3d80 30be 0915 b03d f5c8 513d 7426 3abe
000001f0: b716 cabe c33c 21be ad04 98bd 88fc af3d
00000200: e72e 8fbe e066 2abd 2c70 103e 6184 0f3f
00000210: 0624 a4be 81f8 c5be d8cd 103c 5ac0 a03d
00000220: bf3c 273e 0004 8a3d f6ef 2cbe d7fb b8be
00000230: a159 103d 11fa 2739 8280 3e3e ff3a 24be
00000240: 4d2b 2d3d dfe4 c33d d87e 8bbe 6852 223e
00000250: 8253 d73e 5df3 473e 8443 a73c a266 0d3d
00000260: d119 123e f5bb 0dbd ea8d 3e3e 3da3 03be
00000270: e9b5 27bf e5b2 c8be 4107 92be 2f29 1dbe
00000280: f620 00bd 377b 24be 0d3b 35be dfae aebc
00000290: 6abe fa3d 442b 7a3e c28e 4d3d 2a97 443e
000002a0: 35de cd3d 5764 ea3c fd8d 983d b88c 653e
000002b0: ee07 0cbf 72af dcbe ecaf 353d db09 7d3d
000002c0: f3c1 f43c e38b 383e 8b79 17be c1e4 2b3f
000002d0: 97cc 023f 446a a73e e84b b13d 5da5 85bc
000002e0: 5b61 893e e325 213e 7ff7 683e a122 eabe
000002f0: 0395 103f d6be 6f3e efc0 87be 356c c2bc
00000300: d0a5 92be d21b 513d 740f fbbd 7ca2 a23e
00000310: 761e 97be bcf4 a6be d2ca 1b3d 0708 6d3d
00000320: 56cf 0cbd 2626 483d 8ccd e7bd 4860 ffbe
00000330: dce7 933d 09e6 903e 65b2 30be fdc4 863d
00000340: b474 a73d c77a f13c 83ea 073f dd1d 703e
00000350: efff b5be 2e50 a6bd 7e72 4dbe 5d90 7e3e
00000360: 8960 d93d ba09 2cbe 000e 84bd 2c28 d8be
00000370: b40a 143f ab14 043f a781 863d 5213 e53d
00000380: f03d 903c 2ec8 7ebe b47e 6cbd 9521 6dbe
00000390: 5934 2b3f 2e07 833d e00b 2dbe 4b5a 88bc
000003a0: ec18 ea3d 96f8 b0bd 442a ba3b 1d3b 4fbf
000003b0: 995b 6cbe 51f7 17bf 97d0 91bd 1742 a5bd
000003c0: e5d6 a2bd 504d 36bc 3308 d1bc 42f7 113f
000003d0: 495b 013f 441b 4d3e 7da2 d2bc 9f0b 39bd
000003e0: 62d6 df3d a5d1 1d3c b74b e9bc b862 dc3e
000003f0: 3331 9c3e 59b6 6f3d c3f5 35bd 7994 71be

actor.0.bias f4 [64]
-0.002742271 0.006083908 0.057102054 -0.00080867164 -0.003615125 -0.002243681 -0.006446773 0.04230735
-0.038106762 0.052257165 -0.031759974 0.014151354 0.0057143564 -0.010714116 0.043278236 -0.041568164
0.0038485518 -0.032830264 0.006388154 0.00726162 0.023574753 -0.018820617 -0.046350144 -0.0061229994
0.03163988 0.014775728 -0.004023444 0.04399003 0.047546912 0.011599673 -0.025852643 -0.003066425
0.004634296 0.0019500343 0.016461292 -0.038302798 0.011901515 0.030012015 -0.008408651 0.0058392864
-0.02812527 -0.0024113585 0.01837381 -0.018556697 -0.01747377 -0.01333088 -0.018554041 -0.0031676309
0.02277717 -0.021838082 -0.013014062 -0.029284628 0.014556948 0.016008325 0.0019607043 -0.010449096
-0.051341847 0.0037586822 0.012528455 -0.040443957 0.017356267 -0.0075130872 0.026407406 -0.03230094
00000000: acb7 33bb 855b c73b d8e3 693d 09fd 53ba
00000010: bceb 6cbb b90a 13bb 743f d3bb 794a 2d3d
00000020: d615 1cbd 9c0b 563d bf16 02bd 15db 673c
00000030: 7f3f bb3b 428a 2fbc 8544 313d 6143 2abd
00000040: fc37 7c3b 0779 06bd b853 d13b e2f2 ed3b
00000050: d71f c13c b22d 9abc a6d9 3dbd 71a3 c8bb
00000060: d298 013d e515 723c 18d7 83bb e42e 343d
00000070: 8dc0 423d 8e0c 3e3c ecc8 d3bc 13f6 48bb
00000080: 4bdb 973b 4b98 ff3a d5d9 863c 65e3 1cbd
00000090: 92fe 423c c2db f53c 70c4 09bc 7c57 bf3b
000000a0: f766 e6bc e207 1ebb ac84 963c 3704 98bc
000000b0: 2725 8fbc c369 5abc a5fe 97bc 0798 4fbb
000000c0: 3097 ba3c c7e5 b2bc ef38 55bc 51e6 efbc
000000d0: 4480 6e3c e423 833c 297f 003b af32 2bbc
000000e0: d44b 52bd 3954 763b 2644 4d3c 90a8 25bd
000000f0: bb2e 8e3c 5830 f6bb 5854 d83c fe4d 04bd

actor.2.weight f4 [64, 64]
0.34075427 -0.09015021 0.27061608 -0.42075863 0.11032156 0.14680277 -0.21304911 0.17403068
0.06537744 -0.21022616 0.23056473 0.24375796 0.030963631 0.06385081 0.016606089 0.2239255
0.19849016 0.29994878 0.0025953045 0.4266544 -0.06706564 0.16689183 -0.15879883 -0.035859074
0.1044818 0.002603257 0.12539247 0.17409031 -0.14352286 0.5000042 -0.39387545 -0.56512314
0.24947941 0.17037457 0.028870026 0.28095773 0.22730447 0.10749814 0.3571679 0.08505133
0.6080054 -0.14544441 -0.20171715 0.2092222 0.2696524 0.12345246 -0.10123789 -0.08181874
0.020331062 0.09165329 -0.12321989 -0.11734063 0.019888498 0.2940322 0.2855893 -0.17893079
-0.0061142845 0.26765308 0.027746981 0.1958383 0.25816303 -0.61849326 0.38130763 -0.24737795
-0.19532643 -0.11021826 0.23343663 0.39231133 0.23991384 -0.16059637 -0.051408853 -0.49073324
0.045035094 0.024102246 -0.2337269 -0.3133152 0.2532438 -0.04304692 -0.36443028 0.2074177
-0.3867812 -0.13381733 0.42388305 -0.031235106 0.076820575 -0.15829618 6.530402e-05 0.23128992
-0.30128 0.26459286 0.08123334 0.14102183 0.05848171 0.13174522 0.07263562 0.0950787
-0.2649363 -0.27267388 0.0154628055 0.23203023 -0.5142893 0.24831285 0.036996514 -0.26050654
-0.24818593 -0.075011455 0.47884884 -0.28752407 -0.5231357 -0.057187475 0.24020651 0.0929025
0.090660565 -0.47322834 0.09562189 0.38465157 0.10567336 -0.023836527 -0.15762268 0.03505286
0.29521024 0.29869005 0.037542842 -0.26615545 -0.028655691 0.40165427 0.33916157 0.24239713
-0.21910894 -0.016504588 0.16834809 0.35057864 0.02598948 -0.003262193 -0.2671032 -0.13183248
0.5087699 -0.1330787 0.07839072 -0.39948553 0.47296795 -0.10601448 0.09018048 -0.052190192
-0.029429713 0.1925626 -0.030269304 0.003346568 0.005357836 -0.06960549 -0.18331173 0.25129616
-0.010252702 0.25598752 -0.25995114 0.14174819 0.14507242 0.23492797 -0.12880842 -0.194797
0.17956127 -0.27423579 0.23924084 -0.13181385 0.0905695 0.25247225 -0.37502125 -0.03054763
-0.19450255 0.3370866 0.15657414 -0.3610105 0.0017550556 -0.14169827 0.054078497 0.10282656
0.28604722 -0.5789093 -0.012994332 -0.19484401 0.14519691 -0.29260972 -0.402868 -0.1043624
0.25481784 -0.24201334 0.25458848 -0.034689747 0.41616127 0.18737315 0.2385839 0.18229759
-0.07616724 0.02209876 -0.41704682 -0.2233456 -0.19695306 0.22373779 -0.2330764 0.34311268
-0.40945292 0.0544243 -0.02032537 0.37143654 -0.28386968 -0.35525474 -0.076517075 0.41739348
0.4350284 0.14314365 -0.2395065 0.15307565 -0.11719842 0.46036038 -0.018417424 0.09246413
0.081911184 -0.48697644 0.22996207 -0.10197647 -0.61312175 -0.072662905 -0.040604644 -0.044326935
-0.19736722 0.0058780257 0.003612174 0.020772612 0.035754524 0.018847626 0.017881442 -0.1502928
0.096662484 -0.1063368 -0.29019508 -0.06039556 0.06336487 0.33016077 0.042771176 0.087031856
-0.22609146 0.33092 0.23158257 -0.1612287 -0.16231564 0.022671755 -0.1296014 0.032316163
-0.11907128 -0.12285967 -0.37006027 0.22255133 -0.33418402 0.19380419 -0.068145305 0.2542998
00000000: 5877 ae3e aca0 b8bd 318e 8a3e ad6d d7be
00000010: 45f0 e13d 7753 163e 8c29 5abe 1935 323e
00000020: 9be4 853d 8745 57be 2919 6c3e b09b 793e
00000030: 71a7 fd3c 37c4 823d 7e09 883c ba4c 653e
00000040: 0141 4b3e e392 993e fc15 2a3b 7272 da3e
00000050: b659 89bd b1e5 2a3e 299c 22be f7e0 12bd
00000060: 8efa d53d 689b 2a3b e266 003e bb44 323e
00000070: a8f7 12be 4600 003f 0baa c9be e9ab 10bf
00000080: 8877 7f3e ac76 2e3e d580 ec3c b1d9 8f3e
00000090: 81c2 683e fc27 dc3d b6de b63e 642f ae3d
000000a0: 3ea6 1b3f 61ef 14be f18e 4ebe 583e 563e
000000b0: e10f 8a3e a5d4 fc3d d055 cfbd 9590 a7bd
000000c0: 548d a63c b8b4 bb3d b65a fcbd 4950 f0bd
000000d0: 34ed a23c 638b 963e c338 923e a239 37be
000000e0: 565a c8bb d309 893e a34d e33c d689 483e
000000f0: f22d 843e 9355 1ebf c13a c33e a550 7dbe
00000100: a703 48be 1cba e1bd 030a 6f3e 08dd c83e
00000110: f9ab 753e 6073 24be 1792 52bd 6341 fbbe
00000120: b876 383d 1372 c53c 1b56 6fbe da6a a0be
00000130: 2ca9 813e f851 30bd 9b96 babe 4e65 543e
00000140: 2f08 c6be 6907 09be 3307 d93e c4e0 ffbc
00000150: 1b54 9d3d 6518 22be d4f3 8838 44d7 6c3e
00000160: 5f41 9abe b778 873e aa5d a63d 0768 103e
00000170: 848a 6f3d 38e8 063e fcc1 943d 9fb8 c23d
00000180: bba5 87be e99b 8bbe b557 7d3c 5599 6d3e
00000190: 77a8 03bf b945 7e3e a889 173d 1d61 85be
000001a0: 7424 7ebe 9b9f 99bd ad2b f53e 5b36 93be
000001b0: 39ec 05bf 6a3d 6abd b2f8 753e aa43 be3d
000001c0: 3fac b93d fc4a f2be 69d5 c33d 0df1 c43e
000001d0: 466b d83d d244 c3bc d767 21be 9693 0f3d
000001e0: cc25 973e e7ed 983e 86c6 193d 8745 88be
000001f0: 57bf eabc a1a5 cd3e 96a6 ad3e f436 783e
00000200: 185e 60be a134 87bc 7163 2c3e 0b7f b33e
00000210: e4e7 d43c 84ca 55bb c0c1 88be 18ff 06be
00000220: bf3e 023f c845 08be 508b a03d 5e89 ccbe
00000230: db28 f23e 1f1e d9bd 8bb0 b83d 62c5 55bd
00000240: 9516 f1bc 212f 453e 55f7 f7bc 1852 5b3b
00000250: c990 af3b 538d 8ebd 12b6 3bbe e4a9 803e
00000260: f3fa 27bc cc10 833e 5118 85be 7026 113e
00000270: dd8d 143e f590 703e 5be6 03be dd78 47be
00000280: e9de 373e a268 8cbe 8dfb 743e 36fa 06be
00000290: 817c b93d 0b44 813e c902 c0be 063f fabc
000002a0: ad2b 47be 9d96 ac3e f954 203e 5ed6 b8be
000002b0: e509 e63a 5a19 11be 6a81 5d3d bb96 d23d
000002c0: c874 923e 6633 14bf 2ee6 54bc 3085 47be
000002d0: 80ae 143e f1d0 95be b744 cebe f4bb d5bd
000002e0: 7c77 823e 58d2 77be 6c59 823e d616 0ebd
000002f0: 1713 d53e bfde 3f3e 564f 743e 38ac 3a3e
00000300: 92fd 9bbd 7508 b53c 2987 d5be b5b4 64be
00000310: 10ae 49be 851b 653e 94ab 6ebe 77ac af3e
00000320: d0a3 d1be 04ec 5e3d 6481 a6bc ee2c be3e
00000330: 5e57 91be f3e3 b5be fcb4 9cbd 99b4 d53e
00000340: 0bbc de3e 4094 123e 3141 75be ddbf 1c3e
00000350: ba05 f0bd 5bb4 eb3e 23e0 96bc d55d bd3d
00000360: 0dc1 a73d fa54 f9be 2d7b 6b3e 0ad9 d0bd
00000370: 8cf5 1cbf 4ad0 94bd 0e51 26bd 2990 35bd
00000380: a21a 4abe 749c c03b 39ba 6c3b 532b aa3c
00000390: 5673 123d 5666 9a3c 1a7c 923c 5be6 19be
000003a0: fbf6 c53d 1cc7 d9bd 7394 94be 5661 77bd
000003b0: 71c5 813d d50a a93e d430 2f3d c23d b23d
000003c0: 8584 67be 596e a93e fb23 6d3e 2319 25be
000003d0: 1236 26be 1eba b93c 3bb6 04be f45d 043d
000003e0: a5db f3bd da9d fbbd 8a78 bdbe 7fe4 633e
000003f0: 2b1a abbe 9b74 463e c48f 8bbd 9533 823e

actor.2.bias f4 [64]
-0.013267603 0.026163934 0.017039126 -0.044070944 0.032566242 0.019016637 -0.0045678355 -0.026175588
-0.010037051 0.012576743 -0.015577865 0.041333392 -0.005680385 0.01095722 0.01979967 -0.020262646
0.030931292 0.01374591 0.045400273 -0.010405128 0.0036599082 -0.02226404 0.0038030155 -0.0077263378
-0.03515457 -0.006075484 -0.028460653 -0.013952987 0.022819681 0.007897366 0.01862035 -0.003360323
0.013733949 0.036090177 -0.015876066 0.030804778 -0.012164807 -0.025698282 -0.027910626 -0.022182258
-0.015761223 0.03247215 -0.0078270035 -0.0046113995 0.0093768025 0.017924432 0.0019494813 -0.01492239
-0.060252912 -0.02909023 0.052964173 -0.0035518429 -0.0101086935 0.020111974 0.006523957 -0.03385078
0.026226861 -0.018196972 -0.03464855 -0.041038405 -0.03962528 0.009329195 -0.038549963 -0.018159844
00000000: 5c60 59bc bf55 d63c a395 8b3c bc83 34bd
00000010: 2e64 053d c7c8 9b3c c8ad 95bb 306e d6bc
00000020: 7172 24bc af0e 4e3c 4d3a 7fbc 344d 293d
00000030: 8622 babb e985 333c eb32 a23c d9fd a5bc
00000040: 9f63 fd3c 8636 613c a3f5 393d 457a 2abc
00000050: 12db 6f3b 1363 b6bc 033c 793b 382d fdbb
00000060: 3dfe 0fbd db14 c7bb 5126 e9bc 129b 64bc
00000070: 57f0 ba3c f463 013c b489 983c dd38 5cbb
00000080: 5b04 613c 4bd3 133d 860e 82bc 4d5a fc3c
00000090: e64e 47bc 3485 d2bc d3a4 e4bc 91b7 b5bc
000000a0: ae1d 81bc 8401 053d d53c 00bc 391b 97bb
000000b0: 29a1 193c 42d6 923c bd85 ff3a 0a7d 74bc
000000c0: c2cb 76bd a24e eebc f6f0 583d 09c6 68bb
000000d0: ef9e 25bc dec1 a43c ebc6 d53b 1ea7 0abd
000000e0: b7d9 d63c d111 95bc a3eb 0dbd e317 28bd
000000f0: 1e4e 22bd 7bd9 183c 91e6 1dbd f4c3 94bc

actor.4.weight f4 [4, 64]
-0.12965102 -0.013313215 -0.0914761 0.1190672 -0.15695608 -0.056968953 0.11202335 0.13435644
0.11849361 -0.11654651 0.026143221 -0.042510428 0.112777516 -0.1272128 -0.13219191 0.12830998
-0.048715472 -0.13503145 0.005304605 0.011942961 0.0722741 0.1378744 -0.08328999 0.038540963
-0.0022237287 0.097728826 0.16630381 0.13618577 -0.11767018 -0.13814625 -0.107871994 -0.077034555
-0.11148437 -0.12328524 -0.07247709 -0.15288337 0.03887821 0.12891148 0.08936866 0.00927277
0.025972767 -0.074914314 0.09229226 -0.12596972 -0.04086763 -0.15270418 0.08013792 0.14995798
0.17321129 0.08263427 -0.1383178 0.15830821 -0.057073604 0.01177624 -0.120447464 0.13158822
0.11208072 -0.123504266 0.15919627 0.11212674 0.18209821 -0.054640587 0.048506185 0.050671816
0.21069135 -0.34708375 -0.24248356 0.2673091 -0.19774283 -0.08603416 -0.15459059 0.0004223326
-0.17066565 -0.0060883616 -0.27227524 -0.28951865 0.31938186 -0.35128057 -0.2296442 0.2506107
0.21580522 -0.15637794 0.29638773 -0.29977614 -0.3022374 -0.093509406 -0.084854595 -0.2961611
-0.1539707 0.3532043 -0.11108963 0.3090574 0.061138876 0.04332467 0.08354806 0.22030777
-0.16132696 -0.31005454 0.14413111 0.13579722 -0.13354616 0.2674212 0.3154116 -0.24231355
0.25594118 0.21254422 0.18702196 -0.3627595 -0.31121966 -0.2747872 0.28877446 0.314667
0.009643324 0.3155947 -0.06653483 -0.19477138 -0.14999296 0.29929903 0.1668673 0.20865671
-0.07588695 0.05686382 0.32491103 0.073214374 0.07590098 -0.2549326 -0.29691055 0.08090591
0.21658513 0.0661401 0.21932295 -0.26906928 0.2763187 0.1518442 -0.2365392 -0.27807206
-0.24405834 0.2222565 -0.034820173 0.12771207 -0.22546194 0.26815397 0.2470262 -0.26785287
0.15864502 0.243609 -0.030409576 -0.03127544 -0.12062771 -0.26731005 0.16816579 -0.051956203
0.020554502 -0.21890208 -0.3070198 -0.29004794 0.25265136 0.23643377 0.24075231 0.1803026
0.22132976 0.27825004 0.14989498 0.2815945 -0.13237844 -0.2661537 -0.24030209 0.007538548
-0.07931208 0.18277018 -0.17895421 0.25685045 0.12162144 0.26888224 -0.19889416 -0.27835616
-0.3141296 -0.21925233 0.30311948 -0.24322651 0.13431874 -0.036213618 0.23386243 -0.2726913
-0.19697785 0.2192832 -0.31463417 -0.24335703 -0.2860124 0.11619958 -0.11201659 -0.12436949
-0.28202963 0.32635713 0.12248518 -0.13037504 -0.16533089 -0.10163191 0.28406623 0.29138872
0.30509013 -0.22870962 0.27608982 0.2515191 -0.22875758 0.22666183 0.026520297 -0.09059597
-0.27767512 -0.14603959 -0.28748772 0.304036 0.31534085 0.28821856 -0.12552552 0.29822418
0.13547795 -0.2760828 0.29828227 -0.19243203 -0.29016387 -0.28033885 -0.2148573 -0.28139254
-0.11563089 0.20952094 -0.24046998 -0.30301657 0.24321693 -0.07621795 -0.20998667 0.23646659
-0.23605984 -0.2659264 0.0058469614 0.2269617 0.276809 0.02151572 -0.23401754 -0.16539839
0.28566962 -0.23037787 -0.2589147 0.2828839 0.048246898 -0.29088256 -0.27701283 -0.016441602
0.24854285 -0.25037137 -0.16100776 0.16705562 0.27282056 0.23359762 0.31908703 0.057194
00000000: 3dc3 04be ac1f 5abc d257 bbbd 81d9 f33d
00000010: 18b9 20be 4758 69bd 806c e53d bc94 093e
00000020: c7ac f23d f0af eebd 4f2a d63c 6a1f 2ebd
00000030: e6f7 e63d 1244 02be 515d 07be b163 033e
00000040: e089 47bd af45 0abe 40d2 ad3b 69ac 433c
00000050: 7104 943d f22e 0d3e f193 aabd 21dd 1d3d
00000060: fabb 11bb 0d26 c83d 8c4b 2a3e 4874 0b3e
00000070: 10fd f0bd 3676 0dbe feeb dcbd 4bc4 9dbd
00000080: eb51 e4bd f97c fcbd de6e 94bd 758d 1cbe
00000090: c23e 1f3d 5f01 043e ea06 b73d d1ec 173c
000000a0: d7c4 d43c ad6c 99bd b903 bd3d 35fe 00be
000000b0: d164 27bd 7c5e 1cbe 5a1f a43d 968e 193e
000000c0: 4d5e 313e 283c a93d 2ea3 0dbe 8c1b 223e
000000d0: 03c6 69bd 21f1 403c 29ad f6bd 10bf 063e
000000e0: 948a e53d ceef fcbd 5904 233e b4a2 e53d
000000f0: f477 3a3e cfce 5fbd 6cae 463d 408d 4f3d
00000100: 79bf 573e f6b4 b1be 9c4d 78be bddc 883e
00000110: 197d 4abe ad32 b0bd ff4c 1ebe 866c dd39
00000120: fac2 2ebe e180 c7bb a967 8bbe ca3b 94be
00000130: 0586 a33e 0cdb b3be d927 6bbe 0c50 803e
00000140: 0bfc 5c3e 8a21 20be 22c0 973e 427c 99be
00000150: dcbe 9abe dc81 bfbd 3fc8 adbd 6da2 97be
00000160: 7faa 1dbe 32d7 b43e f682 e3bd c63c 9e3e
00000170: c26c 7a3d 3675 313d 3f1b ab3d 5c98 613e
00000180: e532 25be 78bf 9ebe 1b97 133e 6d0e 0b3e
00000190: 53c0 08be 6eeb 883e a17d a13e 0b21 78be
000001a0: b90a 833e 31a5 593e af82 3f3e 9dbb b9be
000001b0: 2f58 9fbe e8b0 8cbe 3fda 933e 081c a13e
000001c0: 08ff 1d3c a195 a13e 6a43 88bd 2672 47be
000001d0: c197 19be b93d 993e 43df 2a3e 1baa 553e
000001e0: 9e6a 9bbd 09ea 683d bd5a a63e 6bf1 953d
000001f0: f971 9b3d 8786 82be a904 98be ffb1 a53d
00000200: 7ec8 5d3e 7674 873d 3296 603e 73c3 89be
00000210: a579 8d3e 0c7d 1b3e 5537 72be 765f 8ebe
00000220: 6eea 79be 3597 633e 999f 0ebd f4c6 023e
00000230: 7fdf 66be 7a4b 893e 70f4 7c3e 0324 89be
00000240: d773 223e a374 793e 811d f9bc ad1a 00bd
00000250: a90b f7bd dddc 88be a733 2c3e 07d0 54bd
00000260: ea61 a83c de27 60be b331 9dbe 2a81 94be
00000270: 855b 813e b21b 723e c687 763e 3fa1 383e
00000280: 45a4 623e ca76 8e3e 127e 193e 282d 903e
00000290: 378e 07be 4c45 88be c011 76be ed05 f73b
000002a0: 5f6e a2bd 1b28 3b3e c63f 37be e781 833e
000002b0: a914 f93d efaa 893e e9aa 4bbe b384 8ebe
000002c0: 98d5 a0be af83 60be 7a32 9b3e 5f10 79be
000002d0: da8a 093e bb54 14bd a279 6f3e 329e 8bbe
000002e0: 90b4 49be c68b 603e bb17 a1be 9632 79be
000002f0: 3870 92be 0cfa ed3d f468 e5bd 6eb5 febd
00000300: 3066 90be 4818 a73e 83d9 fa3d 0981 05be
00000310: 804c 29be 6424 d0bd 2171 913e e730 953e
00000320: c634 9c3e db32 6abe a55b 8d3e 1dc7 803e
00000330: 6d3f 6abe 0a1a 683e 1841 d93c 618a b9bd
00000340: 6f2b 8ebe 678b 15be 9731 93be 9baa 9b3e
00000350: 5b74 a13e 6291 933e c389 00be d7b0 983e
00000360: bbba 0a3e ba5a 8dbe 74b8 983e e70c 45be
00000370: 5c90 94be 9388 8fbe 8d03 5cbe af12 90be
00000380: e3cf ecbd a88c 563e c33d 76be fd24 9bbe
00000390: dc0d 793e 2818 9cbd bf06 57be 4c24 723e
000003a0: acb9 71be 8127 88be de97 bf3b a668 683e
000003b0: e9b9 8d3e bc41 b03c 4ba2 6fbe 325e 29be
000003c0: 4a43 923e 2de8 6bbe 7890 84be 29d6 903e
000003d0: 8a9e 453d 8fee 94be a0d4 8dbe 8ab0 86bc
000003e0: 0482 7e3e ad30 80be 38df 24be a110 2b3e
000003f0: 23af 8b3e 3734 6f3e 605f a33e 4144 6a3d

actor.4.bias f4 [4]
0.01796811 -0.05393303 0.059800483 -0.053625472
00000000: dc31 933c e2e8 5cbd 5af1 743d 62a6 5bbd
