HFDRL_UNIT8/models/Archived/LunarLander-v3__ppo__1__1768735599__u180.ckpt (torch, 134281 bytes, 33 tensors)

critic.0.weight f4 [64, 8]
0	0xbe05cb38	-0.13065803
1	0x3dab6900	0.083696365
2	0x3d90a29e	0.07062267
3	0xbcd50d3e	-0.02600729
4	0xbd2962d2	-0.041354008
5	0x3e119e9e	0.14220664
6	0xbe9146ee	-0.28374428
7	0x3e0cf559	0.13765468
8	0xbe36b4c4	-0.17842394
9	0x3e881e4e	0.2658562
10	0x3e7795e9	0.2417828
11	0xbe3485dc	-0.17629188
12	0xbe40e0d2	-0.18835762
13	0xbe6fed89	-0.23430456
14	0x3e2ad70d	0.16683598
15	0xbd5f0efc	-0.05445765
16	0xbce92504	-0.028460033
17	0xbe8b5302	-0.27211767
18	0x3dba580d	0.090988256
19	0x3e8420c3	0.25806245
20	0x3a5d8bd9	0.000845132
21	0x3dbe21eb	0.09283813
22	0x3de301d9	0.11084337
23	0x3ed4b04b	0.4154075
24	0xbe40938c	-0.18806285
25	0x3e1c69fd	0.15274806
26	0x3c3b80af	0.011444255
27	0xbf09a5a4	-0.5376837
28	0x3e9047d2	0.28179795
29	0x3b689c41	0.0035493525
30	0xbe437ed7	-0.19091354
31	0xbdbfc08b	-0.093628965
32	0xbc6951c3	-0.014240685
33	0xbe04bb1b	-0.12962
34	0x3e230d69	0.15923084
35	0x3e30ffea	0.17285123
36	0xbbc71799	-0.006075811
37	0xbdfede9d	-0.12444804
38	0x3e86211b	0.26197132
39	0xbde4928c	-0.11160764
40	0xbcbff907	-0.023434175
41	0xbe9537e4	-0.29144204
42	0xbaa4dbc5	-0.0012577703
43	0xbb63085a	-0.003464243
44	0xbd092f57	-0.033492412
45	0x3e82f27a	0.2557562
46	0xbe5334fa	-0.20625678
47	0xbe5cc303	-0.21558766
48	0xbe99a83a	-0.3001116
49	0xbe4d7c33	-0.2006691
50	0xbcfd0fca	-0.030891318
51	0x3cee4368	0.029084876
52	0xbd6f1509	-0.05836967
53	0xbe5ce4ef	-0.21571706
54	0x3edcf488	0.43155313
55	0x3e3b2b25	0.18278177
56	0xbd6a90da	-0.057267047
57	0x3f068677	0.5254893
58	0x3e0c09fa	0.13675681
59	0x3e0a47ad	0.13503905
60	0xbd731a13	-0.05935104
61	0x3e2b9326	0.16755351
62	0x3e8b2466	0.27176207
63	0x3ec2ec1c	0.38070762
64	0x3e257841	0.16159154
65	0xbd3d8eb4	-0.04627867
66	0x3ea21679	0.3165777
67	0xbe6bd2d1	-0.23029639
68	0x3ec20a10	0.37898302
69	0xbd2220c1	-0.039582018
70	0xbd25c6f1	-0.04047293
71	0xbd2af925	-0.04174151
72	0x3ca08528	0.019594744
73	0x3e6e4b7f	0.23270987
74	0x3ea635d6	0.3246295
75	0xbe8f3153	-0.2796732
76	0x3e54e274	0.2078951
77	0x3d97e27e	0.07416247
78	0x3e79e287	0.2440282
79	0x3f0640d5	0.52442676
80	0xbda4b326	-0.08041982
81	0xbed7fc78	-0.42184806
82	0x3dd9b9ac	0.10631117
83	0x3ec410ca	0.3829406
84	0xbca7822f	-0.020447819
85	0x3e89f772	0.26946598
86	0xbdf3de79	-0.11907668
87	0xbe981dca	-0.29710227
88	0xbd767de8	-0.060178667
89	0x3ecf8fb3	0.4053932
90	0xbd268c07	-0.040660884
91	0xbcaf00f4	-0.02136276
92	0xbd83085a	-0.06398077
93	0x3e5c26a8	0.21499121
94	0xbe7957df	-0.24349926
95	0x3c921d86	0.017836343
96	0xbc4b6ad5	-0.012415607
97	0x3e8fb5d9	0.28068426
98	0x3d8d7ced	0.06908593
99	0xbd8b546a	-0.0680321
100	0xbdb1717c	-0.086642236
101	0x3c81b54e	0.015833523
102	0xbde60426	-0.1123126
103	0x3dfcc916	0.123430416
104	0xbd3aa5ed	-0.045568395
105	0xbe528079	-0.20556821
106	0x3e2b302e	0.16717598
107	0x3ecc1bd5	0.39864984
108	0xbd3080e6	-0.043091677
109	0x3cce9341	0.0252167
110	0xbe86c9e0	-0.26325893
111	0x3dfdcbb4	0.12392369
112	0xbd91c8f2	-0.071184054
113	0xbcdb8ad8	-0.026799604
114	0x3e162c16	0.14665255
115	0x3dbd7b4a	0.09252031
116	0x3d94781a	0.0724947
117	0x3cd092c6	0.025460612
118	0xbdcaebcf	-0.09908258
119	0xbd935b9c	-0.071952075
120	0xbd76918c	-0.060197398
121	0x3e31427e	0.17310521
122	0xbe74a9d4	-0.2389291
123	0xbe87ccc6	-0.26523417
124	0xbd4b7e83	-0.049681198
125	0x3e2efee5	0.17089422
126	0x3db51d6b	0.08843502
127	0xbd47d505	-0.048787136
128	0x3df0bdbc	0.11754939
129	0x3dff725e	0.12472986
130	0x3cc06768	0.023486808
131	0xbedbb14d	-0.42908707
132	0xbe069a3b	-0.13144772
133	0xbd861198	-0.065463245
134	0xbdee7e78	-0.11645216
135	0x3e58bae3	0.21165042
136	0xbdd5fdd4	-0.104488045
137	0x3dfe16dc	0.12406704
138	0x3eafe333	0.34353027
139	0x3e1197a7	0.14218007
140	0x3e9c9807	0.30584738
141	0xbe5201a6	-0.20508441
142	0x3d8bd328	0.06827384
143	0x3e837b85	0.25680175
144	0xbe953c19	-0.29147413
145	0xbe40fbef	-0.18846105
146	0x3e872c96	0.26401204
147	0x3e15dec6	0.14635763
148	0xbe39a5e3	-0.18129687
149	0x3ddd11ae	0.10794388
150	0xbc374fff	-0.011188506
151	0xbda2a820	-0.079422235
152	0xbd3a5b15	-0.04549702
153	0x3e9e2fea	0.3089593
154	0xbcd43ff0	-0.025909394
155	0xbe4193eb	-0.18904082
156	0x3d5a9483	0.053364288
157	0x3e477093	0.19476537
158	0xbe9b9937	-0.3039033
159	0xbe351177	-0.17682444
160	0x3e5bbeae	0.21459457
161	0x3bf9ad57	0.0076195407
162	0x3e5f0d3d	0.21782394
163	0xbc27c75b	-0.010240401
164	0x3dbd866f	0.09254157
165	0xbd8cfeff	-0.06884574
166	0xbc13b875	-0.009016146
167	0x3c51c282	0.012802722
168	0x3de8aa61	0.11360622
169	0x3da9ea01	0.08296586
170	0xbe2c6def	-0.16838811
171	0xbe912186	-0.2834589
172	0xbd91259f	-0.07087254
173	0x3db97da1	0.09057165
174	0xbe3da249	-0.18518938
175	0xbd9dd427	-0.077064805
176	0x3e3173d4	0.17329341
177	0xbb62f3fc	-0.003463029
178	0x3dea737b	0.114478074
179	0x3e52962e	0.20565102
180	0xbe423de4	-0.18968922
181	0xbe2d8c5a	-0.16948071
182	0xbdffae03	-0.12484362
183	0xbe5e46b4	-0.21706659
184	0x3e609c55	0.21934636
185	0x3dd0dac8	0.10197979
186	0xbd8d0811	-0.06886304
187	0x3cfd1f01	0.030898573
188	0x3e384a4b	0.1799709
189	0xbde8fb91	-0.113761075
190	0x3c6a02e5	0.014282917
191	0xbe91bbe0	-0.2846365
192	0xbd46173c	-0.048362
193	0x3de9c220	0.114139795
194	0x3e084b5d	0.13309999
195	0xbe15a461	-0.14613487
196	0x3d9daad9	0.07698602
197	0xbe3c2d68	-0.18376696
198	0xbf17271c	-0.5904405
199	0xbe26c9c0	-0.16287899
200	0xbd99d4e3	-0.07511308
201	0x3ea732ad	0.3265585
202	0x3d7033ef	0.058643278
203	0xbc4947a5	-0.012285148
204	0x3d836417	0.06415575
205	0xbe499db3	-0.19689064
206	0x3d9b06c8	0.07569653
207	0xbd880037	-0.06640666
208	0xbdb82116	-0.08990686
209	0x3c2102a6	0.009827292
210	0x3d904155	0.07043711
211	0x3cd13515	0.025538007
212	0x3e78fd03	0.24315266
213	0xbe104a9b	-0.1409096
214	0x3ddd5b6e	0.108084545
215	0x3e25aa9c	0.16178364
216	0xbd837818	-0.064193904
217	0xbe0eba76	-0.13938317
218	0xbd693fb2	-0.05694551
219	0x3d9fefc6	0.07809405
220	0xbe8d9af6	-0.27657288
221	0x3e4dd1cf	0.20099567
222	0x3dfe9a70	0.124318
223	0x3ea092ee	0.31362098
224	0x3e880f24	0.2657405
225	0x3d1a8892	0.0377279
226	0xbe844053	-0.25830325
227	0xbd7a77fd	-0.061149586
228	0xbdfb9c45	-0.122856654
229	0xbc0d849e	-0.008637575
230	0xbec387c5	-0.3818952
231	0xbdee73fd	-0.11643217
232	0x3e07a988	0.13248265
233	0x3ed65ac0	0.41866112
234	0xbe26a40b	-0.16273515
235	0x3e8eb27b	0.27870545
236	0xbe4784de	-0.19484279
237	0x3d8856f0	0.06657207
238	0x3c24c80a	0.010057459
239	0xbed91cc1	-0.4240475
240	0xbe7caa53	-0.24674349
241	0xbdec07ae	-0.11524902
242	0xbe485056	-0.19561896
243	0x3cda3f8f	0.026641635
244	0x3e49f3de	0.19721934
245	0xbdf21c1e	-0.11821769
246	0x3df32cf3	0.11873808
247	0x3eb50b3f	0.35360143
248	0xbe0846a1	-0.13308193
249	0x3ef35a41	0.47529796
250	0x3e18a5c7	0.14906989
251	0xbde5e1f8	-0.11224741
252	0x3e470800	0.19436646
253	0x3e20d167	0.1570488
254	0xbde3542f	-0.11100041
255	0xbe596418	-0.21229589

critic.0.bias f4 [64]
0	0xbe363fae	-0.1779773
1	0x3deb0366	0.114752576
2	0x3d8a1a82	0.06743337
3	0xbe0e2fe2	-0.13885453
4	0x3e129215	0.14313538
5	0x3d4ad4ec	0.049519464
6	0x3d5b59f9	0.0535526
7	0x3e49ef13	0.19720106
8	0xbe3a0086	-0.18164262
9	0x3e1fc8ce	0.15603945
10	0x3ceb771a	0.028743315
11	0xbe12d0e1	-0.14337493
12	0x3e1a89cb	0.15091626
13	0x3e2c8b28	0.16849959
14	0x3afacb81	0.0019134135
15	0xbe45ca11	-0.19315363
16	0x3e111b12	0.14170483
17	0x3dda0157	0.10644787
18	0xbe2045bd	-0.15651603
19	0xbe12341b	-0.14277689
20	0xbe3ea41b	-0.18617289
21	0x3c69c6c5	0.014268582
22	0xbdf9a071	-0.12188805
23	0xbe3a8cdc	-0.18217796
24	0xbdb42dd4	-0.087978035
25	0xbdec34d7	-0.11533516
26	0x3e2bbbab	0.16770808
27	0x3e2f1e16	0.1710132
28	0xbe1e3fd9	-0.15454043
29	0xbe26ff85	-0.1630841
30	0x3e403553	0.18770342
31	0xbdec696f	-0.11543547
32	0xbe259889	-0.16171469
33	0xbe2f2b7a	-0.17106429
34	0x3e46a11f	0.193974
35	0x3e2d7cd9	0.16942157
36	0xbe1f5541	-0.15559866
37	0xbe24350c	-0.16035861
38	0xbe1be2bf	-0.15223216
39	0x3e1f1830	0.1553657
40	0x3dff7a27	0.124744706
41	0x3e24818b	0.16065042
42	0xbe1130f2	-0.14178827
43	0xbbe053e1	-0.0068459366
44	0xbe1b81dd	-0.15186258
45	0xbdc4af01	-0.09603692
46	0xbde943ab	-0.1138986
47	0xbe29e170	-0.16589904
48	0xbe38bfa7	-0.1804186
49	0xbe175937	-0.14780127
50	0xbe17cc1d	-0.14823957
51	0x3e1b1ee2	0.151485
52	0xbe23fd71	-0.16014649
53	0xbd12335d	-0.035693515
54	0xbdf28251	-0.11841262
55	0xbe15859b	-0.14601748
56	0xbe42d149	-0.19025148
57	0xbdd51585	-0.10404495
58	0xbe256772	-0.16152743
59	0xbdc61841	-0.09672595
60	0xbe14fb4d	-0.14548989
61	0x3c748dd0	0.014926389
62	0xbe28a542	-0.16469291
63	0xbe2f27e1	-0.17105056

critic.2.weight f4 [64, 64]
0	0x3e80f88f	0.25189635
1	0xbf07aded	-0.52999765
2	0xbe45c8d2	-0.19314888
3	0x3e8252cb	0.2545379
4	0xbe302c2d	-0.17204352
5	0xbe16da56	-0.14731726
6	0x3dc207bb	0.09474131
7	0xbebb0af1	-0.36531785
8	0x3ca98d78	0.02069734
9	0x3e9ff962	0.3124495
10	0xbe3beb21	-0.18351413
11	0xbcd232c0	-0.025658965
12	0xbdaaab76	-0.08333485
13	0xbe6b53fd	-0.22981258
14	0xbe443f6d	-0.1916482
15	0x3e7130a8	0.23553717
16	0x3d4cbe9d	0.04998647
17	0xbe372685	-0.17885788
18	0x3d1b1de0	0.037870288
19	0x3e4384aa	0.19093576
20	0xbd011ea1	-0.03152335
21	0x3df8f301	0.12155724
22	0x3e22e506	0.15907678
23	0x3e2dc387	0.16969119
24	0x3eb2e3a0	0.3493929
25	0x3e362608	0.17787945
26	0x3e225901	0.15854265
27	0xbd598cb4	-0.0531127
28	0x3d7f4c33	0.06232853
29	0x3e417501	0.1889229
30	0xbd5b441f	-0.053531762
31	0x3dffa6cf	0.12482988
32	0xbbfbcf00	-0.0076845884
33	0x3e5d549f	0.21614312
34	0x3e3261c4	0.17420107
35	0xbdb50835	-0.08839456
36	0xbea7abe3	-0.32748327
37	0xbe831e8f	-0.25609252
38	0xbdb648f3	-0.08900633
39	0xbf0ce587	-0.5503773
40	0x3e4c3e02	0.19945529
41	0xbe4d062a	-0.20021883
42	0x3cca6fc4	0.024711497
43	0xbde840c5	-0.11340479
44	0xbe82f19f	-0.25574967
45	0x3e2cc885	0.16873367
46	0x3e03bd29	0.12865128
47	0x3ea1ae17	0.31578133
48	0x3d92ba24	0.0716441
49	0x3e857499	0.2606552
50	0xbd9cc4e4	-0.076547414
51	0xbdb36dbb	-0.08761164
52	0x3e051328	0.12995589
53	0xbd9e9a8b	-0.077443205
54	0xbcbe96cb	-0.023265263
55	0x3e0bdc9d	0.13658376
56	0x3e38b191	0.18036486
57	0xbca49c9f	-0.020094214
58	0x3d6fd862	0.058555968
59	0x3d6097d7	0.054832306
60	0x3e746a25	0.23868616
61	0x3e8a3d5e	0.26999944
62	0xbe746242	-0.23865607
63	0x3da398fd	0.079881646
64	0x3eb06643	0.3445302
65	0x3d6bf08b	0.057602447
66	0x3d248fcf	0.04017621
67	0x3d71666a	0.05893556
68	0xbe2b9112	-0.16754559
69	0xbdf8e006	-0.12152104
70	0x3dfb1b38	0.12261051
71	0xbea7fcd7	-0.3281009
72	0x3d1bc117	0.03802594
73	0xbebb683d	-0.36602965
74	0x3d8e5ee8	0.06951696
75	0xbddee423	-0.108833574
76	0x3ea3759f	0.31925675
77	0x3e867189	0.26258495
78	0xbd6f34cf	-0.05839997
79	0x3e875d4b	0.26438364
80	0xbdf9c562	-0.12195851
81	0xbeb7a46a	-0.35867625
82	0x3ef69b39	0.481653
83	0xbe055ab3	-0.1302288
84	0x3e1b06cb	0.1513931
85	0x3c0f1545	0.008733098
86	0x3d250323	0.040286195
87	0x3e2342b9	0.15943421
88	0xbd0bd81f	-0.034141656
89	0x3da399cc	0.07988319
90	0xbe4579e6	-0.19284782
91	0xbddb62aa	-0.10712178
92	0x3e9f25a7	0.31083414
93	0x3e8e9eb8	0.27855468
94	0xbe1a2f42	-0.1505709
95	0x3e0c6cfc	0.13713449
96	0x3e53e17b	0.20691483
97	0x3e3371df	0.17523907
98	0xbe316908	-0.17325222
99	0xbe816deb	-0.25279173
100	0x3dcb8eff	0.09939384
101	0xbc76441d	-0.015030888
102	0xbd2dcf67	-0.042434122
103	0x3e27cadd	0.1638598
104	0xbc92b136	-0.017906766
105	0xbe152481	-0.14564706
106	0x3e927ad1	0.28609326
107	0xbb2825c9	-0.0025657287
108	0x3e5a6ec8	0.21331322
109	0x3dc426de	0.09577726
110	0x3e89febb	0.26952156
111	0x3d990616	0.07471864
112	0x3ede4d99	0.43418577
113	0xbdb79665	-0.08964232
114	0x3dd23247	0.10263496
115	0xbe3767a3	-0.17910628
116	0x3e170c39	0.14750756
117	0xbcbad094	-0.022804536
118	0xbc9034d5	-0.017603317
119	0xbc9948af	-0.018711416
120	0x3ede5378	0.43423057
121	0xbdd81131	-0.10550154
122	0x3e8ad3dc	0.2711476
123	0x3e522640	0.20522404
124	0x3e5ba844	0.21450907
125	0x3d9fc89b	0.07801934
126	0xbe39f774	-0.18160802
127	0x3d867bb9	0.06566567
128	0xbe56afe5	-0.20965536
129	0x3dfbd362	0.122961774
130	0x3e7e33e2	0.24824479
131	0x3bd858a3	0.006602363
132	0x3ee46394	0.44607222
133	0x3b4a7663	0.0030893318
134	0x3df3e064	0.119080335
135	0x3e6ffd3a	0.23436442
136	0xbe9de408	-0.30838037
137	0x3eae7148	0.34070802
138	0xbe23b245	-0.15985973
139	0xbe982acd	-0.29720154
140	0xbd8f1458	-0.06986302
141	0x3ea815b6	0.32829064
142	0x3dc4af88	0.096037924
143	0xbea6c57f	-0.32572553
144	0xbebf7c4f	-0.37399527
145	0x3bb24818	0.005440723
146	0x3d75d39d	0.060016263
147	0xbe2a59a8	-0.16635764
148	0xbe40c0c1	-0.1882353
149	0xbddd5e91	-0.10809053
150	0xbdee6337	-0.116400175
151	0xbd895d1f	-0.067072146
152	0xbe4fa375	-0.20277198
153	0xbc71e993	-0.014765161
154	0x3ef0a348	0.46999574
155	0x3e8a28f1	0.2698436
156	0x3c3b7833	0.011442232
157	0xbefb84b9	-0.49124697
158	0xbe19d57a	-0.15022841
159	0xbec2d7d2	-0.38055283
160	0x3e737932	0.23776701
161	0x3d367fd6	0.044555508
162	0xbd2ced86	-0.042218708
163	0x3dfef4ef	0.12449061
164	0xbd9f6033	-0.077820204
165	0xbde28d87	-0.110621504
166	0x3c126552	0.008935289
167	0x3e460d75	0.19341071
168	0x3ddbaa6c	0.10725865
169	0xbea56c26	-0.32309073
170	0x3e8d4251	0.27589658
171	0x3db90eb5	0.09036008
172	0x3d086084	0.03329517
173	0xbe67c07a	-0.22632018
174	0x3eb98463	0.36233816
175	0x3d47f4b4	0.04881735
176	0x3cd8bc5e	0.026457008
177	0xbdb12500	-0.08649635
178	0x3d3bf01f	0.045883294
179	0x3be3e220	0.0069544464
180	0xbe44b72d	-0.19210501
181	0x3e02d9c0	0.12778378
182	0x3da4a4bb	0.08039232
183	0xbd88073b	-0.06642004
184	0xbea5d475	-0.32388654
185	0xbd06fad2	-0.032954045
186	0x3d9ec6e4	0.07752779
187	0xbe7d7291	-0.24750735
188	0x3bc68f46	0.00605956
189	0x3ca8ae1d	0.020590836
190	0xbd8f47b8	-0.06996101
191	0xbcbe9d77	-0.023268444
192	0x3eabcba3	0.335538
193	0x3e3d6ac3	0.18497758
194	0xbe579c01	-0.21055605
195	0x3e880318	0.2656486
196	0xbe37bd65	-0.17943342
197	0xbe4d543a	-0.20051661
198	0xbf28415d	-0.65724736
199	0xbe196f55	-0.14983876
200	0x3e168b6b	0.14701621
201	0x3d2ec045	0.04266383
202	0x3dc179dc	0.09447071
203	0x3db36598	0.08759612
204	0xbda81e02	-0.082088485
205	0x3e1ce479	0.1532153
206	0x3aea0dc0	0.0017856881
207	0x3e8e488a	0.27789718
208	0xbda7b2a9	-0.081883736
209	0x3d17ce44	0.037061945
210	0xbd959b74	-0.07305041
211	0x3e4f8dab	0.20268886
212	0xbd9d3a29	-0.07677109
213	0x3df6517a	0.12027259
214	0x3ed38b2b	0.41317114
215	0x3e8ec3e8	0.2788384
216	0xbe0107a6	-0.12600574
217	0x3d3f0494	0.046635225
218	0xbea225f8	-0.31669593
219	0xbe83099f	-0.25593278
220	0xbd07b4d4	-0.033131436
221	0xbeab92a8	-0.33510327
222	0x3e0773ac	0.13227719
223	0x3e50c284	0.20386702
224	0x3dacb494	0.0843288
225	0x3e54f4eb	0.20796554
226	0xbd9ee456	-0.077583954
227	0xbe3c485a	-0.18386975
228	0xbde03954	-0.109484345
229	0xbe86831c	-0.26271904
230	0x3e28f8c4	0.16501147
231	0xbe1e1013	-0.1543582
232	0x3dbe284a	0.09285028
233	0xbd37fcfb	-0.044918995
234	0x3e10658f	0.14101242
235	0x3d9ed046	0.07754569
236	0xbe0781fa	-0.13233176
237	0x3ed408ab	0.41412863
238	0xbd63158e	-0.055440478
239	0x3dd4fd1e	0.10399841
240	0x3e8d770d	0.2762989
241	0x3dec1863	0.11528089
242	0xbe52cf1d	-0.2058682
243	0xbddcd18f	-0.10782158
244	0x3e406403	0.18788151
245	0xbd9e59c7	-0.077319674
246	0xbd6290d6	-0.055313908
247	0xbe906945	-0.28205314
248	0x3e3e0de2	0.18559983
249	0xbdf93f43	-0.12170269
250	0x3e1fa440	0.1559
251	0x3e501bc2	0.20323089
252	0xbe28b961	-0.16476966
253	0xbe79163d	-0.2432489
254	0xbe1b244e	-0.15150568
255	0x3ba83940	0.005133778

critic.2.bias f4 [64]
0	0xbe0df614	-0.13863403
1	0xbe093d6d	-0.13402338
2	0x3e0c413d	0.13696761
3	0xbe336302	-0.17518237
4	0xbe2f2dd5	-0.17107327
5	0xbe020ecc	-0.12700957
6	0x3e116b1a	0.14201012
7	0xbe26e6a8	-0.16298926
8	0xbe201dce	-0.1563637
9	0xbe413d88	-0.18871129
10	0xbe08865f	-0.13332509
11	0xbe038750	-0.12844586
12	0xbe252661	-0.16127922
13	0xbe2a387b	-0.16623108
14	0xbe13f25b	-0.1444792
15	0x3e0ff11c	0.1405682
16	0xbe0b0e3b	-0.13579647
17	0xbe0555c4	-0.13020998
18	0xbe1053c0	-0.14094448
19	0x3e0c413e	0.13696763
20	0xbe02b029	-0.12762512
21	0x3e234167	0.15942918
22	0xbe1789b8	-0.1479863
23	0x3da02085	0.078187026
24	0xbe145d40	-0.14488697
25	0x3e031f55	0.12804921
26	0x3e05a1ea	0.13050047
27	0x3e02fb1c	0.12791103
28	0x3e105651	0.14095427
29	0xbe13f083	-0.14447217
30	0x3e03ea11	0.12882258
31	0xbe10c6b8	-0.14138305
32	0xbe0138d5	-0.12619336
33	0x3e19a160	0.15002966
34	0x3e1af1f3	0.15131359
35	0xbe0cc870	-0.13748336
36	0x3e09a45f	0.13441609
37	0x3e0a4ccd	0.1350586
38	0xbe084a49	-0.13309588
39	0xbe0d9a80	-0.13828468
40	0xbe49a592	-0.19692066
41	0xbe1116f9	-0.1416892
42	0x3e117201	0.14203645
43	0xbe09c30b	-0.13453309
44	0x3e2d2941	0.16910268
45	0x3e385ede	0.18004939
46	0x3e081a54	0.13291293
47	0xbe10b22d	-0.14130469
48	0x3e267751	0.16256453
49	0xbd9880e8	-0.07446462
50	0x3e11d531	0.14241482
51	0x3df2685b	0.118363105
52	0x3e120fd2	0.14263847
53	0x3e1f7c7a	0.15574828
54	0xbe0b3449	-0.13594164
55	0x3e003212	0.125191
56	0x3e0e28f2	0.13882807
57	0xbe09f905	-0.134739
58	0x3df9357d	0.12168405
59	0x3e06c434	0.13160783
60	0xbe14dcca	-0.1453735
61	0xbd4ecdc8	-0.050489217
62	0x3e035b22	0.12827733
63	0x3df44e6b	0.119290195

critic.4.weight f4 [1, 64]
0	0x3e5e01e4	0.21680409
1	0x3e417c06	0.18894967
2	0xbe40b4e9	-0.18819012
3	0x3e12af89	0.14324774
4	0x3e09662a	0.13417879
5	0x3ec7e55c	0.39042175
6	0xbe2aa9f5	-0.16666396
7	0x3e06b1df	0.1315379
8	0x3e0ceb4f	0.13761638
9	0x3de91918	0.113817394
10	0x3e949e7e	0.2902717
11	0x3e17955f	0.14803074
12	0x3e2aa086	0.16662797
13	0x3e2b2816	0.1671451
14	0x3e823394	0.25429976
15	0xbe458b51	-0.19291426
16	0x3e459dc5	0.19298466
17	0x3e844daf	0.25840518
18	0x3e27e3c1	0.16395475
19	0xbdb987d8	-0.09059113
20	0x3e8b70b2	0.27234417
21	0xbe24aee2	-0.16082337
22	0x3e0bed4b	0.13664739
23	0xbdb2a458	-0.08722752
24	0x3e1ca206	0.15296182
25	0xbea4fd7d	-0.32224646
26	0xbe9b2998	-0.3030517
27	0xbee7f5ed	-0.45304814
28	0xbe478e0b	-0.19487779
29	0x3e7c0bed	0.24613924
30	0xbea44cea	-0.3208993
31	0x3e4960d0	0.19665837
32	0x3ec0b5e5	0.37638775
33	0xbe44e873	-0.19229297
34	0xbe1feca1	-0.1561761
35	0x3e7a48bb	0.24441807
36	0xbe8565d5	-0.26054254
37	0xbed5acf2	-0.4173351
38	0x3e8eecdc	0.27915084
39	0x3e876b69	0.26449135
40	0x3dfb2832	0.12263526
41	0x3e9e913e	0.30970186
42	0xbe3f14bf	-0.18660258
43	0x3e8abd4b	0.27097544
44	0xbe0524be	-0.13002297
45	0xbde749eb	-0.112933956
46	0xbeb9dbaf	-0.36300418
47	0x3e47b6b3	0.19503288
48	0xbe08c293	-0.13355474
49	0x3d70e52a	0.058812298
50	0xbe7ed6b1	-0.24886586
51	0xbeb11ee9	-0.34593895
52	0xbe4d1dcd	-0.200309
53	0xbdedc467	-0.116097264
54	0x3e81b5ea	0.25334102
55	0xbed5ea96	-0.41780537
56	0xbe5cf79e	-0.21578833
57	0x3e82d980	0.25556564
58	0xbdc90149	-0.09814698
59	0xbe8e917a	-0.27845365
60	0x3e5d5f9a	0.216185
61	0x3e1ded82	0.15422633
62	0xbed2d648	-0.4117911
63	0xbf010735	-0.5040162

actor.0.weight f4 [64, 8]
0	0xbd749693	-0.05971391
1	0x3cc3724c	0.023858212
2	0x3e626edb	0.221126
3	0xbdc36429	-0.095405884
4	0xbf1ae332	-0.6050292
5	0xbe4326ac	-0.19057721
6	0x3d6bf245	0.057604093
7	0x3e5ce75a	0.21572629
8	0xbe6eb922	-0.2331281
9	0x3dbab127	0.091158204
10	0xbd8eb4ce	-0.069680795
11	0x3f18133d	0.59404355
12	0x3e3abe57	0.18236671
13	0xbda4d2cd	-0.080480196
14	0xbda2ce8d	-0.07949553
15	0x3e25f718	0.1620754
16	0x3ad48a18	0.0016215472
17	0xbe9037d0	-0.28167582
18	0xbd6f8633	-0.05847759
19	0xbf0ff5d0	-0.56234455
20	0x3e89359d	0.26798716
21	0xbd32ab34	-0.043620303
22	0xbeb8b37c	-0.36074436
23	0xbe97cf57	-0.29650375
24	0xbd9d3520	-0.076761484
25	0xbcd20386	-0.025636446
26	0xbe56dc77	-0.20982538
27	0xbe0dd717	-0.13851582
28	0x3eca1cd5	0.39475122
29	0xbd94952d	-0.072550155
30	0xbe466bc1	-0.19377042
31	0xbe878c52	-0.26474243
32	0x3e012fe0	0.12615919
33	0xbd4fd109	-0.05073646
34	0xbdef7e67	-0.11694031
35	0xbe42f282	-0.19037822
36	0x3e68a76b	0.22720115
37	0x3e2c5f93	0.16833334
38	0x3e428a66	0.18998107
39	0xbea35d5f	-0.31907174
40	0xbdd42eed	-0.10360513
41	0xbe82fae1	-0.2558203
42	0x3d81b766	0.063338086
43	0x3ebffb77	0.3749654
44	0xbe98cbfd	-0.2984313
45	0x3d20c547	0.03925064
46	0x3d7b6600	0.06137657
47	0x3ddd863c	0.10816619
48	0xbea9e1be	-0.3318004
49	0xbb6091d1	-0.00342666
50	0xbd93e200	-0.072208405
51	0xbd70d66d	-0.058798242
52	0xbe7c2750	-0.24624372
53	0xbd3b9cd3	-0.045803856
54	0x3e175dfb	0.14781944
55	0xbeae0fa0	-0.33996296
56	0xbdecfd2c	-0.11571726
57	0xbe55b10a	-0.20868316
58	0x3e81b4e6	0.25333327
59	0x3ee3955f	0.444499
60	0xbf224a47	-0.6339459
61	0xbf01daab	-0.50724286
62	0x3dd560ed	0.10418878
63	0x3e36242f	0.1778724
64	0xbe55547e	-0.20833012
65	0x3e175b7e	0.14780995
66	0xbef97c5c	-0.4872769
67	0xbed0d3c7	-0.40786573
68	0x3ebdd5e8	0.3707726
69	0x3eb2b56d	0.34904042
70	0xbf0c6475	-0.54840785
71	0x3d8dc7b8	0.06922859
72	0xbdf07904	-0.11741832
73	0x3cf2caea	0.029637773
74	0x39b6ac88	0.0003484229
75	0x3e431cac	0.19053906
76	0xbe8ff20b	-0.28114352
77	0xbeb55a4d	-0.35420457
78	0xbdf1fd22	-0.118158594
79	0x3e173a43	0.14768319
80	0xbd8332c0	-0.06406164
81	0x3d9dbe1f	0.07702278
82	0x38f0d0c5	0.00011482978
83	0x3cb721f5	0.02235506
84	0xbec242c1	-0.37941554
85	0x3c3a2d8b	0.011363397
86	0x3e8abe26	0.27098197
87	0x3e3cacc6	0.18425283
88	0x3cba53f4	0.02274511
89	0xbdb0559b	-0.08610078
90	0x3ce9d866	0.02854557
91	0xbb137739	-0.0022501482
92	0xbef08ccb	-0.46982417
93	0xbe98c484	-0.2983743
94	0x3debbc04	0.115104705
95	0xbe2d546a	-0.16926733
96	0xbe4b94ae	-0.19880936
97	0xbddb1fd2	-0.106994286
98	0xbe7d2964	-0.2472282
99	0xbe8bbf49	-0.27294376
100	0x3e8ecd70	0.2789111
101	0x3ec81581	0.39078906
102	0xbcd63c84	-0.026151903
103	0xbe127d16	-0.14305529
104	0xbea4eccf	-0.3221192
105	0x3ea6b6d0	0.3256135
106	0x3d8d57fc	0.06901547
107	0x3db43de9	0.08800871
108	0x3c43db8f	0.011954202
109	0xbd9d5fba	-0.07684274
110	0x3e82d829	0.25555542
111	0x3cd67cd2	0.026182566
112	0xbe07e53d	-0.13271041
113	0xbe4070eb	-0.18793075
114	0x3ec5e8fb	0.38654312
115	0xbef0d669	-0.47038582
116	0xbe8ef3cd	-0.2792038
117	0xbd92bbbe	-0.07164715
118	0x3b4af206	0.003096701
119	0x3ce7d170	0.02829811
120	0xbe357f2b	-0.17724292
121	0x3dd2056f	0.102549426
122	0x3d903f71	0.070433505
123	0xbe1467d3	-0.14492731
124	0xbe8c1a0c	-0.27363622
125	0xbdfeab94	-0.1243507
126	0xbda792ba	-0.08182283
127	0x3ddc3653	0.10752549
128	0xbe91d23d	-0.28480712
129	0xbd7cf211	-0.06175429
130	0x3e26dfbf	0.1629629
131	0x3f038239	0.5137058
132	0xbe6a7f30	-0.2290008
133	0xbeb4fa45	-0.3534719
134	0x3c96a11d	0.018387372
135	0x3dde183e	0.108444676
136	0x3e2d07bd	0.16897483
137	0x3ddfc2a4	0.10925797
138	0xbe2c5914	-0.16830856
139	0xbe9d5a1e	-0.30732816
140	0x3c2e6bf2	0.010645853
141	0xbc2f2a13	-0.010691184
142	0x3e1c3d9b	0.15257876
143	0xbe4ed600	-0.20198822
144	0x3d3b419c	0.045716867
145	0x3db51209	0.088413306
146	0xbe9a40c0	-0.30127525
147	0x3df5039e	0.119635805
148	0x3ea04df8	0.31309485
149	0x3e2e70fe	0.1703529
150	0x3d0888ef	0.033333715
151	0x3be67f09	0.0070341867
152	0x3e10da13	0.14145689
153	0xbcd046ed	-0.025424445
154	0x3e5e786c	0.21725625
155	0xbde6d274	-0.112706095
156	0xbf0a5908	-0.540421
157	0xbebd7a70	-0.37007475
158	0xbe9caccc	-0.30600584
159	0xbe06fc9c	-0.131823
160	0xbd02ccb4	-0.0319335
161	0xbe22c3eb	-0.1589505
162	0xbe4a68ee	-0.1976659
163	0x3d541d76	0.05178591
164	0x3d0d5f53	0.034514736
165	0x3e602db0	0.21892428
166	0x3d9e3026	0.07724027
167	0x3e4692d6	0.19391951
168	0x3dcdc2b1	0.100469
169	0x3caa4651	0.020785483
170	0x3dccc819	0.09999103
171	0x3e4a8335	0.19776614
172	0xbed92a9c	-0.4241532
173	0xbecbd18d	-0.39808312
174	0x3d16ad68	0.036786467
175	0x3dc1a50d	0.09455309
176	0x3d01b083	0.031662475
177	0x3e1f86b3	0.15578727
178	0xbe263a4f	-0.1623318
179	0x3f1d7b76	0.6151651
180	0x3edd91d6	0.43275326
181	0x3ea11c7e	0.3146705
182	0x3df31afa	0.1187038
183	0xbc0a1b70	-0.008429393
184	0x3e8e644d	0.27810898
185	0x3e38eebb	0.18059818
186	0x3e45c9b1	0.1931522
187	0xbed66dc3	-0.41880617
188	0x3eead4ca	0.4586547
189	0x3e56068e	0.20900938
190	0xbe895155	-0.26819864
191	0xbd4eef11	-0.05052096
192	0xbe966473	-0.29373512
193	0x3cdef462	0.02721614
194	0xbdae9f9b	-0.08526536
195	0x3e8835f2	0.26603657
196	0xbe5e8a1c	-0.21732372
197	0xbe9f2a3f	-0.3108692
198	0x3d3ec8c7	0.046578195
199	0x3da718eb	0.081590496
200	0xbd0bd3a0	-0.03413737
201	0x3d9ddec2	0.07708503
202	0xbdfa608c	-0.12225446
203	0xbee909a1	-0.4551516
204	0x3b9a630f	0.0047115157
205	0x3e866873	0.26251563
206	0xbe4690a0	-0.19391108
207	0x3ceb426c	0.028718196
208	0x3da1daaf	0.07903039
209	0x3c4c04aa	0.012452284
210	0x3f0e747f	0.5564651
211	0x3e44851f	0.19191407
212	0xbe884d19	-0.2662132
213	0xbd8a788d	-0.067612745
214	0xbe59796e	-0.21237728
215	0x3e8e6f0a	0.2781909
216	0x3dda73b1	0.10666598
217	0xbe204ca6	-0.15654239
218	0xbdb40b5e	-0.087912306
219	0xbebce374	-0.36892283
220	0x3eeb54f1	0.45963243
221	0x3ef727ee	0.4827265
222	0x3d91dee6	0.07122593
223	0x3dae84a3	0.08521392
224	0x3c857efb	0.0162959
225	0xbe7ad58c	-0.24495524
226	0xbda2651b	-0.079294406
227	0xbe6b6cff	-0.22990797
228	0x3f0a1fc1	0.539547
229	0x3cbdf85e	0.02318972
230	0xbe2f89d6	-0.17142424
231	0xbd636e74	-0.05552526
232	0x3de65f24	0.112486154
233	0xbd73c0d0	-0.059510052
234	0x3c6dcda6	0.014514362
235	0xbf42ade2	-0.76046574
236	0xbe3e0023	-0.1855474
237	0xbf168929	-0.5880304
238	0xbddd06e4	-0.1079233
239	0xbdd491af	-0.103793494
240	0xbda5a519	-0.080881305
241	0xbd07d354	-0.033160523
242	0xbd2d69f3	-0.04233737
243	0x3f05c2c2	0.522503
244	0x3edc5f2a	0.43041354
245	0x3e434259	0.19068278
246	0x3aa91853	0.0012900926
247	0xbd0efe84	-0.034910694
248	0x3ddf4567	0.10901909
249	0xbc97507e	-0.018470999
250	0xbd198f42	-0.037490137
251	0x3eb92326	0.3615963
252	0x3e831362	0.25600725
253	0x3d7f2e64	0.0623001
254	0xbcb9d2b1	-0.022683473
255	0xbe66b4bb	-0.2252988

actor.0.bias f4 [64]
0	0x39905026	0.00027525536
1	0x3a39e0c4	0.00070906826
2	0x3d730576	0.05933138
3	0x3b8aa0d3	0.0042305975
4	0xbb314827	-0.0027051063
5	0xbb8e2c5c	-0.004338784
6	0xbc2dc761	-0.010606618
7	0x3d0dd258	0.034624428
8	0xbcfd77f3	-0.030940985
9	0x3d6a036d	0.057132173
10	0xbd01f28a	-0.031725444
11	0x3c6acb40	0.014330685
12	0x3bbbf70c	0.0057362374
13	0x3ca5be2c	0.020232283
14	0x3d2789e1	0.040902976
15	0xbd05ac33	-0.032634925
16	0xbaf2b694	-0.0018517547
17	0xbcbbeb12	-0.022939239
18	0x3c62efb3	0.013851094
19	0x3c1aa116	0.00943782
20	0x3c83f75a	0.016109157
21	0xbcaca89d	-0.021076495
22	0xbd4c1482	-0.049824245
23	0x3b3d13e1	0.002885096
24	0x3cbbf620	0.02294451
25	0x3cb37c02	0.021909717
26	0xbbbc6e84	-0.005750479
27	0x3d1d7e34	0.038450435
28	0x3d48187d	0.04885148
29	0x3c6f7c20	0.014616996
30	0xbcebb7c9	-0.028774159
31	0x3ba158f3	0.0049239337
32	0x3bae9f32	0.005329036
33	0x3c1a97b9	0.009435588
34	0x3ce45289	0.027871387
35	0xbd0e79fe	-0.03478431
36	0x3c5ae2f3	0.013359773
37	0x3d1af565	0.037831683
38	0xbc12903f	-0.008945524
39	0x3b8a1e0c	0.0042150076
40	0xbcfcb56a	-0.030848224
41	0x3c006a3b	0.007837827
42	0x3c552c4b	0.013011049
43	0xbc997f18	-0.01873736
44	0xbc7b483a	-0.015337044
45	0xbc883bc2	-0.016630057
46	0xbc265d2b	-0.010154049
47	0xbad42536	-0.0016185406
48	0x3cde3a9c	0.027127557
49	0xbcb39f6c	-0.021926604
50	0xbc5b400f	-0.013381972
51	0xbcdf808b	-0.027282974
52	0x3c65adb8	0.014018469
53	0x3c6d7e02	0.014495375
54	0xbb67aaf8	-0.0035349708
55	0xbc4722cc	-0.012154292
56	0xbd36c466	-0.044620894
57	0x3a79eb9b	0.0009533704
58	0xbb27eb11	-0.0025622288
59	0xbd194711	-0.03742129
60	0x3ca54fb4	0.020179607
61	0xbbeb63e6	-0.0071835397
62	0x3cf26f03	0.02959395
63	0xbd21f9a7	-0.039544728

actor.2.weight f4 [64, 64]
0	0x3e9723cd	0.295195
1	0xbd5386d5	-0.051642258
2	0x3e81380e	0.2523808
3	0xbec59eb6	-0.3859765
4	0x3de3f357	0.11130398
5	0x3decacd0	0.11556399
6	0xbe5fd200	-0.21857452
7	0x3e044c91	0.12919833
8	0x3dc2f4da	0.09519358
9	0xbe6f5886	-0.23373613
10	0x3e369ff7	0.17834459
11	0x3e37420e	0.17896292
12	0x3cbd2b59	0.023091959
13	0x3daf95dd	0.08573506
14	0xbd02483e	-0.031807177
15	0x3e52f695	0.20601876
16	0x3e39746a	0.18110815
17	0x3e9bff77	0.30468342
18	0x3d3f16b2	0.046652503
19	0x3ecde3e6	0.40212935
20	0xbdd6f028	-0.10495025
21	0x3e0993dd	0.13435312
22	0xbdb924b5	-0.090402044
23	0xba363585	-0.0006950724
24	0x3de2d3bd	0.11075542
25	0x3c804319	0.015656995
26	0x3e0cab69	0.13737263
27	0x3e26c225	0.16284998
28	0xbe10b083	-0.14129834
29	0x3eead859	0.45868185
30	0xbeb9287d	-0.36163703
31	0xbf0ab9b6	-0.5418962
32	0x3e517d9e	0.20458075
33	0x3e355f7c	0.17712206
34	0x3db5277d	0.088454224
35	0x3e9d64f9	0.307411
36	0x3e1cdc86	0.15318498
37	0x3dd1288e	0.10212813
38	0x3eafea5f	0.34358498
39	0x3d550283	0.05200435
40	0x3f104f90	0.563714
41	0xbde3a234	-0.11114922
42	0xbe44b7cb	-0.19210736
43	0x3e4caffc	0.19989008
44	0x3e84667c	0.2585944
45	0x3df94df8	0.121730745
46	0xbd51c6fa	-0.05121515
47	0xbd44858b	-0.04797892
48	0x3cd7bcb2	0.026335094
49	0x3d94adf5	0.07259742
50	0xbda69eb4	-0.08135739
51	0xbdcfd4d7	-0.10148018
52	0x3c8b32c8	0.016991988
53	0x3e7ea319	0.24866904
54	0x3e75951b	0.2398266
55	0xbe204d8c	-0.15654582
56	0x3d8f47cf	0.06996118
57	0x3e812753	0.25225314
58	0x3c73dab3	0.014883685
59	0x3e393b6f	0.18089078
60	0x3e6a19fe	0.22861478
61	0xbf16f055	-0.5896047
62	0x3eb6a9e0	0.3567648
63	0xbe89bb05	-0.26900497
64	0xbe007fcb	-0.12548749
65	0xbe15c568	-0.14626086
66	0x3e55df4e	0.20885965
67	0x3eb5a6f3	0.35478935
68	0x3e615afd	0.22007366
69	0xbe14912f	-0.14508508
70	0xbc88b175	-0.01668618
71	0xbee88cd1	-0.45419934
72	0x3cfa060a	0.030520458
73	0x3d8d3d11	0.06896413
74	0xbe2ad27c	-0.16681856
75	0xbe7a07a5	-0.24416979
76	0x3e66b8ff	0.22531508
77	0xbd522125	-0.05130114
78	0xbeb95224	-0.3619548
79	0x3e77312b	0.2413985
80	0xbebbeeab	-0.36705527
81	0xbdfa507d	-0.12222383
82	0x3ece0321	0.40236762
83	0x3cbe26b5	0.023211816
84	0x3d9eb590	0.07749474
85	0xbdb76a3f	-0.08955812
86	0xbd1aaf99	-0.03776512
87	0x3e4236ad	0.1896617
88	0xbe91e9f9	-0.2849882
89	0x3e82d7e1	0.25555328
90	0x3d8af356	0.06784694
91	0x3dbbcf7d	0.091704346
92	0x3c5e041e	0.013550786
93	0x3e2d0a31	0.16898419
94	0x3cd40bac	0.025884472
95	0x3da4aa20	0.08040261
96	0xbe7e25a1	-0.24819042
97	0xbe78c1f3	-0.24292736
98	0x3bc0275c	0.005864067
99	0x3e728b19	0.23685874
100	0xbed93a68	-0.42427373
101	0x3e6636d3	0.22481851
102	0x3d6d4414	0.057926252
103	0xbe72e275	-0.23719199
104	0xbe3153ee	-0.17317173
105	0xbdb6dcd2	-0.08928837
106	0x3edf2cd4	0.4358889
107	0xbe72be7e	-0.2370548
108	0xbef99047	-0.48742887
109	0xbd2b2009	-0.041778598
110	0x3e664d3e	0.22490403
111	0x3c8999d3	0.016796982
112	0x3d299e17	0.04141053
113	0xbed368f5	-0.41291013
114	0x3dac4f0a	0.08413513
115	0x3ea7507c	0.32678592
116	0x3de44adb	0.1114709
117	0x3bad6106	0.005291107
118	0xbe1a9911	-0.15097453
119	0xbc1b113b	-0.009464557
120	0x3e79a9d7	0.24381195
121	0x3e8c0ccc	0.27353513
122	0x3ce2c6b0	0.027682632
123	0xbe5622cc	-0.20911711
124	0xbd4393a3	-0.04774822
125	0x3ea5d5b9	0.3238962
126	0x3ea23e3e	0.31688112
127	0x3e7dacd2	0.24772957
128	0xbe26919a	-0.1626648
129	0xba00245e	-0.00048882316
130	0x3de34efe	0.11099051
131	0x3ea6077e	0.3242759
132	0xbc5a2205	-0.013313775
133	0xbbe21971	-0.0069000055
134	0xbe6c0c31	-0.23051526
135	0xbe03c673	-0.12868671
136	0x3f03a268	0.5141969
137	0xbdb37daf	-0.087642066
138	0x3df178e3	0.117906354
139	0xbebbacae	-0.36655182
140	0x3edd1d2f	0.43186328
141	0xbdbf4d13	-0.093408726
142	0x3d66cb6a	0.056346335
143	0xbc8e2ae3	-0.017354434
144	0xbc4935af	-0.012280866
145	0x3e45d51a	0.19319573
146	0xbcdfb81f	-0.027309475
147	0x3d103444	0.035206094
148	0xbcfec31b	-0.031098893
149	0xbc48b07f	-0.012249111
150	0xbe2a258f	-0.1661589
151	0x3e740268	0.23829043
152	0x3c82f7bd	0.015987271
153	0x3e806cfd	0.2508315
154	0xbe80e674	-0.25175822
155	0x3d92559d	0.07145236
156	0x3dab11bf	0.08352994
157	0x3e6544da	0.22389546
158	0xbe1b0601	-0.15139009
159	0xbe496a26	-0.19669399
160	0x3e21d6ec	0.15804642
161	0xbe6f1c41	-0.23350622
162	0x3e8e044e	0.2773766
163	0xbdca8696	-0.098889515
164	0x3df80613	0.121105336
165	0x3e706898	0.234774
166	0xbec039fe	-0.37544245
167	0xbcf25b2b	-0.029584488
168	0xbe1099d8	-0.14121187
169	0x3eae9773	0.34099922
170	0x3ddda0e6	0.108217046
171	0xbe9b2506	-0.30301684
172	0x3d2fac2f	0.042888816
173	0xbdf5cb05	-0.120016135
174	0x3d9a1b9b	0.075247966
175	0x3d1dda2a	0.038538136
176	0x3e739679	0.2378787
177	0xbf053ce8	-0.5204606
178	0x3b25669e	0.0025238167
179	0xbe751f64	-0.23937756
180	0x3e04c102	0.12964252
181	0xbe9f32f8	-0.31093574
182	0xbed7ecb4	-0.42172778
183	0xbe129569	-0.14314808
184	0x3e85a50e	0.2610249
185	0xbe931267	-0.28724977
186	0x3e654fa3	0.2239366
187	0x3ced601d	0.028976494
188	0x3eb7cf83	0.35900506
189	0x3e013ef3	0.1262167
190	0x3e47f7bd	0.19528098
191	0x3e292377	0.16517435
192	0xbe0c6ba0	-0.1371293
193	0x3b91a795	0.004445026
194	0xbeb737ca	-0.3578475
195	0xbe4c6a53	-0.19962434
196	0xbe1d0560	-0.15334082
197	0x3e688644	0.22707468
198	0xbe8c6493	-0.27420482
199	0x3eaeb46d	0.3412203
200	0xbed6041b	-0.41800007
201	0x3b956370	0.004558973
202	0xbd79ae36	-0.060957156
203	0x3eadd2ad	0.33949795
204	0xbe776609	-0.24160017
205	0xbebb5b4d	-0.36593094
206	0xbd38c10e	-0.045105986
207	0x3ec2b155	0.3802592
208	0x3ed46b17	0.41487953
209	0x3e13c981	0.14432336
210	0xbe79c2bb	-0.2439069
211	0x3dfada1f	0.122486345
212	0xbdaa62cb	-0.083196245
213	0x3ecdac9f	0.40170762
214	0xbd08e978	-0.03342578
215	0x3dde80c6	0.10864405
216	0x3d540eec	0.051772043
217	0xbef7c668	-0.4839356
218	0x3e63c886	0.22244462
219	0xbcd78dc6	-0.02631272
220	0xbf0c8e4c	-0.5490463
221	0xbd79dbdb	-0.061000686
222	0xbc82de5f	-0.015975175
223	0xbd26a380	-0.04068327
224	0xbe31e14f	-0.17371105
225	0xbd03740a	-0.032093085
226	0xbd2079d4	-0.039178684
227	0xbc71a0e8	-0.014747836
228	0x3b1299af	0.0022369435
229	0x3d0bb92e	0.034112148
230	0x3cacd746	0.021098744
231	0xbe1901cd	-0.14942093
232	0x3d300cc0	0.04298091
233	0xbde7b8f3	-0.11314573
234	0xbe780385	-0.24220093
235	0xbdf88b89	-0.12135989
236	0x3c973a18	0.018460318
237	0x3e9d6944	0.30744374
238	0x3cd650bc	0.026161544
239	0x3e1d0350	0.15333295
240	0xbe3726cc	-0.17885894
241	0x3e89e42b	0.2693189
242	0x3e609f5a	0.21935788
243	0xbdf11df9	-0.11773295
244	0xbe16f8d9	-0.14743365
245	0x3d32d152	0.043656655
246	0xbde25f49	-0.110533305
247	0x3d9873c4	0.074439555
248	0xbe035693	-0.12825994
249	0xbd9f7c0d	-0.07787333
250	0xbeae6201	-0.34059146
251	0x3e214725	0.15749796
252	0xbe8b5120	-0.2721033
253	0x3e82e22d	0.25563183
254	0xbccd85c5	-0.0250882
255	0x3e8a9a67	0.27070925

actor.2.bias f4 [64]
0	0xbbf53d3e	-0.0074841073
1	0x3cba5eaf	0.022750227
2	0x3c9f36c2	0.01943529
3	0xbd41cac3	-0.04731251
4	0x3cc6882b	0.024234852
5	0x3c3f2c92	0.011668341
6	0xbb6a8221	-0.003578313
7	0xbcb7b417	-0.02242474
8	0xbc2d6940	-0.010584176
9	0x3bbab1c6	0.005697462
10	0xbc613ea0	-0.013747841
11	0x3cab97c5	0.020946393
12	0xbc07e9f1	-0.008295522
13	0x3c44cdb9	0.012011939
14	0x3c934696	0.017977994
15	0xbcae914b	-0.021309515
16	0x3ce9682e	0.02849206
17	0x3b28db85	0.002576561
18	0x3d14c93c	0.036324725
19	0xbc169fb9	-0.009193354
20	0x3b70b780	0.0036730468
21	0xbcb0a170	-0.021561354
22	0xbb306e89	-0.0026921353
23	0xbbc3e7ac	-0.005978545
24	0xbb807b3e	-0.0039209416
25	0xbc10dcc3	-0.008841696
26	0xbcf7208d	-0.030166889
27	0xbc7f4fcd	-0.015582991
28	0x3ca9bc1a	0.020719577
29	0x3b65c3f6	0.0035059429
30	0x3c92dcd5	0.017927567
31	0xba89712c	-0.0010485998
32	0x3c22ae29	0.009929218
33	0x3d0d5e63	0.034513842
34	0xbc858007	-0.0162964
35	0x3d267db1	0.040647212
36	0xbcb84864	-0.022495456
37	0xbcb8fcc2	-0.022581462
38	0xbccf540d	-0.025308633
39	0xbc869ef0	-0.01643321
40	0xbc5c2219	-0.013435864
41	0x3cfd86ab	0.030948004
42	0xbc0d96e0	-0.008641928
43	0xbb4028b7	-0.0029321143
44	0x3c27b3f8	0.010235779
45	0x3c490017	0.012268088
46	0xb81900cf	-3.6478796e-05
47	0xbcb27204	-0.021782883
48	0xbd524de1	-0.051343802
49	0xbcd47cd4	-0.025938429
50	0x3d33f7c8	0.043937474
51	0xbc42cc08	-0.011889465
52	0xbb2f207e	-0.0026722248
53	0x3c83114c	0.015999459
54	0x3c265153	0.010151225
55	0xbce39768	-0.027782157
56	0x3ce8b2ca	0.028405566
57	0xbca1f8a5	-0.019771883
58	0xbd0f4e0e	-0.034986548
59	0xbd0e9a78	-0.03481528
60	0xbcfa157a	-0.030527819
61	0x3c53af33	0.012920189
62	0xbd0574e9	-0.032582197
63	0xbc52ecd1	-0.012873844

actor.4.weight f4 [4, 64]
0	0xbe06ed16	-0.13176379
1	0xbd0153b7	-0.031573977
2	0xbdfc3edc	-0.12316677
3	0x3e0afb22	0.13572362
4	0xbe3a208f	-0.18176483
5	0xbde83b08	-0.11339384
6	0x3dfa0836	0.12208597
7	0x3e262576	0.16225228
8	0x3df82646	0.12116675
9	0xbe1340d4	-0.14380199
10	0x3bd2690b	0.0064212135
11	0x3d04eb92	0.03245122
12	0x3df666b1	0.120313056
13	0xbe01d43b	-0.12678616
14	0xbe1db00c	-0.15399188
15	0x3dff1dd7	0.124568634
16	0xbd8d4a1e	-0.06898902
17	0xbe1b7ba1	-0.1518388
18	0x3d20f97d	0.03930043
19	0x3cd6bd2b	0.02621325
20	0x3d68130c	0.05665879
21	0x3e19ab5f	0.15006779
22	0xbdfe35d7	-0.12412613
23	0x3ba91ac5	0.005160662
24	0xbd8bdada	-0.06828852
25	0x3dee72ca	0.11642988
26	0x3e2a1612	0.16609982
27	0x3e140b47	0.14457427
28	0xbe14e0e5	-0.14538915
29	0xbe11bb6b	-0.1423165
30	0xbe07515a	-0.13214627
31	0xbda64c30	-0.0812
32	0xbe12ba72	-0.14328936
33	0xbe0435ee	-0.12911198
34	0xbdb8775b	-0.0900714
35	0xbe291f0e	-0.16515753
36	0x3ddb49e4	0.10707453
37	0x3e0172de	0.12641475
38	0x3d5c7ee4	0.05383195
39	0xbb9e0f9a	-0.004823637
40	0x3d0a4153	0.033753704
41	0xbd8d8949	-0.06910951
42	0x3df7bcda	0.120965675
43	0xbdf748cb	-0.12074431
44	0xbd4c2709	-0.049841914
45	0xbe23c19b	-0.15991823
46	0x3da84a60	0.08217311
47	0x3e24fa87	0.16111194
48	0x3e217c74	0.15770131
49	0x3da350d5	0.07974402
50	0xbe2b319c	-0.16718143
51	0x3e1b0600	0.15139008
52	0xbdd22bb1	-0.1026224
53	0x3d21b8cd	0.03948288
54	0xbe033b17	-0.1281551
55	0x3e0c6982	0.13712123
56	0x3e058c3f	0.13041781
57	0xbe11cdb4	-0.14238626
58	0x3e0decb4	0.13859826
59	0x3dde5cd6	0.10857551
60	0x3e3968cd	0.18106385
61	0xbd12bd17	-0.03582486
62	0x3bdd5de9	0.0067555797
63	0x3dde9902	0.10869028
64	0x3e33cd93	0.17558889
65	0xbe7eff85	-0.2490216
66	0xbe42da1c	-0.19028515
67	0x3e55c653	0.20876436
68	0xbe279cbf	-0.16368388
69	0xbd64b2ac	-0.055834457
70	0xbe1a724b	-0.15082662
71	0xbced6134	-0.028977014
72	0xbe128095	-0.14306863
73	0x3c19ffdc	0.009399381
74	0xbe5d781e	-0.21627852
75	0xbe410244	-0.1884852
76	0x3e80a453	0.2512537
77	0xbe89f29d	-0.26942912
78	0xbe3edd33	-0.18639068
79	0x3e462636	0.19350514
80	0x3e4088b5	0.1880215
81	0xbe02f267	-0.12787782
82	0x3e69ec46	0.22844037
83	0xbe663237	-0.22480093
84	0xbe72949b	-0.23689501
85	0xbdcb32e3	-0.09921815
86	0xbd710256	-0.05884012
87	0xbe5f0b14	-0.2178157
88	0xbdab7ffa	-0.08374019
89	0x3e8a9452	0.27066284
90	0xbded3f94	-0.11584392
91	0x3e745038	0.23858726
92	0x3da58022	0.0808108
93	0x3d588adf	0.052866813
94	0x3dcb9780	0.09941006
95	0x3e3ebe92	0.18627384
96	0xbe018bd3	-0.12650995
97	0xbe74911c	-0.2388348
98	0x3dfcaf25	0.12338094
99	0x3e09fdcb	0.1347572
100	0xbdcfc75e	-0.10145448
101	0x3e5d7953	0.21628313
102	0x3e74336d	0.23847742
103	0xbe462555	-0.19350179
104	0x3e4b61b9	0.19861497
105	0x3e38c8ce	0.18045351
106	0x3e08f347	0.13374053
107	0xbe87fac2	-0.265585
108	0xbe6df1dd	-0.23236795
109	0xbe67f3e8	-0.22651637
110	0x3e6a0f79	0.22857465
111	0x3e76581b	0.24057047
112	0xbc32208a	-0.010872016
113	0x3e77254a	0.24135318
114	0xbd3772ea	-0.044787325
115	0xbe2d6e98	-0.1693672
116	0xbdcd29b0	-0.10017717
117	0x3e6a241e	0.2286534
118	0x3e17afee	0.14813206
119	0x3e36b7fd	0.17843623
120	0xbd6fba11	-0.058527056
121	0x3d72730d	0.059191752
122	0x3e800039	0.2500017
123	0x3d338da1	0.04383624
124	0x3d83237f	0.06403255
125	0xbe5111df	-0.20416974
126	0xbe7084be	-0.23488137
127	0x3d65051d	0.05591308
128	0x3e491530	0.19636989
129	0x3d8355dd	0.064128615
130	0x3e4a8ace	0.19779512
131	0xbe6c171a	-0.23055688
132	0x3e7b40c5	0.24536426
133	0x3e0ff1bc	0.14057058
134	0xbe4c3abd	-0.19944282
135	0xbe75cdcc	-0.24004287
136	0xbe56cdbf	-0.20976923
137	0x3e4b972c	0.19881886
138	0xbc062b34	-0.008189011
139	0xbc08871e	-0.008332996
140	0xbe44fb9f	-0.19236611
141	0x3e563cf6	0.20921692
142	0x3e5fc0a9	0.21850838
143	0xbe64ccbc	-0.22343725
144	0x3e050ef8	0.12993991
145	0x3e5aa2ca	0.21351162
146	0xbd7ea703	-0.062170994
147	0xbd19a661	-0.037512187
148	0xbdcb3e85	-0.09924034
149	0xbe67e170	-0.22644591
150	0x3e25a70f	0.16177009
151	0xbca935bd	-0.020655507
152	0x3d2cc49a	0.04217968
153	0xbe413b81	-0.18870355
154	0xbe814434	-0.25247347
155	0xbe6df9f3	-0.2323988
156	0x3e62d78d	0.22152539
157	0x3e58a547	0.21156798
158	0x3e59622b	0.21228854
159	0x3e1be7bd	0.1522512
160	0x3e4c0fe3	0.19927935
161	0x3e634196	0.22192988
162	0x3e0f14c4	0.13972765
163	0x3e7fe884	0.24991041
164	0xbe1e0f91	-0.15435626
165	0xbe5f242f	-0.21791147
166	0xbe17e976	-0.14835152
167	0x3cfc71ab	0.03081592
168	0xbd99789a	-0.07493706
169	0x3e111343	0.14167504
170	0xbe248017	-0.16064487
171	0x3e460726	0.19338664
172	0x3dcb0ed3	0.09914937
173	0x3e6b4164	0.22974163
174	0xbe23cbaa	-0.1599566
175	0xbe6e0a93	-0.23246221
176	0xbe80a20b	-0.2512363
177	0xbe1fb067	-0.15594636
178	0x3e8312fc	0.2560042
179	0xbe60dd56	-0.21959433
180	0x3dfc1f96	0.12310712
181	0xbda3d520	-0.07999635
182	0x3e51ba9a	0.20481339
183	0xbe67329d	-0.22577901
184	0xbe3db6f0	-0.18526816
185	0x3e4fbe9c	0.20287555
186	0xbe74cfe2	-0.23907426
187	0xbe4c2166	-0.19934615
188	0xbe7fac39	-0.24968041
189	0x3dcb250b	0.09919175
190	0xbcaa903a	-0.020820726
191	0xbdfe9bd3	-0.12432065
192	0xbe6aa637	-0.22914968
193	0x3e7fae18	0.24968755
194	0x3dca24d8	0.09870309
195	0xbdd60c21	-0.10451532
196	0xbe0440a0	-0.12915277
197	0xbd736306	-0.059420608
198	0x3e6893ae	0.22712585
199	0x3e60a3a0	0.21937418
200	0x3e6ecab2	0.2331951
201	0xbe3a6cec	-0.18205613
202	0x3e5dbb4b	0.21653478
203	0x3e45ce84	0.1931706
204	0xbe46127d	-0.1934299
205	0x3e45e1be	0.19324395
206	0x3cd9f68f	0.026606826
207	0xbd89bea9	-0.06725819
208	0xbe5bccd7	-0.21464859
209	0xbdcb2c22	-0.09920527
210	0xbe5ed572	-0.2176111
211	0x3e682cb8	0.22673309
212	0x3e814e41	0.25255015
213	0x3e6ba985	0.23013885
214	0xbdb604b3	-0.08887615
215	0x3e6dfd7c	0.23241228
216	0x3dc5e1ba	0.096621946
217	0xbe6eac8e	-0.23308012
218	0x3e75b3d4	0.2399438
219	0xbe272f40	-0.16326618
220	0xbe6e67b7	-0.23281752
221	0xbe6fe588	-0.23427403
222	0xbe3c765f	-0.1840453
223	0xbe651b64	-0.2237373
224	0xbd9f3dd3	-0.07775464
225	0x3e34cef5	0.17657073
226	0xbe475c04	-0.19468695
227	0xbe7fe6a4	-0.24990326
228	0x3e2e6990	0.17032456
229	0xbd9a1ccd	-0.075250246
230	0xbe426ce0	-0.18986845
231	0x3e3dc9f6	0.18534073
232	0xbe3d7bbc	-0.18504232
233	0xbe560b11	-0.20902659
234	0x3a13024e	0.00056079484
235	0x3e3bd92e	0.18344566
236	0x3e5f75bc	0.21822256
237	0x3d132fad	0.03593414
238	0xbe46711f	-0.1937909
239	0xbe055baa	-0.13023248
240	0x3e6ffe74	0.2343691
241	0xbe50b144	-0.20380121
242	0xbe4c9693	-0.19979315
243	0x3e734fc8	0.23760903
244	0x3d29b04b	0.04142789
245	0xbe571cc2	-0.21007064
246	0xbe5fcebb	-0.21856205
247	0xbcae78d3	-0.021297848
248	0x3e4670e8	0.19379008
249	0xbe52901b	-0.20562784
250	0xbe112b55	-0.14176686
251	0x3e09fe9b	0.1347603
252	0x3e69aa84	0.22818953
253	0x3e3acb4a	0.18241611
254	0x3e7200bc	0.23633093
255	0x3c9c191f	0.019054947

actor.4.bias f4 [4]
0	0xbd4aab22	-0.04947961
1	0xbc73215b	-0.0148394955
2	0x3d468b43	0.048472654
3	0xbc8d089d	-0.017216021

exp_avg f4 [64, 8]
0	0xbad037b0	-0.0015885737
1	0xbbe80c82	-0.007081569
2	0x3b3d891c	0.0028920835
3	0x3c84a28f	0.016190795
4	0x3b0fcf86	0.0021943762
5	0xba846187	-0.0010099866
6	0x0c2671e1	1.2822444e-31
7	0x0753a0ab	1.5921092e-34
8	0x37ff5c4f	3.0441353e-05
9	0xba6e8a81	-0.0009099618
10	0x3a5d11f9	0.0008433159
11	0x3b0fa5a3	0.0021918796
12	0x39e3a6ee	0.00043421186
13	0xb948864d	-0.00019123517
14	0x07e10abb	3.3860544e-34
15	0x8550d3f8	-9.8190455e-36
16	0x3a146631	0.00056609797
17	0x3af5f6ae	0.0018765533
18	0xbb84553e	-0.004038482
19	0xbc9fe397	-0.019517703
20	0xbb3d19ee	-0.0028854567
21	0x3aaaca39	0.0013030238
22	0x8c931242	-2.2659925e-31
23	0x876a8334	-1.764276e-34
24	0xba423705	-0.0007408711
25	0xbc71ed7c	-0.014766093
26	0x3bbcd1a5	0.0057622963
27	0x3cce0c54	0.025152363
28	0x3b7e1bd2	0.0038773906
29	0xbadfa434	-0.0017062486
30	0x0c935bbd	2.270415e-31
31	0x07a66b67	2.504003e-34
32	0xb9c893f6	-0.00038257212
33	0x3c5ac742	0.013353171
34	0xbb95c81b	-0.0045709736
35	0xbcaee68b	-0.021350166
36	0xbb51274b	-0.003191429
37	0x3aba5c72	0.0014218225
38	0x8c5d063c	-1.7027097e-31
39	0x878ed0cc	-2.1488505e-34
40	0xba73a237	-0.0009293886
41	0x3b80f95e	0.003935977
42	0xbb34c959	-0.0027585833
43	0xbbebf236	-0.0072005047
44	0xbad06ad6	-0.001590098
45	0x3a23bab6	0.00062457786
46	0x8b860607	-5.162399e-32
47	0x86c788c2	-7.505643e-35
48	0xb8d0e946	-9.9616635e-05
49	0x3c49f34f	0.012326076
50	0xbbbc6d7c	-0.0057503562
51	0xbc89202b	-0.016738972
52	0xbb684486	-0.0035441234
53	0x3ac0c24d	0.0014706344
54	0x8c30457e	-1.3579459e-31
55	0x8753b049	-1.5925681e-34
56	0xbaae55b7	-0.0013300691
57	0xbc2051cf	-0.00978513
58	0xbae21a4e	-0.0017250271
59	0xbbde81fa	-0.0067903968
60	0xba82517b	-0.0009942496
61	0x39fd8d20	0.00048361067
62	0x8c088019	-1.0515607e-31
63	0x86979fe3	-5.703482e-35
64	0x38f4d346	0.000116741794
65	0xbb5b1c22	-0.0033433517
66	0xba17a3d4	-0.0005784605
67	0x3c6af50b	0.014340649
68	0x39fac957	0.00047833726
69	0xb9cfad0b	-0.00039611044
70	0x0c435521	1.5047871e-31
71	0x074a53c0	1.5221403e-34
72	0xb98f69a6	-0.000273538
73	0xbb13502a	-0.0022478201
74	0xb9b243cc	-0.00034001318
75	0xb8d8f95c	-0.000103461294
76	0xb8f804a6	-0.00011826427
77	0x385d1eed	5.2719308e-05
78	0x8b3abce2	-3.5964397e-32
79	0x853ee1a2	-8.975199e-36
80	0x3a24fbcd	0.0006293625
81	0xbb68ad9c	-0.003550387
82	0xbad9cc79	-0.0016616724
83	0xbc1146ee	-0.008867009
84	0xba9dc644	-0.0012037237
85	0x3a12d885	0.0005601722
86	0x8bb8e6ab	-7.122129e-32
87	0x86be7d65	-7.165431e-35
88	0xbaaa4088	-0.0012989203
89	0x3b36394f	0.0027805155
90	0x3b1e7087	0.0024175958
91	0x3c977217	0.01848702
92	0x3b0804fe	0.0020754929
93	0xba8a625b	-0.0010557877
94	0x0c64365d	1.758084e-31
95	0x0790060a	2.1670261e-34
96	0xba2eabbd	-0.0006663164
97	0xbae2c4d7	-0.0017301094
98	0xb99099db	-0.00027580452
99	0xba200af8	-0.000610515
100	0xb902239f	-0.00012411036
101	0x385882e2	5.1620307e-05
102	0x8b4d79b9	-3.9573138e-32
103	0x860beeb0	-2.6318354e-35
104	0xb9d0dd89	-0.00039837908
105	0x3c3cef89	0.011531719
106	0xbba3c8d7	-0.004998307
107	0xbcafe3af	-0.021470873
108	0xbb5f29ea	-0.0034052082
109	0x3ac5c236	0.0015087787
110	0x8c7b691e	-1.9367969e-31
111	0x87894c88	-2.065845e-34
112	0xb8ba7009	-8.890039e-05
113	0x3b42d42b	0.0029728513
114	0xba57dfcb	-0.0008234947
115	0xbb6fe260	-0.0036603436
116	0xba1f5fe5	-0.0006079658
117	0x3980f740	0.00024598278
118	0x8b03429f	-2.5279802e-32
119	0x861d5ba9	-2.959576e-35
120	0xb9aae66e	-0.0003259661
121	0xbc8945d1	-0.016756924
122	0x3bb6d5f9	0.0055797067
123	0x3cbde0cf	0.023178486
124	0x3b777f6a	0.0037765154
125	0xbadc210b	-0.0016794516
126	0x0c84cb88	2.0460316e-31
127	0x07944e13	2.2314453e-34
128	0xb948da32	-0.0001915477
129	0xbbeccfdb	-0.0072269267
130	0x3acf50a1	0.0015816876
131	0x3b740c5c	0.0037238812
132	0x3a731a17	0.0009273602
133	0xb9cba13f	-0.00038839315
134	0x8ad3f5b4	-2.0410984e-32
135	0x85756c43	-1.1539729e-35
136	0xbab7d076	-0.0014023918
137	0xbad04f39	-0.0015892751
138	0xbb2c0a8c	-0.0026251404
139	0xbbc76abd	-0.0060857222
140	0xbabecd6f	-0.0014557074
141	0x3a11c5bb	0.0005560775
142	0x8bd977bc	-8.3765516e-32
143	0x86c1db14	-7.292044e-35
144	0xba9b3571	-0.0011841488
145	0xb93a7454	-0.00017781678
146	0x3969441b	0.00022245983
147	0x3b0afe4a	0.0021208697
148	0x39720698	0.00023081375
149	0xb900f2c2	-0.00012297466
150	0x0b8e9d04	5.493266e-32
151	0x06470216	3.7429273e-35
152	0xba07f29b	-0.00051859923
153	0xbb4fa64e	-0.0031684819
154	0x3b821f20	0.0039709955
155	0x3ccd04b1	0.025026651
156	0x3b53a0e5	0.0032291946
157	0xbac31d82	-0.0014886113
158	0x0c9c8d13	2.4120512e-31
159	0x07b08825	2.6561555e-34
160	0x39e07e46	0.0004281869
161	0xbb1e4239	-0.0024148358
162	0x3a292422	0.00064522226
163	0x3c4223e2	0.011849375
164	0x3a72724d	0.00092485995
165	0xb9ff0451	-0.00048640606
166	0x0c268b3f	1.2830078e-31
167	0x0749d3d9	1.5183816e-34
168	0xb959cce9	-0.00020771068
169	0xbbd50f92	-0.0065021003
170	0x3b1bfc93	0.002380167
171	0x3c30a9ac	0.01078264
172	0x3adb8bd7	0.001675005
173	0xba462460	-0.0007558521
174	0x0b8f508f	5.520281e-32
175	0x06aaf3dd	6.430522e-35
176	0x3a4b9850	0.0007766532
177	0xb929fedf	-0.00016212043
178	0x39d8da41	0.00041361342
179	0x3b1aa53a	0.0023597018
180	0x3996f3fe	0.00028792018
181	0xb8f7cd60	-0.00011816132
182	0x0b6a5569	4.5131016e-32
183	0x062e8cd1	3.2829218e-35
184	0x3ad736f0	0.0016419571
185	0xbc919bde	-0.017774519
186	0x3b87c771	0.0041436483
187	0x3cb0b81e	0.021572169
188	0x3b428819	0.0029683171
189	0xbaae8457	-0.0013314587
190	0x0c8be6ac	2.1555172e-31
191	0x0783377d	1.9743302e-34
192	0xb9afcff3	-0.00033533535
193	0xbc8b9efb	-0.017043581
194	0x3ba4a64a	0.005024706
195	0x3cb7b26b	0.022423944
196	0x3b5a23da	0.003328553
197	0xbac83194	-0.0015273564
198	0x0c15aaef	1.1529981e-31
199	0x06e3b02d	8.5646777e-35
200	0x39f686cb	0.00047021205
201	0xbbc1c6b3	-0.0059135794
202	0x3b63c4b8	0.0034754705
203	0x3c7b7864	0.015348528
204	0x3b14a9db	0.002268425
205	0xba83679c	-0.0010025385
206	0x0c29ec56	1.3090406e-31
207	0x0742c094	1.4651531e-34
208	0xbabff55f	-0.001464527
209	0x3c517340	0.012783825
210	0xbba90c4d	-0.005158937
211	0xbc93397c	-0.017971747
212	0xbb500f56	-0.0031747422
213	0x3aaad7ea	0.0013034318
214	0x8c7d99df	-1.9536715e-31
215	0x877570d9	-1.8464914e-34
216	0xba3b356b	-0.0007141444
217	0x3c9c5ab2	0.019086216
218	0xbbc9cdb8	-0.006158557
219	0xbcf20cad	-0.02954706
220	0xbb8d48fb	-0.0043116785
221	0x3afe0ff9	0.0019383422
222	0x8cc52252	-3.0373312e-31
223	0x87b150fc	-2.6679598e-34
224	0x3b3e1efd	0.002901017
225	0xbc180abe	-0.009279905
226	0x3b702b45	0.0036646884
227	0x3c779227	0.015110529
228	0x3b1ddcff	0.0024088023
229	0xba837e3b	-0.0010032126
230	0x0c2e3063	1.3419033e-31
231	0x07310f77	1.3320545e-34
232	0xbb343997	-0.0027500147
233	0x3a180327	0.00057988096
234	0x3b1a9f8a	0.0023593628
235	0x3ca68143	0.020325309
236	0x3b10558b	0.0022023644
237	0xba97c448	-0.0011578882
238	0x0c967d42	2.3186546e-31
239	0x077cd52e	1.9021021e-34
240	0xbb0fdd64	-0.0021952027
241	0x3c233d95	0.009963413
242	0xbb911ed4	-0.004428724
243	0xbca044c0	-0.019564033
244	0xbb41f6fa	-0.0029596672
245	0x3aa2ade2	0.001241144
246	0x8c964c96	-2.3157253e-31
247	0x87909740	-2.1755609e-34
248	0x3b1743cc	0.0023081182
249	0x3bf7ca60	0.007561967
250	0x3b9347bc	0.0044946354
251	0x3c802c82	0.015646223
252	0x3b31cdb9	0.0027130677
253	0xba93cf5d	-0.0011277009
254	0x0c698c20	1.7991834e-31
255	0x0781840c	1.9487373e-34
