HFDRL_UNIT8/models/Archived/LunarLander-v3__ppo__1__1768735658__u60.pt (torch, 44735 bytes, 11 tensors)

critic.0.weight f4 [64, 8]
00000000: e544 38be 8374 fe3c f67d 983c 8379 ee3d
00000010: 7b8f 39bd 5938 163e 533a 7cbe ad65 353e
00000020: 20b2 1ebe dd0f 353e b6e8 833e e757 0fbe
00000030: 5bc6 35be e266 78be eaf9 053e 3f00 bbbd
00000040: e412 bd3d e42c 2ebe b71e 493e d69f b2bd
00000050: f8b6 583d 15be 023e 6797 1a3e 6dca fb3e
00000060: f72a 7bbe d630 9e3c 12fc 06bd 4a53 aebe
00000070: de24 963e 77ff a7ba b0fd 76be b5ff 0cbe
00000080: 2df6 debc c94c f2bd afd8 4e3e d2a7 7c3d
00000090: 3a58 05bc c007 d2bd c6bc 5e3d c86a afbe
000000a0: a524 c4bd ef51 6abe 4d38 95bd ec97 7abd
000000b0: 63d3 dfbc 222e 953e 329f 3dbe 8a7b 48be
000000c0: 9251 91be ba66 d3bd df8f 3cbd 131f 21be
000000d0: cc30 d7bd 7094 65be fd1a c73e d1f9 0c3e
000000e0: bafe 2fbd ae8c f33e 27d5 133e f359 663d
000000f0: 3784 8abd f192 343e e7b9 713e 10b9 ad3e
00000100: 10bf 0e3e db35 c6bd d541 723e 3e8e 9ebd
00000110: 9ea8 9a3e 8cb7 98bc cf49 6fbc c05d 2bbc
00000120: d54a 6f3c 4f00 363e f18e 943e cf8f aabe
00000130: 8a69 333e 123f b43d ac29 5b3e 38d0 fd3e
00000140: cadb 833c 4e61 a2be a14c 5f3e b2db 5a3e
00000150: 3573 6c3d 8327 973e c065 80bd 0f68 6dbe
00000160: 353a d0bd dc47 aa3e 0fc6 c6bd 7434 1f3e
00000170: 89a5 93bd 3ebb 623e 2def 6abe db12 fc3c
00000180: 5258 923b d01e 663e bf8f a43d fa4e dfbd
00000190: f670 9cbd 9aa2 953c 3f34 14be 3270 b73d
000001a0: aa4b b7bc 1d9a b7bd 0063 523e da25 733e
000001b0: bddc b2bc a080 ec3c b87c 76be d369 163e
000001c0: cf11 95bd e0ea 5cbc 414a 263e 64d0 8c3d
000001d0: fd14 bb3d 97c8 b03c 7279 6fb9 4452 843c
000001e0: f3e3 cfbd ca93 1f3d a16b 77be da58 97bd
000001f0: bcf9 8c3b 262a 233e 7fc5 9e3d 63c1 93bd
00000200: 489c 183e 29f8 843d ec9f 393d e68d eabe
00000210: 0e8d 00be 2eab 91bd 9c95 18be c5c2 363e
00000220: 0a3b 01be dc07 ef3d 295a 9d3e a019 b53c
00000230: eb94 863e 3e09 3dbe e170 08bd 70aa 1a3e
00000240: 5664 abbe 732a 1fbe 365b 873e 1d97 4f3e
00000250: c764 20be 3db0 e83d 9146 c93c 11be 34bd
00000260: 222b aebd 33cc 703e 5aaa a3bd f0f6 8bbc
00000270: ac70 0d3d 8917 4b3e 6c2b 9abe 1ea6 2fbe
00000280: 254a 663e 4b4b 8abc 58d9 323e 6072 ef3d
00000290: bd9e 9f3d 8428 84bd c0ad 263d 116e 863d
000002a0: 15c4 c73d a4c8 24bd 7ba0 54be e341 1abe
000002b0: bc42 a0bd 7273 b03d 0ea4 64be 2a24 f6bd
000002c0: f3a4 4b3e 78c3 74bc d319 e93d d275 913e
000002d0: 8ca4 3dbe 9e5a 3cbe cec4 bdbd e3c9 3dbe
000002e0: 5cd1 3e3e 4af4 1c3d eee6 edbd 2bf2 2a3e
000002f0: 599b 0e3e 14a6 fbbd a8a1 473d c031 79be
00000300: 22be e0bd 059e daba 9f0e 843d 2ae3 2b3d
00000310: f6cc 423d c096 80be 312e 0cbf d9b3 f6bd
00000320: 5257 f0bd 7d0e 5a3e cac3 b83c a3ee 2e3e
00000330: eaa0 463d d8fd 57be 88b5 0b3e 6533 a7bc
00000340: 472b bfbd 7a3f 633d 26fb 883d a438 bebd
00000350: 2c0f 633e 183b 11be 89bb 953d f585 043e
00000360: 8422 6fbc 4b12 6ebd 1cb0 b0bb b7d9 a5bd
00000370: 8e6f 80be aca4 593e 395c b03d 4cd8 8a3e
00000380: 6c8a 863e bad6 d7bc d93d 92be d69b c93d
00000390: 2f5b 0cbe 9fb2 0bbd 8259 adbe 4cb4 7ebd
000003a0: 7d0d 733d ea60 bc3e 49a9 65be 1d79 d73e
000003b0: d092 61be 20d8 893d fb5e 413d 6af3 c8be
000003c0: 580f 91be 2818 5abd d82e 50be 636c 07be
000003d0: 5efa 543e bb32 02be ff20 913d 0f34 a33e
000003e0: f12f e7bd e717 d83e 8afe 343e d731 d03d
000003f0: faf7 7c3e ad5d 1a3e 5b07 ffbd 5257 67be
-0.17995031 0.031061416 0.01861475 0.1164427 -0.04530285 0.14669932 -0.24631624 0.17714567
-0.15497637 0.17681833 0.25763482 -0.13998376 -0.17751448 -0.24257997 0.13083616 -0.09130906
0.09232119 -0.17009312 0.19640623 -0.087218925 0.052908868 0.12767823 0.15096818 0.49177876
-0.24528109 0.019310396 -0.032955237 -0.3404792 0.29325002 -0.0012817223 -0.24120212 -0.1376942
-0.027216995 -0.11831052 0.20199846 0.061683483 -0.008138711 -0.102553844 0.054379247 -0.34261155
-0.09577302 -0.22882818 -0.07286129 -0.06118004 -0.027322477 0.2913676 -0.1851776 -0.19578376
-0.28382546 -0.10322328 -0.046035644 -0.1573451 -0.10507354 -0.22419906 0.38887778 0.13767172
-0.042967536 0.47568268 0.1443678 0.056238126 -0.06763499 0.17634179 0.23606072 0.33930254
0.13940072 -0.09678241 0.23657925 -0.07741974 0.3020677 -0.01864221 -0.014605 -0.010459363
0.014605244 0.17773555 0.29015306 -0.33312842 0.17520729 0.08801092 0.21402615 0.4957292
0.016096015 -0.31714863 0.21806575 0.2137287 0.057727057 0.29522333 -0.06269407 -0.23184226
-0.10167352 0.3325795 -0.097057454 0.15547353 -0.07209308 0.2214174 -0.22942801 0.03077071
0.004466095 0.22472692 0.0803523 -0.109037355 -0.07638733 0.018266011 -0.14473055 0.089569464
-0.022374947 -0.08964942 0.20545578 0.23744908 -0.021833772 0.028869927 -0.24071014 0.14688806
-0.07278787 -0.013483733 0.16239263 0.06875685 0.091348626 0.021580024 -0.00022838058 0.016152509
-0.101509 0.038959302 -0.24162151 -0.07389994 0.0043022316 0.15934047 0.07752513 -0.0721462
0.14903367 0.06492645 0.04531853 -0.45811385 -0.12553808 -0.07112728 -0.14900821 0.17847736
-0.12620178 0.11671421 0.3073285 0.022106946 0.2628549 -0.18460557 -0.033310775 0.15104079
-0.33474988 -0.15543537 0.26436776 0.20272489 -0.15663444 0.1136174 0.024569781 -0.044126574
-0.08504321 0.23515396 -0.07991476 -0.017085522 0.03453128 0.19833197 -0.30111253 -0.17153212
0.22489221 -0.016881606 0.17465723 0.11691737 0.07793949 -0.0645304 0.040693045 0.06563962
0.097541966 -0.04023041 -0.20764343 -0.15064196 -0.078252286 0.086157694 -0.22328207 -0.120186165
0.19887142 -0.0149391815 0.11381879 0.28410202 -0.18519801 -0.18393943 -0.09266053 -0.18534045
0.18634552 0.03831891 -0.11616312 0.16693942 0.13926448 -0.12287536 0.04873815 -0.24335384
-0.10973765 -0.0016679174 0.06448101 0.041964687 0.047558747 -0.25115013 -0.5475798 -0.12046022
-0.11735405 0.2129459 0.022554297 0.1708322 0.048493303 -0.21092927 0.13643467 -0.020410249
-0.093344264 0.055480458 0.06688528 -0.09288147 0.22173756 -0.14182699 0.0731116 0.12941726
-0.0145956315 -0.058122914 -0.0053920876 -0.080981664 -0.2508511 0.21254224 0.0861134 0.27118146
0.26277483 -0.026347507 -0.2856281 0.098441765 -0.13706659 -0.034105893 -0.33857352 -0.062183663
0.059339035 0.3679269 -0.22427858 0.4208459 -0.22028661 0.06730676 0.04720972 -0.3924821
-0.2833202 -0.053245693 -0.2033037 -0.1322494 0.20798633 -0.12714665 0.07086372 0.31875655
-0.11288441 0.42205736 0.17675224 0.10165756 0.2470397 0.15074797 -0.12452575 -0.22591904

critic.0.bias f4 [64]
00000000: dcd9 c8bd 5db9 ca3d 7f6d b73d 9194 8dbd
00000010: c5b7 03be e354 ea3a 3971 5abc f90c e23d
00000020: 22a4 9ebd 0215 e13d fd5c ddbc bc80 9bbd
00000030: 6ec0 be3d 6503 6d3d 2f97 273d 4d5b 82bd
00000040: 6b50 cf3d 2cb7 cbbc f813 c7bd 0dfe 94bd
00000050: ede9 babd 6f02 9e3d 1912 a4bd a4fe e0bd
00000060: ef9f babc e0a0 e7bc 0b54 c73d e691 c03d
00000070: aaf1 a7bd 9db7 abbd b460 d33d dcc4 7bbd
00000080: 7b42 b6bd 2603 b5bd f6dc ec3d a4e9 c33d
00000090: 7299 b8bd ba49 c1bd 94bf cabd 9b8e cf3d
000000a0: 3232 933d 8de5 c03d 3fa5 c6bd 93b2 823c
000000b0: 1187 cfbd 7829 1ebd ec0c 5dbd 13fb d7bd
000000c0: 3ce2 cabd 3548 7abd 4ca9 b6bd f747 ae3d
000000d0: 2617 b8bd 3a06 8bbd 0399 b1bd f4c9 f8bd
000000e0: 0b04 dcbd 31e2 6dbd 638c ddbd e9f3 31bd
000000f0: 0878 8fbd 1200 093b 2a94 cfbd 1b31 b6bd
-0.098071784 0.098986365 0.089564316 -0.069131024 -0.12863071 0.0017878081 -0.013332658 0.110376306
-0.077461496 0.10990335 -0.02702188 -0.075929135 0.09314047 0.057864565 0.040915664 -0.063650705
0.101227604 -0.024867617 -0.097206056 -0.07275019 -0.09126649 0.07715308 -0.08011264 -0.10986069
-0.02278134 -0.028274953 0.09732827 0.09402828 -0.08200391 -0.08384631 0.10321179 -0.061467037
-0.08899399 -0.08838491 0.115655825 0.09566048 -0.09013642 -0.0943789 -0.09899822 0.10134622
0.07187308 0.09418783 -0.09699487 0.015954291 -0.10133184 -0.038613766 -0.0539674 -0.105459355
-0.09906432 -0.06110402 -0.089190096 0.0850982 -0.0898879 -0.06788297 -0.08671763 -0.121478945
-0.10742959 -0.05807704 -0.10817792 -0.0434455 -0.07005316 0.0020904583 -0.10135682 -0.08896085

critic.2.weight f4 [64, 64]
00000000: 5254 423e 5756 1abf 1ab0 a7bd 45f6 c13d
00000010: cc07 8b3c 0172 8bbd 67f6 423e 3f97 bcbe
00000020: da3f 55bd 5596 823e 53c6 bbbd 0bd6 fdbd
00000030: ea84 04be 49fd 9bbd 0a53 13be 0f4f b73d
00000040: 2b01 38bd e248 08be 62ab b43d d174 813d
00000050: d043 9fbd c09a 2a3c 501b 523e 803f be3d
00000060: 0ccf 6c3e 588d 7a3d 64cf 4a3e 85f5 a23d
00000070: d5ea 78bc 85a4 c73d 5da5 343d 5f2e 043d
00000080: 8f80 fcbd 41a9 5c3e 8222 2d3e c074 d9bd
00000090: 5d79 92be fe31 67be c5c0 fabc 2a15 09bf
000000a0: 78c4 0d3e 07ef 63be 4073 c13d 169e 9abd
000000b0: 7dfc 58be 5c58 c23c 8fa4 323c f77e a13e
000000c0: 39b3 193c 363c 273e 50ad 07bc b4ac eebd
000000d0: 2730 ca3d d6ba 083d 7ab8 a83d 6a41 5f3e
000000e0: 9b95 243e d797 c23b 7804 ed3d f3ec a6bc
000000f0: 3009 913e 27cd c63e 2450 54be 2804 9e3d
00000100: 14a0 793e 52b4 fb3d b9c4 323c 4951 4cbd
00000110: 9a66 843c 24ef 59be a289 003e 26e9 85be
00000120: a839 4bbd 20aa aabe 9526 de3c 40f5 f4bd
00000130: 28a1 c13e 56e5 ac3e 8fcf 7cbd 02ad 073e
00000140: a4f7 e7bd b169 5ebe 3b65 de3e 30aa 3fbe
00000150: ca08 e13d a215 e1bc a0f5 7e3d 8062 e13d
00000160: 4eb1 01bd 4819 303e 3944 c5bd 6f41 7dbd
00000170: 56b7 6c3e 7650 a53e 84be b6bd d1d6 183e
00000180: 6527 193e 9693 f13d 7f45 b0bd cafb 3bbe
00000190: edc7 363d df25 79bd 5942 88bd 4279 363e
000001a0: ed81 9c3c e52e 65bd ddc3 803e 2f70 acbd
000001b0: 4eba 0c3e ebc9 ed3d 9255 743e 0382 183d
000001c0: df12 ca3e 3e5d 0cbe d020 6d3d 6b64 18be
000001d0: b254 cd3d 9e98 36bc a16c 9dbb c253 46bd
000001e0: 7bde b73e ef8f 16be 33f0 723e 73dc 4c3e
000001f0: a922 373e bc98 f13d 8d18 55be 7d91 ba3c
00000200: 010d 0bbe 3e47 4e3e 31f2 1e3e 34f9 3a3e
00000210: 6f1d 7a3e b5ea 94bd 4fe0 353d 7536 843e
00000220: 0093 65be 327a d83e e98d 80be 4534 45be
00000230: 1e15 3ebc 7a4b 333e 7562 873d 6d10 2bbe
00000240: 64dc 8dbe a0cb bb3a 0a5a 593b d304 efbc
00000250: 580d 37be 745a d53b f779 54be a118 1abc
00000260: c411 bebd 07b1 ad3d 1d31 ed3e 4437 0e3e
00000270: 403f 283d 1c58 d5be 84f1 61be 2630 8bbe
00000280: a5a8 ab3e d361 db3c f0ae dabc dd8d 1b3e
00000290: 8ae5 02be 3816 1cbe 1741 70bd 36bb 373e
000002a0: 770d 383e cd3c 91be bffb 493e 8d73 123d
000002b0: 4c30 4fbc 98ca b5bd be66 023f f3b5 043d
000002c0: 9699 4f3d f6b0 f93c f390 09bd 2974 473d
000002d0: efef 28be e9fa 9e3b 1438 ccbc 46c2 20be
000002e0: ea8d aabe 6575 8fbd 9423 f53b 2c98 46be
000002f0: 9073 86bd 0067 e9bd cb7a 08be a64c 54bd
00000300: c4e6 883e 45db e63d b137 cfbd 036e b53d
00000310: db6e 613d e1a2 e9bd a3c4 0ebf 0b7e 1ebe
00000320: 3972 983d 04b7 93bc 6ce6 413e 213b 23bd
00000330: b075 00be 270a 9f3e 1eff be3b 7e04 e83d
00000340: 5db9 2abe 8a53 8a3d dc5a 64bc b950 553d
00000350: 2563 02be 3d65 423c 6376 f13e cc51 433e
00000360: 1786 79be 0011 abbd ec49 93be 31ad efbd
00000370: 951c dcbd 58f4 d6be 267f 6b3e 5d8b be3d
00000380: 2a22 84bc 2009 6f3e 1475 b6bd 0f48 4cbe
00000390: df46 96bd 1929 75be 9daa 5f3e 2dba e5bd
000003a0: d386 083d 8ac8 a1bd 2fc0 5e3e e889 0a3e
000003b0: c2de b4bd 0cad 803e e536 59be 619d ca3d
000003c0: 309e 633e 4ef6 863c acdc 0ebe c9f9 11be
000003d0: a316 2b3e 0fea aa3c 237b d13c 8fe0 53be
000003e0: 802a 293e fc41 cfbd fa8f 553e 6d49 fe3d
000003f0: 5120 05be 407a 13be 7dc1 efbd 5518 893c
0.18977478 -0.60287994 -0.081878856 0.094708 0.016971491 -0.06808854 0.19039308 -0.36834142
-0.052062847 0.2550532 -0.09168687 -0.12394341 -0.12941328 -0.0761667 -0.14387146 0.08950626
-0.04492299 -0.13309053 0.08821751 0.06321109 -0.07776606 0.010412872 0.20518231 0.092894554
0.23125857 0.061169952 0.19805676 0.079569854 -0.015192707 0.097481765 0.044103015 0.032270785
-0.12329208 0.2154894 0.16907695 -0.106179714 -0.28608218 -0.22577664 -0.030609498 -0.5354792
0.13844478 -0.2225915 0.0944581 -0.07549684 -0.21190067 0.023723774 0.010903492 0.3154218
0.009381109 0.16331562 -0.008281067 -0.11654034 0.098724656 0.033381306 0.08238311 0.21802297
0.16072695 0.005938511 0.11573118 -0.020376658 0.28327322 0.38828394 -0.20733696 0.077156365
0.24377471 0.12290253 0.01091116 -0.049882207 0.016162205 -0.21282631 0.12552503 -0.2615444
-0.049615532 -0.3333292 0.027118007 -0.1196084 0.37818265 0.3376872 -0.06172138 0.13249591
-0.113265306 -0.21720006 0.43436608 -0.18717265 0.109880045 -0.027476136 0.062245965 0.110051155
-0.03166323 0.17197144 -0.09632153 -0.06182998 0.23116812 0.3228795 -0.08923057 0.14925696
0.14956434 0.11795728 -0.08607005 -0.18357769 0.044624258 -0.060827132 -0.0665328 0.17819694
0.019104922 -0.055952925 0.25149432 -0.08419835 0.13742945 0.116107784 0.23860767 0.037233364
0.39467523 -0.13707444 0.05789262 -0.14882056 0.1002592 -0.011144785 -0.0048042093 -0.04841972
0.35911927 -0.14703344 0.23724441 0.2000597 0.17884316 0.1179671 -0.20810147 0.022774452
-0.1357918 0.20144364 0.15522076 0.18259126 0.2442529 -0.07271329 0.04440337 0.25822797
-0.22419357 0.42280728 -0.2510827 -0.1925822 -0.011601714 0.17509261 0.06610576 -0.16705485
-0.27707207 0.0014327653 0.003316524 -0.029177105 -0.17876184 0.006511027 -0.20749651 -0.009405286
-0.09280732 0.08481031 0.46326533 0.1388827 0.041075945 -0.41668785 -0.22064787 -0.27185172
0.33527103 0.026780045 -0.026694745 0.15190835 -0.12782875 -0.15242851 -0.058655825 0.17942509
0.17973886 -0.283667 0.1972494 0.03575473 -0.012645792 -0.08876532 0.5093802 0.032400083
0.05068358 0.03047989 -0.0335855 0.048694763 -0.16497777 0.004851688 -0.024929084 -0.1569911
-0.33311397 -0.07004813 0.007481048 -0.19393986 -0.065650105 -0.11396599 -0.13328092 -0.05183091
0.2673856 0.11272291 -0.10118044 0.08858874 0.05503736 -0.1140802 -0.55768794 -0.15477769
0.07443661 -0.018031605 0.18935555 -0.03985131 -0.12544894 0.31062433 0.005828752 0.11328982
-0.16672273 0.06754215 -0.013937678 0.052078936 -0.12733133 0.011864957 0.47160634 0.19074172
-0.24367557 -0.08352852 -0.28767335 -0.117029555 -0.10747639 -0.41983294 0.22997722 0.09303925
-0.016129572 0.23343325 -0.0890905 -0.19949363 -0.07337736 -0.23941459 0.21842428 -0.11217151
0.033331703 -0.07899578 0.21753 0.1352917 -0.0883155 0.25132024 -0.21212347 0.09893299
0.22228312 0.01647487 -0.13951367 -0.14255442 0.16707854 0.020863561 0.025571411 -0.20691131
0.16520119 -0.101200074 0.20855704 0.124163486 -0.13000609 -0.14402103 -0.11706827 0.016735235

critic.2.bias f4 [64]
00000000: 763f aabd 1246 77bd 5192 b93d bb57 f4bd
00000010: 8406 f7bd 36fd 9dbd c0e6 953d 0a99 e0bd
00000020: 992c c0bd fe94 e33d 0eba a2bd ed3e 7fbd
00000030: c091 c1bd 37e9 a3bd 7093 a4bd 58a9 953d
00000040: 73bc a8bd 7ac8 a6bd 0d52 9ebd d931 623d
00000050: 7be1 9bbd 5dac 6e3d b16b a8bd 95bb a1bc
00000060: 42a9 3cbd e754 a23d eb8b 953d dd54 8f3d
00000070: c28b ac3d fb03 a1bd 2e74 973d 52ef abbd
00000080: 2f00 9dbd 9551 b73d 1369 b83d 27e7 9dbd
00000090: a143 a23d 7be5 903d cf3f 9abd 569c a4bd
000000a0: 80f9 07be 6740 9bbd 5ddf b23d 44e1 a5bd
000000b0: 51dd ca3d c065 c63d 360f 9e3d 0aad a0bd
000000c0: 8672 e53d 21dd c83b e120 b33d 8491 993d
000000d0: 64e2 a53d 745a a23d 8d29 9cbd 74ac 973d
000000e0: 5420 a73d 86d1 a6bd a62c 6d3d 6a77 a53d
000000f0: 7683 a3bd 77ed 403d 1c89 9c3d e442 903d
-0.083128855 -0.06036956 0.09061111 -0.11930796 -0.1206179 -0.07714312 0.07319403 -0.1096669
-0.09383506 0.111124024 -0.07945643 -0.06231587 -0.09451628 -0.080034666 -0.08035934 0.073076904
-0.08239069 -0.081437066 -0.07730494 0.05522332 -0.07611366 0.058269847 -0.082236655 -0.019742766
-0.046059854 0.0792635 0.07302078 0.06998608 0.08425094 -0.07862087 0.073952064 -0.08395256
-0.07666051 0.089511074 0.09004416 -0.077101044 0.079230554 0.0707502 -0.07531702 -0.08037631
-0.1327877 -0.07580643 0.087340094 -0.08099607 0.09905494 0.09687376 0.07717745 -0.078455046
0.11203484 0.0061298762 0.087465055 0.07498458 0.08099821 0.07927409 -0.07625113 0.0740594
0.08160463 -0.08145432 0.05790391 0.08079417 -0.079840586 0.047101464 0.07643339 0.070440084

critic.4.weight f4 [1, 64]
00000000: a61d 023e 6886 0b3e 99c8 dfbd 5106 973d
00000010: ebb8 a13d 6ec3 983e 2cb7 72bd 77e9 953d
00000020: c9b7 ab3d 5fcd 84bd 2d4e 6d3e 94f3 723d
00000030: 2e49 563d 0602 113e 5dc4 4e3e 81d2 51bd
00000040: 5ec5 f13d 7106 3e3e 4ede f33d 2709 17bd
00000050: 5f3a 5a3e 8c2d 01bd 55f7 a33d f60a 34bc
00000060: 0558 2b3b 357e 86be 3fad 26be 70a1 a5be
00000070: 94e1 0dbe 8e4c 3f3e 158b 39be a47a 0c3e
00000080: 96df 8e3e 1c44 a2bd 13bc d0bd ecca 4c3e
00000090: 3df3 4fbe bbef 83be 5663 f43d 0a5c 523e
000000a0: d4ab 5d3d 5939 883e 8636 05be e32a 203e
000000b0: 9c2f 85bd de44 7bbd baa0 78be 9813 073e
000000c0: 8c80 94bd d04f b33c 9028 13be 0979 90be
000000d0: 7396 f3bd 9f70 7cbd 2d92 2b3e d7e5 9dbe
000000e0: 062c 29be 706c f33d f141 76bd 9e2e 34be
000000f0: 31de 363e d485 5bbb f55b a2be 9e08 e4be
0.12706622 0.1362549 -0.10926933 0.07374252 0.078965984 0.298366 -0.059256718 0.073199205
0.083846636 -0.06484484 0.23174353 0.059314325 0.052315883 0.14160928 0.20192094 -0.051226143
0.11805223 0.18557145 0.11907636 -0.036873963 0.2131133 -0.031537578 0.08006159 -0.010988941
0.0026144993 -0.26268163 -0.16277026 -0.3234973 -0.13855582 0.18681547 -0.18119462 0.13718659
0.27904958 -0.07923147 -0.10192122 0.19999284 -0.20307632 -0.25768837 0.11933009 0.20542923
0.054118946 0.26606253 -0.1300908 0.1564136 -0.065032214 -0.061344974 -0.24280062 0.13191068
-0.07251081 0.021888644 -0.14370942 -0.28217342 -0.1189393 -0.06163084 0.1675498 -0.30839416
-0.165207 0.11885917 -0.06012148 -0.17595908 0.17858197 -0.0033496516 -0.31710783 -0.44537824

actor.0.weight f4 [64, 8]
00000000: 078d b4bd 9b64 fa3c e9ee 5b3e 11d4 83bd
00000010: 1b7a c9be 87fe 16bd 04d5 8b3d b4fa 6f3e
00000020: 9da7 74be b343 683d f62d b8bd 5e2f bc3e
00000030: c6a8 003e eea3 f1bd 3d4f 0fbe e856 c93d
00000040: aa61 813c cacc 8bbe d0af 3fbd a8ca acbe
00000050: e92e 393e 7456 bbbd d8dd a1be 834f 82be
00000060: f6d4 62bd 6abd 1cbd bbbb 49be 51c0 8d3c
00000070: 7eb2 543e 5459 4cbe e232 32be de36 83be
00000080: 4f53 183e b8bc 65bd c1cb cabd 12d1 33bd
00000090: 3f6e 3e3d 0d1c 433d 058b 5c3e 8d69 99be
000000a0: d435 01be 63d6 93be 7801 293d 1c9a 313e
000000b0: 913b 28be 4f7a dc3d 34ee 2c3c cb3d 703d
000000c0: 149a c6be 6f7f 333c 1897 92bd 8885 e63b
000000d0: 1ee2 adbd 971d 933d 0164 f23d 7108 babe
000000e0: 1ee4 18be 8c16 8bbe 3da2 5b3e ce12 853e
000000f0: 0d2a e0be 0693 c3be 3e22 5f3d ad5b 053e
00000100: 34d6 4fbe a34a 393e 9bef eebe e46d 68be
00000110: c42e 353e 0346 603e db1d 04bf 91b4 bb3d
00000120: 74d1 15be fb15 a43c 0d80 373c 35b7 e13d
00000130: b4f7 c3bd 6311 56be 1509 0bbe 5f2c 103e
00000140: ce90 cdbd 2060 923d bb0b 303a 892d d3bd
00000150: 0f6f 52be 3cfb fa3d 9b63 823e b8c4 343e
00000160: 05ec 43ba 5daf afbd a3ce 223c 9e37 c43c
00000170: d82c 86be f56e 1ebe 166d f93d 79c8 1cbe
00000180: 491f 3cbe 3df0 e4bd a38e 6dbe 45d8 01be
00000190: b14c b43d 8639 7d3e 8125 61bc 2ebf 05be
000001a0: 3032 babe c0ae b03e e549 263d 341b a2bc
000001b0: 57b8 593d b385 8fbd 4cc9 893e 49f1 493d
000001c0: 8a34 1ebe 4f65 41be 30a8 c83e 4580 8dbe
000001d0: aee7 d1bd b12f 523d f6da 613d 3de6 ae3d
000001e0: 143f 5dbe f2a5 d33d 02f5 413d 3def ddbd
000001f0: 14c0 b8bd 711e 083c aaa0 91bd efb0 003e
00000200: dd02 a2be fbd6 c7bd 8fcb 0d3e b1e9 973e
00000210: 2a60 9bbd a77b 84be d1c8 1fbd 61f9 4e3d
00000220: dc19 4b3e ff2e 153e 3a88 17be 2f63 e0bd
00000230: dda1 88bc b00f ffbc 4474 513e 1477 14be
00000240: 702c 933d db89 b13d 032b 94be 9181 933d
00000250: 34b5 ed3d 4488 153d 0418 193d 515d a03a
00000260: 0065 023e 12ec c1bb 071a 5a3e 4542 2aba
00000270: 4d99 a9be 9395 58be 2f39 96be 72be e9bd
00000280: e5d6 06bd ce0d 4bbe 4de0 49be d18d 55bd
00000290: 368e e7bd 42b7 ff3d f184 493d 3fe1 243e
000002a0: f53f a33d 3414 903c 8cfd a13d 0676 9d3d
000002b0: c84a 5fbe bb6f 81be 4c69 4d3c b70b 9c3d
000002c0: 250e 473d 349f 1e3e a395 29be e0fa d03e
000002d0: 2b27 803e 5d54 4c3e efcd 863d 0149 8abd
000002e0: 3802 a43e 6375 6b3e 5c7d 5c3e b364 59be
000002f0: b239 993e f237 fc3d 98a0 5ebe af7f 7dbb
00000300: 2514 a7be b013 8c3c f09e f5bd a512 a33d
00000310: ec2b b1bc 4249 3fbe 6d67 153c ba79 523d
00000320: e32a 02bd e590 f13d 7307 d1bd d9a2 6fbe
00000330: b4a5 8dbd 02bd 603e 0f16 0cbe 95e1 b33d
00000340: f2cf 7b3d 3b9c 933c eec3 083f 40f7 a23d
00000350: 6632 9cbd c086 823d dd4d 6ebe 9eae 883e
00000360: 6ed8 0e3e a400 3bbe 6090 7bbd 898e 6abe
00000370: ec2c 833e 90a9 af3e 8030 e03d 9f9f ec3d
00000380: 0da4 3f3d 1b32 82be fa4a 8dbd 4592 95bd
00000390: 5989 b13e 152c c1bd f8e6 19be 68bf 34bd
000003a0: c57b ea3d 01fd 00bd 46bb 903c 95ac 08bf
000003b0: 4cd2 32bd 9b5b 04bf b156 27bd 0ff6 0abd
000003c0: 5d4c 85bd 0f53 77bd 2d34 23bd f9c3 a23e
000003d0: 0b39 803e c7a5 943d 7176 5bbd 7a2e c6bd
000003e0: dea5 063e 5ce5 40bd 0020 2bbd aa8f 363e
000003f0: 6bd0 c03d 55ae 56bd af93 82bd 6c1d 8cbe
-0.08815961 0.03056555 0.21477856 -0.06436933 -0.39350972 -0.03686383 0.06827739 0.2343548
-0.23892064 0.056705188 -0.08993141 0.36754888 0.12564382 -0.11798845 -0.13995071 0.09831029
0.01579364 -0.2730468 -0.046798527 -0.33748364 0.18084301 -0.09147349 -0.31614566 -0.25451288
-0.055378877 -0.038266577 -0.1970052 0.017303618 0.20771214 -0.19955951 -0.17402223 -0.25627798
0.1487553 -0.05608818 -0.09902144 -0.043900557 0.046491858 0.047634173 0.21537407 -0.2996334
-0.1261819 -0.28874502 0.041261166 0.17343944 -0.16428973 0.10765516 0.010554839 0.05865268
-0.38789427 0.0109556755 -0.07157725 0.007034961 -0.08490394 0.07183378 0.118354805 -0.36334565
-0.1493077 -0.2716564 0.21448608 0.2599091 -0.43782082 -0.38198107 0.054476015 0.13023253
-0.20296556 0.18094878 -0.4666718 -0.2269817 0.17693621 0.21901707 -0.51608056 0.091653
-0.14630681 0.020030012 0.011199963 0.11021272 -0.0956873 -0.2090507 -0.13577683 0.14079426
-0.10037385 0.07147241 0.0006715615 -0.103114195 -0.20550178 0.122549504 0.25466618 0.17653167
-0.00074738293 -0.0857837 0.009936961 0.023952302 -0.26206088 -0.15472014 0.121790096 -0.15310849
-0.1837131 -0.11178634 -0.23198943 -0.12680157 0.0880369 0.24728975 -0.013741852 -0.1306121
-0.36366415 0.34508324 0.040597815 -0.019788362 0.053154316 -0.07007923 0.2691139 0.049302373
-0.1544973 -0.18886302 0.39190817 -0.27636924 -0.102492675 0.051315013 0.055140458 0.08540008
-0.21606094 0.10334386 0.0473528 -0.10836647 -0.09021011 0.008308039 -0.07110722 0.12567495
-0.3164281 -0.09757801 0.13847183 0.2967048 -0.07586701 -0.2587559 -0.039009873 0.050530795
0.19834083 0.14568709 -0.1479806 -0.10956418 -0.016678745 -0.03113541 0.20454508 -0.1449855
0.0718621 0.08668872 -0.28939065 0.07202447 0.116068274 0.036506906 0.03737642 0.0012234842
0.12733841 -0.0059180344 0.21298991 -0.000649486 -0.33124772 -0.21150808 -0.29340503 -0.11413278
-0.032919783 -0.19829485 -0.1971447 -0.0521372 -0.113064215 0.124861255 0.04919905 0.1610155
0.07971183 0.017587759 0.07909688 0.07688527 -0.2180587 -0.25280556 0.012537312 0.07619422
0.048597474 0.15490419 -0.16560988 0.40816402 0.25029883 0.19954057 0.065822475 -0.06752206
0.32032943 0.22993998 0.21532196 -0.2122982 0.2992683 0.12315358 -0.21740949 -0.0038680842
-0.32632557 0.017099231 -0.119932055 0.079625405 -0.021627389 -0.1868029 0.009118897 0.05138562
-0.03177918 0.117952146 -0.10206499 -0.23401965 -0.06916371 0.21947101 -0.1368029 0.08783261
0.06147761 0.018018832 0.53423965 0.079573154 -0.076268 0.06373358 -0.2327189 0.26695722
0.13949749 -0.18261963 -0.061416984 -0.22905935 0.2562021 0.34309053 0.10946751 0.11553883
0.04678731 -0.25428852 -0.06899066 -0.07303289 0.346751 -0.09432236 -0.15029514 -0.04412785
0.114493884 -0.031491283 0.017667424 -0.5338834 -0.043657586 -0.5170228 -0.04085416 -0.033926066
-0.06508706 -0.060381945 -0.03984468 0.3179014 0.2504352 0.07258182 -0.05357975 -0.096768335
0.13149211 -0.047093734 -0.041778564 0.17828241 0.094147526 -0.05241235 -0.06375825 -0.27366197

actor.0.bias f4 [64]
00000000: e87c 6fbb 9892 15bd 3ea2 5e3d 3986 2cbc
00000010: 73bd 273b dd46 27bd 5aeb 8ebc a64d 9ebc
00000020: 2dd1 25bc 487a be3c 2fd3 bdbc b99e 123c
00000030: 1231 013c e393 2d3d 6185 473d 0c5e 60bc
00000040: d8ae 1fbd e50b c93c 180e 923c 1459 0b3b
00000050: 1b0b 48bc a77d 01bd 9406 5dbd c00c 2f3d
00000060: b55d 143c 66da 553d 1eb2 35bc 4fd8 273d
00000070: 110d 243d 9988 473d d017 4fbd 9150 febc
00000080: f59c 1c3d ce6a d13c 16f4 8fbb 5abc 94bc
00000090: 6dc5 3b3d 087c 3e3d da3f 23bc 8339 56bd
000000a0: 63d1 4dbd 78a2 223d 4047 e0bc f474 2fbd
000000b0: f551 c53c f2b5 47bd 154d f0bc 3e59 8e3b
000000c0: 8b25 4e3d 752c c4bc 5fe8 debc 8ea4 8dbc
000000d0: e5a6 2a3d 63b0 353d 7e30 9f3a 080e 0ebd
000000e0: c268 e4bc 7708 87bc 800f 2dbd 462e 16bd
000000f0: a2ed 383d 2a5d 28bc be6f 1e3d f8c7 70bd
-0.0036542956 -0.036516756 0.054353945 -0.010530048 0.0025595098 -0.040839065 -0.017446209 -0.019324135
-0.010120672 0.023251668 -0.02317199 0.008948975 0.007885234 0.042377364 0.048711184 -0.0136942975
-0.038985103 0.024541805 0.017828986 0.0021262811 -0.012209679 -0.031613972 -0.05396135 0.04273677
0.009055545 0.052210234 -0.01108983 0.040977772 0.040051524 0.048714254 -0.05055982 -0.031044276
0.038235623 0.025563624 -0.004393111 -0.01815622 0.045842577 0.046505004 -0.009963954 -0.05230094
-0.050248515 0.039705724 -0.027377725 -0.042836145 0.024086932 -0.0487575 -0.02933363 0.0043441346
0.050328773 -0.02394698 -0.027210413 -0.01729038 0.04166307 0.04435767 0.0012145189 -0.03468135
-0.027881984 -0.016483529 -0.04225111 -0.036665224 0.0451485 -0.010276118 0.038680784 -0.058784455

actor.2.weight f4 [64, 64]
00000000: 5cdf 2b3e 29fb 7b3d 285a 403e 348a babe
00000010: a566 033e 52fd de3d 25ee 89be b221 8b3d
00000020: d9e8 db3d c005 90be 492e 0b3e 0fb0 923d
00000030: 581e 3c3d 261a fa3d 5186 02be 82d6 0f3e
00000040: f7a8 3c3e e9ef 8c3e 85d2 083e 63b7 863e
00000050: 1ede cfbd 246b 1d3d d918 733d 010f d53c
00000060: b0b5 b23d eb18 b0bc e44c 033e 5bbf 703e
00000070: 6fdc debd 3558 9a3e 7f3c 69be 3906 e9be
00000080: c139 9c3d a2a1 093e 7044 023e 0165 6c3e
00000090: 52c2 21bc e1a4 5b3d 8ef6 743e 3589 963c
000000a0: 3728 f83e 2ea9 09be b08b e8bd 0d28 213e
000000b0: 69cc 103e f9e1 1b3e ed90 d43c 5f2c b73d
000000c0: 5065 0b3d 1a9a 1bbd e437 193d 630d 573c
000000d0: d18c 50bd 54cb 4a3e e25d 2e3e c1ec b0bc
000000e0: fc21 323e 4e6a 823e 7985 9e3c ebcc 1b3e
000000f0: 314b 133e 4492 e7be 83fb 993e 22ad 73be
00000100: 5e3b 353c 8434 1fbe 6b6b 143e c946 863e
00000110: ac2e 1b3e 67a2 b0bd b784 2e3c e004 a4be
00000120: f11b acbd a566 253e 862c c0bd 8314 e4bd
00000130: 03d1 f73d f4cf 98bd 3da8 a7be 8045 913e
00000140: 4c79 8abe 862e 07be cc62 a53e 011c 263e
00000150: 5665 aa3d 33ab 6a3d 6752 07be b980 bb3d
00000160: 582e 54be ba96 453e e194 093e 58f7 0fbd
00000170: ad5e 99bd f3c3 723e 0dad 64bd e543 413d
00000180: 8f1a 5dbe 58c2 4bbe 1bee 7c3b a31c 983e
00000190: c208 9cbe 2015 3f3e 8604 223e e45a 2bbe
000001a0: 332e b0bc e814 1dbe f995 be3e 37c3 e4bd
000001b0: f8b7 d2be 8436 3d3d 841f 463e 812e e0bd
000001c0: 6cfb a5bd d226 83be d6d6 323d ca0d 4d3e
000001d0: 78af 1d3d 7c13 953c 366a cebd 2098 96bd
000001e0: 11b4 093e b358 633e 5921 663c 7abe 03be
000001f0: d047 19be 0afc 433e fd4c 833e fb57 983e
00000200: 26df 94bd 6c4d cc3d 2165 da3b 304e 763e
00000210: 8f0d c4bd 61bb 1f3d 89c3 5abe 1dc7 22bc
00000220: 307b d23e 03f8 eeba 413d 2b3e 99ce 90be
00000230: ec03 a93e 1145 8cbd f94e 2f3c 1fd7 ff3b
00000240: bf99 d23d 24ba 1f3e df40 5bbd 9493 f33d
00000250: 9395 3fbd 181d e73d 176e f8bd 616a 203e
00000260: cc56 d03d dfc1 323e 2625 35be 7e8b 49bd
00000270: c358 13bb ff8d 0a3e 6369 09be 27e3 2ebe
00000280: b3ab 943d 299f 4dbe d29f a13e 7303 68bd
00000290: 77e1 bb3d 3fe1 3e3e 71e4 b2be f328 123c
000002a0: 2261 11bc b888 8f3e 2235 903d 8444 39be
000002b0: c707 8d3d 5449 993a 4099 d43d bc7a d3bc
000002c0: 794f e63d c401 c3be 19a7 653d dc2a a4be
000002d0: 36da 5e3c 5f4a babe 7bf9 d6be 80bf fbbd
000002e0: 2a05 693e 46da b2be 8cb8 473e 6fe0 cf3d
000002f0: 1183 593e 64b3 7b3d 3333 dd3d 0f0a 573e
00000300: b073 63be a4b0 cfbd 5a11 85be 14a5 eebd
00000310: 36db 91bd 3757 293e 3aa2 95be eb32 5a3e
00000320: 6502 9ebe 6a94 9fbd 5747 d7bd e5e5 7f3e
00000330: 3cf2 12be b53a c2be 9bd9 69bb 9775 ba3e
00000340: 963a 943e cebc 473e 505a 59be 6ca0 293d
00000350: d7db a7bd 1674 8b3e bc54 a7bd e9ec 4f3e
00000360: e227 18bd 5ca0 cabe 836c 183e 4195 b83d
00000370: fec0 f2be 9ff7 1b3d 705f 4bbd 046a 97bd
00000380: c4a5 a0bd 2e49 4bbd fd75 9abd fe28 1cbd
00000390: 1eaf 2a3d 8479 b43d 1381 a8ba afe9 4ebe
000003a0: 10fe c3bd 9e08 1ebd 528f 5fbe 8fff 7cbe
000003b0: 6198 1a3c 858f 353e 307c f93b fc17 563e
000003c0: cb5d 40bd ebd8 033e ff6b 283e 04e5 32bd
000003d0: 0af8 d7bc 6687 c33d d2b4 fcbd 5c76 153d
000003e0: 8ea5 b2bd 1cfc fbbc da10 a8be 8d18 bd3d
000003f0: ceb1 fcbd 1367 9e3e f356 7c3d 98b2 543e
0.16784424 0.061518822 0.18784392 -0.36433566 0.12832125 0.10888161 -0.26939502 0.06793536
0.107377715 -0.28129387 0.13591875 0.07162487 0.045927376 0.12212019 -0.1274655 0.14046672
0.1842383 0.27526787 0.13361557 0.26311788 -0.10149787 0.038432255 0.05934987 0.026008131
0.087260604 -0.021496257 0.128223 0.23510496 -0.10881888 0.30145422 -0.22776984 -0.4551256
0.07628203 0.13440564 0.1272142 0.23085405 -0.00987299 0.053624038 0.23922178 0.018375972
0.48468181 -0.13443443 -0.11354768 0.15737934 0.14140476 0.1522292 0.025948012 0.0894401
0.034032166 -0.03798876 0.037406817 0.01312575 -0.050915543 0.19804126 0.17028001 -0.021597268
0.17395777 0.2547173 0.019350754 0.15214889 0.14384152 -0.4522878 0.300747 -0.23796514
0.0110615175 -0.15547377 0.14494102 0.2622588 0.15154523 -0.08624726 0.010651759 -0.3203497
-0.08403767 0.16152437 -0.09383492 -0.11136725 0.12100413 -0.07461539 -0.32745543 0.28373337
-0.27045667 -0.13201341 0.3230194 0.1622162 0.083201095 0.057292175 -0.13215028 0.09155411
-0.20720804 0.19295779 0.13435699 -0.035147995 -0.07488761 0.23707561 -0.055829097 0.04718389
-0.21592163 -0.19898355 0.003859407 0.29709348 -0.30475432 0.18660402 0.15822038 -0.16733891
-0.021506405 -0.15340006 0.37223795 -0.11170047 -0.41155982 0.04619457 0.1934796 -0.1094637
-0.081045955 -0.25615555 0.043661915 0.20024791 0.03849742 0.018197767 -0.10078852 -0.07353234
0.13447596 0.22201805 0.014046037 -0.1286563 -0.149688 0.19139114 0.25644675 0.29754624
-0.07269125 0.099757046 0.0066648875 0.24053264 -0.095728986 0.038997058 -0.21363653 -0.009935168
0.4110961 -0.0018231872 0.16722585 -0.28282622 0.33010805 -0.06849111 0.010699981 0.007807627
0.10283231 0.15598351 -0.053528663 0.11893383 -0.046773504 0.11284846 -0.12130373 0.1566558
0.10172805 0.17456768 -0.17689952 -0.049205296 -0.0022483326 0.1353073 -0.13419108 -0.17078839
0.072593115 -0.20080246 0.31567246 -0.056643914 0.091738634 0.18640612 -0.34939912 0.008920896
-0.008873256 0.28033996 0.07041384 -0.18092543 0.06886249 0.0011694827 0.103807926 -0.02581536
0.11245627 -0.38087285 0.05606756 -0.3206395 0.01360183 -0.36384866 -0.41987213 -0.12292385
0.22755876 -0.34932154 0.19503993 0.10150229 0.21241404 0.061450377 0.10800781 0.20999931
-0.222121 -0.101411134 -0.259898 -0.1165258 -0.07121889 0.16537176 -0.29225332 0.21308486
-0.30861202 -0.077919796 -0.10511654 0.24990042 -0.14350218 -0.37935415 -0.0035682681 0.3641784
0.28950948 0.19505617 -0.21225858 0.041412756 -0.08196228 0.27237004 -0.08170459 0.20305218
-0.03714741 -0.3957547 0.14885144 0.09012843 -0.47412866 0.038077947 -0.049651563 -0.07393268
-0.07844117 -0.049630336 -0.07542036 -0.03812503 0.04167091 0.0881224 -0.001285585 -0.2020633
-0.09569943 -0.038582437 -0.21832016 -0.24706863 0.009435744 0.1773053 0.0076136813 0.20907587
-0.046964448 0.12875716 0.16447447 -0.043675438 -0.026363391 0.095473096 -0.12339176 0.03648983
-0.08722983 -0.030759864 -0.32825357 0.09233198 -0.12338601 0.30938014 0.06160636 0.20771253

actor.2.bias f4 [64]
00000000: 5a4e a83c 2724 90ba 0dd2 e33c 5a59 21bd
00000010: b815 373d 89e8 3a3d fc61 d9bc 0755 39bd
00000020: 7f32 e5bc 0de3 173d 9e61 653b f0fc a239
00000030: 70c7 00bd e7fe 113d c69f 0b3d 9779 0abd
00000040: 1e2d 8f3c b0b2 143d ab3b 88bb be7d 943b
00000050: ea7d 34bc 19fe 22bd 9f25 203d 8630 94bc
00000060: 74e6 033d de5d 05bd 43b6 27bd 6308 ffbc
00000070: f23b 223d 632e 113d f543 fc3c fbb6 ba3c
00000080: 7d48 273d 0ea2 203d 2c9a d53c d34e 2c3d
00000090: becf 1abd 6f6a 1bbd 1f44 0abd c2f2 9a3b
000000a0: daf8 24bc 9b8f ec3c 1ed6 34bd 267f 073d
000000b0: 46ff 7b3c 0ae2 0a3d 3824 adbc eeaa 18bd
000000c0: 80d2 32bd 17ba d9bc ec08 393d d58e d0bc
000000d0: 70ce 133d 9824 96bc b86d f03c 0294 0cbd
000000e0: d99c d1bc 463e d03c 7a37 24bd 0101 34bd
000000f0: 4e69 20bd 8a5a df3c dca6 45bb f17e 3bbd
0.020545173 -0.0010997102 0.027810121 -0.039391853 0.044698447 0.04563192 -0.02653598 -0.045247104
-0.02797818 0.037081767 0.0035000811 0.000310875 -0.0314402 0.035643484 0.03408792 -0.033807363
0.017477568 0.036303222 -0.0041575036 0.004531591 -0.011016348 -0.039793108 0.03909838 -0.018089544
0.0322022 -0.03256022 -0.040945303 -0.031131929 0.03960795 0.03544463 0.030794123 0.02279233
0.040840615 0.039217047 0.026074491 0.04206736 -0.037795775 -0.0379433 -0.03375637 0.004728646
-0.010069096 0.02887707 -0.04414951 0.033080243 0.015380686 0.033906974 -0.021135435 -0.037272386
-0.04365778 -0.026577992 0.045174524 -0.025458733 0.036085546 -0.018327996 0.029349193 -0.03432084
-0.025587486 0.02542032 -0.04009197 -0.04394627 -0.039162926 0.027264852 -0.003015927 -0.045775358

actor.4.weight f4 [4, 64]
00000000: 4185 19bd 33dd 173c ba22 11bd 0b1e 063d
00000010: ebca 55bd 906f 2bbd 4978 e23c 0ffa 393d
00000020: b1a7 983c 56dd 30bd f8d6 2cbc cc9c 033c
00000030: bff0 213d 7b16 2fbd 40cb 3cbd 64e3 de3c
00000040: 336d bb39 be5d 32bd 481d a13c b6ab 0dbc
00000050: 3714 163c 8971 1b3d f969 33bd 3e6a 5c3c
00000060: 8c46 cebc 3b5c 213d dce5 123d 7f5e 123d
00000070: db62 1abd af25 27bd 5bc3 ddbc b2c8 7fbc
00000080: f61a 33bd 498f e3bc 2fc4 1abd 7968 31bd
00000090: 4529 023d 2d49 1c3d d90b ab3c ddbd 02bc
000000a0: ec6e 823b 7a3a babb 86af 273d 58fc 1bbd
000000b0: 2e3d 01bc 73e9 2cbd 33f9 b73c 51be 453d
000000c0: 9b0b 113d f1f8 593c 1faf 10bd b4be 2d3d
000000d0: cddc 19bd f21e 8b3c c127 f0bc 0b17 073d
000000e0: 33e4 223d 5679 2bbd f30f f43c 3b60 193d
000000f0: 3f4c 3f3d 4889 53bc 7bfa 3ebc a13a 343d
00000100: 8715 4d3d 491b 8abd f314 32bd 0d1f 313d
00000110: 6bcd 18bd 1eba f1bc 04e4 44bd bdef 8d3a
00000120: 37a7 26bd 5089 a23b f281 6cbd ebe8 44bd
00000130: 2119 823d 6078 89bd bfdb 2dbd 431e 1b3d
00000140: fa4d 443d 79c8 05bd 67d4 693d eb7c 59bd
00000150: cc1a 8cbd 1315 21bd 0605 88bc 8335 55bd
00000160: 6f02 03bd d098 9b3d c366 18bd beaa 633d
00000170: e2f4 ce3c 0334 1a3c 93df 183d 66ee 593d
00000180: 10f4 f3bc 726d 6fbd d2fd 193d 81f1 423d
00000190: 43ac 25bd a7b2 463d a904 613d e23d 30bd
000001a0: 2f3e 3a3d a5be 3d3d 91b7 0b3d d93d 85bd
000001b0: 33b5 70bd b8bc 59bd 4134 673d bb1b 663d
000001c0: a0ea c4bb 620d 853d 377a 4839 a215 59bd
000001d0: a182 01bd 993a 5a3d f73a 353d 9dc2 193d
000001e0: 9a90 1ebc 3e07 873c 5a39 5a3d 6cd3 2dbc
000001f0: f3ea 7d3c f370 36bd 642f 75bd 1681 fe3c
00000200: a2a8 4b3d e569 7ebb 3e45 4a3d 3abb 4ebd
00000210: e268 753d 7a1f 443d 6215 46bd d187 82bd
00000220: 75ee 29bd 2756 493d ada2 693c 666e fc39
00000230: 385f 56bd 7bac 703d a76c 5c3d 9bcb 38bd
00000240: 6e6f 0f3c 06e1 4a3d f820 bcbc d992 183c
00000250: 37fc 95bc 3b86 6ebd a3b0 413d 9bd1 a7bc
00000260: 2c5f d53c 73bd 63bd d8db 81bd c11d 5ebd
00000270: b64e 673d ba27 5a3d 36cf 4d3d bfdd 0e3d
00000280: 97e7 573d a410 593d fd11 453d 8548 8f3d
00000290: cb39 32bd 2909 67bd 8c0b 20bd 454a 1c3c
000002a0: 8f3e cabb ff4a ac3c 09b1 3fbd 138b 563d
000002b0: a13b 863c 7adf 593d 70f5 1bbd 7512 77bd
000002c0: 5e8d 74bd 1892 dfbc 7039 7c3d 46d5 66bd
000002d0: 80f9 2d3d f71c cebc c5c0 443d 73f3 44bd
000002e0: cf9d 3abd 3551 553d aef7 67bd 1a8b 6bbd
000002f0: 017c 74bd 0ad3 d33c d5b2 0c3c ee82 3abd
00000300: c04e 54bd b0c4 8c3d 0a84 1c3d 5239 17bd
00000310: bc89 0dbd 770a b3bc 6a69 5c3d 28f1 493d
00000320: 0596 4f3d 39c5 32bd aaf6 613d 9bb5 383d
00000330: 6d95 75bd e660 703d 0770 c83c 5232 d6bc
00000340: a494 4fbd 2f0b 6abc 624f 71bd 2497 573d
00000350: 5ad4 8a3d f4d9 5f3d 1877 09bd dc0a 6c3d
00000360: a715 0f3d b7c9 99bd 0704 6e3d c42c 49bd
00000370: 56c6 5bbd 4507 62bd bc7b 2dbd 1ec3 5dbd
00000380: 892c 04bd 1bc9 4b3d 9eaa 43bd ef9e 88bd
00000390: fd42 303d 72f8 ccbc 419c 39bd cddd 373d
000003a0: 1aa2 32bd 88ff 48bd da7c 863c 4baf 4b3d
000003b0: adcf 653d 2abb f73b aa80 58bd 50f8 35bd
000003c0: 7a5a 5d3d 7404 60bd a90d 26bd cb91 713d
000003d0: f96c 923c bd85 4ebd 47b4 50bd 66e9 d5bc
000003e0: d097 323d a8d5 39bd 75c0 0abd 6806 2d3d
000003f0: dffe 513d 8313 263d 8885 773d b04b f13b
-0.037480596 0.009269047 -0.03543351 0.032743495 -0.05219547 -0.04185444 0.027645247 0.04540449
0.018634649 -0.043179832 -0.010549299 0.008032989 0.039536234 -0.04274605 -0.04609227 0.027208038
0.0003574878 -0.04354643 0.019667283 -0.008646896 0.009160093 0.037950072 -0.043802235 0.0134530645
-0.025180124 0.0393946 0.035863742 0.03573465 -0.037691932 -0.040807422 -0.027070692 -0.015611814
-0.043726884 -0.027778285 -0.03778475 -0.043312524 0.03177764 0.038155723 0.020879673 -0.007979837
0.003980508 -0.0056832405 0.040938877 -0.03808245 -0.0078881215 -0.042214822 0.022457695 0.048277203
0.03541146 0.013303981 -0.03532326 0.042418197 -0.037564088 0.01698253 -0.029315831 0.03298096
0.03976841 -0.04186376 0.029792761 0.03744529 0.046703573 -0.012911148 -0.011656399 0.044001225
0.05006936 -0.067434855 -0.04347701 0.043242503 -0.037305277 -0.029507693 -0.048069015 0.0010828894
-0.040686812 0.0049602166 -0.057741113 -0.04807369 0.06352449 -0.06712413 -0.042445894 0.037870657
0.047925927 -0.03266189 0.05708733 -0.053097647 -0.068410486 -0.03932674 -0.016603958 -0.052052986
-0.031984743 0.07597506 -0.037207376 0.055582754 0.025263254 0.009411815 0.037322592 0.05320587
-0.029779464 -0.058453985 0.037595578 0.047593597 -0.040447485 0.04851022 0.054936085 -0.043027766
0.04546946 0.04632439 0.03411061 -0.06505937 -0.058766555 -0.05315849 0.056446318 0.05617879
-0.006009415 0.06496693 0.00019119015 -0.052999146 -0.031618718 0.05327854 0.044245686 0.037539113
-0.00967803 0.016482946 0.05327735 -0.010609489 0.015497911 -0.04454131 -0.05985965 0.031067412
0.049721368 -0.0038820442 0.04938244 -0.050471522 0.059914477 0.04788158 -0.048360236 -0.06373561
-0.041487176 0.049154427 0.014259976 0.0004814744 -0.0523369 0.05875824 0.053814556 -0.04511605
0.008754594 0.049531005 -0.02296494 0.009312355 -0.018308742 -0.05823348 0.047287595 -0.02048569
0.026046358 -0.055600595 -0.0634076 -0.054227594 0.05647155 0.053260542 0.05024644 0.034879442
0.052711096 0.052994385 0.048112858 0.06996254 -0.043512147 -0.05640522 -0.039073512 0.009539192
-0.0061720083 0.021031855 -0.046799693 0.052378725 0.016385855 0.05319164 -0.038075864 -0.060320336
-0.05970513 -0.027291343 0.061578214 -0.056355737 0.04247427 -0.025160296 0.0480354 -0.048083734
-0.045560654 0.0520794 -0.05663269 -0.057505704 -0.05968857 0.025857467 0.008587559 -0.04553502
-0.051832914 0.06873453 0.03821186 -0.0369199 -0.03455518 -0.021855576 0.05381147 0.04930225
0.05068018 -0.043645117 0.055166878 0.045095067 -0.059956957 0.05868616 0.024467481 -0.026147041
-0.050678864 -0.014284893 -0.058913596 0.052634373 0.06778784 0.054651216 -0.033560842 0.057627544
0.03493276 -0.07509177 0.05810931 -0.049114957 -0.053655945 -0.055182714 -0.04235433 -0.054141156
-0.032269035 0.049752336 -0.047770135 -0.06670939 0.043032635 -0.025020812 -0.04531503 0.04488926
-0.043611623 -0.04907182 0.016416956 0.04972772 0.05610626 0.0075601535 -0.05285708 -0.044426262
0.054041363 -0.054691747 -0.04054037 0.05897693 0.017874228 -0.05042051 -0.050953176 -0.02611227
0.04360181 -0.045369774 -0.033874948 0.042242438 0.051268455 0.04054595 0.06043008 0.007363759

actor.4.bias f4 [4]
00000000: 1404 17bd af6a 9ebc a0fc 303d 586c b7bc
-0.036869124 -0.01933798 0.043209672 -0.02239053
