HFDRL_UNIT8/models/Archived/LunarLander-v3__ppo__1__1768735566__u120.ckpt (torch, 134281 bytes, 33 tensors)

critic.0.weight f4 [64, 8]
00000000: 7667 18be 72e2 643d fd73 d83c 545f f5bc
00000010: d37a 9bbd 46b3 103e 1040 92be 49da 0f3e
00000020: ffde 1ebe 7277 663e e4fb 853e cf3e f2bd
00000030: 6572 20be 8084 54be 55c0 293e 0f53 75bd
00000040: e302 fd3c ea5d 6abe 3b12 103e 8aa6 103e
00000050: 533c 173d 9565 d03d 9fdf 3b3e 8c43 083f
00000060: fd18 46be cff9 dd3d 7da0 223a 67ff 0cbf
00000070: d99e 8d3e 6ba8 7f3c 426b 88be cbe1 25be
00000080: 4650 dc3c 989b f6bd b9ee 863e 9cfc d4bd
00000090: 4956 39bc a3e5 c2bd 60ba 173d ece0 b5be
000000a0: 04c5 21bc 1056 8fbe c070 9fbc c827 e4bd
000000b0: 61de 02bd 6acd 8f3e b4d5 00be 07af 15be
000000c0: 1ac0 9ebe 874f 3abe 5d98 af39 4258 163d
000000d0: ec67 aabd 3a44 75be 38a3 d93e 5ea7 2b3e
000000e0: 527e 85bd 4137 f13e b30d 1a3e 6197 303e
000000f0: 8423 95bd 9d3e 0b3e 8d79 883e 3c39 c03e
00000100: 4bbe 2a3e 9a09 34bd 3150 9d3e 4f62 85be
00000110: 3ec1 ba3e 3467 b1bc bb27 cfbc 7213 ebbc
00000120: 7ce2 9b3c 5850 423e fa72 aa3e 1b2b 6fbe
00000130: 66dd 3e3e 92ff 573d 9375 743e 4c4a 063f
00000140: bb5a cdbd 68a9 d7be 4457 f13d ed82 dc3e
00000150: 1779 e6bc 8c7b 803e 9045 1ebc 740b 20be
00000160: aa2b 8cbd b97e c13e b765 78bd cca0 6a3b
00000170: 92f5 9dbd 983c 553e 2dd3 8bbe 60b1 e6bb
00000180: 9bb2 0dbc 0961 913e 9fe6 913d 9f5a 97bd
00000190: aa3b 9bbd 9af9 9d3c db9b fabd 88f2 e83d
000001a0: 13ed 3dbd 9797 1ebe f533 433e e4a5 ce3e
000001b0: c0a0 9cbc 18bc c93c 1b49 6abe 52c2 263e
000001c0: 7e84 cfbd 76e1 94bd d233 143e b2a3 9e3e
000001d0: 92fa e63d c528 d1bb 1110 e23c c5ff 393d
000001e0: c59d 74bd 24ff f63d afa8 6dbe c5ca 9cbe
000001f0: 00a4 01bd 9c46 403e e32a 5e3d 9a01 c1bd
00000200: e045 053e cf1a c93d 6508 2d3d d773 d1be
00000210: 9932 e2bd b15f 5abd 7850 eabd 9125 5c3e
00000220: d3e6 96bd 5702 073e fdac c53e 4c37 273e
00000230: e2ea 993e 1246 63be 9700 053c b2d2 3c3e
00000240: 5f5d a1be 602f 27be 9d3d 763e 0e73 063e
00000250: 2cc2 56be dcae ea3d 5a05 1abc a5c7 a1bd
00000260: 6368 55bd 8994 8e3e 949a 25bd 1b5e 39be
00000270: ad10 d83c 6cf0 3f3e 3e21 adbe a1a4 4fbe
00000280: a570 463e 066b 24bd b6df 243e 1114 9b3d
00000290: 8d2b 893d cecb 89bd 2d14 803b 466f f73c
000002a0: 04a1 fe3d 3347 db3c 5260 2bbe e428 9abe
000002b0: 8b3d 7fbd 8004 b43d 91b1 43be fafa b1bd
000002c0: 3c97 333e bce7 70ba ea9d b73d bb54 4d3e
000002d0: 97f8 37be 11c4 1abe ee4d 01be 1f49 61be
000002e0: b25a 543e 16fa bc3d e0f7 d5bd 70cc f43b
000002f0: 30a4 153e f600 d0bd a6bb 8a3c f999 8fbe
00000300: dc08 90bd 9457 963d 6564 a83d 0735 38be
00000310: 7aac 3f3d de23 4dbe cc1d 16bf 824b 18be
00000320: bda3 9abd f068 a93e 4534 1d3d 8466 923b
00000330: c803 683d 029a 6ebe 06b4 ae3d fcfd 90bd
00000340: 38d0 b0bd 3dde c33c 304e c33d 04bf 1d3d
00000350: d4a8 803e bd7a 14be 3d41 dd3d a1d8 273e
00000360: 03f5 49bd a227 fcbd dc65 eebc c44e e03d
00000370: 1f4d 77be ab2e 463e 9bca f43d 46c5 9d3e
00000380: e7a2 863e 5e4f 743c 853e 91be 8c93 a7bd
00000390: 93ad 00be bacc 9b3b 070e c1be 23e8 c3bd
000003a0: 5199 f13d b133 d83e 1fa7 35be ab4e 823e
000003b0: a4d1 43be 0afa 873d 5141 4e3c c1b1 dbbe
000003c0: 3089 89be 6c4c e0bd e0be 2abe 9247 993d
000003d0: 0f43 673e cd17 f0bd 8334 d43d 5567 b73e
000003e0: 8f83 eebd 972d eb3e 1552 083e f15f abbd
000003f0: 8a91 543e d1ba 1f3e 9269 25be 6f3f 89be
-0.14883217 0.055880018 0.026422495 -0.029952683 -0.07591786 0.14130887 -0.285645 0.14048113
-0.15514754 0.22506502 0.2616874 -0.11828386 -0.15668638 -0.2075367 0.16577275 -0.059893664
0.030885166 -0.22887388 0.14069454 0.1412603 0.036922764 0.10175625 0.18347023 0.5322807
-0.1934547 0.10838663 0.0006203724 -0.55077213 0.27660254 0.015604119 -0.2664433 -0.16199414
0.026893746 -0.12041396 0.26354006 -0.10399744 -0.011312076 -0.09516456 0.037042975 -0.35523164
-0.009873632 -0.27995348 -0.019462943 -0.111404 -0.03195036 0.28086406 -0.12581521 -0.14617549
-0.31005937 -0.181944 0.0003349212 0.036705263 -0.08320603 -0.23951808 0.4250734 0.16763064
-0.06518234 0.47112468 0.15044288 0.17245246 -0.07282165 0.13598104 0.26655236 0.37543666
0.16674154 -0.04395447 0.30725244 -0.26051566 0.36475557 -0.021655656 -0.0252875 -0.028695796
0.019028895 0.18975961 0.33290845 -0.23356287 0.18639144 0.052733965 0.23872976 0.5245712
-0.10027071 -0.42121434 0.11784223 0.43068638 -0.028133912 0.2509426 -0.00966014 -0.15629369
-0.06844266 0.37791994 -0.060643878 0.0035801409 -0.077128544 0.20823896 -0.27309552 -0.0070401877
-0.00864854 0.28394344 0.071240656 -0.073903315 -0.075797394 0.019284058 -0.12236758 0.11374384
-0.04636867 -0.15487514 0.19062789 0.4036094 -0.01911962 0.024625823 -0.2287945 0.16285065
-0.10132693 -0.07269566 0.14472893 0.30984265 0.11278261 -0.006383034 0.027595552 0.045409936
-0.059720773 0.12060383 -0.23208879 -0.3062345 -0.031650543 0.18776935 0.05424012 -0.094241336
0.13014936 0.098195665 0.042244334 -0.4090869 -0.11044807 -0.053313915 -0.114411294 0.21498705
-0.07368245 0.13184486 0.38608542 0.16329688 0.30062014 -0.22194698 0.008117816 0.18439749
-0.3151655 -0.16326666 0.24046941 0.13129827 -0.20972508 0.11459133 -0.00940069 -0.07899407
-0.052101504 0.27847698 -0.04043062 -0.18102305 0.02637514 0.18744057 -0.33814424 -0.20277645
0.19378908 -0.040141128 0.16100964 0.07572187 0.0669776 -0.06728326 0.003908655 0.030204426
0.12433055 0.026767349 -0.16735962 -0.30109322 -0.06231455 0.08789921 -0.19110705 -0.08690448
0.1753816 -0.00091898046 0.089656666 0.20051853 -0.17965923 -0.15113856 -0.12627384 -0.2200055
0.20737723 0.092273876 -0.10447669 0.00747066 0.14613414 -0.10156433 0.01693518 -0.2804716
-0.0703294 0.07340923 0.08222274 -0.17988978 0.046795346 -0.20033213 -0.58639216 -0.14872554
-0.07550762 0.33087873 0.038379926 0.004467787 0.05664423 -0.23300937 0.085304305 -0.07079694
-0.086334646 0.023909682 0.095363975 0.038512245 0.25128806 -0.14499946 0.10803459 0.16391231
-0.049305927 -0.12312247 -0.029101305 0.10952523 -0.24150513 0.1935374 0.119527064 0.3081457
0.2629616 0.014911501 -0.2836801 -0.08182439 -0.12566213 0.00475463 -0.37706015 -0.09565761
0.11796821 0.42226937 -0.17739533 0.25450644 -0.1912294 0.06639488 0.012588815 -0.42909053
-0.26862478 -0.10952076 -0.16674376 0.07484354 0.22584175 -0.1172329 0.10361578 0.35821024
-0.116461866 0.4593322 0.13312562 -0.08367909 0.20758644 0.15598609 -0.16153553 -0.26806208

critic.0.bias f4 [64]
00000000: 0e94 1dbe 748d f13d e2dd fe3d 6934 02be
00000010: 9492 39be 9de1 cabb 9c22 96bc 2dff 223e
00000020: 6493 20be 3399 0d3e d775 c03d 53f6 f9bd
00000030: ffb1 0c3e 5e6f 1b3e 5f2d 033e 2f62 1abe
00000040: 9f3a ee3d aec5 183d 22b0 0abe 8281 00be
00000050: 3c80 04be 273f 0c38 f5af bbbd c3f7 1abe
00000060: f2f8 06bd 4b0b b3bc 942e 153e ee7c 093e
00000070: 793f 01be 2402 c9bd a322 083e ce5e cdbd
00000080: 9e10 11be 6fde 10be a555 213e bfdb 153e
00000090: 29e6 07be 505a 0fbe c866 02be dd94 003e
000000a0: 89c5 06bd b108 0f3e 2e52 e6bd 7abe 2fbd
000000b0: dfc2 14be 8a26 9cbd 7ebc eabd 9212 0bbe
000000c0: d58f 11be 7855 fcbd 9183 f1bd 4650 f13d
000000d0: 9bfa 08be 9db5 823d 4d29 a4bd 1f4b 70bc
000000e0: 828a 1bbe db34 e73d d479 1bbe 686a 51bd
000000f0: 1e13 d33d 2804 1c3e a3ac 28be a798 1dbe
-0.1538851 0.11794558 0.124446645 -0.12715305 -0.18122321 -0.006191446 -0.01832705 0.15917654
-0.15681225 0.13827972 0.09397476 -0.12205186 0.13739775 0.15179202 0.12810276 -0.15076517
0.11632275 0.037297897 -0.13543752 -0.12549403 -0.12939543 3.3437416e-05 -0.091644205 -0.15133576
-0.032952257 -0.02185597 0.1456855 0.13426563 -0.12621869 -0.098148614 0.13294463 -0.10027848
-0.14166495 -0.14147352 0.15755327 0.14634608 -0.13271393 -0.13999295 -0.1273452 0.12556787
-0.032903228 0.1396816 -0.11246143 -0.042906262 -0.14527462 -0.07624538 -0.11461733 -0.13581303
-0.14215024 -0.12320989 -0.117926724 0.11782889 -0.13376848 0.06382296 -0.0801569 -0.014666348
-0.15189555 0.11289378 -0.15183192 -0.051126868 0.10306381 0.1523596 -0.16472106 -0.15390263

critic.2.weight f4 [64, 64]
00000000: aacf 653e 4da8 0ebf 0ef7 47be 2186 903e
00000010: 8bb6 da3c 1b7e b5bd 3bdd 213e d8ac bcbe
00000020: e391 f33c ac1d 983e e3b7 41be ba2a 5bbd
00000030: dfff bdbd a904 7ebe 51ca bebe 34b3 8a3e
00000040: a532 363d 15d1 24be 2677 2b3d d805 3a3e
00000050: 9833 b8bd 8c26 1a3e ecf5 1e3e 82a4 103e
00000060: c626 a43e a8b3 a03d 589d 303e 7a9d 32bd
00000070: 11e8 353d 3200 ce3d 0f8f 25bd 6807 ca3d
00000080: a650 57bc e774 553e fe39 2d3e b9e3 bebd
00000090: faa3 a2be a502 83be f4f2 b3bd f4fb 08bf
000000a0: 229c 643e 65dc 60be 4962 073d 50a0 a4bd
000000b0: 840b 76be bc2e 1c3e e98e f53d 89d2 9e3e
000000c0: 3a05 ae3d a286 7c3e b22e 7fbd b787 9dbd
000000d0: e628 e43d 2c82 00be 4d77 afbc 1615 bf3d
000000e0: 2ec2 323e bfe4 0abe 6f38 933d 4878 dc3c
000000f0: 1514 dd3d 0df5 343e 0479 70be 9e4b ba3d
00000100: 6493 a03e 56d5 073e cfd6 7cbd eef9 d33d
00000110: 9aa9 383c 3199 39be d72d d43d 92ed 87be
00000120: c395 143c bfca 99be 8759 d7bc 8f23 85bd
00000130: 4edd cb3e 4959 553e 4fb4 60be 5783 9e3e
00000140: 4f44 44bd af0d a5be d1ec d13e a1f2 b4bd
00000150: 2163 953d 40bd e13d c6c2 26bc c0eb dd3d
00000160: fb0b 9d3a 383a 0a3e 72e7 0bbe 627f c6bd
00000170: 4d48 8c3e 24d9 983e 06e0 16be 6624 423e
00000180: 55df 703e 3e04 fb3d 1cfe dfbd ad1f 3cbe
00000190: 9a7a d53c 8601 b3bd c0c0 e7bd 6a55 573e
000001a0: 37c3 ab3d 79e8 a0bd 9bea 5a3e fdcb 73bd
000001b0: 446b 0f3e 4778 3a3e c3fe ac3e 2cba 953c
000001c0: c9fb d83e 6711 99bd e72f ee3c 277d f7bd
000001d0: 3ded f03d bb34 0abe d23e a1bd 4eb9 0ebe
000001e0: 72af ba3e ffa4 83be 4f71 4e3e 9842 5b3e
000001f0: 620a fe3c 9d07 76bd b5f7 7ebe 7c49 733c
00000200: 3849 2cbe 69e0 1c3e f8a4 8d3e 2e92 5dbc
00000210: 4801 803e c413 4abd 6143 ac3d d089 7c3e
00000220: f583 a1be c82e bb3e 166c 1bbe 9699 89be
00000230: 9ba9 66bd 6d98 b13e 7310 8f3e 56ab b5be
00000240: c688 bdbe 889f 3c3b 6235 663d b1f8 1dbe
00000250: fac8 16be 8dbc 03be de6e 06be d79d 4ebd
00000260: 525e 43be 56c5 6d3d 258f ee3e 226d 8d3e
00000270: 9947 633a bcbf d7be e0ec 1fbe 2f1f b4be
00000280: 8dc6 703e d793 573d f2bc 04bd 2042 073e
00000290: 0695 babd 92c0 efbd 276f a53b 40cb 393e
000002a0: af9b b33d 75e9 97be c0d1 883e c0c3 643d
000002b0: 7548 a03c 826b 69be 7d16 bf3e 12fc 453d
000002c0: e65b 81bb 089f b5bd 4824 f43c 0874 873a
000002d0: bcfa 2abe 5352 2e3e 81c4 a23d 8340 e4bc
000002e0: ac15 aabe 4557 923d 95ec 743d 8d60 6bbe
000002f0: 1bd1 ef3d 1bbb d33d 6189 bfbd f6b2 4fbd
00000300: f512 a13e 5bc8 3a3e 85bb 7ebe add0 a53e
00000310: 678b 423d 6dc2 23be bae5 19bf 115e 09be
00000320: 0f0b 0c3e 9096 3b3d fdb5 4f3d 135b 803d
00000330: ba79 87bd b8dc c73d c682 81be 535c ab3e
00000340: 0fa5 55bd 0a50 663d 96fe acbd 8c71 573e
00000350: edef 2dbe 58fe 3d3e 9519 c93e 4a75 753e
00000360: 1f01 e6bd 6f3f 16bd eacc 98be e767 85be
00000370: ea20 54bd dbbc cdbe af97 023e e736 413e
00000380: fcf6 df3d 09b1 5d3e fe21 8ebd 71fd 2cbe
00000390: a7db fbbd 3fce 92be 356e 0f3e ee8b e3bd
000003a0: 6997 193e f994 56bd e632 023e ddc6 d53d
000003b0: 082d 0cbe 367e da3e 70ef 5dbd e804 ad3d
000003c0: 73d0 963e ac5d e13d e3c5 5fbe 6eb9 c6bd
000003d0: e7ee 3a3e 5ed5 2ebe e4a7 b3bd f52f b7be
000003e0: f817 213e 3881 81be 23fe 0f3e 8752 4b3e
000003f0: 50c1 abbe 0960 c8be 9d30 2dbe a860 a53c
0.22442499 -0.55725557 -0.19527838 0.28227332 0.026698371 -0.08861943 0.15807049 -0.3685062
0.02973265 0.29710138 -0.18917803 -0.053507544 -0.09277319 -0.24806465 -0.3726373 0.27089846
0.044481892 -0.16095383 0.041861676 0.18166292 -0.08994216 0.15053767 0.15523499 0.14125255
0.32060832 0.07846767 0.17247522 -0.043607213 0.04441077 0.10058631 -0.040419634 0.09864694
-0.013141787 0.20845376 0.16916654 -0.093207784 -0.3176573 -0.25587955 -0.08786574 -0.5350945
0.22325185 -0.21959074 0.033052716 -0.0803839 -0.2402783 0.15252203 0.119901486 0.3102
0.08497091 0.24660733 -0.06230039 -0.07691901 0.11140613 -0.12549657 -0.021419192 0.09330194
0.17456886 -0.13563822 0.07188498 0.026912823 0.10794846 0.17671604 -0.23483664 0.09096454
0.3136245 0.13264975 -0.061728295 0.10350405 0.011270905 -0.18124844 0.10360306 -0.2654844
0.009068909 -0.30037495 -0.026287807 -0.06500923 0.3981728 0.20834841 -0.21943782 0.3095958
-0.047916707 -0.32237002 0.4100099 -0.0883534 0.07294298 0.11022425 -0.010178274 0.10835981
0.001198172 0.13498771 -0.13662508 -0.09692265 0.2739891 0.29853165 -0.14733896 0.18959197
0.23522694 0.122566685 -0.109371394 -0.18371458 0.026059438 -0.08740525 -0.11316061 0.21028677
0.08386844 -0.07856841 0.21378557 -0.05952071 0.14005762 0.18209945 0.33788118 0.01827725
0.42379597 -0.07474022 0.029075576 -0.12084418 0.117639996 -0.13496678 -0.0787331 -0.13937876
0.3646198 -0.2571182 0.20160411 0.21412122 0.03101081 -0.060065854 -0.2489918 0.014849063
-0.16824806 0.1531998 0.27664924 -0.0135236215 0.25000978 -0.049335256 0.08411289 0.24661946
-0.31545988 0.3655913 -0.1517795 -0.2687499 -0.056314092 0.34686604 0.27942237 -0.3548228
-0.37018412 0.0028781611 0.056203254 -0.154269 -0.14725104 -0.12864895 -0.1312823 -0.050443497
-0.19078949 0.058049522 0.46593586 0.27622324 0.00086700317 -0.4213847 -0.15617704 -0.3518004
0.23513241 0.052631225 -0.032406755 0.13208818 -0.09110455 -0.11706652 0.005048651 0.1814394
0.08769929 -0.296703 0.26722527 0.055850744 0.0195658 -0.22794917 0.37321845 0.048336096
-0.0039477227 -0.088682234 0.029802456 0.0010334263 -0.1669721 0.17023592 0.079476364 -0.027862793
-0.3321966 0.071455516 0.059795935 -0.2298605 0.117098056 0.10338422 -0.09352375 -0.05070778
0.31459776 0.18240492 -0.2487622 0.3238577 0.047496226 -0.15992136 -0.6011616 -0.1341479
0.13676094 0.045797884 0.050710667 0.06267371 -0.066150144 0.09758896 -0.25295085 0.33468875
-0.052159365 0.056228675 -0.08446996 0.21039408 -0.16986056 0.18554056 0.3927733 0.23970523
-0.112306826 -0.03668159 -0.29843837 -0.26055834 -0.0517892 -0.40183148 0.12753175 0.188686
0.109357804 0.21649565 -0.06940077 -0.16893555 -0.12297755 -0.28672978 0.14006884 -0.11110674
0.14999165 -0.052388165 0.12714729 0.10438321 -0.13689053 0.42674416 -0.054183424 0.084482014
0.2945591 0.110041946 -0.21852832 -0.09703337 0.18255197 -0.1707358 -0.08772257 -0.35778776
0.157318 -0.252939 0.14061789 0.198557 -0.33545923 -0.3913577 -0.16913076 0.02018769

critic.2.bias f4 [64]
00000000: f79d f4bd 579e b8bd 5879 f73d 2db1 16be
00000010: d703 26be 28a5 d8bd c759 fc3d 25f2 23be
00000020: 06fc 13be 7eb7 153e 3b18 d3bd b266 a7bd
00000030: 3c67 09be fb36 00be 1732 05be 444c 013e
00000040: c743 eebd fe6c e4bd d0a6 debd 1257 953d
00000050: 73c9 00be 7efa 043e 1692 fcbd e20d fdbd
00000060: 309e b43c 9e39 dc3d ca77 e93d 30af e63d
00000070: df5a 103e 9bd2 0abe 92d6 e53d d5b8 0cbe
00000080: 7447 d1bd 4168 033e 8476 0b3e b132 f3bd
00000090: f7c1 093e dd9b f23d 195c fdbd d68f fdbd
000000a0: 4850 35be d092 f6bd ddd3 f63d 8aa7 efbd
000000b0: f92d 1f3e 7bd8 103e 02a5 fa3d d0c1 ecbd
000000c0: 5a52 213e a376 813d a1a3 f33d cc1a ef3d
000000d0: 470e 013e 9875 dd3d e162 e4bd 1931 e13d
000000e0: 6ca9 0d3e ebce f3bd d639 c33d 6392 ee3d
000000f0: 3928 02be 2b74 1d3e 29cd e83d 1576 e73d
-0.11944192 -0.09014576 0.12083691 -0.14716025 -0.16212402 -0.10578376 0.12321811 -0.1601034
-0.14451608 0.14620778 -0.10307356 -0.081738845 -0.13418287 -0.12520973 -0.13007389 0.1262675
-0.11634021 -0.11153601 -0.10871661 0.07291998 -0.12576847 0.1298618 -0.12332551 -0.123561636
0.022048086 0.10753177 0.11399801 0.11263883 0.14097165 -0.13556902 0.11222567 -0.13742383
-0.10218707 0.12832738 0.13619429 -0.11874903 0.13452898 0.11846135 -0.12371082 -0.1238095
-0.17706406 -0.12039721 0.120521285 -0.117018774 0.15544881 0.14145081 0.12238504 -0.11560404
0.15754071 0.06321456 0.11896444 0.11675033 0.12603103 0.10813445 -0.11151672 0.10995693
0.1383416 -0.11904701 0.09532516 0.11649015 -0.12710656 0.15376346 0.11367256 0.11301819

critic.4.weight f4 [1, 64]
00000000: ecaf 5a3e fdf7 2b3e 55df 33be 1819 303e
00000010: 8b83 e13d 6c57 c03e 8088 46be be2d d23d
00000020: 89b7 d43d 1c5b 3ebe cf7d 933e ec5c 253e
00000030: 6976 583e de23 1c3e 7e83 6a3e ad9b 40be
00000040: e8d9 513e 5400 843e 9f82 403e 7afd dabd
00000050: 3096 7b3e 367a 14be 42b9 033e 6e79 1f3e
00000060: 9c42 06be ca30 a9be 570b a4be 5c35 e0be
00000070: c81d 2bbe f7a6 503e 8e92 a5be 7605 2b3e
00000080: 94ec c13e a0aa 57be 0ef8 09be 262d 713e
00000090: 4cf6 6ebe 7cce d1be 1401 893e 4d7e 6e3e
000000a0: 36af b43d 4392 983e 6b25 39be 8c96 903e
000000b0: af3d c0bd e141 8dbd d4d6 afbe 0804 203e
000000c0: f080 dbbd a9ce cfbc d95b 6fbe 6576 a3be
000000d0: 0695 41be 1c2d 02be e349 6b3e 48fd c9be
000000e0: 1f78 43be 22b8 813e c4e7 08be ecfe 8cbe
000000f0: 569a 503e 5204 22be 1d27 cdbe d998 f6be
0.21356171 0.16793819 -0.17565663 0.17197073 0.11011418 0.37566698 -0.19388008 0.10262631
0.10386569 -0.18589443 0.28806922 0.16148728 0.2113892 0.15248057 0.22901723 -0.18809386
0.20493281 0.257815 0.18799828 -0.10692878 0.2456901 -0.14499745 0.12863639 0.15573665
-0.13111347 -0.33045036 -0.32039902 -0.4379071 -0.1671058 0.20376192 -0.32338375 0.16701302
0.37875807 -0.21061182 -0.13473532 0.23552379 -0.23336142 -0.40977848 0.26758635 0.23290367
0.08822481 0.2979909 -0.1808068 0.28239858 -0.09386765 -0.06897331 -0.34343588 0.15626538
-0.10717952 -0.025367098 -0.23374881 -0.31926265 -0.18904504 -0.1271252 0.22977404 -0.3945105
-0.19088791 0.25335795 -0.13369662 -0.2753824 0.20371374 -0.1582196 -0.40068904 -0.48163489

actor.0.weight f4 [64, 8]
00000000: ca71 64bd 0ee7 c13c a0c0 693e 577b 91bd
00000010: 2e57 1fbf c04d 49be 3747 983d 4421 513e
00000020: 75c0 6dbe 9141 ba3d cec6 b4bd a380 1e3f
00000030: be65 4d3e 7bf8 87bd 492e b7bd 3e13 1a3e
00000040: d879 5d3b 25aa 8abe 273b 6cbd 1eb7 14bf
00000050: 0509 a33e a91d 9fbc f7f4 b5be 77cb 8fbe
00000060: 55f4 9bbd eb55 c8bc 1c40 5dbe 22a1 dfbd
00000070: 53f1 d63e 1a3f 81bd 0eb6 47be 82bc 73be
00000080: 3a16 ff3d 0381 3cbd 606d f1bd d3c5 51be
00000090: 278b 7d3e 423c 373e 05d3 383e f9a1 9bbe
000000a0: 8c28 ccbd 8a8c 83be 6f80 7b3d 064c c83e
000000b0: 66f9 a5be c4bc 333d af1c 743d 2a26 bf3d
000000c0: 6c58 a3be 5b7d b3ba f999 85bd 74ef 803d
000000d0: ef43 85be 9d81 6bbd e4a2 233e c573 aabe
000000e0: 0eab dcbd 5aad 52be 5a1c 823e 36f5 e83e
000000f0: d7ff 26bf dbfa 04bf c6e3 d93d 59d0 243e
00000100: 2cce 58be 6f0b 1c3e 1cad f7be 21c9 cbbe
00000110: 6421 c43e e582 b63e 7307 0cbf a047 bf3d
00000120: 34b7 fbbd 975a c93c bb1b 063c 7169 483e
00000130: dfc7 a8be 348e c2be a6f9 e0bd ddef 0d3e
00000140: 0614 7cbd c357 893d a27f b73c 6b7c 8bbd
00000150: 612e dabe f219 07bc 1a8b 853e 7bd1 1c3e
00000160: bd12 e43c 8f42 aabd 70e7 063d 0cc1 203c
00000170: 7db5 f9be ed91 9bbe e5ba 023e 31a0 3cbe
00000180: 3811 4abe 9045 d3bd 2d0a 80be ccaa 95be
00000190: af28 983e 47ef cc3e b00b 19bd 11e2 02be
000001a0: 9449 9dbe f49d 993e fa9c 453d 8a38 083d
000001b0: c183 dc3c 8607 96bd 3a7d 7b3e b1bb b43c
000001c0: 1aa9 01be 68b0 3cbe 2270 ca3e 839d 00bf
000001d0: bead 8cbe 5500 80bd 7ff6 ab3c 5653 033d
000001e0: 6c94 2fbe e0b1 c63d 729f a73d 1105 27be
000001f0: afda 96be 0a4b 0abe 57da a3bd 12b3 bc3d
00000200: 9e51 90be b1ae 89bd a879 233e 2a61 083f
00000210: ca58 85be 1657 bdbe e122 863c d693 c13d
00000220: 2860 2c3e bca2 cc3d 81d0 27be 59df a9be
00000230: e3ea 113d 6577 f1ba f83a 233e e5f9 41be
00000240: 01bd 243d ede7 af3d f16a 9cbe ecae 123e
00000250: 70d3 a33e ddff 303e 38e9 d33c 79aa e13c
00000260: fe3b 163e 4172 c6bc 3f0b 623e 9c3f f8bd
00000270: f98e 0cbf b697 bcbe 5700 95be 7bcf 14be
00000280: 3ce8 0bbd d77d 1ebe e617 4ebe 9b34 9abc
00000290: c763 193d 8a5e 673e 643a 5a3d be7a 3f3e
000002a0: f8f6 d43d c79d a83c 5650 d73d 8bb0 573e
000002b0: 11c3 e2be fd05 d0be 5c44 3d3d 2ec3 9a3d
000002c0: 06df df3c 2ddd 1c3e a041 2ebe 035c 243f
000002d0: 5314 e03e b3cb 9f3e 4ade d23d fe04 54bc
000002e0: 5c7d 8a3e 9296 353e 4890 473e ede3 dabe
000002f0: 9a4f f83e f649 583e 13b3 89be ad6d 1abd
00000300: 54ea 92be 0023 de3c 2547 cfbd c953 953e
00000310: 80eb 62be 6a26 9dbe 3914 3f3d 354e 9a3d
00000320: b523 0bbd b908 a03d bb9d f4bd 1dc8 efbe
00000330: 5feb 353d e191 8c3e a5f7 3fbe 9442 323d
00000340: 5e0b ae3d 0a10 7c3c d74a 0e3f 3add 5e3e
00000350: dabc 87be 8e0c 77bd 1e3b 49be 17b0 863e
00000360: 3c1f d83d 85ff 1ebe a99a bdbd 4d07 cebe
00000370: 3d48 f73e 378b fc3e c276 803d d60f c83d
00000380: c2b2 883c 58d5 71be 4bb2 b6bd b334 5dbe
00000390: 85ac 123f 749d 243d 0f1e 31be 5bd1 fdbc
000003a0: 5b41 f13d e91a 63bd 552a b23c 7647 47bf
000003b0: 2e29 39be f49b 15bf 0add c2bd 25a0 bcbd
000003c0: 46c2 aabd 9a86 13bd 1552 48bd 152d 0a3f
000003d0: b6ff db3e 0d77 3d3e 4a33 4bbc 7059 34bd
000003e0: b0cf dd3d 96cc a2bc c28c 3fbd 53b2 cb3e
000003f0: e5b0 793e c78b 3f3d 3613 e6bc f5c5 6abe
-0.05577258 0.023669746 0.22827387 -0.07103603 -0.622424 -0.19658566 0.07435458 0.20422846
-0.23217948 0.09094537 -0.088269815 0.61915034 0.20058343 -0.06639191 -0.08944375 0.15046403
0.0033794548 -0.27082935 -0.0576736 -0.58091915 0.3184282 -0.019423323 -0.35538456 -0.2808492
-0.07614962 -0.024455031 -0.21606487 -0.109194055 0.4198099 -0.06310864 -0.19503042 -0.23802379
0.12455411 -0.046021473 -0.1178844 -0.2048562 0.24760114 0.1789408 0.18049248 -0.30397013
-0.09968671 -0.2569316 0.06140178 0.391205 -0.32416838 0.043881193 0.059597667 0.09333451
-0.31903398 -0.0013693975 -0.065235086 0.06295672 -0.26028392 -0.057496656 0.15980107 -0.3329145
-0.107748136 -0.20573941 0.25412256 0.4549958 -0.6523413 -0.51945275 0.106391475 0.16095103
-0.21172398 0.15238737 -0.4837426 -0.39801887 0.38306725 0.3564674 -0.54698867 0.09339833
-0.122908026 0.02457933 0.008185322 0.19571473 -0.3296499 -0.37999117 -0.10985117 0.13861032
-0.061542533 0.06706192 0.022399727 -0.0681084 -0.4261351 -0.008245932 0.2608269 0.15314285
0.027840966 -0.08313476 0.03293556 0.009811651 -0.48771277 -0.3038477 0.12766607 -0.18420483
-0.19733131 -0.10316002 -0.25007764 -0.2923187 0.2971854 0.40026304 -0.03736466 -0.1278155
-0.30720198 0.3000332 0.048245408 0.033257045 0.026918294 -0.07325654 0.24559489 0.022062154
-0.12662163 -0.18426669 0.39538676 -0.50240344 -0.27476305 -0.06250063 0.020991562 0.032061897
-0.17146462 0.09701896 0.08184709 -0.16310526 -0.29463717 -0.13505188 -0.080006294 0.092138425
-0.2818727 -0.06722773 0.15964377 0.5327326 -0.26044303 -0.36980504 0.016374053 0.094520256
0.16833556 0.099919766 -0.16388132 -0.33178213 0.035624396 -0.0018422423 0.15940464 -0.18942983
0.04021931 0.08589158 -0.3055034 0.1432454 0.31997252 0.17285104 0.025868043 0.027547108
0.14671323 -0.024224402 0.22074603 -0.121215075 -0.5490566 -0.36834496 -0.29101822 -0.14532273
-0.034157023 -0.15477692 -0.20126304 -0.018823912 0.03744867 0.22594658 0.053278342 0.18699166
0.10398668 0.020583047 0.1051337 0.2106344 -0.4428945 -0.4062957 0.04620777 0.07556759
0.027328026 0.15318747 -0.17017221 0.642029 0.43765506 0.31210098 0.102963045 -0.012940643
0.27048767 0.1773322 0.19488633 -0.4275202 0.4849823 0.21121964 -0.26894435 -0.03770225
-0.28694403 0.027116299 -0.101209916 0.29165486 -0.22160149 -0.3069337 0.046650145 0.07534448
-0.0339696 0.07814164 -0.11944147 -0.46832362 0.04441392 0.27455047 -0.18746813 0.043520525
0.08498262 0.015384683 0.55582947 0.21764079 -0.2651127 -0.060314707 -0.19651458 0.2630622
0.105528325 -0.1552716 -0.09258015 -0.40239945 0.482973 0.49324962 0.06272651 0.097686455
0.0166868 -0.2361654 -0.089207254 -0.21602134 0.57294494 0.04018922 -0.17296623 -0.030983618
0.11780044 -0.055445585 0.021748701 -0.77843416 -0.18082115 -0.5844109 -0.09514816 -0.09210233
-0.08337836 -0.036017038 -0.048906405 0.5397504 0.4296853 0.18502446 -0.012402365 -0.044030607
0.10830629 -0.019872945 -0.046765096 0.39784488 0.24383886 0.04676416 -0.028085332 -0.22927077

actor.0.bias f4 [64]
00000000: 382f 4ebb 6096 063c d843 573d 6a54 09bb
00000010: 281d 07bb da81 44b8 6327 0fbc a3fd 2b3d
00000020: f928 1dbd 5728 5d3d a636 0abd e6b4 6f3c
00000030: 4559 c23b 3f41 153b 3962 213d c025 30bd
00000040: eed2 5e3b 1497 00bd 6485 353c a0d4 f83b
00000050: ecc4 7e3c f452 99bc 9769 2fbd 0cf7 d8bb
00000060: e6a9 f53c 2059 5a3c e801 8fbb 1200 283d
00000070: 1806 3b3d 18ea 233c a56d bfbc c2ae 0fbb
00000080: e808 663b d53b 1a3b 4d6a ba3c 5c19 1dbd
00000090: 4384 1a3c 0267 053d 3c2d 17bc b34b 0b3c
000000a0: 3e30 d9bc bb95 2cbb 18ef 9b3c 4bff 86bc
000000b0: 28f3 73bc 3ad8 22bc 78bb 94bc 802a 40bb
000000c0: db38 aa3c b6a6 9fbc d284 17bc 400a efbc
000000d0: 7d4e 373c f5a8 653c d39f 9b39 089a 2fbc
000000e0: 1ec0 46bd dab9 7c3b 727d 693b 38cd 1ebd
000000f0: 7256 823c d3be dcbb b21d c53c 9cbd eabc
-0.003146125 0.008214563 0.052554935 -0.0020954856 -0.0020616744 -4.6850975e-05 -0.008737418 0.041989934
-0.038369153 0.05399355 -0.033743523 0.014630532 0.005931052 0.0022774485 0.039400313 -0.04300475
0.0034000236 -0.03139408 0.011079166 0.0075937063 0.0155498795 -0.018716313 -0.042825308 -0.006621247
0.02998824 0.013326913 -0.004364241 0.041015692 0.04566011 0.010004543 -0.023367712 -0.0021924232
0.0035100523 0.0023534198 0.022755766 -0.038354263 0.009430948 0.03256894 -0.009227093 0.008501935
-0.026512261 -0.0026334364 0.019034907 -0.016479155 -0.014889516 -0.009939248 -0.018155798 -0.0029322207
0.020779064 -0.019488674 -0.009247975 -0.029179692 0.011188147 0.014017333 0.00029682982 -0.010717876
-0.04852306 0.0038562925 0.003562775 -0.03876993 0.015910361 -0.006736615 0.024062011 -0.028654866

actor.2.weight f4 [64, 64]
00000000: 2107 933e 57d2 81bd 6d45 7d3e 2c18 cbbe
00000010: e443 eb3d de95 e93d d40c 6cbe 5f83 053e
00000020: a829 b03d 3385 67be 6358 4c3e 7cf3 3f3e
00000030: c918 973c 2c31 b33d 650a c7bc 550b 5f3e
00000040: 8e63 373e ef86 9f3e d3d6 123d 46c2 ca3e
00000050: 67ed cebd e15b 0a3e b00c c5bd 66f9 c93a
00000060: d3fa bf3d cf82 7c3c b8c9 0b3e e619 2a3e
00000070: 0cfb 1fbe 009d ec3e 9885 bcbe 44ec 08bf
00000080: 19b7 563e cf3f 3f3e eae7 853d 215c 9e3e
00000090: df84 273e 8c58 e03d 8eda b03e c8a9 5c3d
000000a0: 11c6 113f aff1 f0bd 5767 52be d179 513e
000000b0: 6be1 873e 149a e73d 53c5 8abd c059 40bd
000000c0: 7fdb d03c ba19 8c3d d551 b2bd b0c2 cbbd
000000d0: 33b9 3d3c 6cce 853e 3313 813e f2d3 24be
000000e0: 8e7e 5a3d ed4a 7a3e 38d5 933b 0f9e 4f3e
000000f0: 6338 6d3e e4ed 16bf 4597 bc3e b3b6 8dbe
00000100: 50fc 0fbe 754c eebd a93b 603e f2cc b73e
00000110: 7f2f 603e 25dd 1bbe baf6 04bd b95e f0be
00000120: 6c33 223d c6b2 5a3d 7ae2 40be f1d1 87be
00000130: 3803 743e de73 3abd c774 bdbe 6395 693e
00000140: 77c9 bfbe 7b21 00be e77b d43e 3cc3 223c
00000150: 0781 9f3d fd33 d7bd fb28 a9bc 626d 543e
00000160: 3334 90be 430a 863e 1706 963d fe99 d83d
00000170: 273b 013d 0d6e 1b3e 3e21 293d ab62 9f3d
00000180: ee7b 83be 600c 83be 2f66 5d3c d048 6c3e
00000190: 9741 e7be 21d2 653e fe96 423d ef09 7dbe
000001a0: 0070 44be 3036 a1bd 8763 e83e 9d88 80be
000001b0: 8b8f 00bf 965f 28bd 2464 723e 6790 093d
000001c0: cedd 583d 1169 dabe 8edd c73d d339 b03e
000001d0: 8081 dd3d 2d46 50bc 7293 20be fe39 0e3c
000001e0: d81e 883e 010b 943e 5149 013d d8c5 6ebe
000001f0: 65a8 2ebd 3779 af3e 041e a13e 929c 7f3e
00000200: 63b1 33be 06e1 4d3b 0a65 023e 1e58 a33e
00000210: fcce c8bb 885e 8abc fa36 81be c9c9 0bbe
00000220: 3512 043f 425d d8bd 6841 ee3d 00c7 c6be
00000230: e643 e43e 49ac acbd bd27 7e3d fdf7 c9bc
00000240: a4fc a6bc 3d03 503e c5d2 b4bc 94a2 df3c
00000250: 2315 a8bc 73ca d1bc 50fb 23be 230c 803e
00000260: 3340 313c 76de 853e 5bed 80be 6af7 b93d
00000270: 30df cd3d c5a9 603e b072 14be 0ae8 4dbe
00000280: b03c 233e 61d4 7abe c7e8 833e 83a6 d6bd
00000290: 9dc2 d63d 1b24 753e ede2 c0be 5699 30bd
000002a0: ac0f 22be 7b53 b43e 7f72 fd3d 4556 a2be
000002b0: 20fd f43c 04cf 02be 9d6f 8e3d 9ff3 6a3d
000002c0: d5b3 803e 8db8 06bf 99e4 8b3b 29ad 65be
000002d0: be61 083e 7a80 a0be c014 d8be d252 01be
000002e0: 81c7 893e b190 89be 2998 693e 8eeb 0f3c
000002f0: 0e14 be3e 0e2e 173e 4baa 503e 5e2c 2a3e
00000300: 5357 f7bd 28c3 05b9 310e c0be 9253 45be
00000310: 5fa5 26be 358e 733e 72e3 7fbe fe6f b23e
00000320: 0f64 d6be 9846 d23c 9104 70bd 2341 b93e
00000330: 53e6 83be 7bc1 c1be 464b 43bd 400b c73e
00000340: 8237 d93e b0e5 083e 81f9 7ebe 5584 063e
00000350: c2d0 b9bd 286a d53e 4121 33bd 6112 c23d
00000360: 36ea 703d b4b6 fcbe 65fb 643e 92f5 4bbd
00000370: ae75 11bf 0e30 5fbd 512b d0bc 59a5 18bd
00000380: 512c 32be 5e6e c0bc 462c 8abc 8254 ddbb
00000390: 02c5 b63c b3d0 fc3c 18d8 b53c f88c 0bbe
000003a0: 243d 7c3d 402b fbbd 568c 83be 6ea3 d7bd
000003b0: f8aa 0d3d 8d9f a13e c3aa e83c 349a 073e
000003c0: afee 44be 1312 8e3e 6169 5b3e 2c9d 08be
000003d0: 91cc 1bbe 9d86 3c3d 489a e1bd 5cf4 5f3d
000003e0: 23ea 0abe c8d4 c6bd 8fa2 afbe d5df 363e
000003f0: 36ca 92be cfa8 6d3e 288e 05bd afdf 8a3e
0.28716376 -0.06338947 0.24733515 -0.3966688 0.114875585 0.11405538 -0.23051769 0.13038395
0.08601695 -0.22609405 0.19955592 0.18745226 0.018444436 0.08749613 -0.024296949 0.21781667
0.17909071 0.31157634 0.035849404 0.39601344 -0.10103875 0.13511612 -0.096215606 0.001540941
0.09374013 0.015412047 0.13651168 0.16611442 -0.1562311 0.46213531 -0.36820674 -0.5348551
0.20968284 0.18676685 0.06538375 0.30929664 0.1635928 0.10954389 0.34541744 0.053872854
0.5694285 -0.117648475 -0.20547234 0.20456626 0.26539168 0.11308685 -0.06775918 -0.046960592
0.025495289 0.068408445 -0.087070145 -0.09949243 0.0115797995 0.2613405 0.2520996 -0.16096476
0.05334335 0.24442644 0.0045115016 0.20275138 0.23166041 -0.5895674 0.3683416 -0.2767845
-0.14061093 -0.11635677 0.21897759 0.35898548 0.21893118 -0.15221079 -0.03246186 -0.46947268
0.03959982 0.053393148 -0.18836394 -0.2652736 0.23829353 -0.045520656 -0.37003157 0.22810893
-0.37458393 -0.12512772 0.4150078 0.009934243 0.07788282 -0.10507963 -0.020649424 0.20744851
-0.28164825 0.26179704 0.0732538 0.10576247 0.031550553 0.151787 0.041291468 0.07782491
-0.25680488 -0.2559538 0.013513132 0.23074651 -0.4516723 0.22443439 0.04750728 -0.2471082
-0.1918335 -0.078716636 0.45388433 -0.25104228 -0.5021903 -0.041106783 0.23671013 0.03358498
0.052945904 -0.42658284 0.09759055 0.34419116 0.10815716 -0.012712044 -0.15681246 0.008680819
0.26586032 0.28914645 0.03156406 -0.23317659 -0.042641062 0.34272167 0.31468213 0.2496207
-0.17548136 0.0031414642 0.12733856 0.31903166 -0.00612819 -0.01689078 -0.25237256 -0.13651194
0.5159028 -0.105646625 0.11633569 -0.388237 0.44583052 -0.08431298 0.062049616 -0.024654383
-0.02038414 0.20313735 -0.022073159 0.027299203 -0.020517891 -0.02560923 -0.16013837 0.2500926
0.010818529 0.26146287 -0.25181088 0.090803936 0.10052335 0.21939762 -0.14496875 -0.20108047
0.15941119 -0.24495079 0.25763533 -0.10480978 0.10486338 0.23939554 -0.3767313 -0.043114983
-0.15826291 0.3521994 0.12375354 -0.31706443 0.029905856 -0.12774283 0.06954882 0.05736124
0.251372 -0.5262535 0.0042691943 -0.22429337 0.13318536 -0.3134802 -0.4220333 -0.1262925
0.26910022 -0.26868203 0.2281195 0.008784188 0.37124676 0.14763662 0.20377462 0.16618487
-0.12077203 -0.0001275657 -0.37510827 -0.19270161 -0.16274022 0.23784716 -0.24989107 0.34851068
-0.41873214 0.025668427 -0.058598105 0.36182508 -0.2576166 -0.37842926 -0.04767921 0.3887577
0.42425162 0.13368869 -0.24899866 0.13136418 -0.090730205 0.41682553 -0.043732885 0.09476162
0.05881711 -0.4935814 0.22361524 -0.04979474 -0.5682019 -0.054489188 -0.02541128 -0.037267063
-0.17399718 -0.023490127 -0.016866814 -0.006754459 0.022310738 0.030861234 0.022197768 -0.13627994
0.061581746 -0.12264109 -0.25693005 -0.105292186 0.034586877 0.3156704 0.028401738 0.13242418
-0.19231676 0.27748165 0.21426918 -0.13341206 -0.15214755 0.046026815 -0.11015755 0.0546764
-0.13565879 -0.097085536 -0.3430371 0.17858823 -0.286699 0.23208927 -0.032606274 0.27123782

actor.2.bias f4 [64]
00000000: dacf d3bb d1c0 b53c 251a 9b3c 15cf 3dbd
00000010: f0ff a23c b42b 143c 6938 e2bb b60d a3bc
00000020: 8f8a 4fbc 6287 c73b c86f 91bc a215 183d
00000030: 5ac0 3fbc c460 5d3c 6371 963c 7986 aebc
00000040: c38a f73c 1f12 923a 8f0c 373d 33aa 36bc
00000050: 7cdd 49ba ac5d b5bc 049a b8bb acce 33bc
00000060: 2c9c 6cbc cbac 28bc 0b0e f5bc 3d1b 8dbc
00000070: c670 a63c 8489 303b 813a 953c 26fb 8bb9
00000080: a177 2d3b d13f 1a3d fb60 63bc 23d1 113d
00000090: 5fe7 59bc d1b9 bdbc e16a e4bc 1038 b7bc
000000a0: ec81 5bbc 447e 093d ae4a 92bb 11fa 1cbb
000000b0: e9ac 023c 88c2 423c aed4 a53a c9d6 9abc
000000c0: a292 4fbd 97a1 e4bc 833c 2f3d 678d 4abc
000000d0: c641 a6bb ff9e 9e3c 1122 323c 87b2 eebc
000000e0: d3de f03c b780 acbc 0990 17bd b520 fbbc
000000f0: 58fb dfbc 48f9 6a3c ee88 1fbd d512 72bc
-0.006463987 0.022186669 0.018933365 -0.046340067 0.019897431 0.009043623 -0.0069036973 -0.019903999
-0.012667312 0.006089137 -0.017753497 0.037130006 -0.011703575 0.01351184 0.018364614 -0.021304356
0.030217534 0.0011144317 0.04468971 -0.011148977 -0.0007700545 -0.022139393 -0.0056335945 -0.010974567
-0.014441531 -0.010295103 -0.029913923 -0.017224902 0.020317446 0.0026937434 0.018216373 -0.00026699266
0.002646901 0.037658516 -0.013878102 0.03559984 -0.013299792 -0.023159893 -0.027882995 -0.0223656
-0.013397675 0.033567682 -0.004464469 -0.0023952762 0.007975795 0.0118872 0.0012651884 -0.018901246
-0.05067695 -0.027909083 0.042782318 -0.0123628145 -0.005073759 0.019362925 0.01087238 -0.029137863
0.029403126 -0.02105747 -0.037002597 -0.030655244 -0.02734153 0.01434166 -0.038948946 -0.014774998

actor.4.weight f4 [4, 64]
00000000: 8c97 edbd d2ff c6bc 00cc e6bd 9005 ed3d
00000010: c45b 30be a698 ffbd 1e59 f23d 1c78 1f3e
00000020: 73cf e93d 9ffc 0fbe f73c f13b 6836 e7bb
00000030: 8e2f f93d 3196 01be f830 17be 6417 ec3d
00000040: f8a1 4fbd 77e4 19be f4cc f13c 5535 6d3c
00000050: dcfd 4d3d 9786 143e 8c1b 08be c8c4 613c
00000060: d8f1 96bd 4c0c e63d 43ba 153e e86e fc3d
00000070: 457a 11be d307 0abe 31e8 e6bd bb02 8fbd
00000080: 837e 19be 14f6 e4bd e8e3 bdbd 7c07 10be
00000090: c7b7 bd3d 7f75 ef3d 8974 9a3d 51df b6bb
000000a0: e627 853c cad5 61bd f04c 0a3e 8bff 00be
000000b0: 0ba5 2abd 4b66 14be 3029 993d 33fa 183e
000000c0: b81c 0f3e d862 a13d 4e15 1abe 0671 073e
000000d0: b597 e3bd b770 b13c c4f2 f1bd b651 033e
000000e0: ae5c f83d 3aaa 07be cc00 0b3e 9d9b df3d
000000f0: 948a 253e 2d29 0cbd e333 d03c db28 003e
00000100: 74f9 203e 2dc4 83be 9382 30be 40ca 443e
00000110: 764e 18be dcc9 5cbd 42da 01be 2d42 65bc
00000120: 16a9 0ebe 3d38 cf3b b1d3 45be bb85 57be
00000130: 04c7 743e 635a 85be ec91 2ebe 70d1 443e
00000140: 2c2f 273e e1c9 f9bd db57 573e 0e52 5fbe
00000150: 88b1 67be cea1 b0bd 9910 6cbd beea 5bbe
00000160: 495c c9bd ce5b 863e b991 bdbd 368e 603e
00000170: def3 833d 62cf fd3c 4761 a63d bec2 263e
00000180: 2a0c e4bd d557 61be 03a2 e93d 4eb0 f13d
00000190: 7929 01be 71f3 493e 7c43 663e c55a 26be
000001a0: da42 343e ac0a 1c3e f12c 083e 2bdd 87be
000001b0: 7942 60be 8093 5cbe d9a0 553e 392d 6e3e
000001c0: ecc9 763c 6a05 6d3e ccd2 14bd 309a 18be
000001d0: 786a dabd aa17 5b3e f0f0 043e e389 1f3e
000001e0: bfb6 6ebd d578 493d 48da 773e 11f4 303d
000001f0: 48a6 8c3d 5fcb 3cbe 355d 5abe 1e14 4c3d
00000200: 1ac2 373e f8d8 593d 9198 3a3e 82cf 56be
00000210: ddab 683e 7ecf 123e 71f6 43be f897 68be
00000220: 51d3 4abe 1fa3 413e 3e3a bfbc cc26 9a3d
00000230: 3095 3fbe dfa8 573e c980 4e3e bdbc 5cbe
00000240: ff3e f33d 8398 4e3e d9c3 06bd e6c3 f0bc
00000250: 38b0 cfbd 3b1a 5ebe 839a 1f3e 49fd 42bd
00000260: 0c05 f03c 6940 3abe d429 70be 6328 5ebe
00000270: e514 553e 1ea6 483e e1b3 463e 8634 113e
00000280: ee60 433e 3d14 583e 6ee3 0a3e f83b 623e
00000290: a64a f9bd b4ca 4cbe 39ff 34be 357d ed3b
000002a0: e3aa 4dbd 7a05 093e 5ebb 26be 1f78 4d3e
000002b0: 6d67 b73d 27fe 5c3e 649e 21be 6493 60be
000002c0: 92e5 70be a619 28be 7bd3 773e 4968 47be
000002d0: 87fb 013e ee27 11bd c88c 403e 6f93 5cbe
000002e0: f14f 30be 2c15 3e3e c2c9 7abe e0ac 44be
000002f0: 49f3 68be fa65 bc3d 9b86 a4bd 43a2 fdbd
00000300: e671 56be 8c1d 7e3e 0d55 e03d ce3a e9bd
00000310: e295 04be 6533 8ebd c47e 513e 5a02 613e
00000320: d46c 6c3e f3ad 32be e193 4c3e 1f60 3b3e
00000330: b598 40be 98fd 3e3e 0272 1c3d 5679 a6bd
00000340: 2c3f 48be 0272 d6bd 7375 58be df74 643e
00000350: c028 783e 51e6 5b3e 3393 c3bd 8f7e 693e
00000360: 1922 023e 94d5 65be 5bf8 623e b618 1fbe
00000370: 046d 5cbe 76b2 5cbe 8fed 22be b7d3 4abe
00000380: b5b5 b8bd 0512 253e 8e03 36be 045d 6dbe
00000390: a409 353e 49f5 8dbd fbdc 27be 2a57 2c3e
000003a0: a777 2bbe 17f0 3ebe 1f51 843b 330d 3a3e
000003b0: 01ae 4e3e f828 a13c 9d57 35be 4121 11be
000003c0: f7e0 5f3e 296b 3cbe 7985 49be 61e8 5c3e
000003d0: cac0 633d 16c0 58be be0c 4cbe 693d 02bd
000003e0: c068 423e 7e34 42be 8097 01be b3ef 053e
000003f0: 8748 5d3e d88c 2b3e 1600 6f3e c2be e43c
-0.11601171 -0.024291907 -0.11269379 0.115733266 -0.17222506 -0.12480287 0.11833404 0.15573162
0.11416521 -0.14061211 0.007362004 -0.0070560463 0.121672735 -0.1265495 -0.14764774 0.11527899
-0.050691575 -0.15028559 0.029516675 0.014478047 0.050290927 0.14504467 -0.13291758 0.013779826
-0.07370347 0.11232814 0.14621834 0.12325841 -0.14206798 -0.13479547 -0.11274756 -0.06982943
-0.14989667 -0.11179748 -0.09271985 -0.14065355 0.09263568 0.116923325 0.075417586 -0.0055808206
0.016254377 -0.055135526 0.13505912 -0.12597482 -0.041661303 -0.14492147 0.07478559 0.14939193
0.13975799 0.07880181 -0.1504719 0.13226709 -0.1111292 0.021660192 -0.11813882 0.12824139
0.12127052 -0.1324853 0.13574523 0.10918353 0.16166145 -0.034218956 0.025415367 0.12515585
0.15720159 -0.25735608 -0.1723731 0.19217777 -0.1487368 -0.053903446 -0.12680915 -0.013992828
-0.13931689 0.006323843 -0.19319035 -0.21047108 0.23904043 -0.26045522 -0.17047852 0.19220519
0.16326588 -0.121967085 0.21029608 -0.21808645 -0.22626317 -0.08624612 -0.057633016 -0.21476266
-0.09832055 0.26241916 -0.0925631 0.21929249 0.06442998 0.030982677 0.08124023 0.16285226
-0.111351326 -0.22006162 0.114078544 0.118012056 -0.12613477 0.19721772 0.22486681 -0.16245563
0.17603627 0.15238446 0.13298394 -0.26535925 -0.21900357 -0.21540642 0.2086214 0.23259439
0.01506279 0.23146597 -0.036333844 -0.14902568 -0.106648386 0.21395746 0.12982535 0.15579943
-0.05827975 0.0491875 0.24204361 0.04320151 0.06867653 -0.18436955 -0.21324618 0.049823873
0.17945138 0.053185433 0.18222262 -0.20977595 0.2272181 0.14336964 -0.19136979 -0.22714221
-0.19807173 0.18909882 -0.023343202 0.07526931 -0.18709254 0.21060513 0.20166315 -0.21556373
0.1187725 0.20175366 -0.03290162 -0.029390287 -0.10141033 -0.21689694 0.15586285 -0.047604833
0.029299282 -0.18188633 -0.23453456 -0.21695094 0.20808752 0.19594619 0.19404556 0.14180192
0.19079944 0.2110147 0.1356332 0.22093189 -0.12172441 -0.199992 -0.17675485 0.007247592
-0.0502118 0.13380995 -0.16282412 0.20065354 0.08955274 0.21581326 -0.15783077 -0.21931225
-0.23525074 -0.16416034 0.24201767 -0.19473375 0.12693606 -0.03543847 0.18803704 -0.21540616
-0.17217995 0.18562764 -0.24491027 -0.19206572 -0.22749056 0.09199138 -0.080334865 -0.123844646
-0.20941886 0.24815959 0.10953722 -0.11388169 -0.12947801 -0.069433965 0.20458513 0.21973553
0.2308839 -0.17449169 0.19978286 0.18298386 -0.18808253 0.18651426 0.038194664 -0.08128612
-0.19555348 -0.10470964 -0.21138553 0.22310208 0.24234295 0.21474577 -0.095495604 0.22802185
0.1270832 -0.22444755 0.22165053 -0.1553677 -0.21525961 -0.21552452 -0.15910934 -0.19807325
-0.09019033 0.16120155 -0.17774794 -0.23180014 0.17679459 -0.0693155 -0.16392891 0.16830125
-0.16744862 -0.18646275 0.0040379907 0.18169098 0.20183565 0.019672856 -0.17709203 -0.14172842
0.21863161 -0.18400253 -0.19679822 0.2157302 0.05560378 -0.21167025 -0.19926736 -0.031796847
0.18985271 -0.18965337 -0.12655449 0.13079719 0.21609698 0.16752946 0.23339877 0.027922992

actor.4.bias f4 [4]
00000000: abda 79bd a352 55bc aadb 3e3d ed35 3bbc
-0.060999554 -0.01302019 0.046596207 -0.011426431

exp_avg f4 [64, 8]
00000000: 8655 19ba abf9 71bc b30e ea39 8146 083c
00000010: 4a1c e6b9 5541 0b3a 089d a30c 42d9 620b
00000020: bfa3 fbb9 c7a0 39ba dd82 95b8 6438 db38
00000030: 0aa0 58b8 824f 0c38 2b97 a98b 73c9 878a
00000040: 3e40 fe3a 66c2 cb3c 2a81 153a 3ac5 77bc
00000050: 87fb c03a 3df4 97ba 12c2 2a8d 1375 688b
00000060: 1f23 13bb 63ae 1bbd 6dd8 9e39 8bd6 993c
00000070: d814 b5ba 904d ab3a 04d8 3e0d 71e5 e90b
00000080: e8c5 35ba 0532 e3bb 4fa3 2eba 2313 7e3b
00000090: d7f6 1aba acdc bb39 61e2 1d0c 20ab 460a
000000a0: 8c8c 2fb8 0026 0c3b 070f c4b9 c57d 83ba
000000b0: 71de 83b8 c00d 49b8 99d8 b88a 2f63 828a
000000c0: 3450 dd38 6820 3e3c f247 9cba 655b cabb
000000d0: f2d1 cdb8 e84e 87b9 9f58 b58c bcb6 658b
000000e0: b3cc 81ba b423 5c3b 944a 0cba f2ec b8bb
000000f0: 29d3 9f38 d8ef 35b9 93ec bc8c 82a7 188b
00000100: 8d61 00bb 17fa 84bc cacb 24bb 162b 293c
00000110: 0a91 00bb 5fef 903a 5d39 140d 05a6 b90b
00000120: 2784 84ba a6ca 0e3b d7ea 92ba 9328 09bb
00000130: d944 cab9 8b91 7c38 72fe 4c8c fa9b 6d8a
00000140: 0bac 823a fcc3 0d3c 4ada 8d38 7fd5 f4bb
00000150: 3559 293a 7163 13ba b1f4 9c8c 5662 4c8b
00000160: 3c5f a1ba d3d8 51bc 0b35 47ba 6a87 143c
00000170: 4293 81ba 10a2 323a 3f4b cb0c ab86 880b
00000180: b5c5 87b9 19d1 e9b9 f9c3 8239 3688 97b9
00000190: b731 fb38 846e d2b7 7ef5 d08b a906 008a
000001a0: 50f1 b03a bbc0 f53c 0d09 84b9 113c 7fbc
000001b0: 35ca 953a 2adb 8cba e424 378d e167 f08b
000001c0: e6f3 6b3a ef34 1e3d 9ad7 73ba dddd a3bc
000001d0: 0920 9b3a 28b5 a9ba 8228 7e8d 4900 218c
000001e0: 51b0 9fba 5035 0bbd 0779 843a 4662 8f3c
000001f0: 2a3c 76ba 981f 913a f0d1 3c0d 52cf f10b
00000200: ffb1 e1b9 a895 a8bb 4bea 3739 ad0f e33a
00000210: e276 b9b8 bc16 0039 9d09 b08b 8993 0c8a
00000220: fc50 74ba 37a7 933b dee7 acba 34dd 66bb
00000230: 774b b5b9 f0f1 3eb8 049a 518c 1dbb ee8a
00000240: 1daa ea39 3339 d8ba f2a1 433a 9877 c83a
00000250: 3823 8d39 d172 e7b7 ee97 2c0c 8103 bf0a
00000260: e6ae f2ba d95a d1bc 0b91 2eba cb97 833c
00000270: 5310 c7ba 3a6b 9e3a a2b8 4e0d 3a56 ff0b
00000280: 59cf fc38 986e 45ba 6d9e 05b9 54f3 883a
00000290: af5e 0eb9 028f bb38 5564 ee0a 01fa 8189
000002a0: a453 7eba a8a9 afbc 4dc7 4838 c026 253c
000002b0: 94cf 54ba bfeb 3e3a 753a ab0c 9031 4e0b
000002c0: 61d3 033a 6fd3 ffba 7357 3f39 7f55 d63a
000002d0: 91da b9b7 09fa b538 8905 4d0c 40d6 e90a
000002e0: bee8 3cba c908 bcbc 2684 7139 88da 393c
000002f0: 66e1 59ba b1d1 4c3a cccc 0b0d 2fcb 940b
00000300: ff5c 8dba 058a d8bc 3f62 ad39 d02f 553c
00000310: 2ec9 6cba 70f2 673a 3054 ac0c a537 310b
00000320: 1b38 f3b9 7ba1 f1bb 99bc dd37 2761 823b
00000330: f259 b0b9 692f 9e39 7a68 1f0c ec19 1c0b
00000340: 8a53 45ba 1b87 ae3c b252 efba 214d 3bbc
00000350: 8d3b 9e38 2ba9 18ba a663 348d a62e db8b
00000360: 0dae a13a 223b 133d 46d4 b4b9 069f 94bc
00000370: 093e ac3a 3c38 a7ba b52a 5b8d b663 ea8b
00000380: 63d0 de39 65d0 95bc a7a3 1e3a 9a25 1a3c
00000390: 321e 02ba c8cf 1a3a 2050 e80c e7b2 940b
000003a0: 1a2b c8ba 4358 12bc c7ed 2dba 259a f63b
000003b0: aa52 59ba 5db3 123a 8aff 000d 0e56 8e0b
000003c0: 8d88 8c39 9870 b73c cf4d 1fba 9049 42bc
000003d0: c9a6 2e3a a34f 4fba 961c 258d 5219 b48b
000003e0: 2f90 163a 091c 15bc a5b0 483a 03ff 0d3c
000003f0: 99a2 70b9 91c8 e939 8fb0 fa0c e98c 970b
-0.0005849231 -0.014768998 0.0004464291 0.008317591 -0.00043890096 0.00053121644 2.5208636e-31 4.3689463e-32
-0.0004799645 -0.00070811476 -7.129249e-05 0.00010453237 -5.164746e-05 3.345265e-05 -6.5323884e-32 -1.3075804e-32
0.0019397808 0.02487297 0.0005703146 -0.015122706 0.0014723398 -0.0011593174 -5.26189e-31 -4.4769652e-32
-0.0022451354 -0.038008105 0.00030297358 0.01877906 -0.0013815416 0.001306938 5.880829e-31 9.009356e-32
-0.00069340924 -0.006933453 -0.0006661908 0.003876873 -0.0005911416 0.00035831833 1.2162963e-31 9.565538e-33
-4.1854146e-05 0.0021384954 -0.0003739523 -0.0010031989 -6.288e-05 -4.793494e-05 -1.780003e-32 -1.2555853e-32
0.0001055304 0.011604406 -0.0011923297 -0.006175446 -9.814267e-05 -0.00025807996 -2.7940802e-31 -4.424127e-32
-0.0009902924 0.0033590617 -0.0005351689 -0.0056434805 7.6210425e-05 -0.00017350854 -2.910837e-31 -2.9400154e-32
-0.0019589395 -0.016232533 -0.0025145882 0.010325214 -0.00196177 0.0011057666 4.567507e-31 7.1509206e-32
-0.0010110185 0.0021788268 -0.0011208904 -0.0020928725 -0.00038579738 6.021703e-05 -1.5792158e-31 -1.1440471e-32
0.0009969486 0.008652683 6.7640634e-05 -0.00747174 0.0006460131 -0.0005622423 -2.4182874e-31 -3.936295e-32
-0.0012311707 -0.012808043 -0.00075991516 0.009065488 -0.0009885805 0.00068143103 3.132239e-31 5.258792e-32
-0.0002589651 -0.00044597013 0.00024941543 -0.0002890245 0.00011977873 -2.5085414e-05 -8.048806e-32 -6.1642285e-33
0.0013499651 0.029999128 -0.00025183745 -0.015578286 0.001142806 -0.0010746468 -5.6435634e-31 -9.2600937e-32
0.0009000882 0.0386247 -0.00093018415 -0.020003254 0.0011835109 -0.0012947666 -7.8318552e-31 -1.2403075e-31
-0.0012183284 -0.03398639 0.001010687 0.017502915 -0.00093931204 0.0011072038 5.8184676e-31 9.3141764e-32
-0.00043047962 -0.0051447935 0.00017539521 0.0017323397 -8.843631e-05 0.000122155 -6.78072e-32 -6.768503e-33
-0.0009319929 0.0045060175 -0.001319166 -0.0035227062 -0.00034579236 -4.5524852e-05 -1.6147122e-31 -2.298895e-32
0.00044758702 -0.0016496539 0.00074627914 0.0015294431 0.00026919856 -2.7590811e-05 1.3296118e-31 1.8393949e-32
-0.0018515259 -0.025556015 -0.00066591863 0.016063591 -0.001518736 0.0012086399 6.3700895e-31 9.8352166e-32
0.00012054918 -0.00075314334 -0.00012742887 0.0010448494 -0.00013577448 8.943492e-05 2.2956307e-32 -3.1290723e-33
-0.00097017945 -0.021443203 4.786933e-05 0.0100800395 -0.000811809 0.0007283054 2.6381904e-31 3.9711444e-32
0.00050287513 -0.0019517968 0.00018247757 0.0016352384 -2.2155496e-05 8.677325e-05 1.5794291e-31 2.2517676e-32
-0.0007206312 -0.022953408 0.0002303278 0.011343606 -0.000831148 0.0007813229 4.3079197e-31 5.7313243e-32
-0.0010785161 -0.026433 0.0003307033 0.013011888 -0.00090326637 0.00088480767 2.6551465e-31 3.4130822e-32
-0.00046390374 -0.0073739863 2.6433076e-05 0.0039788666 -0.0003363635 0.00030171432 1.2280354e-31 3.006401e-32
-0.0007527402 0.021304658 -0.0018258898 -0.011431963 7.545119e-05 -0.0005823548 -5.558673e-31 -8.442592e-32
0.0012335196 0.035945065 -0.0003449043 -0.018142235 0.0013141047 -0.0012757848 -6.753599e-31 -9.028355e-32
0.000424984 -0.018287847 0.0006051608 0.009408379 -0.0004963606 0.00059055956 3.5793483e-31 5.727671e-32
-0.0015271634 -0.008932176 -0.0006634858 0.0075256997 -0.0008290211 0.0005596185 3.975064e-31 5.482589e-32
0.0002680462 0.022392556 -0.0006076963 -0.011858359 0.0006662426 -0.000790829 -5.087896e-31 -6.9371576e-32
0.0005743531 -0.009100922 0.00076557166 0.008666757 -0.00022948756 0.00044590657 3.8624861e-31 5.83751e-32
